das_new - 副本/models/20260105_214042/best_model.pth (torch, 98946 bytes, 176 tensors)

input_conv.weight f4 [4, 1, 1, 3]
00000000: 7905 5c3e ba80 0a3f 794b f9be c81b e03e
00000010: ffb7 2fbe a7bb 0ebf c167 5e3e dd76 d540
00000020: 0da3 393e 4169 99be 27af ef3e b505 aabe
0.21486463 0.5410267 -0.48690394 0.43771195 -0.17160033 -0.55755085 0.21719266 6.6707597
0.18128605 -0.29963115 0.46813318 -0.3320748

input_bn.weight f4 [4]
00000000: a32a dd3f 7faa b53f ede0 613f f9a4 9d3f
1.7278637 1.4192656 0.88233835 1.2315971

input_bn.bias f4 [4]
00000000: a31c c03e 1075 a3be 25a0 ebbe 7064 7d3e
0.37521848 -0.3192525 -0.46020618 0.24745345

input_bn.running_mean f4 [4]
00000000: 1478 7a38 b7da 9eb7 bf03 413a 03b9 5838
5.9716476e-05 -1.8936915e-05 0.0007362924 5.167072e-05

input_bn.running_var f4 [4]
00000000: 7f28 903e b2fe e73c dd36 2b42 bbdb 573e
0.28155896 0.02831969 42.803577 0.21079914

layer1.conv1.weight f4 [4, 4, 1, 3]
00000000: 3f26 17be 431d 0abf 13ec 8d3e e2dd 32bc
00000010: cf11 7cbd 56e3 f53d 031a b4bd 55cc 003d
00000020: b215 b63d fcf4 84be a7cb 79bd 533d 4abe
00000030: 9375 3d3e 86fb a43f 99b0 e93c 6c5d 263d
00000040: 1f27 dcbe 2ce3 15be b369 303e 9b08 263e
00000050: 7a7c af3d 9e5d 143b 06f1 7c3f 395b 8dbe
00000060: 03dc ae3d f902 b6be adfe b9bd 46d6 37be
00000070: 5fd9 15bf c518 363e 4443 7b3e b3ff c7bd
00000080: 69fb 8abe 9491 febd 698d 50be b34f 163e
00000090: 576e 1cbe da85 f23e 23c0 143e ea57 053e
000000a0: 72b8 bdbe af06 8a3e 68fe f5bc 8c6e d23d
000000b0: 0c90 a23d e662 5ebe 77ec 953e 440f 993c
-0.14760683 -0.539509 0.27719173 -0.010917159 -0.06154042 0.120062515 -0.08794024 0.031444866
0.08890857 -0.25968158 -0.060985234 -0.19749956 0.18501882 1.2889259 0.028526591 0.040616438
-0.42998597 -0.1463744 0.17227821 0.1621422 0.08568664 0.0022638808 0.9880527 -0.2760866
0.08538058 -0.35549143 -0.09081779 -0.17952833 -0.58534807 0.17782886 0.24537379 -0.09765568
-0.27144936 -0.124301106 -0.20366444 0.1467884 -0.15276466 0.47367746 0.1452642 0.13021818
-0.37054783 0.26958224 -0.030028537 0.102749914 0.07937631 -0.21717414 0.2928197 0.018684037

layer1.bn1.weight f4 [4]
00000000: c7a8 5c3f 3c76 843f fac5 883f c2c5 503f
0.86195034 1.0348582 1.0685418 0.81551754

layer1.bn1.bias f4 [4]
00000000: 42cb e4bd 7d58 823f 4992 683e b8b4 b7be
-0.11171581 1.0183254 0.22712053 -0.35880065

layer1.bn1.running_mean f4 [4]
00000000: 0eb5 bfbe 37a8 923f 9404 f0be 82d6 af3e
-0.3744282 1.1457585 -0.46878493 0.34343344

layer1.bn1.running_var f4 [4]
00000000: 54b7 eb3e a7de d040 6bce 193f ff68 703f
0.46038306 6.5271792 0.60080594 0.9391021

layer1.conv2.weight f4 [4, 4, 1, 3]
00000000: 9b4f ecbd 9774 76be 9c38 12be 0c9e 08bd
00000010: c8ca a73f b36e 153e 5b5f 1abe d7f9 bdbe
00000020: 1a0c 13be 4c76 fe3d 14ff e63f 4939 1a3d
00000030: 6517 7bbe 4fd6 773e 88e6 28be 02d7 0b3e
00000040: a8ca 03bf ed81 4abe 9678 9abc 42a6 c33e
00000050: 05fa 82be 83d2 00be 349e 9abe 005a 2c3e
00000060: 4d05 993d 053b 853d e154 18bc 5fdc 9ebd
00000070: 48cf b3be 5c30 ebbd 2194 04be 0da4 be3e
00000080: d481 70be dd4b bbbd 0c29 50be d27c d4bd
00000090: 3895 8c3d 5517 4ebe 6de2 88be 8c54 183e
000000a0: 88d7 b03e 68b0 b5bd e4d6 13be 3958 063e
000000b0: 2dae ddbd f2d2 03be 4a56 c73d 70f1 3d3e
-0.11538621 -0.24067913 -0.14279407 -0.03335385 1.3108759 0.1459301 -0.15075438 -0.37104675
-0.14360085 0.12424907 1.8046594 0.037652288 -0.24520643 0.24202846 -0.1649419 0.13656238
-0.51481104 -0.19776125 -0.018856328 0.38212782 -0.25581375 -0.12580304 -0.30198824 0.16831207
0.07471714 0.06505398 -0.00929758 -0.07756876 -0.3511908 -0.11483833 -0.12947132 0.37234536
-0.23487025 -0.09145329 -0.20328158 -0.1037537 0.06864399 -0.20126088 -0.2673525 0.14876002
0.34539437 -0.088715374 -0.14437443 0.13119592 -0.10824237 -0.12873438 0.09733255 0.18549132

layer1.bn2.weight f4 [4]
00000000: 83fd f73e 32c7 b83f dc5c b23f 179c aa3f
0.48435602 1.443579 1.3934588 1.3328885

layer1.bn2.bias f4 [4]
00000000: 3319 ce3e 62af 7e3d 3b7e 193e a529 b0be
0.402536 0.062178977 0.1498956 -0.34406772

layer1.bn2.running_mean f4 [4]
00000000: f8ce b13f a8b9 aabe 46ca 38be 1295 d13e
1.3891287 -0.3334477 -0.18045911 0.40934044

layer1.bn2.running_var f4 [4]
00000000: a3d4 c340 a5df 113f cbe2 8c3e 9440 283e
6.1197066 0.5698188 0.2751678 0.16430885

layer1.fc1.weight f4 [1, 4]
00000000: 4d0b e83e dfc3 20be fbe2 39be d84d f5bd
0.45321122 -0.15699719 -0.18152992 -0.11977738

layer1.fc2.weight f4 [4, 1]
00000000: 5b05 e6be 7f7c 1dbf 9e65 333e 97c7 163e
-0.4492596 -0.6151809 0.17519233 0.14724575

layer1.fc2.bias f4 [4]
00000000: f2fe 1dbf 630a e83e 3971 493f 1807 52bf
-0.6171714 0.45320424 0.7868839 -0.82042074

layer1.shortcut.0.weight f4 [4, 4, 1, 1]
00000000: 5e5e 903e 60e9 16bf f263 24bf 686c 0e3f
00000010: 3fe6 adbe b428 49bf 1aec df3e 4ecb 24be
00000020: c2e8 cdbe 1386 dbbe 7175 f33c b340 dbbe
00000030: 9728 6abe 9a3f 42be e9c6 653e 0298 0bbf
0.28196996 -0.5894985 -0.64215004 0.55634165 -0.33964726 -0.78577733 0.4373482 -0.1609318
-0.40216643 -0.42875728 0.029719086 -0.428228 -0.22867046 -0.18969575 0.2243916 -0.5452882

layer1.shortcut.1.weight f4 [4]
00000000: 3797 543f 6241 b53f 8fef 953f 185c 1c3f
0.83043236 1.4160578 1.1713732 0.61078024

layer1.shortcut.1.bias f4 [4]
00000000: 16f4 ba3e 9b39 573f e5b2 073f 1d3e b7be
0.36514348 0.84072274 0.53007346 -0.35789576

layer1.shortcut.1.running_mean f4 [4]
00000000: 0843 383e f819 debe 5366 09bf 46ec cabe
0.1799432 -0.43379188 -0.5367176 -0.39633387

layer1.shortcut.1.running_var f4 [4]
00000000: e6e9 183f f1ca ff3e ad5a 403f 84dd ca3e
0.597319 0.4995952 0.7513836 0.39622128

layer2.conv1.weight f4 [4, 4, 1, 3]
00000000: 8bd3 62be bb00 a8be 849e 803e 5133 273e
00000010: a7c5 a23e 800d 62be 861e a3bd 2350 963e
00000020: 9634 3cbe dfde 8bbe 0af0 26bd 8a24 5dbc
00000030: 050b 45be 06df 00bf 9740 29be 1e14 453e
00000040: b08f 403e 1c76 61be 7f5f 063e 9223 853c
00000050: 6b21 89bd 0301 1e3e afe7 3b3e 8a23 3f3d
00000060: a5e1 54be 2f1f 13bf dac5 31be 2b1c 27be
00000070: 3bf5 abbe 31d4 843e 2964 0a3e ec20 893e
00000080: 5806 8e3d f0a5 13be 4f5e 7abe c02e 8cbe
00000090: eb4d 543d e767 2240 7259 703e b94d bfbd
000000a0: 8f26 02bf 8d2d 783e 59a8 7ebe 6d8a 98be
000000b0: e785 09be ffe7 1a3e 84c6 dd3e 75a3 71be
-0.2215101 -0.32813057 0.25120938 0.1632817 0.31791422 -0.22075462 -0.07964806 0.29358014
-0.18379435 -0.27318475 -0.040756263 -0.013497481 -0.19242485 -0.50340307 -0.16528545 0.19245955
0.18804812 -0.22017711 0.13122366 0.016252313 -0.06695827 0.15430073 0.18350099 0.046664752
-0.20789202 -0.5746946 -0.1736063 -0.16319339 -0.33585533 0.2594314 0.1351477 0.2678293
0.06934804 -0.14418769 -0.24450038 -0.27379417 0.05183212 2.5375917 0.2347162 -0.09340996
-0.50840086 0.24236126 -0.24868907 -0.2979311 -0.13429986 0.15127562 0.43315518 -0.2359751

layer2.bn1.weight f4 [4]
00000000: b2c6 893f e372 5e3f c728 6c3f 4dc7 943f
1.0763762 0.86894053 0.9224972 1.1623322

layer2.bn1.bias f4 [4]
00000000: 8c23 72bd 4ee3 a8bd 86e9 a43d 345f ba3e
-0.05911593 -0.0824648 0.080523536 0.3640076

layer2.bn1.running_mean f4 [4]
00000000: d733 ed3e c03d a5bd 42ad 22bf 94b7 7c3f
0.46328613 -0.080684185 -0.6354562 0.9871762

layer2.bn1.running_var f4 [4]
00000000: 7d96 bf3e 2fbc 843e 59e9 e23e 2c40 1741
0.374195 0.25924823 0.44318655 9.453167

layer2.conv2.weight f4 [4, 4, 1, 3]
00000000: 77c5 bb3d f7e4 99be c78c 933d 785a 8bbe
00000010: c055 873d 7baa cebd 78c3 65bd 3211 733e
00000020: 85dd 2ebd 1d2a 3ebd 2f6f ab3e 429d 153e
00000030: 38db 193d 8d5d 213f 25d6 c7bd bee2 72bd
00000040: fae0 2d3e 5dd6 dc3d c09c a73b c087 88be
00000050: 6999 72bd 8c9c 88be 44c9 30bf 10b5 d43d
00000060: 93b7 01be ab21 663e 26f0 c7bc cfcd 5d3e
00000070: 789a a13e fb57 223e 1f1e f33d d53b 35bd
00000080: 8319 d73d 11fd 713c a7db 1a3f d5ef 4abe
00000090: 586e 6c3e fd26 6cbe 072d 263e d4ad 3dbe
000000a0: 16ce e7be e7bc 85be 1d03 52be 9bc1 debd
000000b0: 4458 a33d 5c5b 15be f981 fe3e ea03 8ebd
0.09168523 -0.300575 0.072045855 -0.2721746 0.066081524 -0.1009111 -0.056094617 0.23737028
-0.042691726 -0.04642688 0.33483264 0.1461077 0.03756258 0.6303337 -0.09757642 -0.05929827
0.16980353 0.10783074 0.0051151216 -0.2666607 -0.059228335 -0.26681936 -0.69057107 0.103860974
-0.12667684 0.22473781 -0.024406504 0.21660541 0.31563163 0.15853874 0.118709795 -0.044246513
0.10502913 0.014769808 0.6049141 -0.19818051 0.23088968 -0.23061748 0.16228114 -0.18523341
-0.4527442 -0.26120684 -0.20509 -0.10876771 0.0797582 -0.14585632 0.49708536 -0.0693434

layer2.bn2.weight f4 [4]
00000000: 042a 0f3f efba 8a3f 78fa 373f 595e 4e3f
0.55923486 1.0838298 0.7186656 0.80612713

layer2.bn2.bias f4 [4]
00000000: 23a6 e5bd a30d e03d 1fa2 87be 32a7 cc3e
-0.11213329 0.10940101 -0.26490876 0.3997131

layer2.bn2.running_mean f4 [4]
00000000: 2aed 053e 9118 12be 4e12 c23e 7d33 063d
0.13078752 -0.14267184 0.3790459 0.032763947

layer2.bn2.running_var f4 [4]
00000000: 3931 2a3e c8e0 423f a9f0 c93e ff19 d63e
0.1662034 0.7612424 0.39441422 0.41816708

layer2.fc1.weight f4 [1, 4]
00000000: b7d1 b53d db46 cc3d 8b48 53bc cca9 a63e
0.088778906 0.09974452 -0.012895714 0.3255142

layer2.fc2.weight f4 [4, 1]
00000000: 62a9 ce3e 33fe c33d 6909 14bf 1fca 403f
0.40363604 0.09569969 -0.5782686 0.7530841

layer2.fc2.bias f4 [4]
00000000: a9d7 49bf 1375 df3d 13ac bf3e 8126 ae3c
-0.78844696 0.10911002 0.3743597 0.021258594

layer3.conv1.weight f4 [8, 4, 1, 3]
00000000: f828 313e 1911 4dbd caf8 193e 1f6e 79bd
00000010: 1be4 07bf 3d30 03be b860 283e b52e 1fbf
00000020: ab2c f6bc 9083 c7bd 73f7 24be b798 4abe
00000030: cda6 a2bd ce79 473e fff6 7b3d d0c2 fabd
00000040: dda4 16bf 96fb 01be 8669 bcbd f8d7 f4be
00000050: 4af5 853d 9d49 3e3e 6e24 8c3d fc40 3a3e
00000060: f6e0 9a3d 0b9d dfbd fe7e 6c3e 005f 38be
00000070: 3967 163f 6711 62be b63f 52be bb38 ea3e
00000080: 31e7 36be 5ac4 44bd 75e4 05be 285b 80bb
00000090: f9f4 3bbe f174 083f 84c9 7fbe ec11 8e3d
000000a0: bd94 c5bc c366 51bd 8568 763d cd66 203f
000000b0: 452f f4bd 3026 5bbe 6f3b 593e 2081 343e
000000c0: 4165 513b bfc5 933e 33bf 163e 4150 663e
000000d0: d187 883c c8fe 3cbe fe0b 003d 0638 90bc
000000e0: 6556 ef3c cf92 81bd 7735 863d a3f3 063e
000000f0: 5c64 5fbe 1ab4 fd3e 6729 163e 2439 0a3e
00000100: 1974 cabc ea7f ae3d 0549 673e df08 fa3d
00000110: ba8c 753e fe5f 76bd 6c0d e6bc 7bc4 52be
00000120: bd40 3e3e 82eb ac3f 80f5 80be 6277 3a3e
00000130: 7c3a 8abf 5ff6 bbbd cb55 143e 5387 8abe
00000140: 5414 923d 3a89 c6bd a677 953f 055b bc3d
00000150: b30c 8fbe 9e0b bf3e 7f54 8a3e 765c 1fbe
00000160: 8183 b83d e6df 67be d35a 5abe c5f7 97bc
00000170: a089 aa3d 95c5 37be 247a 423f 1d7b a83d
0.17300785 -0.050065134 0.15036312 -0.060896035 -0.53082436 -0.1281137 0.16443145 -0.62180644
-0.030050596 -0.097418904 -0.1611002 -0.19784819 -0.07941971 0.19480059 0.06151485 -0.12244189
-0.5884531 -0.12693629 -0.091998145 -0.4782102 0.06540926 0.18582769 0.06842886 0.18188852
0.07562439 -0.109186254 0.23095319 -0.1800499 0.58751255 -0.22076951 -0.20532116 0.45746407
-0.1786163 -0.048038818 -0.1307543 -0.0039171167 -0.18355168 0.5330344 -0.24979216 0.06937012
-0.024118776 -0.05112339 0.06015827 0.6265686 -0.119230784 -0.21401286 0.21214078 0.17627382
0.0031951221 0.28861806 0.14721374 0.22491552 0.016666325 -0.18456566 0.031261437 -0.017604839
0.029216 -0.0632683 0.06553166 0.13178878 -0.21815628 0.4955147 0.14664231 0.1349836
-0.024713563 0.085204914 0.22586448 0.12208723 0.23979464 -0.06015014 -0.028082572 -0.20582764
0.18579383 1.3509371 -0.25187302 0.18209603 -1.0799098 -0.09177851 0.14485852 -0.2705637
0.071327835 -0.09694143 1.1677139 0.09197048 -0.27939376 0.3731355 0.2701759 -0.15562615
0.090094574 -0.22644004 -0.21323709 -0.018550763 0.08327031 -0.17946465 0.7596762 0.08226607

layer3.bn1.weight f4 [8]
00000000: 8b63 8d3f 683a 9a3f 982c a03f a0d5 643f
00000010: f6c2 433f 0715 473f 1fa0 8f3f 5f63 553f
1.1046003 1.2049074 1.2513609 0.89388466 0.7646936 0.7776646 1.122074 0.83354753

layer3.bn1.bias f4 [8]
00000000: b8cb febd 9065 503e ce33 31be bfaa 973c
00000010: cf00 15be b07b eabd f4d7 41be 2d5b 95bd
-0.124412 0.20351243 -0.17304918 0.018514035 -0.1455109 -0.11449373 -0.18930036 -0.07292781

layer3.bn1.running_mean f4 [8]
00000000: 742f bbbf 8a0c 93bf 5279 953f b253 7f3f
00000010: 498f 6f3e e8f7 cd3e b5fe d9be ed81 343f
-1.4623857 -1.1488202 1.1677649 0.99737084 0.23394503 0.402282 -0.4257714 0.7051075

layer3.bn1.running_var f4 [8]
00000000: b359 213f f019 3d3f cf75 303f 5a18 de3f
00000010: 0828 813e 53be 143f 85d3 8041 bd15 0a40
0.63027495 0.738677 0.6892976 1.7351182 0.25225854 0.5810291 16.103281 2.1575768

layer3.conv2.weight f4 [8, 8, 1, 3]
00000000: 64e0 35be 9bf0 b83e 43d4 113e 4b8f bebd
00000010: 1284 073f ddcb 15be c402 48be 665b 96be
00000020: 0a3b 3c38 defe 5a3d 819f 2d3e fe97 29be
00000030: 428a 393e e697 103e c8ab 003e cc7f 22be
00000040: 6c8f 523e 910f 923d f2b4 323e 5538 b03d
00000050: 379e 24be 7ebb 893d 6e11 1b3e 7352 14bd
00000060: b782 0e3e 218a 863e d6aa 073e 0f82 97bd
00000070: 2513 1d3f 3bff c6bd 5bfd ff3d 8fb0 0d3f
00000080: df3d 1b3d 694a ae3d fc97 fc3e 31f5 41be
00000090: 5785 203d b70e f83e 614d 2ebe 96a7 3b3e
000000a0: 3c34 d73e 1e9d 043e b5c1 2ebe 7598 a63f
000000b0: e9c9 b2bb 0d9e 9bbd dd82 2e3f a8df 19be
000000c0: 14c7 373e bcdd 10be 6632 b53b e875 ad3d
000000d0: 2f81 b2bd 9375 363e e0c1 153e 8a02 163e
000000e0: 12ef 3d3d a4e9 bcbd c3e0 f8bc 4b63 423e
000000f0: 6508 a0bd 81d4 993e bc28 49bd 2e9d c33d
00000100: adcc 2f3e 0ab8 193e 676e 0cbe 48ee 9e3c
00000110: 7a4b 2c3c 2f41 65bd d398 3f3e a683 c23c
00000120: 9315 2bbe d8a5 c53d 5778 cd3b 80c8 37be
00000130: 272b f43d 4772 03bd 4a13 27bd dc81 b53e
00000140: afdd 10be bf04 543c 5292 1d3e 0ee9 b13d
00000150: 9f53 69bd 3927 423e 46ce 1e3e a3a6 8bbc
00000160: 5d47 58bc 9247 093d 537b 0dbd 4a8d 533e
00000170: 39f8 7d3d 0304 b5bd 0650 8dbd c3da 9e3d
00000180: 4fc2 c7bd 7878 20bf 29d7 d8bd 0429 b33c
00000190: b7d5 f2be 50fe 753d e7c2 3e3e 4edf 71be
000001a0: c2fc 313e fd7e a63c 5722 4cbe 6d50 20bc
000001b0: 7d9e bdbd d375 e53c 6080 9ebd fdd4 323d
000001c0: 69a1 5a3e 292b 223e eec1 4abe 9871 1bbf
000001d0: 55f9 f13d c052 06be c5d9 a9bc e220 123e
000001e0: 1512 453e 4f4e ebbe ee96 89bd 818a 85bd
000001f0: 6347 47bf 00a3 ddbc e155 be3d 4e04 30bf
00000200: 81da 9bbc 4bfc 13be 587c a2be c3c2 00be
00000210: 819b 6a3d e3ed 07bf 3c10 083e 8c50 d6bc
00000220: 481e cdbe 1cd3 21bd b002 d73d 4e2f 1fbf
00000230: 5d04 81bd cee4 3cbe 2537 bcbe c67e 03be
00000240: a2c4 1c3e 066c 5e3e fbb5 bcbc 707d d7bc
00000250: 3353 523e b4b3 04be 421a 313e 9222 1c3f
00000260: 868f 7dbb 86bb 963d d651 bbbe 470f c13c
00000270: 7af9 a73d f418 973c c97a 9cbc 63a6 f83d
00000280: 9469 cbbd 043e bb3d f572 a93d 1457 6fbe
00000290: 6d9f 543c aeb3 13bb 70e0 56bd 2147 7cbd
000002a0: 1c4b 13be 7820 b93e 4461 8cbd 188f 093e
000002b0: 4704 f73e 0907 b8bd 9e92 003e cca0 483f
000002c0: 443c 2c3e 71f3 4cbd 07ab f63e c85c 04bd
000002d0: 15e5 77bc a3a7 923e 0dfc edbc 008b 363e
000002e0: 62d4 e33e 5186 41bd f3e9 113e 6195 1b3e
000002f0: 3c32 0cbc 0f95 503c 66f6 883e e5a3 17be
-0.1776138 0.36121067 0.14241128 -0.09304675 0.529359 -0.14628549 -0.19532305 -0.29366606
4.4877677e-05 0.053465717 0.16955377 -0.16561887 0.18119147 0.14120445 0.1256553 -0.15869063
0.20562524 0.07131875 0.17451838 0.086044945 -0.16075979 0.067252144 0.15143368 -0.036211442
0.13917051 0.2627726 0.13248762 -0.073978536 0.6135734 -0.0971665 0.124994956 0.5534753
0.0379008 0.08510286 0.49334705 -0.1894119 0.039189663 0.48448727 -0.17021705 0.18325648
0.4203204 0.1295056 -0.17066081 1.3015276 -0.0054561985 -0.07598505 0.6816843 -0.15026724
0.17947036 -0.14147085 0.0055296896 0.084697545 -0.08716046 0.17818289 0.14624739 0.14649406
0.046370573 -0.09224251 -0.030380612 0.1898319 -0.07814101 0.3004494 -0.049111113 0.09551464
0.17167921 0.15011612 -0.1371399 0.01940073 0.010516042 -0.055970367 0.18710642 0.023744415
-0.16707449 0.09650773 0.006270449 -0.17947578 0.11922293 -0.032091405 -0.04078988 0.35450637
-0.14147066 0.012940585 0.15387848 0.0868703 -0.056964513 0.18960275 0.15508375 -0.017047232
-0.013200608 0.03351552 -0.03454144 0.20659366 0.0620043 -0.08838656 -0.06900029 0.07756569
-0.09753858 -0.6268382 -0.105879135 0.021870144 -0.47428676 0.060056984 0.18629037 -0.2362034
0.17381576 0.020324225 -0.19934975 -0.0097848 -0.09258745 0.028010285 -0.07739329 0.043660153
0.21350636 0.15836777 -0.19800541 -0.60720205 0.118151344 -0.13117504 -0.020733723 0.14270356
0.19245179 -0.45958182 -0.06718241 -0.06520558 -0.778433 -0.027055264 0.09293724 -0.6875657
-0.01902509 -0.14451711 -0.31735492 -0.12574296 0.057277206 -0.5309736 0.13287443 -0.026161455
-0.40062165 -0.03950797 0.104985595 -0.62181556 -0.0629966 -0.18446657 -0.36760822 -0.12841329
0.15309384 0.21720895 -0.023035994 -0.02630493 0.2053955 -0.12959176 0.17295173 0.6099025
-0.0038690283 0.07359986 -0.36585873 0.023566855 0.08201881 0.018444516 -0.019101517 0.12141111
-0.09932247 0.09142688 0.082738794 -0.23373061 0.012977463 -0.0022537517 -0.052460134 -0.06159127
-0.1438412 0.36157584 -0.068544894 0.13433492 0.4824545 -0.08985717 0.1255593 0.78370357
0.16819865 -0.05003685 0.48177359 -0.032315046 -0.015130301 0.28643522 -0.029050851 0.17826462
0.44497973 -0.047247235 0.14249401 0.15193702 -0.008556899 0.012730851 0.26750487 -0.14808615

layer3.bn2.weight f4 [8]
00000000: b602 8d3f d702 5e3f 535b 503f c26c 643f
00000010: 79fb 833f 083b 7e3f c91e 703f 4280 723f
1.1016452 0.86723083 0.8138935 0.8922845 1.0311118 0.99308825 0.93796974 0.94726956

layer3.bn2.bias f4 [8]
00000000: 1c71 273f f63a cc3e caba e8bd 42a5 5d3e
00000010: db34 b6bd b7f3 0f3f 021d 1cbe e0f9 7ebe
0.65406966 0.39888734 -0.11363752 0.21645072 -0.088968 0.56231254 -0.1524544 -0.24900007

layer3.bn2.running_mean f4 [8]
00000000: dfdc e03e 8a09 b33f b6cb aa3d 64fd b03e
00000010: 64b0 3dbf ec0b acbf 417c 923e 2ece 843f
0.4391851 1.3987286 0.08339636 0.34568322 -0.74097276 -1.3441138 0.28610423 1.0375421

layer3.bn2.running_var f4 [8]
00000000: 0512 8b3f 8821 1241 6311 4c3e fac2 463e
00000010: d1f7 733f 3fe2 9240 2c5d f23e a487 0a40
1.0864874 9.133186 0.19928508 0.19410315 0.9530001 4.590118 0.4733671 2.1645288

layer3.fc1.weight f4 [2, 8]
00000000: 4e22 4d3e 6dbe 053e 48a4 50be 4108 2ebd
00000010: 5a40 663e 95a2 623b 6e39 953e 10b8 4ebc
00000020: 8180 b03e c59d 553e 5284 5d3d a034 83bb
00000030: 4d97 60be 6c27 1ebe a181 243d 4ff8 993e
0.20032617 0.13060923 -0.20375168 -0.04248834 0.22485486 0.003458177 0.29145378 -0.012617126
0.3447304 0.20860966 0.05408127 -0.004004076 -0.21932717 -0.15444726 0.040162686 0.30072257

layer3.fc1.bias f4 [2]
00000000: 9f36 a73e 1e6e 28be
0.3265886 -0.16448256

layer3.fc2.weight f4 [8, 2]
00000000: 10c0 1c3f 8422 e23e c90b 123f be3e 823e
00000010: 9ad5 013e b49e f8be d80b bbbe 7a09 973e
00000020: efc3 debe a1bb f23e f934 7dbe 6075 403e
00000030: 962c b8be 25a5 743e 7923 27bf b56a 9b3e
0.61230564 0.44166958 0.5704923 0.25438493 0.12679139 -0.4855858 -0.36532474 0.29499418
-0.4350886 0.47408774 -0.24727239 0.18794775 -0.35971516 0.23891123 -0.652885 0.30354849

layer3.fc2.bias f4 [8]
00000000: 04b1 2a3f 22aa 0cbf 6626 923d 4633 043f
00000010: 19a4 1d3e ac87 c8be 2c56 7c3d efba 1abf
0.66676354 -0.549471 0.0713623 0.5164074 0.1539463 -0.3916601 0.061605617 -0.6044149

layer3.shortcut.0.weight f4 [8, 4, 1, 1]
00000000: 69f4 133e 935b 8abf bf7e bcbe b1c4 98be
00000010: 8a25 923b 038c fabd 9f21 9bbe 04df ed3e
00000020: 2996 a03e 4474 9cbd 8ad8 e93d 070c ef3e
00000030: 760b e4be 33da 6f3e f505 693e 9834 c1bd
00000040: c7a1 e4be 979a f1bd ad90 b33e f68c 01bf
00000050: 7af4 34bf a66a a7be 6856 81be 86d8 58be
00000060: 943c 473e c9ad 423f f5c7 133f 6d4b 9dbe
00000070: e8ec 13be 0653 713e bb57 b3be 3c40 c1be
0.14448704 -1.0809196 -0.3681545 -0.29837564 0.0044600414 -0.12233736 -0.30299088 0.4645921
0.31364563 -0.076393634 0.11418255 0.46688864 -0.44539994 0.2342308 0.22756179 -0.094338596
-0.44654676 -0.11797064 0.35071316 -0.50605714 -0.7068554 -0.32698554 -0.25261235 -0.21176347
0.19456702 0.76046425 0.57726985 -0.30721608 -0.14445841 0.23566827 -0.3502787 -0.3774432

layer3.shortcut.1.weight f4 [8]
00000000: bf84 963f 9062 6d3f aabe 6a3f d303 863f
00000010: e0dc 873f b361 793f f287 883f 87ac 7e3f
1.1759261 0.9272852 0.9169718 1.0469917 1.0614281 0.974147 1.0666487 0.99482006

layer3.shortcut.1.bias f4 [8]
00000000: bd2d c93e 489c 613e 1af1 b8bd e47a fabd
00000010: 5e06 3e3e 8a8f ad3e 9797 debe 866a b0bd
0.39292708 0.22032273 -0.090303615 -0.12230471 0.18557116 0.33898574 -0.4347503 -0.08614068

layer3.shortcut.1.running_mean f4 [8]
00000000: cdc0 fdbf 3a17 7dbe 7fd2 d33e 1730 593e
00000010: b589 d6be a918 a9bf cdfa d53f 052f 53be
-1.9824463 -0.24715891 0.41371533 0.21209751 -0.41901937 -1.3210651 1.6717163 -0.20623405

layer3.shortcut.1.running_var f4 [8]
00000000: 6f4a 9f3f c234 b73e 5946 a23f 0cdd 433f
00000010: 33b9 a73f 831d db3f 71bd 5b3f 99ed 543f
1.244459 0.3578244 1.2677718 0.76509166 1.3103393 1.7118381 0.8583594 0.83175045

layer4.conv1.weight f4 [8, 8, 1, 3]
00000000: 82f1 16be 5f0c 84be e252 053e 196d 70bc
00000010: cbb8 58be 40af 2bbe b392 1d3e 05ae 28be
00000020: bba8 403e 74e8 37be 9932 53bd 3847 6bbd
00000030: c3f7 543d df23 233e 3341 dd3d b299 efbd
00000040: 4f33 8a3e 91bb 903d d73c 373e 6b07 b1bd
00000050: 7865 3ebb 92fa 153e c40f 48be b22c 643d
00000060: c3f7 f23d 500b 25bd 3b2d a9bc d6f9 1abe
00000070: c5ed e63d 8ff6 48be 5a7d 663c bfb0 ae3e
00000080: 0377 13be fc5a 88bd cf63 c13c c7b5 18be
00000090: 0f55 49be 9d34 a13d 96b3 c8bd 0d96 4a3d
000000a0: c7a3 abbc 0d35 adbc b5ee 913d b797 4bbd
000000b0: f3f3 c73d 5046 acbd 4073 923d 0899 103e
000000c0: 9788 43be 9d33 0fbf b7d9 31be 6553 f63d
000000d0: aa53 a1bc 4473 243d 256e 0c3d a25b 67be
000000e0: e06c 06be 446c 03be ab92 81bd acb1 61bd
000000f0: 6f5f 2d3e 8862 9e3e 8214 a53d 7393 07be
00000100: e453 ba3d a687 b13d 90ba 85bc 7bf7 b8be
00000110: 24f8 cabd b923 26be faca 223d 118b 1b3d
00000120: 3951 5bbd 6621 5dbe b431 cfbc ceb3 2a3d
00000130: 6842 533e 8501 beb9 da15 913d ec5c 0f3e
00000140: 6523 373e 5ff0 92bd 1075 20be 3895 18be
00000150: 544e 12be a01c 46bf 3f77 b63c 14b6 76bd
00000160: 236d 82be f595 dbbd dd6e a8bd f036 37be
00000170: fe34 fbbd ac97 85bd 4213 b7bd 9551 8c3d
00000180: f074 cf3d 1b15 7abe fd05 d93d 4831 04bb
00000190: 3c32 67be b735 b93d 9f4c 39be d0cb 8bbe
000001a0: f44b d3bc 41ea 93bd d2de 9dbd 4f86 5f3d
000001b0: 9bee 8f3d c3e1 24be 2bf5 ad3d 3b71 0fbe
000001c0: 21ea 0cbd 84f6 16bd b5a3 febd f8b4 1fbe
000001d0: c4b7 99bd ed12 76bd 0428 07bd 0fc1 36bb
000001e0: e8cd ef3c c720 44bf 83ae 38be d87d 0dbe
000001f0: 70a8 e8bc 807b 69ba d2d4 f1bd 98d5 d1bd
00000200: c5ef 7a3d 4ced 193e c198 cd3c 4b30 07be
00000210: 0984 d5bd 5f80 ae3e df96 0a3e ef99 ef3d
00000220: e5e2 83bd 82f2 d93d f3ba 0fbe 5466 f6be
00000230: fb79 cd3d 27d2 393e dd4e 82be 8126 7cbd
00000240: 8901 3b3e 37eb acbe f7ee d6bd 88df 98bd
00000250: 2085 a9be b6a6 c4bd 338c 46be 32dc c6bd
00000260: a591 743d 974b 3c3e f822 543d 7cd4 323e
00000270: 830e 9a3d cea3 b83e a80d 02bd 50bc 3cbe
00000280: 6150 88bc 5a73 793d 1be9 0b3e 1413 98be
00000290: 02a9 993d 04ca 16be 1511 85be c0a3 453b
000002a0: e1c1 0abe f149 483f b394 213e 45f3 42be
000002b0: ed64 bd3d 6e70 3a3d 1bf0 823d e2e5 98be
000002c0: 6bda bf3d 37ed 7e3d 619a 7c3d cd95 ebbc
000002d0: 700a 36be ac6d 85bd 8c11 39be 78f2 c7bd
000002e0: d75c 39be a5df b1bd 7717 ad3c f260 dabe
000002f0: 6c14 383e 8370 0c3e baca 463c 254b 9d3d
-0.14740565 -0.25790688 0.13019899 -0.014674448 -0.21164243 -0.16766071 0.15387993 -0.16472633
0.18814366 -0.17959768 -0.051561926 -0.057440966 0.051994096 0.15931652 0.108034514 -0.11699237
0.2699227 0.070670255 0.17894302 -0.08643993 -0.002905218 0.14646366 -0.19537264 0.055706687
0.11863663 -0.04029399 -0.02065145 -0.15134367 0.1127582 -0.19625305 0.014067972 0.34119222
-0.14400868 -0.06657979 0.023607163 -0.14913093 -0.19661354 0.07871363 -0.09799878 0.049459506
-0.020952119 -0.02114346 0.07125608 -0.049705233 0.097633265 -0.084118485 0.071508884 0.14120877
-0.19095074 -0.5593813 -0.17368208 0.12027625 -0.019693214 0.04014899 0.03428473 -0.22593549
-0.1312747 -0.12834269 -0.06326803 -0.05510108 0.16930936 0.30934548 0.08060552 -0.13239841
0.09098032 0.08668451 -0.016324311 -0.36126313 -0.0991061 -0.16224565 0.039744355 0.03797442
-0.053544257 -0.21594772 -0.025292255 0.04167538 0.206308 -0.00036240756 0.07084246 0.1400029
0.17884596 -0.071747534 -0.15669656 -0.14900672 -0.14287692 -0.7738743 0.022273658 -0.060232237
-0.2547389 -0.107219614 -0.082242705 -0.1789205 -0.12265967 -0.0652307 -0.0893922 0.06851498
0.10129726 -0.24422114 0.10596845 -0.0020170975 -0.22577757 0.090434484 -0.18095635 -0.27303934
-0.025793053 -0.07222415 -0.07708515 0.054571446 0.07027932 -0.16101746 0.08494028 -0.14008038
-0.03440297 -0.03685619 -0.124335684 -0.15596378 -0.07505754 -0.060076643 -0.032997146 -0.0027886068
0.029272988 -0.76612514 -0.18035321 -0.13817537 -0.02840063 -0.00089066476 -0.118081704 -0.10245818
0.06126382 0.15031928 0.025097253 -0.13202016 -0.10425574 0.34082314 0.13534115 0.116992824
-0.06439761 0.10641958 -0.14036159 -0.48124945 0.100330316 0.18146573 -0.25450793 -0.061560158
0.18262304 -0.33773205 -0.10494798 -0.0746451 -0.3310938 -0.0960211 -0.1938942 -0.09709968
0.05970921 0.1838821 0.05179116 0.17463869 0.07522299 0.36062473 -0.031751305 -0.1843121
-0.01663989 0.060901023 0.13663141 -0.29702055 0.07502939 -0.147255 -0.25989595 0.0030157417
-0.13550521 0.78237826 0.1577938 -0.19038112 0.09247766 0.045517378 0.06393453 -0.29862887
0.09367832 0.062237944 0.061670665 -0.028757954 -0.17777419 -0.06515059 -0.180731 -0.09763044
-0.18101822 -0.08685235 0.021129353 -0.42652088 0.1797654 0.13714795 0.012133295 0.07680348

layer4.bn1.weight f4 [8]
00000000: dc74 7d3f 4ecf 7b3f 121c 833f afc0 593f
00000010: f300 693f be3d 8e3f 68f5 7f3f d38c 6b3f
0.9900644 0.98363197 1.0242941 0.85059637 0.91017073 1.1112592 0.99983835 0.92011756

layer4.bn1.bias f4 [8]
00000000: b228 173d 14d4 93bd 3acf c13d 9b0d 9f3e
00000010: a00a a1bd 7503 513e 9fc8 253d e57b 9cbe
0.036904044 -0.07218185 0.094633535 0.31065068 -0.07863355 0.20411475 0.04047453 -0.30563274

layer4.bn1.running_mean f4 [8]
00000000: 3da6 0abe 6baf 1c3e 1c7f 10bf f74c 5cbf
00000010: 34e0 34bf fd77 6fbf bf5c 07bf aff9 de3e
-0.13539977 0.15301292 -0.56443954 -0.8605494 -0.70654607 -0.9354246 -0.52875894 0.43549868

layer4.bn1.running_var f4 [8]
00000000: d308 753f bdf3 d63e 59bf a13f 4ee2 ec3e
00000010: 83bf 703f d51b c63f 1f62 a83f ae89 c53f
0.9571659 0.41982833 1.263652 0.46266407 0.94042224 1.5477244 1.3154944 1.5432642

layer4.conv2.weight f4 [8, 8, 1, 3]
00000000: 0f33 143e db72 8fbd c364 a43d 51c9 59bd
00000010: 123e a1be 653b 983c e618 19be b880 0bbe
00000020: c8d7 9b3d 779b 2abe 9f1c bfbe 58b2 17be
00000030: a7c9 33be 3717 3ebd 2643 0f3e 03d0 b2bd
00000040: e9bf 323e 034e 3f3e 7cd2 20be bc40 f73d
00000050: 8ae6 ff3c f667 1bbe b2d6 0b3f b52b 7fbd
00000060: 1ac0 293e 0eb4 8bbc 13c3 233d 5e75 3abe
00000070: 1b3c f73e 4b47 febd 0210 263d 917c e6be
00000080: b3dd 053d 410d 423e 5458 e93e a6f7 04be
00000090: e313 383d 3a5d 5a3e d16c eebd 0092 3abe
000000a0: a031 73be 9cc2 d4bc 9861 1b3d d68b afbe
000000b0: 049f cf3d c762 3cbe 0501 c7be dde6 1fbe
000000c0: 5905 373e 47f1 13be 1eda 0dbe de07 e93c
000000d0: 7cee 213e d41f 65bd e0a1 2dbe 4277 663c
000000e0: e1bb 07be 8701 00be d1c0 f43e 3609 ff3d
000000f0: 4340 cd3c f73b ba3c 5c89 6ebd 3243 c43d
00000100: 14f0 dabd 1981 02bd 1f39 06be 28c0 88bd
00000110: d804 963d 51f9 413e f8ca a5be 8f5b 2fbe
00000120: d3f0 023e 5a2e b9be 4c43 053e 587e 1dbe
00000130: f7a5 8bbf 0554 3b3e cd9d a93c 650a 21bd
00000140: 5a62 08be 5901 11be 5cdd f7be 04af 8ebd
00000150: 74e8 ee3d 14a9 873e fc5c 993d cd29 a9bd
00000160: 9a39 63bd 755d 413c aae9 32be 66da 4bbe
00000170: b809 2ebe 5954 df3d a015 61be f64f a1bd
00000180: fc3e 153e 8daf 2cbe f9a4 a2bd e3f9 153e
00000190: e845 d33c 4c0c 15be 764f bd3d edab 72be
000001a0: d387 093e 9b50 29be 5c99 f7bd b350 443e
000001b0: 30a3 023e c427 ae3d fdfe 353e c050 233e
000001c0: 58b8 acbe 0331 153e 722b 20be 7ed5 bebd
000001d0: 28a9 d83c 6028 d83d 7f3e a93e 4649 0ebe
000001e0: 1848 113e bd23 6b3e 3edf 48be d0c6 b83b
000001f0: 74fd 0f3f a159 0cbe db93 003e de19 323e
00000200: fc32 b23d 88b8 e6bd b29f 02bf 6ff4 be3d
00000210: fa7b 90bd 6a76 603e 551b 283e c13f aa3d
00000220: 9273 803e 7146 903d d96b 30bd 3dc6 723e
00000230: 9d6c 07be aebd 043e 1498 5ebe b4d0 a13d
00000240: f66e 483e f10f 46be c43f 7f3d cabc 2abe
00000250: 54d9 583e 2e39 24bd 1f4f 10be 6985 a8be
00000260: fd0f ca3d ee2a 153e aa5d bf3e 3b94 16be
00000270: 3066 c03d 04dc 163d 3bd6 3fbe 4a41 6d3c
00000280: 92b3 ffbe c9b2 3bbe e44d 6ebd 86b1 54be
00000290: f605 55bd a702 de3d e616 b9be 407e 93bd
000002a0: 9b96 293e 0373 4ebc 2cbc 653d d9b0 ddbd
000002b0: 7951 26bf 7219 15be 623d 0d3e 167b 41be
000002c0: d272 d5bd 9452 24be 24aa f4bd d406 5f3d
000002d0: f1b3 d9bd 8d09 9b3e dd5d 2dbd cf7e 403d
000002e0: 1247 d2be c412 8a3d 2ed4 b53d 0087 143d
000002f0: 330f 72bd ae8d 1b3e 790a 5abf ed7e 79bd
0.14472602 -0.07004329 0.08027031 -0.053170506 -0.31492668 0.018583009 -0.14950904 -0.13623321
0.076095164 -0.16660868 -0.37326524 -0.14814126 -0.17557393 -0.04640886 0.13990459 -0.08731081
0.1745602 0.18682103 -0.15705293 0.12072894 0.03123786 -0.15176377 0.54624474 -0.06229754
0.16577187 -0.01705363 0.03998096 -0.18208835 0.48288044 -0.12415942 0.04054261 -0.45016912
0.032682132 0.18950368 0.45575202 -0.12985095 0.04494084 0.21324626 -0.11641849 -0.18219757
-0.23749399 -0.025971703 0.03793487 -0.34286374 0.10137752 -0.18397056 -0.38867965 -0.15615411
0.17873134 -0.14447509 -0.13852736 0.028446134 0.15813631 -0.055938557 -0.16956282 0.014066519
-0.13255264 -0.12500583 0.47803357 0.12452929 0.025055056 0.022733672 -0.058236465 0.09583129
-0.106903225 -0.0318614 -0.13107727 -0.06677276 0.073251426 0.18942763 -0.32381415 -0.1712477
0.1278718 -0.36168176 0.13013953 -0.15380228 -1.0910023 0.1829377 0.020705128 -0.039316554
-0.13318768 -0.1416067 -0.4841107 -0.06966975 0.11665431 0.26496184 0.074884385 -0.08259926
-0.055474855 0.011802067 -0.17471948 -0.19907531 -0.16995895 0.1090476 -0.21980906 -0.078765795
0.14574808 -0.16863842 -0.07941622 0.14646105 0.02579017 -0.14555472 0.092436716 -0.23698397
0.13430719 -0.16534655 -0.12089798 0.1917141 0.12757564 0.085036784 0.17773052 0.15948772
-0.33734393 0.14569478 -0.15641573 -0.09318064 0.026447847 0.10554576 0.33055493 -0.13895139
0.14187658 0.22962852 -0.1961641 0.0056389347 0.56246114 -0.13706066 0.12556402 0.1739268
0.08701131 -0.11265665 -0.51024926 0.09323966 -0.07054897 0.21920171 0.16416676 0.08312941
0.25088173 0.07044686 -0.0430716 0.23708434 -0.13225026 0.12962982 -0.217377 0.07901135
0.19573578 -0.19342019 0.06231667 -0.1667358 0.21176654 -0.040093593 -0.14092682 -0.32914284
0.09866331 0.14567158 0.37376148 -0.14704983 0.09394491 0.036830917 -0.18734066 0.014480898
-0.4994169 -0.1832992 -0.05817975 -0.20770845 -0.052007638 0.1084035 -0.36150283 -0.07201815
0.16561358 -0.012600663 0.056087658 -0.10824747 -0.6496807 -0.14560488 0.13792947 -0.1889461
-0.10422291 -0.16047126 -0.11946514 0.05444987 -0.10630024 0.30280724 -0.042325843 0.046995934
-0.41069847 0.067418605 0.08878361 0.03626156 -0.059096526 0.15190765 -0.8517223 -0.06091206

layer4.bn2.weight f4 [8]
00000000: a230 693f deee 6e3f 0f7a 333f 7d47 5a3f
00000010: 868a 853f 5811 983f b6b9 853f 6f5f 753f
0.9108983 0.9333323 0.7010812 0.8526533 1.0432899 1.1880293 1.04473 0.95848745

layer4.bn2.bias f4 [8]
00000000: 7a05 213e 25a6 2b3d 2ade a8bd 7718 0a3e
00000010: a625 64be c918 c0be 69e3 8c3e 83a1 0f3b
0.15724745 0.041906495 -0.082454994 0.13485895 -0.22279987 -0.3751891 0.2751725 0.0021916337

layer4.bn2.running_mean f4 [8]
00000000: 8940 98bb 5e3b 83be 02e7 193b 92a1 25bf
00000010: 4604 a3be d4f2 913e e6f8 f2be ebb3 25bf
-0.004646365 -0.2563123 0.0023483639 -0.6469966 -0.31839198 0.28505576 -0.4745552 -0.6472766

layer4.bn2.running_var f4 [8]
00000000: e361 853e 21ea 443f ad83 773e b95b ed3f
00000010: 9ebb 263e 7471 9c3e 8ceb f53e aa9b 463f
0.26051244 0.7691975 0.24171324 1.8543617 0.16282508 0.30555308 0.4803127 0.77581275

layer4.fc1.weight f4 [2, 8]
00000000: 27e2 9f3e d2a9 cb3d 9f94 b13d 0e5f 81be
00000010: bff5 babd 340e 9bbe a0f4 8dbe 6bee 7bbc
00000020: 64fd 4d3d 37e8 00bd 6be1 1e3e 0974 a73e
00000030: 64ae e83d 09ff 903e 5157 e4bc f3da a4bd
0.31227228 0.099445 0.08670925 -0.25267833 -0.091289036 -0.30284274 -0.27725697 -0.0153766675
0.05029048 -0.031471457 0.15515678 0.32705715 0.11361387 0.28319576 -0.027873667 -0.08049574

layer4.fc1.bias f4 [2]
00000000: 3702 0dbe 885c 1abe
-0.13770376 -0.1507436

layer4.fc2.weight f4 [8, 2]
00000000: 199c 8ebe b160 38be 8a68 23be 936a ff3e
00000010: 060f e7be 413b 32be 760b 253f 2c72 3abd
00000020: e03f 703c 0131 2dbe 32a5 203f 3c10 073e
00000030: e243 25bf e456 223f 22b8 113f f18f 363e
-0.27853468 -0.18005635 -0.15957847 0.49885997 -0.4512865 -0.17405416 0.64470613 -0.04551904
0.0146636665 -0.16913225 0.6275207 0.13189787 -0.64556706 0.63413835 0.5692159 0.17828347

layer4.fc2.bias f4 [8]
00000000: 5344 193f dc8b 9dbe 62a1 dabe f06a 32bd
00000010: 77ed 823e 3aa3 ddbe 38e5 b6bd 9c0f 32be
0.5986988 -0.30770767 -0.4270125 -0.043559015 0.25571796 -0.43288594 -0.08930439 -0.17388767

layer5.conv1.weight f4 [16, 8, 1, 3]
00000000: 4805 093e a866 723e 9dc3 35be 5172 523d
00000010: 8679 9e3e ba95 fbbb 6a87 8a3d 75a6 e03d
00000020: bb1e c8bd 41f1 0d3e 430f 9f3c fcb6 1ebd
00000030: c9c3 b3bd 336c 983d b1f4 60bd 6dee 19be
00000040: 3feb a8bb 8b48 3f3e ec07 f2bd 0727 2a3e
00000050: 06f4 78bd 01ad 733d 9f8d 82bd 15b3 aa3d
00000060: ec84 1cbe f502 853e 3c98 bd3d bbb9 1b3e
00000070: 4a21 93bb 258f 123e cceb 45bd 69c7 c2be
00000080: 443a 323e a1ef 063e 0d66 c23d c777 803d
00000090: 0494 373d aaba 99be c33c 13be 0893 2abd
000000a0: eed4 8dbd 0865 eebd ff69 3ebe 91c2 d13d
000000b0: fea6 95bd fd82 3f3e 3d29 d6bd 0eb1 d2bd
000000c0: c959 353d fec5 8b3e 594b d23d 5466 243d
000000d0: 6696 3c3e 7a67 9f3d 603e 023d ae57 ae3d
000000e0: e73c e5bd e8d4 25be f116 33be 47a2 093e
000000f0: 61f6 1e3e 1621 223e 8437 48be 9eb8 a8bc
00000100: fef7 85be 1634 1ebe c5a7 193e e88f 0d3e
00000110: c600 d1bd 344f 9c3d e517 9dbd 7aef 62bc
00000120: 0474 e6bd da55 903e b324 2ebd 6ba7 493e
00000130: b902 163e e2fa 0e3d b096 a63c f38e 8ebe
00000140: ccd7 a73d 2639 2d3c e645 edbd 7270 b83d
00000150: 76ad 42be 56fa 1f3e 64ea 1ebe 5ca4 93bd
00000160: bfb9 b03e 0853 5ebd 7051 a13d 8017 0dbe
00000170: f30a b53d ebb8 28be 210f ecbd a7fe 373e
00000180: 68d6 6a3d ad40 21be cc8a dfbd 44c8 29be
00000190: fd71 023c 58c4 643c acb6 febd 4ef7 2abe
000001a0: 52f4 37be 4f1d 943d 98df d4bd 48d7 2a3e
000001b0: bce6 dd3c e830 923c be3e 48be 807f abbd
000001c0: c44e 16bf 79e3 5ebd c2a4 f6bd fae8 de3d
000001d0: dcb4 343e 7392 e53d 0863 11be 8736 66bd
000001e0: f97d edbd 5d90 bd3d 728b 203e 96cd 333e
000001f0: 792e 133e 105a 41bb edc4 8d3d a1c0 6e3e
00000200: ca6f 963d 3d62 013e 9f28 19be 81f9 cb3d
00000210: fd75 6e3c 6ba0 1f3d 20d9 373e 2632 c6bd
00000220: d7f6 1b3d 9b49 123c 477b e03d de04 053e
00000230: a265 ff3c 1473 38be 78f0 203d e1cb b6bd
00000240: e0bc 59bc 9dd1 703e e713 23be fc78 40bd
00000250: 7663 7a3d 40a2 1fbd beaa dfbd 9bf4 13be
00000260: 7bc6 a33c a514 0cbe 4a3c 093e f9eb 06be
00000270: f61f 02bd b782 8bbd f3ae b83d fd95 003e
00000280: 17ad 8c3d 9fe1 cfbc 9168 183d 7b15 64be
00000290: f7fd efbd 5dc0 cabd 47a6 d4bd 8051 3dbe
000002a0: 4272 33be 7d13 b03e af43 143e 2c40 bbbd
000002b0: a8c6 5a3e 7182 47be 868f 9e3d c008 38be
000002c0: a9dd 39be 9fc7 f5bd 8563 6e3e 95b0 553d
000002d0: 9e96 9d3d ee02 20bd 3912 3d3c e73e 2b3c
000002e0: 8624 6dbd c39a febd eb3b 9b3c fbb5 01be
000002f0: 2187 31be 73dd 123e 6518 53be 7667 ffbd
00000300: a211 e0bd c455 d8be ff77 00be 0a30 e4bd
00000310: 371d 2bbe 5ff2 0ebd 65ff 173e 15d0 cbbd
00000320: 6601 c9bd b1d3 8a3d c108 263b 293f 3a3c
00000330: fe11 813d efd6 39be 1d8f 733d 6481 b0bd
00000340: 91e3 6ebd e986 b3bd cab9 febc 55b4 80be
00000350: f415 0dbd ee62 493e 6720 a8bc 4c21 3cbd
00000360: de3a 3b3e b892 bcbd e1a8 423e 8123 8f3c
00000370: 5e91 20be 576c a1bd e6c4 d23d 0bb9 2abe
00000380: 731c 3abe 42b0 37be 722b b4bc c4d8 9abc
00000390: 0737 103e 3c52 f13c 18ed 2e3e 69fb 9cbd
000003a0: a6df 633d 8d88 fd3d 93cf 043e 8497 53be
000003b0: 964f 01be 7bc6 96bd 38b8 0d3d 65c3 32be
000003c0: c217 093e 2912 c4be f691 073e 4adf 9cbc
000003d0: f4dd 723e cf68 44be be4c 253e d576 dc3d
000003e0: c111 4ebc 84ca db3d c38a 16be a5f3 a2bd
000003f0: 17fa e43d 28a9 8f3d 002b d13d 4c20 21be
0.13380921 0.23671973 -0.17750402 0.051378552 0.3095209 -0.007677761 0.067641094 0.10969249
-0.09771486 0.13861562 0.019416457 -0.038748726 -0.087775774 0.07442512 -0.054920856 -0.15032358
-0.0051549966 0.18680017 -0.11817917 0.1661645 -0.060779594 0.05949116 -0.06374668 0.083349384
-0.1528508 0.2597882 0.09257552 0.1520757 -0.0044900523 0.14312418 -0.048320577 -0.38042763
0.17405039 0.13177349 0.09492121 0.06272846 0.044818893 -0.30025226 -0.14378648 -0.041644126
-0.06925379 -0.11640364 -0.18595122 0.10242189 -0.07307242 0.18702312 -0.10457084 -0.10287677
0.04427508 0.27299494 0.10268278 0.04013665 0.18416747 0.077834085 0.031797767 0.08512817
-0.11193257 -0.16194499 -0.1748922 0.1344081 0.15523674 0.15832934 -0.19552428 -0.020595845
-0.26165766 -0.15449557 0.15005405 0.13824427 -0.10205226 0.07632294 -0.07670573 -0.013851041
-0.11252597 0.281905 -0.042515468 0.19692771 0.14649476 0.03490723 0.020335525 -0.27843437
0.08195457 0.010572707 -0.11585598 0.09005822 -0.19011483 0.1562284 -0.155191 -0.072090834
0.34516713 -0.054278404 0.07876861 -0.13778496 0.08839979 -0.1647679 -0.11526323 0.17968236
0.05733338 -0.15747328 -0.10915145 -0.16580302 0.007961747 0.013962828 -0.12437186 -0.16695902
-0.17964295 0.07232153 -0.103942096 0.16683686 0.027087562 0.017845586 -0.19555184 -0.08373928
-0.58713937 -0.054416154 -0.12043144 0.108842805 0.17647117 0.112095736 -0.14197934 -0.056204345
-0.11596293 0.09256051 0.15678194 0.17558894 0.14373197 -0.0029503144 0.06922326 0.2331567
0.07345541 0.12635131 -0.14956902 0.099596985 0.014554498 0.038971346 0.1795392 -0.09677534
0.0380772 0.008928682 0.10961013 0.12990138 0.031176392 -0.18012649 0.03929183 -0.089256056
-0.01328966 0.23517461 -0.15925561 -0.04699038 0.06113001 -0.038973093 -0.10921238 -0.14448778
0.019992104 -0.1367975 0.13401905 -0.13175954 -0.03176876 -0.06812041 0.09017744 0.12557216
0.06868952 -0.02537614 0.037209097 -0.22273819 -0.11718362 -0.09899972 -0.103832774 -0.18488121
-0.17524055 0.34389868 0.14478944 -0.09143099 0.21364844 -0.19483353 0.07742219 -0.17972088
-0.18150963 -0.12000965 0.23280151 0.052170355 0.076947436 -0.039065294 0.011539989 0.010452009
-0.05789616 -0.12431862 0.01894947 -0.12667076 -0.17336704 0.14342289 -0.20614775 -0.124709055
-0.10940863 -0.42252934 -0.12545775 -0.11141975 -0.16710363 -0.03489911 0.14843519 -0.09951798
-0.0981472 0.06778658 0.0025334808 0.011367598 0.0630226 -0.18148397 0.059462655 -0.08618429
-0.058322493 -0.087659664 -0.03109445 -0.25137582 -0.034444764 0.19666645 -0.020523263 -0.045930192
0.18284175 -0.09207672 0.19009735 0.017472984 -0.15680453 -0.07881992 0.10291462 -0.16672151
-0.18174915 -0.17938331 -0.021993373 -0.01890219 0.14083491 0.029458158 0.17082632 -0.0766514
0.05563321 0.123795606 0.12969808 -0.20663267 -0.12628016 -0.07362076 0.034599513 -0.1745735
0.13387969 -0.38295105 0.13239273 -0.019149441 0.23717481 -0.19180606 0.16142556 0.10764853
-0.012577475 0.10731986 -0.14701371 -0.07956628 0.11180513 0.07014686 0.1021328 -0.15734977

layer5.bn1.weight f4 [16]
00000000: a8a6 7d3f 5af9 763f 66b9 773f 432b 893f
00000010: 1651 6f3f 6deb 773f a99c 7a3f 245f 823f
00000020: 56e8 753f 13e6 7b3f 2b47 793f 834f 793f
00000030: 4e67 733f 8ffa 693f 71de 873f 706d 643f
0.9908242 0.9647423 0.9676727 1.0716327 0.934831 0.96843606 0.97895294 1.0185285
0.9605764 0.9839794 0.9737422 0.9738695 0.95079505 0.9139795 1.0614759 0.8922949

layer5.bn1.bias f4 [16]
00000000: 5a38 f4bd e5f7 a53d ec84 5f3c e3ac f43c
00000010: e279 5dbd ea5d c6bc e85d acbb 694f 63bc
00000020: c249 333c edd7 7b3d 54f6 78bc c520 08be
00000030: 6143 a0bc 51b1 c3bd 868f 7bbc 466d c63c
-0.11924811 0.08103923 0.013642531 0.029867595 -0.054071315 -0.024214704 -0.005260218 -0.013873913
0.010942878 0.06148522 -0.015195448 -0.1329375 -0.019563379 -0.09555305 -0.015354043 0.024222028

layer5.bn1.running_mean f4 [16]
00000000: 7d8c 383f 795b 2dbc bd07 9b3e c8fe 0c3f
00000010: b758 57bf 285a d83e 0a00 273e bd50 c73e
00000020: bd16 7bbf 4abc c8be b461 a0be b7d2 f93e
00000030: 9fcb cabe fa16 093f ef2f fc3e 58be 853e
0.7208937 -0.010580891 0.3027934 0.55076265 -0.84119743 0.42256284 0.16308609 0.38928786
-0.9808157 -0.39206153 -0.31324542 0.48793575 -0.39608476 0.53550684 0.4925532 0.26121783

layer5.bn1.running_var f4 [16]
00000000: d76d bf3f ed62 153f 4694 983f 8b6f e93e
00000010: 2159 683e 6198 6d3f c272 833e d609 c03e
00000020: 5491 9c3f 3d39 5a3f d484 283f ae26 a73f
00000030: 4c9d d53e 2fca 6e3f 2521 9d3f 5397 b83e
1.4955395 0.58354074 1.192025 0.45592913 0.2269025 0.92810637 0.2567349 0.37507504
1.2231851 0.8524359 0.6582768 1.3058679 0.4172157 0.9327726 1.227574 0.3605295

layer5.conv2.weight f4 [16, 16, 1, 3]
00000000: 51bb 4a3d 6fa2 65bc ef46 debc 0829 74bd
00000010: 5c67 af3d a908 0dbe c430 94bd c68d 52bd
00000020: 4eba 0bbe 5880 5dbc b322 5abc 61b0 0ebe
00000030: 3516 a33c 126f 893d e620 ac3d bc00 d5bd
00000040: 2f8f b23e 6dd0 603d 8f5a 093e f484 54be
00000050: ca3b 873c aefc 6e3d 1b21 13be 1e6b cdbc
00000060: adc0 acbb 71c9 b53d a5b8 f1bd caaa 9cbc
00000070: 0683 babd ae5c a9bb 5183 0cbe 56b8 b7bd
00000080: 78b6 983d d75b 0ebe cbad 443e 0172 4c3d
00000090: a899 21bd b131 35bc a838 653d b51a 053d
000000a0: 4e6a 3f3d 4c3f bb3d 206d d33d 8fed 773c
000000b0: c3a9 fe3d 4660 ebbd e262 e73d fc4b 003e
000000c0: 3733 a9bd 1506 d0bd db62 333d b4cd 8dbd
000000d0: 1758 153e 5af1 adbd b8f0 893d fa7d c4bd
000000e0: e972 abbd e621 8f3d bcec 29be f1e8 cabd
000000f0: 523f e73d 52db 2b3d b1d5 c8bd b229 af3b
00000100: 521f 893d 6259 b03d c20a 9f3d 6c20 22bd
00000110: 3091 38bd b02c 4d3c 1714 383b 2f2e 5fbd
00000120: f9cb 04be 24f8 383e 5186 9c3d 37f5 f23d
00000130: 5313 c33d 8739 9b3c 0300 04be 9d4b 163d
00000140: 3678 ccbc 3096 b83b 607b 593e 7cf7 f13c
00000150: faf1 fe3d 96de bebd fa04 d73d 3995 a53d
00000160: ad11 2d3d 3ca7 9dbd b702 dfbd 2bce 173e
00000170: 44e7 043e f893 f53c 6872 bf39 4da2 d6bc
00000180: 7616 fb3d 3163 83be 8dfb 0b3e 6a93 f33d
00000190: 3f10 f03d 818d 99bd 7a50 5a3d c457 623d
000001a0: ebcd 6bbd 700a d0bd 12a4 bc3c 326f eebd
000001b0: 1a4d 8e3d ece7 243e 9160 083e 3553 073e
000001c0: 9a37 3dbe 3ec5 babd 57e9 383d c0ea ddbd
000001d0: bbc8 0d3d 3b89 233d 08f1 b03d b981 093d
000001e0: fbf8 62bb 4078 68be 5134 8b3c 3b48 883d
000001f0: c779 3bbe 4488 313d 41a8 1c3d 86d7 3bbe
00000200: dfad 013e 9950 d13d 2e04 d0bd 2568 e83d
00000210: 7629 f1bd fdd2 7c3d c2d0 863d ca3e 06be
00000220: 3f24 2fbe 29ed 0ebe 0fdb 30bb 8506 84be
00000230: a245 8e3b d7a5 73bd 3622 9bbc a256 d03d
00000240: 231e 99bd 1681 e03c d7fa 033d 32db 613d
00000250: c929 d33d 9622 4dbd 329f 75bc 94db 113c
00000260: 6404 6ebd 4660 0cbe c1be 2a3e 513f b6bd
00000270: 060c de3c 7bbb 18bd 598a 593c 3707 efbd
00000280: 04ac d73d d6f2 48bd 7cca dd3d fff4 76bd
00000290: c478 863b db0d 02be 1012 83bc 132d 253c
000002a0: 7ae9 ccbc 9f26 a03d 0226 c1bb 50ac d83d
000002b0: 4ad0 beba 825c fa3d 4d9e 0fbe 5883 91bd
000002c0: 7a4a ba3d 217e 673d d89a f53d 5003 ef3c
000002d0: 85ad d83c ae57 123e 15a9 913d b9e4 e53c
000002e0: 53f9 ce3d c1d2 523d 875b 853c f4de 193d
000002f0: 6362 f3bd a9ca d1bb 2c89 303e a7c0 603d
00000300: 15ba 77bd 8db6 3fbe 9963 0bbd 7faa 203d
00000310: 50c7 d33c 1f93 a13d 1d8e b23d 50f1 20be
00000320: fcb7 a13d 980f 2c3d 3933 953d c894 ac3d
00000330: 782f 333d ef9b 813d c95a 8ebd da13 35bd
00000340: f604 efbd 1a2d c23d ad39 8dbd 06c8 cc3d
00000350: 5463 f13d d33e c0bd b6f9 39bd b3c1 30bb
00000360: 8134 d93c af14 b8bd b195 ae3d 3752 c5bd
00000370: fe3c 05bd 8b83 95bd 5205 9c3c 0571 39be
00000380: a310 fc3d 0c2a 0e3e ba3f 01be abcc 0ebe
00000390: ab0d 89bd 0f40 23be 1e50 013e dc37 de3d
000003a0: 61ef 03bd fc51 033e 25fa 01be cfa0 8abd
000003b0: 7d02 6d3c 3fb0 04be 5a42 edbd 8189 f4bd
000003c0: bc84 9abd fb1f 303d 50ef a73d 9158 f1bd
000003d0: b3c5 d53d a3c5 7fbd 7cb1 70bb 774a 643e
000003e0: a612 883d 7a7d 1b3d 0af7 983e 3518 0d3e
000003f0: 9ab7 8b3d 1f33 243e da0d c33d 0396 0e3d
0.049495045 -0.014015778 -0.027133433 -0.059609443 0.08564636 -0.13772835 -0.07235864 -0.051404737
-0.13645288 -0.013519369 -0.013313937 -0.1393447 0.01990805 0.06710638 0.084047124 -0.10400531
0.34874865 0.05488627 0.13413452 -0.20753843 0.016508002 0.058346443 -0.14368097 -0.025075492
-0.005271992 0.088763125 -0.11802796 -0.019124407 -0.09107022 -0.005168519 -0.13721968 -0.08970706
0.07456678 -0.13902222 0.19206922 0.04991341 -0.03945318 -0.011059211 0.055962235 0.032496173
0.04673224 0.09142932 0.10323548 0.015132322 0.12434723 -0.11492972 0.11298157 0.12528986
-0.082617216 -0.1015741 0.043795448 -0.069240004 0.14584385 -0.084933 0.067353666 -0.095943406
-0.08371527 0.069888875 -0.16594213 -0.09907711 0.11291374 0.041957207 -0.098063834 0.0053455466
0.06695427 0.086107984 0.07765724 -0.0395817 -0.045060337 0.012522861 0.0028088146 -0.054487403
-0.12968434 0.18063408 0.07642806 0.11863177 0.0952517 0.01894833 -0.1289063 0.036693204
-0.024959665 0.005633138 0.2123847 0.029536955 0.12448497 -0.09319799 0.10498996 0.080851026
0.042253185 -0.07697913 -0.1088919 0.1482474 0.12978846 0.029977784 0.00036515598 -0.026200438
0.122601435 -0.25661615 0.13670178 0.118933514 0.11721849 -0.07497693 0.053299405 0.05525948
-0.057569426 -0.10158241 0.023027454 -0.116423026 0.069483 0.16104096 0.13318087 0.13215335
-0.18478242 -0.09119652 0.045144405 -0.10835791 0.03461526 0.039925795 0.08639723 0.03357098
-0.0034633267 -0.22702122 0.01699272 0.06654402 -0.18308173 0.043342844 0.038246397 -0.18343934
0.12663983 0.10220451 -0.10157047 0.11347989 -0.11775486 0.06172465 0.06582786 -0.1310989
-0.1710367 -0.13957657 -0.0026986038 -0.25786224 0.004341797 -0.05948433 -0.018937211 0.10172774
-0.07476451 0.027405303 0.03222164 0.05514068 0.10310704 -0.05008181 -0.014991568 0.008902449
-0.058109656 -0.137086 0.1667433 -0.088987954 0.027105343 -0.03728817 0.013277614 -0.11671298
0.10530856 -0.04905971 0.108296365 -0.06029224 0.004103752 -0.12700598 -0.015999824 0.010081547
-0.025013674 0.078198664 -0.0058944235 0.10579741 -0.0014557925 0.12224676 -0.1402523 -0.0710513
0.090962365 0.05651677 0.11992425 0.029176384 0.026449928 0.1429126 0.07112328 0.028063165
0.101061486 0.05147052 0.016278995 0.03756614 -0.11884 -0.006402333 0.17239827 0.054871228
-0.060480196 -0.18721981 -0.03403053 0.039225098 0.025851876 0.07889389 0.08718512 -0.15717053
0.0789642 0.04200706 0.072851606 0.08426815 0.04374644 0.0632857 -0.0695091 -0.044208385
-0.11670868 0.09481259 -0.068957664 0.09999089 0.117865235 -0.09386983 -0.04540416 -0.0026970922
0.026514294 -0.0898832 0.08524645 -0.09634822 -0.03252887 -0.073004805 0.019045506 -0.1810952
0.12307861 0.13883227 -0.12621966 -0.13945262 -0.0669206 -0.15942405 0.12628219 0.10850498
-0.03221071 0.12824243 -0.12693079 -0.06768953 0.014465925 -0.12957858 -0.11584921 -0.11940289
-0.07544848 0.04299925 0.08199942 -0.11784471 0.10438099 -0.06244434 -0.0036726883 0.22294031
0.06644182 0.03796146 0.29875976 0.13778765 0.068221286 0.16035126 0.09524126 0.03481103

layer5.bn2.weight f4 [16]
00000000: 5a2f 6f3f 12b7 6a3f 8849 833f 07b4 7c3f
00000010: 5071 6c3f d47f 7f3f 92de b93f 8ab0 613f
00000020: 5798 623f 9556 b43f 396d 7b3f 55a2 833f
00000030: fa77 793f 1b78 743f a752 9c3f 6243 5b3f
0.9343163 0.91685593 1.0256815 0.987122 0.923604 0.99804425 1.4521048 0.8816
0.885137 1.4088923 0.98213536 1.0283915 0.97448695 0.95495766 1.2212723 0.85649693

layer5.bn2.bias f4 [16]
00000000: 0cbb d03c ee1e 26bd 4a2d ea3d 5e8b c0bc
00000010: bf4c 3cbd 95e0 5e3e fdb7 403e 079a dabd
00000020: 75d2 103e 97c8 2e3e c58d a6bd ba38 d1bd
00000030: 9c27 3fba c042 8e3c 30a3 323e 444c 05bd
0.025479816 -0.04055684 0.114344195 -0.023503955 -0.04597163 0.21765359 0.18820186 -0.1067391
0.14142783 0.17068706 -0.08132509 -0.10215898 -0.0007291974 0.017365813 0.17445064 -0.032543436

layer5.bn2.running_mean f4 [16]
00000000: ecf6 9b3d 9725 b73d 14dc 88be fd47 8d3e
00000010: b282 93be 621f ae3e aba9 a93e 2126 4fbf
00000020: 6da2 c1be 150f 463e 828e 1c3c 536b 973e
00000030: ae22 063e c66f b6be ddb2 bebe 2438 6cbe
0.07615456 0.089427166 -0.26730406 0.27593985 -0.2881065 0.34008318 0.3313726 -0.80917555
-0.37819234 0.19341691 0.009555461 0.2957407 0.13099167 -0.3563215 -0.37245837 -0.23068291

layer5.bn2.running_var f4 [16]
00000000: 67c4 413e 8712 bf3d 8928 673f 54db 043e
00000010: 6bda 0c3f 23d8 953e cfc5 e53e 80b5 2940
00000020: 4508 083f ac22 703e 2ede ab3e 81ad be3e
00000030: 11ba 163f e835 033f 94e2 d93f 0468 2d3f
0.18922578 0.09329706 0.90296227 0.12974292 0.5502078 0.29266462 0.44877478 2.651703
0.5313762 0.23450726 0.33567947 0.37241748 0.58877665 0.5125413 1.7022271 0.6773684

layer5.fc1.weight f4 [4, 16]
00000000: 8c47 013e 3d7d fcbd 9bc4 263e 6139 7e3d
00000010: 0044 423c 503c 01bd 448c b23c ffee 703d
00000020: 4ac4 1bbe 2946 f73c 0985 8f39 2d08 f13c
00000030: 677a 1d3e c0d8 22be ea9c 17be fd0e 04be
00000040: 38f7 653e 7f50 d8bc 2cb3 8bbc bd42 8a3c
00000050: a20d 623c 9ae2 2c3e 608f c03d 0d96 18be
00000060: 138c 573e 538f 2dbe 0f97 973d ea85 98bc
00000070: e84f 073e 59c5 413d f66a 273e ad42 8f3b
00000080: af69 553e 70b9 853e 0199 81bd 9c3c 303e
00000090: cd76 853d 088f 02be a9f8 2b3e 7ed1 f1bd
000000a0: d7e2 733e 063b 343e 5371 873e ed27 613e
000000b0: b990 a33d b4a3 12bd ec1e 04be 7069 683e
000000c0: b4e1 4d3e 669b c63c 71e5 1aba ea85 a33d
000000d0: d015 b0bd 6025 503e dc33 6d3b ad7e 483e
000000e0: a58f 2a3e 6c16 293e 502b e73c bce9 6abe
000000f0: 52ab 48be 82ad d1bd b452 493e 94a8 f73d
0.12624949 -0.12328575 0.16285937 0.06206644 0.011857033 -0.03155166 0.0217954 0.058821674
-0.15211597 0.030184822 0.00027374204 0.029422844 0.15378724 -0.15902996 -0.14805952 -0.12896343
0.22457588 -0.026405571 -0.01705321 0.016877526 0.013797196 0.16883317 0.094023466 -0.1490099
0.21049528 -0.16949205 0.07401859 -0.018618543 0.13214076 0.047307346 0.16349396 0.004371962
0.20841096 0.2611804 -0.06328011 0.1721062 0.065168 -0.12749875 0.16794075 -0.118075356
0.23817001 0.1760064 0.26453647 0.21987887 0.07986588 -0.03580065 -0.12902421 0.22696471
0.2010563 0.024244022 -0.0005908823 0.079845265 -0.085979104 0.20326757 0.003619424 0.19579573
0.16656359 0.1651246 0.028218895 -0.22940725 -0.19596604 -0.10238172 0.19660455 0.120927006

layer5.fc1.bias f4 [4]
00000000: f5ec 54be 5c25 42be 1300 363e a41d 023e
-0.20793517 -0.18959564 0.17773466 0.1270662

layer5.fc2.weight f4 [16, 4]
00000000: f208 2cbe 836e 7fbd d099 f3bb f80b 843e
00000010: 7f22 81bd 491e acbe c45f ba3e b520 8dbe
00000020: 23ab 113e 50d5 803e a23c fc3e 3258 fc3c
00000030: a306 813e b4e6 bfbe b118 32bd 0c73 d9be
00000040: 2fee b1be 7816 0e3e 4028 763e b676 eabe
00000050: 1c3d 2a3e 130c d93d 0706 d43e 6d59 cebe
00000060: cbfe cdbe 01ce 4f3e cd0c 413e 0656 2bbe
00000070: effc a53e 6a81 babe 30e6 eebe ad00 edbe
00000080: 39af 903e 64b0 6ebe fec6 1c3e 9e12 f23d
00000090: 98f5 fc3d 2af5 e33d 68bc b63d 55ef bbbd
000000a0: 8fdd ecbb 1d78 3b3e 9e82 933e c850 e5be
000000b0: 75fd 853e a163 b2be 299f 3b3d c619 47ba
000000c0: 3589 e43e a1ce e13e 9374 003f 920b aebc
000000d0: 7ece f63e 94ad a73e 7dbe 583e c4fb 1abe
000000e0: 8685 bebe fe77 9cbe 4ff5 903e d45f ee3e
000000f0: 9a42 c23e a721 8cbe f457 78be 8357 9f3e
-0.16800287 -0.06236125 -0.0074341074 0.2579038 -0.06305408 -0.33616856 0.36401188 -0.27564016
0.1422544 0.25162745 0.4926501 0.030803774 0.25200376 -0.374807 -0.04348058 -0.42470586
-0.34752032 0.13875759 0.24038792 -0.45793694 0.16624874 0.10598006 0.41410848 -0.403026
-0.40233454 0.20293428 0.1885254 -0.16732034 0.32419536 -0.3642686 -0.46659994 -0.46289578
0.28258684 -0.23309475 0.15310284 0.11819957 0.12351531 0.11130746 0.089226544 -0.09176508
-0.0072285603 0.18307538 0.2881059 -0.44788194 0.26169935 -0.34841636 0.045806084 -0.0007595088
0.4463593 0.44102958 0.5017788 -0.021245752 0.48204416 0.32749617 0.21166416 -0.15135103
-0.37211245 -0.30560297 0.28312156 0.46557486 0.37941438 -0.27369425 -0.24252301 0.31121454

layer5.fc2.bias f4 [16]
00000000: 4f15 b7be e495 e53e 18f7 53bd 58e7 cebd
00000010: fc99 05bc c7f0 5abe ef26 05be 600f 81be
00000020: 21ac 9bbe c575 053e cbdc 90ba 4243 17be
00000030: dff5 46be 9094 073e 6352 b0be e4e5 a2bd
-0.35758445 0.4484092 -0.05174932 -0.10102719 -0.0081543885 -0.21380912 -0.13003133 -0.25207043
-0.3040476 0.13033207 -0.001105213 -0.1477175 -0.1942973 0.13240266 -0.34437856 -0.079540044
