das_new - 副本/models/20260105_214042/final_model.pth (torch, 99146 bytes, 176 tensors)

input_conv.weight f4 [4, 1, 1, 3]
0	0x3e3fb3cf	0.18720935
1	0x3ef15346	0.47133845
2	0xbed9372b	-0.42424902
3	0x3ec3440a	0.38137847
4	0xbe18f58c	-0.14937419
5	0xbef8bbcc	-0.48580778
6	0x3e41c7d0	0.18923879
7	0x40b9fefc	5.812376
8	0x3e21be5a	0.1579527
9	0xbe85aa4a	-0.26106483
10	0x3ed0d25f	0.407855
11	0xbe9423cb	-0.28933558

input_bn.weight f4 [4]
0	0x40089059	2.1338103
1	0x4008804a	2.1328301
2	0x3f531635	0.8245576
3	0x3fc354ea	1.5260289

input_bn.bias f4 [4]
0	0x3f14aea0	0.58078957
1	0xbeb7b042	-0.35876662
2	0xbf032162	-0.51222813
3	0x3ee32641	0.44365123

input_bn.running_mean f4 [4]
0	0xb7c94da5	-2.3997223e-05
1	0x36ff2f05	7.605066e-06
2	0xb99b2655	-0.00029592463
3	0xb7ae309c	-2.0765052e-05

input_bn.running_var f4 [4]
0	0x3e6510f5	0.2236975
1	0x3cb80d37	0.022467239
2	0x420811ef	34.017513
3	0x3e2b8457	0.16749702

layer1.conv1.weight f4 [4, 4, 1, 3]
0	0xbe03b187	-0.1286069
1	0xbef97a92	-0.48726326
2	0x3e7751c1	0.2415228
3	0xbc1bd9d8	-0.009512387
4	0xbd09d625	-0.03365149
5	0x3dd63ea6	0.10461168
6	0xbd9cedd0	-0.07662547
7	0xbd4859ba	-0.048913695
8	0x3d9ea86b	0.07746967
9	0xbe67b228	-0.22626555
10	0xbd8f9c8b	-0.0701228
11	0xbe30352a	-0.1720778
12	0x3e251343	0.16120629
13	0x3f92d47b	1.1471094
14	0x3ccb9eca	0.02485599
15	0x3d10f3bd	0.035388697
16	0xbea17a22	-0.31538492
17	0xbe0297aa	-0.12753168
18	0x3e19b635	0.15010913
19	0x3dd71e24	0.10503796
20	0x3d98e726	0.07465963
21	0x3b01470c	0.0019726185
22	0x3f61cea1	0.88205916
23	0xbe7654ce	-0.24055788
24	0x3d985b9c	0.07439348
25	0xbeaf08de	-0.34186453
26	0xbda20ded	-0.079128124
27	0xbe202d93	-0.15642385
28	0xbf14f62b	-0.5818812
29	0x3e1eab11	0.15494944
30	0x3e5aee63	0.2138
31	0xbe3cb35c	-0.18427795
32	0xbe723116	-0.23651537
33	0xbdddcd64	-0.10830191
34	0xbe5e0471	-0.21681382
35	0x3e02f69c	0.12789387
36	0xbe084c6b	-0.13310401
37	0x3ecfdf9a	0.40600282
38	0x3e019d09	0.1265756
39	0x3de85e87	0.11346155
40	0xbec801f7	-0.39064
41	0x3e708632	0.23488691
42	0xbcd65644	-0.026164182
43	0xbce35303	-0.027749544
44	0x3d8da57b	0.069163285
45	0xbe41c398	-0.1892227
46	0x3e7f2cb7	0.24919401
47	0x3c855ba9	0.016279059

layer1.bn1.weight f4 [4]
0	0x3f263062	0.64917576
1	0x3f882fa8	1.0639544
2	0x3f47ff1e	0.7812365
3	0x3f3d099f	0.73842806

layer1.bn1.bias f4 [4]
0	0xbc8cebaa	-0.017202217
1	0x3f855eed	1.0419594
2	0x3edbd9a6	0.4293949
3	0xbdc6efa0	-0.097136736

layer1.bn1.running_mean f4 [4]
0	0xbf04b265	-0.5183471
1	0x3fc8221e	1.5635412
2	0xbf34aa87	-0.70572704
3	0x3ecbaa33	0.3977829

layer1.bn1.running_var f4 [4]
0	0x3f2c1d86	0.6723255
1	0x40fddea6	7.933429
2	0x3f897941	1.0740129
3	0x3f975fb9	1.1826087

layer1.conv2.weight f4 [4, 4, 1, 3]
0	0xbdcde6bc	-0.10053775
1	0xbe8e87b3	-0.27837905
2	0xbdfece25	-0.12441663
3	0xbcee1185	-0.029061088
4	0x3f991440	1.1959305
5	0x3e02323b	0.12714474
6	0xbe068170	-0.13135314
7	0xbed97d5d	-0.42478457
8	0xbe002105	-0.12512596
9	0x3dddb5c8	0.10825688
10	0x3fbfa0e3	1.4970974
11	0x3d066049	0.03280667
12	0xbe5ac818	-0.21365392
13	0x3c7c0d3c	0.015384015
14	0xbe1328b4	-0.14370996
15	0x3df3b004	0.11898807
16	0xbf36382e	-0.71179473
17	0xbe307157	-0.17230736
18	0xbc869745	-0.016429553
19	0x3e786bb4	0.24259835
20	0xbe643dde	-0.22289225
21	0xbde07c4f	-0.1096121
22	0xbeb072c6	-0.34462565
23	0x3e162b07	0.14664851
24	0x3d855301	0.06509972
25	0x3c513eb7	0.0127713
26	0xbc04b9c9	-0.008100935
27	0xbd8a6af2	-0.067586794
28	0xbf1817f8	-0.59411573
29	0xbdcced65	-0.10006217
30	0xbde708f0	-0.112810016
31	0x3e5451d8	0.20734346
32	0xbe518da7	-0.20464192
33	0xbda330d4	-0.079682976
34	0xbec68c96	-0.38779134
35	0xbdb924ae	-0.09040199
36	0x3d74fb97	0.059810247
37	0xbe965506	-0.29361743
38	0xbe6e8861	-0.23294212
39	0x3e04b97f	0.12961386
40	0x3e52d20e	0.20587942
41	0xbd9e500a	-0.0773011
42	0xbe00d143	-0.12579827
43	0xbdd5ebbc	-0.104453534
44	0xbdc12623	-0.09431102
45	0xbde5b820	-0.1121676
46	0xbe2f7291	-0.17133547
47	0x3e257f18	0.16161764

layer1.bn2.weight f4 [4]
0	0x3ec1908a	0.37805587
1	0x3fef1154	1.8677163
2	0x3fd39c40	1.6532059
3	0x3f88ac26	1.0677536

layer1.bn2.bias f4 [4]
0	0x3f012f28	0.5046258
1	0xbe35734a	-0.1771976
2	0x3ecc60b6	0.39917535
3	0xbe70add5	-0.23503812

layer1.bn2.running_mean f4 [4]
0	0x3f981d80	1.1884003
1	0xbf276d2d	-0.65400964
2	0xbf0ed6b1	-0.55796343
3	0x3dae8fe8	0.08523542

layer1.bn2.running_var f4 [4]
0	0x409026b5	4.504725
1	0x3f6d915c	0.92799926
2	0x3f3c6763	0.73595256
3	0x3cd8dbbf	0.02647197

layer1.fc1.weight f4 [1, 4]
0	0x3ed69548	0.41910768
1	0xbe2ff277	-0.17182337
2	0xbdc92c78	-0.09822935
3	0xbdadc3c1	-0.08484603

layer1.fc2.weight f4 [4, 1]
0	0xbec15e5b	-0.377673
1	0xbf21f808	-0.6326909
2	0x3dc038b2	0.09385814
3	0x3e03b2f1	0.1286123

layer1.fc2.bias f4 [4]
0	0xbef3b850	-0.47601557
1	0x3f4ca388	0.7993703
2	0x3f8ba69d	1.0910221
3	0xbf3c0cd8	-0.734571

layer1.shortcut.0.weight f4 [4, 4, 1, 1]
0	0x3edcead5	0.43147913
1	0xbed049ea	-0.40681392
2	0xbf315777	-0.69274086
3	0x3f1c2bb0	0.6100416
4	0xbeba6d6a	-0.364116
5	0xbf542305	-0.82865936
6	0x3eec1c00	0.46115112
7	0xbe48616b	-0.19568412
8	0xbe554506	-0.20827112
9	0xbf296301	-0.6616669
10	0x3c6bf871	0.014402495
11	0xbe8bf3cb	-0.27334437
12	0xbe4b1681	-0.19832803
13	0xbe6a32e2	-0.22870973
14	0x3e124ddd	0.14287515
15	0xbef2f992	-0.47456032

layer1.shortcut.1.weight f4 [4]
0	0x3f535eeb	0.8256671
1	0x3fb41a7a	1.407058
2	0x3f87c6e1	1.0607568
3	0x3f2c54b7	0.67316765

layer1.shortcut.1.bias f4 [4]
0	0x3effa35f	0.4992933
1	0x3f26c850	0.651494
2	0x3f334894	0.7003262
3	0xbe9189eb	-0.28425536

layer1.shortcut.1.running_mean f4 [4]
0	0x3f18734f	0.59550947
1	0xbf3d271d	-0.7388781
2	0xbf216fda	-0.63061297
3	0xbf15303c	-0.58276725

layer1.shortcut.1.running_var f4 [4]
0	0x3fc5d53e	1.5455701
1	0x3fa408a1	1.2815133
2	0x3f74a211	0.95559794
3	0x3f107b2e	0.5643796

layer2.conv1.weight f4 [4, 4, 1, 3]
0	0xbe45a2cc	-0.19300383
1	0xbee4166b	-0.44548354
2	0x3e602192	0.21887806
3	0x3e11ad43	0.1422625
4	0x3ea7bd66	0.32761687
5	0xbe44f601	-0.19234468
6	0xbd8e21c3	-0.06940033
7	0x3effa236	0.49928445
8	0xbe23fb35	-0.16013797
9	0xbe73bdbe	-0.2380285
10	0xbdefe61b	-0.11713811
11	0xbc40ade4	-0.011760209
12	0xbe2bb01a	-0.16766396
13	0xbf01274f	-0.50450605
14	0xbe137798	-0.1440109
15	0x3e2bb81f	0.16769455
16	0x3e7608c8	0.24026787
17	0xbe44720d	-0.19184132
18	0x3dea2a15	0.11433808
19	0x3e1911bc	0.14948171
20	0xbd6ef65d	-0.05834042
21	0x3e09abcb	0.1344444
22	0x3e052c58	0.13005197
23	0x3d268a3b	0.04065917
24	0xbe397cf5	-0.18114074
25	0xbef3c52f	-0.47611377
26	0xbe1ae554	-0.15126544
27	0xbe1198f8	-0.14218509
28	0xbee0e623	-0.4392558
29	0x3e6778cf	0.22604679
30	0x3df1297c	0.11775491
31	0x3dea5a1b	0.114429675
32	0x3d777f60	0.06042421
33	0xbe00a6f1	-0.12563683
34	0xbe4b6689	-0.19863333
35	0xbe744923	-0.23856024
36	0x3d38fbda	0.04516206
37	0x400ca616	2.197637
38	0x3e516a7b	0.20450775
39	0xbda6aee8	-0.081388295
40	0xbef6436a	-0.48098308
41	0x3e583de4	0.2111736
42	0xbe5de142	-0.2166796
43	0xbeccb56d	-0.39982167
44	0xbdefa5da	-0.117015556
45	0x3e06f7cd	0.13180466
46	0x3e99b1a8	0.30018353
47	0xbe528a3c	-0.20560545

layer2.bn1.weight f4 [4]
0	0x3f8b4d86	1.0883033
1	0x3f534528	0.825274
2	0x3f4d7409	0.8025518
3	0x3faf5b77	1.3699788

layer2.bn1.bias f4 [4]
0	0xbbb1ed2b	-0.005429884
1	0xbde02656	-0.10944812
2	0xbd6f7b18	-0.058467
3	0x3d83b098	0.06430167

layer2.bn1.running_mean f4 [4]
0	0x3ef5b94f	0.47992942
1	0xbd61c397	-0.05511817
2	0xbf497eb6	-0.7870897
3	0x3f936ec1	1.1518174

layer2.bn1.running_var f4 [4]
0	0x3f2c7481	0.6736527
1	0x3ed9d576	0.4254567
2	0x3e7b6522	0.24550298
3	0x40e617fd	7.1904283

layer2.conv2.weight f4 [4, 4, 1, 3]
0	0x3da39a79	0.07988448
1	0xbeecd848	-0.4625876
2	0x3d80912f	0.062776916
3	0xbe72d6d2	-0.2371476
4	0xbd7042f2	-0.058657594
5	0xbdb41165	-0.0879238
6	0xbd48324f	-0.048876103
7	0x3e729ecf	0.23693393
8	0xbd185cf3	-0.03719802
9	0xbd25b0c6	-0.040451787
10	0x3e771ee4	0.24132878
11	0x3e025a7d	0.12729831
12	0x3d060e01	0.0327282
13	0x3f1c85fa	0.6114193
14	0xbdae1fc1	-0.0850215
15	0xbd53a08b	-0.051666778
16	0x3e3c66e2	0.18398622
17	0x3dc069c9	0.09395177
18	0x3b920997	0.0044567096
19	0xbe2bd87b	-0.167818
20	0xbd53609a	-0.0516058
21	0xbe6e0ef0	-0.23247886
22	0xbf653f14	-0.89549375
23	0x3db955d9	0.09049577
24	0xbde20bcd	-0.11037407
25	0x3e7ae4f5	0.24501403
26	0xbcae365f	-0.02126616
27	0x3e4141ad	0.1887271
28	0x3eaa2f98	0.33239436
29	0x3e0d745b	0.13813917
30	0x3dd3d462	0.10343243
31	0xbdddf7f3	-0.10838308
32	0x3dbb6c04	0.09151462
33	0x3c52d85d	0.012868968
34	0x3f569268	0.8381715
35	0xbe30d120	-0.17267275
36	0x3e4dffc2	0.20117095
37	0xbe85722a	-0.26063663
38	0x3e10cc21	0.14140369
39	0xbe254431	-0.16139294
40	0xbee17c17	-0.44039986
41	0xbe690eb3	-0.22759514
42	0xbe36fc68	-0.17869723
43	0xbe4bb3ec	-0.19892853
44	0x3d8e53c8	0.06949574
45	0xbe022186	-0.127081
46	0x3eee66a6	0.4656269
47	0xbd777b1b	-0.060420137

layer2.bn2.weight f4 [4]
0	0x3ec7146e	0.38882774
1	0x3fadace4	1.3568387
2	0x3f354625	0.7081016
3	0x3f22e510	0.6363077

layer2.bn2.bias f4 [4]
0	0xbe436e18	-0.19084966
1	0x3eb0076d	0.34380665
2	0x3bee05ca	0.0072638737
3	0x3f13994c	0.5765579

layer2.bn2.running_mean f4 [4]
0	0xbd3a10e7	-0.045426276
1	0xbe024d93	-0.12724905
2	0x3ee44957	0.44587204
3	0xbbb31dd9	-0.0054662046

layer2.bn2.running_var f4 [4]
0	0x3e21c540	0.15797901
1	0x3fbb5188	1.4634256
2	0x3f845106	1.0337226
3	0x3edc40e1	0.4301825

layer2.fc1.weight f4 [1, 4]
0	0x3db9826d	0.0905808
1	0x3df217c8	0.11820942
2	0x3b8cc669	0.0042961133
3	0x3eae3d14	0.34030974

layer2.fc2.weight f4 [4, 1]
0	0x3eb5e804	0.35528576
1	0x3e6bb966	0.23019943
2	0xbefd934b	-0.49526438
3	0x3f28e35f	0.6597194

layer2.fc2.bias f4 [4]
0	0xbf2aa9a0	-0.6666508
1	0x3e9a00cc	0.30078733
2	0x3eb00339	0.3437746
3	0x3d245955	0.040124256

layer3.conv1.weight f4 [8, 4, 1, 3]
0	0x3e1a5cd7	0.15074478
1	0xbeb2c30d	-0.34914437
2	0x3e0627dc	0.13101143
3	0xbd595550	-0.053059876
4	0xbec0b03d	-0.3763446
5	0xbde49c98	-0.111626804
6	0x3e12b49a	0.14326707
7	0xbf328b71	-0.6974402
8	0xbcd67ea6	-0.026183438
9	0xbdadd7ee	-0.08488451
10	0xbe683e2c	-0.22679967
11	0xbe30854d	-0.1723835
12	0xbd8db960	-0.06920123
13	0x3eb7d9fe	0.35908502
14	0x3d5b8b43	0.053599607
15	0xbdda7ea1	-0.10668684
16	0xbf02acf8	-0.5104518
17	0xbde28215	-0.110599674
18	0xbda4299f	-0.08015751
19	0xbebeef66	-0.37292022
20	0x3d69713b	0.05699275
21	0x3e25cc70	0.16191268
22	0x3e9881ed	0.29786626
23	0x3e22478b	0.15847604
24	0x3d86f1a6	0.065890595
25	0xbe614a38	-0.22000968
26	0x3e4e0e51	0.20122649
27	0xbe20a35b	-0.15687315
28	0x3f464408	0.7744756
29	0xbe44f965	-0.19235761
30	0xbe37311d	-0.17889829
31	0x3ef51570	0.47867918
32	0xbe1f5e69	-0.15563358
33	0xbd2b7247	-0.04185703
34	0xbd1a4f55	-0.037673313
35	0xbb5fabf8	-0.00341296
36	0xbe23c3bb	-0.15992634
37	0x3ec12d7c	0.37730014
38	0xbe5eddb6	-0.21764264
39	0x3d779370	0.06044334
40	0x3deab64e	0.11460553
41	0xbd367424	-0.044544354
42	0x3d56b2dc	0.052416667
43	0x3f21264a	0.6294905
44	0xbdd4c274	-0.103886515
45	0xbe3ef0f0	-0.18646598
46	0x3e3c652f	0.18397973
47	0x3e1d4782	0.1535931
48	0x3b3672d0	0.002783943
49	0x3e944922	0.28962046
50	0x3e035826	0.12826595
51	0x3e48ad22	0.19597295
52	0xbb2c8b99	-0.0026328324
53	0xbe24ac15	-0.16081269
54	0x3cdf2218	0.027237937
55	0xbdaba10c	-0.08380327
56	0x3cd08884	0.02545572
57	0xbd61cb9d	-0.05512582
58	0x3d8c2e47	0.06844764
59	0x3deb2cc4	0.11483148
60	0xbe42a437	-0.19007955
61	0x3ee43ae2	0.44576174
62	0x3e02d51c	0.12776607
63	0x3df0de64	0.11761168
64	0x3c92dfd3	0.017928993
65	0x3d980af1	0.07423962
66	0x3e4985ff	0.19680022
67	0x3deea683	0.11652853
68	0x3e55f350	0.20893598
69	0xbd56ab6f	-0.052409586
70	0xba76237d	-0.00093894434
71	0xbe37a4b8	-0.17933929
72	0x3e25c4a0	0.16188288
73	0x3f962841	1.1731035
74	0xbe60b936	-0.21945652
75	0x3e2276fe	0.15865704
76	0xbf719f2b	-0.94383496
77	0xbda3c4ee	-0.07996546
78	0x3e014032	0.12622145
79	0xbe7cbbd4	-0.24681026
80	0x3d7e8f06	0.062148117
81	0xbdacfd33	-0.084467314
82	0x3f8235a3	1.0172619
83	0x3da41ce7	0.08013325
84	0xbe7948b1	-0.24344136
85	0x3ea152c0	0.31508446
86	0x3e710e2d	0.23540564
87	0xbe0adb0a	-0.1356012
88	0x3db37cae	0.08764015
89	0xbe4a098a	-0.19730201
90	0xbe3e42ae	-0.18580124
91	0xbd4e0cf8	-0.050305337
92	0x3d949627	0.07255202
93	0xbe20206e	-0.15637371
94	0x3f2d5990	0.67714787
95	0x3d92cb78	0.07167715

layer3.bn1.weight f4 [8]
0	0x3f600fae	0.87523925
1	0x3f43db28	0.7650628
2	0x3fe8203f	1.8134841
3	0x3f3faca2	0.7487279
4	0x3f212de1	0.6296063
5	0x3f125345	0.5715831
6	0x3f668ed0	0.90061665
7	0x3f3005b5	0.6875871

layer3.bn1.bias f4 [8]
0	0x3e0ca4b1	0.137347
1	0x3ed6fdb0	0.41990423
2	0xbeb3a521	-0.3508692
3	0xbd92ab2d	-0.071615554
4	0xbe00794a	-0.12546268
5	0xbe1e0675	-0.1543215
6	0xbe519365	-0.20466383
7	0xbd883e04	-0.066524535

layer3.bn1.running_mean f4 [8]
0	0xbfe32940	-1.7746964
1	0xbf3f1039	-0.7463413
2	0x3fbc4139	1.4707404
3	0x3faa6f11	1.3315145
4	0x3e283955	0.1642812
5	0x3f0ae39a	0.5425354
6	0xbe5690a8	-0.2095362
7	0x3f1bbddd	0.60836583

layer3.bn1.running_var f4 [8]
0	0x3f6b850f	0.91999906
1	0x3f805ac5	1.0027701
2	0x3f6a7c56	0.9159597
3	0x3f53efd5	0.8278783
4	0x3e3b50bd	0.18292518
5	0x3ed34f51	0.4127145
6	0x41029d02	8.163332
7	0x3f596e2e	0.84933746

layer3.conv2.weight f4 [8, 8, 1, 3]
0	0xbe1e7a09	-0.1547624
1	0x3e855cc6	0.26047343
2	0x3dfe1f9d	0.124083735
3	0xbda60963	-0.08107259
4	0x3e459566	0.19295272
5	0xbe028347	-0.12745391
6	0xbe2e468d	-0.170191
7	0xbf9aecb0	-1.2103481
8	0x382400d8	3.9101433e-05
9	0x3d3eceb2	0.04658384
10	0x3e201c9b	0.15635912
11	0xbe13c427	-0.14430295
12	0x3e21a8d0	0.15787053
13	0x3e0cc2d7	0.137462
14	0x3de038be	0.10948323
15	0xbe0d973e	-0.13827226
16	0x3df46e0e	0.11935054
17	0x3d7e86be	0.06214022
18	0x3e1bb652	0.15206268
19	0x3e27da3c	0.16391844
20	0xbe0f7085	-0.14007767
21	0x3d7002f5	0.05859657
22	0x3e985968	0.29755712
23	0xbd013d4a	-0.03155259
24	0x3df8586a	0.12126239
25	0x3e92f6a6	0.28703803
26	0x3dec6aee	0.11543833
27	0xbd840159	-0.064455695
28	0x3f27c651	0.6553698
29	0xbdad6493	-0.08466449
30	0x3ddf0aef	0.10890757
31	0x3e87bc50	0.2651086
32	0x3d0742ee	0.033022813
33	0x3d97dc0f	0.0741502
34	0x3ed7c324	0.42141068
35	0xbe28ffe2	-0.16503862
36	0x3d0bdd67	0.034146693
37	0x3ed7d351	0.4215341
38	0xbe17dea3	-0.14831023
39	0x3e238082	0.1596699
40	0x3eb9999d	0.3625001
41	0x3de718a9	0.112840004
42	0xbe184490	-0.14869905
43	0x3f9195e9	1.1373874
44	0xbb9bc87e	-0.004754125
45	0xbd879718	-0.06620616
46	0x3f1732f2	0.5906211
47	0xbe0611e2	-0.13092759
48	0x3e202198	0.15637815
49	0xbe019ad3	-0.12656717
50	0x3b9de19e	0.0048181554
51	0x3d97234f	0.073797815
52	0xbcd4b997	-0.025967402
53	0x3e1efba6	0.15525684
54	0x3e027a8b	0.12742059
55	0x3e7cc258	0.24683511
56	0x3d257cfe	0.040402405
57	0xbda499b1	-0.08037127
58	0xbd57590b	-0.052575152
59	0x3e295faa	0.16540399
60	0xbd8b7035	-0.06808511
61	0x3ea3a2b7	0.3196008
62	0xbd2f4737	-0.042792525
63	0x3daa7181	0.083224304
64	0x3e4abaf1	0.19797875
65	0x3e05ef38	0.13079536
66	0xbdf4b7af	-0.11949097
67	0x3db9ffd5	0.09081999
68	0x3c161e6c	0.009162527
69	0xbd47c0bf	-0.0487678
70	0x3e26e405	0.1629792
71	0x3ca97bbf	0.02068889
72	0xbe151097	-0.1455711
73	0x3d8992f7	0.067174844
74	0x3bb30631	0.0054633846
75	0xbe2022b7	-0.15638243
76	0x3e3caf5d	0.18426271
77	0xbce50fe3	-0.027961677
78	0xbd119146	-0.035538934
79	0x3ea16977	0.31525776
80	0xbdfc70c2	-0.12326194
81	0x3c38bc2b	0.0112753315
82	0x3e295f94	0.16540366
83	0x3d9b0435	0.07569162
84	0xbd4b4da9	-0.04963461
85	0x3e8b8f20	0.27257633
86	0x3e0a5e91	0.13512637
87	0xbc735b7c	-0.014853355
88	0x3dbb3aa8	0.09142047
89	0x3cef390c	0.029202007
90	0xbcf68cec	-0.030096494
91	0x3ea508f6	0.322334
92	0x3d5d47f9	0.054023717
93	0xbd9db925	-0.07701329
94	0x3d75ca9d	0.06000768
95	0x3d8a6982	0.06758405
96	0xbdae0e82	-0.08498861
97	0xbf1e7b9c	-0.6190736
98	0xbdbcf09d	-0.09225581
99	0x3c9c1b10	0.019055873
100	0xbef9b57b	-0.4877127
101	0x3d56562e	0.05232828
102	0x3e263645	0.1623164
103	0xbe96327d	-0.29335395
104	0x3e1b1573	0.15144901
105	0x3c9110c1	0.017708184
106	0xbe417591	-0.18892504
107	0xbc0baf19	-0.008525633
108	0xbda536d9	-0.08067102
109	0x3aac1a9e	0.0013130491
110	0xbd8a1a65	-0.067433156
111	0x3d1bd222	0.038042195
112	0x3e296523	0.16542487
113	0x3e0d4d20	0.13798952
114	0xbe30a930	-0.1725204
115	0xbf110fae	-0.5666455
116	0x3dd2d520	0.102945566
117	0xbdea13d1	-0.11429561
118	0xbd28fd48	-0.041257173
119	0x3dfea4de	0.1243379
120	0x3e2bb655	0.16768773
121	0xbeb6e46c	-0.35721147
122	0xbd6fc37d	-0.05853604
123	0xbd68b6a9	-0.056814823
124	0xbf2bd417	-0.671205
125	0xbcc11c67	-0.023573114
126	0x3da5d726	0.08097677
127	0xbf5c3ec4	-0.8603327
128	0xbc87cc04	-0.016576774
129	0xbe00f1ed	-0.12592287
130	0xbe8067e3	-0.2507926
131	0xbde060dd	-0.10955975
132	0x3d4c6ba0	0.049907327
133	0xbee2fffb	-0.44335923
134	0x3ded19c7	0.11577182
135	0xbcbabc83	-0.022794968
136	0xbeaafb66	-0.33394927
137	0xbd0d001a	-0.034423925
138	0x3dbb582e	0.09147678
139	0xbf00f556	-0.5037435
140	0xbd60d2f3	-0.054888677
141	0xbe24957d	-0.1607265
142	0xbe9a2ba3	-0.30111417
143	0xbde5259b	-0.11188813
144	0x3e089779	0.13339032
145	0x3b8a2912	0.0042163217
146	0xbca46ca2	-0.020071331
147	0xbcbbc30e	-0.022920158
148	0xbc39c4a0	-0.011338383
149	0xbde7401b	-0.11291524
150	0x3e1a5014	0.1506961
151	0x3f4ddd51	0.8041583
152	0xbb5cef75	-0.0033712063
153	0x3d8354f1	0.06412686
154	0xbee8c2c2	-0.45461088
155	0x3ca836dc	0.020533971
156	0x3d925ad2	0.07146229
157	0x3d11fe4e	0.035642914
158	0xbc88572f	-0.016643135
159	0x3dd8a756	0.10578792
160	0xbd3f5f59	-0.04672179
161	0x3da324cc	0.07966003
162	0x3d93a3ad	0.07208953
163	0xbe52aadf	-0.20572995
164	0x3c3942da	0.011307443
165	0xbb00b2d3	-0.0019637838
166	0xbcb9b86c	-0.022670947
167	0xbd5bd132	-0.0536663
168	0xbe005825	-0.12533624
169	0x3ecb37d5	0.39691034
170	0xbd74a0e5	-0.059723753
171	0x3defb5de	0.1170461
172	0x3eff2586	0.49833316
173	0xbda056fb	-0.0782909
174	0x3de00cd2	0.10939945
175	0x3f19e0ea	0.60108817
176	0x3e161136	0.14655003
177	0xbd32928f	-0.0435968
178	0x3ed3ccdb	0.4136723
179	0xbce6a8cf	-0.028156666
180	0xbc57fea6	-0.0131832715
181	0x3e811d8e	0.2521786
182	0xbccf5a96	-0.02531175
183	0x3e1f0e44	0.15532786
184	0x3ec8a3c4	0.39187443
185	0xbd289eac	-0.041166946
186	0x3dfe455f	0.12415575
187	0x3e0bd14d	0.1365406
188	0xbbf44f2f	-0.0074557285
189	0x3c35bd16	0.011092445
190	0x3e71171a	0.23543969
191	0xbe041ef5	-0.12902434

layer3.bn2.weight f4 [8]
0	0x3f953880	1.1657867
1	0x3f1425d5	0.5787023
2	0x3f2e505c	0.6809137
3	0x3f3ad82f	0.7298612
4	0x3f5ee9eb	0.8707568
5	0x3f7aafef	0.97924703
6	0x3f72f9d7	0.94912475
7	0x3f619603	0.88119525

layer3.bn2.bias f4 [8]
0	0x3f4496f5	0.7679284
1	0x3f1ed89c	0.6204927
2	0xbd51abb5	-0.051189143
3	0x3e3592fa	0.17731848
4	0x3e4d41ae	0.20044586
5	0x3f4fc7cc	0.8116424
6	0xbecf37a0	-0.40472126
7	0xbeafe7e5	-0.3435661

layer3.bn2.running_mean f4 [8]
0	0xbea3ca5b	-0.31990322
1	0x3f8a335b	1.0796922
2	0x3e433eda	0.19066945
3	0x3ee0d743	0.43914232
4	0xbf3bf7d9	-0.7342506
5	0xbf9b36d3	-1.2126106
6	0x3e9c9381	0.30581287
7	0x3f6964e8	0.91169596

layer3.bn2.running_var f4 [8]
0	0x3fede02d	1.8584038
1	0x40963b46	4.6947355
2	0x3e3c3e70	0.18383193
3	0x3eda9978	0.42695212
4	0x3f137dd5	0.5761388
5	0x4007f5d6	2.1243796
6	0x3f403d50	0.75093555
7	0x3f957603	1.1676639

layer3.fc1.weight f4 [2, 8]
0	0x3edc635b	0.43044552
1	0x3e7c50ae	0.24640152
2	0xbd999bab	-0.075003944
3	0x3d5b1bb2	0.05349321
4	0x3e9a0dce	0.30088657
5	0x3df123c9	0.117744036
6	0x3ed56254	0.4167658
7	0x3dde2637	0.10847133
8	0x3f080212	0.5312816
9	0x3ea253a7	0.31704447
10	0x3e1f67b3	0.15566902
11	0x3df885ba	0.12134881
12	0xbd6e9ecf	-0.05825692
13	0xbcac1375	-0.021005372
14	0x3e530daa	0.20610681
15	0x3eb4543d	0.3522052

layer3.fc1.bias f4 [2]
0	0x3ee8a05c	0.45434844
1	0xba85509c	-0.0010171118

layer3.fc2.weight f4 [8, 2]
0	0x3f7bd250	0.98367786
1	0x3f258cc6	0.6466793
2	0x3eccf685	0.4003183
3	0x3e29eb05	0.16593559
4	0x3d71cae3	0.05903138
5	0xbee3d7c6	-0.4450056
6	0xbe82cc95	-0.2554671
7	0x3e94e61a	0.29081804
8	0xbee219b9	-0.4416025
9	0x3eb5cbad	0.35506955
10	0xbde1d03b	-0.11026045
11	0x3e67b339	0.22626962
12	0xbe361509	-0.17781462
13	0x3e96a5b6	0.29423302
14	0xbf0f3afc	-0.5594938
15	0x3e8ad97d	0.27119055

layer3.fc2.bias f4 [8]
0	0x3f5a1e83	0.8520281
1	0xbf0916d1	-0.5355044
2	0x3d0ff6e6	0.03514757
3	0x3efd6f3a	0.49498922
4	0x3d92cd41	0.07168055
5	0xbeba7c54	-0.3642298
6	0x3e167a4f	0.14695095
7	0xbf08f3e6	-0.5349716

layer3.shortcut.0.weight f4 [8, 4, 1, 1]
0	0x3dbfabe6	0.09358959
1	0xbf92b16c	-1.1460395
2	0xbf155c3e	-0.58343875
3	0xbdabc68d	-0.0838748
4	0x3e2f551e	0.17122313
5	0xbdc1fb64	-0.09471777
6	0xbed7cf95	-0.4215056
7	0x3f0b893c	0.5450628
8	0x3ea441a0	0.32081318
9	0xbea7d256	-0.3277766
10	0xbd6a1156	-0.05714544
11	0x3e9d27ba	0.3069437
12	0xbedf1fe7	-0.43579027
13	0x3e6892cd	0.2271225
14	0x3e3a2c07	0.18180858
15	0xbe20b5b3	-0.15694313
16	0xbe95410c	-0.2915119
17	0xbde7e07d	-0.113221146
18	0x3ef3ae22	0.4759379
19	0xbf0b2e01	-0.5436707
20	0xbf28f835	-0.66003734
21	0xbf2e6e39	-0.68136936
22	0xbeb8fa7b	-0.361286
23	0xbeb324d6	-0.3498904
24	0x3c24662f	0.010034128
25	0x3f2f7d36	0.6855043
26	0x3f0590a4	0.5217383
27	0xbe8f3dbd	-0.2797679
28	0xbe447ead	-0.19188948
29	0x3e5e2121	0.21692325
30	0xbe9b7b43	-0.3036748
31	0xbeb05091	-0.34436467

layer3.shortcut.1.weight f4 [8]
0	0x3f86fb1c	1.0545382
1	0x3f6881c8	0.9082303
2	0x3f75113a	0.9572941
3	0x3f5fd9df	0.8744182
4	0x3f896797	1.0734738
5	0x3f6f5b4b	0.93498677
6	0x3f8837fb	1.0642084
7	0x3f67ff37	0.906238

layer3.shortcut.1.bias f4 [8]
0	0x3c82b7ab	0.01595672
1	0x3e37e93e	0.17960069
2	0xbd54627f	-0.051851746
3	0xbdf82c2b	-0.12117799
4	0x3e8e3ac9	0.27779225
5	0x3f17cd87	0.59297985
6	0xbeec9850	-0.46209955
7	0xb9db0bb6	-0.0004177966

layer3.shortcut.1.running_mean f4 [8]
0	0xc0119f78	-2.2753582
1	0xbe8f9d19	-0.28049543
2	0xbe045cd8	-0.12926042
3	0x3de0fcab	0.109856926
4	0xbd2b57d9	-0.041831825
5	0xc00630bd	-2.0967247
6	0x3fbee3d9	1.4913284
7	0xbec1c025	-0.37841907

layer3.shortcut.1.running_var f4 [8]
0	0x3fb6af70	1.4272289
1	0x3ed6b30c	0.41933477
2	0x3f384c51	0.7199145
3	0x3f24aa8b	0.6432273
4	0x3ededd49	0.43528202
5	0x3fbf0b40	1.4925308
6	0x3f35c70b	0.7100684
7	0x3f06e210	0.52688694

layer4.conv1.weight f4 [8, 8, 1, 3]
0	0xbe0383f2	-0.12843302
1	0xbeb5a8c9	-0.35480335
2	0x3de855c6	0.11344485
3	0xbc517b9f	-0.012785821
4	0xbea7798f	-0.3270993
5	0xbe1596e8	-0.14608347
6	0x3e094bd7	0.13407837
7	0xbe451e1e	-0.1924977
8	0x3e27ddc0	0.16393185
9	0xbe203c67	-0.15648042
10	0xbd34cc48	-0.04414013
11	0xbd4d014a	-0.050050057
12	0x3d39904c	0.045303628
13	0x3e0df06b	0.13861243
14	0x3dc0c6dd	0.0941293
15	0xbdd0c336	-0.101934835
16	0x3e1687f8	0.14700305
17	0x3d7c353f	0.061574217
18	0x3e1fa980	0.15592003
19	0xbdb667dd	-0.08906529
20	0xbb25e4d4	-0.0025313394
21	0x3e02ac23	0.12760977
22	0xbe597641	-0.21236517
23	0x3d46cf8f	0.048537787
24	0x3dd3b2e8	0.10336858
25	0x3ca718a5	0.020397494
26	0xbc93669c	-0.017993264
27	0xbe070768	-0.13186419
28	0x3e56e374	0.20985204
29	0xbe2f1b93	-0.17100362
30	0x3c48d476	0.012257686
31	0x3ec0d791	0.37664464
32	0xbe007e62	-0.12548211
33	0xbd6d9c70	-0.05801052
34	0xbca3471c	-0.019931369
35	0xbe050e38	-0.12993705
36	0xbe2f6c14	-0.17131072
37	0x3c1b47b7	0.009477547
38	0xbdaee107	-0.08539014
39	0x3d3082f4	0.043093637
40	0xbe03d336	-0.1287354
41	0xbc96eadb	-0.018422535
42	0x3d7e4d9c	0.062085733
43	0xbdad7687	-0.08469873
44	0x3dae39b0	0.08507097
45	0xbd9619ed	-0.07329164
46	0x3d702001	0.05862427
47	0x3dfbf93a	0.123033956
48	0xbe2a5f78	-0.16637981
49	0xbf1392db	-0.5764596
50	0xbe1af6c3	-0.15133195
51	0x3dd6a071	0.104798205
52	0xbe46db43	-0.19419579
53	0x3d0f4af3	0.034983587
54	0x3cf4b73d	0.029872531
55	0xbe8f6883	-0.28009424
56	0xbdea4173	-0.11438265
57	0xbde50563	-0.11182668
58	0xbd7ca979	-0.06168506
59	0xbd44a5fb	-0.048009854
60	0x3e170fd1	0.14752127
61	0x3e73f342	0.23823264
62	0x3d8fd71f	0.07023453
63	0xbdec4366	-0.11536293
64	0x3c72f9b5	0.014830043
65	0x3d9aaf02	0.07552911
66	0xbc690aa0	-0.014223725
67	0xbea87959	-0.3290508
68	0xbdb0d854	-0.08635011
69	0xbe10c3fb	-0.1413726
70	0x3a8f0d63	0.0010914024
71	0x3d078682	0.03308726
72	0xbd3f166a	-0.046652235
73	0xbe889c51	-0.2668176
74	0xbcb48712	-0.022037063
75	0x3d14bafc	0.036311135
76	0x3e961d09	0.29319027
77	0xb9a58d31	-0.00031576448
78	0x3d7cd2f7	0.06172463
79	0x3db1db01	0.0868435
80	0x3e1f932d	0.15583487
81	0xbd8008c9	-0.06251676
82	0xbe943c1c	-0.2895211
83	0xbe04f203	-0.12982945
84	0xbdfef3df	-0.124488585
85	0xbf533f91	-0.8251887
86	0x3c9efd1d	0.019407803
87	0xbd56f68b	-0.052481215
88	0xbbc478de	-0.005995854
89	0xbdbf524e	-0.0934187
90	0xbd92c0d5	-0.07165686
91	0xbe9b8a55	-0.30378976
92	0xbddae1ed	-0.10687623
93	0xbd68cdad	-0.056836773
94	0xbdab8d2d	-0.083765365
95	0x3d748598	0.059697717
96	0x3db4c1c5	0.08826021
97	0xbe75ba28	-0.23996794
98	0x3dbd196a	0.09233363
99	0xbae65ce4	-0.0017575291
100	0xbe834b95	-0.25643602
101	0x3da15f1e	0.0787947
102	0xbe217327	-0.15766583
103	0xbe5b9006	-0.2144166
104	0xbcb81b49	-0.022473948
105	0xbd80e222	-0.062931314
106	0xbcd03b0c	-0.02541878
107	0x3d42c1c9	0.04754809
108	0x3d7ad29a	0.061236
109	0xbe1a8dbc	-0.1509313
110	0x3d9791b3	0.07400837
111	0xbdf9f868	-0.12205583
112	0xbe28a965	-0.16470869
113	0xbd038849	-0.032112394
114	0xbddddd37	-0.10833209
115	0xbd880d36	-0.06643145
116	0xbd85eefc	-0.06539723
117	0xbd56682f	-0.05234545
118	0xbd89a5ff	-0.06721114
119	0xbb1f3d2e	-0.002429794
120	0x3cd0f0c7	0.025505437
121	0xbf415dda	-0.7553383
122	0xbe20e891	-0.15713717
123	0xbdf6914e	-0.120394334
124	0xbe32e6c5	-0.17470844
125	0xba4b7076	-0.00077605934
126	0xbdd2b54b	-0.10288485
127	0xbdf14ed5	-0.11782614
128	0x3d5aa5c2	0.053380735
129	0x3e061dcb	0.13097303
130	0xbd10b67b	-0.035330277
131	0xbdeb9623	-0.11503246
132	0xbdba0a70	-0.09084022
133	0x3e851324	0.25991166
134	0x3df1818f	0.117922895
135	0x3dd0c36d	0.101935245
136	0xbde1d03c	-0.11026046
137	0x3dbde791	0.092726834
138	0xbdfa78c7	-0.12230068
139	0xbf1102b4	-0.5664475
140	0x3db307a3	0.08741691
141	0x3e21e743	0.15810876
142	0xbe9a7d51	-0.30173734
143	0xbd5bb4ba	-0.05363915
144	0x3e22f018	0.15911901
145	0xbeacbbe2	-0.33737093
146	0xbdbb46fd	-0.09144399
147	0xbd85325b	-0.06503745
148	0xbec7ff97	-0.39062187
149	0xbdab5884	-0.083664924
150	0xbe2cffc0	-0.16894436
151	0xbe029232	-0.12751082
152	0x3d551842	0.052025087
153	0x3e240f61	0.16021492
154	0x3c40f2c1	0.011776627
155	0x3e1bd1b0	0.15216708
156	0x3d863ae2	0.065542
157	0x3e809327	0.25112268
158	0xbce2a19b	-0.02766495
159	0xbe24722c	-0.16059178
160	0xbd984b54	-0.07436243
161	0x3d5959de	0.05306422
162	0x3df3cfa3	0.11904838
163	0xbea6f63e	-0.32609743
164	0x3d85e20d	0.065372564
165	0xbe036196	-0.12830195
166	0xbe949bb3	-0.2902504
167	0x3b2c35a4	0.002627709
168	0xbdf1cc84	-0.118065864
169	0x3f625450	0.884099
170	0x3e0cca0f	0.13748954
171	0xbe29dcd0	-0.1658814
172	0x3c0cbfc4	0.008590642
173	0x3d2270ea	0.039658464
174	0x3d642c91	0.055706564
175	0xbecb31ad	-0.39686337
176	0x3da729ad	0.08162246
177	0x3d5e1d59	0.054227207
178	0x3e3ec051	0.1862805
179	0xbccd45d6	-0.025057714
180	0xbe1e9ea1	-0.154902
181	0x3e15cd07	0.14628993
182	0xbe213f66	-0.15746841
183	0xbdae3860	-0.085068464
184	0xbea5a6cf	-0.32353827
185	0xbd9afbf5	-0.07567588
186	0x3c96d100	0.018410206
187	0xbe376463	-0.17909388
188	0x3e20629a	0.15662614
189	0x3df4bb73	0.119498156
190	0x3ce74a8a	0.028233785
191	0x3d890d39	0.06691975

layer4.bn1.weight f4 [8]
0	0x3f53efe5	0.82787925
1	0x3f6c5731	0.92320544
2	0x3f5a559a	0.8528687
3	0x3f4cb0d6	0.7995733
4	0x3f4e2ca4	0.80536866
5	0x3f776e33	0.96652526
6	0x3f614eea	0.8801104
7	0x3f52af2a	0.8229853

layer4.bn1.bias f4 [8]
0	0x3b45031d	0.003006167
1	0xbc981123	-0.018562859
2	0x3e12347d	0.14277835
3	0x3eb099dc	0.34492385
4	0xbdaf07fc	-0.08546445
5	0x3e56a6c8	0.2096206
6	0x3e3326ca	0.17495266
7	0xbf118c10	-0.56854343

layer4.bn1.running_mean f4 [8]
0	0xbe886f22	-0.26647288
1	0x3d9e318a	0.077242926
2	0xbf0bf0bc	-0.54664207
3	0xbf56848d	-0.83796006
4	0xbf4fba06	-0.81143224
5	0xbf60afb5	-0.8776811
6	0xbf146f03	-0.5798189
7	0x3df545fc	0.11976239

layer4.bn1.running_var f4 [8]
0	0x3f9abf75	1.2089678
1	0x3f361254	0.71121716
2	0x3fbb31f0	1.4624615
3	0x3f2cd50b	0.6751258
4	0x3f056273	0.52103347
5	0x3fb1db3e	1.3895032
6	0x3f8ed261	1.1157953
7	0x3e96c5ff	0.29447934

layer4.conv2.weight f4 [8, 8, 1, 3]
0	0x3e0121d0	0.12610555
1	0x3d3abaff	0.04558849
2	0x3d8f3e45	0.06994299
3	0xbd3dc380	-0.04632902
4	0xbe9db5c2	-0.30802733
5	0x3c84a37e	0.01619124
6	0xbe0563f6	-0.13026413
7	0x3c6bae01	0.0143847475
8	0x3d87c9a5	0.066302575
9	0xbe14a59c	-0.145163
10	0xbea4a4e7	-0.3215706
11	0xbe042b92	-0.12907246
12	0xbe1ca771	-0.15298249
13	0xbd8df123	-0.06930759
14	0x3df9a7de	0.12190221
15	0xbd9bcdce	-0.076076135
16	0x3ea328e8	0.31867146
17	0x3e26af26	0.16277751
18	0xbe0c20ef	-0.13684438
19	0x3e40874f	0.18801616
20	0x3cdef6fe	0.027217384
21	0xbe0767cb	-0.13223188
22	0x3f4397bc	0.76403403
23	0xbd5e53f0	-0.054279268
24	0x3e13e741	0.14443685
25	0xbd306098	-0.04306087
26	0x3d0eb0aa	0.03483645
27	0xbe22753f	-0.15865038
28	0x3edcc4bc	0.43118846
29	0xbddd8cef	-0.108178966
30	0x3d10b2be	0.03532671
31	0xbed6dd95	-0.4196593
32	0x3ce94805	0.028476724
33	0x3e2914d9	0.16511859
34	0x3ede0ee0	0.43370724
35	0xbde7b6ce	-0.11314164
36	0x3d206221	0.039156083
37	0x3e1a874b	0.15090673
38	0xbdcfbce5	-0.10143451
39	0xbe228e5a	-0.15874615
40	0xbe7279e3	-0.23679309
41	0xbcb961bd	-0.022629613
42	0x3d076232	0.03305263
43	0xbea70048	-0.32617402
44	0x3db4e6b3	0.08833065
45	0xbe2423b5	-0.16029246
46	0xbe794831	-0.24343945
47	0xbe0b5330	-0.13605952
48	0x3e1f78da	0.15573445
49	0xbdedbcf8	-0.116083086
50	0xbdf73287	-0.12070184
51	0x3ccb0ba6	0.024785828
52	0x3e2e7d36	0.17039952
53	0xbd47a3ae	-0.04874008
54	0xbe174974	-0.14774114
55	0x3cd39161	0.025826158
56	0xbdec871b	-0.11549207
57	0xbddf0fe4	-0.10891703
58	0x3eeab8f3	0.4584423
59	0x3dde35d0	0.10850108
60	0x3cb2d56a	0.02183028
61	0x3d19c1eb	0.03753845
62	0xbd4fd5cf	-0.050741013
63	0x3dab0201	0.083499916
64	0xbd97193d	-0.07377861
65	0xbce36b3f	-0.0277611
66	0xbde9e73a	-0.11421056
67	0xbd22de73	-0.039762925
68	0x3d82b51c	0.063822
69	0x3e29037b	0.16505234
70	0xbea2fdbf	-0.31834218
71	0xbe18ca97	-0.14921032
72	0x3de42dce	0.11141549
73	0xbea2c4bc	-0.3179072
74	0x3de83abf	0.1133933
75	0xbe093a04	-0.13401037
76	0xbf810c94	-1.0081964
77	0x3e2337e5	0.15939291
78	0x3c93c93b	0.01804029
79	0xbd638540	-0.055547
80	0xbdeda949	-0.11604554
81	0xbdfcaf23	-0.12338092
82	0xbea7c420	-0.3276682
83	0xbd78a5be	-0.06070494
84	0x3dd028a1	0.10163999
85	0x3e544733	0.20730285
86	0x3d859f88	0.06524569
87	0xbd93639a	-0.07196732
88	0xbda40d68	-0.080103695
89	0x3c287ae1	0.010283203
90	0xbe1be411	-0.15223719
91	0xbe482a79	-0.19547452
92	0xbe17a388	-0.14808476
93	0x3dc29640	0.09501314
94	0xbe2a83c2	-0.16651824
95	0xbd8c8e8a	-0.06863125
96	0x3e0208ff	0.12698744
97	0xbe1d8ab4	-0.15384942
98	0xbd8db7ca	-0.069198206
99	0x3e02ab8b	0.12760751
100	0xbdf5a4c1	-0.11994315
101	0xbe01dcee	-0.12681934
102	0x3da4f229	0.08054001
103	0xbe57270f	-0.21010993
104	0x3defa937	0.11702197
105	0xbe138597	-0.14406429
106	0xbe80978c	-0.2511562
107	0x3e2b0db9	0.16704454
108	0x3de3a6ae	0.11115776
109	0x3d8be412	0.0683061
110	0x3e1e94b4	0.15486413
111	0x3e0e4d46	0.13896665
112	0xbe97d4fe	-0.29654688
113	0x3e01fcec	0.12694138
114	0xbe0b8eb8	-0.13628662
115	0xbddd42f8	-0.10803789
116	0x3cbcc890	0.023044854
117	0x3dbc57fe	0.09196471
118	0x3eb6aeb9	0.35680178
119	0xbdf7f3f7	-0.121070795
120	0x3dfd2ada	0.12361689
121	0x3e111b8f	0.14170669
122	0xbe2f0740	-0.1709261
123	0x3ba0fde2	0.0049130777
124	0x3f229e70	0.63523006
125	0xbdf4939c	-0.11942217
126	0x3de00eee	0.109403476
127	0x3de1285d	0.10994027
128	0x3d9b44f8	0.07581514
129	0xbdc90810	-0.09815991
130	0xbf0c9e05	-0.5492862
131	0x3da66154	0.081240326
132	0xbd7bc6b9	-0.061468814
133	0x3e8fe8c7	0.28107283
134	0x3e127867	0.14303742
135	0x3d945617	0.07242983
136	0x3e54d2ea	0.20783582
137	0x3d7b6c35	0.06138249
138	0xbd19b817	-0.037529077
139	0x3e90cf54	0.2828318
140	0xbdebff86	-0.115233466
141	0x3de7518a	0.11294849
142	0xbe013dee	-0.1262128
143	0x3d8cfe0a	0.068843916
144	0x3e2ea4d4	0.17055064
145	0xbdfc550f	-0.12320911
146	0x3d5e6572	0.054295965
147	0xbe14c2dc	-0.14527458
148	0x3ec6f378	0.38857627
149	0xbd0f1814	-0.034935072
150	0xbdfb7b66	-0.12279396
151	0xbe85f949	-0.26166752
152	0x3db00d79	0.0859632
153	0x3e01f7a2	0.1269212
154	0x3ef4901c	0.47766197
155	0xbe03328e	-0.12812254
156	0x3da7a3ee	0.08185564
157	0x3c19f304	0.009396318
158	0xbe272605	-0.16323097
159	0x3c4eb7b1	0.012617038
160	0xbecc3c89	-0.39889935
161	0xbe238a39	-0.15970697
162	0xbd4fa1ec	-0.05069153
163	0xbe1a9dcf	-0.15099262
164	0xbd399ca5	-0.045315403
165	0x3dc16fbf	0.09445142
166	0xbea01af4	-0.31270564
167	0xbd8084a7	-0.062753014
168	0x3e13c2ea	0.14429823
169	0xbce70b9a	-0.028203774
170	0x3d482bed	0.048870016
171	0xbdc12870	-0.09431541
172	0xbf0e5c0f	-0.5560922
173	0xbe01e867	-0.1268631
174	0x3df620c9	0.12017972
175	0xbe42fd91	-0.1904204
176	0xbdb9fb6a	-0.090811566
177	0xbe0f2e51	-0.13982512
178	0xbdaa3cfe	-0.083124146
179	0x3d425262	0.047441848
180	0xbdbdb0e9	-0.092622586
181	0x3e889759	0.2667797
182	0xbd170e73	-0.036879014
183	0x3d27b953	0.040948223
184	0xbec8afd1	-0.39196637
185	0x3d709b57	0.058741894
186	0x3d9e6f60	0.07736087
187	0x3be1fbe8	0.0068964846
188	0xbd52e82d	-0.05149095
189	0x3e0788c5	0.13235767
190	0xbf3be535	-0.7339662
191	0xbd5963fe	-0.053073876

layer4.bn2.weight f4 [8]
0	0x3f83e334	1.0303712
1	0x3f2b5426	0.66925275
2	0x3f226eed	0.6345051
3	0x3f55fa75	0.8358529
4	0x3f6cfeb2	0.92576134
5	0x3f4cea99	0.8004547
6	0x3f5a2f0a	0.85228026
7	0x3f5799a1	0.84218794

layer4.bn2.bias f4 [8]
0	0x3e5ba770	0.21450591
1	0x3e4c7094	0.1996482
2	0xbe09f857	-0.1347364
3	0x3e201a44	0.1563502
4	0xbef56c9d	-0.47934428
5	0xbecaea5a	-0.3963192
6	0x3f4172a4	0.7556555
7	0x3d0874ae	0.0333144

layer4.bn2.running_mean f4 [8]
0	0x3e1de808	0.15420544
1	0xbe099ec3	-0.13439469
2	0x3e0d5a90	0.13804078
3	0xbf201b2c	-0.6254146
4	0xbec86039	-0.39135912
5	0x3e5af878	0.21383846
6	0xbe026ca3	-0.12736754
7	0xbf0a5810	-0.5404062

layer4.bn2.running_var f4 [8]
0	0x3e2c0f93	0.16802816
1	0x3f0d5305	0.552048
2	0x3e06bf76	0.13158974
3	0x3f8099f6	1.0046985
4	0x3d87e40e	0.06635295
5	0x3e553ed6	0.20824751
6	0x3f035613	0.51303214
7	0x3edb2c29	0.4280713

layer4.fc1.weight f4 [2, 8]
0	0x3e8b4f1a	0.27208787
1	0x3db172ea	0.08664496
2	0x3d9aba44	0.075550586
3	0xbe61714d	-0.22015877
4	0xbda2e5ca	-0.07953985
5	0xbe871936	-0.26386422
6	0xbe77608d	-0.24157925
7	0xbc5b83ca	-0.01339812
8	0x3e0eda59	0.1395048
9	0x3db939fa	0.09044261
10	0x3e6424d3	0.22279672
11	0x3edd9583	0.4327813
12	0x3e413fa0	0.18871927
13	0x3efcbb7d	0.49361792
14	0x3e81abce	0.2532639
15	0x3dcfebf8	0.10152429

layer4.fc1.bias f4 [2]
0	0xbdf5b9e8	-0.119983494
1	0x3db883e8	0.09009534

layer4.fc2.weight f4 [8, 2]
0	0xbe7884c9	-0.24269404
1	0xbe4296f1	-0.19002892
2	0xbe0e61de	-0.13904521
3	0x3ee0258c	0.43778646
4	0xbec95374	-0.39321482
5	0xbe30efe4	-0.17279011
6	0x3f0fcf47	0.56175655
7	0xbc0cc45b	-0.008591737
8	0x3c51542a	0.012776414
9	0xbde285e9	-0.110606976
10	0x3f0bf949	0.54677254
11	0x3e596e15	0.21233399
12	0xbf10002e	-0.56250274
13	0x3f52e7fa	0.8238522
14	0x3efdeeb6	0.49596184
15	0x3e2b2d46	0.16716489

layer4.fc2.bias f4 [8]
0	0x3f0c0457	0.5469412
1	0xbe88ecef	-0.26743266
2	0xbec4b2a6	-0.38417548
3	0xbce9dbb0	-0.028547138
4	0x3e92da87	0.28682348
5	0xbe4050cf	-0.18780826
6	0x3e5a39f1	0.21311165
7	0xbe0c70b9	-0.13714875

layer5.conv1.weight f4 [16, 8, 1, 3]
0	0x3deec52e	0.11658703
1	0x3e36e2a9	0.17859901
2	0xbe1e60dc	-0.15466636
3	0x3d375d32	0.044766612
4	0x3e94fddc	0.2909993
5	0xbbdb365f	-0.006689831
6	0x3d7166bc	0.058935866
7	0x3e186240	0.1488123
8	0xbdae5ee3	-0.08514192
9	0x3df75aad	0.12077842
10	0x3e038936	0.1284531
11	0xbd0a4a30	-0.033762157
12	0xbd9ca248	-0.0764814
13	0x3e461a8f	0.19346069
14	0xbd440124	-0.04785265
15	0xbe061eca	-0.13097683
16	0x3c81bea3	0.015837973
17	0x3e26aa66	0.1627594
18	0xbdd2e1d2	-0.10296978
19	0x3e97a592	0.29618508
20	0xbd58eb15	-0.052958567
21	0x3d545106	0.051835082
22	0xbc61c8fe	-0.01378083
23	0x3d94ba58	0.07262105
24	0xbe085ff1	-0.13317849
25	0x3eacaf13	0.3372732
26	0x3da53163	0.080660604
27	0x3e07af53	0.13250475
28	0x3db01ac8	0.08598858
29	0x3dff649a	0.1247036
30	0xbd2c7450	-0.04210311
31	0xbe9fdd89	-0.31223705
32	0x3e1b4b5e	0.15165469
33	0x3deb25cd	0.11481819
34	0x3d130153	0.035889935
35	0x3d5fddf2	0.054655023
36	0x3d1ff5de	0.039052837
37	0xbea46d0e	-0.32114452
38	0xbe004b91	-0.12528826
39	0xbd149e4c	-0.036283776
40	0xbde0ddbc	-0.109797925
41	0xbdcfb622	-0.10142161
42	0xbe25e8c7	-0.16202079
43	0x3dc1c83d	0.094620205
44	0xbd826306	-0.063665435
45	0x3e26dd30	0.16295314
46	0xbe2b4c07	-0.16728221
47	0xbdb793c8	-0.08963734
48	0x3d1e0418	0.038578123
49	0x3e8aee05	0.2713472
50	0x3db73b43	0.0894685
51	0x3d0f3fa0	0.034972787
52	0x3e38bb37	0.18040167
53	0x3d8ae4ac	0.06781897
54	0x3ce2f6c0	0.02770555
55	0x3dc48c01	0.09597016
56	0xbdc7bd05	-0.097528495
57	0xbe107efc	-0.1411094
58	0xbe023852	-0.12716797
59	0x3defd722	0.11710955
60	0x3e0a81b0	0.13526034
61	0x3e3fb654	0.18721896
62	0xbe2e7470	-0.17036605
63	0xbc9300c6	-0.017944705
64	0xbe2f7109	-0.17132963
65	0xbe09d7fe	-0.134613
66	0x3e05e0fa	0.13074103
67	0x3e1ba330	0.1519897
68	0xbdb61ad7	-0.08891838
69	0x3d883177	0.0665006
70	0xbdb730d1	-0.08944858
71	0xbc45bb24	-0.012068544
72	0xbdc8cc51	-0.09804595
73	0x3ec78c87	0.389744
74	0xbd17baff	-0.037043568
75	0x3e2fb27f	0.17157935
76	0x3e1c3afc	0.15256876
77	0x3cf929b1	0.030415388
78	0x3c912544	0.017717965
79	0xbebdd9b9	-0.37080172
80	0x3d923d4e	0.07140599
81	0x3c16ee74	0.009212125
82	0xbd48682b	-0.048927467
83	0x3da0b283	0.078465484
84	0xbe29a01f	-0.16564988
85	0x3e1e46d7	0.15456711
86	0xbe0a772f	-0.13522027
87	0xbd80a595	-0.06281582
88	0x3e5e136e	0.216871
89	0xbd41b5c5	-0.04729249
90	0x3d8c8fcd	0.06863365
91	0x3e2ea051	0.17053343
92	0x3d9dbf22	0.07702471
93	0xbe13010a	-0.14355865
94	0xbe1b7d1c	-0.15184444
95	0x3e204fb5	0.15655406
96	0x3d4c9efc	0.049956307
97	0xbcdc1e07	-0.026869787
98	0xbdc2c5ac	-0.09510359
99	0xbe13ee65	-0.14446409
100	0xbe0029b5	-0.1251591
101	0x3c4753f1	0.012166009
102	0xbdddedc1	-0.108363636
103	0xbeaad097	-0.33362266
104	0xbe2046bd	-0.15651985
105	0x3d810ed0	0.063016534
106	0xbdf88939	-0.12135548
107	0x3e14da0e	0.14536306
108	0x3cc15768	0.023601249
109	0xbe688c48	-0.22709763
110	0xbe2e7ab1	-0.1703899
111	0xbd956d59	-0.07296247
112	0xbf1c10cf	-0.6096315
113	0xbd42339e	-0.047412507
114	0xbdd6e76f	-0.10493361
115	0x3e097127	0.1342207
116	0x3e1d7469	0.15376438
117	0x3dc8078d	0.09767065
118	0xbdd141c7	-0.10217624
119	0xbd4896b4	-0.048971847
120	0xbdceec9e	-0.10103725
121	0x3d934499	0.07190818
122	0x3e0be2c1	0.13660719
123	0x3e1caae0	0.15299559
124	0x3e2ae6b1	0.16689564
125	0xbb2877de	-0.0025706212
126	0x3d770d8f	0.060315665
127	0x3e7d4797	0.2473434
128	0x3d8312b0	0.06400049
129	0x3de176d8	0.11008996
130	0xbbfd0e97	-0.0077226865
131	0x3db1b87c	0.08677766
132	0x3c4fc4ed	0.012681228
133	0x3e339179	0.17535962
134	0x3e202fda	0.15643254
135	0xbdacb177	-0.08432286
136	0x3cdd1afe	0.02699041
137	0x3bfeebb0	0.007779561
138	0x3dc39738	0.09550327
139	0x3e8e21c6	0.27760142
140	0x3cde8686	0.027163755
141	0xbe20b4d0	-0.15693974
142	0x3dab07e6	0.08351116
143	0xbd9f469a	-0.07777138
144	0xbc3db8af	-0.0115796765
145	0x3ec9196f	0.39277217
146	0xbe0e1889	-0.13876547
147	0xbd27b441	-0.040943388
148	0x3da80474	0.08203974
149	0xbd0b17bd	-0.033958185
150	0xbdc2e18b	-0.09515675
151	0xbe2a6416	-0.16639742
152	0x3c8eb3a7	0.01741965
153	0xbdf41bab	-0.1191934
154	0x3e3aff07	0.18261348
155	0xbdeb1f6b	-0.11480602
156	0xbce2c19f	-0.027680216
157	0x3c69e595	0.014275928
158	0x3da0e8f6	0.07856934
159	0x3de012b5	0.10941068
160	0x3cd073cf	0.025445847
161	0xbcb520e0	-0.022110403
162	0x3d04caff	0.032420155
163	0xbca92553	-0.02064768
164	0xbdd11ab4	-0.10210171
165	0xbdb0a7d2	-0.08625759
166	0xbe0c42aa	-0.13697305
167	0xbe24f3f6	-0.16108689
168	0xbe1c5ad8	-0.15269029
169	0x3efa934a	0.48940498
170	0x3e01305f	0.12616108
171	0xbda326a4	-0.079663545
172	0x3dcff41d	0.10153983
173	0xbe2dd6f5	-0.16976531
174	0x3d8a27a8	0.06745845
175	0xbea259fa	-0.31709272
176	0xbe21f142	-0.15814689
177	0xbdd62696	-0.104565784
178	0x3e7dce09	0.24785627
179	0x3d3a313a	0.045457102
180	0x3d894f43	0.06704571
181	0x3d427705	0.047476787
182	0x3c24bcfa	0.010054821
183	0x3c1534d6	0.009106835
184	0xbde96fab	-0.11398252
185	0xbdddd565	-0.108317174
186	0x3c874140	0.016510606
187	0xbc9dcb0a	-0.019261856
188	0xbe1aae8e	-0.1510565
189	0x3dffef85	0.124968566
190	0xbe461c62	-0.19346765
191	0xbdde881d	-0.10865805
192	0xbdc33b34	-0.095327765
193	0xbedb1676	-0.42790574
194	0xbddfde50	-0.109310746
195	0xbdc6d286	-0.09708123
196	0xbe2dc7a8	-0.16970694
197	0xbcf91ae8	-0.030408338
198	0x3e046efb	0.1293296
199	0xbe253525	-0.16133554
200	0xbdaf24ff	-0.08551978
201	0x3d71eba9	0.059062634
202	0xbda019ed	-0.07817445
203	0x3c2245ee	0.009904368
204	0x3d60eab0	0.054911315
205	0xbe6e9ce4	-0.23302037
206	0x3d5436f4	0.05181022
207	0xbd99caf5	-0.07509414
208	0xbda1403c	-0.0787358
209	0xbd9c6ce9	-0.076379605
210	0xbcddf079	-0.027092205
211	0xbebaf83c	-0.36517513
212	0xbcf5dc48	-0.030012265
213	0x3e2f772b	0.17135303
214	0xbd2f2504	-0.04275991
215	0xbd23ea4b	-0.04001836
216	0x3e23220c	0.15930957
217	0xbdfb2fa2	-0.122649446
218	0x3e299c29	0.16563477
219	0x3c797087	0.0152245825
220	0xbe46abc8	-0.19401467
221	0xbd8ca719	-0.06867809
222	0x3db7a513	0.08967032
223	0xbe5ea9e8	-0.21744502
224	0xbe2227c6	-0.15835485
225	0xbe200e81	-0.15630533
226	0xbd5b0c71	-0.053478662
227	0xbc86ea81	-0.016469242
228	0x3dfb5149	0.12271363
229	0xbb691117	-0.0035563165
230	0x3e186a95	0.14884408
231	0xbd88c771	-0.066786654
232	0x3d0f5d6d	0.035001207
233	0x3ddce95d	0.10786698
234	0x3de770d0	0.11300814
235	0xbe83fed3	-0.25780353
236	0xbde15647	-0.11002784
237	0xbd835e7e	-0.06414507
238	0x3d084150	0.03326541
239	0xbe1bc2db	-0.1521105
240	0x3deee582	0.11664869
241	0xbeac01ae	-0.33595031
242	0x3dec40c7	0.11535793
243	0xbc88aed4	-0.016684927
244	0x3e6fe740	0.23428059
245	0xbe2b22bc	-0.16712469
246	0x3e1007e0	0.14065504
247	0x3e1d313c	0.15350813
248	0xbc338c7a	-0.010958785
249	0x3dbf8055	0.09350649
250	0xbe20dd35	-0.15709384
251	0xbd8dfc98	-0.06932944
252	0x3dc782bf	0.09741735
253	0x3cd854a8	0.026407555
254	0x3db63fb6	0.08898871
255	0xbe0c6509	-0.13710417

layer5.bn1.weight f4 [16]
0	0x3f5ad0c4	0.854748
1	0x3f5f1304	0.8713839
2	0x3f4cf4b4	0.8006089
3	0x3f7c31e7	0.98513645
4	0x3f643a4e	0.89151466
5	0x3f572a93	0.8404934
6	0x3f57837f	0.8418502
7	0x3f5be4e5	0.8589614
8	0x3f5adc35	0.8549226
9	0x3f58d958	0.8470664
10	0x3f51fa72	0.82022774
11	0x3f561f67	0.83641666
12	0x3f4b31ae	0.7937268
13	0x3f4f698f	0.81020445
14	0x3f74279f	0.95372957
15	0x3f397fb1	0.72460467

layer5.bn1.bias f4 [16]
0	0xbe2d38f0	-0.16916251
1	0x3d7a9789	0.06117967
2	0xbdbba674	-0.09162608
3	0xbdce6532	-0.10077895
4	0xbc4fd085	-0.012683992
5	0xbce27c8c	-0.02764728
6	0xbe0f899b	-0.14017336
7	0xbddaddd6	-0.10686843
8	0x3e5eea7c	0.21769136
9	0x3e20424f	0.15650295
10	0xbd1ea6e4	-0.038733378
11	0xbe5515d0	-0.20809102
12	0xbd5436a8	-0.051809937
13	0xbe44eb00	-0.1923027
14	0xbd0d04c5	-0.034428377
15	0x3d7117ab	0.058860462

layer5.bn1.running_mean f4 [16]
0	0x3f6117bc	0.8792684
1	0xbd7c84fb	-0.061650258
2	0x3ec22dea	0.37925655
3	0x3f2bf0f1	0.6716452
4	0xbf8baf16	-1.0912807
5	0x3f3186b1	0.6934615
6	0x3ebdad9b	0.37046513
7	0x3e85c914	0.26129973
8	0xbf90f132	-1.1323607
9	0xbf0eead0	-0.55827045
10	0xbe0473d3	-0.12934808
11	0x3f0acb55	0.5421651
12	0xbeb52b3a	-0.35384542
13	0x3f0eb949	0.5575147
14	0x3ee1e17a	0.44117337
15	0x3e23c3d8	0.15992677

layer5.bn1.running_var f4 [16]
0	0x3f8f1566	1.1178405
1	0x3e0b9369	0.13630451
2	0x3f0f3b5e	0.5594996
3	0x3e24bba1	0.160872
4	0x3f04ae6a	0.51828635
5	0x3f6ca37b	0.9243695
6	0x3dcef7c5	0.10105852
7	0x3e852c83	0.26010522
8	0x3f6ec077	0.9326243
9	0x3f6e82a5	0.931681
10	0x3ee54bdb	0.44784436
11	0x3f8f28e0	1.1184349
12	0x3eaa35ad	0.33244076
13	0x3eab2dd4	0.33433402
14	0x3f5bde2f	0.858859
15	0x3e5dae5d	0.21648546

layer5.conv2.weight f4 [16, 16, 1, 3]
0	0x3d30a36d	0.043124605
1	0x3c64eb07	0.0139720505
2	0xbcc1ab3b	-0.02364122
3	0xbd54bd04	-0.05193807
4	0x3ce1b957	0.027554197
5	0xbdf5c526	-0.12000494
6	0xbd811fd2	-0.06304897
7	0xba747cc3	-0.0009326452
8	0xbdf37dd7	-0.118892364
9	0xbc40fe18	-0.011779331
10	0xbd6b9121	-0.057511453
11	0xbdf8a82f	-0.121414535
12	0x3c8e1a8e	0.017346647
13	0x3da9b427	0.082863145
14	0x3d95f97e	0.073229775
15	0xbdb9981a	-0.09062214
16	0x3ea61598	0.3243835
17	0x3d43e172	0.047822423
18	0x3def5a3d	0.116871335
19	0xbe19f8f3	-0.15036373
20	0x3c6baa3a	0.014383847
21	0x3d503a4d	0.05083685
22	0xbd991753	-0.07475152
23	0xbcb2fab0	-0.021848053
24	0xbb9684f5	-0.0045934864
25	0x3d4bb392	0.0497318
26	0xbdd29cad	-0.1028379
27	0xbc8880dd	-0.01666301
28	0xbde34987	-0.110980086
29	0xbb93902e	-0.0045032715
30	0xbdf4dc4c	-0.11956081
31	0xbddb686f	-0.107132785
32	0x3d850ed3	0.06496968
33	0xbdf81475	-0.12113277
34	0x3e4683b2	0.19386175
35	0x3d3221f4	0.04348941
36	0xbd0cce58	-0.034376472
37	0xbcc426ca	-0.023944277
38	0x3d47b954	0.048760727
39	0x3ce7f40c	0.028314613
40	0x3d8656ca	0.065595224
41	0x3da325e7	0.07966214
42	0x3db83827	0.08995085
43	0x3d27c4d0	0.04095918
44	0x3ddde27f	0.10834216
45	0xbdcd1726	-0.10014181
46	0x3e0f58ee	0.13998768
47	0x3ddf9173	0.10916414
48	0xbd936be0	-0.0719831
49	0xbda72ae9	-0.08162481
50	0x3d1c4d51	0.038159672
51	0xbd771cde	-0.060330264
52	0x3df480e4	0.119386464
53	0xbd978e65	-0.074002065
54	0x3d705fcf	0.05868512
55	0xbd19ed02	-0.037579544
56	0xbd95625b	-0.072941504
57	0x3d796dbd	0.06089567
58	0xbe2386b4	-0.15969354
59	0xbdb0cb1f	-0.08632492
60	0x3dc97d8e	0.09838401
61	0x3dc6e7c1	0.09712172
62	0xbdaefee8	-0.08544713
63	0x3b989f54	0.0046576653
64	0x3d5e6e5f	0.054304477
65	0x3d99a7e8	0.07502729
66	0x3d8a9386	0.06766419
67	0xbc9cb143	-0.019127494
68	0xbd20cef4	-0.039259866
69	0x3c32c456	0.010911068
70	0x3d124155	0.035706837
71	0xbd4274d3	-0.047474694
72	0xbde76a85	-0.11299614
73	0x3e16fb66	0.14744338
74	0x3d88612a	0.066591576
75	0x3dd3b0aa	0.1033643
76	0x3d81f53a	0.063456014
77	0x3c873f25	0.016509602
78	0xbde606e0	-0.1123178
79	0x3d8a3170	0.06747711
80	0xbcb22758	-0.021747276
81	0x3ba0d34c	0.004908001
82	0x3e5123c7	0.20423804
83	0x3cd2d383	0.025735622
84	0x3dde218d	0.10846243
85	0xbdbf60b9	-0.0934462
86	0x3dbb5a29	0.09148056
87	0x3d904737	0.07044833
88	0x3d91ee50	0.071255326
89	0xbd895dcc	-0.067073435
90	0xbdc24ed5	-0.09487692
91	0x3e331170	0.1748712
92	0x3de79a32	0.11308707
93	0x3cd5f9a3	0.026120013
94	0x3d2fa627	0.042883065
95	0xbcbb0426	-0.022829127
96	0x3ddac74e	0.106825456
97	0xbe4a970c	-0.19784182
98	0x3df3efdb	0.11910983
99	0x3dd43ab6	0.10362761
100	0x3e8454d5	0.25845972
101	0xbd85c9fa	-0.065326646
102	0x3d3e39b0	0.046441734
103	0x3def67f3	0.116897486
104	0xbd4d76ca	-0.050162114
105	0xbdb54470	-0.08850944
106	0x3dc6a486	0.09699349
107	0xbdcfbf02	-0.10143854
108	0x3d77faae	0.0605418
109	0x3e8532ff	0.2601547
110	0x3deda62a	0.11603959
111	0x3debd319	0.11514873
112	0xbe120f54	-0.1426366
113	0xbda2bb43	-0.079458736
114	0x3d211c29	0.039333496
115	0x3c9055c3	0.01761902
116	0x3cf7142e	0.03016099
117	0x3d0e7e2c	0.034788296
118	0x3e247ff2	0.16064432
119	0x3cef9ea0	0.029250443
120	0xbb45c367	-0.0030176283
121	0xbea8bded	-0.32957402
122	0x3c729482	0.014805915
123	0x3d6d7ba0	0.057979226
124	0xbe8cc770	-0.2749591
125	0x3d1aaf89	0.03776506
126	0x3d087ea4	0.0333239
127	0xbd95869d	-0.07301066
128	0x3de1fae3	0.11034181
129	0x3db660b3	0.08905163
130	0xbd82033d	-0.06348274
131	0x3dca806a	0.09887774
132	0xbdd21fc5	-0.10259966
133	0xbd1ca9e3	-0.038247954
134	0x3d6aeff1	0.057357732
135	0xbde9f10e	-0.11422931
136	0xbe3c03e1	-0.18360855
137	0xbdf911cd	-0.12161598
138	0xbb1a193d	-0.0023513578
139	0xbe83b3bc	-0.25723064
140	0x3b77ed99	0.0037830828
141	0xbd544ac9	-0.051829133
142	0xbcd81e50	-0.026381642
143	0x3db586bf	0.088635914
144	0xbd85688b	-0.065140806
145	0x3d609700	0.054831505
146	0x3ce5fdd6	0.02807514
147	0x3d44ca22	0.04804433
148	0x3d081741	0.0332253
149	0xbd32bb91	-0.04363591
150	0xbc56036a	-0.013062337
151	0x3c38a608	0.011270054
152	0xbd4f61d9	-0.050630424
153	0xbdf49f22	-0.11944415
154	0x3dca0f2a	0.098661736
155	0xbd9ecc90	-0.07753861
156	0x3cc177e0	0.023616731
157	0xbdafce70	-0.08584297
158	0x3c3d8caf	0.011569186
159	0xbdd04376	-0.10169117
160	0x3dd79ea8	0.10528308
161	0xbd2f184e	-0.042747788
162	0x3dc13ecc	0.09435806
163	0xbd95f3dc	-0.07321903
164	0x3b6a563d	0.0035756968
165	0xbde2a1f5	-0.11066047
166	0xbd385b68	-0.045009047
167	0x3c0fec6d	0.008784396
168	0xbcb289e3	-0.021794265
169	0x3e0fe375	0.14051612
170	0xbba84aa5	-0.0051358514
171	0x3dbccb4d	0.09218464
172	0x3d3aa8f4	0.045571283
173	0x3dda255d	0.10651658
174	0xbdfa4709	-0.1222058
175	0xbd6a667b	-0.05722664
176	0x3da24fc8	0.07925373
177	0x3d49b44d	0.049244214
178	0x3e05506d	0.13018961
179	0x3cd0400f	0.02542117
180	0x3cbccc58	0.023046657
181	0x3e226838	0.15860069
182	0x3d7dd461	0.06197012
183	0x3cc84f49	0.024451869
184	0x3dcaa81c	0.098953456
185	0x3d37b122	0.04484666
186	0x3c6864cb	0.014184187
187	0x3d024b34	0.03181
188	0xbdd40fee	-0.10354601
189	0xbbb6cb41	-0.005578429
190	0x3dfd45ab	0.12366804
191	0x3d43d3a7	0.04780927
192	0xbd57d923	-0.052697312
193	0xbe3ebd12	-0.18626812
194	0xbcf2e6be	-0.029651042
195	0x3d0bfdef	0.034177717
196	0x3d3afda0	0.045652032
197	0x3d8cc8b4	0.068742186
198	0x3d9b949b	0.075967036
199	0xbe211177	-0.15729319
200	0x3d8ce8a3	0.068803094
201	0x3d15ea7d	0.03660058
202	0x3d2e76b4	0.042593673
203	0x3d965e7b	0.073422395
204	0x3d1c20a1	0.038117055
205	0xbd002ba3	-0.031291615
206	0xbd781293	-0.06056459
207	0xbd1dc6dd	-0.03851973
208	0xbe06fd34	-0.13182527
209	0x3da9308b	0.08261212
210	0xbd761a58	-0.060083717
211	0x3d5466a4	0.0518557
212	0x3dd2524b	0.102696024
213	0xbda781ab	-0.08179029
214	0xbd9d78ed	-0.076890804
215	0xbb1a0339	-0.0023500456
216	0x3cbd41eb	0.023102721
217	0xbc1aec98	-0.009455822
218	0x3d981e05	0.07427601
219	0xbdabee8a	-0.08395107
220	0x3ce044b3	0.027376508
221	0xbd824442	-0.063606754
222	0x3c87f16e	0.016594615
223	0xbe5b8044	-0.21435648
224	0x3ddba1aa	0.10724194
225	0x3df7bd71	0.1209668
226	0xbe18ec81	-0.14933969
227	0xbdf8d959	-0.12150831
228	0xbd6ed3df	-0.058307525
229	0xbdd7b871	-0.10533226
230	0x3de1572a	0.11002953
231	0x3dc19e1d	0.09453986
232	0xbd3253dc	-0.043537006
233	0x3de4d786	0.1117392
234	0xbde27f8e	-0.110594854
235	0xbdd2e57c	-0.10297677
236	0x3c4e80f3	0.012603986
237	0xbde73a10	-0.112903714
238	0xbe037777	-0.12838541
239	0xbdd5112e	-0.104036674
240	0xbd86a1ca	-0.065738276
241	0x3cf0fc2c	0.02941712
242	0x3d9251ec	0.071445316
243	0xbdd248e4	-0.10267809
244	0x3e08b273	0.13349323
245	0xbd5eda49	-0.05440739
246	0xbb51b724	-0.003200003
247	0x3e4dd0ae	0.20099136
248	0x3d6d1df7	0.057889905
249	0x3d077a98	0.0330759
250	0x3eb47eb8	0.3525293
251	0x3df5e029	0.12005646
252	0x3d737919	0.05944166
253	0x3e0078b7	0.12546049
254	0x3da9f3ed	0.08298478
255	0x3cf87a23	0.030331677

layer5.bn2.weight f4 [16]
0	0x3f5f8eb6	0.87327135
1	0x3f4e16d0	0.8050356
2	0x3f8aa962	1.0832942
3	0x3f68c605	0.90927154
4	0x3f53878c	0.82628703
5	0x3f6cd27b	0.9250867
6	0x3fbcf6a3	1.4762768
7	0x3f3fd7b0	0.7493849
8	0x3f1440c7	0.5791134
9	0x3fbc1048	1.4692469
10	0x3f5bc472	0.85846627
11	0x3f6eb335	0.932422
12	0x3f71fa05	0.94522125
13	0x3f57b80a	0.84265196
14	0x3f972d31	1.1810666
15	0x3f28925b	0.6584832

layer5.bn2.bias f4 [16]
0	0x3d7772d5	0.060412247
1	0xbd832d41	-0.06405116
2	0x3e739a0b	0.23789231
3	0xbda95507	-0.08268171
4	0x3dbd7041	0.09249926
5	0x3dea0114	0.11425987
6	0x3e084415	0.13307221
7	0xbd9b6679	-0.075879045
8	0x3c999e56	0.018752258
9	0x3d6d4cb6	0.057934485
10	0xbd9012d2	-0.0703484
11	0xbd852557	-0.06501263
12	0x3dae1465	0.08499984
13	0x3c68a5a0	0.014199644
14	0xbd505373	-0.050860833
15	0xbe1195ce	-0.14217302

layer5.bn2.running_mean f4 [16]
0	0x3de0e2d5	0.10980765
1	0x3e4d7304	0.20063406
2	0xbe854e85	-0.26036468
3	0x3e66843e	0.22511384
4	0xbe86152b	-0.26188025
5	0x3e9ecae0	0.31014156
6	0x3eba2b20	0.36361027
7	0xbf234487	-0.6377644
8	0xbe66f652	-0.22554901
9	0x3e2babfc	0.16764826
10	0xbd89e235	-0.06732599
11	0x3e816ecc	0.25279844
12	0x3e00cc81	0.12578012
13	0xbe470812	-0.19436672
14	0xbe701626	-0.23445949
15	0xbe29e288	-0.16590321

layer5.bn2.running_var f4 [16]
0	0x3e4bb0cc	0.19891661
1	0x3df552e2	0.11978699
2	0x3eca7e37	0.3954942
3	0x3d9f2ddd	0.077724196
4	0x3f07e8e4	0.5308974
5	0x3e4ad1e0	0.19806623
6	0x3eed119a	0.4630249
7	0x3fb81f26	1.4384506
8	0x3ea696c8	0.32536912
9	0x3df40db0	0.11916673
10	0x3e84c1e2	0.2592917
11	0x3e41c7c8	0.18923867
12	0x3f02f941	0.5116158
13	0x3e6c185f	0.23056172
14	0x3f8b6ed5	1.0893198
15	0x3e92956a	0.2862962
