das_new - 副本/models/best_model.pth (torch, 98946 bytes, 176 tensors)

input_conv.weight f4 [4, 1, 1, 3]
0	0xbec48132	-0.38379818
1	0xbe63f6f0	-0.22262168
2	0xbe5bc6c2	-0.21462539
3	0x3de17e6f	0.110104434
4	0x3eb599a6	0.35468787
5	0x3e70da85	0.23520859
6	0xbebc81d3	-0.36817798
7	0x3e2d378b	0.16915719
8	0xbdedb08a	-0.11605938
9	0xbdee826a	-0.11645968
10	0xbedbd2a6	-0.4293415
11	0x3deb19ca	0.11479528

input_bn.weight f4 [4]
0	0x3f76c9e4	0.9640181
1	0x3f70dfaf	0.94091314
2	0x3f88fb15	1.0701624
3	0x3f84dd16	1.037997

input_bn.bias f4 [4]
0	0x3e10390d	0.14084263
1	0xbe52a36f	-0.20570157
2	0x3d45bb25	0.048274178
3	0xbdb3aea2	-0.08773543

input_bn.running_mean f4 [4]
0	0xb94faea5	-0.00019806119
1	0x39a56e34	0.0003155336
2	0x391d396a	0.00014994075
3	0xb9c8363d	-0.00038187383

input_bn.running_var f4 [4]
0	0x3eeb1119	0.45911482
1	0x3f00d0b2	0.50318444
2	0x3ee4dc0a	0.44699126
3	0x3f09798e	0.537011

layer1.conv1.weight f4 [4, 4, 1, 3]
0	0x3e03d0a5	0.1287256
1	0x3f0db913	0.55360526
2	0xbe5e1de8	-0.21691096
3	0xbe68c00b	-0.22729509
4	0xbd437cb7	-0.04772636
5	0xbe4b4971	-0.19852234
6	0xbe77ce3a	-0.24199763
7	0xbe2a55d0	-0.16634297
8	0x3cde2be6	0.027120542
9	0xbe240d15	-0.16020615
10	0x3e9a00db	0.30078778
11	0xbd94aaa2	-0.07259108
12	0xbd8802cf	-0.06641161
13	0xbe9e6e8c	-0.30943716
14	0xbdb68c8f	-0.08913528
15	0xbde3c10d	-0.11120806
16	0xbe401f76	-0.18762001
17	0xbd3c743c	-0.046009287
18	0xbe8f476a	-0.27984172
19	0x3c2aa1d4	0.010414559
20	0xbe93adba	-0.2884348
21	0x3e8df8f7	0.27729008
22	0xbe4f95be	-0.20271966
23	0xbe450522	-0.1924024
24	0xbc8c54ac	-0.017130218
25	0xbe3c36b4	-0.18380243
26	0xbe8a456f	-0.270061
27	0x3e520e3a	0.2051324
28	0xbf21054f	-0.62898725
29	0xbd97682a	-0.073929146
30	0xbdec7942	-0.115465656
31	0xbe7a76a7	-0.24459325
32	0x3e2b2840	0.16714573
33	0xbe932aa7	-0.2874348
34	0xbe54fa08	-0.20798504
35	0xbe3ddb8d	-0.18540783
36	0x3d9f98bc	0.07792804
37	0x3e8689a2	0.2627688
38	0x3db7ebf1	0.08980549
39	0x3d78b701	0.0607214
40	0xbf13e12a	-0.5776545
41	0x3e8bcff7	0.27307102
42	0x3e0099f8	0.12558734
43	0xbeb62b39	-0.3557985
44	0xbd002be1	-0.031291846
45	0x3e61672e	0.22012016
46	0x3ede2d92	0.43394142
47	0xbdff19de	-0.12456106

layer1.bn1.weight f4 [4]
0	0x3f87d425	1.0611616
1	0x3f81c00c	1.0136733
2	0x3f825efd	1.0185238
3	0x3f68285a	0.9068657

layer1.bn1.bias f4 [4]
0	0x3d7ddea1	0.061979894
1	0x3d7dcee2	0.061964877
2	0x3df9afc7	0.1219173
3	0xbd9cd361	-0.07657505

layer1.bn1.running_mean f4 [4]
0	0x3dc60e3a	0.09670682
1	0xbe07a55d	-0.13246675
2	0xbe0f3473	-0.13984852
3	0xbd2760d8	-0.04086384

layer1.bn1.running_var f4 [4]
0	0x3eef3117	0.4671714
1	0x3ee3a4a9	0.44461563
2	0x3ef2d301	0.47426608
3	0x3f146d1e	0.57979

layer1.conv2.weight f4 [4, 4, 1, 3]
0	0x3e3d20a8	0.18469489
1	0xbe843461	-0.25821212
2	0xbb744586	-0.0037272885
3	0xbe1216a1	-0.14266445
4	0x3ea9e39f	0.33181474
5	0x3e5cfbb8	0.21580398
6	0xbdb89954	-0.0901362
7	0x3e569ac9	0.20957483
8	0x3caf3c7c	0.021391146
9	0xbcd78fb3	-0.026313638
10	0x3d80452d	0.06263194
11	0x3e89a056	0.2688014
12	0x3e88cd75	0.2671925
13	0xba3d2fab	-0.0007216881
14	0x3e8c42fa	0.2739485
15	0xbe569580	-0.20955467
16	0xbeda5a5c	-0.42647064
17	0x3e13c453	0.1443036
18	0x3e8a66d6	0.27031583
19	0xbe8542ca	-0.2602752
20	0x3e8e308e	0.2777142
21	0x3e338599	0.17531432
22	0xbeaaf5f5	-0.33390775
23	0x3dafe18f	0.08587944
24	0xbe4516d4	-0.1924699
25	0x3ec5b87d	0.38617316
26	0x3d41eff1	0.047347967
27	0xbe918bb7	-0.28426906
28	0xbe7ab7b4	-0.2448414
29	0xbd48ee2b	-0.04905526
30	0xbd12fe9f	-0.035887357
31	0xbe48f3dc	-0.19624275
32	0x3e620fe4	0.22076374
33	0xbb6fb6dc	-0.0036577499
34	0xbe1b3581	-0.15157129
35	0x3e817d8c	0.25291097
36	0xbd8fa84c	-0.07014522
37	0xbea0f696	-0.3143813
38	0x3e8d5323	0.2760249
39	0xbd244330	-0.040103137
40	0xbdf65c80	-0.12029362
41	0xbd9f0809	-0.077652045
42	0xbd13b579	-0.036061738
43	0xbe758679	-0.23977078
44	0xbe07ab1a	-0.13248864
45	0xbe2fc351	-0.17164351
46	0x3d63f866	0.055656813
47	0x3e3833c6	0.179885

layer1.bn2.weight f4 [4]
0	0x3f718832	0.9434844
1	0x3f87933b	1.0591806
2	0x3f624b1c	0.8839586
3	0x3f663885	0.8992999

layer1.bn2.bias f4 [4]
0	0x3c801f66	0.015639972
1	0x3db771d1	0.08957256
2	0x3db1952a	0.08671029
3	0xbd714724	-0.058905736

layer1.bn2.running_mean f4 [4]
0	0x3d926861	0.07148815
1	0xbe170073	-0.14746265
2	0xbc2bfae3	-0.010496828
3	0xbe20b130	-0.15692592

layer1.bn2.running_var f4 [4]
0	0x3ef298cc	0.473822
1	0x3ee5d4a4	0.44888794
2	0x3ee8733a	0.4540041
3	0x3ee5c44e	0.4487633

layer1.fc1.weight f4 [1, 4]
0	0xbe258dea	-0.16167417
1	0xbe836f90	-0.25671053
2	0xbee3b618	-0.44474864
3	0xbda4275b	-0.08015319

layer1.fc2.weight f4 [4, 1]
0	0x3e609ac1	0.21934034
1	0x3f22041b	0.63287514
2	0x3f327853	0.6971485
3	0xbedb86e0	-0.4287634

layer1.fc2.bias f4 [4]
0	0x3f7a7266	0.9783081
1	0xbf1d32e6	-0.6140579
2	0x3ee1a6f3	0.44072685
3	0xbda1b520	-0.07895875

layer1.shortcut.0.weight f4 [4, 4, 1, 1]
0	0x3bbd8e5b	0.0057847924
1	0xbe19688e	-0.1498129
2	0xbf3a5923	-0.7279226
3	0xbe629b5d	-0.22129579
4	0x3e9e93ee	0.30972236
5	0xbf0a8c0a	-0.5411993
6	0x3ba8fc7f	0.005157053
7	0x3f28c370	0.65923214
8	0x3e8f1ebf	0.27953145
9	0xbea0ecf1	-0.31430772
10	0xbec3f4dc	-0.3827275
11	0x3e837cc5	0.2568113
12	0x3e49e753	0.1971715
13	0xbd4e7616	-0.050405584
14	0xbf740f90	-0.95336246
15	0xbe739232	-0.23786238

layer1.shortcut.1.weight f4 [4]
0	0x3f978cb4	1.1839814
1	0x3f89f2d4	1.077723
2	0x3f744cf4	0.9542992
3	0x3f5f224d	0.87161714

layer1.shortcut.1.bias f4 [4]
0	0x3dae819f	0.08520817
1	0x3dec7f20	0.11547685
2	0xbddd039a	-0.107917026
3	0xbd20b9d9	-0.039239738

layer1.shortcut.1.running_mean f4 [4]
0	0xbe60a4d0	-0.21937871
1	0x3e04203c	0.12902921
2	0xbce5c4bf	-0.028047917
3	0xbe0f7b4b	-0.14011876

layer1.shortcut.1.running_var f4 [4]
0	0x3f05e604	0.523041
1	0x3f04005b	0.5156304
2	0x3f2ac8f2	0.6671287
3	0x3f164e9f	0.58713716

layer2.conv1.weight f4 [4, 4, 1, 3]
0	0xbd5b1540	-0.053487062
1	0xbe1c5a34	-0.15268785
2	0x3df56dac	0.11983809
3	0xbe35a6a6	-0.17739353
4	0xbdfeaf4e	-0.124357805
5	0xbe4eb3ae	-0.2018573
6	0xbe05d19d	-0.13068242
7	0xbe843943	-0.25824937
8	0x3e504366	0.2033821
9	0x3e137d49	0.14403261
10	0x3e015c9f	0.12632988
11	0xbe303443	-0.17207436
12	0x3e6977e5	0.22799642
13	0xbc023d07	-0.00794912
14	0xbe84f6cf	-0.2596955
15	0x3d8933e8	0.066993535
16	0x3f03a769	0.5142732
17	0xbe59c33c	-0.21265882
18	0x3dfced23	0.12349918
19	0x3d33b845	0.043876905
20	0xbe676398	-0.22596586
21	0xbcf6883b	-0.030094257
22	0x3ef3d543	0.47623643
23	0x3e18a7fa	0.14907828
24	0x3da6d0d2	0.08145298
25	0x3fa7c040	1.3105545
26	0xbe723754	-0.23653919
27	0x3e772d43	0.2413836
28	0xbecc62b2	-0.3991905
29	0x3da68470	0.08130729
30	0xbdbbd020	-0.09170556
31	0xbecc284a	-0.39874488
32	0x3e8a374c	0.26995313
33	0x3e337745	0.17525966
34	0xbf8819ca	-1.063287
35	0x3de26c38	0.11055797
36	0x3d9751fa	0.07388683
37	0xbe65f126	-0.22455272
38	0xbe0cac86	-0.13737687
39	0x3d0779ff	0.03307533
40	0xbe8ccb56	-0.27498883
41	0x3e2b2d09	0.16716398
42	0xbe01c918	-0.12674367
43	0xbe49466e	-0.19655773
44	0xbe3ad283	-0.18244366
45	0x3cdf3c63	0.027250474
46	0x3e944864	0.2896148
47	0xbd0624a9	-0.032749806

layer2.bn1.weight f4 [4]
0	0x3f731f61	0.94969755
1	0x3f80e3a2	1.0069468
2	0x3f7a0ae6	0.9767288
3	0x3f88a73c	1.0676036

layer2.bn1.bias f4 [4]
0	0xbd3455cb	-0.04402713
1	0x3c30783e	0.0107708555
2	0x3d03fa03	0.03222085
3	0x3ded6931	0.11592329

layer2.bn1.running_mean f4 [4]
0	0xbd984a69	-0.074360676
1	0x3e1536bd	0.14571662
2	0x3d997717	0.07493418
3	0xbe4e1cd1	-0.2012818

layer2.bn1.running_var f4 [4]
0	0x3ee61b94	0.44942915
1	0x3eed175b	0.4630688
2	0x3f58651e	0.8452929
3	0x3eef57c1	0.46746638

layer2.conv2.weight f4 [4, 4, 1, 3]
0	0x3e7caaf7	0.24674593
1	0xbb92a78b	-0.004475539
2	0x3e783bdb	0.24241583
3	0xbe64dfc6	-0.22350988
4	0xbd635b65	-0.055507082
5	0x3e18a8d8	0.14908159
6	0x3dc0b987	0.094103865
7	0xbf103796	-0.5633482
8	0xbe386acf	-0.18009494
9	0xbe83407c	-0.25635135
10	0x3ea14f8b	0.31506
11	0xbd172868	-0.03690377
12	0xbda64e61	-0.08120418
13	0x3df2453d	0.118296124
14	0x3dde79ec	0.108630985
15	0xbe92766b	-0.2860597
16	0xbe83ed84	-0.25767148
17	0x3e158c7e	0.14604375
18	0x3d56b3c4	0.05241753
19	0x3e463d5c	0.19359344
20	0x3e00ea7c	0.12589449
21	0xbd9a864d	-0.07545147
22	0x3e40324e	0.1876919
23	0xbdde37e9	-0.10850508
24	0xbe19a220	-0.15003252
25	0x3ed107e9	0.40826347
26	0x3e462083	0.1934834
27	0xbe031e56	-0.12804541
28	0x3f55d5b7	0.8352923
29	0xbe81d842	-0.25360304
30	0xbe7e9820	-0.24862719
31	0x3e130422	0.14357045
32	0x3e07588c	0.13217372
33	0xbe02837f	-0.12745474
34	0xbf3f5907	-0.7474522
35	0xbd4b5d7e	-0.049649708
36	0xbb948212	-0.004532107
37	0xbece40cd	-0.40283814
38	0x3d26d5c1	0.040731195
39	0xbe8c2564	-0.27372277
40	0xbe001439	-0.12507714
41	0x3df4a53a	0.11945577
42	0xbe837f19	-0.25682905
43	0xbe40711c	-0.18793148
44	0x3ddcf378	0.107886255
45	0xbc4e3833	-0.012586641
46	0x3c03c474	0.008042444
47	0x3e0fe44e	0.14051935

layer2.bn2.weight f4 [4]
0	0x3f7ca8aa	0.9869486
1	0x3f732c67	0.9498963
2	0x3f849889	1.035905
3	0x3f96f500	1.1793518

layer2.bn2.bias f4 [4]
0	0xbd8f5012	-0.06997694
1	0x3cc06aab	0.023488363
2	0x3d95d0aa	0.0731519
3	0xbccb8c54	-0.024847187

layer2.bn2.running_mean f4 [4]
0	0xbd8b451f	-0.06800293
1	0x3ca0f972	0.019650195
2	0x3d554ffb	0.05207823
3	0xbe05ff35	-0.13085635

layer2.bn2.running_var f4 [4]
0	0x3efab8c9	0.48969105
1	0x3ef2348c	0.47305715
2	0x3f0e52f2	0.55595315
3	0x3ee2a59b	0.44266972

layer2.fc1.weight f4 [1, 4]
0	0xbc929857	-0.017894907
1	0xbe0cef25	-0.13763101
2	0xbef7ffae	-0.48437256
3	0x3e005e7e	0.12536046

layer2.fc2.weight f4 [4, 1]
0	0x3f13e0b8	0.5776477
1	0x3f5fdb38	0.87443876
2	0x3f45c7a5	0.7725776
3	0xbf0aa4f5	-0.54157954

layer2.fc2.bias f4 [4]
0	0xbdcf540f	-0.10123455
1	0xbdaa7e97	-0.08324926
2	0xbf7b65ac	-0.98202014
3	0x3dd221bc	0.102603406

layer3.conv1.weight f4 [8, 4, 1, 3]
0	0x3e330273	0.17481403
1	0x3e6a346c	0.2287156
2	0x3de579ec	0.112048954
3	0xbcd99e8c	-0.026564859
4	0x3cc4c9b1	0.024021955
5	0xbd6cd24a	-0.057817735
6	0xbe3f6b4d	-0.18693276
7	0xbe553edb	-0.20824759
8	0xbe3d96fe	-0.1851463
9	0x3e587385	0.21137817
10	0x3e0a0e25	0.13481958
11	0x3dbcefb1	0.09225405
12	0x3e4d68ae	0.20059463
13	0x3b184309	0.0023233315
14	0x3df0fcbc	0.11766955
15	0xbac5487b	-0.0015051508
16	0x3e2101b4	0.15723306
17	0x3dc5bdcb	0.09655341
18	0x3d0ac3d0	0.033878148
19	0xbe87c9d8	-0.26521182
20	0xbd732f22	-0.05937112
21	0x3d1afc50	0.03783828
22	0xbe9e5d5d	-0.30930606
23	0x3e0ed075	0.13946708
24	0x3d8f62b3	0.07001247
25	0xbd400956	-0.046883903
26	0xbe8b2973	-0.2718006
27	0xbb027ee5	-0.001991206
28	0xbe1c4ec5	-0.15264423
29	0xbe0c0005	-0.13671882
30	0x3e192a7f	0.14957617
31	0xbe849896	-0.25897664
32	0x3e206894	0.15664893
33	0xbd88648a	-0.06659801
34	0x3e6c83d8	0.2309717
35	0x3e8c278c	0.27373922
36	0x3d1a0142	0.037598856
37	0x3c1982a5	0.009369527
38	0xbda0aca6	-0.0784543
39	0xbd9167ab	-0.07099851
40	0xbec5331d	-0.3851556
41	0x3e28f5f8	0.1650008
42	0x3dbd33d3	0.092384
43	0xbd7fdc36	-0.06246587
44	0xbc86514d	-0.01639619
45	0x3d49ee7b	0.0492997
46	0x3b9ce2a2	0.004787759
47	0xbe7d6512	-0.24745587
48	0x3d93b21e	0.072117075
49	0xbe3a5a82	-0.18198588
50	0x3b65749c	0.0035012132
51	0x3cb7fc65	0.022459218
52	0x3d85e365	0.06537513
53	0x3e25c03d	0.16186614
54	0x3e472e6c	0.19451302
55	0x3f27a093	0.6547939
56	0x3e2c5e47	0.16832839
57	0xbdbdf01d	-0.092743136
58	0x3e65cc4e	0.22441217
59	0x3e822405	0.25418106
60	0xbe809714	-0.25115263
61	0xbed05073	-0.40686378
62	0xbde161be	-0.11004971
63	0x3d997014	0.0749208
64	0x3e40254c	0.18764228
65	0xbe50bf20	-0.20385408
66	0x3dfeeb34	0.12447205
67	0x3e223189	0.15839209
68	0x3e3a86d2	0.18215492
69	0x3e702340	0.23450947
70	0x3e767a22	0.24070027
71	0x3e6b1d8e	0.22960493
72	0x3e939613	0.28825435
73	0xbe994dc8	-0.29942155
74	0xbd9260dc	-0.07147381
75	0x3e000776	0.12502846
76	0x3e111673	0.1416872
77	0xbd845df4	-0.06463233
78	0xbe34ad1b	-0.1764416
79	0xbe87416e	-0.26417106
80	0x3e918f38	0.2842958
81	0xbe82eda2	-0.25571924
82	0xbdb6b128	-0.089205086
83	0x3c18e5df	0.009332149
84	0x3cf02b63	0.029317563
85	0x3ea4d735	0.3219544
86	0xbe05c16e	-0.13062069
87	0xbe8e54e0	-0.2779913
88	0x3e7048f7	0.23465334
89	0x3e67b956	0.22629294
90	0xbdd162c9	-0.1022392
91	0xbe4a7d9b	-0.19774477
92	0x3e5218be	0.20517251
93	0x3e8c75cc	0.27433622
94	0x3e11db84	0.14243895
95	0x3e65d62e	0.22444984

layer3.bn1.weight f4 [8]
0	0x3f824c2b	1.0179495
1	0x3f7e6128	0.99367
2	0x3f7a4b16	0.9777082
3	0x3f81828f	1.0117968
4	0x3f71dd50	0.9447832
5	0x3f7bfaa2	0.9842931
6	0x3f848136	1.0351932
7	0x3f8437d8	1.0329542

layer3.bn1.bias f4 [8]
0	0x3cda92ea	0.026681382
1	0x3cbfc086	0.023407232
2	0x3c01880e	0.007905973
3	0x3be1878b	0.006882613
4	0x3c818e48	0.015814915
5	0xbc77ad4e	-0.015117003
6	0x3c4e5a4a	0.012594769
7	0xbc74abf8	-0.014933579

layer3.bn1.running_mean f4 [8]
0	0x3d057654	0.03258355
1	0xbdd13e39	-0.10216946
2	0xbe070738	-0.13186347
3	0xbda9e1f0	-0.08295047
4	0x3e95c876	0.29254502
5	0x3d3049cf	0.04303914
6	0xbe3d820f	-0.18506645
7	0x3de4cad7	0.11171501

layer3.bn1.running_var f4 [8]
0	0x3eec0bb1	0.4610267
1	0x3ef965f7	0.48710606
2	0x3ee38e52	0.4444452
3	0x3ee199f4	0.4406277
4	0x3f1d973f	0.6155891
5	0x3ef05f4c	0.46947706
6	0x3ee97d6c	0.45603502
7	0x3ef5c87e	0.48004526

layer3.conv2.weight f4 [8, 8, 1, 3]
0	0x3e460513	0.19337873
1	0x3e39ecb5	0.18156703
2	0x3d87df51	0.06634391
3	0xbd93403d	-0.07189987
4	0xbd7af5ae	-0.061269455
5	0xbe4f81ed	-0.20264407
6	0xbe193593	-0.14961843
7	0x3c942429	0.018083649
8	0xbd8cfe45	-0.068844356
9	0x3e2115d5	0.15730985
10	0xbd314446	-0.043278
11	0x3d2843ba	0.041080214
12	0x3e1d40c9	0.15356745
13	0xbe559e7d	-0.2086124
14	0xbe16e64a	-0.14736286
15	0xbe3b0aa9	-0.18265785
16	0xbd8d3722	-0.068952814
17	0xbd3b8d9b	-0.045789342
18	0xbd64ef32	-0.055892177
19	0xbe5290e9	-0.20563091
20	0xbe3f934a	-0.1870853
21	0x3da7389d	0.08165095
22	0xbcff82f0	-0.031190366
23	0xbd51d5ff	-0.051229473
24	0x3d75eaf0	0.060038507
25	0xbe83aa7e	-0.25716013
26	0x3e094cd9	0.13408221
27	0xbdcabb7d	-0.09899042
28	0xbed8d5f9	-0.42350748
29	0xbd987620	-0.074444056
30	0x3e45edc4	0.19328982
31	0x3c99a169	0.018753724
32	0x3e16e142	0.14734367
33	0x3e298da4	0.16557938
34	0x3e43e715	0.1913112
35	0xbd2a7d6c	-0.041623518
36	0x3e05a2cf	0.13050388
37	0xbdecbd8e	-0.11559592
38	0x3e1e39ae	0.1545169
39	0xbd7ae165	-0.06125011
40	0xbebe2f56	-0.3714549
41	0xbdb7cb85	-0.08974365
42	0x3e4fc1ac	0.20288724
43	0x3d83dd18	0.06438655
44	0xbd9f9e5e	-0.07793878
45	0xbcaede91	-0.021346362
46	0xbec787f9	-0.38970926
47	0x3e18ef96	0.14935145
48	0xbde54aea	-0.11195929
49	0xbe48e586	-0.19618806
50	0xbc6c227f	-0.014412521
51	0xbe298f8b	-0.16558664
52	0xbe75118c	-0.23932475
53	0x3d41cd96	0.047315203
54	0x3d0fc7a7	0.035102513
55	0x3dec14d3	0.115274094
56	0xbe314572	-0.17311648
57	0xbd290fdf	-0.0412749
58	0xbd93f1f9	-0.07223887
59	0xbd9d2fb0	-0.07675111
60	0xbd79175e	-0.0608133
61	0x3b816175	0.0039483854
62	0xbe30ad11	-0.1725352
63	0xbcaccc00	-0.021093369
64	0x3d04bfb9	0.032409403
65	0xbce8f8ba	-0.028438915
66	0x3e183af3	0.14866237
67	0xbdc56341	-0.09638072
68	0xbe344274	-0.17603475
69	0xbe125a44	-0.14292246
70	0xbe8270bd	-0.25476637
71	0xbe419b6d	-0.18906946
72	0x3dccb882	0.099961296
73	0x3dc5e6f7	0.09663194
74	0xbd9698e9	-0.07353384
75	0xbe50d565	-0.20393904
76	0x3d2dba9d	0.042414296
77	0xbe442cb9	-0.19157685
78	0xbe171a2f	-0.14756082
79	0x3cb60631	0.02221975
80	0xbd90af41	-0.07064677
81	0x3dc477f7	0.09593194
82	0xbdbddcf3	-0.09270658
83	0x3e4a9e87	0.19787036
84	0x3d787a07	0.06066325
85	0xbe4d6007	-0.20056163
86	0xbdd13d1e	-0.10216735
87	0x3df36dbe	0.11886166
88	0x3e88fb99	0.26754454
89	0x3e49fab9	0.1972455
90	0xbd94cfc1	-0.072661884
91	0x3e74e5f1	0.2391584
92	0x3e2e65ef	0.17031072
93	0xbcc64519	-0.02420287
94	0x3e2bfb8d	0.16795178
95	0x3c38c1e7	0.011276699
96	0xbde07cae	-0.10961281
97	0xbe83bb23	-0.2572871
98	0x3b9cd1f5	0.004785771
99	0xbdbfb069	-0.093598194
100	0xbe6ed95a	-0.233251
101	0xbe298baa	-0.16557184
102	0xbd523537	-0.05132028
103	0x3c7593a0	0.01498881
104	0xbe39207b	-0.18078797
105	0xbe232423	-0.15931754
106	0x3dd57c8d	0.10424147
107	0xbe1ff4c4	-0.15620714
108	0x3c26b2cc	0.010174464
109	0x3dd5fae3	0.104482435
110	0x3e256476	0.16151604
111	0xbd62ca42	-0.05536867
112	0xbd5ed384	-0.054400936
113	0xbd5c0b9f	-0.05372202
114	0xbd251372	-0.040301748
115	0xbe648eb9	-0.2232007
116	0x3d9eb452	0.07749237
117	0xbd5ada4a	-0.053430833
118	0xbe3375a2	-0.17525342
119	0xbe228e96	-0.15874705
120	0x3af76b4a	0.0018876579
121	0xbdd99640	-0.10624361
122	0x3e0a6a5c	0.13517135
123	0xbac4450e	-0.0014974193
124	0x3cec632f	0.028855888
125	0x3de037f0	0.10948169
126	0x3d806e5d	0.0627105
127	0xbe5cc40b	-0.2155916
128	0x3d101911	0.035180155
129	0x3e2fe34b	0.17176549
130	0x3e393e1d	0.180901
131	0x3dda7f97	0.10668867
132	0xbd936a9c	-0.071980685
133	0x3e049897	0.12948833
134	0x3e3291d8	0.17438447
135	0x3e4368ad	0.190829
136	0x3e5b0491	0.2138846
137	0xbd7f9d41	-0.06240583
138	0x3e29f7bc	0.1659841
139	0xbe0a33dc	-0.13496345
140	0x3e031a4c	0.12803
141	0x3e435b7d	0.19077869
142	0x3de989d8	0.11403245
143	0xbe310910	-0.17288613
144	0x3e204ae3	0.15653567
145	0xbd36681c	-0.04453288
146	0x3db5410f	0.088502996
147	0xbe266813	-0.16250639
148	0xbe872efc	-0.26403034
149	0x3e37d156	0.17950949
150	0x3ddf05e1	0.10889793
151	0xbd3924c0	-0.045201063
152	0x3d03ee9c	0.032209978
153	0x3affc02b	0.0019512227
154	0x3db15d77	0.08660405
155	0xbbe140cb	-0.006874179
156	0x3de63207	0.11240011
157	0x3d6feada	0.05857358
158	0xbc97e43a	-0.018541444
159	0x3abbf1aa	0.0014338989
160	0xbccedcad	-0.02525171
161	0xbe2b36be	-0.16720101
162	0xbe1b131d	-0.1514401
163	0x3dc3975a	0.095503524
164	0xbd11b27b	-0.035570603
165	0x3d3d5fc0	0.046233892
166	0xbe71de29	-0.23619904
167	0xbe2b200f	-0.16711448
168	0x3d86c1cd	0.06579933
169	0x3cf00e45	0.02930368
170	0x3b00620e	0.0019589695
171	0xbdc1d01d	-0.094635226
172	0x3c7a203d	0.015266475
173	0x3dc864a1	0.097848184
174	0xbe169e21	-0.14708759
175	0x3e236556	0.15956625
176	0x3dd2e0ab	0.10296758
177	0xbe20b3db	-0.1569361
178	0x3ea96d6d	0.33091298
179	0xbcb49dad	-0.022047842
180	0x3e2ce13e	0.16882798
181	0xbda0380d	-0.07823191
182	0x3d3a1ff0	0.045440614
183	0xbdf217c4	-0.11820939
184	0xbe7001c5	-0.23438175
185	0xbe4fb3f9	-0.20283498
186	0x3e09edb3	0.13469581
187	0xbe7ee926	-0.24893627
188	0xbdbd01b0	-0.092288375
189	0xbe3ec820	-0.18631029
190	0xbe5b75cc	-0.21431655
191	0x3e4e8628	0.20168364

layer3.bn2.weight f4 [8]
0	0x3f7fdc5d	0.9994562
1	0x3f7ad2c1	0.97977835
2	0x3f786e86	0.97043645
3	0x3f7debe9	0.99188095
4	0x3f7aaf6b	0.97923917
5	0x3f8094e0	1.0045433
6	0x3f7d87c9	0.99035317
7	0x3f8268f3	1.0188278

layer3.bn2.bias f4 [8]
0	0x3bca286b	0.006169369
1	0x3c0b0872	0.0084859
2	0xbd082da5	-0.033246655
3	0xbc787d0d	-0.015166533
4	0x3cf900e2	0.030395929
5	0x3d2e8add	0.0426129
6	0x3bd2179a	0.006411505
7	0x3d7c11ab	0.061540287

layer3.bn2.running_mean f4 [8]
0	0xbd5ea6b1	-0.054358188
1	0xbe45cbe7	-0.19316064
2	0xbe09d835	-0.13461383
3	0x3dda2f19	0.106535144
4	0xbdd13a13	-0.10216155
5	0x3d892cc3	0.06697991
6	0xbd529d2e	-0.05141943
7	0x3b5d6dd3	0.0033787384

layer3.bn2.running_var f4 [8]
0	0x3edfa44f	0.43680045
1	0x3ee7b041	0.4525166
2	0x3ef33678	0.47502494
3	0x3ee45593	0.44596538
4	0x3ef4cf7a	0.47814542
5	0x3ef15797	0.47137138
6	0x3eea2544	0.45731556
7	0x3ee66ed0	0.45006418

layer3.fc1.weight f4 [2, 8]
0	0xbd28f4c5	-0.041249055
1	0x3ddd870e	0.10816775
2	0xbe32535c	-0.17414612
3	0x3e5da183	0.21643643
4	0x3e77a967	0.24185716
5	0x3e233eee	0.15941975
6	0xbe284143	-0.16431145
7	0x3e468bc5	0.19389255
8	0xbdf8f2c7	-0.12155681
9	0xbe13c869	-0.14431919
10	0xbeac8a4c	-0.33699262
11	0xbdd5bf68	-0.104368985
12	0xbd254a9c	-0.040354356
13	0xbda27e59	-0.07934255
14	0x3dcf3267	0.10117035
15	0x3e907855	0.28216806

layer3.fc1.bias f4 [2]
0	0x3ea70dbd	0.3262767
1	0x3da1ac71	0.07894219

layer3.fc2.weight f4 [8, 2]
0	0xbdc2a9ac	-0.095050186
1	0x3eb47aab	0.35249838
2	0xbe7f7717	-0.24947773
3	0xbe1f20d9	-0.15539874
4	0x3e0acbcb	0.13554303
5	0xbdd78e6c	-0.10525212
6	0x3e8d7377	0.27627155
7	0xbe484b2f	-0.1955993
8	0xbefafb7f	-0.4902
9	0x3dc1cef4	0.09463301
10	0xbef7f555	-0.4842936
11	0x3e58f064	0.21185452
12	0x3e533d1c	0.2062878
13	0xbe2e010d	-0.16992588
14	0xbf200e59	-0.6252189
15	0xbdfea2e0	-0.1243341

layer3.fc2.bias f4 [8]
0	0xbde3a3e0	-0.11115241
1	0x3f0dc51e	0.553789
2	0xbe931e31	-0.28733972
3	0xbef3ca20	-0.47615147
4	0x3ed4f017	0.41589424
5	0x3dbb075a	0.091322616
6	0xbeb9644c	-0.36209333
7	0x3e7baadf	0.24576901

layer3.shortcut.0.weight f4 [8, 4, 1, 1]
0	0x3ea426f6	0.32060975
1	0x3e25c9c2	0.16190246
2	0xbec198a3	-0.37811765
3	0xbecc07ed	-0.39849797
4	0x3e983cf2	0.29733998
5	0xbe1870d5	-0.14886792
6	0x3d8eec5f	0.06978678
7	0x3c36cd97	0.011157415
8	0x3efbb166	0.49158782
9	0xbe5e3dae	-0.21703216
10	0xbdb942c6	-0.09045939
11	0x3dc59b03	0.09648707
12	0x3e4951f2	0.19660166
13	0xbeddb1c6	-0.43299693
14	0xbd5c3c7b	-0.053768616
15	0xbea0a94f	-0.31379172
16	0xbf068435	-0.5254548
17	0xbe860aff	-0.26180264
18	0x3e65c425	0.22438104
19	0xbdd24d90	-0.102687
20	0x3dcd1b5e	0.100149855
21	0x3e156c7d	0.14592166
22	0x3ed7b674	0.42131388
23	0x3ecddfe4	0.40209877
24	0x3e44a181	0.19202234
25	0x3ec40e5c	0.38292205
26	0x3e926639	0.28593615
27	0x3ecdeff5	0.40222135
28	0x3eb03ad6	0.34419888
29	0x3dd3fde3	0.103511594
30	0xbea8a6d4	-0.3293978
31	0x3ede6eda	0.43443948

layer3.shortcut.1.weight f4 [8]
0	0x3f804cf0	1.002348
1	0x3f80bc31	1.0057431
2	0x3f82315b	1.0171312
3	0x3f7cf305	0.9880832
4	0x3f86f7ba	1.054435
5	0x3f83a993	1.0286125
6	0x3f80176d	1.0007149
7	0x3f79e42d	0.97613794

layer3.shortcut.1.bias f4 [8]
0	0x3c4745de	0.012162654
1	0x3c8531d2	0.016259108
2	0xbcc8bf6a	-0.024505336
3	0xbb4fc2a0	-0.00317017
4	0x3d73af41	0.059493307
5	0x3d44e702	0.04807187
6	0x3c53b712	0.012922065
7	0x3d7001f2	0.058595605

layer3.shortcut.1.running_mean f4 [8]
0	0xbde5a1f3	-0.1121253
1	0x3dc20694	0.09473911
2	0x3d97e8a6	0.07417421
3	0xbe40c6df	-0.18825863
4	0xbe642e01	-0.22283174
5	0x3ebdddc4	0.37083256
6	0x3ef25bdc	0.47335708
7	0x3e06febb	0.1318311

layer3.shortcut.1.running_var f4 [8]
0	0x3f33d0c9	0.70240456
1	0x3ee3ce92	0.44493538
2	0x3f007e07	0.501923
3	0x3f01b694	0.5066922
4	0x3f03eff6	0.51538026
5	0x3f0a9897	0.54139084
6	0x3f0cca6f	0.5499639
7	0x3ef46297	0.47731468

layer4.conv1.weight f4 [8, 8, 1, 3]
0	0xbe146659	-0.14492168
1	0xbd5cfac6	-0.053950094
2	0xbbdf2f15	-0.0068110325
3	0xbe30f3bc	-0.17280477
4	0xbe292362	-0.16517404
5	0xbd9198a3	-0.07109191
6	0xbd030db7	-0.0319955
7	0xbd8d99ea	-0.069141224
8	0xbd092d14	-0.033490255
9	0x3d32c7dc	0.043647632
10	0xbe028127	-0.1274458
11	0xbcda98ca	-0.026684184
12	0xbd4c56e8	-0.049887568
13	0xbdd8d802	-0.10588075
14	0xbe17f024	-0.148377
15	0x3cd92594	0.026507176
16	0xbe38f62d	-0.18062659
17	0xbe26dc58	-0.16294992
18	0xbe33b3c3	-0.17549042
19	0x3df3e959	0.11909742
20	0xbe43737d	-0.19087024
21	0xbe19b2b5	-0.15009578
22	0xbe22da8e	-0.15903684
23	0xbd8148c2	-0.063127056
24	0x3df48792	0.119399205
25	0xbb94cb79	-0.0045408574
26	0x3e1e57cc	0.1546318
27	0xbe46a80b	-0.19400041
28	0xbd099249	-0.033586774
29	0xbdeb0df0	-0.11477268
30	0x3c978ee0	0.018500745
31	0xbd841b2a	-0.06450494
32	0xbd99a03a	-0.07501264
33	0x3dabbed0	0.08386004
34	0x3b3b1b96	0.0028550378
35	0xbe18cfeb	-0.14923064
36	0xbd0a16d2	-0.03371317
37	0x3e0e0930	0.13870692
38	0x3d075226	0.033037327
39	0x3e4238df	0.18967007
40	0xbc26417f	-0.010147451
41	0xbcfde1a1	-0.030991377
42	0xbd5291fd	-0.051408757
43	0x3e1f6a1f	0.15567826
44	0xbe207b56	-0.15672049
45	0x3d36c6d0	0.044623196
46	0xbc9915c7	-0.018687142
47	0xbc0388d1	-0.008028225
48	0xbe4d2ffe	-0.20037839
49	0x3cf41e61	0.029799642
50	0xbe0369c5	-0.12833317
51	0xbda1fa47	-0.07909065
52	0xbd1ecba6	-0.038768433
53	0xbc421088	-0.011844762
54	0xbe20794f	-0.15671276
55	0xbd721cd7	-0.059109535
56	0x3e07afed	0.13250704
57	0xbdc6b8b6	-0.097031996
58	0x3dd8d6c1	0.10587836
59	0xbd34e693	-0.044165205
60	0xbe48a6ea	-0.19594923
61	0xbe9d0d38	-0.30674148
62	0xbe051183	-0.12994961
63	0x3c33d415	0.010975857
64	0x3de90350	0.11377585
65	0x3e2df4cd	0.16987915
66	0x3e1a3f40	0.1506319
67	0xbe3699af	-0.17832063
68	0x3d956b45	0.07295851
69	0xbdd2b9cf	-0.102893464
70	0xbd98d08d	-0.07461653
71	0x3e4e2cbe	0.20134255
72	0x3d9efd89	0.07763202
73	0x3e240bac	0.16020077
74	0xbe3f1877	-0.18661676
75	0xbdaf3cae	-0.085564956
76	0xbe1a475c	-0.15066284
77	0x3d4bb211	0.049730364
78	0x3d756f68	0.0599207
79	0xbe16f3e5	-0.14741476
80	0xbe286ed7	-0.16448532
81	0x3e41887a	0.18899718
82	0x3dcec0dc	0.10095379
83	0xbd966c82	-0.07344915
84	0xbd999b6f	-0.0750035
85	0xbbf56958	-0.0074893646
86	0x3e3b772a	0.18307176
87	0x3e216199	0.15759887
88	0x3df9bafe	0.12193869
89	0x3da0a85f	0.07844614
90	0x3da44820	0.08021569
91	0xbe6fc194	-0.23413688
92	0xbcaa3fe8	-0.020782426
93	0x3d7bf6bc	0.0615146
94	0x3e230738	0.15920722
95	0x3e1cab58	0.15299737
96	0xbe3eb92e	-0.18625328
97	0xbd1dd605	-0.038534183
98	0x3e3ef87b	0.18649475
99	0x3da995c2	0.08280517
100	0xbdce006c	-0.10058674
101	0xbdeb6ae4	-0.11494997
102	0xbd0c992b	-0.03432576
103	0x3d27ccac	0.040966675
104	0x3d5de6f4	0.054175332
105	0x3ce04227	0.027375294
106	0x3cc0b07c	0.023521654
107	0xbd184113	-0.037171435
108	0x3d7e5f97	0.06210288
109	0x3e12c870	0.14334273
110	0xbd012efa	-0.03153894
111	0x3de39485	0.11112312
112	0x3ca4df54	0.020126022
113	0x3d0e9a5e	0.034815185
114	0x3e2265af	0.15859102
115	0x3e8df0f8	0.27722907
116	0x3c739393	0.014866727
117	0x3e113906	0.14181909
118	0xbe3c35f7	-0.18379961
119	0x3db40a80	0.08791065
120	0xbd9741f6	-0.07385628
121	0x3e1f7faa	0.15576044
122	0xbd4895b6	-0.0489709
123	0xbd247592	-0.040151186
124	0xbe13927e	-0.14411351
125	0x3e10ebb1	0.14152409
126	0xbe113341	-0.14179708
127	0x3e052e44	0.1300593
128	0xbe362468	-0.17787325
129	0x3e130afc	0.14359659
130	0x3e5e515b	0.21710722
131	0x3da755e0	0.08170676
132	0xbdf27408	-0.118385375
133	0xbd7b0b38	-0.061289996
134	0xbd2ce460	-0.042209983
135	0x3de32f47	0.11093002
136	0xbe231bda	-0.15928593
137	0xbd01de98	-0.031706423
138	0x3df248dc	0.11830303
139	0xbe02f002	-0.12786868
140	0x3dc77196	0.09738462
141	0xbe2505ce	-0.16115496
142	0xbdbf8498	-0.09351462
143	0xbe0b2b6b	-0.13590781
144	0xbdb6e5c8	-0.08930546
145	0xbe374f06	-0.17901239
146	0xbd8e577f	-0.06950282
147	0xbe3371ef	-0.17523931
148	0x3d16e8f8	0.03684327
149	0xbd6a6444	-0.057224527
150	0x3d0b4965	0.03400554
151	0x3da18c1d	0.078880526
152	0xbe2aefa3	-0.16692977
153	0xbd2ab084	-0.041672245
154	0xbd4bf749	-0.049796376
155	0x3df34086	0.11877541
156	0x3c9542e5	0.018220374
157	0x3e6e5497	0.23274456
158	0x3cc85cb9	0.024458276
159	0x3e0c568e	0.13704893
160	0xbe854782	-0.2603112
161	0xbe06ab31	-0.13151242
162	0xbe003574	-0.12520391
163	0x3df548a5	0.119767465
164	0xbd0a0cbc	-0.03370355
165	0xbe195f8d	-0.14977856
166	0xbe34e2d0	-0.17664647
167	0x3c814f33	0.015784835
168	0xbddef514	-0.10886589
169	0xbe32367b	-0.17403595
170	0xbc6bad47	-0.014384574
171	0xbd52e4f3	-0.051487874
172	0x3e443fee	0.19165012
173	0xbd5e8ea7	-0.054335263
174	0xbe3e9211	-0.18610407
175	0x3e19b68e	0.15011045
176	0x3e32f7ab	0.1747729
177	0xbe08802f	-0.13330148
178	0x3d8b0fd2	0.06790127
179	0x3b781c3e	0.003785863
180	0xbe4a43ec	-0.19752473
181	0x3db16ec8	0.08663708
182	0xbcfeac3a	-0.031087983
183	0x3d811d5e	0.063044295
184	0xbe816ac6	-0.25276774
185	0xbda437ef	-0.08018481
186	0x3d8c924f	0.06863844
187	0x3bc7da78	0.0060990416
188	0x3e1b8cce	0.15190431
189	0x3e0f72f4	0.14008695
190	0x3e18b9f7	0.1491469
191	0x3e2fff42	0.17187217

layer4.bn1.weight f4 [8]
0	0x3f7f3d95	0.9970334
1	0x3f7e2101	0.9926911
2	0x3f7f820f	0.9980783
3	0x3f7c1574	0.98470235
4	0x3f86d969	1.0535098
5	0x3f7f3fce	0.99706733
6	0x3f78f9d9	0.9725624
7	0x3f8049cc	1.0022521

layer4.bn1.bias f4 [8]
0	0x3b5bed86	0.0033558323
1	0x3ae045e5	0.0017110674
2	0x39c7404b	0.0003800414
3	0x3b27bd8f	0.0025595163
4	0x3d354362	0.044253714
5	0xbbd1daad	-0.006404242
6	0x3c5cca6c	0.0134759955
7	0x3cdc4215	0.02688698

layer4.bn1.running_mean f4 [8]
0	0xbe389288	-0.18024647
1	0x3dd80727	0.10548239
2	0xbdf3a7b5	-0.11897222
3	0x3da00661	0.07813717
4	0x3dffc968	0.12489587
5	0xbd939527	-0.07206183
6	0xbd0a6bea	-0.03379432
7	0x3d17ac33	0.037029456

layer4.bn1.running_var f4 [8]
0	0x3ee90e59	0.4551876
1	0x3eeddc5c	0.46457183
2	0x3efa6b43	0.4890996
3	0x3ef9c3bf	0.48782155
4	0x3f09edec	0.53878665
5	0x3f0c240d	0.5474251
6	0x3efa68c2	0.4890805
7	0x3eecb05a	0.46228296

layer4.conv2.weight f4 [8, 8, 1, 3]
0	0x3d93e732	0.072218314
1	0xbcab6c29	-0.020925598
2	0x3d000d10	0.031262457
3	0x3e4ccd6b	0.20000236
4	0xbe035d76	-0.12828621
5	0x3e4d7764	0.20065075
6	0x3d1949d1	0.037423912
7	0xbe096b74	-0.13419896
8	0x3d8249da	0.06361742
9	0x3ddab79f	0.10679554
10	0xba2dc9cd	-0.0006629497
11	0xbe35e1c8	-0.1776191
12	0xbe2ef846	-0.17086896
13	0xbdf95e0b	-0.121761404
14	0xbe06c235	-0.13160022
15	0xbd3093a9	-0.04310957
16	0xbab60728	-0.0013887631
17	0xbd9bed1c	-0.076135844
18	0x3e0c1e88	0.13683522
19	0xbd2634bf	-0.040577646
20	0x3dadb47f	0.084816925
21	0xbdc0b3eb	-0.09409317
22	0x3e916edf	0.284049
23	0x3e3afebf	0.1826124
24	0xbe2a0279	-0.16602506
25	0x3dccf1d3	0.10007062
26	0xbde58e79	-0.11208815
27	0xbd1b05e0	-0.0378474
28	0x3dab55f7	0.08366006
29	0x3e4be15b	0.19910185
30	0x3e3cd964	0.18442303
31	0x3e045011	0.12921168
32	0xbdd08f5b	-0.10183593
33	0xbda1c71b	-0.078993045
34	0xbe1346e5	-0.14382513
35	0x3cb9004a	0.022583146
36	0xbd8cc71f	-0.06873917
37	0x3e61809e	0.2202172
38	0x3d3abe91	0.045591895
39	0x3e16ce56	0.14727148
40	0xbd910db6	-0.07082693
41	0x3de63b67	0.11241799
42	0xbc7d4cdc	-0.015460219
43	0xbc9c3ef6	-0.01907299
44	0xbcae5df3	-0.021285033
45	0xbe3dd69b	-0.18538897
46	0xbd10fcec	-0.035397455
47	0x3c766e9b	0.015041019
48	0xbe21b612	-0.1579211
49	0x3d296c0a	0.0413628
50	0x3e1a7039	0.15081872
51	0xbe4741ff	-0.1945877
52	0x3e93919f	0.28822038
53	0x3e41ec1f	0.1893773
54	0x3dc7ba8d	0.097523786
55	0xbd844acb	-0.06459578
56	0xbe47e8c4	-0.19522387
57	0x3d3d6320	0.04623711
58	0x3d89a4fc	0.067209214
59	0xbe29ce3d	-0.1658258
60	0xbe168b49	-0.1470157
61	0x3e0cb0f5	0.13739379
62	0xbda86eab	-0.08224233
63	0xbe39b4ed	-0.18135424
64	0x3d84742a	0.06467469
65	0xbe16f610	-0.14742303
66	0xbe35c801	-0.17752077
67	0x3d3ac0bd	0.045593966
68	0xbe0923ab	-0.13392513
69	0xbe042103	-0.12903218
70	0x3e8ef99d	0.27924815
71	0xbd77edff	-0.060529705
72	0x3cd730c2	0.026268367
73	0x3e51d9e5	0.20493276
74	0x3e273705	0.16329582
75	0x3d3a7a3f	0.04552674
76	0xbf210cfc	-0.6291044
77	0x3cf52d4d	0.029928828
78	0x3e196448	0.1497966
79	0x3eafd44c	0.34341657
80	0x3d23e322	0.040011533
81	0x3e2e51a4	0.17023331
82	0xbeb226ae	-0.34795135
83	0xbc9dd56a	-0.019266803
84	0xbdfa5c9f	-0.12224697
85	0xbf1880de	-0.59571636
86	0x3cbbae98	0.022910401
87	0x3df1e403	0.11811068
88	0x3c39a694	0.011331219
89	0x3e232354	0.15931445
90	0xbe047a23	-0.12937216
91	0xbed8d056	-0.42346448
92	0x3da5dbbb	0.08098551
93	0x3d4cc07e	0.049988262
94	0xbeca7c5d	-0.39548007
95	0xbbe2c72e	-0.0069207167
96	0x3e50ce4f	0.203912
97	0x3dbeabb3	0.09310093
98	0x3e4c3492	0.19941929
99	0xbd2efbb0	-0.042720497
100	0xbd18ca64	-0.03730239
101	0xbe04ea2a	-0.12979952
102	0xbe15fdd9	-0.14647616
103	0xbcb47c25	-0.022031853
104	0x3c76679d	0.015039352
105	0xbe02aacb	-0.12760465
106	0x3e8dcdcb	0.2769607
107	0xbe30c72a	-0.17263475
108	0xbe407a93	-0.18796758
109	0xbe98e8b5	-0.2986504
110	0x3dc30236	0.09521906
111	0xbdb893d6	-0.090125725
112	0x3df90e46	0.121609256
113	0xbe47a23f	-0.19495486
114	0x3d94702f	0.0724796
115	0xbe333fdb	-0.17504828
116	0x3b9d8e88	0.004808251
117	0x3dcc8557	0.0998637
118	0x3ddf48f6	0.10902588
119	0xbd9c8695	-0.07642857
120	0x3e32c4cc	0.17457885
121	0x3e5ccca0	0.21562433
122	0x3e28180d	0.16415425
123	0x3e13e24e	0.14441797
124	0xbb5c40fe	-0.0033608074
125	0xbcab9fb5	-0.020950178
126	0x3e0783e6	0.13233909
127	0xbe1dc5b6	-0.15407452
128	0x3dce365f	0.10068964
129	0xbc949f31	-0.018142315
130	0x3cd3941c	0.02582746
131	0x3da7101c	0.081573695
132	0xbe3a0f6e	-0.18169948
133	0x3e4d593f	0.20053576
134	0xbcb1afac	-0.021690212
135	0x3d75fa0e	0.060052924
136	0xbe025649	-0.12728228
137	0xbdd9b717	-0.10630625
138	0xbe2dfbb6	-0.16990551
139	0x3e1b56a4	0.1516977
140	0x3d9306aa	0.071790054
141	0xbe433bac	-0.19065732
142	0x3debb233	0.11508598
143	0xbdcb45d3	-0.09925427
144	0x3da0fa7e	0.078602776
145	0xb9c1433a	-0.00036861916
146	0xbe426d24	-0.18986946
147	0x3d64eae6	0.05588808
148	0xbe08b59e	-0.13350531
149	0xbc1861c8	-0.009300657
150	0xbe298250	-0.16553617
151	0xbad3511a	-0.0016122193
152	0x3b7cfb23	0.0038601838
153	0xbde1d56d	-0.11027036
154	0xbb954cd4	-0.0045562778
155	0x3dc5d640	0.096600056
156	0x3d0b3479	0.03398559
157	0xbd854967	-0.06508141
158	0xbd33d0f1	-0.043900434
159	0x3e485f41	0.19567586
160	0xbc62cb7d	-0.013842461
161	0xbe48dbbd	-0.19615074
162	0x3e0273ea	0.1273953
163	0xbe7696b3	-0.24080925
164	0x3d4dd053	0.0502475
165	0xbe4c5002	-0.19952396
166	0xbde8ec89	-0.113732405
167	0x3dda3adc	0.10655758
168	0x3e36adb3	0.17839698
169	0x3db9afbf	0.09066724
170	0x3cd79b52	0.02631918
171	0xbd95304a	-0.07284601
172	0xbc7562a0	-0.014977127
173	0xbe0b1758	-0.13583124
174	0xbdc5bd2d	-0.09655223
175	0xbe4fb39a	-0.20283356
176	0x3e43436d	0.1906869
177	0x3dfdc194	0.12390438
178	0x3c8b41dc	0.016999178
179	0xbdcda6e4	-0.100415975
180	0xbde3c527	-0.11121588
181	0x3e467e8e	0.19384214
182	0xbd57146f	-0.05250972
183	0xbdffc550	-0.12488806
184	0x3da4b7b6	0.080428526
185	0x3e3fcb7a	0.18729964
186	0x3db6c884	0.08924964
187	0xbd8f0f3c	-0.069853276
188	0xbe50230b	-0.20325868
189	0xbd8648bd	-0.065568425
190	0xbd8b4462	-0.06800152
191	0xbd681e4b	-0.056669515

layer4.bn2.weight f4 [8]
0	0x3f852d66	1.040448
1	0x3f81acc7	1.0130852
2	0x3f77394d	0.9657181
3	0x3f7ab0d0	0.97926044
4	0x3f7c3ca5	0.98530036
5	0x3f82b950	1.0212803
6	0x3f7ce00d	0.98779374
7	0x3f7dce43	0.99142855

layer4.bn2.bias f4 [8]
0	0x3cf47bd6	0.029844206
1	0x3c6773f5	0.014126767
2	0x3c9eb56c	0.019373618
3	0xbae51580	-0.0017477721
4	0x3c13283c	0.008981761
5	0x3d285670	0.04109806
6	0xbbb77ff5	-0.0055999705
7	0xbc8e521c	-0.017373137

layer4.bn2.running_mean f4 [8]
0	0xbd57212f	-0.05252188
1	0x3dbd40c9	0.092408724
2	0x3e2be03a	0.16784754
3	0xbe805791	-0.25066808
4	0x3cf026b3	0.029315328
5	0x3dae74bc	0.08518359
6	0xbdb17306	-0.08664517
7	0x3beba9b8	0.007191863

layer4.bn2.running_var f4 [8]
0	0x3eef8a52	0.46785218
1	0x3ee8cf19	0.45470503
2	0x3ee80971	0.45319703
3	0x3f2c33a2	0.67266285
4	0x3ef940fa	0.48682386
5	0x3eea49b0	0.45759344
6	0x3ee5abeb	0.44857726
7	0x3ee1505b	0.4400662

layer4.fc1.weight f4 [2, 8]
0	0xbe4e7a74	-0.201639
1	0x3e81fe71	0.25389436
2	0x3e830a5a	0.25593835
3	0xbe6e07b1	-0.23245122
4	0x3ea663a2	0.3249789
5	0x3e3f44cc	0.18678588
6	0xbd726c39	-0.05918524
7	0xbe23acaf	-0.15983842
8	0xbeaa16d0	-0.3322053
9	0x3e1ba2dd	0.15198846
10	0x3e2c74b4	0.16841394
11	0xbe953b94	-0.29147017
12	0xbe9e18e8	-0.30878377
13	0xbe7bd628	-0.24593413
14	0xbdba9ecf	-0.091123216
15	0xbe1da68a	-0.15395561

layer4.fc1.bias f4 [2]
0	0x3e560c37	0.20903097
1	0x3e96d93d	0.29462615

layer4.fc2.weight f4 [8, 2]
0	0x3ef3aaaa	0.47591144
1	0x3e6fd2ae	0.23420212
2	0xbe813eb5	-0.25243154
3	0xbdf47709	-0.11936767
4	0x3c8320a2	0.016006771
5	0xbe3f2ce2	-0.18669465
6	0x3eacb6ec	0.33733308
7	0x3f181925	0.5941337
8	0xbdf7a780	-0.12092495
9	0x3edcf2bc	0.43153942
10	0x3f0807d0	0.5313692
11	0xbeaf62f1	-0.34255174
12	0x3e570dc7	0.2100135
13	0x3c08896e	0.008333547
14	0x3ef60afc	0.48055255
15	0x3cccdf4c	0.02500882

layer4.fc2.bias f4 [8]
0	0x3f0e3ab3	0.5555832
1	0x3d221f12	0.039580412
2	0x3f20ecc7	0.62861294
3	0xbd0a7e77	-0.033812013
4	0x3d07e675	0.033178765
5	0xbf102f96	-0.5632261
6	0x3f2c1196	0.67214334
7	0x3df79945	0.12089781

layer5.conv1.weight f4 [16, 8, 1, 3]
0	0x3d9cee3b	0.07662626
1	0xbe7a22bd	-0.24427314
2	0xbe159d56	-0.146108
3	0x3e2a146c	0.16609353
4	0x3dba2cf3	0.09090605
5	0xbdf790e0	-0.120881796
6	0xbe15de10	-0.14635491
7	0xbe4b543c	-0.19856352
8	0xbe32eea5	-0.17473848
9	0x3d71b89f	0.05901396
10	0xbccc2275	-0.024918774
11	0x3df86795	0.12129132
12	0xbd9e1369	-0.07718546
13	0xbd2f50af	-0.042801555
14	0xbe357b3b	-0.1772279
15	0xbda80e9e	-0.08205913
16	0x3df9f494	0.12204853
17	0xbdef7913	-0.11693015
18	0xbd0f0286	-0.034914516
19	0x3db1b847	0.08677726
20	0x3db82bee	0.08992754
21	0x3e0d1fc8	0.13781655
22	0x3cb41934	0.021984674
23	0xbd015b57	-0.03158125
24	0x3d07d2d2	0.03316004
25	0xbd247304	-0.04014875
26	0xbe2c2913	-0.16812544
27	0x3e2dfed4	0.1699174
28	0x3e1c2a60	0.1525054
29	0x3e0dfa1d	0.13864942
30	0x3c799121	0.015232355
31	0x3e7cf6e5	0.24703558
32	0x3e3754c9	0.17903437
33	0xbe2a10ec	-0.16608018
34	0xbe30730e	-0.1723139
35	0x3e02ece5	0.1278568
36	0xbe065e00	-0.13121796
37	0x3ddb7839	0.1071629
38	0x3c92c28a	0.01791503
39	0xbe12e329	-0.14344467
40	0x3e88d9e1	0.26728728
41	0xbdb97209	-0.090549536
42	0x3e24620c	0.16053027
43	0xbca4c908	-0.02011539
44	0x3d81bb6d	0.06334577
45	0xbe128e8c	-0.1431219
46	0x3e277fb9	0.16357316
47	0xbb4d11ea	-0.0031291195
48	0xbd79305a	-0.060837127
49	0x3db340a9	0.08752567
50	0xbcc20cf0	-0.02368781
51	0xbe26879f	-0.16262673
52	0xbdb2885e	-0.08717416
53	0x3bfb06a6	0.0076607047
54	0xbe3b16f1	-0.1827047
55	0xbe311ecd	-0.17296906
56	0x3d8579d3	0.06517377
57	0x3d435cb1	0.04769582
58	0xbdbd2ab5	-0.09236661
59	0xbe298fc6	-0.16558751
60	0xbe04ef37	-0.12981878
61	0xbe3ae805	-0.18252571
62	0x3e0328ea	0.12808576
63	0x3d8284f9	0.06373019
64	0xbe27e3e5	-0.16395529
65	0xbce1f170	-0.027580947
66	0x3e3b295a	0.18277493
67	0x3cd5239d	0.026017958
68	0x3e2917f7	0.16513048
69	0xbd384e1c	-0.044996366
70	0x3d0f17a6	0.034934662
71	0xbe1e0aaa	-0.15433756
72	0x3e0e3ab6	0.13889584
73	0xbe58a7d9	-0.21157779
74	0x3db33b21	0.08751512
75	0xbd5d7145	-0.0540631
76	0xbd9c0523	-0.07618167
77	0x3e45c131	0.19311978
78	0x3d9cf762	0.07664372
79	0xbcb5707f	-0.022148369
80	0xbdb05ebd	-0.0861182
81	0xbb24d21f	-0.0025149656
82	0xbdb0d76a	-0.08634837
83	0xbc2b2788	-0.010446437
84	0x3db5644f	0.08857023
85	0xbb012ff4	-0.001971242
86	0xbb03b60e	-0.0020097527
87	0xbdc91ad4	-0.0981957
88	0xbd70307b	-0.058639985
89	0x3df5ec5c	0.120079726
90	0xbe396ba0	-0.18107462
91	0xbd484e2b	-0.04890267
92	0xbc9215f7	-0.01783274
93	0x3d49a909	0.04923347
94	0xbe02355e	-0.1271567
95	0xbd22cd98	-0.03974685
96	0xbe0350c1	-0.12823774
97	0xbd15e8b6	-0.036598884
98	0xbe38b6e1	-0.18038513
99	0xbe00533e	-0.12531754
100	0xbd9299ef	-0.07158267
101	0x3de7353f	0.11289453
102	0x3c307c31	0.010771797
103	0xbde96af5	-0.113973536
104	0x3c7b7b5e	0.015349237
105	0x3d054ca0	0.03254378
106	0x3dc3b000	0.09555054
107	0xbd6c6852	-0.057716675
108	0xbc9f716c	-0.019463263
109	0x3c549640	0.0129752755
110	0xbca1ff4b	-0.019775053
111	0xbd2d35c4	-0.042287603
112	0xbd0c2f0f	-0.034224566
113	0xbe4c753c	-0.19966596
114	0x3c8878ae	0.016659107
115	0xbe2536dc	-0.16134208
116	0x3d2adc28	0.041713864
117	0xbc448019	-0.0119934315
118	0xbb1bf058	-0.002379438
119	0xbe1aa14a	-0.1510059
120	0xbdd64117	-0.10461634
121	0x3e171e5b	0.14757673
122	0xbd067d32	-0.03283424
123	0x3e120554	0.14259845
124	0x3db8858c	0.09009847
125	0xbe2a36e8	-0.16622508
126	0xbe3db6b3	-0.18526725
127	0x3ddd2ddf	0.10799765
128	0xbe1a2411	-0.1505282
129	0x3e48d40d	0.19612141
130	0xbd0c0c29	-0.034191284
131	0xbd593d63	-0.05303706
132	0x3c39c4a3	0.011338386
133	0xbe4a3313	-0.19746046
134	0x3da06415	0.07831589
135	0x3e3ca64b	0.1842281
136	0xbe7d3f56	-0.24731192
137	0xbc492cf1	-0.012278781
138	0x3e08e076	0.13366875
139	0xbd35b0de	-0.044358127
140	0xbd89ffbf	-0.06738233
141	0xbe091393	-0.13386373
142	0xbd19be1a	-0.03753481
143	0xbe2c8000	-0.16845703
144	0x3d3e42df	0.046450492
145	0x3c181881	0.009283186
146	0xbe4712c5	-0.19440754
147	0x3e1503c5	0.14552219
148	0xbdc1e852	-0.0946814
149	0xbe163b2e	-0.14671013
150	0x3d450489	0.04810003
151	0xbd139770	-0.036033094
152	0x37b0130b	2.0989703e-05
153	0x3e23aaac	0.15983075
154	0x3de8a733	0.11360016
155	0x3e0ec1b8	0.13941085
156	0x3e03c095	0.12866433
157	0x3c9dd331	0.019265743
158	0xbd0a8026	-0.033813618
159	0xbd8d7167	-0.069063954
160	0xbeba7064	-0.36413872
161	0xbe35e9ef	-0.1776502
162	0x3e462321	0.19349338
163	0xbcca1b09	-0.024671094
164	0x3e4486b6	0.19192013
165	0x3ca15ab7	0.019696577
166	0x3e304564	0.1721397
167	0x3df0b28c	0.11752805
168	0xbd72cd0f	-0.05927759
169	0x3e147997	0.14499508
170	0x3cc27122	0.023735587
171	0x3bd5754a	0.006514226
172	0x3a0d4d2b	0.0005390222
173	0xbcd2a809	-0.025714891
174	0xbda408ba	-0.08009477
175	0x3da8d5df	0.08243918
176	0xbcd954ea	-0.026529748
177	0x3e2522dc	0.16126579
178	0x3e325124	0.17413765
179	0x3e3653ac	0.17805356
180	0x3ddbe189	0.10736377
181	0xbd7c444c	-0.06158857
182	0xbd0bec93	-0.03416116
183	0xbda05147	-0.078280024
184	0xbdaa0f29	-0.08303673
185	0x3dd732d2	0.1050774
186	0xbe0051b1	-0.12531163
187	0x3ccd72e6	0.025079202
188	0x3d0240ab	0.031799953
189	0xbe45a13c	-0.19299787
190	0xbcf79985	-0.030224571
191	0x3dabf78f	0.083968274
192	0xbe2d77bd	-0.16940208
193	0xbe28d6f8	-0.16488254
194	0x3e496e26	0.19670925
195	0xbd87579e	-0.066085085
196	0x3ea0f072	0.31433445
197	0x3e27703a	0.16351405
198	0x3e0e4c0b	0.13896196
199	0x3d648f94	0.05580099
200	0xbd30530d	-0.043047953
201	0xbcef392d	-0.029202068
202	0xbd0f24a7	-0.034947064
203	0xbd75bee2	-0.059996493
204	0x3d9b870c	0.075941175
205	0xbd8c84e6	-0.06861286
206	0x3d241abf	0.04006457
207	0xbe478f22	-0.19488195
208	0x3e963afd	0.2934188
209	0xbd06212d	-0.032746483
210	0xbc9777db	-0.018489769
211	0x3e020193	0.12695913
212	0x3e28c84b	0.16482656
213	0xbdf3c229	-0.119022675
214	0x3dcc3cae	0.09972511
215	0xbdcf4416	-0.10120408
216	0xbd29d86f	-0.041466173
217	0x3e87c135	0.26514593
218	0x3d86eaa3	0.06587722
219	0xbdeca0ef	-0.11554133
220	0xbd1e3fc1	-0.03863502
221	0xbe3094de	-0.17244288
222	0x3e12a63a	0.14321223
223	0xbde49771	-0.11161698
224	0xbd856091	-0.06512559
225	0xbde9c81d	-0.11415122
226	0xbe1809e5	-0.14847524
227	0x3e3bcd00	0.1833992
228	0xbe089957	-0.13339745
229	0x3debab8f	0.115073316
230	0xbb784fb9	-0.0037889315
231	0xbdeff355	-0.11716334
232	0xbe32970b	-0.17440431
233	0xbe34af33	-0.17644958
234	0x3e3adb03	0.18247609
235	0x3ddda29c	0.10822031
236	0x3dda829b	0.10669442
237	0x3dd23153	0.10263314
238	0x3c9866e9	0.018603759
239	0xbdb65887	-0.08903604
240	0x3ca23031	0.01979837
241	0xbe6255e4	-0.22103077
242	0xbd9b8d3c	-0.07595298
243	0x3e2c52e4	0.16828495
244	0x3d2d386a	0.04229013
245	0x3da38813	0.079849385
246	0x3e13b4b5	0.14424403
247	0x3d9b82f7	0.07593339
248	0xbdacc41c	-0.084358424
249	0xbd972832	-0.073807135
250	0xbe3a71da	-0.18207493
251	0x3e40e901	0.18838884
252	0x3e3643eb	0.17799346
253	0xbdac1d1f	-0.08403992
254	0xbd804825	-0.062637605
255	0x3de2976a	0.11064036

layer5.bn1.weight f4 [16]
0	0x3f7de424	0.9917624
1	0x3f803f96	1.0019405
2	0x3f81321d	1.0093418
3	0x3f7e10f7	0.99244636
4	0x3f7fa3a1	0.9985905
5	0x3f7c3bd2	0.9852878
6	0x3f82fcaf	1.0233363
7	0x3f808ead	1.0043541
8	0x3f7c0d59	0.98457867
9	0x3f7b40f4	0.98145986
10	0x3f7cb541	0.9871407
11	0x3f803e01	1.0018922
12	0x3f808cac	1.004293
13	0x3f803307	1.0015572
14	0x3f8378c6	1.0271232
15	0x3f7fff34	0.99998784

layer5.bn1.bias f4 [16]
0	0x3a8c7127	0.0010714874
1	0xbbabf437	-0.0052476185
2	0x3c0333d7	0.008007965
3	0xbc1c95d4	-0.009557206
4	0x3a79af89	0.0009524753
5	0x3caf343f	0.021387218
6	0x3cfe1942	0.031017903
7	0x3c21ff4c	0.009887528
8	0x3c006bdb	0.007838215
9	0xbcbd5dcb	-0.023116013
10	0x3aa66e64	0.0012697694
11	0xbb947307	-0.004530314
12	0x3be05155	0.006845633
13	0x3c0a4cd8	0.008441173
14	0x3ccb2f0b	0.024802705
15	0xbb195334	-0.002339554

layer5.bn1.running_mean f4 [16]
0	0xbce499a1	-0.027905287
1	0x3dd77c16	0.105217144
2	0xbe7c6d2a	-0.24651018
3	0xbe7bd8d8	-0.24594438
4	0xbd9d1623	-0.07670238
5	0xbd940ea4	-0.07229355
6	0xbcc68adb	-0.024236133
7	0x3dec18e2	0.115281835
8	0x3e417420	0.18891954
9	0xbc02917a	-0.007969255
10	0xbe485db7	-0.19567
11	0x3df1afef	0.11801135
12	0x3e16e2af	0.1473491
13	0x3e253812	0.1613467
14	0xbe530ead	-0.20611067
15	0xbe330d28	-0.17485487

layer5.bn1.running_var f4 [16]
0	0x3f03ea74	0.5152962
1	0x3f1c2015	0.60986453
2	0x3f00dd61	0.503378
3	0x3ef1444f	0.47122428
4	0x3eefe8fa	0.46857435
5	0x3f00beeb	0.5029132
6	0x3f0d9a9a	0.5531403
7	0x3efe458e	0.4966244
8	0x3f112d88	0.567101
9	0x3ef67fca	0.4814437
10	0x3f02ec8f	0.5114221
11	0x3effe7c3	0.49981508
12	0x3eef7272	0.46767002
13	0x3ee8fd56	0.4550578
14	0x3f01317b	0.50466126
15	0x3eee0dbc	0.46494853

layer5.conv2.weight f4 [16, 16, 1, 3]
0	0xbe0575bc	-0.13033193
1	0x3dc3f434	0.095680624
2	0x3dbad0b1	0.09121836
3	0xbe0b1660	-0.13582754
4	0xbdd9f63c	-0.106426686
5	0x3de5302a	0.11190827
6	0x3d8d4ea3	0.068997644
7	0x3da8e7fb	0.08247372
8	0x3d89d2e5	0.06729678
9	0x3cd2429e	0.025666531
10	0xbdb9c936	-0.09071581
11	0x39aa0b7d	0.00032433486
12	0x3dbad56a	0.09122737
13	0xbd0e3a43	-0.03472353
14	0x3d6d42ad	0.057924915
15	0xbde13bfb	-0.109977685
16	0x3d213ea2	0.039366372
17	0xbd61f87f	-0.055168625
18	0xbda04b14	-0.0782682
19	0xbdc86d31	-0.097864516
20	0xbc96d4ee	-0.01841208
21	0x3dc118b0	0.09428537
22	0x3d052cc8	0.03251341
23	0xbdcd4580	-0.10023022
24	0x3c953a05	0.018216142
25	0x3d4dcb51	0.050242726
26	0xbd20e839	-0.039283965
27	0x3d901e70	0.070370555
28	0xbd5506cc	-0.052008435
29	0xbdb422e9	-0.08795721
30	0x3d15d39e	0.036578767
31	0x3dcd76e1	0.1003244
32	0x3d3134b9	0.04326317
33	0x3d8def96	0.06930463
34	0xbdfb0927	-0.12257605
35	0x3db33ba2	0.087516084
36	0xbcf5da58	-0.030011341
37	0xbe1711e4	-0.14752918
38	0xbd5967cf	-0.053077515
39	0xbe1253e6	-0.14289817
40	0x3d051cfc	0.032498345
41	0x3bb09821	0.005389229
42	0xbd888502	-0.06665994
43	0x3b220453	0.0024721816
44	0x3dff790e	0.12474261
45	0x3de269d0	0.110553384
46	0xbd5d7306	-0.054064773
47	0xbd46c1d3	-0.04852469
48	0x3d63fe1d	0.055662263
49	0x3d96fdb2	0.07372607
50	0xbd815db1	-0.06316698
51	0x3c879495	0.016550342
52	0xbdaf4ceb	-0.08559593
53	0x3d53ce45	0.051710386
54	0xbde8e06a	-0.113709286
55	0xbe0d9883	-0.1382771
56	0x3d8616ff	0.06547355
57	0xbd7f144f	-0.062275227
58	0x3df04389	0.11731631
59	0xbd711aeb	-0.05886356
60	0xbddb178e	-0.10697852
61	0x3b456f85	0.0030126285
62	0xbde7c2cb	-0.11316451
63	0xbb46a562	-0.0030310978
64	0xbcfea492	-0.031084333
65	0xbdc6c17a	-0.097048715
66	0x3d0453f7	0.032306638
67	0xbe1a111c	-0.15045589
68	0x3dcce2ea	0.10004218
69	0x3cd12fd1	0.025535496
70	0xbdc6f645	-0.09714941
71	0x3cfc7803	0.030818945
72	0xbda505f1	-0.08057774
73	0x3dfdc5e7	0.123912625
74	0xbdce3c6a	-0.10070117
75	0xbdfeb5ea	-0.12437041
76	0x3d970fec	0.07376084
77	0x3cf70151	0.030151995
78	0xbd1b1389	-0.037860427
79	0x3d39e8de	0.045388095
80	0x3d424638	0.047430247
81	0xbdd9858e	-0.10621177
82	0x3b996936	0.0046817316
83	0x3df9096c	0.1216
84	0x3d8c43a2	0.068488374
85	0x3d635d2f	0.05550879
86	0x3d0a412e	0.033753566
87	0xbde50dd1	-0.11184276
88	0x3d845022	0.064605966
89	0xbc198d13	-0.009372014
90	0x3c8047c7	0.015659226
91	0xbd3722e0	-0.044710994
92	0xbda8f138	-0.08249134
93	0xbd5edcaf	-0.05440968
94	0xbd9f892a	-0.07789834
95	0x3e02b974	0.12766057
96	0x3e03d745	0.12875088
97	0x3e27ec6f	0.16398786
98	0x3df40741	0.11915446
99	0x3d31edfb	0.043439846
100	0x3e678f85	0.22613342
101	0xbd042177	-0.032258477
102	0x3e061b65	0.13096388
103	0xbd28915a	-0.041154243
104	0xbdc42257	-0.09576862
105	0x3cc52f4d	0.024070406
106	0x3d11b819	0.03557596
107	0xbd243979	-0.040093873
108	0xbd75b297	-0.05998477
109	0x3bd022ed	0.0063518197
110	0x3c1e9703	0.009679559
111	0x3d1b6121	0.037934426
112	0x3d23b886	0.039970897
113	0xbd4da885	-0.05020954
114	0xbdf6a555	-0.12043253
115	0xbdec42ba	-0.115361646
116	0x3d6d61e7	0.057954695
117	0x3cfcc8fd	0.030857557
118	0xbda123b2	-0.078681365
119	0x3d7bee01	0.061506275
120	0xbcc4eb62	-0.02403802
121	0x3e250622	0.1611562
122	0xbd7d6ebc	-0.061873183
123	0x3e05b88c	0.1305868
124	0x3d475d13	0.048672747
125	0xbd92db18	-0.07170695
126	0x3da42361	0.080145605
127	0xbb45cb57	-0.0030181014
128	0xbd79338e	-0.060840182
129	0x3e04dbeb	0.12974517
130	0x3e0b8917	0.13626514
131	0x3d7b56cb	0.06136207
132	0x3bf2b8a3	0.0074072643
133	0xbdbdd293	-0.092686795
134	0x3d9cebdd	0.07662175
135	0xbdd6dab9	-0.10490937
136	0xbd573566	-0.05254116
137	0xbdd60775	-0.10450641
138	0xbdbe33c8	-0.0928722
139	0xbdbb1c9b	-0.091363154
140	0x3d0a1083	0.033707153
141	0x3d9fdaae	0.07805382
142	0xbd1269aa	-0.0357453
143	0x3dda01b8	0.10644859
144	0x3dd3ddc5	0.103450336
145	0xbdd8def2	-0.105893984
146	0xbde77c6d	-0.11303029
147	0x3da539cf	0.08067667
148	0xbe1570ef	-0.14593862
149	0xbe0d28c7	-0.13785087
150	0xbd83cbe6	-0.06435375
151	0x3e0168a4	0.12637573
152	0xbdb70d7c	-0.08938119
153	0xbd52f57f	-0.051503655
154	0xbc0460db	-0.008079733
155	0xbdd6ceb9	-0.10488648
156	0xbde2d386	-0.11075501
157	0x3da5c8a5	0.080949105
158	0x3c60601d	0.01369479
159	0xbd8226a3	-0.063550256
160	0x3d559c26	0.052150868
161	0x3bab54a5	0.0052285963
162	0xbd256168	-0.040376097
163	0x3e2ac0bd	0.16675086
164	0xbe0a889d	-0.13528676
165	0xbde81850	-0.11332762
166	0xbc918a2b	-0.017766079
167	0xbce1dc22	-0.027570788
168	0x3d9861ba	0.07440515
169	0xbe002b3d	-0.12516494
170	0x3cf891fd	0.03034305
171	0xbd8efc97	-0.069817714
172	0xbdc090d0	-0.09402621
173	0xbdf71393	-0.1206428
174	0xbd8f9b91	-0.07012094
175	0xbc90807f	-0.017639397
176	0xbd766441	-0.060154203
177	0xbddfd424	-0.109291345
178	0x3dac5642	0.0841489
179	0x3c60bf16	0.013717433
180	0xbe03debd	-0.12877937
181	0x3d5b7453	0.053577732
182	0x3dff40b4	0.12463513
183	0xbd79e1ca	-0.061006345
184	0x3e03f678	0.12886989
185	0xbd93138c	-0.07181463
186	0x3e0b51e3	0.13605456
187	0xbde3e1c8	-0.11127049
188	0x3ddc0caa	0.10744603
189	0xbe04c03c	-0.12963957
190	0xbd13bede	-0.036070697
191	0x3dffee4e	0.12496625
192	0x3c8cf129	0.017204838
193	0xbe2c28c7	-0.1681243
194	0x3df137f2	0.11778249
195	0x3cb22883	0.021747833
196	0xbe15236f	-0.14564298
197	0xbd8f78c7	-0.07005458
198	0xbdf79077	-0.12088101
199	0x3e2841e0	0.1643138
200	0xbdc1fd13	-0.09472098
201	0xbdb68dd0	-0.08913767
202	0xbcd924d0	-0.026506811
203	0x3d3081a5	0.04309239
204	0x3d4c3282	0.049852856
205	0xbcc399e2	-0.023877088
206	0xbddbaa41	-0.10725833
207	0x3d8e09b3	0.06935444
208	0x3a15a416	0.00057083496
209	0xbd87435b	-0.06604644
210	0x3d8d688d	0.06904707
211	0x3e57b459	0.21064891
212	0xbdb46e70	-0.08810127
213	0xbc5483bc	-0.012970861
214	0xbd2b26b5	-0.04178496
215	0xbd9fc647	-0.0780149
216	0xbdc37a2a	-0.09544785
217	0x3d99a8bc	0.07502887
218	0x3d8c4cb0	0.068505645
219	0x3df52621	0.11970163
220	0xbd884ee9	-0.06655676
221	0xbe0a2035	-0.13488849
222	0x3dd8dea2	0.10589339
223	0xbc781a55	-0.015142997
224	0x3d7dafa4	0.061935082
225	0xbc370638	-0.011170916
226	0x3b9ba2c0	0.004749626
227	0x3dff93f1	0.124793895
228	0xbde69b3e	-0.11260079
229	0xbe10df89	-0.14147772
230	0xbde63265	-0.11240081
231	0xbd31f4c2	-0.04344631
232	0xbe0b61a2	-0.13611463
233	0x3e0a446a	0.1350266
234	0x3dab70b8	0.08371109
235	0x3e5e88df	0.217319
236	0x3d2a038a	0.04150728
237	0x3c904172	0.017609332
238	0x3d6e0a4d	0.058115292
239	0xbdb5acf4	-0.08870879
240	0xbdf85ff4	-0.121276766
241	0x3d8f6f3b	0.070036374
242	0xbd62db2b	-0.055384796
243	0xbd81bf1a	-0.06335278
244	0x3dba5d8c	0.09099874
245	0x3dfe1b45	0.12407545
246	0xbddac779	-0.10682578
247	0xbd479eb0	-0.04873532
248	0x3d0fcefb	0.0351095
249	0x3ce23b59	0.02761619
250	0x3e1a6234	0.15076524
251	0x3dda1fd1	0.106506
252	0xbd15fe2a	-0.036619343
253	0x3cf67da7	0.030089213
254	0x3daf2fd2	0.08554043
255	0x3e003e2b	0.12523715

layer5.bn2.weight f4 [16]
0	0x3f7c4e87	0.98557323
1	0x3f76a478	0.9634471
2	0x3f8621bf	1.0479048
3	0x3f6fb4ca	0.9363524
4	0x3f85f3a0	1.0464973
5	0x3f82963c	1.0202098
6	0x3f863193	1.0483879
7	0x3f7d44f6	0.9893335
8	0x3f8d4e68	1.1039553
9	0x3f79c11b	0.9756028
10	0x3f86d899	1.053485
11	0x3f8639b7	1.0486363
12	0x3f80d13f	1.0063857
13	0x3f78b809	0.97155815
14	0x3f7d8cbd	0.99042875
15	0x3f6f2d84	0.93428826

layer5.bn2.bias f4 [16]
0	0xbb2a76b6	-0.0026010699
1	0xbd07385a	-0.033012725
2	0x3d95d5a7	0.073161416
3	0xbd4a0dd4	-0.049329594
4	0x3dd13c1f	0.10216545
5	0x3d4f3aae	0.05059307
6	0x3d45d5f3	0.04829974
7	0xbd3073c9	-0.04307917
8	0x3dcbfcab	0.09960302
9	0xbd0a38b1	-0.03374547
10	0x3d4598ba	0.048241355
11	0x3dbe85c3	0.09302857
12	0xbd455ca0	-0.048184037
13	0xbd41f9c2	-0.04735733
14	0x3cc26b20	0.023732722
15	0xbd568456	-0.0523723

layer5.bn2.running_mean f4 [16]
0	0xbd146bff	-0.036235806
1	0xbc902bee	-0.017599072
2	0x3d4125e8	0.04715529
3	0x3c92d0a6	0.017921757
4	0x3d0480e1	0.03234947
5	0xbc90cfe0	-0.017677248
6	0xbd76efa3	-0.06028713
7	0x3dc2cc4a	0.09511621
8	0x3d77dd59	0.060513828
9	0xbd37e9a7	-0.044900563
10	0xbdea6ac6	-0.11446147
11	0x3d9e98ec	0.07744011
12	0xbe0c462d	-0.13698645
13	0xbe311ff7	-0.1729735
14	0x3c7062ed	0.014672023
15	0xbd8dbcbc	-0.06920764

layer5.bn2.running_var f4 [16]
0	0x3eea047b	0.45706543
1	0x3ef07ffd	0.46972647
2	0x3ef5242b	0.47879156
3	0x3ef3fae2	0.47652346
4	0x3ef381c1	0.47559932
5	0x3ee3bba4	0.44479096
6	0x3ef0278b	0.4690517
7	0x3f0218d2	0.5081912
8	0x3eebc516	0.46048802
9	0x3ee7e410	0.45291185
10	0x3ef9ca49	0.48787144
11	0x3efea9d3	0.4973894
12	0x3ef26521	0.4734278
13	0x3ef2469f	0.47319505
14	0x3ee4d6d5	0.44695154
15	0x3ee078d0	0.43842173
