das_new - 副本/models/final_model.pth (torch, 99146 bytes, 176 tensors)

input_conv.weight f4 [4, 1, 1, 3]
-0.02579717 0.19926545 -0.022429898 0.18370642 0.4530424 0.18909426 0.15427917 -0.3243982
0.42596188 0.2702956 -0.5276517 0.32277042
00000000: 9654 d3bc 3e0c 4c3e e8be b7bc 891d 3c3e
00000010: 2cf5 e73e eda1 413e 5cfb 1d3e 8517 a6be
00000020: ad17 da3e 2f64 8a3e 2f14 07bf 2a42 a53e

input_bn.weight f4 [4]
1.0197717 0.9815983 0.9945881 1.0039703
00000000: e187 823f 074a 7b3f 539d 7e3f 1982 803f

input_bn.bias f4 [4]
0.012667099 -0.009889572 -0.0035343617 0.0009846177
00000000: aa89 4f3c df07 22bc c0a0 67bb 4a0e 813a

input_bn.running_mean f4 [4]
0.010747982 0.02443855 -0.017499084 -0.028463125
00000000: 4e18 303c 5b33 c83c 3d5a 8fbc 802b e9bc

input_bn.running_var f4 [4]
0.9053981 0.92790866 0.91430926 0.93785757
00000000: 2bc8 673f 6c8b 6d3f 2c10 6a3f 6f17 703f

layer1.conv1.weight f4 [4, 4, 1, 3]
0.09760807 -0.20879273 0.14421155 0.057543866 -0.015678238 0.1294163 -0.25301516 0.009935909
0.025879094 -0.0075907246 0.27928212 -0.1133378 0.14499225 0.17838679 -0.24589524 -0.26734835
-0.25901625 0.13700128 -0.026429985 0.11999416 -0.20981385 0.16562296 -0.26608267 -0.1731523
0.26896894 0.2651688 -0.20422883 -0.05596783 -0.19472389 -0.20019308 0.020986406 -0.26863864
0.15455928 0.017058171 0.13289984 0.19290085 -0.15119979 -0.24308969 -0.21385157 0.262214
-0.0033115512 0.2873342 -0.21162894 -0.02029085 -0.24024235 -0.26541075 0.07565435 -0.10319587
00000000: bde6 c73d c3cd 55be 31ac 133e 1eb3 6b3d
00000010: a66f 80bc b585 043e 348b 81be 39ca 223c
00000020: 6500 d43c 9dbb f8bb 11fe 8e3e a61d e8bd
00000030: d978 143e 07ab 363e f6cb 7bbe e2e1 88be
00000040: c79d 84be 104a 0c3e b283 d8bc 80bf f53d
00000050: 71d9 56be 1199 293e fd3b 88be d64e 31be
00000060: 4cb6 893e 34c4 873e 5d21 51be 863e 65bd
00000070: b365 47be 6aff 4cbe afeb ab3c 018b 89be
00000080: ca44 1e3e 94bd 8b3c e516 083e cd87 453e
00000090: 1ed4 1abe 81ec 78be e8fb 5abe ea40 863e
000000a0: 9c06 59bb 781d 933e 42b5 58be ff38 a6bc
000000b0: 1702 76be ebe3 87be abf0 9a3d 5b58 d3bd

layer1.bn1.weight f4 [4]
1.0094086 0.99632925 1.0068351 0.9873804
00000000: 4d34 813f 6f0f 7f3f f9df 803f f6c4 7c3f

layer1.bn1.bias f4 [4]
0.012635297 -0.0050606444 0.007993664 -0.009432169
00000000: 4704 4f3c c3d3 a5bb dbf7 023c 6289 1abc

layer1.bn1.running_mean f4 [4]
0.0043159747 -0.008718845 -0.0067568594 -0.0131655885
00000000: 056d 8d3b 7dd9 0ebc a568 ddbb 7bb4 57bc

layer1.bn1.running_var f4 [4]
0.9065052 0.9001186 0.90013033 0.9001939
00000000: ba10 683f 2c6e 663f f16e 663f 1c73 663f

layer1.conv2.weight f4 [4, 4, 1, 3]
0.24903072 0.12492672 0.2744813 -0.043889873 0.28780082 0.031006921 -0.1645656 -0.15030271
0.17456664 -0.10806375 0.053555172 0.19119343 0.13715968 0.14114843 -0.2741833 0.14105685
0.21057121 -0.15623456 7.909457e-05 0.23476417 0.08764811 0.11192046 -0.007852745 -0.16692784
0.25718564 0.28353176 -0.07090237 -0.21900962 -0.016320033 -0.03016248 0.23023261 -0.22135435
0.16514094 0.25787565 -0.10641392 -0.044202883 -0.11300187 0.02978071 -0.1507898 -0.15045936
-0.1242865 0.079347774 -0.019385293 0.28414795 0.14008081 0.02654812 0.01881417 -0.23423442
00000000: e901 7f3e 95d9 ff3d d088 8c3e dec5 33bd
00000010: a15a 933e 3a02 fe3c e283 28be f4e8 19be
00000020: 99c1 323e 8750 ddbd ab5c 5b3d 36c8 433e
00000030: 9673 0c3e 3789 103e c161 8cbe 3571 103e
00000040: fb9f 573e f4fb 1fbe 93df a538 0566 703e
00000050: da80 b33d 8e36 e53d cda8 00bc 22ef 2abe
00000060: d6ad 833e 132b 913e 4335 91bd 0f44 60be
00000070: 97b1 85bc 4e17 f7bc 19c2 6b3e b7aa 62be
00000080: b51a 293e 4708 843e 8bef d9bd 150e 35bd
00000090: 866d e7bd adf6 f33c a468 1abe 0512 1abe
000000a0: ec89 febd 1681 a23d e8cd 9ebc d77b 913e
000000b0: 5871 0f3e 717b d93c 2d20 9a3c 26db 6fbe

layer1.bn2.weight f4 [4]
1.0082774 1.0031942 0.9869266 1.0022125
00000000: 3c0f 813f ab68 803f 39a7 7c3f 8048 803f

layer1.bn2.bias f4 [4]
0.0068259216 -0.0030630333 -0.01673068 -0.0015121093
00000000: fbab df3b 2cbd 48bb c70e 89bc f831 c6ba

layer1.bn2.running_mean f4 [4]
0.015540737 0.028673029 -0.009548734 0.010674354
00000000: 939e 7e3c b3e3 ea3c 4b72 1cbc 7ce3 2e3c

layer1.bn2.running_var f4 [4]
0.9094341 0.9002725 0.9006547 0.90314585
00000000: acd0 683f 4278 663f 4e91 663f 9134 673f

layer1.fc1.weight f4 [1, 4]
-0.25244954 0.1674226 -0.2166981 -0.0571039
00000000: 1141 81be d470 2b3e 1be6 5dbe c7e5 69bd

layer1.fc2.weight f4 [4, 1]
-0.6252038 0.8558891 -0.04444531 0.39170876
00000000: 5b0d 20bf 8c1b 5b3f 490c 36bd 0d8e c83e

layer1.fc2.bias f4 [4]
0.1527277 0.8392185 -0.14479372 -0.72001815
00000000: a664 1c3e 06d7 563f ce44 14be 1c53 38bf

layer1.shortcut.0.weight f4 [4, 4, 1, 1]
-0.4646262 -0.002638246 -0.44830507 0.1334192 -0.10715732 0.4299862 -0.25789317 -0.08214354
0.2662146 0.064255536 -0.021153348 -0.4955346 0.20411764 0.105021104 0.42631134 0.07108794
00000000: 7ce3 edbe 6ce6 2cbb 3e88 e5be 0b9f 083e
00000010: 4c75 dbbd 2727 dc3e 930a 84be df3a a8bd
00000020: 484d 883e 6898 833d c949 adbc b6b6 fdbe
00000030: 3704 513e 4e15 d73d 7b45 da3e 8e96 913d

layer1.shortcut.1.weight f4 [4]
1.0103853 0.9948123 1.0042473 1.0014524
00000000: 4e54 813f 05ac 7e3f 2d8b 803f 982f 803f

layer1.shortcut.1.bias f4 [4]
0.008107375 -0.0048743533 -0.01856715 -0.0015634604
00000000: ccd4 043c 0ab9 9fbb 231a 98bc 07ed ccba

layer1.shortcut.1.running_mean f4 [4]
-0.038275607 -0.00086030684 -0.00903234 0.039723687
00000000: e2c6 1cbd 3786 61ba 61fc 13bc 4eb5 223d

layer1.shortcut.1.running_var f4 [4]
0.90112114 0.91098595 0.91799843 0.9013304
00000000: e0af 663f 6036 693f f201 6b3f 97bd 663f

layer2.conv1.weight f4 [4, 4, 1, 3]
0.035806984 -0.25882173 -0.1678112 0.10160363 0.24706832 -0.2609131 0.09899124 -0.019350419
0.17540586 -0.1009418 -0.025914457 0.030299092 -0.1614731 -0.14596325 -0.19735543 0.12533665
-0.06437605 -0.20876768 0.28099543 -0.271044 -0.14521092 0.26051745 -0.039998755 -0.09841101
-0.046200454 0.03501028 -0.040618148 0.07518592 -0.061095294 0.09273505 -0.19348249 0.20454004
-0.19176464 -0.10432488 0.21185374 0.21282716 0.04652102 0.031469 -0.20481874 -0.20722191
-0.18198995 -0.08151182 0.2093878 0.016753258 -0.033935685 -0.14051652 -0.1408801 0.0017266697
00000000: 58aa 123d 4884 84be b3d6 2bbe 9015 d03d
00000010: 7aff 7c3e 6796 85be ebbb ca3d c584 9ebc
00000020: 989d 333e 93ba cebd 8e4a d4bc cd35 f83c
00000030: 3459 25be 6477 15be 8b17 4abe 4058 003e
00000040: 97d7 83bd 32c7 55be a2de 8f3e 47c6 8abe
00000050: 2cb2 14be 8b62 853e bcd5 23bd b68b c9bd
00000060: b03c 3dbd f066 0f3d 375f 26bd 13fb 993d
00000070: 0f3f 7abd e0eb bd3d 4620 46be f272 513e
00000080: f35d 44be 48a8 d5bd 30f0 583e 5def 593e
00000090: d38c 3e3d a3e5 003d 01bc 51be fb31 54be
000000a0: 935b 3abe abef a6bd c169 563e 213e 893c
000000b0: 2500 0bbd 90e3 0fbe df42 10be 6c51 e23a

layer2.bn1.weight f4 [4]
1.0013562 0.9993721 0.9949743 1.004256
00000000: 712c 803f dad6 7f3f a3b6 7e3f 768b 803f

layer2.bn1.bias f4 [4]
0.0020510682 0.0006533924 -0.002671317 0.0011746612
00000000: 376b 063b 6c48 2b3a 4311 2fbb 17f7 993a

layer2.bn1.running_mean f4 [4]
-0.015405195 -0.017812928 0.006753163 -0.0029038226
00000000: 1266 7cbc 6bec 91bc a349 dd3b 0f4e 3ebb

layer2.bn1.running_var f4 [4]
0.9077664 0.9004445 0.90031415 0.9003322
00000000: 6163 683f 8883 663f fd7a 663f 2c7c 663f

layer2.conv2.weight f4 [4, 4, 1, 3]
-0.2531208 -0.06992777 -0.21368392 -0.1651497 -0.103425935 -0.14471094 -0.06752146 -0.043634262
0.07058839 0.063921675 0.18545772 0.27822068 -0.23432472 -0.24641559 0.2702826 0.07378913
-0.123296775 -0.06983094 0.09409876 -0.051798783 0.17809069 -0.14501604 0.17317672 0.031060683
0.28006715 0.118773945 -0.0943354 -0.21265928 0.1104488 0.100739546 -0.041019328 0.073184766
-0.056294207 -0.09398043 -0.21654329 0.24752107 0.2388627 -0.11066949 -0.19881532 -0.26758358
0.048547342 0.085002735 -0.28352064 0.2589916 -0.07443859 -0.12766606 -0.06185021 0.24098626
00000000: 0d99 81be 4a36 8fbd f5cf 5abe 011d 29be
00000010: fad0 d3bd 1b2f 14be b148 8abd d7b9 32bd
00000020: a590 903d 5ee9 823d a1e8 3d3e f172 8e3e
00000030: d2f2 6fbe 5e54 7cbe 7b62 8a3e c11e 973d
00000040: 0583 fcbd 8603 8fbd dab6 c03d f62a 54bd
00000050: 685d 363e 167f 14be 3d55 313e f972 fe3c
00000060: f664 8f3e c13f f33d eb32 c1bd 5bc3 59be
00000070: fb32 e23d 8950 ce3d e203 28bd e5e1 953d
00000080: c194 66bd d078 c0bd 86bd 5dbe 2a76 7d3e
00000090: 6c98 743e b0a6 e2bd 3e96 4bbe b700 89be
000000a0: 94d9 463d ea15 ae3d 9e29 91be 8c9a 843e
000000b0: 4273 98bd e4ba 02be a556 7dbd 1ac5 763e

layer2.bn2.weight f4 [4]
1.0051367 1.000353 0.9956908 0.98951495
00000000: 52a8 803f 910b 803f 98e5 7e3f da50 7d3f

layer2.bn2.bias f4 [4]
0.0068531516 0.0026798022 -0.0033839555 -0.0010525223
00000000: 6790 e03b 9f9f 2f3b 5ac5 5dbb caf4 89ba

layer2.bn2.running_mean f4 [4]
0.0015973069 -0.010850117 0.003216009 0.0029461838
00000000: ba5c d13a b0c4 31bc adc3 523b c314 413b

layer2.bn2.running_var f4 [4]
0.9030293 0.9064991 0.9046038 0.9047031
00000000: ee2c 673f 5310 683f 1d94 673f 9f9a 673f

layer2.fc1.weight f4 [1, 4]
0.13686967 -0.3915488 0.496893 0.26597282
00000000: 9027 0c3e 1679 c8be c268 fe3e 972d 883e

layer2.fc2.weight f4 [4, 1]
-0.912401 -0.22707866 0.9226843 -0.68620396
00000000: 1d93 69bf 4f87 68be 0a35 6c3f 10ab 2fbf

layer2.fc2.bias f4 [4]
-0.8409293 -0.7742033 0.78269994 -0.9473246
00000000: 2547 57bf 3032 46bf 065f 483f dd83 72bf

layer3.conv1.weight f4 [8, 4, 1, 3]
-0.13782795 -0.09310223 0.24038617 -0.18599306 -0.17566432 0.27791932 0.101658374 -0.10695081
0.0484119 -0.17357787 0.084863715 -0.20864111 -0.15433085 0.26668498 0.08138346 -0.08329332
-0.07671735 -0.021119175 -0.13467106 -0.046276715 -0.09812307 0.15639995 0.1636877 -0.26204798
-0.174078 -0.16061704 -0.2519527 -0.0032548578 0.090393305 -0.19470416 -0.0035742759 0.008851469
0.037000943 0.25855806 -0.2813613 -0.18251398 -0.05103543 0.07891483 0.106616 -0.057565082
0.12862009 -0.14885812 0.10441902 0.0587938 -0.19423068 -0.083639786 0.21781382 -0.034942158
-0.19443282 0.051640123 -0.054384373 0.20746563 0.08244106 -0.2085385 0.03302714 -0.17391676
0.05505781 0.06536773 -0.27710012 0.13791649 0.08314687 -0.074051924 -0.28610656 -0.20771433
0.17934263 0.014492933 0.020753415 -0.032902222 0.05231954 0.28515887 0.2800944 0.19750954
-0.051464 0.24112643 0.06403948 -0.10910033 0.22940417 -0.049631413 -0.22158624 0.23364638
0.0074149524 -0.02395585 0.20934565 0.015791198 -0.26957494 0.25510138 -0.22877368 0.19583176
-0.17668678 -0.22884364 0.043726366 0.012838896 0.062630534 -0.19409971 -0.2584616 -0.20832077
00000000: c522 0dbe 62ac bebd cb27 763e f774 3ebe
00000010: 59e1 33be 714b 8e3e 4432 d03d 0709 dbbd
00000020: 8e4b 463d 66be 31be 07cd ad3d 04a6 55be
00000030: e808 1ebe ef8a 883e 5fac a63d b095 aabd
00000040: fc1d 9dbd 1f02 adbc 36e7 09be a78c 3dbd
00000050: c0f4 c8bd 4f27 203e c09d 273e 272b 86be
00000060: 8141 32be cb78 24be f2ff 80be 744f 55bb
00000070: 2020 b93d 8760 47be 663e 6abb c005 113c
00000080: 4d8e 173d b961 843e 970e 90be f2e4 3abe
00000090: 870a 51bd 199e a13d 7d59 da3d 5dc9 6bbd
000000a0: fcb4 033e 436e 18be a4d9 d53d c5d1 703d
000000b0: 68e4 46be 564b abbd 960a 5f3e 821f 0fbd
000000c0: 6619 47be 9884 533d 26c2 5ebd df71 543e
000000d0: dcd6 a83d 1e8b 55be 7747 073d 3c17 32be
000000e0: 4c84 613d 84df 853d 11e0 8dbe fb39 0d3e
000000f0: e848 aa3d 89a8 97bd 8f7c 92be 11b3 54be
00000100: 98a5 373e c473 6d3c 1103 aa3c 7bc4 06bd
00000110: 044d 563d 5800 923e 8868 8f3e f13f 4a3e
00000120: eacb 52bd d9e9 763e 2227 833d fe6f dfbd
00000130: ede8 6a3e 4f4a 4bbd 81e7 62be ff40 6f3e
00000140: 21f9 f23b 0f3f c4bc b55e 563e 8b5c 813c
00000150: ba05 8abe a69c 823e a643 6abe 1f88 483e
00000160: 61ed 34be fd55 6abe 6b1a 333d 3c5a 523c
00000170: 7044 803d 13c2 46be 1455 84be 0a52 55be

layer3.bn1.weight f4 [8]
1.0010943 1.0025997 0.99595964 0.99946463 0.99825746 1.0107905 0.98790765 1.0038059
00000000: dc23 803f 3055 803f 36f7 7e3f eadc 7f3f
00000010: cd8d 7f3f 9561 813f 84e7 7c3f b67c 803f

layer3.bn1.bias f4 [8]
-9.465514e-05 0.0014984899 -0.005891107 0.0015585575 -0.012524709 0.0034576932 0.0071037523 0.00059176283
00000000: 9781 c6b8 fa68 c43a 300a c1bb 8348 cc3a
00000010: 7034 4dbc 779a 623b 98c6 e83b 8820 1b3a

layer3.bn1.running_mean f4 [8]
-0.020764796 0.034556985 -0.027667034 0.02450017 -0.013084217 0.0077234763 0.051578272 0.0032665066
00000000: ef1a aabc a08b 0d3d faa5 e2bc 95b4 c83c
00000010: 2f5f 56bc 3715 fd3b bd43 533d e312 563b

layer3.bn1.running_var f4 [8]
0.9025935 0.918006 0.916639 0.9078853 0.90948194 0.90580285 0.9165131 0.9039262
00000000: 5e10 673f 7102 6b3f daa8 6a3f 2c6b 683f
00000010: cfd3 683f b2e2 673f 9aa0 6a3f b567 673f

layer3.conv2.weight f4 [8, 8, 1, 3]
0.1878843 -0.19701976 -0.11948973 -0.15786526 0.055771045 -0.15588875 -0.18083452 0.15977444
0.11895758 -0.10407699 -0.16525775 -0.14985077 -0.15855476 0.12098743 0.032529254 0.12472645
0.0052772947 -0.197411 0.041453842 -0.04705627 0.09939047 -0.0075194384 4.7323418e-05 0.07283045
0.14614257 0.11803765 0.18076243 0.002309031 -0.15302658 -0.18857987 -0.010189208 0.061955858
0.10795488 -0.15345155 0.027320636 0.17742933 0.10871293 0.109759495 -0.037342057 0.11018759
-0.18705116 0.10337535 -0.06668596 0.15450695 0.04943676 0.023838818 -0.10829238 0.04847657
0.13625078 0.19906285 0.19022039 -0.059071008 -0.01592023 -0.03803251 0.19086799 -0.17856432
0.047041543 0.052416306 -0.10344019 0.14426838 -0.16754684 -0.18918924 0.14274183 0.17004389
-0.14774051 -0.16264342 -0.08012088 -0.18871865 -0.20353363 0.0073081567 0.07330827 -0.10537902
0.04438247 0.05353752 0.11123758 -0.1010924 0.025291005 -0.022700902 -0.20288421 -0.19081934
-0.0734491 0.08371258 0.050159782 -0.04607907 -0.07653458 0.15819159 -0.11184928 0.022779506
0.10477534 0.06397186 -0.0681461 0.030291524 -0.10334349 0.039492406 0.16049282 0.01907717
-0.009812183 -0.124692544 -0.042937804 -0.0063390844 -0.08265779 -0.13186634 0.10734829 0.20152906
-0.11201764 0.18263443 -0.20059384 -0.13660023 -0.1738441 0.14593828 -0.1988298 0.019587783
0.17134894 0.0837819 -0.19805834 -0.11322529 0.20319536 0.020570118 -0.19423851 0.19072834
0.20165731 0.10601976 0.019243034 -0.17458776 0.063456334 0.06402068 0.07130617 -0.15292545
-0.062438756 -0.0037181005 0.06396826 -0.014393647 0.053468972 -0.034659818 -0.053416286 -0.11942758
0.1483978 0.110749714 0.2031664 -0.059259444 -0.044518918 -0.05064501 -0.23215169 -0.06454524
0.026786283 -0.007893661 -0.17740121 0.19751702 0.09576246 0.19051266 -0.10579217 -0.039409406
-0.07684054 -0.13147789 -0.09193093 -0.11284436 0.16696134 0.128331 -0.09807987 0.055244938
-0.094837256 0.059549898 -0.030332083 0.1597867 0.19236551 0.08840636 -0.14762737 -0.099939756
0.13509853 0.13598828 0.12494761 0.12619214 0.071682446 -0.12235185 0.18935601 -0.017091418
0.17257765 0.19271119 -0.017334787 0.09976615 0.09797597 -0.1585113 -0.10875552 0.03010812
-0.09510524 -0.17839909 0.08264772 -0.026120793 -0.09943531 0.16931567 0.066766046 0.10765684
00000000: be64 403e 8cbf 49be 08b7 f4bd 6ea7 21be
00000010: 2e70 643d 4da1 1fbe af2c 39be e99b 233e
00000020: 08a0 f33d 5126 d5bd 5439 29be 7b72 19be
00000030: 2e5c 22be 42c8 f73d 653d 053d 9570 ff3d
00000040: 28ed ac3b 1c26 4abe 81cb 293d 13be 40bd
00000050: 3b8d cb3d 9f65 f6bb 227d 4638 2228 953d
00000060: 66a6 153e b9bd f13d c919 393e 1d53 173b
00000070: 00b3 1cbe 151b 41be a3f0 26bc 6dc5 7d3d
00000080: 7317 dd3d 6722 1dbe 87cf df3c 09b0 353e
00000090: e2a4 de3d 96c9 e03d fcf3 18bd 08aa e13d
000000a0: 578a 3fbe 75b6 d33d a692 88bd 1237 1e3e
000000b0: 337e 4a3d a049 c33c 65c8 ddbd 5e8f 463d
000000c0: 5385 0b3e 22d7 4b3e 22c9 423e 71f4 71bd
000000d0: 246b 82bc fac7 1bbd e672 433e 91d9 36be
000000e0: a2ae 403d 7bb2 563d 73d8 d3bd 17bb 133e
000000f0: 6691 2bbe d3ba 41be ea2a 123e fc1f 2e3e
00000100: 4a49 17be ff8b 26be 6a16 a4bd 763f 41be
00000110: 1f6b 50be 4379 ef3b a522 963d f5d0 d7bd
00000120: 65ca 353d 294a 5b3d 87d0 e33d 8809 cfbd
00000130: 152f cf3c 3ef7 b9bc e1c0 4fbe 2566 43be
00000140: 7b6c 96bd 8071 ab3d 5874 4d3d 68bd 3cbd
00000150: 29be 9cbd fafc 213e 3c11 e5bd 169c ba3c
00000160: 7494 d63d ae03 833d 2f90 8bbd ee25 f83c
00000170: c0a5 d3bd cac2 213d 3b58 243e ba47 9c3c
00000180: 47c3 20bc ce5e ffbd 8ddf 2fbd 18b8 cfbb
00000190: 7d48 a9bd f807 07be 6cd9 db3d a25d 4e3e
000001a0: 8169 e5bd 8504 3b3e 7968 4dbe eee0 0bbe
000001b0: 3004 32be d870 153e 0a9a 4bbe 8f76 a03c
000001c0: 1976 2f3e d895 ab3d cecf 4abe a9e2 e7bd
000001d0: 7212 503e aa82 a83c 76e6 46be 4a4e 433e
000001e0: 417f 4e3e e320 d93d 91a3 9d3c 22c7 32be
000001f0: 65f5 813d 461d 833d f808 923d 7d98 1cbe
00000200: c8bf 7fbd 60ab 73bb cb01 833d 55d3 6bbc
00000210: 4802 5b3d 74f7 0dbd 09cb 5abd 7296 f4bd
00000220: 98f5 173e bfd0 e23d da0a 503e 08ba 72bd
00000230: 7859 36bd 2471 4fbd 2cb9 6dbe 4b30 84bd
00000240: e86e db3c 6a54 01bc aaa8 35be e741 4a3e
00000250: 1c1f c43d c015 433e 91a9 d8bd c26b 21bd
00000260: 935e 9dbd 24a2 06be 4946 bcbd f21a e7bd
00000270: eaf7 2a3e 3469 033e 19de c8bd 8448 623d
00000280: 093a c2bd 98ea 733d fd7a f8bc 209f 233e
00000290: 77fb 443e 650e b53d a12b 17be 37ad ccbd
000002a0: 4557 0a3e 8340 0b3e 88e4 ff3d 8338 013e
000002b0: 3fce 923d 9b93 fabd 8be6 413e 4d03 8cbc
000002c0: 32b8 303e 1556 453e af01 8ebc 3252 cc3d
000002d0: a0a7 c83d c950 22be 37bb debd 4ea5 f63c
000002e0: 89c6 c2bd 40ae 36be 3543 a93d 46fb d5bc
000002f0: bda4 cbbd 1661 2d3e a3bc 883d 307b dc3d

layer3.bn2.weight f4 [8]
0.9998481 0.99616456 1.0006506 1.0069407 0.9995977 0.9935194 0.9943702 1.0009544
00000000: 0cf6 7f3f a404 7f3f 5215 803f 6fe3 803f
00000010: a3e5 7f3f 4a57 7e3f 0c8f 7e3f 461f 803f

layer3.bn2.bias f4 [8]
0.0041464427 -0.001726082 -0.0015096402 -0.00097501744 0.00094383414 -0.0011363067 -0.0015057867 0.0009697773
00000000: e2de 873b b33d e2ba 1fdf c5ba 5098 7fba
00000010: a36b 773a 20f0 94ba d15d c5ba a738 7e3a

layer3.bn2.running_mean f4 [8]
-0.0048558367 0.0057147346 -0.016198466 0.009139123 -0.010735873 -0.012880707 0.0057078446 0.0014246844
00000000: b61d 9fbb ab42 bb3b a5b2 84bc 43bc 153c
00000010: 84e5 2fbc 9a09 53bc df08 bb3b 7abc ba3a

layer3.bn2.running_var f4 [8]
0.9032168 0.9007821 0.90968984 0.9045304 0.9040212 0.90020823 0.9007525 0.9006681
00000000: 3739 673f a899 663f 6fe1 683f 4e8f 673f
00000010: ef6d 673f 0c74 663f b797 663f 2f92 663f

layer3.fc1.weight f4 [2, 8]
0.12622505 0.0026205357 -0.1383095 0.2545008 0.14977768 -0.2679542 0.19861273 -0.02091612
0.31139687 -0.2415167 0.057436913 -0.21708238 0.07285454 0.060682885 0.010473798 0.23202638
00000000: 2441 013e 4bbd 2b3b 01a1 0dbe ee4d 823e
00000010: 525f 193e 4b31 89be 2361 4b3e 4858 abbc
00000020: 696f 9f3e 2750 77be f842 6b3d d84a 5ebe
00000030: c334 953d 9e8e 783d 4b9a 2b3c 5398 6d3e

layer3.fc1.bias f4 [2]
0.29757085 -0.11144756
00000000: 355b 983e 9e3e e4bd

layer3.fc2.weight f4 [8, 2]
-0.020302668 0.38915408 -0.039737325 -0.64275146 -0.08951929 0.6751655 0.30433264 -0.34255266
0.70170903 0.61930585 0.6167615 0.11847472 0.23622535 0.5575485 -0.44764274 0.5692753
00000000: c851 a6bc 343f c73e 9bc3 22bd 5c8b 24bf
00000010: e455 b7bd a5d7 2c3f 7dd1 9b3e 1063 afbe
00000020: 34a3 333f d48a 1e3f 15e4 1d3f e0a2 f23d
00000030: 0fe5 713e 80bb 0e3f 6e31 e5be 07bc 113f

layer3.fc2.bias f4 [8]
-0.16961867 -0.20040473 0.66089 0.504228 0.61125994 0.6679234 0.544789 0.63260716
00000000: 84b0 2dbe e636 4dbe 1630 293f 1615 013f
00000010: 887b 1c3f 07fd 2a3f 4b77 0b3f 8bf2 213f

layer3.shortcut.0.weight f4 [8, 4, 1, 1]
-0.26363412 -0.2545519 -0.47895902 0.38382506 -0.2906624 0.14483406 0.07125701 -0.35508418
0.38441172 -0.46281004 -0.31349385 0.09758943 -0.36398718 0.11194907 -0.01028516 0.22891364
-0.02416987 0.44806048 0.10791007 -0.15140453 0.47026902 0.3193085 -0.27544364 0.31570703
0.28861323 0.3243934 -0.3360266 0.04349873 -0.23768327 -0.21692519 -0.338775 -0.0377547
00000000: 0dfb 86be a054 82be 1e3a f5be b884 c43e
00000010: b4d1 94be 614f 143e 32ef 913d 98cd b5be
00000020: 9dd1 c43e 70f5 ecbe 4482 a0be f8dc c73d
00000030: 875c babe 8e45 e53d 1683 28bc 5668 6a3e
00000040: e4ff c5bc 2f68 e53e f4ff dc3d ca09 1bbe
00000050: 1ac7 f03e 677c a33e f306 8dbe 5aa4 a13e
00000060: 1dc5 933e e416 a63e ae0b acbe b92b 323d
00000070: 3e63 73be a321 5ebe eb73 adbe aca4 1abd

layer3.shortcut.1.weight f4 [8]
1.000951 0.9989573 0.99607366 0.99760264 1.0019146 1.006545 1.0006491 1.0015042
00000000: 2a1f 803f aabb 7f3f affe 7e3f e362 7f3f
00000010: bd3e 803f 77d6 803f 4515 803f 4a31 803f

layer3.shortcut.1.bias f4 [8]
0.0047235438 -0.0015198387 -0.005037094 -0.0024003088 0.005504615 0.005606155 0.000817941 0.0011383679
00000000: f5c7 9a3b 5335 c7ba 350e a5bb 804e 1dbb
00000010: 0f60 b43b d6b3 b73b 176b 563a 4a35 953a

layer3.shortcut.1.running_mean f4 [8]
-0.0483388 -0.040879715 0.020026686 -0.035320546 0.01455383 0.07237026 0.038005717 -0.05401072
00000000: e8fe 45bd 7d71 27bd 010f a43c 47ac 10bd
00000010: 3073 6e3c dc36 943d e2ab 1b3d 583a 5dbd

layer3.shortcut.1.running_var f4 [8]
0.91526484 0.9360113 0.92276293 0.91444236 0.9064195 0.9932409 0.9409023 0.908979
00000000: cc4e 6a3f 709e 6f3f 313a 6c3f e518 6a3f
00000010: 1c0b 683f 0945 7e3f f9de 703f d9b2 683f

layer4.conv1.weight f4 [8, 8, 1, 3]
0.16354725 0.08036102 0.17238188 -0.1906673 -0.13380232 0.17061248 -0.05649592 -0.11862571
-0.039778758 -0.13399196 -0.089409806 -0.15516025 0.15705909 -0.11791057 -0.11304116 -0.117524005
0.15973604 -0.16442154 -0.19101092 -0.17970388 0.116152525 -0.033488937 -0.14110443 0.08862839
-0.19455357 -0.07031366 -0.17782302 0.18414661 -0.16970193 0.057787795 -0.0025896917 0.034695704
0.055014 0.15065871 -0.0022571874 -0.039709304 0.14958227 -0.18795982 0.031239435 0.080685556
0.133112 0.14215781 -0.039710168 -0.049167767 -0.19026943 0.12427641 -0.17247833 0.08159213
0.035431135 0.07450444 -0.021686696 0.039794046 -0.0112519115 -0.17531653 -0.09582627 -0.10674249
-0.11708314 -0.16106349 -0.073932886 -0.045279898 -0.08666091 -0.19574028 -0.08197746 -0.044323254
0.1803869 0.123084895 -0.015004813 0.19354098 0.098398745 0.20280284 -0.058939137 -0.042868126
-0.17017436 -0.11969222 0.17310232 0.120951965 -6.706429e-05 0.1913284 0.15168798 -0.08164423
0.054475002 -0.20327528 -0.09270202 -0.13979115 -0.19135115 -0.060932733 -0.03981209 0.1304284
-0.11931935 -0.19543636 0.079191014 -0.050371386 -0.16726503 0.003848112 -0.20214975 0.14560413
-0.0017235554 0.06523719 -0.054736707 -0.14625603 0.04868339 0.18394105 -0.009363945 0.17794064
-0.08782065 0.0026279723 -0.14400783 -0.1671629 -0.13323276 0.08943142 0.020848855 0.08542106
-0.12803319 0.04043318 -0.11706937 0.07863563 -0.09313513 0.12869766 0.13311982 0.17896104
0.04141936 -0.18104851 -0.058251515 0.056064256 -0.06924724 0.07662938 -0.027803516 0.09657345
0.12112356 -0.18662609 -0.10155644 -0.18681633 0.038872227 0.15473582 -0.18558984 -0.15425766
0.06790337 0.1628987 -0.16706897 0.07768484 0.021130992 -0.19177948 0.115485586 -0.12810186
0.11971053 -0.09791867 -0.14485402 0.10346005 0.10947467 0.1873256 -0.15734613 -0.19203506
-0.016761761 0.1092133 0.11999046 0.11273999 0.19959828 -0.08603142 -0.041403193 0.13205488
-0.010818689 0.20086198 0.1313976 0.16678819 -0.031722244 -0.1048349 -0.07071807 0.14509247
0.10420874 0.14408477 -0.08293984 0.0006406243 0.16497847 0.050853964 -0.056450084 -0.19125423
0.022423819 0.09748999 -0.03994226 -0.13748959 -0.14248444 0.027155545 -0.123872384 -0.12877841
0.0057634166 0.18590055 -0.2040081 -0.052483696 0.1326919 0.11633736 -0.10406222 0.13529773
00000000: ee78 273e 5294 a43d e084 303e 4a3e 43be
00000010: 7a03 09be 0ab5 2e3e 4468 67bd 09f2 f2bd
00000020: 0def 22bd 3035 09be 7d1c b7bd 54e2 1ebe
00000030: 19d4 203e 197b f1bd 2082 e7bd 6db0 f0bd
00000040: d891 233e 1f5e 28be 5e98 43be 4b04 38be
00000050: 60e1 ed3d b22b 09bd ae7d 10be cd82 b53d
00000060: 0d39 47be 9c00 90bd 3d17 36be ee90 3c3e
00000070: 58c6 2dbe e5b2 6c3d d1b7 29bb 151d 0e3d
00000080: 5c56 613d 4746 1a3e 52ed 13bb 39a6 22bd
00000090: 182c 193e 8a78 40be d8e9 ff3c 783e a53d
000000a0: 834e 083e d191 113e 21a7 22bd 2464 49bd
000000b0: fdd5 42be a184 fe3d 299e 30be c619 a73d
000000c0: 3d20 113d c995 983d 4ca8 b1bc 15ff 223d
000000d0: f059 38bc 2d86 33be 9040 c4bd ce9b dabd
000000e0: 49c9 efbd d4ed 24be 206a 97bd 6a77 39bd
000000f0: 467b b1bd 2470 48be cce3 a7bd 4d8c 35bd
00000100: 58b7 383e ef13 fc3d bfd6 75bc 9b2f 463e
00000110: 4885 c93d 8cab 4f3e 2a6a 71bd 7d96 2fbd
00000120: 3042 2ebe 3221 f5bd bc41 313e aab5 f73d
00000130: dea4 8cb8 98eb 433e 1854 1b3e 1735 a7bd
00000140: 2e21 5f3d 6527 50be 8fda bdbd 6925 0fbe
00000150: 8ef1 43be 9a94 79bd 0112 23bd 068f 053e
00000160: b45d f4bd 7820 48be e62e a23d 3a52 4ebd
00000170: 8647 2bbe 9b30 7c3b 5800 4fbe 4019 153e
00000180: ece8 e1ba 139b 853d 9933 60bd 24c4 15be
00000190: 3c68 473d 0b5b 3c3e 3b6b 19bc 1236 363e
000001a0: 50db b3bd 0f3a 2c3b ca76 13be c02c 2bbe
000001b0: 2b6e 08be d227 b73d 38cb aa3c 3df1 ae3d
000001c0: 221b 03be 439d 253d 11c2 efbd b80b a13d
000001d0: a2bd bebd 52c9 033e 9050 083e 9041 373e
000001e0: 59a7 293d c864 39be 2499 6ebd a2a3 653d
000001f0: 7fd1 8dbd ddef 9c3d 33c4 e3bc 4dc8 c53d
00000200: a10f f83d e91a 3fbe d3fc cfbd c84c 3fbe
00000210: 7c38 1f3d 1173 1e3e 430b 3ebe b8f5 1dbe
00000220: ec10 8b3d ebce 263e 2114 2bbe 3b19 9f3d
00000230: e71a ad3c d761 44be b583 ec3d 222d 03be
00000240: cb2a f53d 9589 c8bd 9d54 14be dde2 d33d
00000250: 4134 e03d 48d2 3f3e 581f 21be d7a4 44be
00000260: f64f 89bc 39ab df3d 8fbd f53d 39e4 e63d
00000270: 7e63 4c3e 3e31 b0bd 6596 29bd 6539 073e
00000280: df40 31bc c3ae 4d3e 188d 063e 86ca 2a3e
00000290: 2fef 01bd aeb3 d6bd a3d4 90bd 1f93 143e
000002a0: 646b d53d f58a 133e 5ddc a9bd 92ef 273a
000002b0: 1ef0 283e 3f4c 503d 3438 67bd 26d8 43be
000002c0: 28b2 b73c d5a8 c73d 7f9a 23bd 12ca 0cbe
000002d0: 71e7 11be 4e75 de3c ceb0 fdbd 7dde 03be
000002e0: 0bdb bc3b b75c 3e3e 80e7 50be 25f9 56bd
000002f0: 63e0 073e 4842 ee3d 931e d5bd 7d8b 0a3e

layer4.bn1.weight f4 [8]
1.0041867 0.99941254 0.99460447 0.998872 0.9947832 1.0022907 1.0033594 1.0024198
00000000: 3189 803f 80d9 7f3f 669e 7e3f 13b6 7f3f
00000010: 1daa 7e3f 104b 803f 156e 803f 4b4f 803f

layer4.bn1.bias f4 [8]
0.0047184182 -0.001519442 -0.0014473962 -0.0014513033 -0.0023838428 0.0032642458 -0.0009307323 0.0037265345
00000000: f69c 9a3b 0328 c7ba 8fb6 bdba a839 beba
00000010: 3f3a 1cbb f5ec 553b 63fc 73ba e038 743b

layer4.bn1.running_mean f4 [8]
-0.035692494 -0.031541187 0.005116561 -0.032809865 0.017680285 0.0144638745 0.008571296 -0.0019339845
00000000: 4b32 12bd 5531 01bd d3a8 a73b a363 06bd
00000010: 3fd6 903c e3f9 6c3c 9f6e 0c3c c07d fdba

layer4.bn1.running_var f4 [8]
0.9043688 0.9067131 0.9055696 0.9008802 0.90141815 0.90305054 0.90522784 0.9021737
00000000: b784 673f 5a1e 683f 69d3 673f 16a0 663f
00000010: 57c3 663f 522e 673f 03bd 673f dbf4 663f

layer4.conv2.weight f4 [8, 8, 1, 3]
0.06378047 0.058055297 0.07615103 -0.045387797 0.046114214 -0.05665241 -0.097944625 -0.052304532
0.02315893 0.17125492 0.11228825 -0.07034093 0.08934492 0.1187228 -0.06198702 -0.17569685
-0.17758483 0.079620786 0.050950106 0.16831617 -0.163968 -0.15165494 0.12411174 0.12600897
0.1997652 -0.024375895 -0.12573464 0.1597129 -0.0728399 0.016847085 0.12923543 0.12567155
-0.10868892 -0.061579015 0.10935909 0.024931092 -0.13626955 -0.18683246 0.12670563 -0.041709185
-0.18943653 -0.06945758 0.11368861 0.17162813 -0.014164679 -0.017877638 0.1779162 0.031525742
0.14288577 -0.21459804 0.14736177 0.101098 0.14961691 0.032760322 0.14274368 0.18166034
-0.18491729 0.09855771 -0.013315134 0.2024594 0.040832944 0.14889213 -0.074469 -0.15625717
-0.025599698 -0.09759693 -0.06387085 0.046648003 -0.15858538 0.027109306 0.14614935 0.09678145
0.060354196 -0.14614506 -0.12836616 -0.13451734 -0.17322323 -0.009957646 0.15091024 -0.1951802
-0.14506526 -0.08061777 0.1976108 -0.009430985 0.16808756 -0.19896518 0.04420643 0.11821181
0.09682058 0.050624818 0.09490571 -0.08504774 -0.14896496 0.06956195 -0.14417829 -0.13187246
-0.03603482 0.06250219 0.024915282 -0.033849496 -0.14757358 0.01683795 0.095294 0.04961274
-0.04339814 -0.07399806 -0.039768446 -0.11012675 -0.14247489 -0.0034944299 0.1655808 0.2022371
0.17283945 -0.19648753 -0.15894978 0.09049343 -0.07778677 0.18343078 0.06634338 0.040645953
0.06534219 0.05866945 -0.062964045 -0.14707355 0.047140412 -0.20015599 0.038611397 0.11620906
0.16604699 -0.02100247 0.12320494 0.1451696 0.17261392 0.10991331 -0.18735082 -0.0708923
0.0675014 -0.17117776 0.19249366 -0.009662087 -0.14005674 0.1654513 -0.09778615 -0.20366403
-0.20057929 0.14090252 -0.1936027 0.015280899 0.020973163 -0.010597406 -0.073560126 0.14429846
-0.15113911 -0.09028836 0.11559557 -0.06736508 0.005543281 -0.056809757 -0.010513156 0.09265545
-0.15957378 0.059338186 -0.18830983 0.1638051 -0.1905906 0.18958883 -0.08118544 0.13890804
0.098113626 0.026485663 -0.14315835 0.17021981 0.13628739 -0.20281352 -0.036386333 -0.04919641
0.004852947 -0.11960355 0.04567301 -0.10059228 0.078195535 0.1211377 -0.040350765 0.1154931
-0.027168578 -0.040240437 -0.074995525 0.21194637 -0.1858138 0.07391796 0.17492343 0.16673589
00000000: 569f 823d 64cb 6d3d 12f5 9b3d 8ee8 39bd
00000010: 42e2 3c3d 5c0c 68bd 3197 c8bd 473d 56bd
00000020: ccb7 bd3c 735d 2f3e 62f7 e53d e80e 90bd
00000030: 78fa b63d f024 f33d 1ae6 7dbd e0e9 33be
00000040: ccd8 35be 3910 a33d 0fb1 503d 135b 2c3e
00000050: 3ae7 27be 6f4b 1bbe 4c2e fe3d 7f08 013e
00000060: 408f 4c3e f5af c7bc 95c0 00be c78b 233e
00000070: 162d 95bd e602 8a3c 4b56 043e 0bb0 003e
00000080: 4c98 debd 473a 7cbd a9f7 df3d 4a3c cc3c
00000090: 3f8a 0bbe 0251 3fbe 1fbf 013e 40d7 2abd
000000a0: a6fb 41be c73f 8ebd 93d5 e83d 49bf 2f3e
000000b0: f812 68bc 2074 92bc aa2f 363e 2321 013d
000000c0: a650 123e 97bf 5bbe 01e6 163e 780c cf3d
000000d0: 2d35 193e b02f 063d 662b 123e 2b05 3a3e
000000e0: f55a 3dbe a0d8 c93d b827 5abc 8451 4f3e
000000f0: 7240 273d 2e77 183e 3483 98bd e101 20be
00000100: 75b6 d1bc e6e0 c7bd b8ce 82bd fa11 3f3d
00000110: 3564 22be 5614 de3c 2da8 153e 5a35 c63d
00000120: f635 773d 0da7 15be 6b72 03be eabe 09be
00000130: 6e61 31be 6525 23bc 3788 1a3e 51dd 47be
00000140: fd8b 14be ee1a a5bd 7c5a 4a3e 6b84 1abc
00000150: 251f 2c3e 87bd 4bbe cd11 353d 0919 f23d
00000160: de49 c63d f85b 4f3d ed5d c23d 822d aebd
00000170: 458a 18be 7f76 8e3d 79a3 13be 9309 07be
00000180: 3f99 13bd 2601 803d 221b cc3c c5a5 0abd
00000190: 871d 17be beef 893c 8029 c33d ba36 4b3d
000001a0: 40c2 31bd 4b8c 97bd 3de4 22bd 228a e1bd
000001b0: f0e4 11be ce02 65bb 038e 293e 3e17 4f3e
000001c0: d3fc 303e 0734 49be bbc3 22be 9f54 b93d
000001d0: ac4e 9fbd 47d5 3b3e 0adf 873d 5f7c 263d
000001e0: 20d2 853d 614f 703d 4bf3 80bd 739a 16be
000001f0: 4e16 413d b1f5 4cbe fc26 1e3d 04ff ed3d
00000200: 3908 2a3e 5f0d acbc df52 fc3d 57a7 143e
00000210: b4c1 303e 3b1a e13d e5d8 3fbe fb2f 91bd
00000220: 2d3e 8a3d 3949 2fbe 0f1d 453e bb4d 1ebc
00000230: 096b 0fbe 116c 293e 1b44 c8bd 4e8d 50be
00000240: a864 4dbe c048 103e c93f 46be bc5c 7a3c
00000250: e9cf ab3c bea0 2dbc b1a6 96bd fac2 133e
00000260: 36c4 1abe 1be9 b8bd 5fbd ec3d b4f6 89bd
00000270: 69a4 b53b 59b1 68bd 5f3f 2cbc 24c2 bd3d
00000280: 4f67 23be 990c 733d 4bd4 40be 86bc 273e
00000290: 2f2a 43be 9323 423e 8d44 a6bd e93d 0e3e
000002a0: ccef c83d 76f8 d83c 1a98 12be 1a4e 2e3e
000002b0: ec8e 0b3e 59ae 4fbe d609 15bd 2d82 49bd
000002c0: 7805 9f3b b5f2 f4bd 9f13 3b3d 5303 cebd
000002d0: fb24 a03d 0b17 f83d d846 25bd a587 ec3d
000002e0: a390 debc 28d3 24bd 4197 99bd 7808 593e
000002f0: f945 3ebe 4d62 973d 211f 333e d0bc 2a3e

layer4.bn2.weight f4 [8]
0.99958706 0.9962696 1.0019684 0.99592006 1.0012132 1.0003431 0.9963493 1.0105455
00000000: f0e4 7f3f 860b 7f3f 8040 803f 9ef4 7e3f
00000010: c127 803f 3e0b 803f bf10 7f3f 8e59 813f

layer4.bn2.bias f4 [8]
-0.0021173588 -0.005037751 -0.002043107 -0.0010966301 0.0012906007 0.0026267897 0.0015232039 0.0046973336
00000000: 63c3 0abb b813 a5bb a6e5 05bb cdbc 8fba
00000010: 6029 a93a 3826 2c3b 3ea6 c73a 17ec 993b

layer4.bn2.running_mean f4 [8]
0.013455624 0.0024542154 0.019542078 -0.022272436 0.00953367 0.01492444 0.004118986 0.02048286
00000000: fa74 5c3c e7d6 203b b516 a03c af74 b6bc
00000010: 1c33 1c3c a385 743c 8ff8 863b accb a73c

layer4.bn2.running_var f4 [8]
0.90168905 0.91057265 0.90264726 0.90927416 0.9004314 0.9056773 0.9077697 0.90154177
00000000: 18d5 663f 4a1b 693f e413 673f 31c6 683f
00000010: ac82 663f 78da 673f 9863 683f 71cb 663f

layer4.fc1.weight f4 [2, 8]
0.17412926 -0.015270313 0.068309836 0.017424228 0.20032865 0.040534068 0.34052458 -0.07037026
0.055186067 0.1686742 0.2768759 0.22736378 0.019832762 0.35110626 0.21820669 -0.12254701
00000000: f14e 323e 5630 7abc 07e6 8b3d 41bd 8e3c
00000010: f422 4d3e 0d07 263d 3d59 ae3e 481e 90bd
00000020: c90a 623d eeb8 2c3e aec2 8d3e 0dd2 683e
00000030: 5178 a23c 33c4 b33e 9371 5f3e edf9 fabd

layer4.fc1.bias f4 [2]
0.035242215 -0.23890546
00000000: 245a 103d a2a3 74be

layer4.fc2.weight f4 [8, 2]
-0.36938083 -0.44240004 0.6998286 -0.10995465 0.29922828 0.11776959 -0.07963956 0.5694248
-0.43974024 0.6089246 0.33339483 -0.6449156 -0.32770747 0.6709907 -0.18355449 0.36338627
00000000: 7c1f bdbe 4282 e2be f827 333f e72f e1bd
00000010: 7334 993e 2f31 f13d 111a a3bd d3c5 113f
00000020: a225 e1be 7ce2 1b3f bab2 aa3e 3019 25bf
00000030: 46c9 a7be 0cc6 2b3f b5f5 3bbe c40d ba3e

layer4.fc2.bias f4 [8]
0.08574729 -0.288294 -0.51968485 -0.1922283 -0.09038869 0.33590832 -0.056748692 -0.15035272
00000000: 469c af3d 459b 93be 110a 05bf 7fd7 44be
00000010: b51d b9bd 2dfc ab3e 5171 68bd 10f6 19be

layer5.conv1.weight f4 [16, 8, 1, 3]
-0.13310462 0.060826134 0.07346443 -0.17798984 0.06686545 -0.10908777 -0.013674703 -0.049409103
-0.00317177 -0.12804282 0.110163406 0.20296526 -0.07154502 -0.14455016 0.08005539 -0.017961174
-0.10473973 -0.03144148 -0.15079808 -0.08491029 -0.08778564 -0.20196591 0.119458675 -0.17904934
0.13147691 0.13993426 -0.018872922 0.14148079 0.1564152 -0.09594638 -0.100881234 -0.026368862
0.12644394 0.1842671 -0.006359176 -0.18337074 -0.06876843 -0.0049966113 0.041434903 -0.15130144
-0.044209063 -0.09786632 -0.18492374 -0.023944339 0.014638546 0.106911965 0.0833438 0.09363137
-0.10988396 -0.056225568 0.11277167 -0.18565638 0.14560322 0.06254545 0.11049479 -0.11320888
0.042895142 0.11175029 -0.07976726 -0.048238557 -0.034106195 0.052177235 0.1816887 -0.09249318
0.16911775 -0.15334791 -0.1935983 0.040723167 -0.06677587 0.020771787 -0.1863275 0.17660247
-0.08001849 -0.1423456 -0.19676644 -0.0987038 0.14672762 -0.12724924 -0.19561338 0.18236054
0.16823374 0.049934156 0.16274366 -0.1965317 0.085818626 0.09587382 -0.0035483036 0.08313465
-0.06795046 -0.20411922 -0.16202037 0.08285883 -0.123637594 -0.057948634 0.0743496 0.12274992
0.018469596 0.07881618 -0.07190273 0.079845496 -0.07472674 0.16240577 -0.14842393 -0.055592604
0.1307911 -0.12516281 0.060684323 -0.19743125 0.060115363 -0.08287071 0.1355436 -0.039086204
0.07522149 -0.0405042 -0.09625059 -0.029814702 -0.007906432 -0.040309593 0.0055516567 -0.11446838
0.077893816 -0.043694183 0.053820103 0.106697746 -0.1819603 0.12531048 -0.033577166 0.12232824
-0.14379023 -0.13313268 -0.11100832 -0.001999686 -0.025361866 -0.1619899 -0.025940174 0.18233201
-0.016504023 -0.05954075 0.010009413 0.014285327 -0.18743874 -0.04207183 0.19986857 0.18553118
-0.1604764 -0.0005450043 0.054679293 0.17454506 0.026223049 -0.18376996 -0.046181366 0.14226414
-0.07483935 -0.101587 -0.11354714 -0.13986292 -0.08544351 0.11578505 0.14027146 0.0013434604
-0.09853892 0.07807516 -0.031255603 -0.109192796 0.04840987 0.14866167 0.14886042 -0.03231317
-0.035183616 0.16716355 -0.17417467 0.20178063 -0.100335866 0.09605708 -0.1264659 0.13582261
-0.008698645 0.042143565 -0.111343265 0.06089558 0.18748185 -0.15101829 -0.09399225 0.058451515
0.1744744 0.01086771 0.18869291 0.12520508 -0.10462432 0.15467632 -0.16893204 -0.025570376
-0.18575765 0.13179716 -0.044630274 -0.022765633 0.09853782 0.036005523 -0.014633986 0.07827897
-0.08845358 -0.1434632 0.1389614 -0.10851905 -0.19475305 -0.1819059 -0.030959342 0.13742656
0.024811815 -0.1457351 0.15057684 0.10329511 0.09412356 0.0771828 0.16938937 0.1163277
-0.0743691 -0.035222925 0.13253678 0.07024898 0.13359082 -0.1849615 0.12643851 -0.019444952
0.052168265 -0.11745169 -0.1864923 0.05996665 -0.049317524 0.17863202 -0.09637715 -0.17414252
0.04620121 -0.05450777 -0.012862673 0.0952493 0.11201589 -0.15099941 0.122341484 0.08539838
0.06225935 0.10471326 -0.14653818 -0.016206505 -0.12251194 -0.19472453 -0.15521792 0.0573325
-0.1946769 -0.07962304 0.17850144 -0.02513014 -0.015151289 0.13295884 -0.028070347 -0.03554723
00000000: 944c 08be d324 793d 8574 963d f842 36be
00000010: c1f0 883d 6969 dfbd dd0b 60bc 3361 4abd
00000020: 78dd 4fbb a81d 03be 5a9d e13d 20d6 4f3e
00000030: 3286 92bd f504 14be 15f4 a33d 5023 93bc
00000040: c981 d6bd c8c8 00bd d06a 1abe 72e5 adbd
00000050: f5c8 b3bd 27d0 4ebe c0a6 f43d b658 37be
00000060: e2a1 063e ed4a 0f3e 639b 9abc 57e0 103e
00000070: 4e2b 203e 897f c4bd d29a cebd 8303 d8bc
00000080: 857a 013e 84b0 3c3e a260 d0bb 8ac5 3bbe
00000090: 76d6 8cbd 9dba a3bb a5b7 293d c4ee 1abe
000000a0: 9014 35bd 236e c8bd a65c 3dbe eb26 c4bc
000000b0: 83d6 6f3c a9f4 da3d 27b0 aa3d cec1 bf3d
000000c0: d70a e1bd c84c 66bd d5f4 e63d b51c 3ebe
000000d0: 0319 153e d417 803d 184b e23d 0fda e7bd
000000e0: d1b2 2f3d 56dd e43d 045d a3bd cb95 45bd
000000f0: f0b2 0bbd ccb7 553d 9a0c 3a3e 106d bdbd
00000100: 342d 2d3e 3c07 1dbe a23e 46be 56cd 263d
00000110: cac1 88bd 9829 aa3c a3cc 3ebe 47d7 343e
00000120: bce0 a3bd 0cc3 11be 247d 49be 3825 cabd
00000130: c43f 163e a04d 02be e04e 48be b9bc 3a3e
00000140: 7745 2c3e c287 4c3d 46a6 263e 9b3f 49be
00000150: adc1 af3d 7e59 c43d a88a 68bb 8042 aa3d
00000160: 9c29 8bbd a104 51be abe8 25be e4b1 a93d
00000170: b535 fdbd 8c5b 6dbd 9a44 983d 4f64 fb3d
00000180: 8d4d 973c 616a a13d bd41 93bd 0986 a33d
00000190: 550a 99bd b34d 263e 71fc 17be 12b5 63bd
000001a0: 1aee 053e ae2a 00be 2090 783d 6b2b 4abe
000001b0: 873b 763d 1eb8 a9bd f1cb 0a3e db18 20bd
000001c0: b90d 9a3d bbe7 25bd 081f c5bd f63d f4bc
000001d0: fb89 01bc ac1b 25bd acea b53b 666e eabd
000001e0: cb86 9f3d acf8 32bd 7872 5c3d 5984 da3d
000001f0: cd53 3abe 6451 003e 3688 09bd 3a87 fa3d
00000200: bf3d 13be ef53 08be 5458 e3bd 2a0d 03bb
00000210: b0c3 cfbc aee0 25be 7d80 d4bc 3eb5 3a3e
00000220: 7233 87bc 00e1 73bd 85fe 233c 010d 6a3c
00000230: f1ef 3fbe 8353 2cbd 59aa 4c3e e3fb 3d3e
00000240: ed53 24be 9fde 0eba 65f7 5f3d f1bb 323e
00000250: b8d1 d63c 312e 3cbe ac28 3dbd b1ad 113e
00000260: 6045 99bd d80c d0bd 678b e8bd 3a38 0fbe
00000270: 02fd aebd b620 ed3d 52a3 0f3e 0d17 b03a
00000280: c6ce c9bd dfe5 9f3d e005 00bd 79a0 dfbd
00000290: 6e49 463d c43a 183e de6e 183e d15a 04bd
000002a0: b21c 10bd ec2c 2b3e d85a 32be 959f 4e3e
000002b0: e47c cdbd 93b9 c43d 4780 01be 1515 0b3e
000002c0: c384 0ebc bb9e 2c3d f007 e4bd a56d 793d
000002d0: 3efb 3f3e 8aa4 1abe 027f c0bd db6a 6f3d
000002e0: 6ba9 323e 7b0e 323c b738 413e c335 003e
000002f0: 4745 d6bd 7863 1e3e 85fc 2cbe f778 d1bc
00000300: 4137 3ebe d6f5 063e 3cce 36bd fe7e babc
00000310: 32ce c93d 877a 133d 63c3 6fbc ba50 a03d
00000320: 2727 b5bd 04e8 12be e64b 0e3e 3c3f debd
00000330: 586d 47be 8a45 3abe 729e fdbc 8cb9 0c3e
00000340: 2642 cb3c 953b 15be d130 1a3e 638c d33d
00000350: dac3 c03d 0412 9e3d 6874 2d3e 383d ee3d
00000360: d44e 98bd ea45 10bd b9b7 073e b2de 8f3d
00000370: 08cc 083e 8c66 3dbe 1979 013e 054b 9fbc
00000380: 64ae 553d 838a f0bd d6f7 3ebe 979f 753d
00000390: 2c01 4abd 50eb 363e 6261 c5bd 6b52 32be
000003a0: 7b3d 3d3d 8a43 5fbd f6bd 52bc 1112 c33d
000003b0: 9668 e53d 979f 1abe 2c8e fa3d 59e5 ae3d
000003c0: a903 7f3d e873 d63d 1b0e 16be 81c3 84bc
000003d0: 8ae7 fabd de65 47be 72f1 1ebe 7cd5 6a3d
000003e0: 6259 47be 6811 a3bd 15c9 363e b9dd cdbc
000003f0: 1d3d 78bc 5d26 083e c9f3 e5bc f999 11bd

layer5.bn1.weight f4 [16]
0.9972309 1.0032963 0.9987542 0.9995436 0.9990304 0.9988729 0.9993147 1.003035
1.0030851 0.9995434 0.9970364 0.9998459 0.9974019 0.99960524 1.0034847 1.000755
00000000: 864a 7f3f 036c 803f 5bae 7f3f 17e2 7f3f
00000010: 75c0 7f3f 22b6 7f3f 17d3 7f3f 7363 803f
00000020: 1865 803f 14e2 7f3f c73d 7f3f e7f5 7f3f
00000030: bb55 7f3f 21e6 7f3f 3072 803f bd18 803f

layer5.bn1.bias f4 [16]
-0.0023674842 0.00344158 -0.0019544503 8.244331e-05 -0.0009424461 -0.0007752016 -0.00046597095 0.004831253
0.00020959169 0.0016414775 -0.0020927673 -0.0017200597 -0.0022274472 -0.00014291899 0.0043087485 0.0019400109
00000000: cb27 1bbb 228c 613b 3c16 00bb 6ae5 ac38
00000010: 7d0e 77ba e636 4bba 904d f4b9 7d4f 9e3b
00000020: d7c5 5b39 d826 d73a cf26 09bb a073 e1ba
00000030: 5dfa 11bb 86dc 15b9 6730 8d3b f747 fe3a

layer5.bn1.running_mean f4 [16]
-0.0017114509 0.022947004 0.010512958 0.0396473 -0.004447316 -0.011982371 0.006777283 0.00051819463
0.03980582 0.037664957 -0.00535221 -0.038527194 0.017939711 -0.003725577 -0.015276516 0.025685579
00000000: c352 e0ba 5bfb bb3c 8b3e 2c3c 3565 223d
00000010: caba 91bb b551 44bc f813 de3b 74d7 073a
00000020: 6d0b 233d 9246 1a3d 9761 afbb b1ce 1dbd
00000030: 4df6 923c cf28 74bb 5a4a 7abc 906a d23c

layer5.bn1.running_var f4 [16]
0.91664064 0.9105988 0.90445906 0.91031224 0.90075743 0.9018195 0.9021571 0.92777526
0.9228646 0.911051 0.90228564 0.9197539 0.92572224 0.9029665 0.91330916 0.9101523
00000000: f6a8 6a3f 011d 693f a18a 673f 390a 693f
00000010: 0a98 663f a5dd 663f c5f3 663f ae82 6d3f
00000020: db40 6c3f a33a 693f 31fc 663f fe74 6b3f
00000030: 22fc 6c3f d028 673f a1ce 693f beff 683f

layer5.conv2.weight f4 [16, 16, 1, 3]
0.06407839 0.111264534 -0.018825432 -0.07219442 -0.09237414 0.043807738 -0.098895475 -0.12998949
0.0695836 0.0956424 0.14308824 0.13628156 0.05736626 0.02700233 0.10259701 0.03521766
0.1119021 -0.12619995 -0.12526295 -0.09737808 0.0419046 0.08660656 0.038798343 -0.12811188
-0.040710468 0.09926042 0.048894037 -0.020840056 0.0741453 0.093497105 -0.113034606 -0.008654376
-0.0025975294 -0.07942127 0.08954897 -0.12096849 -0.040670086 -0.106151275 0.09030018 -0.01838375
-0.1301342 -0.061904058 0.06600795 -0.15071453 -0.06335046 0.09715791 0.0055713 -0.12727545
0.067165285 -0.018550996 0.09230088 -0.043277793 0.0293101 0.023271939 0.14364985 -0.03027344
-0.029772758 0.074322015 0.111658834 -0.101570025 0.13803692 -0.039158266 -0.027319016 0.11317852
0.045256864 0.09562218 -0.017900512 0.008084409 0.047135476 0.0234516 -0.025095547 0.013799023
0.08789243 0.09206103 -0.06913705 0.04288121 -0.04870606 0.10815536 0.06874144 -0.100417234
0.11577121 0.14198591 0.13409662 0.051363938 -0.10259567 0.13905989 -0.0647378 -0.038561225
0.08659114 0.08742351 0.11744587 0.009667192 -0.02671651 0.14143921 -0.09413634 -0.055352036
-0.074920915 -0.048922826 0.11511377 -0.0040839203 -0.07261925 0.021403247 -0.019923637 -0.03608446
0.057137024 -0.05275572 0.037415776 -0.061432887 -0.07077835 -0.020146083 0.08121773 -0.105415545
-0.14494766 0.114916965 -0.11021322 -0.14468025 0.07544065 -0.048549667 -0.14207354 0.021992985
0.06959546 0.03560814 -0.13192654 -0.0400146 -0.038381692 -0.08139235 0.008798497 0.11136324
0.07544861 -0.065334685 -0.09840139 0.0023682476 -0.032762215 0.030282794 -0.1105735 0.11475895
0.022163155 -0.113515645 0.024273556 0.031398788 -0.14143142 -0.0984391 -0.11535222 -0.014425267
0.0038310203 -0.08237723 0.09234339 0.13706136 0.0628414 -0.04467333 0.10781532 0.071557775
0.042436115 -0.05239713 -0.09708183 0.0923499 -0.13292247 -0.008243358 0.021565922 -0.019679803
0.06763957 -0.08351575 -0.031591456 -0.04913967 0.026976286 -0.06670006 -0.019383714 -0.023526084
-0.024902988 0.13120458 -0.0017127522 0.11570362 -0.09552522 0.08146004 0.0038405273 0.018464807
-0.06435011 0.03907087 0.109334454 -0.059799533 0.10066762 0.06441504 -0.007330702 0.049039617
-0.12718092 0.045830283 0.03149889 -0.11729026 -0.13650641 -0.107010216 0.0901667 -0.028946104
-0.036934536 0.05569417 0.05162478 -0.026952816 -0.09587114 0.13231419 -0.08225245 0.116863705
-0.13011938 -0.019060645 -0.14265682 -0.13171718 0.13311224 -0.088653 0.088880874 -0.09722835
-0.06316791 0.06109576 -0.10784396 0.026876139 -0.029766515 0.012023746 0.0052179233 -0.026791267
0.016379073 0.028647125 -0.13386714 -0.09626777 -0.1457138 0.13143304 0.015250947 -0.072602764
-0.07719308 -0.13723007 0.12661143 -0.08834871 -0.108530246 -0.10016258 -0.0064442856 0.07612413
0.12853485 -0.085619025 0.09944921 -0.122858614 0.053493187 -0.11774579 -0.04676448 0.086444035
0.010248171 -0.04879848 0.032838047 -0.047531337 -0.11047726 -0.12161153 -0.052886404 -0.030371724
-0.09513377 -0.110883154 0.13453603 -0.03521506 -0.07411952 0.041649353 -0.1319707 0.03463201
00000000: 883b 833d a9de e33d cb37 9abc abda 93bd
00000010: a72e bdbd be6f 333d b689 cabd f71b 05be
00000020: d981 8e3d 2ae0 c33d b985 123e 658d 0b3e
00000030: e2f8 6a3d fe33 dd3c 621e d23d 6540 103d
00000040: ee2c e53d 8f3a 01be ee44 00be 296e c7bd
00000050: 28a4 2b3d c85e b13d 03eb 1e3d c32f 03be
00000060: 05c0 26bd 0c49 cb3d 1d45 483d c4b8 aabc
00000070: 7ed9 973d 697b bf3d b07e e7bd 15cb 0dbc
00000080: 503b 2abb 9ea7 a2bd 7365 b73d 54be f7bd
00000090: ad95 26bd d765 d9bd 4def b83d 8599 96bc
000000a0: e641 05be 1c8f 7dbd 2d2f 873d e954 1abe
000000b0: e3bd 81bd bafa c63d 748f b63b 7f54 02be
000000c0: f48d 893d 42f8 97bc 3e08 bd3d 0e44 31bd
000000d0: bc1b f03c cba4 be3c f218 133e 0100 f8bc
000000e0: 00e6 f3bc 2436 983d 63ad e43d f203 d0bd
000000f0: 8d59 0d3e 6b64 20bd 21cc dfbc 24ca e73d
00000100: 435f 393d 90d5 c33d 18a4 92bc 7874 043c
00000110: 2111 413d 921d c03c 2d95 cdbc 4c15 623c
00000120: f200 b43d 7e8a bc3d ba97 8dbd 35a4 2f3d
00000130: 0180 47bd 8f80 dd3d 50c8 8c3d 8da7 cdbd
00000140: 7519 ed3d c164 113e a050 093e fe62 523d
00000150: ae1d d2bd b765 0e3e 4095 84bd 60f2 1dbd
00000160: b256 b13d 190b b33d 7687 f03d 2463 1e3c
00000170: 95dc dabc 71d5 103e 8eca c0bd d1b8 62bd
00000180: 2370 99bd 4d63 48bd c5c0 eb3d 68d2 85bb
00000190: 67b9 94bd dd55 af3c e536 a3bc 4ccd 13bd
000001a0: 8308 6a3d 6216 58bd 4941 193d 0da1 7bbd
000001b0: 3df4 90bd 6609 a5bc 7b55 a63d 1be4 d7bd
000001c0: 296d 14be 9659 eb3d 78b7 e1bd 0f27 14be
000001d0: a180 9a3d 04dc 46bd ba7b 11be a22a b43c
000001e0: 1188 8e3d d7d9 113d c017 07be 59e6 23bd
000001f0: 1f36 1dbd 08b1 a6bd 9227 103c 6912 e43d
00000200: cd84 9a3d 31ce 85bd ab86 c9bd 9a34 1b3b
00000210: ac31 06bd 9f13 f83c 5c74 e2bd be06 eb3d
00000220: 818f b53c e47a e8bd 56d9 c63c 049c 003d
00000230: 66d3 10be 709a c9bd c93d ecbd f557 6cbc
00000240: db11 7b3b 65b5 a8bd 881e bd3d d059 0c3e
00000250: feb2 803d 62fb 36bd 47ce dc3d e28c 923d
00000260: 7ed1 2d3d 5f9e 56bd d7d2 c6bd f221 bd3d
00000270: d41c 08be 260f 07bc 04ab b03c 8a37 a1bc
00000280: 9d86 8a3d 4e0a abbd 0b66 01bd ae46 49bd
00000290: 5ffd dc3c 0b9a 88bd 98ca 9ebc c6b9 c0bc
000002a0: 5a01 ccbc 7e5a 063e 6d7e e0ba 05f6 ec3d
000002b0: baa2 c3bd 85d4 a63d 5bb1 7b3b 8243 973c
000002c0: fec9 83bd c708 203d beea df3d 5bf0 74bd
000002d0: d32a ce3d 08ec 833d 6336 f0bb c4dd 483d
000002e0: b73b 02be 89b8 3b3d fb04 013d e035 f0bd
000002f0: 56c8 0bbe 2c28 dbbd 52a9 b83d 6120 edbc
00000300: ab48 17bd 921f 643d 8174 533d 27cc dcbc
00000310: 1758 c4bd 5f7d 073e f973 a8bd 3d56 ef3d
00000320: 043e 05be 1225 9cbc a114 12be dee0 06be
00000330: 934e 083e b48f b5bd 2d07 b63d a81f c7bd
00000340: 2d5e 81bd 8c3f 7a3d 4bdd dcbd 592b dc3c
00000350: e8d8 f3bc 3fff 443c 1dfb aa3b 5c79 dbbc
00000360: 682d 863c 60ad ea3c 7814 09be 0928 c5bd
00000370: 0036 15be 6296 063e 1cdf 793c c2b0 94bd
00000380: 6817 9ebd 0a86 0cbe 6da6 013e 2bf0 b4bd
00000390: 1b45 debd 0a22 cdbd 962a d3bb f8e6 9b3d
000003a0: a49e 033e 0759 afbd 07ac cb3d 4c9d fbbd
000003b0: ac1b 5b3d b424 f1bd 1d8c 3fbd 9209 b13d
000003c0: f2e7 273c eae0 47bd 3081 063d 38b0 42bd
000003d0: e741 e2bd 770f f9bd 6a9f 58bd 1fce f8bc
000003e0: 7ed5 c2bd b516 e3bd d0c3 093e ab3d 10bd
000003f0: facb 97bd 8398 2a3d 5423 07be 4bda 0d3d

layer5.bn2.weight f4 [16]
1.00102 0.99809086 0.9951306 1.0056263 0.9987511 1.0043241 0.992544 0.99851674
0.99555314 1.0020956 1.0013304 0.9960483 1.0009695 0.9971316 0.9986847 1.0050045
00000000: 6c21 803f e282 7f3f e1c0 7e3f 5db8 803f
00000010: 27ae 7f3f b18d 803f 5d17 7e3f cb9e 7f3f
00000020: 92dc 7e3f ab44 803f 982b 803f 05fd 7e3f
00000030: c51f 803f 0444 7f3f cda9 7f3f fda3 803f

layer5.bn2.bias f4 [16]
0.003429652 -0.0009938887 -0.007945796 0.0048574926 -0.006841422 0.0022596826 -0.009500776 -0.0017091524
-0.0049743927 0.0050680847 -0.004151462 -0.006712982 0.0022839475 -0.0037266992 -0.00091576105 0.0067367153
00000000: 03c4 603b 5f45 82ba 152f 02bc 9a2b 9f3b
00000010: 022e e0bb 2f17 143b 25a9 1bbc a305 e0ba
00000020: 3b00 a3bb 2d12 a63b fd08 88bb 93f8 dbbb
00000030: 48ae 153b a33b 74bb af0f 70ba aabf dc3b

layer5.bn2.running_mean f4 [16]
-0.005596665 0.0077912803 -0.0213632 -0.0053546443 -0.009178121 0.0149893565 0.017010046 -0.0010378069
-0.0074945474 -0.024176054 0.009932665 0.025307257 0.006995273 0.015093967 0.0011170073 -0.005010806
00000000: 3b64 b7bb ff4d ff3b e101 afbc 0376 afbb
00000010: d45f 16bc eb95 753c a758 8b3c 0507 88ba
00000020: d294 f5bb dc0c c6bc 9ebc 223c 2a51 cf3c
00000030: 9a38 e53b b04c 773c 8c68 923a b031 a4bb

layer5.bn2.running_var f4 [16]
0.90324223 0.90355945 0.9053071 0.90216875 0.9145192 0.90474683 0.9015253 0.9034378
0.91513723 0.9049285 0.90337646 0.904935 0.9043861 0.9049329 0.9008994 0.9068901
00000000: e23a 673f ac4f 673f 35c2 673f 88f4 663f
00000010: ee1d 6a3f 7d9d 673f 5dca 663f b347 673f
00000020: 6f46 6a3f 65a9 673f ae43 673f d2a9 673f
00000030: d985 673f afa9 673f 58a1 663f f329 683f

layer5.fc1.weight f4 [4, 16]
-0.092065886 0.023372399 -0.09012204 0.12444459 0.043023393 -0.020126076 -0.14562818 0.23209149
0.045472242 0.013097283 0.06114408 0.04341834 -0.14263158 0.17832376 0.23693103 -0.17674842
0.11283793 0.047536872 -0.22078821 0.027871665 0.12871034 0.09631594 -0.12864031 0.19866423
-0.047773372 0.17184219 0.10478805 0.1522758 -0.20556514 -0.16722494 0.14197138 -0.039230987
0.11035855 -0.12756702 0.16980155 0.1766628 0.18577632 0.21477337 0.23637481 -0.20208642
-0.03246078 -0.03722716 0.044014405 0.0066622687 0.058204632 0.11021103 -0.10576003 -0.060629327
-0.0036151132 0.23532711 -0.01112058 0.19727871 0.19119127 -0.19188367 -0.22391021 -0.07218788
-0.09208149 0.22782955 -0.21746321 0.10038472 -0.05391041 0.22111663 -0.025113093 -0.034169313
00000000: 0a8d bcbd 7977 bf3c e791 b8bd cedc fe3d
00000010: 4c39 303d 71df a4bc 8e1f 15be 64a9 6d3e
00000020: 1a41 3a3d fd95 563c 3772 7a3d 6ed7 313d
00000030: 030e 12be 819a 363e 0c9e 723e 8afd 34be
00000040: 9317 e73d 06b6 423d 4e16 62be 1e53 e43c
00000050: a5cc 033e 4b41 c53d 49ba 03be a36e 4b3e
00000060: 03ae 43bd 66f7 2f3e 1e9b d63d 30ee 1b3e
00000070: ab7f 52be 043d 2bbe f260 113e acb0 20bd
00000080: aa03 e23d eea0 02be 75e0 2d3e 18e7 343e
00000090: 263c 3e3e 8ded 5b3e 3d0c 723e beef 4ebe
000000a0: 98f5 04bd 827b 18bd 7348 343d 294f da3b
000000b0: fb67 6e3d 52b6 e13d b798 d8bd 7556 78bd
000000c0: 89eb 6cbb 97f9 703e 1833 36bc 6e03 4a3e
000000d0: a5c7 433e 277d 44be b848 65be 3dd7 93bd
000000e0: 3895 bcbd 264c 693e adae 5ebe 8196 cd3d
000000f0: 29d1 5cbd 666c 623e f9b9 cdbc 1ff5 0bbd

layer5.fc1.bias f4 [4]
-0.19828722 -0.07941431 -0.21904038 0.23419274
00000000: ce0b 4bbe f8a3 a2bd 1f4c 60be 39d0 6f3e

layer5.fc2.weight f4 [16, 4]
0.041816913 0.40914595 -0.2318791 0.37610653 -0.31778276 0.16119179 -0.3230573 -0.376591
0.035288442 0.3279916 -0.380883 0.11934374 -0.20292816 -0.25148436 -0.052979574 0.43030757
0.19065827 -0.4808845 -0.027184654 -0.38161996 0.16469711 0.028328968 0.05534602 0.49371338
0.3087174 0.18997268 0.25213036 -0.10235481 0.08192233 0.3401063 0.14995258 0.4426255
0.19350491 0.39805818 0.36280558 -0.38358814 -0.38536897 -0.23187232 0.15177931 -0.36133766
0.09368579 0.14436348 -0.2022664 -0.22120942 -0.49427795 0.27395588 0.3622824 -0.010913332
0.12081818 -0.118014716 -0.047416154 0.37851316 0.46672088 -0.45146286 0.08615133 -0.080595836
-0.40460923 0.3172557 -0.06815597 -0.09436276 0.15627013 0.4507054 0.26269203 -0.0028549207
00000000: 3648 2b3d 947b d13e b771 6dbe 0991 c03e
00000010: 6cb4 a2be 760f 253e c467 a5be 89d0 c0be
00000020: 9d8a 103d 84ee a73e 1903 c3be 7e6a f43d
00000030: 66cc 4fbe 8fc2 80be 1c01 59bd 4651 dc3e
00000040: ec3b 433e 7e36 f6be 5ab2 debc b163 c3be
00000050: 5ca6 283e 2712 e83c 82b2 623d 00c8 fc3e
00000060: 3510 9e3e 3388 423e 3b17 813e 669f d1bd
00000070: e5c6 a73d 6a22 ae3e 2b8d 193e cf9f e23e
00000080: 2726 463e 48ce cb3e a7c1 b93e aa65 c4be
00000090: 154f c5be f06f 6dbe 096c 1b3e 4001 b9be
000000a0: 56de bf3d 05d4 133e ec1e 4fbe b984 62be
000000b0: 0012 fdbe f243 8c3e 147d b93e d5cd 32bc
000000c0: 866f f73d b3b1 f1bd 7137 42bd 7acc c13e
000000d0: 0af6 ee3e 2426 e7be 1c70 b03d 6e0f a5bd
000000e0: f128 cfbe 576f a23e 5b95 8bbd 4341 c1bd
000000f0: 4705 203e dcc2 e63e 927f 863e 9f19 3bbb
