das_new/models/20260106_141615/best_model.pth (torch, 98946 bytes, 176 tensors)

input_conv.weight f4 [4, 1, 1, 3]
000000 73 d2 15 be 0e 4f d5 3e 2d 90 72 be c2 31 f3 be
       -0.14631061 0.41661876 -0.23687811 -0.474989
000010 d1 a6 ad be 6c b0 98 be 08 d5 3d 3e 35 6e e6 be
       -0.33916333 -0.298221 0.18538296 -0.45005956
000020 c0 f6 46 be 8e f4 cd be be 0d cd 3f 19 97 a8 be
       -0.19430065 -0.40225643 1.6019819 -0.32927778

input_bn.weight f4 [4]
000000 df 8a a3 3f 56 60 42 3f 57 40 5c 3f 47 10 8b 3f
       1.2776755 0.75928247 0.86035675 1.0864342

input_bn.bias f4 [4]
000000 55 00 ad 3d 1f 1e 8a be ce 5a 17 be 15 d7 13 3e
       0.08447329 -0.26976106 -0.14780733 0.14437516

input_bn.running_mean f4 [4]
000000 b5 dd 81 bb cc 72 53 3b 96 4a 8c 3b 55 cf 69 bc
       -0.003963197 0.003226447 0.0042813523 -0.014270623

input_bn.running_var f4 [4]
000000 3c b0 5c 3e 99 59 26 3e 90 9a 77 3e 0e b2 f0 3f
       0.21551603 0.16245116 0.24180055 1.8804338

layer1.conv1.weight f4 [4, 4, 1, 3]
000000 b8 a0 76 be ec 71 dd 3f 6f 29 93 3e f0 75 17 3e
       -0.24084747 1.7300391 0.2874255 0.14791083
000010 59 2e 23 bf 98 80 64 be 4b c9 0f be fd 2d 50 bf
       -0.63742596 -0.2231468 -0.14041631 -0.8132017
000020 fa 9b 3a 3e 72 c9 8c be 30 64 c8 3f 7f f5 51 3e
       0.18223563 -0.2749744 1.5655575 0.20503806
000030 cf 6d 83 be 77 1e b1 be fa 01 22 3e 80 dc ef bd
       -0.25669715 -0.34593555 0.15821066 -0.11711979
000040 82 3a c4 3e d8 da ee bd d8 14 04 be 45 42 b9 3e
       0.38325888 -0.11662835 -0.12898576 0.36183372
000050 01 7f a6 3c 60 b4 63 bb 5a 1b 34 bd 9c 6e 33 3e
       0.020324232 -0.0034744963 -0.043971397 0.17522663
000060 23 93 7f 3e 7b 0f e8 3e 08 b6 5b be 3b b7 fd 3d
       0.24958472 0.4532431 -0.21456158 0.12388464
000070 a0 f4 c5 3d e1 3f 81 be 60 db 54 3e 47 b5 8f bd
       0.09665799 -0.25244048 0.2078681 -0.07016998
000080 b3 02 85 be 4c eb 65 3e 87 b1 13 3e c7 e7 58 be
       -0.25978622 0.2245304 0.1442319 -0.21182166
000090 0d ed 4f bd 90 c5 f4 bd f5 27 d2 3c cb 7e 74 be
       -0.05076318 -0.119517446 0.025653819 -0.23876493
0000a0 31 df e7 bb d6 f7 24 3e 4f 4a 1b bd 45 08 74 be
       -0.007076167 0.16110167 -0.037912663 -0.2383128
0000b0 a7 60 38 be ab 5b 2f 3d 6d 1e 76 be f6 9f 27 be
       -0.1800562 0.04281203 -0.24035044 -0.16369614

layer1.bn1.weight f4 [4]
000000 c9 7c 84 3f 98 cd 7c 3f a1 ef 7c 3f 11 0f 7b 3f
       1.0350581 0.9875121 0.98803145 0.98069865

layer1.bn1.bias f4 [4]
000000 24 d4 3d be 77 98 c6 3c 46 db 8f 3d 8a be e5 bc
       -0.18537956 0.024242623 0.07024245 -0.028044958

layer1.bn1.running_mean f4 [4]
000000 8b 77 8a 3f 4a de 2f bd ea ac 86 3e 1c 5b 54 be
       1.0817732 -0.0429366 0.26303798 -0.2073788

layer1.bn1.running_var f4 [4]
000000 82 56 ef 40 bd d4 73 3e d2 46 94 3e 5c cc ff 3d
       7.47931 0.23811622 0.28960282 0.1249015

layer1.conv2.weight f4 [4, 4, 1, 3]
000000 ae 67 8a 3e f5 94 48 be 51 9e f3 bc f9 98 10 be
       0.27032226 -0.19588073 -0.029738577 -0.14120854
000010 4d 5a a5 3e 6f ea ae 3d 40 b4 55 3e 23 2a 69 3d
       0.32295457 0.085408084 0.20869541 0.05692495
000020 ba c0 5b 3e a1 11 18 be 47 e8 7f be 91 96 62 be
       0.21460238 -0.14850475 -0.2499095 -0.22127749
000030 df 25 5a 3e 37 57 7a 3e 41 cc f6 bc d4 99 89 bd
       0.21303509 0.24447332 -0.030126693 -0.067187935
000040 7d 6c dc bd 0a 15 71 3e c6 7a 0f be be f4 60 3e
       -0.1076288 0.23543182 -0.14011678 0.21968362
000050 66 8d 6b be 26 a5 57 3e 24 34 4d bd 1a 0d d3 bd
       -0.23003158 0.21059093 -0.050098553 -0.10305233
000060 90 2c 6d 3e 2c 67 49 3e b1 75 87 3d dd 19 bb bd
       0.2316153 0.19668263 0.06614245 -0.091357924
000070 5d e4 01 3e 78 0c 7b be d9 af 54 3e 25 91 29 3e
       0.1268477 -0.24516475 0.20770206 0.16559274
000080 f1 9c 21 be 54 44 18 be 65 5f 50 3e 6f 07 e7 bd
       -0.15782525 -0.14869815 0.2034889 -0.11280715
000090 51 1e 9c 3d f7 20 e3 be 87 1c 0b be a8 05 7c 3e
       0.0762297 -0.44361088 -0.13585101 0.24611533
0000a0 0f 3d 2f 3e 6a 41 bb 3d 27 27 67 be fb c8 80 be
       0.17113136 0.09143336 -0.22573529 -0.25153336
0000b0 b4 7c 6d bd 3b d5 8c 3d 80 48 fb 3d f6 bf b0 bd
       -0.057980254 0.06876608 0.12269688 -0.08630364

layer1.bn2.weight f4 [4]
000000 68 a7 89 3f f1 88 2f 3f bc 80 6d 3f 3d e6 8e 3f
       1.0754213 0.6856833 0.9277456 1.1164013

layer1.bn2.bias f4 [4]
000000 30 75 0d 3e 76 fe e7 bd e7 7e f4 3d 3b 6a ae bb
       0.13814235 -0.113278314 0.11938267 -0.0053227223

layer1.bn2.running_mean f4 [4]
000000 90 13 22 bb d7 43 d3 3d f4 ee 5a 3e 69 5b be bd
       -0.0024730898 0.10315674 0.21380216 -0.09294779

layer1.bn2.running_var f4 [4]
000000 9f dc bd 3d 4a 66 49 3e 1f ab f6 3d 61 b5 b2 3e
       0.09270596 0.19667926 0.120443575 0.34904006

layer1.fc1.weight f4 [1, 4]
000000 5c d3 34 3e e9 90 f3 be 60 c1 0f be ca 96 8a be
       0.17658752 -0.47571495 -0.1403861 -0.27068168

layer1.fc2.weight f4 [4, 1]
000000 40 b7 1e bf 40 ba 0b bf 1b 6e e9 bd b8 f4 4a bf
       -0.6199837 -0.5458107 -0.11397954 -0.7927966

layer1.fc2.bias f4 [4]
000000 8c 26 22 3f 70 10 c6 be cd 5e 31 3f d5 53 66 be
       0.6334007 -0.38684416 0.6928528 -0.22492917

layer1.shortcut.0.weight f4 [4, 4, 1, 1]
000000 30 80 9d be 90 b1 f9 3e 33 dd 0b be e9 1e ea be
       -0.30761862 0.48768282 -0.136586 -0.45726708
000010 11 bc d6 be cd dc e8 bc c8 4b 9a 3e ae aa 78 be
       -0.41940358 -0.028425599 0.30135942 -0.24283859
000020 41 b9 ea be ad 6e 57 3d 5c 4a 1e bc bf 9b 90 be
       -0.45844463 0.052595783 -0.009661283 -0.28243825
000030 64 17 6e 3e 17 b7 b0 3e 36 dd 2e 3c 1a 85 d8 3e
       0.2325111 0.34514686 0.010672858 0.42289048

layer1.shortcut.1.weight f4 [4]
000000 10 49 8d 3f 6c 74 97 3f 34 10 86 3f 03 d6 60 3f
       1.1037922 1.1832404 1.0473695 0.87826556

layer1.shortcut.1.bias f4 [4]
000000 43 f5 3e 3e a1 27 ff bd 09 10 a1 3e 14 46 a0 3c
       0.18648247 -0.124587305 0.31457546 0.019564666

layer1.shortcut.1.running_mean f4 [4]
000000 56 77 a0 be 25 15 3e be b2 f4 a2 be d5 c3 b7 3e
       -0.31341046 -0.18562753 -0.31827313 0.35891595

layer1.shortcut.1.running_var f4 [4]
000000 58 dc 05 3f 17 97 bf 3e f2 4f ef 3e 17 be aa 3e
       0.5228934 0.3741996 0.4674068 0.33348152

layer2.conv1.weight f4 [4, 4, 1, 3]
000000 57 41 d7 3d 2f 2a 85 3f b0 62 79 3d ed 59 87 be
       0.105105095 1.0403498 0.06088513 -0.26435795
000010 1e ab c2 3e 98 04 d5 3d e9 31 4d 3d e4 c1 34 3f
       0.38021177 0.10401267 0.050096426 0.70608354
000020 92 b3 4a 3e 89 69 60 be 6c 98 9a 3c 66 ef 3c bd
       0.19795063 -0.21915258 0.018871509 -0.046126746
000030 f4 dd 69 3d 19 33 d6 bd d0 d8 7b 3e 2a 37 4a 3e
       0.057096437 -0.10458965 0.24594426 0.19747606
000040 bb 27 91 be 18 25 ce 3d 89 f4 90 be a0 af d9 3d
       -0.28350624 0.10065669 -0.28311566 0.10629201
000050 5a a4 0f 3e 60 0f 1b bb 3f 9e 3c be 2d fd 30 3e
       0.14027539 -0.0023660287 -0.18419741 0.17284079
000060 07 3b 93 3e c3 c3 93 be 28 16 3c be 4f 0b b1 3d
       0.28755972 -0.28860292 -0.18367827 0.08644735
000070 8a 9b ff be 2b fb 06 be 56 be 8a be 2d 3a 37 bd
       -0.49923354 -0.1318175 -0.2709834 -0.044733215
000080 ad 32 82 be 5d 2d 62 bd d8 ae 74 3e 0b a6 e8 3d
       -0.25429288 -0.055219043 0.23894823 0.11359795
000090 9c 50 de bd 77 18 8a be e7 81 12 be 3c a7 87 bd
       -0.10855219 -0.2697179 -0.14307366 -0.06623694
0000a0 6a f1 06 3f c0 75 8f 3d 17 e8 be bd 75 4c 15 3e
       0.5271212 0.07004881 -0.093216114 0.14579947
0000b0 92 ba 23 be ac f8 85 3e e3 73 13 3e 7f 21 89 be
       -0.1598914 0.26166284 0.14399676 -0.26783368

layer2.bn1.weight f4 [4]
000000 75 49 8d 3f 21 5d 80 3f eb 41 6d 3f 1e 1f 76 3f
       1.1038042 1.0028421 0.9267871 0.9614123

layer2.bn1.bias f4 [4]
000000 e4 52 0c be d1 74 19 3d ec 72 2a bd c2 3f 67 bc
       -0.13703495 0.03746492 -0.041613504 -0.014114322

layer2.bn1.running_mean f4 [4]
000000 dd 40 70 3f 79 82 ab bd fa de 87 be b1 9b 1d bd
       0.93848974 -0.08374495 -0.26537305 -0.038478557

layer2.bn1.running_var f4 [4]
000000 c8 4d 53 3f e3 6a 8e 3d d2 bb 0a 3e 83 55 87 3d
       0.8254056 0.06953981 0.1354821 0.06608107

layer2.conv2.weight f4 [4, 4, 1, 3]
000000 b2 a4 87 be 6d ca 5d be 7d 38 94 3c e3 aa 86 be
       -0.2649284 -0.2165925 0.018093342 -0.2630225
000010 02 ef b0 be 9b e6 31 3e fb db 51 3e 59 8b 2a bf
       -0.34557348 0.17373125 0.20494072 -0.6661888
000020 9b 27 8b 3e 1a f4 f1 3d 73 9a a0 be a8 45 00 3d
       0.27178654 0.11814137 -0.31367835 0.03131643
000030 9b d2 92 3e 82 e6 bd 3e f5 f2 83 be 70 6b 82 be
       0.28676304 0.37089926 -0.257713 -0.25472593
000040 06 96 ee 3d a9 86 88 3d 37 3d f7 3d 9f d0 7e be
       0.116497084 0.066663094 0.12072223 -0.2488427
000050 5f 51 ab 3d c4 09 2a be f1 38 5b be d2 22 83 be
       0.0836513 -0.16605288 -0.2140844 -0.25612503
000060 9a 40 91 3e 38 1b 03 3f eb 5c 17 3e 90 8a 72 bd
       0.283696 0.5121341 0.14781539 -0.059214175
000070 d5 64 1b 3e 48 0b 91 3e a1 6a 6d be 38 5d 0b bf
       0.15175183 0.2832892 -0.23185207 -0.54439116
000080 16 96 3a bd 5c c3 08 3e 17 0f db be ca 50 7c bd
       -0.04555329 0.13355774 -0.4278495 -0.061600484
000090 f0 86 85 3e 63 d4 81 be fa d5 48 3e cc 43 42 be
       0.26079512 -0.2535735 0.19612876 -0.18971175
0000a0 56 2b b5 3e ce 55 6d 3e 0d 68 65 3e a1 23 ce bc
       0.35384625 0.23177263 0.22402973 -0.025163474
0000b0 80 20 7c be 56 66 38 be 2d 57 cb bd 3a f0 e4 bc
       -0.24621773 -0.18007788 -0.09928737 -0.02794658

layer2.bn2.weight f4 [4]
000000 36 35 8a 3f a9 a8 83 3f a5 52 6b 3f 07 72 6e 3f
       1.0797489 1.0285846 0.9192298 0.9314274

layer2.bn2.bias f4 [4]
000000 30 cb a8 3d 39 2e e8 3c 96 27 d9 bd ad 1d ff b7
       0.0824188 0.028342353 -0.106032535 -3.0412188e-05

layer2.bn2.running_mean f4 [4]
000000 f7 a8 08 bf 4a 41 65 3d 8d 6d 60 bd ef c1 df bb
       -0.5338282 0.055970468 -0.054791976 -0.0068285386

layer2.bn2.running_var f4 [4]
000000 01 75 35 3e b0 38 0a 3e 9b 4b 99 3e 2e 90 e3 3d
       0.17720415 0.13498187 0.29940495 0.111114845

layer2.fc1.weight f4 [1, 4]
000000 24 ff f8 be 60 6c 8d 3e 15 57 12 3e 06 25 14 bd
       -0.48632157 0.27621746 0.14291032 -0.03616812

layer2.fc2.weight f4 [4, 1]
000000 89 3f a8 3e 30 be ae 3e 4e b2 2a bc b0 26 76 3f
       0.32860973 0.34129477 -0.010418488 0.9615278

layer2.fc2.bias f4 [4]
000000 f4 f4 59 bd 12 fb 3e 3f 23 99 cf 3d b1 40 1a 3f
       -0.05321212 0.7460185 0.101366304 0.6025496

layer3.conv1.weight f4 [8, 4, 1, 3]
000000 f5 3e 3e 3e 70 5b 49 3e b4 ea e7 3d 54 ef 82 bb
       0.18578704 0.19663787 0.11324063 -0.0039958153
000010 a8 a9 ed bc b8 ef 66 3c d3 eb 4e 3e 7b b0 14 be
       -0.029011562 0.014095239 0.20207147 -0.14520447
000020 8a c2 6e be a5 3c eb bd aa 72 94 3e 78 80 6b bd
       -0.23316398 -0.114861764 0.28993732 -0.057495564
000030 6d 1e 59 be 95 4b fd be 19 20 8a be 34 64 7c be
       -0.21203013 -0.49471727 -0.26977614 -0.246476
000040 1b 5d 99 bc 88 47 30 be a5 44 20 be 8c e8 b5 3d
       -0.018721154 -0.17214787 -0.15651186 0.088822454
000050 47 9e 80 3e 5f 18 8f be 6e 27 5a bd d8 ad 9e 3c
       0.25120756 -0.2794828 -0.05326026 0.019370005
000060 eb 47 1e bd 23 b4 4f 3d 92 f3 b4 3d 00 9f 32 3d
       -0.038642805 0.0507089 0.0883552 0.043608665
000070 8c e5 cc 3e 92 61 50 be 0e 91 4e be e3 34 a2 3e
       0.4001888 -0.2034972 -0.20172521 0.31680974
000080 35 2d 2e be e3 de 5d 3e ef 16 47 3d 67 02 b7 3d
       -0.17009433 0.21667056 0.048605856 0.08936005
000090 4c c7 9f 3d 59 4b a1 be 18 3e 86 be 47 2f 02 3e
       0.07801685 -0.31502798 -0.2621925 0.12713347
0000a0 23 71 5c 3e 8e 01 89 be 41 d8 45 bd 85 1b 26 3e
       0.21527533 -0.26759 -0.04830194 0.16221435
0000b0 45 11 8f be 03 90 ad bc d8 c9 8f bc f9 46 6a 3e
       -0.27942863 -0.021186834 -0.017552301 0.22878636
0000c0 0f 1a 3c be 2d d2 2e be 58 76 06 3e 64 d1 6a 3e
       -0.18369316 -0.17072363 0.13131082 0.22931439
0000d0 b5 c5 37 3e d9 32 20 be ca 3e 60 3e 1c 48 02 3e
       0.17946513 -0.15644397 0.21898952 0.1272282
0000e0 51 07 54 be 3d 8f 3a 3e df fa f7 3c 74 64 5a 3e
       -0.20705916 0.18218704 0.030270992 0.21327382
0000f0 1e ab ca bd 5f 18 96 3e d1 57 85 3d 64 9d 05 be
       -0.09895919 0.2931547 0.0651089 -0.13048321
000100 db fb 56 be 61 9d 5a 3e 30 91 49 3e 84 24 8e bd
       -0.20994513 0.21349098 0.19684291 -0.069405586
000110 3e d6 27 3e 5b af 26 3e f0 d4 7b be de f9 ea bd
       0.1639032 0.1627783 -0.24592948 -0.1147344
000120 62 a2 dc bd 68 de 0b 3d 54 08 93 3d 20 d5 83 bd
       -0.107731596 0.03414765 0.07179323 -0.06437135
000130 1a 9f 45 be 67 e1 fd bd f9 17 48 3e 47 25 a2 be
       -0.19298974 -0.12396508 0.19540395 -0.31669065
000140 73 66 cd 3d 26 c8 7e bc a7 32 b9 bc 62 fb 1f 3e
       0.10029306 -0.015550649 -0.02260716 0.15623239
000150 3d 66 3c 3e 55 57 82 be dd f5 cb bd 57 c2 2b be
       0.18398376 -0.25457254 -0.09959004 -0.16773354
000160 43 d5 86 be e4 e7 4b 3e 8e 50 45 3c 8e 36 27 3e
       -0.2633458 0.19912678 0.0120431315 0.16329405
000170 ae 1c 22 be b0 dc 96 bd a5 6f 73 3c e1 45 8f 3e
       -0.15831253 -0.073663116 0.014858161 0.27983

layer3.bn1.weight f4 [8]
000000 cf 24 7f 3f 56 10 80 3f 23 45 78 3f 33 f6 81 3f
       0.9966554 1.0004985 0.96980494 1.0153259
000010 42 4f 81 3f e6 4b 81 3f 0b bb 7b 3f 00 ca 7f 3f
       1.0102313 1.0101287 0.9833228 0.999176

layer3.bn1.bias f4 [8]
000000 af 30 a8 bc 58 4b 5b 3c 1d 92 8c 3b c9 60 e7 3c
       -0.020531027 0.013384663 0.004289879 0.028244393
000010 c0 68 c4 3c 4b e9 95 3c 9d 78 2a 3c 70 65 93 3c
       0.02397573 0.01829972 0.010404733 0.017992705

layer3.bn1.running_mean f4 [8]
000000 d7 67 3d 3e 40 c0 e3 be f4 d0 c2 3e 55 75 ff bd
       0.18496643 -0.44482613 0.38050044 -0.12473551
000010 78 6e d6 bb e9 d2 c6 3d 77 92 83 be 4f 39 70 be
       -0.0065439306 0.09708197 -0.2569768 -0.23459361

layer3.bn1.running_var f4 [8]
000000 c9 bb 86 3d 23 ee 8a 3e a6 92 7a 3e b1 e4 b1 3d
       0.06578786 0.2713481 0.24470004 0.086861975
000010 91 69 88 3d b7 be ec 3d 11 7a 13 3e 90 2e 0f 3e
       0.0666076 0.115598135 0.14402033 0.13982606

layer3.conv2.weight f4 [8, 8, 1, 3]
000000 2c ff c6 3d 60 82 3c be 7b bc 4d bd 41 9c 40 3d
       0.09716639 -0.18409109 -0.050228577 0.047024015
000010 15 f9 1b bc 50 27 c6 3d 00 cd d7 3d c0 aa 36 be
       -0.009519835 0.09675467 0.105371475 -0.17838573
000020 78 ad 51 3d a3 50 d4 3d 9e 77 87 3b be d4 a8 bd
       0.051190823 0.10366943 0.0041341325 -0.08243702
000030 12 1a 35 3d fb 49 10 be 73 23 9c bc 46 e2 0a be
       0.044214316 -0.14090721 -0.019059872 -0.13562879
000040 ad f5 4f 3e 81 3d 2c 3d eb 32 ef 3d 7b d3 81 3d
       0.20308562 0.042050842 0.11679634 0.06339165
000050 a0 79 0b 3d 60 97 15 be e1 6a c4 3d 4a b6 9e bd
       0.034051538 -0.14608526 0.09590698 -0.07749613
000060 2b 9c c1 3d 4f 48 48 be cf b9 f2 3d 7e b3 5d 3c
       0.09453615 -0.19558834 0.118518464 0.013531564
000070 cd 47 88 be dc b8 22 3d b0 d6 a7 bd 37 8c 02 bd
       -0.2661728 0.039727077 -0.08195245 -0.031872
000080 e1 56 2d be 28 f4 86 bd be 36 1f be 49 c7 eb 3d
       -0.16927673 -0.06589538 -0.15548226 0.1151262
000090 16 de 7f 3d e1 1c 96 3c ee 09 21 be 60 c8 da 3c
       0.062467657 0.018324317 -0.15726444 0.026706874
0000a0 da d3 1a bb 1b cd 29 be 6a 3e f1 3d 5a b7 d3 bd
       -0.0023624809 -0.16582148 0.11779483 -0.10337706
0000b0 bb 6b cf 3c 08 cc 0a 3e 3b 50 34 be 6d ac aa bc
       0.025319925 0.13554394 -0.1760873 -0.020834172
0000c0 eb 38 43 3e a1 51 82 3e dc 0e df bd f4 cd 11 be
       0.19064681 0.25452903 -0.10891506 -0.14238721
0000d0 9a c0 69 3d e6 d9 a7 bd e3 dd 3e be c3 4a e4 3c
       0.057068445 -0.08195858 -0.1863933 0.02786768
0000e0 37 56 4c 3e 6e e1 85 bd 95 2c c9 bd 3f 33 59 3c
       0.19954763 -0.06537138 -0.098229565 0.013256847
0000f0 16 8f 3e be 21 ff 80 bd f1 f7 bb 3c 1f 05 05 3e
       -0.1860927 -0.06298662 0.022945376 0.12990235
000100 e2 01 43 3d 59 3d 4b 3e d2 ab 4b 3e db a3 d2 3d
       0.047609217 0.19847621 0.19889763 0.10285159
000110 35 7c 67 bd 4d 30 a3 bd 8f 1b 5f bc a4 37 20 be
       -0.056514937 -0.07968197 -0.01361741 -0.15646225
000120 d4 a5 65 bd a4 ac eb 3b 35 4d 0f 3e 09 3f e0 bd
       -0.05606635 0.007192211 0.13994296 -0.10949523
000130 d4 b0 0f 3e f2 25 1a be e9 1a d6 bd 5e f6 46 bd
       0.14032298 -0.15053537 -0.104543515 -0.048574798
000140 ec ad 9b 3d d3 64 18 3e 88 0f 84 3e ef 9d 00 3d
       0.07601532 0.14882211 0.257931 0.031400617
000150 61 e8 8b bd eb 10 7a 3d 22 ad 32 3e fe 1b 9e 3d
       -0.06831432 0.06105129 0.17448857 0.07720183
000160 3b e8 9b 3c 45 97 ff 3d 3a 87 44 be 5a 9c c3 bd
       0.019031635 0.12480024 -0.1919221 -0.09551306
000170 fa 5c 3e be 24 c4 be bd 00 fb 09 3e d5 2a 04 bd
       -0.18590155 -0.093147546 0.13474655 -0.03226741
000180 78 5e b8 bb 3c 15 76 bd ea ef 37 3e aa 87 31 3e
       -0.005626496 -0.060078844 0.17962614 0.17336908
000190 71 fc 42 3d 7e 90 82 3d 5d 1a be bd ac c2 dd 3c
       0.047604028 0.06375216 -0.09282372 0.027070366
0001a0 87 a9 19 3d eb 0f 37 be f2 e6 5e 3e 9b 3b 28 3e
       0.03751519 -0.17877166 0.21767786 0.16428988
0001b0 d0 aa d0 bd 37 66 0c 3e 29 e1 a2 ba 55 fc 94 3d
       -0.1018883 0.13710867 -0.0012426722 0.07274691
0001c0 d4 38 34 3e dd 3d 2d bc 39 3d 8c bd 7b 6d 1d bb
       0.17599803 -0.010573831 -0.06847615 -0.0024021554
0001d0 b7 e2 84 3d c6 77 e8 3c 2f 38 49 3e 4b 3e e0 bd
       0.06488555 0.028377425 0.19650339 -0.109493814
0001e0 11 c3 c3 3d 96 c8 e5 3d 34 a5 29 bd 84 45 24 be
       0.0955869 0.11219899 -0.041417316 -0.16042143
0001f0 93 8e 9b bd 53 70 58 3d a5 62 2c 3d 76 99 df bd
       -0.07595553 0.052841496 0.042086262 -0.10917942
000200 53 31 38 3e d9 67 0c 3e d2 8b 0f be 69 2e 2c be
       0.17987566 0.1371149 -0.14018181 -0.16814579
000210 39 00 e5 3d 5e f9 80 3d 87 63 6d bd 75 24 2e 3e
       0.11181683 0.06297563 -0.057956245 0.17006095
000220 a8 f2 7a 3e 35 6a 42 3d 0a 7b 42 be 34 57 b9 bd
       0.24506629 0.04746457 -0.18992248 -0.09049836
000230 a5 75 4f 3e 04 a3 d2 3d 4d 92 8b bd 66 51 80 bd
       0.20259722 0.10284999 -0.06815014 -0.062655255
000240 84 dc 33 3e ee 89 33 3d a5 c4 c2 bd 07 5d 34 be
       0.17564589 0.043832712 -0.09510163 -0.17613612
000250 2a 3b 51 be 43 d6 19 3e ed 42 fe 3c b9 45 4f be
       -0.20432726 0.1502314 0.031037772 -0.20241441
000260 94 b6 2a be 1d c1 2c bd 78 8b 98 bc df ff 6a 3d
       -0.1667121 -0.042176355 -0.018621191 0.057372924
000270 74 ec 1d bc a8 4a 23 be ce ae df 3d db cd ee bb
       -0.009638894 -0.15946448 0.10922013 -0.0072877235
000280 23 9f 67 3e 57 5a d5 bc 92 df 44 3e c4 89 9b 3c
       0.226193 -0.026044054 0.1922591 0.01898659
000290 f7 f8 f3 3d 55 ea 25 be 67 d3 22 be 2e e8 35 be
       0.11912721 -0.16202672 -0.15900956 -0.17764351
0002a0 d3 5f 9e bd 7e ff 76 bd 90 fd 37 3e 6b 08 14 be
       -0.07733121 -0.06030225 0.1796782 -0.14456336
0002b0 0a ac d9 3c d8 aa 2a 3e 60 e3 28 be 29 a6 41 be
       0.026571292 0.16666734 -0.16492987 -0.18911041
0002c0 da aa cc 3d 53 d8 91 bd 83 b7 42 bd 47 01 43 3e
       0.09993525 -0.07121339 -0.04753829 0.19043456
0002d0 6e 36 28 3e 51 d1 ad bd 0a d9 76 3d f2 fb 9f bd
       0.16427013 -0.084871896 0.06026558 -0.07811727
0002e0 1f c2 4e 3e 8d 75 7e bd 3d 4f cc 3b 6d 05 06 be
       0.20191239 -0.062123824 0.006235032 -0.13088007
0002f0 9e a1 d3 bd 11 e2 5d bd 46 b1 0f be 6f e7 1c 3e
       -0.103335604 -0.05417067 -0.14032468 0.1532266

layer3.bn2.weight f4 [8]
000000 1b 03 7c 3f 87 ba 88 3f 6b 5d 83 3f b5 b8 76 3f
       0.9844224 1.0681924 1.0262884 0.9637559
000010 5d 84 79 3f 7d bc 80 3f 89 b4 83 3f 72 5f 79 3f
       0.97467595 1.0057522 1.028947 0.97411263

layer3.bn2.bias f4 [8]
000000 93 7f 65 3a 38 c5 5f 3d 36 f1 3f 3c a4 4a f4 bc
       0.0008754667 0.05463144 0.011715224 -0.029820748
000010 e6 b1 50 bc 7b 45 99 bc d8 b3 4d 3d 78 5f 3e bc
       -0.012737727 -0.018709889 0.05022034 -0.011619441

layer3.bn2.running_mean f4 [8]
000000 f7 23 b4 bc 8c 45 c6 be 05 e1 07 3e 6d 41 5e 3e
       -0.021989806 -0.38724935 0.13269432 0.21704645
000010 ce 0d a0 3e c6 30 a3 bc 79 62 38 be ae 91 1e be
       0.31260532 -0.019920718 -0.18006314 -0.1548526

layer3.bn2.running_var f4 [8]
000000 f5 d8 cc 3d b5 c8 dc 3d 32 1d ac 3d 18 31 c0 3d
       0.10002319 0.10780469 0.08404006 0.09384364
000010 12 a3 9f 3d 85 1a 0b 3e d2 5a 17 3e 96 e0 ca 3d
       0.07794775 0.13584335 0.14780739 0.099061176

layer3.fc1.weight f4 [2, 8]
000000 bc c2 9c 3d ec 71 17 3e cd ae 8e be d8 7e 0b 3e
       0.0765433 0.14789551 -0.27867737 0.13622606
000010 e4 8d 08 bb 2e 97 a7 be 40 74 6b bd 3c 57 82 3e
       -0.0020836527 -0.32732528 -0.05748391 0.2545718
000020 3b d8 1a be 31 cc 65 be 2c 0b ab be fb be 93 bd
       -0.15121548 -0.22441174 -0.3340696 -0.07214161
000030 83 bc a2 3e 2a 64 85 3e 25 f6 6d be d8 c8 91 3d
       0.31784448 0.26052982 -0.23238428 0.07118386

layer3.fc1.bias f4 [2]
000000 72 e9 3f be ee 18 ef bd
       -0.18741396 -0.11674677

layer3.fc2.weight f4 [8, 2]
000000 c1 7e 20 bf 56 4e ef 3d 98 89 a3 be 27 54 27 bf
       -0.6269341 0.11684863 -0.31940913 -0.6536278
000010 73 98 2c 3f 4a 49 16 3f c9 63 5b 3e 98 10 0f bf
       0.6742012 0.5870558 0.21424784 -0.55884695
000020 6e 6d 30 bf 2d e5 05 bf b2 a5 2f 3f ac 9f 2a 3f
       -0.68916976 -0.5230282 0.68612206 0.6664989
000030 dd 0a 12 3f 96 4a b5 3e 29 8e cb be b2 42 c7 3d
       0.57047826 0.35408467 -0.39756897 0.09729518

layer3.fc2.bias f4 [8]
000000 2b 54 4c be d8 a6 85 3d 25 f0 b5 3d 73 9a 89 3e
       -0.19953983 0.065259635 0.088836946 0.26875648
000010 02 a3 11 3f 07 e8 40 be 27 11 14 3f 9d 3a 65 3e
       0.56889355 -0.18838511 0.5783867 0.2238564

layer3.shortcut.0.weight f4 [8, 4, 1, 1]
000000 98 24 bd 3e 53 c3 51 3e 5b 2e 0d be 52 d6 4e 3d
       0.3694198 0.20484667 -0.13787214 0.05049736
000010 9e 8d 8c 3e bb 1b b3 bd 6c 46 c2 3e dd b1 34 be
       0.27451795 -0.087455235 0.37944353 -0.17645974
000020 4c 82 41 3e dd f6 88 3e 36 23 1e 3e a0 77 f8 3e
       0.1889736 0.26750842 0.1544312 0.48528767
000030 3e c0 f0 3e 05 a1 74 3e 43 1b d8 3e 28 67 d8 bb
       0.4702167 0.23889549 0.422083 -0.006604094
000040 36 5f 01 3f 8a 38 f4 3e 8c 85 74 be cb f8 e9 3d
       0.50535905 0.47699386 -0.23879069 0.114244066
000050 db e1 19 be 6a c0 e2 be 02 6c c3 be bf 02 ea 3d
       -0.15027563 -0.44287425 -0.3816834 0.11426305
000060 9d 01 d5 3e c1 65 bb be e8 52 27 be 4b 53 51 3e
       0.41602793 -0.3660107 -0.1634022 0.2044193
000070 53 73 e1 be 45 5d d5 bd de 94 20 3e 90 1a 5f be
       -0.44033298 -0.104181804 0.15681788 -0.21787477

layer3.shortcut.1.weight f4 [8]
000000 47 fc 7f 3f 7f 6b 83 3f 70 2c 81 3f 1e d4 73 3f
       0.9999432 1.026718 1.0091686 0.9524554
000010 0b 2f 71 3f 96 a2 70 3f eb cf 82 3f b8 13 7d 3f
       0.94212407 0.93998086 1.0219702 0.98858213

layer3.shortcut.1.bias f4 [8]
000000 23 a5 fc 3c 79 de 3c 3d eb 0e 44 3c c0 62 10 bd
       0.030840462 0.046110604 0.011966447 -0.035250425
000010 0c 02 64 bc 6a 03 d3 bc 13 fa 14 3d 2f 34 65 bc
       -0.013916504 -0.025758464 0.0363713 -0.013989492

layer3.shortcut.1.running_mean f4 [8]
000000 d4 e6 b4 3e 30 38 e1 3e e2 b0 02 3f 97 d7 57 3f
       0.35332358 0.4398818 0.5105115 0.8431334
000010 68 0f 15 3f d7 6a 0c bf 30 61 66 3e 56 2b e8 be
       0.58226633 -0.54850525 0.22498012 -0.45345563

layer3.shortcut.1.running_var f4 [8]
000000 50 38 43 3e 26 2a b1 3e 99 d2 3c 3e cd b6 60 3f
       0.1906445 0.3460247 0.18439712 0.8777893
000010 64 31 d6 3e 12 c6 05 3f 2b cd d3 3d e4 94 53 3e
       0.41834557 0.52255356 0.10341867 0.20662266

layer4.conv1.weight f4 [8, 8, 1, 3]
000000 41 a5 0a bd 34 69 11 bd 3a 80 94 bd 78 13 71 bc
       -0.033849005 -0.03550072 -0.0725102 -0.014714114
000010 44 c9 0f be ad 71 88 3c 94 26 33 3e f3 f1 59 be
       -0.1404162 0.016655767 0.17495185 -0.21283703
000020 7f a5 09 be 90 bd eb 3d b4 17 c8 bd b4 f9 ae 3d
       -0.13442038 0.115107656 -0.09770146 0.08543721
000030 2c 7c cf 3d a5 1e 06 be 09 d7 04 3e b7 fc 69 3c
       0.10131106 -0.13097627 0.12972654 0.014281443
000040 b6 05 12 3e 55 ef d2 bd db 1c 05 bc 95 37 60 be
       0.14259991 -0.10299555 -0.008124555 -0.21896203
000050 2f 37 e4 bd 42 3e 9a 3d 5d cb 91 bd ee 72 01 be
       -0.11143338 0.07531406 -0.071188666 -0.12641498
000060 53 ec 03 3e 8c cb 9e bd d1 d2 3f be 69 8b 4f 3e
       0.1288312 -0.07753667 -0.18732764 0.20268025
000070 25 60 b7 bd c4 e6 25 3d 69 79 b1 bd cd 90 9c 3c
       -0.08953885 0.04050328 -0.08665735 0.019112015
000080 b4 54 5f bc 33 bf 1e 3e fb c4 04 be a9 5e 83 bd
       -0.013631035 0.15502624 -0.12965767 -0.06414539
000090 e4 d7 3c 3e 63 99 3a be 39 31 c3 bd 33 43 82 bd
       0.1844173 -0.18222575 -0.09530873 -0.063604735
0000a0 95 ed 28 3e 92 4f 8d 3d 04 36 31 be d7 17 e0 bd
       0.1649688 0.068999425 -0.17305762 -0.10942047
0000b0 6f 8f 2a 3e 08 2e 8c bc 0e 0b e6 3c 5e a1 61 bc
       0.16656278 -0.017111793 0.028081443 -0.013771383
0000c0 1a 8c 5a 3c ba 0b 02 be da 31 76 bc 41 71 11 3e
       0.013339067 -0.12699786 -0.015026534 0.14203359
0000d0 ee bf 1b be cb bf 49 be 50 fb 7c 3c f4 19 13 3e
       -0.15209934 -0.1970207 0.015440777 0.14365369
0000e0 08 96 b9 bd 0e 83 38 be 2e 79 ae 3b 00 8e e1 3c
       -0.09061819 -0.18018743 0.0053245043 0.027533531
0000f0 03 40 dc 3c f9 71 d2 3c 5a 61 01 3e 04 a1 14 3d
       0.026885992 0.025689112 0.12634793 0.03628637
000100 ee f3 2d 3e 88 c1 35 be 7b be da 3d 8a 9b 88 3e
       0.16987583 -0.17749608 0.106808625 0.26681167
000110 55 88 d1 3d b3 90 f5 3d 6e ee 0b 3e c3 2a a7 bd
       0.102310814 0.1199049 0.13665172 -0.08162453
000120 63 fa 99 3c 20 af b9 bd a9 15 30 bd bd 1f cf bd
       0.018796152 -0.090666056 -0.042989407 -0.101134755
000130 16 af 36 bc 73 f9 3a be 0a f9 0b be 77 c6 32 bd
       -0.011150142 -0.1825922 -0.1366922 -0.043646302
000140 c5 8c 37 3e 55 d9 25 3d 12 52 4e 3e 61 3a 38 3e
       0.17924793 0.040490467 0.20148495 0.1799102
000150 bd 48 60 bd fe 0d 60 be 11 fe 02 bd 6b 00 f7 3d
       -0.05475687 -0.21880338 -0.031980578 0.120606266
000160 8e f2 63 bd a4 99 2c 3e 7d 08 4e 3e 5a e7 67 be
       -0.05565124 0.16855484 0.20120426 -0.22646847
000170 0b 8b ab 3d 77 c6 94 bd a6 fa e4 3c 42 d6 cd 3a
       0.0837613 -0.07264417 0.02795155 0.0015704113
000180 ed de 2f be e5 ec a9 bd 4d fe 01 3d f7 e2 3b be
       -0.17174883 -0.08297137 0.03173666 -0.18348299
000190 59 08 80 3e d4 74 d2 3c 86 ce 9c 3d ae c5 13 3e
       0.2500637 0.025690474 0.07656579 0.14430878
0001a0 4d 1a c2 3d 5c 38 2a 3d fa df 8a 3b 58 45 16 3e
       0.09477673 0.041557655 0.004238126 0.1467489
0001b0 95 7c 35 3b c9 f8 5b 3d 89 5f 10 3e aa 30 88 3d
       0.0027692665 0.053704057 0.14098944 0.06649907
0001c0 91 6a fd bd fd b3 98 3d c7 78 3f bd b6 dc 29 3e
       -0.123738416 0.07456205 -0.04674604 0.16588101
0001d0 a0 48 95 3d 26 c9 47 3e aa 06 87 bd 0b bb 32 be
       0.07289243 0.19510326 -0.06593068 -0.17454164
0001e0 07 ab 23 3d e6 29 0e be bb d7 fa 3c 2d 5f 75 3d
       0.039958026 -0.1388317 0.030620446 0.05990522
0001f0 df ad b3 bd 28 83 33 be 2d ad 91 bd ae 74 72 3e
       -0.08773398 -0.17530501 -0.07113109 0.23677322
000200 c9 18 30 3e 74 1b 45 3e 63 fd 76 3c 84 95 24 3e
       0.17196955 0.19248754 0.015075061 0.1607266
000210 4f b7 c0 3c b3 33 e9 bd f6 09 14 3b d3 24 26 3e
       0.023524908 -0.11386814 0.0022588945 0.16224985
000220 c5 0b a8 be 08 b2 88 3c ff 3e cf bd 70 df f8 3d
       -0.3282148 0.016686454 -0.101194374 0.12151992
000230 20 f5 1d be 63 81 0d 3e ae f9 cc bd 2b ed 12 3e
       -0.15425539 0.13818888 -0.1000856 0.14348285
000240 d5 62 89 3d 2d 4c ce 3d 33 a8 17 3e 7f f5 ae 3c
       0.06708304 0.10073123 0.14810257 0.021357296
000250 cb 03 15 be 8b 52 e2 b9 df 73 ac bd 7a de 9e bd
       -0.14552228 -0.00043167578 -0.08420538 -0.07757278
000260 bd 62 28 be c7 6e 3f 3d 80 89 f8 bd 7b 7e 23 be
       -0.16443916 0.046736505 -0.12135601 -0.15966217
000270 9a d9 0d be 4b 22 17 3e c9 b7 e9 3d ca 4c 9b bd
       -0.1385254 0.14759175 0.11412007 -0.07583006
000280 ba c1 27 3e 81 e3 21 3e 50 b1 88 3c ce 5a 29 3e
       0.16382495 0.15809442 0.016686112 0.16538545
000290 96 00 4d be 01 a7 59 3d b8 b1 ad 3d fc 52 4a 3e
       -0.20019755 0.053137783 0.08481163 0.19758219
0002a0 92 9d 74 3d e6 71 1f 3e 89 99 0c 3e ee cf 96 3c
       0.059720583 0.15570793 0.13730444 0.018409695
0002b0 57 ef dd 3e 78 aa d8 bc 7e d7 48 3e c8 4a d5 3c
       0.43346664 -0.026448473 0.19613454 0.026036635
0002c0 9a 99 15 3e b5 3a 2e bd 53 74 a6 bd 47 0f 32 bd
       0.14609376 -0.042536456 -0.08127656 -0.0434716
0002d0 49 08 3d be d3 2a b9 3d 66 53 6e bd 85 15 32 3d
       -0.18460192 0.09041371 -0.058185004 0.043477554
0002e0 9b 07 a5 3c d7 51 6e ba 34 6f a7 3d 80 b7 30 bc
       0.020145228 -0.00090911746 0.08175507 -0.010785937
0002f0 b1 9b 24 3e 63 4b bf bd 9f b1 95 3c df db 31 be
       0.16075017 -0.09340551 0.018273173 -0.1736903

layer4.bn1.weight f4 [8]
000000 22 4a 78 3f 80 73 80 3f 8b b0 82 3f 9b dd 80 3f
       0.9698812 1.0035248 1.0210127 1.0067629
000010 ce 14 7e 3f 71 71 7e 3f 70 96 78 3f bc 72 83 3f
       0.99250495 0.9939185 0.9710455 1.0269389

layer4.bn1.bias f4 [8]
000000 3b c1 61 bc df 9b a8 3b 2a a5 bf 3c 3c 95 5d 3c
       -0.01377898 0.0051455344 0.023394186 0.01352435
000010 08 d9 00 3d ee cc c8 3a b7 da cf bc 60 1f 1d bc
       0.031456977 0.0015319863 -0.025372846 -0.00959

layer4.bn1.running_mean f4 [8]
000000 db 6e df be 9c 2b 3f be 9d 0b 5d 3e bf 70 70 be
       -0.43639264 -0.1866898 0.21586461 -0.23480509
000010 bd be ad 3e 2a ca 9a bd fd 40 c8 3d 0b 87 c5 3e
       0.33934584 -0.07558091 0.097780205 0.38579592

layer4.bn1.running_var f4 [8]
000000 f9 77 8d 3e c4 62 13 3e 0e 61 49 3e e3 1f 36 3e
       0.27630594 0.14393145 0.1966593 0.17785601
000010 54 6a 77 3e 4a a5 c4 3d 63 41 f9 3d 01 9a 72 3e
       0.24161655 0.09601839 0.12170675 0.2369156

layer4.conv2.weight f4 [8, 8, 1, 3]
000000 0b 43 98 bc 1d e4 6b be e1 de bd bc 83 71 86 3d
       -0.018586656 -0.23036237 -0.023177566 0.065646194
000010 07 3f 71 bd e7 27 98 3d 9e 31 0f be 95 d4 11 be
       -0.058898 0.07429486 -0.13983771 -0.1424125
000020 ee 1f 4c be 10 cb 93 bd d5 ae a0 3d 9d 70 0e 3d
       -0.19934055 -0.072164655 0.078458466 0.034775365
000030 e3 88 ec 3c 6a 02 7e bc 48 6b 06 3e 22 37 12 bc
       0.028873866 -0.015503505 0.13126862 -0.0089242775
000040 56 d1 25 3e d5 ac 76 3d 6a ea d4 3d 73 01 01 3d
       0.16193137 0.06022342 0.103962734 0.031495523
000050 18 2a c1 bc b0 e8 a0 bd a3 d8 22 3e af 4a b1 3d
       -0.023579642 -0.078568816 0.15902953 0.08656823
000060 40 89 d9 3d f6 7c 15 3e b7 c5 0d 3e 22 90 a5 bd
       0.106218815 0.1459845 0.13844953 -0.08084132
000070 68 36 87 3d 07 c4 4a 3e 3b 5f 4e 3d cd e8 3c 3e
       0.06602174 0.19801341 0.050383788 0.18448181
000080 19 f0 25 bc c9 4e 0d 3e 2c 55 1c be 63 fe c3 bd
       -0.0101280445 0.13799585 -0.15266865 -0.09570005
000090 d2 5c de bc c6 39 66 3d 55 01 d1 3d a0 03 cd 3d
       -0.02714387 0.05620744 0.10205332 0.10010457
0000a0 ec 0c eb bd 71 49 01 bd ac e9 fd bd c9 0a 16 be
       -0.11477074 -0.03156418 -0.12398085 -0.14652552
0000b0 00 30 c5 3b e3 2a b7 bd 6b 2e 5f 3e 5f c3 27 be
       0.006017685 -0.08943727 0.21795051 -0.16383122
0000c0 b7 0b d7 3d 0f 16 b9 3d 01 d1 a4 bd b5 e9 c7 3d
       0.10500281 0.090374105 -0.08047677 0.09761373
0000d0 8c 2b e9 bd 2f 14 f3 3d 42 47 0d 3e 58 78 1c bb
       -0.11385259 0.11869084 0.13796714 -0.0023875441
0000e0 bf 0d 79 ba f1 45 c1 bd 8d 0f ff bd 19 24 18 3e
       -0.00095006445 -0.094371684 -0.12454138 0.1485752
0000f0 d2 e7 01 bb 11 8d 7d 3e 77 57 ec 3c 58 53 43 be
       -0.0019822014 0.24760844 0.0288503 -0.19074762
000100 45 e6 83 bd 14 f0 f3 3d 10 f8 26 be 9b 45 cc bb
       -0.06440405 0.11911026 -0.16305566 -0.0062338836
000110 61 2c 96 bd bf fb a0 bd fb ea 00 be d5 ba 50 bc
       -0.07332683 -0.07860517 -0.12589638 -0.012739857
000120 d9 66 5c 3c 4d 46 28 3e d5 c2 31 be ab 58 9f bd
       0.013452255 0.16433068 -0.17359479 -0.07780584
000130 dd 5c e6 3d a4 a4 b7 3d fe fc 0d 3e b6 4b 25 3e
       0.11248181 0.089669496 0.1386604 0.16142163
000140 59 5b c4 3d 2f 18 a2 bd 99 86 32 be af fd 7c 3d
       0.09587736 -0.07914769 -0.17434157 0.06176537
000150 e0 d1 22 3e cc c6 85 bd 97 9d 93 3c 51 cd 70 bd
       0.15900373 -0.06532058 0.01801948 -0.058789555
000160 1f 15 21 3e 25 0f 3a be b3 90 43 3e 90 2a 59 be
       0.15730713 -0.1816984 0.19098167 -0.21207643
000170 9a 49 4a be 5a 94 ae 3b 6f db 26 bd 28 31 16 3e
       -0.1975464 0.0053277435 -0.040736612 0.14667189
000180 8c 1d 4b 3e 5e 0e 07 3e 75 fe 02 be 3a 93 2e 3e
       0.1983549 0.13189074 -0.1279238 0.1704835
000190 c2 5e 43 3c 4e 2d ce 3d a9 53 9f 3c c2 05 58 be
       0.0119244475 0.10067235 0.019449072 -0.21095946
0001a0 a8 a5 2c 3c ff e5 74 3d 4a c6 53 3e 8b 4f 4e 3b
       0.010537542 0.059789654 0.2068111 0.0031480517
0001b0 2d c2 53 3d 11 22 ee 3d 67 89 d3 3d 55 e8 0b 3e
       0.051698852 0.116275914 0.10328942 0.13662846
0001c0 92 09 12 bd 8f d1 2f be 3d 69 c9 3d 79 52 ee bd
       -0.03565366 -0.17169784 0.09834526 -0.11636824
0001d0 8a a2 b1 bd d5 0f f0 bd 0a bc 73 3e 41 7a 45 be
       -0.0867358 -0.1172177 0.238022 -0.19284917
0001e0 2a 02 b7 bd 8d 9c a3 be 2a 7d 73 bd 40 6b e1 3d
       -0.0893596 -0.31955376 -0.059445538 0.110067844
0001f0 31 4b 13 be b4 17 ae bd f0 ec 0e be a2 d6 1f 3c
       -0.14384152 -0.08500615 -0.13957572 0.009755762
000200 fb 3d 8e 3d 11 b4 d4 bd 0a f3 16 bc c0 7b 22 be
       0.069454156 -0.103859074 -0.009213218 -0.1586752
000210 27 87 0a 3e 07 e2 88 3e 6d aa d4 3d 93 99 b5 bd
       0.13528119 0.26734945 0.10384069 -0.088671826
000220 70 8e 1f 3e f1 2d 46 be f4 2d e3 3d 1e 0a 79 3c
       0.1558168 -0.19353463 0.11092749 0.015200166
000230 f2 da 0c be a1 74 ed 3d a1 aa b3 bd a0 6e 45 3c
       -0.13755396 0.11594511 -0.08772779 0.012050301
000240 a7 b7 fb 3d 7c 28 fd 3c b1 4c 12 be 16 2a 00 3e
       0.12290888 0.030903094 -0.14287068 0.12516055
000250 cc 0a 37 be b9 ee 14 bc 8f 13 9b 3c ae 16 8f 3d
       -0.17875212 -0.009090119 0.018930225 0.06986748
000260 b7 7f 47 be cb d6 84 bd 2d 31 ed bc 50 e0 93 bc
       -0.19482313 -0.06486281 -0.028954113 -0.018051296
000270 ca 7f f2 3d 74 df a7 3d 35 06 34 bc 7c 56 c7 3d
       0.1184078 0.08196917 -0.010987808 0.097332925
000280 fe 14 5c be 5f 2a 19 3d d7 c1 0e 3e 3f 36 0d 3e
       -0.21492383 0.037393924 0.13941132 0.13790224
000290 f1 11 b0 3d 95 21 2b bd 79 67 77 3e 22 e8 46 be
       0.08597172 -0.041780073 0.24160565 -0.19424489
0002a0 e2 9f 05 bd 27 e1 d9 3c 0e 0c d5 3d f8 c1 95 3d
       -0.03262318 0.026596619 0.1040269 0.07312387
0002b0 76 84 33 be 30 ec 3d be 49 16 35 be 0b 15 24 be
       -0.17530999 -0.1854713 -0.17684282 -0.16023652
0002c0 36 be f6 bd c2 a0 0f be 33 a4 95 3e 14 b3 40 3e
       -0.120479986 -0.14026168 0.29226837 0.18818313
0002d0 ee b6 16 3c 4d 32 1d 3c 0e 61 83 bd 5d a3 34 3c
       0.009198887 0.009594512 -0.06414996 0.011025277
0002e0 d2 38 88 3d 61 9e 3c be dd ba 37 3e 73 36 5f bc
       0.066514626 -0.18419792 0.17942376 -0.013623822
0002f0 1d 16 12 be 52 61 4a 3e 9e 46 0e be ee 59 d2 3d
       -0.14266248 0.19763687 -0.13894126 0.10271059

layer4.bn2.weight f4 [8]
000000 6b e9 85 3f 3a 0c 75 3f dd b9 7c 3f 8a 2f 81 3f
       1.0461859 0.9572178 0.98721105 1.0092633
000010 ba 87 7a 3f ba 5a 87 3f 2c b6 7a 3f 98 c5 86 3f
       0.9786335 1.0574563 0.9793422 1.0529051

layer4.bn2.bias f4 [8]
000000 dd 08 1c 3c f9 63 90 bc 08 bf 4d bc a4 4e 90 bb
       0.009523598 -0.017625796 -0.012557752 -0.004403906
000010 3f 6c 28 3b 2f 01 fe bc d9 d8 59 3c 8a 55 ee 3b
       0.0025699285 -0.031006424 0.013296329 0.0072733806

layer4.bn2.running_mean f4 [8]
000000 55 e4 16 bc 68 9a 01 3e a8 32 5f bc b5 fa 31 3d
       -0.009209712 0.12656558 -0.013622917 0.043451983
000010 d3 0b 3c 3e 0c a5 1c bd 66 47 9d 3d e3 f7 a5 bc
       0.18363886 -0.03824334 0.07679634 -0.020259803

layer4.bn2.running_var f4 [8]
000000 e5 73 c7 3d ad 2f 8f 3d b4 97 89 3d 77 ee 9f 3d
       0.09738902 0.06991515 0.06718388 0.078091554
000010 8f 75 08 3e e8 e7 38 3e 52 5b f3 3d fb 5d ae 3d
       0.13326095 0.18057215 0.11882652 0.08514019

layer4.fc1.weight f4 [2, 8]
000000 e2 ba 8f be de 8f 79 be 5a d8 9e 3e 39 ee 79 3e
       -0.28072268 -0.24371287 0.31024438 0.24407281
000010 64 6b 8e be df e7 80 3e 47 3a 14 be 86 a4 b0 be
       -0.27816308 0.25176904 -0.14475356 -0.3450052
000020 0d c0 9f bd 53 88 2f be cf 46 a3 3d 72 e7 ce bc
       -0.07800303 -0.17141847 0.0797249 -0.025256846
000030 d3 b6 e6 bd 38 15 9d be b4 ae b3 be d4 f6 3a 3e
       -0.1126534 -0.3068025 -0.35094225 0.1825822

layer4.fc1.bias f4 [2]
000000 d8 97 7f be 81 80 93 bd
       -0.24960268 -0.072022445

layer4.fc2.weight f4 [8, 2]
000000 a4 8e ce 3e 0d 64 23 3f 58 b9 24 bf d9 3c d3 be
       0.403432 0.6382454 -0.6434531 -0.4125736
000010 5f ed 20 bf 4f 6a d1 be fd d1 80 3e 02 0c 30 3f
       -0.628622 -0.4090142 0.25160208 0.6876832
000020 10 af 28 bf b5 dc ae be 5c 42 21 bf b5 c3 8e 3e
       -0.65892124 -0.3415276 -0.6299188 0.27883688
000030 c0 9a 6b 3e a4 d2 dc 3e 16 04 e9 3e d3 64 23 3f
       0.23008251 0.43129456 0.4551093 0.6382572

layer4.fc2.bias f4 [8]
000000 24 57 29 3f 16 1e 62 3e 1d 2e cb be 9d 25 16 bf
       0.6614859 0.2208179 -0.3968362 -0.58651143
000010 cc d6 d7 3e 73 22 31 bf 1f b3 ea bb 6a 82 8b bd
       0.42156065 -0.6919319 -0.007162466 -0.06811984

layer5.conv1.weight f4 [16, 8, 1, 3]
000000 95 6a 12 3e c8 e5 c8 3b 1f 9d 15 3d 3f 45 f6 bc
       0.1429847 0.0061309077 0.036526795 -0.030062316
000010 2a df 42 3e 32 b5 3f 3e 14 db 0d 3e cd c1 93 3d
       0.19030443 0.18721464 0.13853103 0.07214699
000020 db 46 97 3d 7a a7 1d bd e3 12 a1 bc df 19 35 be
       0.073865615 -0.038489796 -0.019662326 -0.1768565
000030 2c 36 f4 3d fb 2a 19 be 47 da ba 3d e2 2d f7 bc
       0.11924395 -0.14957802 0.09123664 -0.030173246
000040 fc d6 1b 3e 30 1e f9 3d 56 8a 13 be ed 80 0f 3e
       0.15218729 0.12163961 -0.1440824 0.14014025
000050 b6 e9 83 bd 98 8a e4 3d fb b1 ac bd 1a d5 ae 3d
       -0.06441061 0.11159247 -0.084323846 0.0853674
000060 73 28 06 3e b9 01 6e 3d 93 92 56 bd a0 de 2d 3c
       0.13101368 0.05810711 -0.052385878 0.01061216
000070 31 c2 9a 3d 50 77 c9 bd 58 82 a9 3d dd b2 94 3d
       0.0755657 -0.0983721 0.08276814 0.07260678
000080 76 57 0d be 8f 03 cc bd c8 5e 28 bd 65 0d 0d be
       -0.13802895 -0.09961616 -0.041106015 -0.13774641
000090 0b 99 f8 bd 68 2e 6a 3e 6c ea 37 3e 1b dd 90 bd
       -0.12138566 0.22869265 0.17960519 -0.070734225
0000a0 9a 8a 0f be 1e 02 9d 3d 0b 88 05 3e cb 9d 3d 3c
       -0.14017716 0.076664194 0.13040178 0.011573265
0000b0 b1 8e 06 3e 2b 56 0e be 5f df 10 3e ac 5e 3f 3e
       0.1314037 -0.13900058 0.1414771 0.18688458
0000c0 45 38 50 3e 8f 66 8b 3d 4c 31 81 bd c6 4c 28 bd
       0.20333965 0.06806671 -0.06308231 -0.04108884
0000d0 fa 9c a4 3c 0b 42 10 3e 45 dc e9 3d b7 15 7d bd
       0.020094384 0.14087693 0.11418966 -0.061788287
0000e0 58 0c 43 be 88 8e 4c 3e 9c d9 62 be 14 07 46 3e
       -0.19047678 0.19976246 -0.22153324 0.19338638
0000f0 47 a5 d2 3d 7e 23 f1 bd ed 18 8d bd 63 12 27 bd
       0.102854304 -0.11774348 -0.0688952 -0.04078902
000100 fb a8 d7 bc 58 e2 ec bd 35 bf 49 3d 38 f4 6e bc
       -0.026325693 -0.11566609 0.049254615 -0.0145845935
000110 f5 f0 16 bc cb ea ce bd 26 e9 40 be 91 65 39 be
       -0.009212722 -0.10103377 -0.18838939 -0.18105151
000120 9f a8 97 3d 4c fa 5d 3e 18 00 23 3e 9c d2 76 3d
       0.07405209 0.21677512 0.15918005 0.060259447
000130 3a 73 1b 3e 49 f8 12 be 82 84 f6 3d c7 13 0f 3e
       0.15180674 -0.14352526 0.120369926 0.13972388
000140 3a 64 32 be 3c 04 37 3e d0 01 34 bd cd cf 86 3d
       -0.17421046 0.17872709 -0.04394704 0.065826036
000150 ca a2 22 3e 30 75 2c 3e ae fc 2c 3e 5e 24 ba 3c
       0.15882412 0.16841578 0.16893265 0.02272242
000160 1d 8b 70 3d f7 de 27 3e a9 7b 45 3e 92 f6 b0 bd
       0.05872642 0.16393648 0.19285454 -0.086407796
000170 0b da 4a 3e 9d e6 24 3e 32 2d 60 be 4a 96 36 bd
       0.1980974 0.16103597 -0.2189224 -0.04457692
000180 6b 75 23 be c2 cf 92 bd d1 f4 45 be 34 10 78 bd
       -0.1596276 -0.07168533 -0.19331671 -0.060562328
000190 70 df 76 bd 3b 42 3e be 3a 6a 48 3e 2f 55 39 bc
       -0.06027168 -0.18579952 0.19571772 -0.011311813
0001a0 b5 75 3d be a0 de 16 be 6d 5b c5 3d e3 5d 41 3e
       -0.18501933 -0.14733362 0.09636579 0.18883471
0001b0 25 28 99 3c b5 da 86 be f8 a1 d4 bc 6d 2b 3a 3e
       0.0186959 -0.26338735 -0.025956139 0.18180628
0001c0 41 05 2b be 0c be 1b be c7 f7 cd bd ce 08 3f be
       -0.16701223 -0.15209216 -0.100570254 -0.18655702
0001d0 a1 db 11 3d 97 7d cf bd 99 05 4e be cc d2 de 3c
       0.035609845 -0.10131376 -0.20119323 0.027200125
0001e0 1b 83 bb 3d f1 a5 02 be 15 84 9d 3c f3 e7 a6 3d
       0.09155866 -0.12758614 0.01922802 0.081497096
0001f0 09 47 9f bd 40 d0 1d 3e 69 3e 43 be 81 61 22 3e
       -0.07777221 0.15411472 -0.19066776 0.15857507
000200 7e 7d 39 3d e4 bc b5 bd e9 9c e0 bc 8f 96 31 3e
       0.045285694 -0.08873919 -0.02741857 0.1734259
000210 76 32 02 3d db 4f 43 be d5 1f 37 bd 84 c6 0f be
       0.031786405 -0.19073431 -0.04470809 -0.14040571
000220 84 9a 84 bd 41 b9 f2 bd 1b 2c 00 be 89 5f 27 be
       -0.06474784 -0.11851741 -0.12516825 -0.16345038
000230 97 01 19 be 78 55 12 3e df 79 6b 3e 13 ef 1c 3e
       -0.14942013 0.14290416 0.22995709 0.15325575
000240 b0 33 11 3e 94 a5 2f 3e 99 b6 bb bd b8 7a 49 3e
       0.14179873 0.17153007 -0.09165687 0.1967572
000250 a6 a3 2b 3d c1 b5 2b 3e 51 4a ab 3c 1d ef 50 be
       0.041904114 0.16768552 0.02090946 -0.20403714
000260 9b 27 41 be 71 6a 6d 3d e6 e6 d7 3d a7 b3 07 be
       -0.18862765 0.05796284 0.10542087 -0.13252126
000270 c5 cf e3 3c f1 e9 a4 3d 37 fe 0b 3e 3a ee 32 3d
       0.027809033 0.08052433 0.13671194 0.04368422
000280 f6 f1 46 3e 85 7d 41 3e da 47 e5 bd 52 3f 46 3e
       0.19428238 0.18895538 -0.11195345 0.19360092
000290 f3 94 17 be bc fc ce 3d 6a d0 b2 3d 77 5d 2a be
       -0.14802913 0.10106799 0.08731158 -0.16637217
0002a0 d4 b7 f3 3d ec a5 f1 3d 8a 72 d1 bd 0a 78 bd bb
       0.11900297 0.11799225 -0.10226925 -0.005782132
0002b0 27 96 cc 3c e9 59 fe 3d 03 14 26 3e 4d 1f b1 3d
       0.024973942 0.12419493 0.16218571 0.08648548
0002c0 64 88 d3 3d 3f 12 df bd 3d 05 53 be 9e 01 a5 3d
       0.10328749 -0.10892152 -0.20607467 0.08056949
0002d0 18 39 16 3e 52 f9 1a 3e b5 0c df bc 63 03 e7 bd
       0.14670217 0.1513417 -0.027227739 -0.11279943
0002e0 49 fe 90 bc 44 20 2c 3b 23 6f 54 bc 16 f2 1a bd
       -0.017699378 0.002626435 -0.01296595 -0.037828527
0002f0 03 7f 4a 3e 34 08 48 be 64 d3 10 bd 4e fc bb bd
       0.19775014 -0.19534379 -0.035357848 -0.09178983
000300 43 a1 ad 3d 76 19 06 3e c3 3c fb bd e4 c0 95 bb
       0.08478024 0.1309565 -0.12267449 -0.0045701135
000310 89 76 ff 3c d1 bf 7f bd b7 4c cd 3d f6 71 8a 3e
       0.031184452 -0.06243879 0.10024398 0.2704007
000320 31 02 84 bd 6a 7b d8 3d 8b 23 38 3d 33 e0 f5 3d
       -0.064457305 0.10570414 0.04495577 0.12005653
000330 9a d3 fe 3d 84 da 32 3e 6b 2e 27 be e7 42 bf 3d
       0.124427035 0.1746617 -0.16326301 0.093389325
000340 3e ef f4 bd 96 81 56 bd 9c ad 03 be bb 2e 23 3e
       -0.11959694 -0.052369677 -0.12859195 0.15935795
000350 8c 45 02 3e d6 ad e3 3c 46 c7 49 bd 01 02 40 3e
       0.12721843 0.027792852 -0.049262308 0.18750764
000360 e7 b1 0c be a9 52 16 3e ad 43 1d 3d c7 a8 d1 bd
       -0.1373974 0.1467997 0.03839462 -0.1023727
000370 76 b5 dc 3d b3 a3 95 3c b9 49 2b 3c 72 d9 95 bc
       0.107767984 0.018266534 0.010454589 -0.018292163
000380 5e bd 20 be d4 c8 b1 bc c1 41 42 be 0d 12 3d be
       -0.15697238 -0.021702208 -0.18970396 -0.18463917
000390 f7 4c 23 be c0 f2 53 be 05 9e 38 be 2a 4d f3 bd
       -0.15947329 -0.2069807 -0.1802903 -0.11879952
0003a0 66 29 66 3e 11 c5 14 bd af 61 1c be 87 61 1b 3d
       0.2247673 -0.03632075 -0.15271638 0.037934806
0003b0 4c 1f 04 3d c7 21 19 3e f7 71 38 3e e4 fd 28 3d
       0.03225641 0.14954291 0.18012224 0.041257754
0003c0 6d 4a a1 3d ba 5b 39 be 73 a3 4c 3e 58 81 60 3c
       0.07875524 -0.18101397 0.19984226 0.013702713
0003d0 9f dc d1 3d ca cc 2d bc 10 ac 0c be c9 ed 51 be
       0.10247158 -0.010607908 -0.13737512 -0.20500864
0003e0 9d 72 cc 3d 18 df 35 be ee a1 4f 3e 8f ad 43 3e
       0.09982798 -0.17760885 0.20276615 0.19109176
0003f0 8f 39 b8 bd 27 cc 22 be b9 da 40 3e 4f 48 84 bc
       -0.089953534 -0.1589819 0.18833436 -0.01614776

layer5.bn1.weight f4 [16]
000000 48 f3 7f 3f 21 9f 7e 3f 23 33 80 3f 73 a2 7c 3f
       0.9998059 0.9946156 1.0015606 0.9868538
000010 91 53 83 3f 44 ea 80 3f 63 a5 7a 3f 27 18 7b 3f
       1.0259877 1.0071492 0.9790861 0.9808373
000020 f7 b1 81 3f f9 96 7f 3f 66 05 7f 3f 2d 1e 7d 3f
       1.0132436 0.9983974 0.9961761 0.9887417
000030 bb c6 7e 3f 98 cf 81 3f 8d 30 7e 3f f9 df 7e 3f
       0.9952199 1.0141478 0.9929283 0.99560505

layer5.bn1.bias f4 [16]
000000 89 eb 3e 3c ff 7f 0b 3b 80 4c 55 bc 32 67 2f bc
       0.011652836 0.0021286008 -0.013018727 -0.010705756
000010 d9 06 5d 3d 16 17 f7 ba c5 dd 23 bc 34 ea 98 bb
       0.05396161 -0.0018851485 -0.010001604 -0.004666591
000020 17 e8 9d 3b 06 dc b5 ba 7a 71 77 ba ff 7a bd bb
       0.004818927 -0.0013874776 -0.00094392116 -0.0057824845
000030 00 52 d2 3b f8 68 81 3c 55 77 f3 bb 56 dd fe 38
       0.0064184666 0.015797123 -0.007429997 0.00012152891

layer5.bn1.running_mean f4 [16]
000000 1a c4 ba 3e 53 6e 87 3e db c0 96 be 51 72 88 3e
       0.3647774 0.26451358 -0.29444012 0.26649716
000010 91 77 09 bf 49 a2 36 be 60 d1 c2 3e 9c a9 c6 3d
       -0.5369807 -0.17835344 0.38050365 0.09700319
000020 bc f9 fa 3e 52 90 93 3e 8d eb b7 be 46 14 b9 be
       0.49018657 0.28821045 -0.35921898 -0.3614828
000030 06 f9 f5 3d 91 64 1e 3d c6 7f 21 bc f6 4b 2b be
       0.12010388 0.038670126 -0.009857124 -0.16728196

layer5.bn1.running_var f4 [16]
000000 b8 10 d4 3e 0a 00 12 3e 0a d6 cc 3d 3f 07 da 3e
       0.41419005 0.14257827 0.10001762 0.42583653
000010 07 52 76 3e c5 70 89 3e 06 c7 1f 3e be ec 05 3e
       0.24054728 0.2684385 0.15603265 0.13078591
000020 43 b0 e4 3e 2e a5 3b 3e 1a 12 68 3e 43 71 0d 3e
       0.44665727 0.1832473 0.22663155 0.13812737
000030 47 48 74 3e b7 2a 36 3e 34 06 b9 3d 09 c0 26 3e
       0.23855697 0.17789732 0.09034386 0.16284193
