das_new/models/20260106_140851/best_model.pth (torch, 98946 bytes, 176 tensors)

input_conv.weight f4 [4, 1, 1, 3]
00000000: 72f4 8b3e 943c cbbe 8da2 093f 25d0 85bc
00000010: 6eea 0b3f 74e7 e8be d8fe f33e c3d0 13be
00000020: 0629 453e 47b2 13bf 53b3 3a3e 6dc0 98be
0.27334934 -0.39694655 0.5376366 -0.016334603 0.54654586 -0.45489085 0.47655368 -0.14435105
0.1925393 -0.57693905 0.1823247 -0.2983431

input_bn.weight f4 [4]
00000000: e431 8a3f cede 893f e037 653f 7559 733f
1.0796475 1.077112 0.89538383 0.95058376

input_bn.bias f4 [4]
00000000: aaf9 523e aaa4 1d3d cae1 31be cd40 fd3c
0.20603052 0.038487114 -0.17371288 0.030914688

input_bn.running_mean f4 [4]
00000000: 7c2a 013c f6d8 31bc 3b1b 3c3b 055c 6dbb
0.007883664 -0.01085495 0.0028702754 -0.0036218178

input_bn.running_var f4 [4]
00000000: a741 033f b71e 163f 98fb e13e ce49 e53e
0.5127205 0.5864062 0.44137263 0.4478287

layer1.conv1.weight f4 [4, 4, 1, 3]
00000000: 065a 3abd 581e c63d 4396 2dbe 7262 3a3e
00000010: 5be1 50bc eb77 1b3e 8747 7fbe 05a1 383e
00000020: 9d44 fcbd 9527 743e 7cc6 87be 7e18 a53d
00000030: 97c0 3a3e 1e6f 173f a407 e23d 2309 843e
00000040: d565 1dbf 2b26 87be c37b 90be 30fe 4f3e
00000050: 7ec7 2abe 9f07 0fbe 61c9 00bf c224 8c3e
00000060: d381 a53c 9e52 263d bac1 3f3e 73ed 0c3e
00000070: 0eab a5be b81b 583d 3581 523e ec6b 273d
00000080: 9d13 1e3e 91dd 533e 6b55 92be 856c a5bd
00000090: 2219 05be 8f14 393e 1ddb 173e 82f0 113e
000000a0: af31 0cbd ecb5 15be 7ef1 28be 9403 f7bd
000000b0: 0264 5b3e 089d 7cbc 6b8e 4fbe 5cf5 563e
-0.04549601 0.09673756 -0.16951852 0.18201616 -0.012749041 0.15182464 -0.2492963 0.18030174
-0.123177744 0.23843224 -0.2651862 0.08061312 0.1823753 0.59153926 0.110366136 0.2578822
-0.6148351 -0.26396307 -0.28219423 0.20311809 -0.16677663 -0.13967751 -0.5030728 0.27371794
0.020203507 0.040606134 0.18726245 0.13762455 -0.32357067 0.05276081 0.20557101 0.040874407
0.1543717 0.2068999 -0.28580794 -0.08077339 -0.12997869 0.18074249 0.14829679 0.14251903
-0.03422707 -0.14620179 -0.16498372 -0.12061229 0.21424869 -0.015418299 -0.20269172 0.20992035

layer1.bn1.weight f4 [4]
00000000: de7b 823f bc6b 7c3f f7f2 803f a382 7c3f
1.0194051 0.9860189 1.0074147 0.98636836

layer1.bn1.bias f4 [4]
00000000: 5627 8b3d 8dfb cf3b 661e 223a 77e1 86bc
0.06794612 0.006347126 0.0006184339 -0.016464932

layer1.bn1.running_mean f4 [4]
00000000: 3222 7d3c f62a 38bd f942 cbbd a9e2 15bc
0.015450047 -0.044962846 -0.099248834 -0.009148278

layer1.bn1.running_var f4 [4]
00000000: 9b52 ed3e ce41 363f ccc5 f13e a63f e63e
0.46352085 0.7119416 0.4722122 0.44970435

layer1.conv2.weight f4 [4, 4, 1, 3]
00000000: 5676 09be f81b be3e c30e 7c3e 075f 5e3e
00000010: a42b 2b3e 75cb 4abe fc05 27be a654 28be
00000020: cd8d 3d3d e516 be3d b7ca f13d 314e 6dbe
00000030: f611 2abe 391a 84be 3fe8 fdbd 9744 003e
00000040: 1be8 0c3e ed6e d73d 4dca ba3d ff68 523e
00000050: 8b1c 02be 17ef 09be ab3f 50be 0076 793e
00000060: 60fc 7b3e 3ca4 493d 852c 333e b785 6fbe
00000070: 43eb ffbb 909c 92bd 8fa0 663e de2a 3fbe
00000080: 1f68 883d 4f2a e73d e3b3 563d 77d2 7abe
00000090: 9a4a 4e3e 330d 2a3e 8ba7 f83d 5aa9 13bd
000000a0: 517f 893e bb7d 883e 8fd2 283e 42cd 5d3e
000000b0: 6515 183e 8f9e b63b 1b49 d13c c9aa 0dbe
-0.13424048 0.37130713 0.24615006 0.21715938 0.16715866 -0.19804175 -0.16310877 -0.16438541
0.04627781 0.092817105 0.11806243 -0.23174359 -0.16608414 -0.25801256 -0.12397813 0.12526165
0.13760416 0.10519204 0.09120617 0.20547865 -0.12706201 -0.13470112 -0.20336787 0.2436142
0.24607992 0.04922889 0.17497452 -0.23390852 -0.007810028 -0.07158768 0.22522186 -0.18668696
0.066604845 0.112873666 0.052417647 -0.24494348 0.20145646 0.16606598 0.12141331 -0.036050178
0.26854947 0.26658425 0.16486572 0.21660331 0.14851911 0.005573101 0.025547555 -0.1383468

layer1.bn2.weight f4 [4]
00000000: d400 7f3f 3722 863f 44a3 7e3f 1a70 873f
0.9961064 1.0479192 0.99467874 1.0581086

layer1.bn2.bias f4 [4]
00000000: 2817 9fbc eba4 a83c 968e b73b 1fc4 ad3d
-0.019420221 0.020586452 0.0056017144 0.08484673

layer1.bn2.running_mean f4 [4]
00000000: 509f 053e 6bfc 4abd 2301 5bbb e141 cb3d
0.13049054 -0.04955713 -0.0033417426 0.09924675

layer1.bn2.running_var f4 [4]
00000000: 5d28 ed3e 4392 e33e 491b de3e b80b e33e
0.46319857 0.44447526 0.43380192 0.44344878

layer1.fc1.weight f4 [1, 4]
00000000: 9111 01be 7c72 2e3e dad3 bc3d 915e abbe
-0.12604357 0.1703586 0.09220095 -0.33470586

layer1.fc2.weight f4 [4, 1]
00000000: 7a9c 023f ba49 07bf 5ccd 533e 720f 5f3d
0.51020014 -0.5284687 0.20683807 0.05445809

layer1.fc2.bias f4 [4]
00000000: fd9a 65be de03 3abf bf85 2a3f 6090 adbd
-0.22422405 -0.7266215 0.6661033 -0.08474803

layer1.shortcut.0.weight f4 [4, 4, 1, 1]
00000000: 6bd6 653e cb1f 7d3e cfc9 a3bd d3e6 dcbe
00000010: 4d21 c53e 16f9 04bf 325e 593d 0a2a 863e
00000020: 1f06 dbbe 08e6 b43d fe28 d9be 0828 90bd
00000030: b3b8 d43e a2c9 69be 126c 083d 49a2 4dbe
0.22445075 0.2471916 -0.07997476 -0.43144855 0.3850197 -0.51942575 0.053068347 0.26203948
-0.42778108 0.088329375 -0.42414087 -0.07038885 0.41547164 -0.22830823 0.03330619 -0.20081438

layer1.shortcut.1.weight f4 [4]
00000000: b125 7e3f f208 773f dd95 793f aea1 7f3f
0.9927626 0.96498024 0.974943 0.9985608

layer1.shortcut.1.bias f4 [4]
00000000: 11a9 23bc 258a 7f3b a553 60bc aaf6 ca3d
-0.009989039 0.0038992253 -0.013691817 0.09910329

layer1.shortcut.1.running_mean f4 [4]
00000000: cf70 e53b b06c 863d 31cb 5abe c5bf 553d
0.007001973 0.06563699 -0.21366574 0.05218484

layer1.shortcut.1.running_var f4 [4]
00000000: e740 e33e c705 fc3e 1635 f43e ad8c 013f
0.44385454 0.49223158 0.4769675 0.5060528

layer2.conv1.weight f4 [4, 4, 1, 3]
00000000: 83c8 61bc a44e 30bc 0d76 5a3e 4c37 8f3e
00000010: 1715 69be 2f34 5b3e 6e27 733e f998 003e
00000020: 98e0 c23d b837 5bbe 932d 58be b24a 923e
00000030: 25ad 81be 43d6 613e e658 8ebe b4b8 b4bc
00000040: b7f3 2dbd 63e1 c7bd f91c 93be def9 9a3c
00000050: 5204 d8bd cf0a 09be bba2 e3bd 4466 c13c
00000060: 2827 8c3e a919 a3be 91f4 61be d15d acbb
00000070: 81c0 263b 176c cebd 02b9 93be 2dc6 03be
00000080: b081 c2ba 65e3 473e 99c5 08be 0088 883e
00000090: a791 6cbe 1349 81be 4797 113e 4a2e 883e
000000a0: c356 b23d 826f c33d 2cc9 24bd e044 873e
000000b0: 4fe5 10be 03d7 a83c ed9f 33be 7c41 65be
-0.013780716 -0.010760937 0.21334095 0.27971876 -0.22761951 0.21406625 0.2374551 0.12558354
0.09515494 -0.21407974 -0.21111135 0.28572613 -0.2532741 0.2205439 -0.278022 -0.02206073
-0.042468753 -0.09759786 -0.28733042 0.018917974 -0.10547699 -0.1338303 -0.11115023 0.023608334
0.27373624 -0.31855515 -0.22065951 -0.005260207 0.002544433 -0.1007921 -0.28852087 -0.12868567
-0.0014839675 0.19520338 -0.13356628 0.2666626 -0.23102437 -0.25251064 0.14217864 0.26597816
0.08707955 0.09542753 -0.040230915 0.26419735 -0.14149974 0.020610338 -0.17541476 -0.22388262

layer2.bn1.weight f4 [4]
00000000: a868 803f b05e 863f 2d3d 7b3f 4b1f 773f
1.0031939 1.0497646 0.9814022 0.96532124

layer2.bn1.bias f4 [4]
00000000: d086 85bc 89fa 8a3c d3b6 b0bc 5bcb edbb
-0.016299635 0.016965168 -0.021571552 -0.007256908

layer2.bn1.running_mean f4 [4]
00000000: 05cc e5bd 23cd 393d f3a3 0abe 609d d4bd
-0.11220554 0.04536165 -0.13539104 -0.103815794

layer2.bn1.running_var f4 [4]
00000000: 72f5 e73e c6e9 e03e 1fb3 ef3e 1b63 033f
0.45304447 0.43928355 0.46816346 0.513231

layer2.conv2.weight f4 [4, 4, 1, 3]
00000000: b9aa 5b3e 393e 223e 3ddb 803e a66f 633e
00000010: 0a53 bdbe 0d69 f83d 6223 39be 8acb a6bd
00000020: 7a9f 023e 7e16 893e b0ca 3dbd 1385 373e
00000030: 1964 1b3e 5c2f d5bd 6454 91be 6276 2e3e
00000040: 7807 6bbe 874a 003e 65b4 c3bd 32a8 96bd
00000050: d19d 1cbd f9f0 21be 1cc9 783e c5a3 883d
00000060: 088a 66bd 3027 a7ba 364a 823e a502 38be
00000070: bd36 7b3e e535 dc3d ee77 88be 85a2 04bd
00000080: 9841 4bbe ad81 853c 5a95 613e 84e7 81bd
00000090: dc48 06be a042 59be 8a4f ecbd cd39 523e
000000a0: c64f 5fbd 67a4 55be 9a52 24be 65ae 523c
000000b0: eb29 c33d c0c7 cb3b a044 27be 1200 4f3e
0.21451844 0.15844049 0.25167266 0.22210559 -0.36977416 0.12129412 -0.18079904 -0.08144291
0.12756148 0.26774973 -0.046335876 0.17921858 0.15174903 -0.10409424 -0.28384697 0.17037347
-0.22952068 0.1252843 -0.09555892 -0.073562995 -0.038236443 -0.1581458 0.24295467 0.066718616
-0.05628398 -0.0012752768 0.25447243 -0.17969759 0.245326 0.10752467 -0.26654 -0.032381553
-0.19849241 0.016297186 0.2202963 -0.06342986 -0.13113731 -0.21216822 -0.11538608 0.20529862
-0.054519437 -0.20863496 -0.16047135 0.012858962 0.095294796 0.0062188804 -0.16334772 0.2021487

layer2.bn2.weight f4 [4]
00000000: d015 873f cf22 713f a8df 7d3f 194c 803f
1.0553532 0.9419374 0.991694 1.0023223

layer2.bn2.bias f4 [4]
00000000: e02e 55bc 0ec4 89bc b2fc 68bc 6d0a 21bc
-0.013011664 -0.016817119 -0.0142204035 -0.009829146

layer2.bn2.running_mean f4 [4]
00000000: 535a b7bd d37b c8bb e6d3 cd3d 03c4 99bd
-0.08952775 -0.0061182766 0.10050182 -0.075080894

layer2.bn2.running_var f4 [4]
00000000: 5ff6 e73e 3386 e13e 968c e03e 2893 e03e
0.45305154 0.44047698 0.4385726 0.4386227

layer2.fc1.weight f4 [1, 4]
00000000: 5136 a9be a781 f63e ac1d 433e a1e3 d33e
-0.33049253 0.48145792 0.19054288 0.41384605

layer2.fc2.weight f4 [4, 1]
00000000: 6321 cebe 390e 42be 548b 43be cd58 203f
-0.40259847 -0.18950738 -0.19096118 0.626355

layer2.fc2.bias f4 [4]
00000000: 3482 25bf 4212 9fbe a0b4 693f 86c3 513f
-0.646518 -0.31068617 0.91291237 0.8193897

layer3.conv1.weight f4 [8, 4, 1, 3]
00000000: 6f94 093e 139c f53d f702 a93d f122 e1bd
00000010: 95b6 09be cc68 203e ba64 42be d643 51be
00000020: 0c2c e0bd af96 813d a4f3 0e3e 23f1 dd3d
00000030: 8cab 753e f024 173e 962a 8b3e 213e 6bbe
00000040: b1ea 023e d422 68be 2094 20bd 8f1a 553e
00000050: eebc 0c3d cd23 dcbc da9a 08be 0d7f 9cbd
00000060: 31a8 4e3e 08a1 93be f762 1fbe 3997 88be
00000070: 7f2b b1bd eecf 843e ef0b 663c 563a 49bd
00000080: a9ed 363d d506 11be 1cd5 a53d 94b5 37be
00000090: 1747 943b afa1 2dbe cbaf 4b3e 3576 113d
000000a0: 1ffc d1bd c58a 78be 5472 f83d b95a 553e
000000b0: df78 b83d 20bf 13bb fbd9 65be 6e54 7f3d
000000c0: ab31 7cbe 41aa 1dbe 603d 38be b628 ca3d
000000d0: 3a8a 213d c105 813c b6f2 ee3d c0b7 773d
000000e0: 90ad 0f3e f41a b2bc 3bcc 87be 7f46 803c
000000f0: 4276 83bd 98ad 33be f440 813d e614 893e
00000100: de17 523e 48f1 a73d 028b f4bd 7848 2abe
00000110: 41c5 1b3d aaa2 a3bd 848f 0e3e c8e1 303e
00000120: 26da 54be db2c 963e 718c c13c 5a8f cc3d
00000130: a7ff 1bbe 0fd6 b53d 8bf4 e9bd 8b3e 3cbe
00000140: 5167 22bd 1846 fdbd 852f 6abe 848c 513e
00000150: b7bf 863e 91eb 71be 36cc 61bd 1fac 793d
00000160: 6975 8ebc d896 06be 3513 1abe 2676 703e
00000170: 50b1 ef3d bc0f 5db9 6b4b de3c fba8 1f3e
0.13435529 0.119926594 0.082525186 -0.10992993 -0.13448556 0.15664977 -0.18983737 -0.20436034
-0.10945901 0.06327569 0.13960129 0.10837009 0.23991221 0.14760184 0.27180928 -0.22972919
0.1278484 -0.22669536 -0.039203763 0.20810913 0.034359865 -0.02687254 -0.13340321 -0.076414205
0.20181347 -0.28833795 -0.15565096 -0.26677874 -0.08650874 0.25939888 0.014040931 -0.0491279
0.044660244 -0.14162762 0.08097288 -0.1794036 0.004525076 -0.16956209 0.19891278 0.03551312
-0.102531664 -0.24271686 0.12131181 0.20835389 0.09007429 -0.002254434 -0.22446434 0.062336378
-0.24628322 -0.15396978 -0.17992163 0.09871046 0.039438464 0.015749814 0.11667387 0.060477972
0.14031053 -0.021741368 -0.26523003 0.015658615 -0.0641904 -0.1754669 0.06311217 0.26773757
0.20516917 0.082003176 -0.11940576 -0.16629207 0.038029913 -0.0799001 0.13921934 0.17273629
-0.20786342 0.29331097 0.023626538 0.0998828 -0.15234242 0.08878719 -0.11423596 -0.18383233
-0.03964931 -0.12366885 -0.2286969 0.20463759 0.26318142 -0.23625018 -0.05512639 0.060955163
-0.01738997 -0.1314348 -0.1504639 0.2348257 0.117037416 -0.00021082064 0.027135571 0.15591805

layer3.bn1.weight f4 [8]
00000000: c585 803f 4b3c 7b3f c098 7b3f d35b 813f
00000010: 3b95 7e3f 35c0 823f e97f 7e3f 981c 813f
1.0040823 0.98138875 0.98279953 1.0106148 0.9944646 1.0214907 0.99413925 1.0086851

layer3.bn1.bias f4 [8]
00000000: 1f17 dd3b 3ad6 a7ba a638 ffbb 35e8 c33c
00000010: a8d8 343c 7c5d a03c be3a afbc 359e db3b
0.006747141 -0.0012804933 -0.0077887354 0.023914436 0.011037983 0.019575827 -0.021390315 0.0067022094

layer3.bn1.running_mean f4 [8]
00000000: ec3f 5d3a a122 d73d 46e7 cebd 7f60 14be
00000010: 8753 32be f491 3d3c c0f2 c6bd d811 91bc
0.0008440006 0.10504652 -0.10102706 -0.14489935 -0.17414676 0.0115704425 -0.0971427 -0.017708704

layer3.bn1.running_var f4 [8]
00000000: bdea ec3e 12a7 e83e 3101 e23e da77 ef3e
00000010: a514 e93e 2d44 e73e 6d6f ef3e 31b2 e73e
0.4627284 0.45439965 0.44141534 0.46771127 0.45523563 0.45169201 0.467647 0.45253137

layer3.conv2.weight f4 [8, 8, 1, 3]
00000000: d3de 34be 1925 e3bd 0ef9 39be 2180 b13c
00000010: 2fa7 31bb 336b 063e b928 f13d 361c eebd
00000020: 3a29 383e b44a 46be a717 0abe 5f98 df3d
00000030: bf04 18bd 8349 af3d bcf6 97bd b768 853c
00000040: bfb8 bbbd f703 0cbe 250e 86bd bb82 f8bd
00000050: 7ab4 2a3e 5047 bdbd 5ed9 5ebe e2ea d83d
00000060: 86f5 77bd 3a31 e3bd 5d8b 40be aa28 73bd
00000070: 6b68 e4bd 0a56 873c 576e 0c3d 7870 bb3d
00000080: c0c8 10bd 4f7b c13d 8eac 52be 71e6 373d
00000090: f3ff 093e 001f 1fbe 808f 11be 3782 4a3c
000000a0: ba69 a53d 574e 7c3d 80e8 9f3d fc17 69bc
000000b0: 21ee 353e dfab bf3d 7423 62be 7a5f 88bd
000000c0: e5ff 45be 32ac 42be a5a0 36be 4442 f8bd
000000d0: 0284 363e 71aa 22be e1bb 80bd 8ede 343d
000000e0: 4c6f 493d 7d75 41be 9b72 f9bd bcda 123e
000000f0: d9bd 863d 8d8f fb3d c6f5 46be 6cfb 383e
00000100: 9aad 1d3e 5c22 d4bc ad5b 283e c53f a4bd
00000110: 552c 003d 4f48 ccbc 7533 cb3d 9a98 173e
00000120: 1431 943d 60be d0bb 96cc 9cbc 1381 23be
00000130: 0931 17be 68d6 533b 0c61 983d b527 763d
00000140: d824 e0bd ab25 fcbd 7069 c13d 5641 05be
00000150: dae2 97bd e94a b0bd bfcb c8bd b275 473e
00000160: 657f f8bc 5618 333d 0ec3 8cbc 1f97 36be
00000170: cdb5 94bd cb9c 163e 466e 9dbd 4d5c 603c
00000180: cb22 fcbc 87ed eb3d 9350 8ebd 27f9 7cbd
00000190: cb44 cd3c 3465 ebbd a802 6f3c f421 4cbe
000001a0: 17b6 3bbe 94da 9fbd 3229 3cbd e139 0bbc
000001b0: 3a11 22be d621 1d3c 2909 bf3c 8b62 de3c
000001c0: 9736 58be 34ec a8bd e008 5bbd def4 05be
000001d0: 5d75 0bbe dbaa 423e 1a42 01bd 14c7 163e
000001e0: 110c 0b3e eeed f13c 5c81 d4bd bd89 4dbe
000001f0: 8f69 3e3d ace7 4fbe 5411 aa3d 4df7 553d
00000200: c1dd 05bd b374 363e 1465 603e e599 72bc
00000210: 1f19 483d a749 1c3e ff89 0abe 1033 a2ba
00000220: dd5e d9bd aad5 a0bb 94e3 28be a3b0 133e
00000230: 5a27 92bd 443b 033e 9394 2f3e 43a4 8a3d
00000240: 7a94 ccbd 3be3 613d b8a5 303e 8e65 17be
00000250: 08a2 49bd 9e04 2e3e c61f 48bb 4941 15be
00000260: b6ca c63d 9967 2fbe 28e3 09be 6d01 1ebe
00000270: 0176 26bd 7335 19be a115 06be 4e75 703d
00000280: 3725 05be 7468 d23c 1ea8 20be 5fcf 183e
00000290: cd99 613d ff13 163e d7b3 7abc 274b be3d
000002a0: 15d8 c3bc af39 263e 604e 163c c574 1d3e
000002b0: 3425 8b3d 3b4e 18be 13b7 26be a709 2c3e
000002c0: 4d4e 0d3e d1e5 a9bd fa78 e8bd 7277 2cbe
000002d0: 4cb8 183e 6696 d9bd e777 173e e9f5 45be
000002e0: 80dd 603e e184 2fbd a663 5dbc 0317 013e
000002f0: 19d2 c13d 22ef 11bd d3a1 313b 4c71 463d
-0.17663126 -0.1109106 -0.18161413 0.021667542 -0.0027107706 0.13126831 0.11775345 -0.116264746
0.17984477 -0.19364434 -0.13485585 0.10917734 -0.0371139 0.08558943 -0.07420108 0.016285283
-0.09166097 -0.13673387 -0.065456666 -0.1213431 0.16670409 -0.092421174 -0.21762607 0.10591675
-0.060536884 -0.110933736 -0.18803163 -0.059364952 -0.11152729 0.016520519 0.034284916 0.09152311
-0.0353477 0.094473474 -0.20573637 0.0448975 0.13476543 -0.1553917 -0.14214897 0.012360147
0.08076806 0.06159815 0.07808018 -0.01422691 0.1776662 0.09358954 -0.22083837 -0.06658836
-0.19335897 -0.19011 -0.17834719 -0.12122014 0.17823794 -0.1588533 -0.06285835 0.044157557
0.049178407 -0.18892474 -0.121800624 0.14341253 0.06579179 0.122832395 -0.19429693 0.1806466
0.15398255 -0.02589529 0.16441222 -0.080199756 0.03129228 -0.024936823 0.09921924 0.14804307
0.072359234 -0.0063703507 -0.019140523 -0.15967207 -0.14764799 0.003232384 0.07440385 0.06009646
-0.109445274 -0.12311872 0.09443939 -0.13013205 -0.074163154 -0.08608038 -0.098044865 0.19478491
-0.030334184 0.04372438 -0.017182853 -0.17831086 -0.07261238 0.1470825 -0.076870486 0.013693881
-0.03077831 0.11519914 -0.06948962 -0.061761048 0.025057217 -0.11493912 0.014588036 -0.19934827
-0.1833118 -0.07805362 -0.045937724 -0.008497686 -0.15826884 0.009590587 0.023319798 0.027146598
-0.21114574 -0.08248177 -0.05347526 -0.1308169 -0.1361899 0.19010489 -0.03155718 0.1472438
0.13578822 0.029532399 -0.10376236 -0.20072074 0.046487387 -0.2030322 0.08304086 0.052237798
-0.032682184 0.17817955 0.21913558 -0.014807199 0.048852082 0.15262471 -0.13529204 -0.0012374837
-0.10613797 -0.0049082832 -0.16493064 0.1442285 -0.07136412 0.12815577 0.1714652 0.06769612
-0.09989257 0.055148344 0.17250717 -0.14784834 -0.04922679 0.16993949 -0.0030536517 -0.14575686
0.09706633 -0.17129363 -0.1346556 -0.15430231 -0.04063988 -0.14961796 -0.13094188 0.05870562
-0.13002478 0.025684573 -0.15689132 0.14922856 0.055078316 0.14656065 -0.015301666 0.09291678
-0.023906747 0.16232942 0.0091739595 0.15376575 0.06794205 -0.14873593 -0.16280775 0.16800557
0.137994 -0.08295787 -0.113511994 -0.1684244 0.14914054 -0.10624389 0.14791833 -0.19332089
0.21959496 -0.042851333 -0.013512528 0.12606435 0.09463901 -0.035628445 0.0027104511 0.048447892

layer3.bn2.weight f4 [8]
00000000: e3ed 7d3f 26a1 803f ec83 7a3f f1e7 7f3f
00000010: f4d2 823f f5b4 7a3f e09f 853f 5207 813f
0.9919111 1.0049179 0.97857547 0.9996329 1.0220628 0.9793237 1.0439415 1.0080359

layer3.bn2.bias f4 [8]
00000000: 61b1 aab8 ff01 2a3c 15b8 4cbc 90dd 043c
00000010: 1b7a 7c3d 2822 b639 4b26 20ba d6cd 6b3c
-8.139271e-05 0.0103764525 -0.01249506 0.008109465 0.061639886 0.00034739194 -0.0006109222 0.014392337

layer3.bn2.running_mean f4 [8]
00000000: acd1 14be 1bf3 1ebe a956 693d 1d9b 74bd
00000010: d8fb acbd c406 2f3e 8c9e a9bd fe30 053e
-0.14533108 -0.15522425 0.05696741 -0.05971824 -0.08446473 0.17092425 -0.082821935 0.1300697

layer3.bn2.running_var f4 [8]
00000000: 44aa e13e 0787 fc3e e84b ee3e c892 e13e
00000010: 0b35 e33e 3a47 ee3e 4a03 e23e bcda e43e
0.44075215 0.49321768 0.46542287 0.44057298 0.44376406 0.46538717 0.44143134 0.4469813

layer3.fc1.weight f4 [2, 8]
00000000: f1e3 753d 1d3a 62bd 2bc4 b3be cdc9 29bd
00000010: 6ff2 a8be 00e4 173e 2c77 dd3c 72d9 023e
00000020: ae16 e2bd 1da2 95be bc49 1fbe bae1 f7bd
00000030: 6ad9 7abe ec08 a63d db98 adbb 5e55 2e3e
0.060031835 -0.055231202 -0.35110602 -0.041452218 -0.32997462 0.14833069 0.027034365 0.12778261
-0.11039482 -0.29225245 -0.15555471 -0.12103601 -0.24497 0.081071705 -0.005297763 0.17024752

layer3.fc1.bias f4 [2]
00000000: 857f 7b3e 45b0 543e
0.24560364 0.20770366

layer3.fc2.weight f4 [8, 2]
00000000: 9a30 d6be f4db b3be 5814 c4be 8444 ef3e
00000010: 859d 313f 62e9 183f 4eda dd3e 9e2e a73e
00000020: d9a0 1dbf 3dac e53b 3992 be3c 9582 0fbf
00000030: e02d 12bf 9625 26bf 2309 ff3e 0001 e13e
-0.41833955 -0.35128748 -0.3829677 0.4673196 0.6938098 0.59731114 0.43330616 0.32652754
-0.6157356 0.007009058 0.023263084 -0.5605863 -0.5710125 -0.649011 0.49811658 0.43946075

layer3.fc2.bias f4 [8]
00000000: f847 e0bd 6312 b93c c39d 15be ea1c 61be
00000010: 0ee9 003f d56a 8b3e 7746 1c3f 16f2 293f
-0.10951227 0.022591775 -0.14610963 -0.21983686 0.50355613 0.27229944 0.6104502 0.6638502

layer3.shortcut.0.weight f4 [8, 4, 1, 1]
00000000: 75d4 38be 80f7 c1be 8b7c 45bd bc56 a2be
00000010: ab76 9cbe d87f abbd 293c 853e 6301 bdbe
00000020: 6ccb c9bd bb43 89be 3bdc 21be 390e f33d
00000030: 58d6 a3be 2237 103d df63 a9bd 575a bc3e
00000040: 0346 913e 2ed2 f6be 6960 d6bb c3de 87be
00000050: a481 a13e 28c2 bebe 4e16 b7bd 586b 283c
00000060: 8767 433e 7243 e53e 9649 84be 691f 8b3e
00000070: f966 00be 68de c73e 8e40 be3c aa2a 9a3e
-0.18049796 -0.3788414 -0.048214477 -0.31706798 -0.30559286 -0.08373994 0.2602246 -0.3691512
-0.09853253 -0.26809487 -0.15806668 0.11867947 -0.3199947 0.03520883 -0.08271002 0.36787674
0.28373727 -0.4820723 -0.0065422547 -0.2653714 0.3154422 -0.37257504 -0.08939801 0.010279499
0.19082461 0.4477802 -0.25837392 0.27172402 -0.12539281 0.3903687 0.023224141 0.30110675

layer3.shortcut.1.weight f4 [8]
00000000: e3ec 7d3f 38e8 803f b47c 7d3f 10d3 7f3f
00000010: e57c 833f 2646 823f c074 773f c59b 803f
0.99189585 1.0070868 0.99018407 0.9993143 1.027249 1.0177658 0.9666252 1.0047537

layer3.shortcut.1.bias f4 [8]
00000000: 8669 acbb 24f3 c53c e0cf 1dbc 617f 393c
00000010: 1972 8a3d c718 883c 4969 aa3b 54df 0c3c
-0.005261603 0.02416379 -0.009632081 0.011321873 0.06760044 0.016613377 0.0052005392 0.008598167

layer3.shortcut.1.running_mean f4 [8]
00000000: 811f b5be e357 75be bb13 f9bd d4ac 243d
00000010: 85d7 21be d13a 87bc 7b7a 873e ac71 513e
-0.35375598 -0.23959307 -0.121619664 0.040203884 -0.1580487 -0.016507538 0.26460633 0.20453519

layer3.shortcut.1.running_var f4 [8]
00000000: a0da ed3e fbc4 043f 651a ea3e 814c fa3e
00000010: dfa6 013f 8516 ff3e 5cf5 fa3e 5810 f53e
0.4645586 0.5186307 0.45723262 0.48886493 0.5064525 0.4982187 0.4901532 0.47864032

layer4.conv1.weight f4 [8, 8, 1, 3]
00000000: ae61 d4bd 3247 593e 4bc8 70bd a4e0 463e
00000010: 7b22 de3d 00c0 823b b5f3 363d a0b7 dd3d
00000020: c462 3a3e 0168 efbb 0067 a9bc 979d 813d
00000030: 42f7 05be 2938 6f3e 0c6b f93d 2af7 eb3c
00000040: a63a 1cbc 0cb2 58bc 6e6f 04be 7d69 3dbe
00000050: 8f37 e33d a94f 263e fa6f febd 2d15 1a3e
00000060: d269 fd3d c9f7 48be 9ebc 24be d9ed c73d
00000070: 9cb2 723d dd0a 85bd 2932 4e3e f917 2bbe
00000080: 3623 3f3e fb3b fc3d 7e98 0a3d 4822 4e3e
00000090: bbd0 ff3d 56c8 bd3d 0d62 ffbc e270 4a3d
000000a0: 02c4 073e f57f b13d eb23 383e c300 0f3e
000000b0: 3734 bc3d fc64 08be 76bd 95bd ee7a ed3c
000000c0: aacd 10be 967a b13d e034 403e ae32 3dbe
000000d0: 1f26 f23c ec20 123e 1686 273e 50a2 60bd
000000e0: e755 303e dd94 9ebd 8307 19be 81cb 0e3d
000000f0: 512f 223d 6c54 7fbb e9e9 023e 70e2 39be
00000100: 0491 203e 808e ddbd 4e82 37be 5e54 013d
00000110: d2da ecbb b230 3cbe 2f3e bebd 536a 893d
00000120: 59fd 36be 2cc9 0f3d a649 eabd 4b6a 13be
00000130: cced f13d 35dd d43b 1eb5 2c3e 3c60 14be
00000140: c0f1 ab3c fb88 f6bb 4b72 a8bd 0ad2 3fbd
00000150: 92ee 173e 53f1 833e 28c8 363e d28f 493e
00000160: a776 0aba cb96 bc3d f74a 38be e130 8fbd
00000170: 18cc 4e3e af3a 663d a1f5 b3bd a503 e83c
00000180: 7235 f03d 8d2e b63d 7070 ba3d aed5 303e
00000190: 1704 fbbd c9ba 213e 721a 9f3c bfd5 213e
000001a0: d474 373d 5f1f 983d 5c5d 413e 29fa 0c3d
000001b0: edaf a73d cc34 3e3e 7ac6 223e 0bde adbc
000001c0: e8d4 1c3e c0ae 163d 8ef1 c53d efcb 263e
000001d0: 1567 f63d d577 023e cc58 bebc 123f 493e
000001e0: 7c07 5d3c 45e7 7bbd 2ae1 84bd 907e 1a3e
000001f0: bdbd 11be c80a c6bd 46be debd 651b 7ebe
00000200: 0531 463e 406f 39be 6c94 8fbe 2209 2cbe
00000210: 705b 103c e88d fb3d d66b 77bd 739d 4ebe
00000220: 68d6 1dbd c41b 2cbe 7df5 373d 38c1 2f3e
00000230: 1186 05be f9b3 3bbe b45e 4c3d 1f5c 5ebd
00000240: d5b7 95bd f945 fcbd fadc 7f3d 674b 5a3d
00000250: 2401 103e 3d69 ffbc dfcf b23c 4bbf 723e
00000260: 066c dbbd 70fe 433e 0475 9dbd 4120 c63c
00000270: fb8e 50be f477 26be 898e 213d 3360 443e
00000280: 8155 23be e721 503d 2793 bf3d 9e21 d6bd
00000290: 6d48 f13d 93a9 9bbd b688 85bc 3a30 53bd
000002a0: 5013 343c 4cdd 013e 68ba b8b9 ceeb 9bbd
000002b0: 038d 393e 85af f6bd 2376 293e 4b50 503e
000002c0: d75b 7ebc db33 673c e786 bd3e a280 393e
000002d0: caa1 d53d 3f20 81be 6768 15be c776 3a3e
000002e0: 4984 243e bda9 a73d 0ada 363e da72 983a
000002f0: aebc efbd afc4 b3bd 317a d73d 9fa7 1b3e
-0.103701934 0.21218565 -0.058784764 0.19421631 0.108464204 0.0039901733 0.04466601 0.10826039
0.18201739 -0.0073060994 -0.020678997 0.06328886 -0.13082603 0.23361267 0.12178621 0.02880438
-0.009535467 -0.013226043 -0.12933132 -0.18497272 0.11094581 0.16241325 -0.124237016 0.1504714
0.12373699 -0.19625773 -0.16087577 0.09762163 0.059252366 -0.06496213 0.20136322 -0.16708364
0.18665776 0.12316128 0.033836834 0.20130265 0.12490984 0.09266727 -0.031174684 0.04942406
0.13258365 0.08666984 0.17982452 0.13965134 0.09189647 -0.13319772 -0.073115274 0.028989282
-0.14140955 0.086659595 0.1877017 -0.18476364 0.029559193 0.14270371 0.16359743 -0.054842293
0.17220269 -0.07743237 -0.14944272 0.034862045 0.039595906 -0.0038960231 0.12784542 -0.18152785
0.15680319 -0.10818195 -0.17920801 0.0315746 -0.007228234 -0.18377951 -0.09289204 0.06709733
-0.17870082 0.03510396 -0.114398286 -0.14396016 0.11812934 0.0064960965 0.16865966 -0.14489836
0.020989299 -0.0075236536 -0.08224925 -0.04683117 0.14837101 0.25770053 0.17849791 0.1968377
-0.0005281963 0.09208449 -0.17997347 -0.06991745 0.20195043 0.05620831 -0.08787084 0.02832205
0.11728944 0.088955976 0.09103477 0.17269012 -0.122566395 0.15793909 0.01942179 0.15804194
0.04478915 0.074278586 0.1888327 0.03441826 0.08187852 0.18574828 0.15896025 -0.021224042
0.15315592 0.03678775 0.096652135 0.16288732 0.1203138 0.12741025 -0.023235701 0.19652966
0.013490554 -0.061499853 -0.06488259 0.15087342 -0.14232536 -0.09670025 -0.108761355 -0.24815138
0.19354637 -0.18108845 -0.28042924 -0.16800359 0.008810863 0.12282926 -0.060405575 -0.2017725
-0.03853455 -0.16807467 0.04491185 0.17163551 -0.13039424 -0.18330373 0.049895003 -0.054287072
-0.07310454 -0.12318034 0.0624666 0.053294566 0.14062935 -0.031178111 0.021827636 0.23705785
-0.10713963 0.19140029 -0.076883346 0.024185302 -0.20367043 -0.16256696 0.039442573 0.19177322
-0.15950586 0.05081358 0.09354239 -0.10455631 0.11781392 -0.07600703 -0.01630054 -0.051559664
0.010990933 0.12682074 -0.00035234098 -0.076133355 0.18120198 -0.120451964 0.16548972 0.2034313
-0.015524826 0.014111484 0.37016985 0.18115476 0.104312494 -0.25219914 -0.14590608 0.18209372
0.16066088 0.08186672 0.17856613 0.0011630908 -0.1170591 -0.08777749 0.10521353 0.15200661

layer4.bn1.weight f4 [8]
00000000: 2513 793f df41 823f d704 813f 7010 823f
00000010: 0379 803f 0d7a 793f c52c 813f 3adc 7e3f
0.9729484 1.0176352 1.0079602 1.0161266 1.003693 0.9745186 1.0091788 0.9955479

layer4.bn1.bias f4 [8]
00000000: 59cd 423c 4398 a33b 9c22 533c 2648 023d
00000010: 254e 043d ddf3 bdbc adcc 943c 2188 a83c
0.011889779 0.0049925162 0.0128866695 0.031807087 0.032301087 -0.023187572 0.018164003 0.020572724

layer4.bn1.running_mean f4 [8]
00000000: 00d3 e53d 1864 7a3b 070c 0abd ca08 87bc
00000010: fc2a 803e 7eb6 80bc be31 22be 4dbc 3d3e
0.11221886 0.0038206633 -0.033702876 -0.016483683 0.25032794 -0.015712019 -0.15839288 0.18528862

layer4.bn1.running_var f4 [8]
00000000: 7ed6 fa3e 23da ea3e c611 ea3e ae1e ef3e
00000010: e1ad eb3e 9ad0 f23e b6d7 e63e 07c8 fc3e
0.4899177 0.4586955 0.45716685 0.46703094 0.46031097 0.47424775 0.4508645 0.4937136

layer4.conv2.weight f4 [8, 8, 1, 3]
00000000: bcc6 41be 0aa9 8dbd 2d20 4b3e 19fd 2b3e
00000010: 3507 1f3e 9bb0 63bd 0599 883d d4f8 cd3d
00000020: 44b4 f23c ab68 4dbe a827 9bbd a1f7 983d
00000030: f941 3dbe 34dd 163e 46e1 123e ff24 413e
00000040: 3bbb 6b3e 0b8d 0c3e 853d d3bc 0ef5 113e
00000050: 0575 123e 6ca2 cb3c 301a 84bd 333a 2d3e
00000060: 3229 1ebe e059 bfbd 1f51 7c3d b474 143e
00000070: cf5e 41be 54e6 bb3c 2e02 1d3e 99c1 8dbd
00000080: c6b7 febd 65de 683d 3323 1cbe 028c e2bd
00000090: ea92 10be e3ed 9bbd 3b2d c5bd 64df 76bc
000000a0: 95cb 54bd 9609 483e 789c 82bd c09e b23d
000000b0: da74 e63c 5bd1 debd 6115 0e3e 7c56 51bd
000000c0: 690d 123d 692f 993d 0d9f 223e b827 4c3e
000000d0: 11a6 fa3d a17d 32be 11e0 2ebc 65fd a23d
000000e0: 5530 293e ec98 223d 1722 063e 9e4c 7fbd
000000f0: 1ef3 f0bd 816a 833d 6272 3cbe aba3 2bbe
00000100: 0f6a afbd 94a4 593d d2dc 8cbd 19ee a8bd
00000110: aeeb 113e ef46 433e a29e 3cbe 08d8 10be
00000120: f1b1 87bd 6b5d acbd b02d 833d 47ca 393d
00000130: 9017 b9bd 4f33 9b3d c9f2 39bd a2d9 5bbe
00000140: 993c 793d e0a2 c83d 4ea1 5dbe bf6d 283e
00000150: b7f0 d7bd a388 c0bd 65cd 4f3e 104b 3cbe
00000160: c4ac d43d daeb 8e3d 516b e2bd 9610 103c
00000170: 9075 243e 7500 0e3e 6509 48bb e5c0 2fbd
00000180: 358d e2bd 16c4 4ebe b7ee 7abc d7a1 31be
00000190: 90b6 b6bd e3bc 1dbe 634b 44be ef70 eebc
000001a0: df5e afbc 5673 21be f29d 3e3e 08cc fa3d
000001b0: d10f 173d dfc9 a3bd ef9c 8c3d 03ab 2abe
000001c0: e122 85bc c6ff a03b bc35 fcbd 0cf6 3fbd
000001d0: 5798 f03d 0ca6 5dbd d657 75be 68c4 423e
000001e0: ab3e 2fbe 31d3 a3bd b8b1 2ebe 839b 6a3d
000001f0: b08d 1e3d cf23 3e3e 5d43 463e eb92 fb3d
00000200: a7fb 883d 6c54 1dbe f075 293e 3dcb 033d
00000210: 9bff 3e3e 5f14 28be 63d3 98bd cc68 1c3e
00000220: 0cd6 2b3e c050 033e f393 073e d448 89be
00000230: 5aa1 623d cb6f d5bd ddd3 58bd fe5a 343d
00000240: 95b3 24bd ccab c4bd 0f6b 8c3d d0c3 b73d
00000250: 47c4 4a3e df86 3e3e 3a51 a1bd 9aa2 98bd
00000260: afe4 863d ffc1 4dbe 4852 873d a771 453e
00000270: d4ea 303e 1463 443b a2ea a4bd ed68 16be
00000280: c35e 03be 3335 20be 6d70 803b 4edc 4cbd
00000290: e5fb e93d 3ed8 96bc 4655 4bbe 29f9 cb3d
000002a0: 72c9 b13d 0894 c6bd 9cd2 4abe 011a 863d
000002b0: d22f 7e3c 3036 96bd 8098 4bbd 6355 49be
000002c0: a2b7 043e a02b c13d 17c2 813d 79c7 90bd
000002d0: 88a4 0c3e fbaf 893e 7492 113e 2f10 f2bb
000002e0: 3b5e 803b 9b74 3abe 720a 1cbe 22d8 48be
000002f0: 1c82 22be 81ec 84bd 4be6 2e3e 8454 123d
-0.18923467 -0.06917007 0.19836493 0.16795768 0.15530093 -0.055588346 0.06669811 0.10057226
0.029626973 -0.20059459 -0.07575923 0.074691065 -0.18482198 0.1473282 0.14343747 0.18861769
0.23020642 0.13725679 -0.02578617 0.14253637 0.14302452 0.024857722 -0.06450307 0.16916732
-0.15445402 -0.09343314 0.0616008 0.14497644 -0.18883823 0.022936977 0.15332863 -0.069216914
-0.12437396 0.056852717 -0.15247802 -0.110618606 -0.14118543 -0.07613733 -0.09627768 -0.015067909
-0.051951963 0.19534907 -0.063775 0.087216854 0.028131891 -0.10879775 0.13875343 -0.05110787
0.03565732 0.07479746 0.15880986 0.19937027 0.12238706 -0.17430736 -0.010673539 0.079584874
0.16522343 0.03969662 0.13098942 -0.062328927 -0.11765121 0.064167984 -0.18403009 -0.16761653
-0.08565151 0.05313547 -0.06878056 -0.082485385 0.14250061 0.19070028 -0.18419889 -0.1414491
-0.066257365 -0.084162556 0.064051986 0.045358922 -0.09037697 0.07578146 -0.045397554 -0.21469739
0.060848806 0.09796691 -0.21643564 0.16448115 -0.105439596 -0.094010614 0.20293196 -0.18388009
0.10384515 0.06978579 -0.11055625 0.008793017 0.16060472 0.13867362 -0.0030523178 -0.042908568
-0.11062089 -0.20191988 -0.015315703 -0.17346893 -0.0892154 -0.15404086 -0.19169383 -0.029106585
-0.021407543 -0.15766653 0.18614939 0.12245947 0.036880318 -0.07997488 0.0686587 -0.16666798
-0.016251983 0.004913303 -0.123149365 -0.046865508 0.117478065 -0.054113433 -0.23959288 0.19020236
-0.1711375 -0.07999266 -0.17059982 0.057277214 0.038709342 0.18568347 0.19361635 0.12283882
0.06688624 -0.15364236 0.16548896 0.032176245 0.18652193 -0.16414021 -0.07462194 0.15274352
0.16780871 0.12823772 0.13240032 -0.26813376 0.055329658 -0.104217134 -0.052936424 0.04403209
-0.040210325 -0.0960308 0.06856357 0.08972895 0.19801436 0.18606137 -0.07876821 -0.07452889
0.06586587 -0.20093535 0.06607491 0.19281636 0.1727708 0.0029966282 -0.08052565 -0.14688464
-0.12829117 -0.15645294 0.003919652 -0.050014786 0.11424998 -0.01841366 -0.19856748 0.09959633
0.08681001 -0.096962035 -0.19806904 0.065479286 0.015514331 -0.07334554 -0.049705982 -0.19661479
0.12960675 0.09432149 0.06335848 -0.070692964 0.13734639 0.26892075 0.14216024 -0.007387183
0.003917483 -0.18208544 -0.1523836 -0.19613698 -0.15869945 -0.06490422 0.17080037 0.03572513

layer4.bn2.weight f4 [8]
00000000: 9a68 813f 9e6a 7b3f d1d0 6f3f 38d3 7e3f
00000010: 0464 7e3f 2039 7e3f 0a75 833f c732 833f
1.0110047 0.9820956 0.93678004 0.99541044 0.9937136 0.99305916 1.0270092 1.0249871

layer4.bn2.bias f4 [8]
00000000: 68c9 c13a 4def 28bb 9f75 dabb bad4 1ebb
00000010: b8fd 053c e573 623c bfe6 1dbc 178a 6b3c
0.0014784755 -0.00257774 -0.0066668536 -0.0024235682 0.008178167 0.013821577 -0.009637534 0.014376185

layer4.bn2.running_mean f4 [8]
00000000: ae02 e13d f6d7 81bd cda5 633d b4d0 1bbe
00000010: 7055 c0bd 217c 15bb 6bd2 9bbd 0d92 88bc
0.10986839 -0.063400194 0.05557804 -0.15216333 -0.09391296 -0.0022809582 -0.076084934 -0.016671205

layer4.bn2.running_var f4 [8]
00000000: 12bf ec3e d315 f33e c445 ea3e 7e10 ed3e
00000010: b018 e53e f2b2 ef3e 23be e63e eef6 ed3e
0.46239525 0.47477588 0.45756352 0.46301645 0.44745398 0.46816212 0.45066938 0.46477455

layer4.fc1.weight f4 [2, 8]
00000000: 2ce5 e3bd 424c a2be 2c74 2abe a2ad d13c
00000010: d5b5 8abe 242d c13d 06ad 39be 06a9 bf3c
00000020: 9641 cbbc f2ef 3a3e 987a b03e 0a4d 883d
00000030: 58fa a2bb ff11 92bd 4704 a1be 3875 663e
-0.111276954 -0.31698805 -0.16645879 0.02559549 -0.27091852 0.09432438 -0.1813241 0.023396026
-0.024811547 0.18255594 0.34468532 0.06655319 -0.004973691 -0.07132339 -0.31448576 0.22505653

layer4.fc1.bias f4 [2]
00000000: bd64 11be 4d40 eebc
-0.14198585 -0.029083395

layer4.fc2.weight f4 [8, 2]
00000000: 9ba1 c2be 8e7d 3bbe 1715 9d3e b755 23bf
00000010: 3b8f 153f 981e 1b3f 23d2 adbe 4464 a6be
00000020: c047 383d f372 84be 3841 74be 6645 483e
00000030: ac4d f33e e822 1a3d 9693 1f3f 5f4a 2abe
-0.3801392 -0.18309614 0.30680153 -0.63802665 0.5842168 0.6059356 -0.33949384 -0.32498372
0.0449903 -0.2586895 -0.23853004 0.19557723 0.47520196 0.037630945 0.62334573 -0.16629933

layer4.fc2.bias f4 [8]
00000000: ab82 76be 052b f3be 25b8 fb3e 2dc7 423d
00000010: 7da4 cbbd ce3a 08bf f0f0 833e d6ca 7fbe
-0.24073283 -0.4749376 0.4916393 0.04755323 -0.09943483 -0.5321473 0.25769758 -0.2497972

layer5.conv1.weight f4 [16, 8, 1, 3]
00000000: ff6e d23d 6dce be3d be52 0c3e 4a39 f93b
00000010: 8f8a 5c3e da3f 1d3e 433a dbbd b89d 24bd
00000020: d11a 0e3e ac71 0c3e 5a32 96bd 1c61 0b3e
00000030: 565e 08be ccf2 723d d4b9 aa3d 79c0 283e
00000040: c860 58bd e482 3d3e a631 9a3a 544e 993d
00000050: 8e38 2f3e 376b 23be 7e35 dcbc bb76 e73d
00000060: 71eb 4abc c2e0 15be 235c 0fbe 8e06 1ebe
00000070: ff10 92bd 60bf 21be 004a cdbd 449b 313e
00000080: b292 4c3e ddd6 27be 1424 143e dfcd 0d3e
00000090: 2e62 0d3e 44c5 b53d 68f2 753d a551 2bbb
000000a0: 1fb7 f43d db84 dabd 70a4 2dbe 3a64 303e
000000b0: 4820 adbd 9b3c f83d 768b 113c 12a1 20be
000000c0: bca4 15bb d985 8f3d c682 93bd 4d81 9fbd
000000d0: 0c77 d13d 7161 86bd a629 a63b eac0 f23d
000000e0: 2a34 19be 7ec0 73bc bce7 853c 9ff6 cbbd
000000f0: 3405 bb3d 4540 ffbd 3d16 1cbe 5f59 85bd
00000100: eab9 803d 5a2e d4bc 156d 2e3e 67e1 eebd
00000110: 7272 7bbd cc17 353c 5c34 883e 700a 4e3e
00000120: 4206 ecbd ddea afbd 727d 9ebd 28ee d8bd
00000130: 4db6 adbc 83c0 b9bd 0d22 82bb 3935 4cbd
00000140: 4aff 46be 1019 a03c caea edbd 78c2 183e
00000150: ce9c fa3d 5b09 7bbe aefd 4bbe cb89 bf3d
00000160: 9b85 273d fd17 05be 783e 7fbc c673 40be
00000170: 5dd4 33be 1579 80bd 23b7 1cbe d593 07bd
00000180: cfe2 c8bc 8fbb c93d 3fb8 b3bd c33f 2d3d
00000190: 085f 193e 1dec 20be 2b1b 48be 804e bf3c
000001a0: ec21 db3d e5b1 813d 15ae 80bd 4cdc cc3d
000001b0: 0573 7e3c 317b 5a3e 467d d3bc fb75 413e
000001c0: 8723 673d 53a7 b9bd 82e8 103e f839 433e
000001d0: 7601 a43d ea08 e8bd 00d7 48be 1660 edbd
000001e0: 1d81 303d 14a5 d93d b07a 153c fe1b 41bd
000001f0: a7e1 793e 253c 2c3e 1ada 583d 649f 523e
00000200: b4bc 18bc c22d 16bc b3c9 bfbc 1e23 94bd
00000210: 7b7f 123e 81fe 31be d34b aebd c192 28be
00000220: 7827 cdbd 75c3 12be de8c 00be 4bc6 aabd
00000230: 4ed7 f63d 00d6 323e 5040 823d f176 3ebe
00000240: cc48 e83d 90b8 b33d a4d5 343e c24b 0a3c
00000250: 132c ab3d 9e08 d9bd 685b 3fbe 5528 47be
00000260: df39 2abe 5f39 393e fdd1 273e f53f c23d
00000270: 2853 af3d 52d4 1a3e b549 413d 8cc4 f13c
00000280: 7717 42be ccf9 143e 418b 0e3e 88bb 4e3d
00000290: fec3 31be 10e0 643d c35d 3ebe 9f53 283e
000002a0: 239c 1cbe ae39 373e 4c74 e13d 56d8 023e
000002b0: 7b59 7b3c 77a6 2cbe e2dd 4a3e 5734 f53c
000002c0: 8f21 ec3c 8380 313e fe3f 92bd efb0 323e
000002d0: dbda d63d cd21 c33b 1a31 2e3d 4aa2 353e
000002e0: 42f4 533e 27fe ecbd c996 2e3e 2061 b83c
000002f0: 9821 23be b4a6 3abd e40f 0bbe 63a3 edbd
00000300: 3c6e a3bd 80b4 443b ad6e eb38 ab64 09bd
00000310: 9b2a 183e 6b42 183c bee6 d2bd 700d 683d
00000320: 047c de3d 0c61 f43d b66a c0bd 7ed7 243c
00000330: 974f 9fbd 9cad 8d3d 62b1 c6bc bd0a c03c
00000340: ffc0 e9bd 4adc b2bd 3600 3fbe 7a00 3f3e
00000350: 07ca 2e3e 4eaa 293e 3bc6 79be 4a47 00be
00000360: d60d 243e 48bb b6bd 913f 363e e08e 2a3e
00000370: cb79 b6bd c220 a33d 1130 38be 1a63 883d
00000380: c6b4 c0bd e094 20bc be27 6e3d a592 f2bc
00000390: 39b7 95bd e1b9 1bbe 90dc cc3d 0fce 4dbd
000003a0: 61ff 453d 0a6c 433e d073 0a3b 44de 8a3d
000003b0: 59a0 14bd 721a 413d 5dc9 4a3e 44ff f03d
000003c0: db4c 0ebd 2ab8 3bbe f810 c23c 1272 423d
000003d0: 58fe 97bd 5080 a03d aa30 193c ba2c 133e
000003e0: 9067 1ebd 680d 6f3c 96e9 13be fc00 313e
000003f0: 07ef 353e f138 103e e516 4b3d 888d 86bd
0.10275077 0.09316716 0.13703439 0.0076057063 0.21537231 0.15356389 -0.10704472 -0.040189475
0.13877417 0.13715237 -0.073338225 0.13611263 -0.13317236 0.05931358 0.08336225 0.16479672
-0.052826673 0.18506962 0.0011764064 0.07485643 0.17111418 -0.15958868 -0.026880976 0.11301943
-0.012385235 -0.1463652 -0.13999991 -0.15432188 -0.07132148 -0.1579566 -0.1002388 0.17344385
0.19977835 -0.16390558 0.14466888 0.13848065 0.13806984 0.08875516 0.06004563 -0.0026141193
0.1194899 -0.106698714 -0.16957259 0.17225733 -0.08453423 0.121209346 0.008883348 -0.15686443
-0.0022833785 0.07007951 -0.072026774 -0.07788334 0.102277845 -0.06561554 0.005070883 0.11853202
-0.14961305 -0.014877437 0.016345851 -0.099591486 0.09131852 -0.1246343 -0.15242858 -0.06511187
0.0628546 -0.025901008 0.17033799 -0.11664086 -0.06138844 0.011053037 0.26602447 0.20121169
-0.11524631 -0.085897185 -0.077387705 -0.105923 -0.021205092 -0.09069922 -0.0039713443 -0.049855445
-0.19433323 0.0195432 -0.11617048 0.14917934 0.12236939 -0.24515288 -0.1992099 0.09352454
0.0408989 -0.12997432 -0.015578859 -0.18794164 -0.17561479 -0.062730946 -0.15304236 -0.033099968
-0.024522213 0.09850227 -0.087753765 0.042297136 0.14977658 -0.1571507 -0.19541614 0.023352861
0.106998295 0.06332759 -0.062832035 0.10002956 0.0155303525 0.21336056 -0.025816571 0.18892662
0.056430366 -0.09065118 0.14151195 0.19065082 0.08008091 -0.11329825 -0.19613266 -0.115905926
0.043091882 0.10627189 0.009123489 -0.047145836 0.24402486 0.16819818 0.052942373 0.20568615
-0.009322334 -0.009166183 -0.023411607 -0.072332606 0.14306442 -0.17382242 -0.08510556 -0.16462232
-0.10017294 -0.14332373 -0.12553737 -0.08338603 0.12052785 0.17464447 0.06359923 -0.1860006
0.1134201 0.08775437 0.17659622 0.008440914 0.08358016 -0.10597347 -0.18687212 -0.19448979
-0.16623639 0.18088292 0.16388698 0.09484855 0.08560783 0.15120056 0.047189433 0.029512666
-0.18954264 0.14548415 0.13920309 0.050471812 -0.17359921 0.055877745 -0.18590455 0.16438149
-0.15293936 0.17893097 0.1100851 0.12777838 0.015341158 -0.16860376 0.19811204 0.029932184
0.028824596 0.1733418 -0.07141112 0.17450307 0.10490962 0.005954957 0.042527296 0.1773769
0.20698646 -0.11571913 0.17049707 0.02250725 -0.15930784 -0.045569137 -0.1358028 -0.11603429
-0.0798001 0.0030014813 0.00011226288 -0.03354327 0.14860003 0.009293179 -0.10297917 0.05665344
0.10863498 0.11932573 -0.093953535 0.010061143 -0.077788524 0.06917879 -0.024254505 0.02344262
-0.11413764 -0.08733423 -0.18652424 0.18652526 0.17069255 0.16568872 -0.24392025 -0.12527195
0.16020903 -0.0892244 0.17797686 0.16656065 -0.08909949 0.079652324 -0.17987086 0.06659527
-0.0940948 -0.00980112 0.05814337 -0.029610941 -0.073103376 -0.15207626 0.100030065 -0.05024534
0.04833925 0.19084182 0.0021126159 0.06780675 -0.036285732 0.04714436 0.19803376 0.11767438
-0.034741264 -0.18331972 0.023689732 0.047472067 -0.07421559 0.07836974 0.009349981 0.1437253
-0.038672984 0.014590599 -0.14444575 0.17285532 0.17766963 0.14084221 0.04958238 -0.06569964

layer5.bn1.weight f4 [16]
00000000: fe60 793f 4766 843f c1e7 813f f910 7e3f
00000010: 9d11 813f 66ba 7e3f 4182 803f b41c 813f
00000020: 446f 7b3f a53b 7c3f 6280 7e3f fe29 803f
00000030: 7fb5 7f3f 393e 833f dcb1 783f 54a3 803f
0.97413623 1.0343713 1.0148851 0.9924465 1.00835 0.9950317 1.003975 1.0086884
0.9821665 0.9852851 0.99414647 1.0012815 0.99886316 1.0253364 0.9714639 1.0049844

layer5.bn1.bias f4 [16]
00000000: acb1 91bc deb5 8e3c ccb4 493c 3107 66bc
00000010: 74a9 903a a226 1cbc fe0e 9a3c cde0 243c
00000020: 3aa1 643b f6db bcbb e6d7 9bbb e18e 3a3c
00000030: 3499 e83a 2fc4 f83c 6360 10bc 148e 8cbb
-0.017784916 0.017420705 0.012311172 -0.0140398005 0.0011036829 -0.009530695 0.018805977 0.010063362
0.0034886138 -0.005763526 -0.0047559617 0.011386604 0.0017745853 0.030366985 -0.008812043 -0.004289398

layer5.bn1.running_mean f4 [16]
00000000: bf0c 7c3d 69cb 4a3e 130d ed3d 8e9d bebe
00000010: 9d00 293e c868 7ebb 5c73 893d 56bd 8c3d
00000020: 11b7 b63c 8c08 803d 5ae0 0dbe e502 7abe
00000030: fbad 413e 3bc4 8abd 6229 79bb 2285 cdbd
0.061535593 0.19804157 0.11574759 -0.3722958 0.1650414 -0.0038819779 0.06711456 0.068720505
0.02230409 0.0625163 -0.13855115 -0.24415167 0.18914025 -0.06775709 -0.003801905 -0.10035159

layer5.bn1.running_var f4 [16]
00000000: 40f8 e33e 7ac3 f43e 7e40 fb3e 1c1f 033f
00000010: bca6 043f 9004 fe3e fdf6 ee3e 6d29 073f
00000020: 2357 ef3e 41ac ff3e ab17 0d3f 37fe f43e
00000030: e091 fb3e 3d14 093f 12a9 f13e 5c79 e73e
0.44525337 0.47805387 0.4907264 0.51219344 0.51816916 0.49612856 0.46672812 0.52797586
0.46746168 0.49936107 0.5511424 0.478502 0.4913473 0.53546506 0.47199303 0.45209777

layer5.conv2.weight f4 [16, 16, 1, 3]
00000000: ef40 cc3d 5937 b23d af10 56bc 3b52 e83d
00000010: f3ea 643c ec99 a1bd 1323 e23d 816a 8d3d
00000020: 1a11 10be 8172 a2bd 1268 d83d 4d7d 893d
00000030: 0dd0 a0bd b4f7 a33c aad9 7fbd a707 8d3c
00000040: 7163 dc3d da02 d8bb 310c bfbb 8f7b 0abe
00000050: 2a15 423d 840d 113e 6920 2fbc 8d11 d7bd
00000060: 2348 e7bd b8df b0bc 5e16 a3bb 029f cdbd
00000070: 09e1 043e 702a 0b3e b06d 6a3c 05d7 e3bd
00000080: 085d 083c c115 63bd a947 593d 03b9 61bc
00000090: 9ad9 8cbc ba95 d0bc 58f3 ab39 bef7 d83d
000000a0: cb63 183d 5614 fdbd 8a51 b4bd 3992 9abd
000000b0: 744f 0f3e 2b84 0ebd a1b4 2b3e 75d7 49bc
000000c0: dff3 c13d 469b 8c3d 9e89 a73d 0251 bd3d
000000d0: e916 063e 3ff1 9dbb 184c 043e be8e f7bc
000000e0: 230d f2bd e85b 923d 09ea 0e3d 0a73 ac3d
000000f0: d655 073e a6f1 9b3c ce7f a9bd 8e03 a43d
00000100: 66da bfbd 5e4b f9bd fac3 e6bd 4613 0a3e
00000110: 88c5 b3bd 88b0 6e3d 72ef 50bd 3b61 c53d
00000120: 2d18 80bd 1429 193d 0e67 8abd 04ff 133d
00000130: d8c3 733d f995 bebb 0710 0cbe 0423 ea3d
00000140: 86ad 8c3b 8a23 ee3c db77 39bd cc8f 0dbe
00000150: 94e0 d03d 56f3 dbbd db22 ccbd efd3 08bb
00000160: 81ba 0f3d 0d41 a5bc dbeb 78bd cb41 ca3c
00000170: 7d9d dbbd 6aff e53d 8c3b 12be 55fc c1bd
00000180: 80a6 bbbd 5012 263d 155a a53b 1735 3a3d
00000190: 2666 86bd d4d5 cf3d 226b fc3d cdd3 e9bd
000001a0: f637 b03d f452 ef3d f8da 813c f702 d9bc
000001b0: 2f31 e63d 91c3 9fbc 90b9 f33c 5122 803c
000001c0: 5b8d 033d 821c 8e3d 9e2b 7bbd 45ec 9e3d
000001d0: 78f5 01bd 4d75 c83d dc0e a9bd 7fb7 5dbd
000001e0: 8b4e e03d 04b6 2bbd 5211 23bd af32 b1bd
000001f0: 8ab6 e1bd b339 bdbd 4627 26bd b73f bb3b
00000200: 07ca d63c da1e 08be 0628 f53d d466 b5bd
00000210: 1037 a23a 5775 943d 99db 04bd a80f f13d
00000220: 0633 983d 0d1a 963d e53d 82bd e215 11be
00000230: 59fe acbd 6577 eb3d 5fa8 48bc 8b80 1bbd
00000240: c468 043e 4ee9 6dbd d26f 423c 4ced de3d
00000250: b183 0e3e 1649 ad3c 0d08 d53d b934 bb3d
00000260: 2d2b 98bd 2bf4 5abd b94b 9a3c 100c 8abd
00000270: 03b1 f0bd bb4d b8bd c76c 33bd c602 2f3d
00000280: 78e7 833d 77a1 4abc 6079 193d 248a 0ebb
00000290: a22e 00be d451 f73d 4092 81bd a744 863d
000002a0: 7b17 2aba d08a 9b3d 7170 0abe 9389 cabd
000002b0: bd67 ea3c 7dba a53c 921b 23bd 9b14 39be
000002c0: 357b c4bd 5356 fabc df53 15bd f25a 08be
000002d0: c92a 113d df89 67bd dae4 62bd 51db 91bd
000002e0: 11d6 8dbd 26f5 953d a1b1 723d 520d a13d
000002f0: a7f0 063e b598 d63b a9db 0dbd 6949 a03d
00000300: da48 75bd af46 033e 14a7 cc3d b31e bfbd
00000310: 11b1 ad3c d3e7 f63c 71e6 87bd c3d9 073e
00000320: 9143 1abd 7398 0a3e e12c f73d 6311 49bd
00000330: 137c 733d 8af8 e0bd bc8c cd3d 0ed8 013e
00000340: 9404 e33b 2b7f 8dbd 33c5 a33d 6a2d cd3c
00000350: 0969 c5bd 0aad 673d 34f3 12be 1a88 3a3d
00000360: 8f0e a6bc de21 e83c 0411 a8bd ab43 e13b
00000370: ffc8 ad3d 81fd febd 5f8a 8dbd 94c2 62bd
00000380: 04b2 8c3d 21de fdbd 5965 ecbd bc45 e4bd
00000390: b998 143d ca76 bfbd 6fc7 ccbd c366 8cbc
000003a0: f2ee d53d 9774 0dbe e21f bb3c 0b7c ecbd
000003b0: 2d6e 6b3b fe5c 0bbd 042b 853d a89f 59bd
000003c0: c036 e5bd 130f e1bd 05cc 8c3c a0c3 8a3d
000003d0: 05ad 7c3d 0bd5 2fbd 4794 033e 6d4a 003e
000003e0: 2c22 b63d 625b 8bbd a7a8 17bd c9e0 0ebe
000003f0: 484f ba3d 00f8 e7bd fa8a c3bd 0c8d 00be
0.099733226 0.08701963 -0.013065501 0.11343809 0.013972032 -0.078906864 0.11041846 0.0690508
-0.14069024 -0.07931996 0.10566725 0.06713352 -0.078521825 0.020015575 -0.06246344 0.017215563
0.107611544 -0.006592137 -0.0058303108 -0.13523696 0.047383465 0.14165312 -0.0106888795 -0.105013944
-0.11293056 -0.021591052 -0.0049770316 -0.10040094 0.12976469 0.13590407 0.014308378 -0.11124996
0.008322962 -0.055440668 0.053046856 -0.01377702 -0.017193604 -0.02546202 0.00032796967 0.10594128
0.037204545 -0.123573944 -0.08804615 -0.07547421 0.13995153 -0.034794014 0.16768123 -0.012319435
0.09470343 0.068655536 0.08180545 0.09243967 0.13094677 -0.0048200185 0.12919652 -0.030219432
-0.11818912 0.07146436 0.034891162 0.084203795 0.13216338 0.019036125 -0.0827633 0.080084905
-0.09367828 -0.12172578 -0.11267848 0.13483915 -0.087779105 0.058273822 -0.051009603 0.09637686
-0.06254611 0.03739269 -0.06757937 0.036131874 0.059512943 -0.005816218 -0.13677989 0.1143246
0.0042931465 0.02906968 -0.04528032 -0.13824385 0.10199085 -0.10739772 -0.09967586 -0.0020878275
0.035089973 -0.02017262 -0.060771804 0.024689576 -0.10723398 0.11230357 -0.14280528 -0.09471957
-0.09162617 0.040544808 0.005046139 0.045460787 -0.06562452 0.10148206 0.123251215 -0.11417351
0.08604424 0.11685744 0.015851483 -0.026490672 0.1123985 -0.019502433 0.029751569 0.015641363
0.03211723 0.06939031 -0.061320893 0.077599086 -0.031728238 0.09787998 -0.08254787 -0.054130074
0.10952481 -0.04192163 -0.03981144 -0.08652245 -0.11021145 -0.09239521 -0.040564798 0.0057143825
0.026219381 -0.13293019 0.119705245 -0.088575035 0.0012376029 0.07248943 -0.032435987 0.11770564
0.07431607 0.073291875 -0.06359462 -0.14168504 -0.084469505 0.11497382 -0.012247174 -0.037964385
0.1293059 -0.058083825 0.01186748 0.108851045 0.13917424 0.021153014 0.10401926 0.091409154
-0.0743011 -0.053455513 0.018834936 -0.06740582 -0.11752512 -0.08999201 -0.04380491 0.042727254
0.064406335 -0.012367598 0.037469268 -0.0021749819 -0.12517789 0.12076154 -0.06326723 0.06556063
-0.0006488484 0.07594836 -0.13519455 -0.098895214 0.02861392 0.020230526 -0.039821215 -0.18074267
-0.095938124 -0.03055874 -0.03645694 -0.13315943 0.035441194 -0.05652797 -0.05539403 -0.071219094
-0.069255956 0.07322149 0.05925143 0.07863869 0.13177739 0.006548966 -0.034633312 0.07826502
-0.05988393 0.12819932 0.09992805 -0.09332027 0.021202596 0.03013984 -0.0663575 0.13266663
-0.037662093 0.13534717 0.12069107 -0.049088847 0.0594445 -0.10984905 0.100366086 0.12680075
0.006928036 -0.06909021 0.07996597 0.02504607 -0.096391745 0.056561507 -0.14350587 0.045539953
-0.020270614 0.028336462 -0.082063705 0.0068745217 0.084856026 -0.12450696 -0.06911158 -0.055361345
0.06869891 -0.12395883 -0.11542768 -0.11146113 0.03627846 -0.09348829 -0.099989764 -0.017138844
0.10445966 -0.13814007 0.022842351 -0.11547097 0.0035923824 -0.03402423 0.06502345 -0.053130776
-0.11192083 -0.10989203 0.017187128 0.06775594 0.06168844 -0.042927783 0.12849532 0.12528391
0.088932365 -0.06804539 -0.037026074 -0.13952936 0.09097153 -0.11326599 -0.09547992 -0.12553805

layer5.bn2.weight f4 [16]
00000000: 6a9b 793f f66b 7e3f d00f 803f 5688 7d3f
00000010: 65a5 843f 9793 803f 7316 7d3f 0b13 7d3f
00000020: 1c60 873f c645 7b3f e59e 803f 525a 7c3f
00000030: 0eba 823f 0dd3 7a3f cda7 833f 011b 8b3f
0.9750277 0.99383485 1.0004826 0.9903616 1.0362974 1.0045041 0.9886238 0.9885718
1.0576205 0.9815334 1.0048491 0.9857532 1.0213029 0.9797829 1.0285584 1.0867616

layer5.bn2.bias f4 [16]
00000000: fdbc dabc 64bd 57bc a609 46ba 1138 72bb
00000010: 029c 1d3d 72bf 143c c268 e5bd 127d 42bb
00000020: ba77 f23d b025 cbbc 229f 0f3d 32ff e6bc
00000030: dd65 c33c a0fe 50bc 86c4 4f3d 1a72 313e
-0.026701445 -0.013167713 -0.00075545383 -0.0036959688 0.03847886 0.009078847 -0.112016216 -0.0029676598
0.11839242 -0.024798244 0.03506387 -0.028197858 0.023852283 -0.01275602 0.05072453 0.17328683

layer5.bn2.running_mean f4 [16]
00000000: 9785 be3d 5588 4c3d 4456 9bbc 628f e7bc
00000010: 006d 443c 64f6 763d 1bef fb3d 3a36 38bd
00000020: bab5 383d d161 87bd 044c 14bd ab1d 763c
00000030: 6c27 4f3d 8dfc a03d 1845 7dbd 6d57 23bd
0.09302824 0.049934704 -0.018962033 -0.028266612 0.011988878 0.06029357 0.12301465 -0.04497359
0.045095183 -0.06610454 -0.036205307 0.015021722 0.050574705 0.0786067 -0.06183347 -0.039878298

layer5.bn2.running_var f4 [16]
00000000: e8b7 ef3e 6f08 e63e 96ce eb3e 63f1 e43e
00000010: 6c91 ef3e 1de7 ed3e 6d8b 003f 5226 ed3e
00000020: 4c87 f43e 0328 e43e 5b79 e63e aeb8 e73e
00000030: fabc e93e cfcb e63e 0992 ea3e 3a2d f53e
0.46819997 0.4492831 0.4605605 0.44715413 0.46790636 0.46465388 0.50212747 0.463183
0.47759473 0.44561777 0.45014462 0.45258087 0.4565199 0.4507737 0.4581454 0.47886068

layer5.fc1.weight f4 [4, 16]
00000000: d98a 6cbc 9315 bebd c47d b83d 3ea3 3dbc
00000010: 9c8c 773e 73e3 13be eba2 3c3e 7967 b43d
00000020: 9eab 72be 9f86 6bbe ea2e 4a3e faca 3c3e
00000030: aaf6 f93d 47df 2f3e d545 143e ec20 d73c
00000040: 28ea ba3d f092 bc3a 0b3b 203e be8e dfbd
00000050: 9021 29be 5679 553e 2188 103e ce3f 203e
00000060: 05ec 673e 553b 553e 921a 3f3e 9f54 90bb
00000070: 0a67 7fbe 69df 2fbe b625 ef3d addd 8cbd
00000080: f841 7fbd 38f9 eebc 1c27 e93d c948 18ba
00000090: 875b 2ebe fe72 773e 0f9a 0cbd b4a0 f83b
000000a0: c795 5fbe 5288 f93c 315e 6dbe 184d 68bd
000000b0: f8b3 31be c3d0 72bd 80a7 e13d 0597 ba3d
000000c0: be31 fa3d 3d44 4abe 857a 3bbe 55b2 893d
000000d0: ea7c 5dbe 1834 6cbe a821 41be 0fd8 c43d
000000e0: 231d 573e f937 083d db38 1b3d eccb 3fbe
000000f0: b7fe efbd 21a9 2dbe 2ec1 8ebc c282 913d
-0.014437401 -0.09281459 0.09008363 -0.0115745645 0.24174732 -0.14442234 0.18421523 0.08808798
-0.2369828 -0.23000573 0.19744459 0.18436804 0.122052506 0.17175017 0.14479764 0.026260816
0.09126693 0.0014387053 0.15647523 -0.10915898 -0.1651671 0.20847067 0.14114429 0.1564934
0.22648628 0.20823415 0.1866248 -0.004404619 -0.2494165 -0.17175068 0.11677115 -0.06878219
-0.062318772 -0.029171571 0.11384413 -0.00058091857 -0.17027102 0.2416496 -0.03432661 0.0075875167
-0.2183448 0.03046051 -0.23180462 -0.056714147 -0.17353809 -0.059281122 0.11018276 0.09110836
0.12216519 -0.19752593 -0.18308456 0.06723467 -0.21629682 -0.23066747 -0.18860495 0.096115224
0.21007209 0.033256505 0.03789602 -0.18730134 -0.11718505 -0.16959049 -0.0174261 0.07105018

layer5.fc1.bias f4 [4]
00000000: d1a2 dc3d 668c 1b3e 640f d8bd 0655 4fbd
0.10773242 0.15190277 -0.105498105 -0.050618194

layer5.fc2.weight f4 [16, 4]
00000000: f570 783e 7595 4b3e 00e0 883e 91d6 6f3e
00000010: 3bfe 8bbe 4b54 f43e e6df bd3e 8c6f bbbd
00000020: e0f2 b3bd dbe8 033e 282d e0bd caf2 d83d
00000030: eab4 64be 53db d63e 3f7f c83d 4ab9 ccbe
00000040: 0154 a3be 612d f43e 1baf c9be 967b 8d3b
00000050: 6375 953d 59c4 f83e 4576 8ebc 89e1 dc3e
00000060: 4396 9fbd 5034 3dbd d6d2 dc3e 0b2c 903e
00000070: 4fd3 f2be 9487 de3e d35b 093e f0da 06be
00000080: 986f 76be d833 d13e 64ce 363e ca4d ffbe
00000090: 9872 a2be bc82 9c3e 86bb 12be df35 6abe
000000a0: 7606 1fbd 4ae6 943e 4913 a23e 5c18 d6be
000000b0: 7ff3 c73e fbc6 dabd c686 8dbd 4c91 203e
000000c0: 408a ffbe e6a5 5c3d e82b 89bb e2d6 4d3e
000000d0: 2422 cbbe 8b23 84be e9bc 39be 8202 163e
000000e0: 8582 fcbe 147d e63e 6f28 1dbb ef8c 47be
000000f0: 8ef0 d43e a39d 9e3d 56d6 e53d 54c2 b6be
0.2426184 0.19881232 0.26733398 0.23421694 -0.273424 0.4772056 0.37084883 -0.09152135
-0.08786559 0.12881796 -0.10946113 0.10593183 -0.22334638 0.41964206 0.09789895 -0.39985114
-0.31900027 0.4769087 -0.39391407 0.004317711 0.0729778 0.485873 -0.01739038 0.4314082
-0.07792332 -0.046192467 0.43129605 0.28158602 -0.4742684 0.43462813 0.13413934 -0.13169456
-0.24066007 0.40859866 0.1785217 -0.49864036 -0.31728053 0.30568492 -0.14329347 -0.22872113
-0.03882452 0.29081947 0.31655338 -0.4181546 0.3905296 -0.10682484 -0.069104716 0.15680426
-0.49910164 0.05386915 -0.0041861422 0.20101503 -0.39674485 -0.25808367 -0.1813847 0.14649394
-0.49318328 0.45017302 -0.00239804 -0.19487356 0.4158978 0.077449106 0.11222522 -0.35695136
