das_new/models/20260106_193002/best_model.pth (torch, 98946 bytes, 176 tensors)

input_conv.weight f4 [4, 1, 1, 3]
0	0xbe97bde6	-0.2963707
1	0xbf02bf77	-0.510734
2	0xbeee7784	-0.46575558
3	0xbdf1c39b	-0.11804887
4	0xbee7bde7	-0.45262071
5	0xbf0a277d	-0.53966504
6	0x3d9759f6	0.073902056
7	0xbefea314	-0.49733794
8	0x3ebd91b9	0.3702524
9	0xbea0433e	-0.31301302
10	0xbeccece3	-0.4002448
11	0x3ea876b8	0.32903075

input_bn.weight f4 [4]
0	0x3f6c0026	0.92187726
1	0x3dc997e2	0.098434225
2	0x3fe9bb61	1.8260309
3	0x3f219118	0.6311202

input_bn.bias f4 [4]
0	0xc064cda7	-3.575052
1	0x407a2257	3.908346
2	0x4080b425	4.0219903
3	0xc09b4a41	-4.852814

input_bn.running_mean f4 [4]
0	0x3a86f9b8	0.0010297811
1	0x3a6f3bfc	0.0009126065
2	0x3a836f61	0.00100277
3	0x3a538d04	0.0008070024

input_bn.running_var f4 [4]
0	0x3e796611	0.24355341
1	0x3e43df5b	0.19128172
2	0x3e6c7cbd	0.23094459
3	0x3e1929eb	0.14957397

layer1.conv1.weight f4 [4, 4, 1, 3]
0	0xbe3c0740	-0.1836214
1	0xbf2d4182	-0.6767808
2	0xbcae6c74	-0.021291949
3	0xbe8759a7	-0.26435587
4	0xc0d57ed0	-6.67173
5	0x3e50f528	0.2040602
6	0x3e797804	0.24362189
7	0xc0f48a47	-7.6418796
8	0x3e6e25ca	0.23256603
9	0xbe801cf0	-0.25022078
10	0x3c82f240	0.015984654
11	0x3dd52ec1	0.10409308
12	0x3c4392de	0.011936871
13	0x3e495852	0.19662598
14	0x3dab659d	0.083689906
15	0xbe74df36	-0.23913273
16	0xbe396c73	-0.18107776
17	0xbda042d0	-0.078252435
18	0xbdab22c8	-0.08356243
19	0x3c6cf965	0.014463757
20	0xbe4c339a	-0.1994156
21	0xbe088ae7	-0.13334237
22	0xbd45e651	-0.04831535
23	0x3c299958	0.010351501
24	0xbde857fa	-0.11344905
25	0x3e1c8d4f	0.1528828
26	0x3e0b81c1	0.13623716
27	0x3e4fd372	0.20295504
28	0x3df0f81a	0.117660716
29	0xbdfda4f8	-0.12384981
30	0xbe4397d2	-0.19100884
31	0x3ea483ad	0.3213171
32	0xbe23dd27	-0.16002332
33	0xbe83f034	-0.25769198
34	0x3ea34e23	0.3189555
35	0x3e8289c8	0.25495744
36	0x3e665900	0.22494888
37	0x3f8ee8c9	1.116479
38	0xbddd5929	-0.108080216
39	0xbdd58bf7	-0.10427087
40	0x3fc7b411	1.5601827
41	0x3e268d68	0.1626488
42	0x3e62daa2	0.22153714
43	0x3fe3c258	1.7793684
44	0xbe261bcd	-0.16221543
45	0xbe741c09	-0.2383882
46	0x3f56b4b9	0.8386951
47	0x3d0fe5dc	0.03513132

layer1.bn1.weight f4 [4]
0	0x3f8bb8cc	1.091577
1	0x3f559cab	0.8344218
2	0x3f81f961	1.0154229
3	0x3f58f809	0.8475347

layer1.bn1.bias f4 [4]
0	0x3e59be36	0.21263966
1	0x3d682cf7	0.056683507
2	0x3e902edf	0.2816076
3	0xbe105e82	-0.14098552

layer1.bn1.running_mean f4 [4]
0	0xc2658cae	-57.387383
1	0xbf265803	-0.64978045
2	0x3fe3382d	1.7751518
3	0x415637b3	13.388598

layer1.bn1.running_var f4 [4]
0	0x432e8853	174.53252
1	0x385a9701	5.2115884e-05
2	0x3e952302	0.2912827
3	0x411776f3	9.46654

layer1.conv2.weight f4 [4, 4, 1, 3]
0	0xbd6e23ba	-0.05813954
1	0x3eed83fe	0.46389765
2	0xbca84457	-0.0205404
3	0xbe3c9cec	-0.18419236
4	0xbe9308be	-0.28717607
5	0x3e88d105	0.2672197
6	0xbdc69485	-0.096962966
7	0x3f2b4e1c	0.6691606
8	0x3e3c88fe	0.18411633
9	0xbdc3478b	-0.0953513
10	0x3eadc742	0.33941084
11	0x3d9d6825	0.076858796
12	0xbc4ad654	-0.012380201
13	0xbfa792d7	-1.3091687
14	0x3d127588	0.035756618
15	0x3e05cca8	0.13066351
16	0xbf36496a	-0.7120577
17	0xbccde246	-0.02513231
18	0xbe4dcc43	-0.20097451
19	0xbe4af8b2	-0.19821432
20	0x3e11ce89	0.14238943
21	0x3c9c09a6	0.01904757
22	0x3d718722	0.058966763
23	0xbd17e248	-0.037081033
24	0xbe1f8f62	-0.1558204
25	0xbf18347c	-0.59455085
26	0xbe7a388b	-0.24435632
27	0xbe6ad3df	-0.22932385
28	0xbfd01bf2	-1.6258528
29	0x3dcd1ac1	0.100148685
30	0x3e574a96	0.21024546
31	0x3e7d1cd5	0.2471803
32	0x3e179e85	0.14806564
33	0xbe222cd7	-0.15837418
34	0x3e95c30f	0.2925038
35	0xbe067b58	-0.1313299
36	0xbdf51398	-0.11966628
37	0xbe29dfcf	-0.16589282
38	0xbd3d0382	-0.046145923
39	0xbc8d15dd	-0.01722234
40	0xbd1bf0bd	-0.038071383
41	0x3e612997	0.21988522
42	0x3de44c65	0.111473836
43	0xbea24b4f	-0.3169808
44	0x3b981019	0.004640591
45	0xbe02f1ad	-0.12787504
46	0xbea2b418	-0.31778026
47	0xbe1b30f0	-0.15155387

layer1.bn2.weight f4 [4]
0	0x3f66968e	0.9007348
1	0x3f8c0dbc	1.0941691
2	0x3f8048ad	1.0022179
3	0x3f5a45ac	0.8526256

layer1.bn2.bias f4 [4]
0	0xbe6849c1	-0.22684385
1	0x3e11a908	0.14224637
2	0x3e3ecabd	0.18632026
3	0xbd7d8f53	-0.061904263

layer1.bn2.running_mean f4 [4]
0	0x3f2218ff	0.6331939
1	0xbf858a41	-1.0432817
2	0xbf270cbf	-0.65253824
3	0xbebe81a1	-0.37208274

layer1.bn2.running_var f4 [4]
0	0x3db32059	0.08746404
1	0x3f722c69	0.94599015
2	0x3e9af63a	0.3026598
3	0x3d3b2a76	0.04569479

layer1.fc1.weight f4 [1, 4]
0	0x3db80973	0.08986177
1	0x3d454d42	0.048169382
2	0x3ee1bb0e	0.44088024
3	0x3ec07540	0.37589455

layer1.fc2.weight f4 [4, 1]
0	0x3f548c27	0.83026356
1	0xbf0ab8fe	-0.54188526
2	0xbf524eab	-0.8215129
3	0x3ea7bad2	0.3275972

layer1.fc2.bias f4 [4]
0	0x3e8afc59	0.2714565
1	0xbf38e090	-0.72217655
2	0xbf332841	-0.699833
3	0xbf5c340c	-0.8601692

layer1.shortcut.0.weight f4 [4, 4, 1, 1]
0	0xbe76c908	-0.24100125
1	0xbe600d83	-0.21880154
2	0xbeda89ee	-0.42683357
3	0xbee9026c	-0.4550966
4	0xbebe61a9	-0.37183884
5	0xbe911e54	-0.2834345
6	0xbf2044e5	-0.62605125
7	0xbe509b53	-0.20371751
8	0xbe105e00	-0.14098358
9	0x3f14a704	0.58067346
10	0x3f28df96	0.65966165
11	0xbe3a1ffe	-0.18176267
12	0xbc2e5a14	-0.0106415935
13	0x3c3c6aa8	0.011500038
14	0xbe793ca5	-0.2433954
15	0xbe507200	-0.20355988

layer1.shortcut.1.weight f4 [4]
0	0x3f5ce6de	0.86289775
1	0x3f6b8e1e	0.9201373
2	0x3f7187e9	0.9434801
3	0x3f76b2c0	0.963665

layer1.shortcut.1.bias f4 [4]
0	0xbde115c3	-0.10990479
1	0x3e3ff719	0.18746604
2	0x3e46ca0c	0.19413012
3	0xbd5979f2	-0.05309481

layer1.shortcut.1.running_mean f4 [4]
0	0xc0269546	-2.602861
1	0xc06aefdb	-3.6708896
2	0x409f1e0b	4.9724174
3	0xbf7359e3	-0.9505903

layer1.shortcut.1.running_var f4 [4]
0	0x3f05d0ca	0.5227171
1	0x3f8ef48c	1.116838
2	0x3fa69a0b	1.301576
3	0x3e231747	0.15926848

layer2.conv1.weight f4 [4, 4, 1, 3]
0	0x3e77be99	0.24193801
1	0x3dc34513	0.09534659
2	0xbd284a4e	-0.041086487
3	0x3e0fe2c2	0.14051345
4	0x3c66734e	0.014065577
5	0x3d4e05c5	0.05029847
6	0x3dc2b40c	0.095069975
7	0x3ce4bc99	0.027921962
8	0xbd7283da	-0.059207775
9	0x3e5169b9	0.20450486
10	0x3edf9ec6	0.43675822
11	0x3e3965d8	0.18105257
12	0xbc8ee351	-0.017442377
13	0xbd0082f5	-0.03137489
14	0x3c195bfb	0.009360309
15	0x3e756558	0.23964441
16	0x3e120561	0.14259864
17	0xbd1bd63d	-0.03804611
18	0x3e262bf2	0.16227701
19	0xbec6c2a8	-0.38820386
20	0x3d863060	0.065521955
21	0x3dad4f3c	0.084623784
22	0xbd3a1d03	-0.045437824
23	0xbe3c8d29	-0.18413223
24	0xbe17e8d4	-0.1483491
25	0xbf451720	-0.7698841
26	0x3e5c06e8	0.2148701
27	0x3e6c39d5	0.23068936
28	0x3ea4326b	0.32069716
29	0xbe08b614	-0.13350707
30	0x3e6e0994	0.23245841
31	0xbe45173d	-0.19247146
32	0xbc079e6f	-0.00827752
33	0xbe11bfdc	-0.14233345
34	0xbee513a0	-0.44741535
35	0x3c81fc73	0.015867447
36	0xbe021310	-0.12702584
37	0x3e91d538	0.28482985
38	0x3db08a8f	0.08620178
39	0x3e16c63b	0.14724056
40	0x3f9cb1a6	1.2241714
41	0xbde86368	-0.11347085
42	0x3e5996a8	0.21248877
43	0xbf190737	-0.59776634
44	0x3d3d016e	0.04614394
45	0x3e5757d3	0.21029596
46	0x3f34f4c8	0.70686007
47	0x3d896dab	0.06710371

layer2.bn1.weight f4 [4]
0	0x3f550d0a	0.8322302
1	0x3f785946	0.9701122
2	0x3f891440	1.0709305
3	0x3f6da37b	0.92827576

layer2.bn1.bias f4 [4]
0	0xbc26dff3	-0.01018523
1	0x3d0496ae	0.03237026
2	0x3dcc51e1	0.09976555
3	0xbd91e68d	-0.07124052

layer2.bn1.running_mean f4 [4]
0	0x3ea0f567	0.31437227
1	0xbe9a6f81	-0.30163196
2	0xbf0c2673	-0.5474617
3	0x3f054fd0	0.5207491

layer2.bn1.running_var f4 [4]
0	0x3deebb98	0.116568744
1	0x3cf2fb2b	0.029660782
2	0x3f25ee11	0.64816386
3	0x3f90fee9	1.1327792

layer2.conv2.weight f4 [4, 4, 1, 3]
0	0x3e2c896a	0.16849294
1	0xbe44cdea	-0.19219175
2	0xbe6f37c3	-0.23361115
3	0xbde2b682	-0.11069967
4	0xbc765408	-0.015034683
5	0xbe39a188	-0.18128026
6	0xbe45cb1f	-0.19315766
7	0xbee9ba7f	-0.45650098
8	0x3d0b5f1d	0.034026254
9	0x3e6742af	0.22584032
10	0x3ecb2fce	0.3968491
11	0x3e52a527	0.20570813
12	0x3e0555b9	0.13020982
13	0x3e8becc4	0.27329075
14	0x3df573e6	0.119849965
15	0xbdeb4225	-0.114872254
16	0x3eaebe2c	0.34129465
17	0x3d913863	0.07090833
18	0x3e570205	0.20996864
19	0x3e761452	0.24031189
20	0x3e038c90	0.12846589
21	0xbdfa1750	-0.12211478
22	0x3e02b4c4	0.12764269
23	0xbe2f342b	-0.17109744
24	0xbe3b5e0b	-0.18297593
25	0xbf0ce14f	-0.55031294
26	0x3e4df974	0.2011469
27	0x3e8a5ce2	0.2702399
28	0xbf2448a6	-0.6417335
29	0xbe286739	-0.16445626
30	0x3e55ad52	0.20866898
31	0x3f5483a9	0.830134
32	0x3d5ec9b2	0.05439157
33	0xbd0265be	-0.03183531
34	0x3f3bf87a	0.7342602
35	0xbda9da4f	-0.08293592
36	0xbd881ed1	-0.06646503
37	0x3d3166f2	0.043311067
38	0x3e226785	0.15859802
39	0x3e759dd8	0.23985994
40	0x3eb76827	0.3582165
41	0x3d4327e1	0.047645453
42	0x3d92efa1	0.07174612
43	0x3ebed48d	0.37271538
44	0xbd207188	-0.03917077
45	0x3dd6d1f5	0.10489265
46	0x3eba095d	0.3633527
47	0xbe3e9263	-0.1861053

layer2.bn2.weight f4 [4]
0	0x3f8b4372	1.0879958
1	0x3f4fe744	0.8121226
2	0x3f4d816c	0.8027561
3	0x3f9825e9	1.1886569

layer2.bn2.bias f4 [4]
0	0x3d86a549	0.065744944
1	0xbcc2c6dc	-0.023776464
2	0x3e69caea	0.22831312
3	0x3e0d948d	0.13826199

layer2.bn2.running_mean f4 [4]
0	0xbdf84a6e	-0.12123571
1	0x3ecf2110	0.40454912
2	0x3e3c6b7b	0.18400376
3	0x3ef70e9e	0.4825334

layer2.bn2.running_var f4 [4]
0	0x3d301aa1	0.042994145
1	0x3e0419a0	0.129004
2	0x3e865337	0.26235363
3	0x3dfe0a35	0.124042906

layer2.fc1.weight f4 [1, 4]
0	0xbea47ac5	-0.32124916
1	0x3d94a1c2	0.07257415
2	0x3dd767d1	0.10517848
3	0xbe240cda	-0.16020527

layer2.fc2.weight f4 [4, 1]
0	0xbd4d792c	-0.050164387
1	0xbd88983c	-0.066696614
2	0xbec2acc2	-0.3802243
3	0x3da283ad	0.079352714

layer2.fc2.bias f4 [4]
0	0xbf025ab0	-0.5091963
1	0x3f50e996	0.81606424
2	0xbebf7b71	-0.37398866
3	0xbf092a07	-0.53579754

layer3.conv1.weight f4 [8, 4, 1, 3]
0	0xbe320c89	-0.17387594
1	0xbe11652c	-0.1419875
2	0xbd80ba72	-0.062855616
3	0xbe87d287	-0.26527807
4	0xbe861313	-0.26186427
5	0xbda1654e	-0.078806505
6	0xbe8ba0ef	-0.2727122
7	0x3e76839b	0.24073641
8	0x3c72b35b	0.0148132695
9	0xbca38ee7	-0.019965602
10	0x3ec0950c	0.37613714
11	0xbd87a04f	-0.06622373
12	0x3e4d54cc	0.20051879
13	0x3dbc3e2a	0.09191544
14	0xbe8440fb	-0.25830826
15	0x3e2fa58b	0.17152993
16	0xbeb09657	-0.344897
17	0xbe33fcf8	-0.17576969
18	0xb89ccd82	-7.4769385e-05
19	0xbe0e7aa4	-0.13913971
20	0xbdd6db87	-0.1049109
21	0x3e86435a	0.2622326
22	0xbe9ac0a3	-0.30225095
23	0x3d480380	0.048831463
24	0xbd30a98c	-0.043130443
25	0xbe67a96d	-0.22623225
26	0xbe26b1a2	-0.16278699
27	0x3dc4caa4	0.09608963
28	0x3e6e7520	0.23286867
29	0xbd32378b	-0.04351
30	0xbd9ef991	-0.07762445
31	0x3ea4beaa	0.32176715
32	0xbe671bc9	-0.22569193
33	0x3e09c1db	0.13452856
34	0x3d7f88d2	0.06238634
35	0x3bc67363	0.0060562356
36	0x3dba9f33	0.09112396
37	0xbe4eac64	-0.2018295
38	0x3c75eb2b	0.015009682
39	0xbe027ab0	-0.12742114
40	0x3f642fd3	0.89135474
41	0xbd8ffd37	-0.07030719
42	0x3e45b629	0.1930777
43	0x3ea8399d	0.32856455
44	0x3c8c8337	0.017152412
45	0x3d2367df	0.03989398
46	0x3ef8e019	0.48608473
47	0x3e4dc985	0.20096405
48	0xbddf10ae	-0.10891853
49	0xbd5aad8a	-0.053388156
50	0xbdfeda23	-0.1244395
51	0x3e49ed46	0.19719419
52	0xbe5e1164	-0.21686321
53	0xbe89325d	-0.26796237
54	0xbe466966	-0.19376144
55	0x3dbc0563	0.09180715
56	0xbe4259f0	-0.18979621
57	0x3d9cc680	0.07655048
58	0xbd5bb89a	-0.053642847
59	0xbe62943a	-0.22126856
60	0x3e8bd0ab	0.2730764
61	0x3f1dd176	0.6164774
62	0x3c853642	0.016261224
63	0xbe1d9fd2	-0.15392998
64	0xbf35488f	-0.7081384
65	0xbe0c6c8a	-0.1371328
66	0xbd370e76	-0.044691525
67	0xbf1f600a	-0.6225592
68	0xbe0a5ae0	-0.13511229
69	0xbd24bdb9	-0.040219996
70	0xbf574bd9	-0.8410011
71	0x3e0dc878	0.13846004
72	0x3db80f77	0.08987325
73	0xbe26e27c	-0.16297334
74	0xbde42709	-0.11140258
75	0x3d15f89c	0.036614046
76	0xbe1719c4	-0.14755923
77	0xbe67e561	-0.22646095
78	0xbe620d3a	-0.22075358
79	0xbe1712f4	-0.14753324
80	0xbdad29ef	-0.08455264
81	0xbd796d2d	-0.060895134
82	0x3f0817d6	0.5316137
83	0xbe330bbe	-0.17484948
84	0x3e152463	0.14564662
85	0xbe2354da	-0.15950337
86	0x3e40abb6	0.18815503
87	0xbd3d8d1e	-0.046277158
88	0xbd118fcc	-0.035537526
89	0xbe76ddbb	-0.24108021
90	0x3e485bbd	0.19566245
91	0xbeb1a9f4	-0.34699976
92	0xbdce497e	-0.10072611
93	0x3db611e3	0.0889013
94	0x3e7f7a4a	0.24948993
95	0xbe4f9e22	-0.20275167

layer3.bn1.weight f4 [8]
0	0x3f737963	0.95107096
1	0x3f6c15c3	0.92220706
2	0x3f73fef9	0.9531093
3	0x3f66a49f	0.9009494
4	0x3f7ae79a	0.98009646
5	0x3f826dac	1.0189719
6	0x3f6a6d96	0.91573465
7	0x3f723b9e	0.9462222

layer3.bn1.bias f4 [8]
0	0x3d21eeb4	0.039534286
1	0xbd2d087b	-0.042244416
2	0xbca144dd	-0.019686157
3	0xbb9e6402	-0.004833699
4	0x3d2ec934	0.04267235
5	0x3d313e96	0.043272577
6	0x3d5520dd	0.052033294
7	0x3c8e3d1a	0.01736312

layer3.bn1.running_mean f4 [8]
0	0x3edc4579	0.43021753
1	0xbf1831bd	-0.59450895
2	0x3ece4217	0.40284798
3	0x3f9c514f	1.2212313
4	0xbdd0e8ae	-0.1020063
5	0xbfc30e08	-1.5238657
6	0x3e29cba6	0.16581592
7	0xbe9c3a52	-0.30513245

layer3.bn1.running_var f4 [8]
0	0x3c64bf71	0.013961659
1	0x3e2dbc92	0.16966465
2	0x3e2adbdd	0.16685434
3	0x3f0e815c	0.55666137
4	0x3db7b898	0.08970755
5	0x3f1bba9c	0.6083162
6	0x3ed11225	0.40834156
7	0x3e4f68ca	0.20254818

layer3.conv2.weight f4 [8, 8, 1, 3]
0	0x3df02878	0.11726469
1	0x3d59e812	0.053199835
2	0x3c356529	0.011071482
3	0xbdeec13f	-0.116579525
4	0xbd175cc1	-0.03695369
5	0xbdbf4dd0	-0.093410134
6	0xbe38613e	-0.18005845
7	0xbe5bd034	-0.21466142
8	0x3b767c0b	0.0037610556
9	0x3e11d030	0.14239573
10	0xbdcacec0	-0.09902716
11	0xbe2dd1d6	-0.16974577
12	0xbd8de3e0	-0.06928229
13	0x3e095eb7	0.13415037
14	0xbe3a07a5	-0.18166979
15	0x3dd30372	0.103033915
16	0xbc4d0c95	-0.012515207
17	0x3cf0955c	0.029368095
18	0xbe11c3f9	-0.14234914
19	0xbe1fe48b	-0.15614526
20	0xbdbe27d7	-0.092849426
21	0xbd26089c	-0.040535554
22	0xbdddfcb7	-0.10839217
23	0xbddbf0fb	-0.10739323
24	0xbd9833b7	-0.07431739
25	0x3d34fe54	0.04418786
26	0x3e32c0c8	0.17456353
27	0x3e1a0e0b	0.1504442
28	0x3d9ab2f8	0.07553667
29	0x3dc43e41	0.095821865
30	0xbda96a83	-0.082722686
31	0xbc00bf73	-0.007858145
32	0xbd03da65	-0.0321907
33	0xbd11a330	-0.03555602
34	0x3d5d931b	0.05409537
35	0x3d64b6aa	0.055838265
36	0xbd87a681	-0.06623555
37	0x3c08697b	0.00832593
38	0x3d67c198	0.05658111
39	0xbdbe1d73	-0.09282961
40	0x3eaf7c4b	0.34274516
41	0xbdbfe498	-0.09369773
42	0x3e0ac5aa	0.13551965
43	0xbe23c762	-0.15994027
44	0xbcb70275	-0.022340039
45	0xbe136d0d	-0.14397068
46	0xbd30b054	-0.04313691
47	0x3d60fbff	0.054927822
48	0xbda8a56e	-0.08234678
49	0x3e09b26b	0.13446967
50	0x3d7ffff1	0.062499944
51	0x3bfd88bb	0.007737247
52	0xbda7b177	-0.081881456
53	0x3c3f1b4a	0.011664221
54	0x3d8db76b	0.0691975
55	0xbe543974	-0.20725042
56	0xbe24b2c8	-0.16083825
57	0x3e0ccc11	0.1374972
58	0xbd83e9eb	-0.06441101
59	0x3e18107b	0.14850037
60	0xbdc8ccef	-0.09804713
61	0x3eaa4d72	0.3326221
62	0x3ded141c	0.11576101
63	0x3dcef247	0.101048045
64	0x3e0ebc64	0.13939053
65	0xbc182371	-0.009285794
66	0xbd854769	-0.06507761
67	0xbe4d612b	-0.20056598
68	0xbd39d507	-0.045369174
69	0x3dbcc2ad	0.09216819
70	0xbda00b52	-0.07814659
71	0xbe2f2222	-0.17102864
72	0x3ccaff53	0.024779951
73	0x3d8961eb	0.067081295
74	0xbe148ce6	-0.14506873
75	0x3e038b52	0.12846115
76	0xbe79a2b8	-0.24378479
77	0x3d9f9d63	0.07793691
78	0x3dd793c8	0.10526234
79	0xbe4a4ae8	-0.19755137
80	0x3e105cc4	0.14097887
81	0x3def0fcc	0.11672935
82	0x3dfb772e	0.12278591
83	0x3ddf5783	0.109053634
84	0xbe09bfd1	-0.13452078
85	0xbe0725ed	-0.13198061
86	0x3e31c4a8	0.17360175
87	0xbdcb145d	-0.09915993
88	0xbdb789fc	-0.08961865
89	0xbd5120de	-0.051056735
90	0xbbc59db5	-0.006030763
91	0x3d8d8bee	0.06911455
92	0x3d0cfbba	0.034419753
93	0xbe214892	-0.1575034
94	0xbdde4250	-0.10852492
95	0x3ddaf0ea	0.10690482
96	0xbd68ed13	-0.056866717
97	0xbe102f52	-0.14080551
98	0x3d38fef0	0.045165002
99	0x3e210385	0.15723999
100	0xbceb3923	-0.028713768
101	0xbd315fd5	-0.043304283
102	0xbd5e481e	-0.054267995
103	0x3e18eb08	0.14933407
104	0x3d68401b	0.05670176
105	0xbdfe7d26	-0.12426214
106	0x3e4bb02d	0.19891424
107	0xbde59805	-0.11210636
108	0x3e381778	0.17977703
109	0x3d9dcfcb	0.07705649
110	0x3e055ff7	0.13024889
111	0xbc38e75e	-0.011285631
112	0xbe94f160	-0.29090405
113	0xbda975cd	-0.08274422
114	0xbdc06f23	-0.09396198
115	0x3da7fc47	0.08202415
116	0x3db07561	0.08616138
117	0x3e1c4349	0.15260042
118	0xbd8a701d	-0.06759665
119	0xbde40bd2	-0.11135067
120	0x3d106eb8	0.03526184
121	0xbd062804	-0.032753006
122	0x3da41150	0.080111146
123	0x3dda3d9e	0.10656284
124	0x3e5ec99f	0.217566
125	0xbca44615	-0.020052949
126	0x3e38d0f7	0.18048464
127	0xbd90d03e	-0.07070969
128	0x3d90fd6e	0.07079588
129	0xbe2b9b2b	-0.1675841
130	0x3d7024bc	0.058628783
131	0xbc3e34f6	-0.011609307
132	0xbd8a59a9	-0.067553826
133	0x3d488126	0.04895129
134	0xbdd59b1a	-0.10429974
135	0x3e17c68b	0.14821832
136	0x3da61474	0.0810937
137	0x3dfc50a3	0.12320068
138	0xbe2be934	-0.16788179
139	0x3e696fc1	0.22796537
140	0xbe2581ce	-0.16162798
141	0x3e213d65	0.15746076
142	0x3ec96832	0.39337307
143	0x3e368e9e	0.17827842
144	0xbd27b060	-0.04093969
145	0x3f0fc714	0.56163144
146	0xbe155b92	-0.14585713
147	0xbba1e0c0	-0.0049401224
148	0x3d6dd254	0.058061913
149	0xbc8dacc5	-0.017294297
150	0xbd7b6f92	-0.0613857
151	0x3eaef4bb	0.3417109
152	0x3db2690a	0.08711441
153	0x3c2be512	0.010491626
154	0xbc60fa4d	-0.013731551
155	0xbc8c1421	-0.017099442
156	0xbd90f250	-0.070774674
157	0xbe46b2f4	-0.19404203
158	0x3cce5495	0.025186816
159	0xbc088cff	-0.008334397
160	0x3e5b41db	0.2141184
161	0x3d745b15	0.059657175
162	0xbd90101e	-0.07034324
163	0x3e96a710	0.29424334
164	0x3bd89a68	0.0066102035
165	0xbdafb7e9	-0.0858
166	0xbe8f792e	-0.2802214
167	0x3daabe8f	0.083371274
168	0x3d25064c	0.04028921
169	0x3db60570	0.08887756
170	0xbbb36067	-0.0054741385
171	0xbdb8940d	-0.090126134
172	0xbe0240a1	-0.12719966
173	0x3e15b912	0.1462138
174	0x3c58bb0a	0.013228187
175	0x3e5e4945	0.21707638
176	0x3db7a9c9	0.08967931
177	0xbe1ef72b	-0.15523975
178	0x3e92f19c	0.28699958
179	0xbdff9c6e	-0.124810085
180	0xbc7989c5	-0.015230601
181	0xbe487fc7	-0.19579993
182	0x3cac2246	0.021012437
183	0x3dbc67b2	0.09199466
184	0xbe8fb55e	-0.2806806
185	0xbcc18077	-0.023620827
186	0x3d7b9579	0.061421845
187	0x3e9674ee	0.29386085
188	0xbce1486c	-0.027500354
189	0x3ddca1f4	0.107730776
190	0xbd933521	-0.07187868
191	0x3ddb1788	0.106978476

layer3.bn2.weight f4 [8]
0	0x3f672357	0.902883
1	0x3f6101fd	0.8789366
2	0x3f863c44	1.0487142
3	0x3f7abf86	0.9794849
4	0x3f6c587a	0.92322505
5	0x3f946552	1.159342
6	0x3f870554	1.0548501
7	0x3f6e9668	0.9319825

layer3.bn2.bias f4 [8]
0	0xbd1c15ae	-0.038106613
1	0x3d1285df	0.0357722
2	0x3e047e19	0.12938727
3	0x3d860b9d	0.06545184
4	0xbd45d0db	-0.048294883
5	0x3d96ee94	0.07369724
6	0x3cf95122	0.030434195
7	0xbd6f4848	-0.058418542

layer3.bn2.running_mean f4 [8]
0	0xbe230d4a	-0.15923038
1	0x3dffa478	0.12482542
2	0x3ca7dac5	0.02049006
3	0xbe50befc	-0.20385355
4	0xbc9c7e5c	-0.019103222
5	0x3ec498d6	0.38397855
6	0x3eabc6e4	0.3355018
7	0x3d3999aa	0.04531256

layer3.bn2.running_var f4 [8]
0	0x3d1c29b6	0.038125716
1	0x3d244608	0.04010585
2	0x3d5e6533	0.05429573
3	0x3d7a9c96	0.06118449
4	0x3d142d4e	0.03617602
5	0x3e147975	0.14499457
6	0x3e1e8361	0.15479805
7	0x3e8971f9	0.26844767

layer3.fc1.weight f4 [2, 8]
0	0xbe43838e	-0.19093153
1	0xbe5b2370	-0.21400237
2	0xbe4e0233	-0.20118026
3	0x3dad72a9	0.08469135
4	0xbe4fdc20	-0.20298815
5	0x3d14183b	0.03615592
6	0x3e8965d5	0.26835504
7	0xbd4e5f56	-0.05038389
8	0x3d9ea3fe	0.07746123
9	0xbd9426d2	-0.07233967
10	0xbe575ffb	-0.21032707
11	0x3e95ef8b	0.2928432
12	0xbe8b262f	-0.2717757
13	0x3e83525d	0.25648776
14	0xbddcc702	-0.10780145
15	0xbdcde00b	-0.100524984

layer3.fc1.bias f4 [2]
0	0x3d80f298	0.06296271
1	0xbd4760df	-0.048676368

layer3.fc2.weight f4 [8, 2]
0	0xbf049060	-0.517828
1	0x3f26dc40	0.65179825
2	0xbf094147	-0.5361523
3	0xbccda724	-0.025104113
4	0x3f1dc3aa	0.61626685
5	0x3f021337	0.5081057
6	0x3df5ad7f	0.119959824
7	0x3e70c9f3	0.23514538
8	0x3e862a6c	0.2620424
9	0xbf0daef6	-0.55345094
10	0xbed22a17	-0.41047737
11	0xbd7093d4	-0.05873473
12	0xbccb5a27	-0.024823261
13	0xbd54804b	-0.051880162
14	0xbea866a9	-0.32890823
15	0xbf23c5b8	-0.6397357

layer3.fc2.bias f4 [8]
0	0x3cdc552a	0.026896078
1	0xbed21406	-0.41030902
2	0xbdd6840a	-0.10474403
3	0xbf0e665d	-0.55624944
4	0x3e9ea1c3	0.3098279
5	0x3ccf7f43	0.025329238
6	0xbdf7f706	-0.12107663
7	0x3efbb7de	0.49163717

layer3.shortcut.0.weight f4 [8, 4, 1, 1]
0	0xbecb18c5	-0.39667335
1	0xbdf3f79d	-0.11912463
2	0xbec775e9	-0.38957146
3	0xbec233a5	-0.37930027
4	0xbd47f585	-0.04881813
5	0x3e129a33	0.14316635
6	0x3ea2db81	0.31808093
7	0x3e01173b	0.12606518
8	0x3c909715	0.017650167
9	0xbe332695	-0.17495187
10	0x3ea0d301	0.31410983
11	0xbee379e6	-0.4442894
12	0x3de3fd14	0.11132255
13	0x3e3f0c3c	0.18657011
14	0x3edc8e0e	0.4307713
15	0x3e4f6177	0.20252024
16	0xbd62f17a	-0.05540607
17	0xbcae917a	-0.021309603
18	0x3e9fa955	0.31183878
19	0xbeb07906	-0.34467334
20	0x3e9b68f1	0.303535
21	0x3e2b9003	0.16754155
22	0xbf2a62b0	-0.66556835
23	0xbe4a55d0	-0.19759297
24	0x3e0c6119	0.13708915
25	0x3ef3eddf	0.4764242
26	0x3c20e4bd	0.00982016
27	0x3f1f7466	0.62286985
28	0x3ea8ff19	0.33007124
29	0xbe66226a	-0.22474065
30	0xbed3d417	-0.4137275
31	0xbd7af2ac	-0.061266586

layer3.shortcut.1.weight f4 [8]
0	0x3f65318e	0.8952874
1	0x3f82f2af	1.0230311
2	0x3f8f1249	1.1177455
3	0x3f7a25ae	0.97713745
4	0x3f58cf12	0.84690964
5	0x3f5346a1	0.82529646
6	0x3f800a74	1.000319
7	0x3f543cd6	0.8290533

layer3.shortcut.1.bias f4 [8]
0	0xbce1a4ee	-0.027544465
1	0x3ce3988f	0.027782707
2	0x3e27f6ca	0.16402736
3	0x3d924852	0.071427
4	0xbd9f28b7	-0.077714376
5	0x3dc56d2d	0.09639964
6	0x3d9b7363	0.07590368
7	0xbdbaa910	-0.09114277

layer3.shortcut.1.running_mean f4 [8]
0	0xbf9e54f5	-1.2369677
1	0x3f0de954	0.55434155
2	0xbe234973	-0.15945987
3	0x3f6af96c	0.9178684
4	0xbd09ffa4	-0.033691064
5	0xbf2f444d	-0.68463594
6	0x3f825d0d	1.0184647
7	0xbedb1384	-0.42788327

layer3.shortcut.1.running_var f4 [8]
0	0x3f1a2712	0.60215867
1	0x3cc23eba	0.023711551
2	0x3f5d9d10	0.86567783
3	0x3d494053	0.04913361
4	0x3f2684c1	0.65046316
5	0x3ef3e9fb	0.4763945
6	0x3fc44a73	1.533522
7	0x3ebd340c	0.3695377

layer4.conv1.weight f4 [8, 8, 1, 3]
0	0xbd24cbc2	-0.04023338
1	0xbe9cd46f	-0.30630824
2	0xbdb8e176	-0.09027378
3	0x3d64dcf2	0.055874772
4	0x3d4653f8	0.048419923
5	0xbe0fdf37	-0.14049993
6	0x3dcc486d	0.099747516
7	0xbf00ffa0	-0.5039005
8	0xbe09122c	-0.13385838
9	0xbe1e6a59	-0.15470256
10	0x3f1bb88c	0.6082847
11	0xbe3c02ce	-0.18360445
12	0x3d8b4e3c	0.068020314
13	0x3e8f9839	0.28045824
14	0xbe3d305b	-0.18475477
15	0x3dd202ea	0.10254462
16	0xbdafddd6	-0.08587234
17	0xbe11f1d8	-0.14252412
18	0x3d8e76d2	0.06956257
19	0x3ed122a1	0.40846732
20	0x3bf1ff9e	0.0073852083
21	0xbd6289cb	-0.05530719
22	0x3e0fc732	0.1404083
23	0xbd1a2665	-0.037634272
24	0x3db65100	0.08902168
25	0x3ead8a53	0.33894596
26	0x3e2ae2cb	0.16688077
27	0x3d8faee5	0.0701578
28	0xbe292e88	-0.16521657
29	0xbe13fcb5	-0.14451869
30	0xbd362f32	-0.044478603
31	0x3ee4a962	0.4466048
32	0x3e43c3c9	0.19117655
33	0x3e403239	0.18769158
34	0xbec11336	-0.3770997
35	0x3d3e1307	0.046404865
36	0x3d73f174	0.05955644
37	0xbe7aba8b	-0.24485223
38	0xbd34dd33	-0.044156265
39	0xbb83fadb	-0.004027707
40	0x3e9ab33b	0.30214867
41	0xbb27df7b	-0.0025615382
42	0x3e34cb71	0.17655732
43	0xbe0dd43c	-0.13850492
44	0xbd7820a2	-0.060577996
45	0xbdd1656b	-0.10224422
46	0xbdc62c77	-0.0967645
47	0xbd085a67	-0.03328934
48	0xbe2026d0	-0.15639806
49	0x3c9ba58c	0.018999837
50	0x3c9314b2	0.017954204
51	0x3dad6a57	0.08467548
52	0x3d82c106	0.063844725
53	0xbdee28b5	-0.11628858
54	0x3ceb95d5	0.028757969
55	0xbc05fea5	-0.008178388
56	0x3e09ccec	0.13457078
57	0x3e3896a7	0.1802622
58	0x3cdb64e4	0.026781507
59	0x3e3164a2	0.17323545
60	0x3dd27020	0.102752924
61	0xbb9865f5	-0.004650826
62	0xbe41086b	-0.18850867
63	0x3dd1b09e	0.10238765
64	0x3986bced	0.00025699232
65	0xbe336bf6	-0.17521653
66	0x3e08aa25	0.13346155
67	0x3ee14c5a	0.44003564
68	0x3e18db3c	0.14927381
69	0x3e43f975	0.19138129
70	0x3edf55a8	0.43620038
71	0x3ceeb9e4	0.029141374
72	0x3dea7329	0.11447746
73	0xbd326ac7	-0.043558862
74	0x3d021e90	0.031767428
75	0xbdec2393	-0.11530223
76	0xbdbb5224	-0.091465265
77	0xbdc24609	-0.094860144
78	0x3d17d81b	0.03707133
79	0x3d8d7557	0.069071464
80	0xbc8918de	-0.01673549
81	0x3d85bfef	0.06530749
82	0x3e3a28e4	0.18179661
83	0xbd16ae99	-0.036787603
84	0xbdf110b9	-0.11770768
85	0x3e15c90e	0.14627478
86	0x3c84e929	0.01622446
87	0x3d01826d	0.031618524
88	0xbe807a48	-0.25093293
89	0x3dfd79b4	0.12376729
90	0xbe1859ce	-0.14878008
91	0xbe78241c	-0.24232525
92	0xbe430394	-0.19044334
93	0x3e0eb96d	0.13937922
94	0xbe6357b4	-0.22201425
95	0x3df2ece1	0.11861587
96	0x3cd14d3f	0.02554953
97	0xbf115059	-0.56763226
98	0xbe0ea709	-0.13930906
99	0x3e1acd7f	0.15117453
100	0x3e56037b	0.20899765
101	0xbcf82006	-0.030288707
102	0x3e11bcd8	0.14232194
103	0xbf0e79bc	-0.556545
104	0x3dabf2f4	0.08395949
105	0x3d0b2672	0.03397221
106	0x3f4ee2f1	0.80815035
107	0xbe425e53	-0.18981294
108	0xbcf3e380	-0.029771566
109	0x3f237b40	0.6385994
110	0xbd27abd9	-0.04093537
111	0xbcd0d28a	-0.025491018
112	0xbf089dc0	-0.5336571
113	0xbd0fa7f6	-0.03507229
114	0x3b2c1578	0.0026257914
115	0xbe9ef436	-0.31045693
116	0xbe2f1320	-0.1709714
117	0xbcdf2bbb	-0.027242532
118	0xbd8fc118	-0.070192516
119	0x3e14c147	0.14526854
120	0xbd8e10e6	-0.06936817
121	0xbe0db105	-0.13837059
122	0xbd575a19	-0.05257616
123	0x3dd3874d	0.10328541
124	0xbc8fc59b	-0.01755028
125	0x3dd778b8	0.10521072
126	0x3d9323e7	0.07184582
127	0xbe8510ca	-0.25989372
128	0x3ca0b582	0.0196178
129	0xbdc98719	-0.09840221
130	0xbe67d2dd	-0.22639032
131	0xbd92670b	-0.0714856
132	0xbe401c8a	-0.18760887
133	0x3c8581ee	0.016297307
134	0xbe33f8c5	-0.17575367
135	0x3c8c8fe8	0.017158464
136	0xbe736a10	-0.23770928
137	0xbd6ea067	-0.05825844
138	0xb9ab6897	-0.00032693587
139	0xbdf66a17	-0.12031954
140	0x3ced2fe2	0.028953496
141	0x3dd36d27	0.103235535
142	0x3de78714	0.11305061
143	0x3e3ca57a	0.184225
144	0x3d51580a	0.05110935
145	0xbcd25982	-0.025677446
146	0xbe3c6559	-0.18398036
147	0x3d1534cb	0.0364273
148	0xbe220fc0	-0.1582632
149	0x3e44fb55	0.192365
150	0x3e0e839c	0.13917392
151	0xbdac4c5f	-0.08413004
152	0x3d9fbbf2	0.077995196
153	0xbe01c834	-0.12674028
154	0xbe912598	-0.28348994
155	0xbdd06157	-0.10174816
156	0xbdac1cc5	-0.08403925
157	0xbeb0035c	-0.34377563
158	0x3dd66e89	0.10470302
159	0x3d822c0e	0.06356059
160	0x3e802857	0.25030777
161	0x3da63f00	0.08117485
162	0xbd36a9e4	-0.044595614
163	0xbf02af15	-0.51048404
164	0xbdfac7ec	-0.12245163
165	0x3df609e7	0.120136075
166	0x3e67ed9a	0.22649232
167	0x3e36b412	0.17842129
168	0xbda3b221	-0.0799296
169	0xbeb45964	-0.3522445
170	0xbd7e2eaf	-0.06205624
171	0x3dbf10e2	0.09329392
172	0x3e41e6a8	0.18935645
173	0x3d8127ad	0.06306396
174	0xbe262418	-0.16224706
175	0xbeda7869	-0.4266999
176	0x3db925ee	0.09040438
177	0x3e078dca	0.13237682
178	0x3d23974f	0.03993922
179	0xbdb142cc	-0.086553186
180	0x3ddd55e8	0.10807401
181	0xbdcd9b41	-0.10039378
182	0x3cd736d2	0.026271258
183	0xbe321e44	-0.17394358
184	0x3ecfd76d	0.40594044
185	0x3e10da89	0.14145865
186	0x3e44d792	0.19222859
187	0x3e9388a6	0.28815192
188	0xbb208206	-0.0024491563
189	0x3e3a02ae	0.18165085
190	0x3df500f4	0.119630724
191	0xbe44fe36	-0.19237599

layer4.bn1.weight f4 [8]
0	0x3f71a4b3	0.94391936
1	0x3f7e40cd	0.9931763
2	0x3f68d3ff	0.9094848
3	0x3f5efc95	0.8710416
4	0x3f6a9be3	0.91644114
5	0x3f7b779b	0.9822938
6	0x3f7ef655	0.9959462
7	0x3f7a5e42	0.97800076

layer4.bn1.bias f4 [8]
0	0xbd026590	-0.03183514
1	0x3d62cf8e	0.05537372
2	0x3c490efa	0.012271637
3	0xbd975673	-0.07389536
4	0xbd3e5a5d	-0.046472896
5	0x3d33caa2	0.043894418
6	0x3da69d71	0.08135498
7	0x3d0e669b	0.03476582

layer4.bn1.running_mean f4 [8]
0	0x3e835440	0.25650215
1	0x3e7b99d5	0.24570401
2	0x3f196cb6	0.59931505
3	0xbe90cbc6	-0.28280467
4	0xbf114cab	-0.5675761
5	0xbf3d5cb4	-0.7396958
6	0xbf1bd43c	-0.6087072
7	0x3d36e8d5	0.04465564

layer4.bn1.running_var f4 [8]
0	0x4030f905	2.765199
1	0x3f38ac0b	0.72137517
2	0x3f6ad40c	0.9172981
3	0x3ee3a143	0.4445897
4	0x3f973ecc	1.1816039
5	0x3e3ce36c	0.1844613
6	0x3ea1f267	0.3163025
7	0x400329ee	2.0494342

layer4.conv2.weight f4 [8, 8, 1, 3]
0	0x3c955363	0.018228238
1	0xbd97d871	-0.0741433
2	0xbe050087	-0.12988482
3	0xbe2d90d2	-0.16949776
4	0xbe5037d3	-0.20333795
5	0xbe1df359	-0.15424861
6	0xbd11016e	-0.035401754
7	0x3e8acfbf	0.27111623
8	0xbe242c03	-0.16032414
9	0x3e01fb67	0.12693559
10	0x3da09b47	0.07842117
11	0x3e24571c	0.16048855
12	0xbb2b2d4d	-0.002611953
13	0x3dd67690	0.10471833
14	0x3e3a237b	0.18177597
15	0x3da104ef	0.07862269
16	0x3d9fce2a	0.078029945
17	0xbe3466a6	-0.17617282
18	0xbdcada9a	-0.09904976
19	0xbd95cbe2	-0.07314278
20	0x3dfdeea0	0.1239903
21	0x3e227174	0.15863591
22	0xbe6828a8	-0.22671759
23	0x3cf632f8	0.0300536
24	0xbe00ed79	-0.12590589
25	0xbe92d9d8	-0.28681827
26	0x3cb2f278	0.021844134
27	0xbb080ba1	-0.0020758884
28	0x3e3ed937	0.18637548
29	0x3cd92511	0.026506932
30	0x3e18694e	0.1488392
31	0xbe24b7b3	-0.160857
32	0xbdd511a6	-0.10403757
33	0x3e2f2691	0.17104556
34	0x3cc23102	0.02370501
35	0xbe3540e7	-0.1770054
36	0x3dbb82dd	0.091558196
37	0xbe95e71d	-0.29277888
38	0xbe006980	-0.12540245
39	0x3e3f3e08	0.18676007
40	0xbc73c9c1	-0.014879645
41	0x3dca1bb3	0.098685645
42	0xbdae23e6	-0.08502941
43	0xbc646165	-0.013939236
44	0x3daf0498	0.08545798
45	0xbd9db931	-0.07701338
46	0xbc951727	-0.018199516
47	0x3e409cbb	0.18809788
48	0x3d0599c1	0.032617334
49	0xbd8fe75f	-0.070265524
50	0x3dd175ef	0.10227572
51	0x3ddfad90	0.10921776
52	0x3e92ef3c	0.28698146
53	0xbe3ed794	-0.18636924
54	0xbe0d5c24	-0.1380468
55	0xbe428e45	-0.18999584
56	0xbe2314ea	-0.15925947
57	0xbc2c72e0	-0.010525435
58	0x3e016dee	0.12639591
59	0x3de81d35	0.11333696
60	0xbd9d85cc	-0.07691535
61	0x3d6b236b	0.057406824
62	0x3d52b895	0.051445562
63	0x3b27faf0	0.0025631748
64	0x3d2cf7ef	0.042228635
65	0xbe3fe255	-0.18738683
66	0xbd5fa548	-0.054600984
67	0xbe98262e	-0.2971663
68	0x3dc0a3af	0.0940622
69	0xbd3bc327	-0.04584041
70	0xbe227812	-0.15866116
71	0xbdfda453	-0.12384858
72	0x3dfcdc2a	0.123466805
73	0xbf02123b	-0.5080907
74	0x3e23ea1d	0.16007276
75	0xbd45f409	-0.048328433
76	0x3bb92616	0.005650292
77	0x3d1a18b5	0.03762122
78	0x3dbe79db	0.09300586
79	0x3e247037	0.16058432
80	0x3dc64b6d	0.09682355
81	0x3e1112ab	0.14167278
82	0xbe6f3f45	-0.23363979
83	0xbe3187df	-0.17336987
84	0xbdfd293a	-0.12361379
85	0x3d064318	0.03277883
86	0x3e081745	0.13290127
87	0x3e1da68b	0.15395562
88	0xbf015317	-0.5051741
89	0x3b213108	0.0024595875
90	0xbe28d687	-0.16488086
91	0xbdc5fec2	-0.09667732
92	0xbd7bb9d4	-0.061456516
93	0xbdd25adf	-0.102712385
94	0x3e6468f9	0.22305669
95	0x3e2b0ddf	0.1670451
96	0xbd764809	-0.06012729
97	0xbdec513b	-0.11538931
98	0x3e0195fa	0.12654868
99	0xbda31dbd	-0.079646565
100	0xbdbce702	-0.09223749
101	0xbd407164	-0.046983138
102	0xbd9a3e11	-0.075313695
103	0xbe18144a	-0.1485149
104	0xbcca2d81	-0.024679901
105	0xbd9b88b8	-0.075944364
106	0xbe81bbfa	-0.25338727
107	0xbe200fc2	-0.15631011
108	0xbe0e1b5a	-0.13877621
109	0xbe3eb2ae	-0.18622848
110	0xbe2c1376	-0.16804299
111	0xbe1053a7	-0.14094411
112	0x3e44a61e	0.19203994
113	0x3de337c8	0.11094624
114	0xbdc0e95c	-0.0941951
115	0xbd1226b4	-0.03568144
116	0xbd5dc7c7	-0.0541456
117	0x3de83089	0.11337382
118	0xbcaa28cc	-0.020771407
119	0x3d5c529c	0.05378972
120	0x3e46390e	0.19357702
121	0xbdd04a59	-0.10170431
122	0x3e2cd074	0.16876394
123	0xbdade68c	-0.08491239
124	0x3eb524cb	0.35379633
125	0xbe064461	-0.13112022
126	0xbd038643	-0.032110464
127	0xbcf007aa	-0.02930053
128	0xbe06fee9	-0.13183178
129	0x3c3bb7b2	0.011457371
130	0x3e727dec	0.23680848
131	0x3ad7795f	0.001643937
132	0x39e8d8fa	0.00044412148
133	0xbdb6d5e8	-0.08927518
134	0x3e252d16	0.1613048
135	0xbd5f3d9a	-0.054502107
136	0x3d34846e	0.044071607
137	0xbc7318ec	-0.014837485
138	0x3e09682c	0.13418645
139	0xbeacfa46	-0.33784693
140	0xbe21dc8d	-0.1580679
141	0x3de1b48c	0.11020765
142	0xbe9d16a3	-0.30681333
143	0xbe18fd41	-0.14940359
144	0x3d8d0aa7	0.068867974
145	0x3e3791df	0.17926739
146	0x3dbf813d	0.09350822
147	0xbc194736	-0.009355357
148	0xbda04ff1	-0.078277476
149	0xbe0700de	-0.13183925
150	0x3db0179c	0.08598253
151	0xbe15573b	-0.14584057
152	0xbe10a924	-0.14127022
153	0xbe110da4	-0.1416536
154	0x3b2fba71	0.0026814009
155	0x3d212c10	0.039348662
156	0xbcf3824a	-0.029725213
157	0x3e2f39f1	0.17111947
158	0xbccdb473	-0.025110459
159	0x3b8b21a2	0.0042459527
160	0xbd703b2c	-0.05865018
161	0xbe21dc98	-0.15806806
162	0xbb5c5a93	-0.0033623322
163	0x3f141459	0.5784355
164	0xbd972fef	-0.073821895
165	0x3d3f4d55	0.04670461
166	0xbec990d6	-0.39368314
167	0xbdde20c3	-0.108460926
168	0xbd5d6fcc	-0.054061696
169	0xbddf1f53	-0.108946465
170	0xbdc4fc4b	-0.096184336
171	0xbe15432e	-0.14576408
172	0x3e873c78	0.26413321
173	0x3dde2b83	0.10848143
174	0xbe1d9483	-0.15388684
175	0xbe867c0e	-0.2626652
176	0xbd40d0a3	-0.04707397
177	0xbdceb5e7	-0.10093289
178	0x3d025af2	0.031825013
179	0xbd8e0e4b	-0.0693632
180	0x3d5391e4	0.051652804
181	0xbe751bd3	-0.23936395
182	0x3c1ab2c8	0.009442039
183	0x3d825e46	0.063656375
184	0x3e161b14	0.14658767
185	0x3e2bca1c	0.16776317
186	0x3d871e68	0.065975964
187	0xbe2baf6a	-0.16766134
188	0x3e236059	0.15954722
189	0xbdf0a36c	-0.1174992
190	0x3eacc703	0.33745584
191	0xbd9d26ca	-0.07673414

layer4.bn2.weight f4 [8]
0	0x3f647958	0.89247656
1	0x3f6fe904	0.9371493
2	0x3f6b354b	0.91878194
3	0x3f6e1c5e	0.93012035
4	0x3f80b9c6	1.0056694
5	0x3f751c89	0.95746666
6	0x3f70ae4c	0.94015956
7	0x3f4c493a	0.79799235

layer4.bn2.bias f4 [8]
0	0x3cbbbc14	0.022916831
1	0xbc573186	-0.013134366
2	0xbc06d4c9	-0.008229443
3	0x3cb2c916	0.0218244
4	0x3cf51757	0.029918356
5	0x3d3036a8	0.043020874
6	0x3cbf0a30	0.023320287
7	0xbd053906	-0.032525085

layer4.bn2.running_mean f4 [8]
0	0xbd72a03b	-0.05923484
1	0xbe4a9fd0	-0.19787526
2	0xbd86828e	-0.0656787
3	0xbea1e996	-0.31623524
4	0xbe7821e1	-0.24231674
5	0xbdb0bfe3	-0.086303495
6	0x3d9a2b6e	0.07527815
7	0x3d3039a9	0.04302374

layer4.bn2.running_var f4 [8]
0	0x3d12ed9f	0.035871144
1	0x3e30d30b	0.17268007
2	0x3e20d83e	0.1570749
3	0x3d36fef6	0.044676743
4	0x3ce169c3	0.027516251
5	0x3e4bb707	0.19894038
6	0x3dde9410	0.108680844
7	0x3d114eca	0.03547553

layer4.fc1.weight f4 [2, 8]
0	0x3daf8e73	0.08572092
1	0xbe747fa8	-0.23876822
2	0xbcae626d	-0.021287167
3	0x3d6436b9	0.05571625
4	0xbe44026f	-0.19141553
5	0xbeaa46ae	-0.3325705
6	0x3e6a7944	0.22897822
7	0xbccede4e	-0.025252488
8	0x3e6394d7	0.22224747
9	0x3ea421bb	0.32056984
10	0x3aaafc03	0.0013045076
11	0xbd48b520	-0.04900086
12	0xbd69632f	-0.056979354
13	0x3e087048	0.13324082
14	0x3d960176	0.073244974
15	0x3e70aa09	0.23502363

layer4.fc1.bias f4 [2]
0	0xbdaf1e93	-0.085507534
1	0x3e583652	0.21114472

layer4.fc2.weight f4 [8, 2]
0	0xbf0be245	-0.54642135
1	0x3e99061f	0.29887483
2	0x3e65ffd4	0.22460872
3	0xbc4f4155	-0.012649854
4	0xbf14f378	-0.58184004
5	0x3ec5e1cc	0.38648832
6	0xbea05db9	-0.31321505
7	0xbec98e67	-0.39366457
8	0xbf150b7f	-0.58220667
9	0x3dcef629	0.10105545
10	0x3ed9b4fe	0.425209
11	0xbf26b00b	-0.6511237
12	0x3e74ec5c	0.23918289
13	0x3f081431	0.5315581
14	0xbe20997e	-0.15683553
15	0x3cadc3a4	0.021211453

layer4.fc2.bias f4 [8]
0	0xbe8845ea	-0.2661584
1	0x3e5cab1f	0.21549653
2	0x3e5c4ff9	0.21514882
3	0xbeb0e63c	-0.34550655
4	0xbcf4f9bb	-0.029904237
5	0xbf0e9bdf	-0.5570659
6	0x3c9e87d2	0.019351874
7	0xbc92bb2d	-0.017911518

layer5.conv1.weight f4 [16, 8, 1, 3]
0	0xbe1e7695	-0.15474923
1	0xbc851aea	-0.016248185
2	0x3d366476	0.0445294
3	0x3e3aa3d9	0.18226565
4	0x3e6321f7	0.22180925
5	0xbdc40a45	-0.09572271
6	0x3dba4863	0.09095838
7	0xbd23ae4a	-0.039961137
8	0x3dd81714	0.10551277
9	0x3cce7b43	0.02520526
10	0x3e0349f1	0.12821175
11	0xbdda2fc8	-0.10653645
12	0x3cb1bcb5	0.021696428
13	0xbe64cbbe	-0.22343346
14	0xbe23f166	-0.16010055
15	0x3d434871	0.047676507
16	0xbd9de637	-0.077099256
17	0x3e38597e	0.18002889
18	0xbe452666	-0.19252929
19	0xbde64499	-0.11243553
20	0x3d4a787e	0.049431317
21	0x3dc9b902	0.098497406
22	0x3cc04723	0.02347142
23	0xbe116b56	-0.14201102
24	0x3bc265d0	0.005932547
25	0x3d493eef	0.049132284
26	0xbd5c6ae1	-0.053812865
27	0x3ce5baad	0.028043116
28	0xbe1ea78f	-0.15493606
29	0x3dd777c2	0.10520889
30	0xbdaff198	-0.08591002
31	0xbcb8b2ca	-0.02254619
32	0x3d661d29	0.056180153
33	0x3e3f63fe	0.18690488
34	0xbe81d406	-0.25357074
35	0x3e300ada	0.1719164
36	0xbe02cbb1	-0.12773015
37	0xbe984556	-0.297404
38	0xbca9fe46	-0.02075113
39	0xbcc112ae	-0.023568477
40	0x3d5e8c39	0.054332945
41	0x3dc08144	0.093996555
42	0x3dbabef1	0.091184504
43	0xbea6e376	-0.32595414
44	0x3e0a44a6	0.1350275
45	0xbd63c2cd	-0.0556057
46	0x3bdfd14d	0.0068303705
47	0xbc4871d1	-0.012234167
48	0xbe1efeff	-0.15526961
49	0x3de4961b	0.11161443
50	0xbe319d56	-0.17345175
51	0x3c075cce	0.008261872
52	0xbd8039fd	-0.062610604
53	0x3db6839c	0.08911821
54	0x3e35b9f8	0.17746723
55	0xbd92c1b0	-0.07165849
56	0x3d26f218	0.040758222
57	0xbddde447	-0.10834556
58	0x3e9c3180	0.30506516
59	0x3deabeb8	0.11462158
60	0x3b10b2af	0.002207916
61	0x3adfba5a	0.0017069087
62	0x3c2b3873	0.01045047
63	0x3de82bf3	0.11336508
64	0x3d8d0e49	0.0688749
65	0x3dd6a541	0.104807384
66	0x3c6e76bc	0.014554676
67	0x3e6e3282	0.23261455
68	0xbdef04af	-0.11670815
69	0x3d8e8434	0.069588095
70	0x3db75935	0.08952562
71	0x3e2d86d0	0.16945958
72	0x3e407f59	0.1879858
73	0x3e7043fe	0.23463437
74	0xbe30f21e	-0.1727986
75	0x3d5ba55b	0.053624492
76	0xbd906491	-0.070504315
77	0xbde7416c	-0.11291775
78	0x3e218ad5	0.15775616
79	0x3b92ff93	0.004486033
80	0x3e150c21	0.14555408
81	0x3e183b30	0.14866328
82	0x3e23b74b	0.1598789
83	0x3e02143b	0.1270303
84	0xbb43f670	-0.0029901527
85	0x3d6ff650	0.05858451
86	0xbdc8fdc5	-0.09814028
87	0x3e202a03	0.15641026
88	0x3e6403a7	0.22267018
89	0xbe032dc4	-0.12810427
90	0x3dff8a06	0.12477498
91	0x3eb1a3a6	0.34695166
92	0x3dfb1165	0.12259177
93	0xbdfa6c81	-0.12227727
94	0xbe349f1a	-0.17638817
95	0x3cace28e	0.021104123
96	0xbe0294e7	-0.12752114
97	0x3c79045d	0.015198794
98	0x3deaba71	0.11461342
99	0x3e2d2a66	0.16910705
100	0x3d62bfda	0.055358745
101	0x3e0593e1	0.13044693
102	0xbd5573ca	-0.05211238
103	0xbd314ffb	-0.043289166
104	0xbe315e57	-0.17321144
105	0x3c037544	0.008023564
106	0xbe3a7a50	-0.18210721
107	0x3e050e65	0.12993772
108	0x3d3fbeed	0.04681294
109	0x3c534e32	0.012897061
110	0x3e1949d8	0.14969575
111	0xbd876fad	-0.06613097
112	0x3d0459d9	0.032312248
113	0x3d2235ac	0.039601967
114	0x3e145532	0.14485624
115	0xbe474357	-0.19459282
116	0xbe04e0bc	-0.12976354
117	0x3c8cc51d	0.017183835
118	0x3bbc5002	0.0057468424
119	0xbd06a931	-0.032876197
120	0xbdef0020	-0.11669946
121	0xbe018a8e	-0.1265051
122	0xbe28472a	-0.16433397
123	0x3e22b93d	0.15890975
124	0x3e31320a	0.17304245
125	0x3dd226ca	0.10261305
126	0xbe29fd3a	-0.16600505
127	0xbe89d5d8	-0.26920962
128	0xbde3abc5	-0.11116747
129	0xbcd74d96	-0.026282113
130	0x3d838bbe	0.06423138
131	0xbc9c6535	-0.019091228
132	0x3d7cec43	0.061748754
133	0xbdc0cf4d	-0.094145395
134	0x3d1e3195	0.038621504
135	0xbdd5e85d	-0.104447104
136	0xbcf28bf8	-0.029607758
137	0xbe210efa	-0.1572837
138	0x3e0b6122	0.13611272
139	0xbbf707e8	-0.0075387843
140	0xbdc3b83e	-0.09556626
141	0xbd12fcb6	-0.035885535
142	0x3e1c2506	0.15248498
143	0x3e4437f1	0.19161965
144	0x3d9a620c	0.07538232
145	0xbd873ebe	-0.06603764
146	0xbde69a9c	-0.11259958
147	0x3de5419e	0.11194156
148	0x3e905579	0.2819021
149	0x3e1e0f6e	0.15435573
150	0xbd666259	-0.056246135
151	0xbd499930	-0.049218357
152	0x3d101345	0.035174627
153	0x3d19e886	0.037575267
154	0x3db3bc92	0.08776201
155	0x3db0dfe3	0.08636453
156	0xbd4d6835	-0.050148208
157	0xbe94c2d0	-0.2905488
158	0xbe05189d	-0.1299767
159	0x3c3eeb44	0.011652771
160	0x3de90c8d	0.11379347
161	0xbe038bb7	-0.12846266
162	0xbe3cf8c5	-0.18454273
163	0x3e020b97	0.12699734
164	0xbdb80c3e	-0.0898671
165	0xbe0f4b7e	-0.13993642
166	0xbce46f88	-0.027885213
167	0x3df88016	0.121338055
168	0x3e28fdd0	0.16503072
169	0xbe3750ca	-0.17901912
170	0xbe0d1502	-0.13777545
171	0x3dae273d	0.08503578
172	0xbe2d4c62	-0.16923669
173	0xbd99f3b3	-0.07517185
174	0x3cf72846	0.030170571
175	0xbe74bda1	-0.23900463
176	0x3dc0c548	0.094126284
177	0xbd8d2185	-0.06891159
178	0xbe3862a8	-0.18006384
179	0x3c485984	0.012228373
180	0x3d530c09	0.05152515
181	0xbbd47495	-0.006483624
182	0x3c2ff530	0.01073961
183	0xbdae13d2	-0.08499874
184	0x3d850d27	0.06496649
185	0x3e253d3c	0.1613664
186	0x3dec780d	0.11546335
187	0x3d468a96	0.04847201
188	0xbd1ea22b	-0.038728874
189	0x3d2f5627	0.04280677
190	0x3c93c9c5	0.018040547
191	0x3e0291a7	0.12750874
192	0xbd5a0e71	-0.05323643
193	0x3dc18f42	0.094511524
194	0x3e07e35e	0.13270327
195	0x3d76a4ba	0.06021569
196	0xbd95f1b3	-0.07321491
197	0x3de0cc13	0.10976424
198	0x3e1335bd	0.14375968
199	0xbe478111	-0.19482829
200	0x3dbe595f	0.0929439
201	0xbd66e603	-0.0563717
202	0x3e2239a3	0.15842299
203	0xbe141d20	-0.14464235
204	0x3cd216b1	0.025645586
205	0x3ddce9a2	0.107867494
206	0x3e05d83e	0.13070771
207	0xbe054161	-0.13013221
208	0x3d2fbdc8	0.0429056
209	0xbdf74184	-0.12073043
210	0x3dd5a7cf	0.104323976
211	0x3e95f19f	0.29285905
212	0xbe09aa02	-0.13443759
213	0x3e3fb606	0.1872178
214	0x3d9e40fa	0.07727237
215	0x3d13815f	0.03601205
216	0x3e0f1fb8	0.13976943
217	0x3dd8c068	0.105835736
218	0xbc9483d4	-0.018129267
219	0x3e087d59	0.13329066
220	0xbe384c62	-0.17997888
221	0x3da14d6d	0.07876096
222	0xbc80eeae	-0.015738811
223	0x3e28ee5a	0.16497174
224	0x3de11b9c	0.10991594
225	0xbd62d559	-0.055379245
226	0xbeec261d	-0.46122828
227	0x3bdd9d53	0.0067631393
228	0x3dc6ccd6	0.09707038
229	0xbe739bf8	-0.23789966
230	0x3e372810	0.17886376
231	0xbe031873	-0.12802295
232	0x3b3d1271	0.0028850103
233	0x3e0198ca	0.1265594
234	0x3dda4f95	0.1065971
235	0xbe7af65e	-0.24508044
236	0xbdc364f5	-0.095407404
237	0x3e3a1e61	0.18175651
238	0x3e2d4d71	0.16924073
239	0xbcd75764	-0.026286788
240	0xbe0585b5	-0.13039286
241	0xbc8e0b93	-0.017339503
242	0xbd7c2d06	-0.061566375
243	0xbe192929	-0.14957108
244	0x3e3211e4	0.17389637
245	0xbe2138e8	-0.15744364
246	0x3e23e232	0.16004255
247	0x3d9648f6	0.07338135
248	0xbdd929f7	-0.10603707
249	0xbccf7cae	-0.025328007
250	0xbd57996f	-0.05263656
251	0x3dd80977	0.1054868
252	0xbde66216	-0.11249177
253	0x3d840b60	0.06447482
254	0x3e0023e3	0.1251369
255	0xbdced455	-0.10099093

layer5.bn1.weight f4 [16]
0	0x3f683428	0.90704584
1	0x3f6b6b0b	0.9196021
2	0x3f788300	0.9707489
3	0x3f66ca56	0.9015249
4	0x3f7a4cc4	0.97773385
5	0x3f7b46b5	0.98154765
6	0x3f7f2eb6	0.9968065
7	0x3f67e629	0.9058557
8	0x3f6c87cb	0.92394704
9	0x3f70d1e4	0.9407027
10	0x3f72d897	0.9486174
11	0x3f7be269	0.9839235
12	0x3f726eb0	0.94700146
13	0x3f78c698	0.9717803
14	0x3f81fd77	1.0155476
15	0x3f62278f	0.8834161

layer5.bn1.bias f4 [16]
0	0x3c67ccf8	0.014147989
1	0xbb7bd0f8	-0.0038424116
2	0xbd21478d	-0.039374877
3	0xbc8e8bab	-0.017400583
4	0x3d61cccf	0.05512696
5	0x3d090c18	0.0334588
6	0x3d2ad91e	0.041710965
7	0xbb28a51d	-0.002573318
8	0xbd24b784	-0.040214077
9	0xbc9be964	-0.019032188
10	0xbb2a88c4	-0.002602146
11	0x3cbc5799	0.022990989
12	0x3d4dc9d0	0.05024129
13	0x3c8e0b8c	0.01733949
14	0x3ca53514	0.020166911
15	0xbda0a1d7	-0.078433685

layer5.bn1.running_mean f4 [16]
0	0xbd48215a	-0.04885993
1	0xbf306c65	-0.68915397
2	0x3f059e1f	0.521944
3	0x3f1e0bb5	0.61736614
4	0xbe8fc5a0	-0.28080463
5	0xbe5f16fd	-0.21786113
6	0x3e1c8962	0.15286782
7	0xbf16dce3	-0.58930796
8	0x3e95c260	0.2924986
9	0xbefe4c81	-0.49667743
10	0x3f0090be	0.5022086
11	0x3f0b7259	0.54471356
12	0xbdfc1677	-0.12308972
13	0xbdf36239	-0.11883969
14	0xbd6cfc80	-0.05785799
15	0xbddc21eb	-0.10748657

layer5.bn1.running_var f4 [16]
0	0x3ce991fb	0.028511992
1	0x3e2da6fd	0.16958232
2	0x3ee8aace	0.45442814
3	0x3e30d09c	0.17267078
4	0x3e0cab62	0.13737252
5	0x3e0562f6	0.13026032
6	0x3dfc365e	0.12315057
7	0x3d8273b0	0.06369722
8	0x3eb54f9d	0.35412303
9	0x3f06decb	0.52683705
10	0x3cab3f8b	0.020904323
11	0x3ef6d2b6	0.48207635
12	0x3db906a6	0.09034471
13	0x3d207b43	0.03918005
14	0x3d96c924	0.07362583
15	0x3d320e58	0.04347071

layer5.conv2.weight f4 [16, 16, 1, 3]
0	0xbdf3c534	-0.11902848
1	0xbdfe32b6	-0.12412016
2	0x3caa696d	0.020802224
3	0xbe052246	-0.13001356
4	0xbcf490b2	-0.029854152
5	0xbb1254fd	-0.002232849
6	0x3d0771b5	0.033067424
7	0xbddbcaef	-0.10732066
8	0x3d86f681	0.06589986
9	0xbd2f14eb	-0.04274456
10	0xbd42471a	-0.04743109
11	0xbe07c654	-0.1325925
12	0x3de898e9	0.1135729
13	0xbd51b2fb	-0.05119608
14	0xbd983dde	-0.07433675
15	0x3dc55f87	0.09637361
16	0xbdf13d27	-0.11779242
17	0x3d158c7e	0.036510937
18	0xbda92aae	-0.08260094
19	0xbe45939a	-0.19294587
20	0x3dd1bf70	0.10241592
21	0xbd8d12f1	-0.068883784
22	0xbdb865c7	-0.090037875
23	0x3e0972ff	0.13422774
24	0xbe02cacc	-0.12772673
25	0x3dbb4f4f	0.09145986
26	0x3db56c38	0.08858532
27	0x3d2fad2a	0.04288975
28	0x3dad2c90	0.08455765
29	0x3dade575	0.08491031
30	0x3b93004c	0.0044861194
31	0xbdd19018	-0.10232562
32	0x3e043084	0.12909132
33	0xbd8c5c1e	-0.068535075
34	0xbc3eb056	-0.011638721
35	0x3cebaee2	0.028769914
36	0x3d3f3025	0.046676774
37	0xbd4fcf17	-0.050734606
38	0xbcb5784a	-0.022152085
39	0xbd806f23	-0.06271198
40	0xbe293f71	-0.16528107
41	0xbd26947e	-0.040668957
42	0x3d4ef76f	0.05052894
43	0xbcf4dbe8	-0.029890016
44	0xbcc1351b	-0.023584893
45	0xbc3dfecc	-0.011596393
46	0xbd57148e	-0.052509837
47	0x3aca69d3	0.0015442915
48	0x3db677e8	0.08909589
49	0x3e386ba3	0.1800981
50	0x3e01979a	0.12655488
51	0x3d5d7537	0.054066863
52	0xbdac82e6	-0.084234044
53	0xbdffb53a	-0.12485738
54	0x3dea9a02	0.11455156
55	0x3e89318b	0.2679561
56	0xbd449312	-0.04799182
57	0xbb0ef702	-0.0021814709
58	0xbd835a2a	-0.06413682
59	0xbdac4365	-0.08411292
60	0x3d67590f	0.056481417
61	0xbe7a43c0	-0.24439907
62	0x3d88dd40	0.06682825
63	0x3cc33b01	0.023831846
64	0x3ecdb5b7	0.401777
65	0xbd6beaa6	-0.057596825
66	0x3d881136	0.06643908
67	0x3e4a0f21	0.19732334
68	0x3cb954d1	0.022623451
69	0xbe0a66d9	-0.13515796
70	0x3e865517	0.26236793
71	0x3b18dfda	0.0023326785
72	0xbd2eb793	-0.04265554
73	0x3e52c47c	0.20582765
74	0x3e0981f0	0.13428473
75	0x3d8fe1a0	0.070254564
76	0xbd6268e5	-0.055275816
77	0xbce7f7e8	-0.028316453
78	0xbddf532d	-0.109045364
79	0xbceb6f13	-0.028739488
80	0xbde98359	-0.11402006
81	0xbd0ced30	-0.034405887
82	0x3e456fa9	0.19280876
83	0xbdd52d62	-0.10409047
84	0x3dfddad8	0.12395257
85	0xbe36101b	-0.17779581
86	0x3d88bb17	0.066763096
87	0xbda78fae	-0.081817016
88	0xbe29e892	-0.16592625
89	0x3c8ac76a	0.016940791
90	0x3d976fe6	0.0739439
91	0xbe9664b0	-0.29373693
92	0x3c8c167e	0.017100569
93	0xbde09e89	-0.10967738
94	0x3dabcced	0.08388696
95	0xbdb9883f	-0.0905919
96	0xbd60f96a	-0.05492536
97	0xbd5e321d	-0.05424701
98	0xbd2ee01e	-0.042694204
99	0x3c335a58	0.010946833
100	0x3bcac4a3	0.0061879917
101	0xbd6473c1	-0.055774454
102	0xbdeccf3a	-0.11562963
103	0xbcb5f3d1	-0.022210987
104	0x3e0a5b41	0.13511373
105	0x3cd4604c	0.025924824
106	0x3aee0a3f	0.0018161013
107	0x3d991460	0.07474589
108	0x3d990d3b	0.07473227
109	0x3d1d9324	0.038470402
110	0xbde4dd9d	-0.11175082
111	0x3d886eae	0.066617355
112	0x3e3fae2b	0.18718784
113	0xbdfac133	-0.12243881
114	0x3df467cb	0.119338594
115	0xbc709762	-0.01468453
116	0x3dfd9217	0.1238138
117	0x3dc804ff	0.09766578
118	0xbe8be22f	-0.27321002
119	0x3df43eba	0.11926027
120	0xbe008839	-0.12551965
121	0xbba97df1	-0.005172484
122	0xbd3fa77f	-0.046790596
123	0x3c52262a	0.012826482
124	0x3e0ec911	0.13943888
125	0xbb8539b2	-0.0040657157
126	0xbdf94617	-0.12171572
127	0xbe36e536	-0.17860875
128	0xbcb1bc59	-0.021696256
129	0xbc55c834	-0.01304822
130	0xbe15bfe6	-0.14623985
131	0xbdb6e6ec	-0.089307636
132	0xbd8e82ce	-0.06958543
133	0xbd221c51	-0.039577786
134	0x3db93f90	0.09045327
135	0x3dfc2ceb	0.12313255
136	0x3da48544	0.08033231
137	0x3adcb15d	0.0016837526
138	0xbd951156	-0.07278697
139	0x3e12b45f	0.14326619
140	0xbd848cba	-0.06472154
141	0xbdb920fc	-0.090394944
142	0xbd68b1a7	-0.056810047
143	0xbdabdc5c	-0.083916396
144	0x3d52e375	0.05148645
145	0x3c4567fe	0.012048719
146	0x3e0b8677	0.13625513
147	0x3e001b78	0.12510478
148	0xb943f459	-0.00018687676
149	0xbd980764	-0.07423285
150	0xbdb7701a	-0.089569286
151	0xbd153c35	-0.03643437
152	0xbcc2b650	-0.023768574
153	0xbb99c76b	-0.004692962
154	0x3ce6ebd3	0.028188622
155	0xbd6a27fd	-0.057167042
156	0xbc172793	-0.009225744
157	0xbd3a393c	-0.04546474
158	0xbd36721b	-0.044542413
159	0xbdd96364	-0.106146604
160	0x3d74580d	0.059654284
161	0xbd82a2a5	-0.06378678
162	0x3de673de	0.11252569
163	0xbe246994	-0.160559
164	0x3cb1bb18	0.021695659
165	0x3d1594bc	0.036518797
166	0x3dc6d663	0.0970886
167	0xbcde95b5	-0.027170995
168	0x3cca91c6	0.024727713
169	0x3c89197f	0.01673579
170	0x3ce52829	0.027973251
171	0xbc4aebf4	-0.012385357
172	0xbde92a82	-0.11385061
173	0x3bcea749	0.006306563
174	0x3b7a8a34	0.0038229348
175	0xbdfca5b4	-0.12336293
176	0x3d205d9e	0.03915178
177	0xbda66799	-0.081252284
178	0xbdb72563	-0.08942678
179	0xbb408ff0	-0.0029382668
180	0xbe0ab6bd	-0.13546272
181	0x3db1bb3b	0.086782895
182	0xbc07668b	-0.008264194
183	0x3d9a2a1b	0.07527562
184	0x3d20201a	0.039093114
185	0xbba5e87a	-0.0050631138
186	0x3e06a0ba	0.1314725
187	0xbe14dfd3	-0.14538507
188	0x3db935dc	0.09043476
189	0x3e085415	0.13313325
190	0x3cf019e9	0.02930923
191	0x3bda163a	0.0066554816
192	0x3cc30492	0.02380589
193	0xbe8830e4	-0.265998
194	0xbb030979	-0.001999466
195	0xbbdd1868	-0.006747294
196	0x3d33f6ce	0.043936543
197	0xbd2a1834	-0.04152699
198	0xbbbc13c1	-0.0057396595
199	0xbe3094e4	-0.17244297
200	0xbd3ff6a6	-0.04686608
201	0x3de31f4d	0.110899545
202	0xbe29b8bf	-0.16574381
203	0xbaeb4832	-0.0017950593
204	0x3e0048d9	0.12527789
205	0x3e6b61aa	0.22986475
206	0xbe0bc1fc	-0.13648218
207	0xbcd9ebe2	-0.026601736
208	0xbd302872	-0.04300732
209	0xbcde1535	-0.027109722
210	0x3da0454b	0.078257166
211	0xbe75da8f	-0.24009155
212	0xbd6f0506	-0.0583544
213	0x3c7a77fb	0.015287395
214	0x3cc843b2	0.024446342
215	0xbdb0a815	-0.08625809
216	0x3c56e731	0.013116644
217	0xbe50fea9	-0.20409645
218	0x3bc35792	0.005961367
219	0xbd5fec1c	-0.05466853
220	0x3dd7ea05	0.105426826
221	0x3e0acb56	0.13554129
222	0xbe03065a	-0.12795392
223	0xbe4c321f	-0.19940995
224	0xbc9fd275	-0.019509533
225	0xbd65faef	-0.056147512
226	0xbea4825c	-0.32130706
227	0xbc81f764	-0.015865035
228	0x3e0075f9	0.12545003
229	0x3cbcff75	0.02307103
230	0xbd60af41	-0.054854635
231	0xbdc82454	-0.09772554
232	0xbc0a78e3	-0.008451673
233	0x3d857a7f	0.06517505
234	0xbded5121	-0.1158774
235	0x3db9928b	0.09061154
236	0x3e0b5283	0.13605694
237	0xbda25e61	-0.079281576
238	0x3d316640	0.043310404
239	0x3da8f99e	0.08250736
240	0x3da96f04	0.08273128
241	0xbe85ef8d	-0.26159325
242	0xbe0a3ae0	-0.13499022
243	0x3bcafa47	0.006194386
244	0xbd3349e6	-0.043771647
245	0xbd78ecb6	-0.06077262
246	0x3dea1442	0.11429645
247	0xbea64e46	-0.32481593
248	0xbca781fa	-0.02044772
249	0xbc195725	-0.009359156
250	0x3c29078f	0.0103167435
251	0x3d13e357	0.03610548
252	0xbe06ef2d	-0.13177176
253	0xbd3d9b2f	-0.046290573
254	0xbd4fd93f	-0.05074429
255	0xbd222155	-0.03958257

layer5.bn2.weight f4 [16]
0	0x3f77d830	0.9681425
1	0x3f7bd713	0.9837505
2	0x3f75007d	0.9570387
3	0x3f6fedca	0.9372221
4	0x3f84ad08	1.0365305
5	0x3f681cdd	0.9066904
6	0x3f70ff3e	0.9413947
7	0x3f7d41ea	0.989287
8	0x3f83f544	1.0309224
9	0x3f717940	0.9432564
10	0x3f8441cd	1.0332581
11	0x3f795d0d	0.9740761
12	0x3f774d17	0.96602005
13	0x3f8aa7c8	1.0832453
14	0x3f83093c	1.0237193
15	0x3f7ee2af	0.9956464

layer5.bn2.bias f4 [16]
0	0x3c9fa567	0.01948805
1	0x3e101e95	0.14074166
2	0x3d812aaf	0.063069694
3	0x3c11a467	0.008889294
4	0x3e511f75	0.20422156
5	0xbd931692	-0.07182039
6	0xbb17ef59	-0.0023183434
7	0x3d3f3b45	0.046687383
8	0x3e0a7b98	0.1352371
9	0xbc485d0c	-0.012229215
10	0x3dc8e73f	0.09809732
11	0x3cd5c512	0.026094947
12	0x3cc70345	0.024293551
13	0x3e38a0db	0.18030111
14	0x3de09c41	0.10967303
15	0x3db7e366	0.0897892

layer5.bn2.running_mean f4 [16]
0	0xbecb4d38	-0.3970735
1	0x3e88ea2f	0.26741168
2	0xbd2293f7	-0.03969189
3	0xbe0df23d	-0.13861938
4	0xbec58d65	-0.38584438
5	0xbf31c005	-0.69433624
6	0xbe27d7f5	-0.16390975
7	0xbd658d37	-0.056042876
8	0x3d07b94f	0.03313571
9	0xbe42366c	-0.18966073
10	0xbd9de475	-0.0770959
11	0xbef351fd	-0.4752349
12	0x3dac61a4	0.08417061
13	0x3e92450b	0.285683
14	0xbc3cf0e7	-0.011532045
15	0x3e65e446	0.2245036

layer5.bn2.running_var f4 [16]
0	0x3e2ecee8	0.17071116
1	0x3f96cfc8	1.178216
2	0x3d905bb1	0.07048739
3	0x3ceb4f32	0.028724287
4	0x3f88d997	1.0691403
5	0x3f87d791	1.0612661
6	0x3cc7ec67	0.024404718
7	0x3d185b51	0.03719646
8	0x3e4e8a9a	0.2017006
9	0x3bb76fa2	0.0055980245
10	0x3db7227e	0.08942126
11	0x3eba17cf	0.3634629
12	0x3d92da13	0.071705006
13	0x3ea2be76	0.31785935
14	0x3db672cc	0.089086145
15	0x3e959948	0.29218507
