das_new - 副本/models/20260105_195214/final_model.pth (torch, 99146 bytes, 176 tensors)

input_conv.weight f4 [4, 1, 1, 3]
000000 43 69 e7 be d7 28 4b 3e c0 3c 9e be d1 a6 9d 3e
       -0.45197496 0.19839798 -0.30905724 0.30791333
000010 de 28 43 3e 5b ff fe be b3 02 03 bf b8 b9 9a 3e
       0.19058558 -0.49804196 -0.51175994 0.30219817
000020 b0 6e 9f be 24 8f 86 be b4 15 91 be 90 ec 5e be
       -0.31139135 -0.26281083 -0.2833687 -0.21769929

input_bn.weight f4 [4]
000000 e1 e0 71 3f 17 73 6a 3f 5e af 7d 3f 48 fc 93 3f
       0.9448376 0.91581863 0.99095714 1.1561365

input_bn.bias f4 [4]
000000 85 d4 24 3c 30 06 eb bd d5 bd 91 3d 63 50 ca 3d
       0.010060434 -0.114757895 0.07116286 0.09878614

input_bn.running_mean f4 [4]
000000 b4 01 e9 3b 02 db df 3b 60 74 31 3c 27 65 26 bc
       0.0071107987 0.0068315277 0.010830969 -0.010155953

input_bn.running_var f4 [4]
000000 41 8b e8 3e 20 9e e7 3e 35 92 f8 3e 44 2a f5 3e
       0.45418742 0.45237827 0.48549047 0.4788381

layer1.conv1.weight f4 [4, 4, 1, 3]
000000 f6 14 9b 3d df 10 3f 3e 8f dd 44 3e 91 db 2a be
       0.07572357 0.1865878 0.19225143 -0.1668532
000010 1c 67 50 3d 29 27 8b 3e f3 4d 83 3e 2f f3 b1 3d
       0.050879583 0.27178314 0.25645408 0.08688962
000020 0f 01 62 3e e6 5f db 3d 07 50 c3 3d bd 2c 4d 3d
       0.22070716 0.107116506 0.095367484 0.050091494
000030 1b 28 8a be db 0a ca 3b 18 ad 6d be b2 de 92 bb
       -0.26983723 0.006165845 -0.23210561 -0.0044821138
000040 2f 48 7d bb b5 aa 84 3e 7e 7d d3 bc 6b c7 18 be
       -0.003864776 0.2591149 -0.025816675 -0.14919822
000050 a5 7c 13 3d 9f e9 85 be 2c e6 ad 3e 35 58 8d 3e
       0.036007542 -0.261548 0.3396467 0.2760636
000060 b9 38 15 3e 79 66 93 3e 09 8d 89 bd 0b 45 5c 3d
       0.14572419 0.28789118 -0.067163534 0.053776782
000070 25 a0 86 bd aa 01 4f 3d e7 a2 09 bd 64 3c 20 3e
       -0.06573514 0.050538696 -0.03360262 0.15648037
000080 03 16 93 3e 61 db 6f 3e c2 02 bb be cf 1d a0 3d
       0.2872773 0.2342353 -0.36525542 0.078181855
000090 8d 47 e7 bd e5 05 8b 3e 5b 2b 63 be 80 7b 5d be
       -0.11292944 0.27152935 -0.22184508 -0.21629143
0000a0 8d b4 1e bc c9 0d e9 bc 1c c1 66 be f9 fe 60 3e
       -0.009686601 -0.028448956 -0.22534603 0.21972264
0000b0 8b 5d 38 be ee 20 9f 3d 0f c9 ae 3a 89 f5 33 3e
       -0.18004434 0.07769953 0.0013335067 0.17574133

layer1.bn1.weight f4 [4]
000000 8b 91 7b 3f 4f c4 82 3f 43 58 83 3f f1 28 78 3f
       0.98268956 1.0216159 1.026131 0.9693747

layer1.bn1.bias f4 [4]
000000 99 dd a7 ba 27 0d 8b bb 0f d9 80 3c 08 8d 0d 3d
       -0.001280713 -0.0042435112 0.015728502 0.034558326

layer1.bn1.running_mean f4 [4]
000000 4c d5 c4 3d fc 38 d6 3b 06 ab 87 bd bd 18 e6 3d
       0.09610996 0.006537555 -0.06624417 0.11235187

layer1.bn1.running_var f4 [4]
000000 42 04 e8 3e b7 e0 ec 3e ba 35 e9 3e d8 6f f9 3e
       0.45315748 0.46265194 0.45548803 0.48718143

layer1.conv2.weight f4 [4, 4, 1, 3]
000000 f2 ff 46 bd 25 95 86 be b1 47 4c 3e 3c f3 3a be
       -0.048583932 -0.26285663 0.19949223 -0.18256849
000010 3c 9e 89 be 60 f3 a8 3c 34 01 b4 3d 71 c0 a2 3e
       -0.26878536 0.020623863 0.08789292 0.31787446
000020 23 56 5e bd 7e 9c ef 3c a5 7b 2b 3d 08 02 82 be
       -0.054281365 0.029249426 0.041865963 -0.25392175
000030 aa 14 52 bd 53 87 b4 be 8a bb f6 bd b3 d0 88 3d
       -0.051289238 -0.35259494 -0.12047489 0.06680431
000040 8d 00 b6 3e ea e0 92 be fb 03 57 3e 3f a0 94 be
       0.35547295 -0.2868722 0.20997612 -0.29028508
000050 d9 0d 8a 3e 87 e2 92 be 96 5b cb be 2c 6d 1a 3e
       0.2696369 -0.28688452 -0.39718312 0.15080708
000060 81 f9 3e be b4 55 ad bd 25 c9 9f bd b7 ad 0a 3e
       -0.18649866 -0.08463612 -0.07802037 0.1354283
000070 0c 0f c6 bd d7 03 e8 bd 36 0a 93 bd 54 1a 86 be
       -0.09670839 -0.113288574 -0.07179682 -0.26191962
000080 35 ce 2d bb 55 1a 7b 3e 5b 6a d2 3d a2 58 97 bd
       -0.0026520614 0.24521764 0.10274192 -0.07389952
000090 bd 84 02 3e 1a ad 90 be fc 94 53 3d eb 3e 64 be
       0.12745948 -0.28257066 0.051655754 -0.22289626
0000a0 43 6e 1c be 00 77 cd bd 04 2d 5e be 5f 64 82 be
       -0.15276437 -0.10032463 -0.2169686 -0.25467202
0000b0 f9 b5 5f 3e cd dd 62 bd ee 40 6f be 40 05 0f be
       0.21846761 -0.055387307 -0.23364612 -0.13966846

layer1.bn2.weight f4 [4]
000000 3f bc 63 3f b8 d1 80 3f 13 0f 78 3f fe 8e 8d 3f
       0.88959116 1.0064001 0.96898 1.1059263

layer1.bn2.bias f4 [4]
000000 bd de 35 bd e6 56 98 3d e8 d1 5b bd 46 c9 2b 3c
       -0.044401873 0.074384496 -0.05366698 0.010484999

layer1.bn2.running_mean f4 [4]
000000 7e e9 84 38 88 e0 65 bd 1f 1d 9a bd 93 5f 51 be
       6.337742e-05 -0.056122333 -0.07525086 -0.20446615

layer1.bn2.running_var f4 [4]
000000 2e 36 e8 3e f2 a8 14 3f 97 23 e0 3e 43 3d 09 3f
       0.45353836 0.5807029 0.43777153 0.536091

layer1.fc1.weight f4 [1, 4]
000000 79 14 e9 be d7 33 03 3f 18 21 89 be d1 6b 43 3e
       -0.45523432 0.51250976 -0.2678306 0.19084097

layer1.fc2.weight f4 [4, 1]
000000 4f 7c 64 3e 1d be af 3e bd c0 6d 3f c0 29 7d bf
       0.22313045 0.34324732 0.9287222 -0.9889183

layer1.fc2.bias f4 [4]
000000 41 d7 e1 3e 57 72 17 bf 68 90 69 3f 7f b2 f1 bd
       0.44109538 -0.59158844 0.9123597 -0.118016236

layer1.shortcut.0.weight f4 [4, 4, 1, 1]
000000 2d 2b 84 3e 93 d9 f1 3e 41 2f 63 be 26 e1 de be
       0.2581419 0.47236308 -0.22185995 -0.4353115
000010 2a 98 c2 be 0b 23 db be 31 0d af 3e 1c 77 de 3e
       -0.38006717 -0.42800173 0.34189752 0.43450248
000020 54 e8 70 be 8d 35 a4 3e 7c 91 08 bf 59 c5 75 be
       -0.23526126 0.32072106 -0.5334699 -0.24001063
000030 54 31 88 3e e3 dd 80 be 27 e0 e1 3c d7 a7 2f 3f
       0.26600134 -0.25169286 0.027572704 0.6861548

layer1.shortcut.1.weight f4 [4]
000000 3b 1d 70 3f 20 21 8b 3f 20 27 7d 3f b6 de 6f 3f
       0.937946 1.0869484 0.98887825 0.93699205

layer1.shortcut.1.bias f4 [4]
000000 df e4 51 bd 7e 9c 85 3d ec 77 45 bd ab 85 c2 3c
       -0.05124366 0.06523989 -0.04821007 0.023745378

layer1.shortcut.1.running_mean f4 [4]
000000 18 12 d0 bb fb 10 fe 3b 44 4c e4 bd e3 5d 63 3e
       -0.006349813 0.007753489 -0.11147359 0.22203784

layer1.shortcut.1.running_var f4 [4]
000000 c9 a1 10 3f dd 5e 0e 3f 37 9d e4 3e bd e2 f3 3e
       0.56496865 0.556135 0.44651195 0.47633925

layer2.conv1.weight f4 [4, 4, 1, 3]
000000 98 90 b6 3d af 8e 7c be c7 08 5c 3d 24 58 70 3e
       0.08914298 -0.24663804 0.05371931 0.23471123
000010 32 50 c0 3e a1 82 47 3d b8 8f d1 3d 79 24 c9 bd
       0.37561184 0.04870856 0.1023249 -0.0982141
000020 a8 d9 d9 3d 9a 4c 9e bc 1f af 87 bd ac 9c 5d be
       0.10637218 -0.019323636 -0.066251986 -0.21641797
000030 d1 c5 22 be 18 e7 0d be 82 48 5d bd ab cc cd 3c
       -0.15895773 -0.13857687 -0.054024227 0.025122007
000040 f2 60 c1 be 4d ed 35 be 38 de 92 be b8 08 c4 bd
       -0.37769276 -0.17766304 -0.28685164 -0.095719755
000050 eb 9a ef bd 55 45 53 be 50 46 97 be 40 5e 63 3e
       -0.1169947 -0.20631917 -0.29545832 0.22203922
000060 27 b3 a1 bd 1d 47 a6 3b da ee de bd ac 99 8d 3d
       -0.07895499 0.0050743953 -0.10885401 0.06914076
000070 ac 00 cc 3e e6 51 a7 bd 6c 1b 78 be 8a f9 2f 3e
       0.39844263 -0.08169918 -0.2422921 0.17185035
000080 59 8b 89 be 17 2a b6 bb 7c a6 e2 3e 81 2f 87 be
       -0.26864126 -0.0055592167 0.44267642 -0.2640343
000090 ce 1d 1b 3d 4a 55 de 3e b6 ec 7f 3e 71 52 f5 3c
       0.03787022 0.43424445 0.24992642 0.029946538
0000a0 09 e3 5b bd bf f8 8f be 57 17 1f be f6 5d 18 3e
       -0.053683314 -0.28119466 -0.15536247 0.14879593
0000b0 99 72 01 3e 67 58 8e 3e 25 50 15 be e5 bd 48 be
       0.12641372 0.2780182 -0.14581354 -0.19603689

layer2.bn1.weight f4 [4]
000000 a8 21 68 3f 28 6e 77 3f 4e c3 8a 3f ba 45 85 3f
       0.90676355 0.9665246 1.0840852 1.0411904

layer2.bn1.bias f4 [4]
000000 b2 96 ab bd 0d 3a cc bd f7 72 77 3d 84 01 83 3b
       -0.08378352 -0.0997201 0.060412373 0.0039979834

layer2.bn1.running_mean f4 [4]
000000 73 d3 81 3d f4 ee 62 be 8b 2b 2e 3e 7f 8a d4 3c
       0.06339159 -0.22161466 0.17008798 0.025944946

layer2.bn1.running_var f4 [4]
000000 29 f5 f4 3e 9d ab f7 3e e1 73 09 3f b2 a8 02 3f
       0.47843292 0.48373118 0.5369244 0.5103866

layer2.conv2.weight f4 [4, 4, 1, 3]
000000 f9 36 18 be 20 2a ed 3d 98 14 88 be 97 51 85 be
       -0.1486472 0.115803 -0.26578212 -0.2603881
000010 79 75 92 3a f2 fe 1f be 0b 6d 64 3e 31 a9 44 3e
       0.0011173926 -0.15624598 0.22307222 0.19205166
000020 cc 55 e7 bd 58 fc 7e bd 41 dd 1a be 23 c4 5d be
       -0.11295661 -0.062252373 -0.15123464 -0.21656851
000030 8f 50 72 bd 16 25 c3 3e ba 69 ec bd 91 1f fb 3d
       -0.059158858 0.38114232 -0.11543603 0.1226188
000040 92 d5 37 be 15 b4 cc bd 88 fa 82 3e 94 a9 fd 3d
       -0.17952564 -0.099952854 0.25581765 0.1238586
000050 28 df 1b 3c 17 79 89 3e 0b 07 22 3e 4f 31 5e be
       0.009513654 0.26850197 0.15822999 -0.21698497
000060 48 e0 7e be 05 bd 9c be 6c a7 25 be 9a 5f 5b 3e
       -0.24890244 -0.3061296 -0.16177148 0.21423188
000070 53 21 07 be 93 ea 4e 3e c1 64 e8 3d 6b 17 e1 be
       -0.13196306 0.2020667 0.11347342 -0.4396318
000080 da 85 dd 3d eb 62 c0 3d a5 21 d2 3e 07 f9 69 be
       0.10816546 0.09393867 0.41041294 -0.22848903
000090 55 7f 38 be 57 42 fc bd 24 ad 72 be 4f 56 db bd
       -0.18017323 -0.12317341 -0.2369886 -0.107098214
0000a0 2f 18 1b 3e f9 06 3f be 28 4a 54 bd cf fc bb be
       0.15145944 -0.18655004 -0.051828533 -0.36716315
0000b0 9e f6 4b 3e fd 30 8e be 78 d2 c7 3e ef 1e 17 3e
       0.19918296 -0.2777175 0.39027762 0.14757894

layer2.bn2.weight f4 [4]
000000 a9 99 92 3f da ae 72 3f 81 29 7e 3f eb 41 7e 3f
       1.1453143 0.9479805 0.9928208 0.9931933

layer2.bn2.bias f4 [4]
000000 0f 36 01 3d 2c e2 72 3c 7a 87 12 38 c2 32 40 bd
       0.031545695 0.014824431 3.4935285e-05 -0.046923406

layer2.bn2.running_mean f4 [4]
000000 33 18 ce 3c ee 95 df 3d f4 38 9d bd c2 76 b5 3c
       0.025158023 0.10917269 -0.076768786 0.022151355

layer2.bn2.running_var f4 [4]
000000 65 88 e6 3e 3d 42 ed 3e 75 64 02 3f ff c0 ff 3e
       0.45025936 0.46339598 0.50934535 0.49951932

layer2.fc1.weight f4 [1, 4]
000000 9a 3e 3b 3d 1a 4a c7 3d da 23 e2 be 1b 32 5b 3e
       0.045714 0.097309306 -0.44167978 0.21405832

layer2.fc2.weight f4 [4, 1]
000000 0d 6a 1e be 3c 1c b2 bd 9d 49 44 bf 6c 0d 85 3e
       -0.15470143 -0.086967915 -0.76674825 0.25986803

layer2.fc2.bias f4 [4]
000000 dc 20 09 bf 60 1c 6a be b0 20 c2 3e e0 b6 1c bf
       -0.53565764 -0.22862387 0.37915564 -0.61216545

layer3.conv1.weight f4 [8, 4, 1, 3]
000000 b8 46 fe 3c 99 a1 ed 3d 73 03 6b 3e ae d2 dd ba
       0.03103958 0.11603088 0.22950535 -0.0016923749
000010 61 9e 84 be af b4 e1 3d 8b 87 be 3d fb fb cc bd
       -0.25902084 0.11020791 0.093031965 -0.10008999
000020 73 1a 82 be 8e be 6a 3e f9 a3 4b be 4f be 00 3e
       -0.25410804 0.22924253 -0.1988677 0.12572597
000030 2d 8b af bd 51 52 45 be 2e c7 5f be 3b b2 48 3b
       -0.085714675 -0.19269682 -0.21853325 0.0030623812
000040 44 c9 72 3e 13 95 03 be f0 aa bb bc f3 d7 43 3c
       0.23709589 -0.12849836 -0.022908658 0.011953342
000050 5c c4 81 be b4 a3 71 bd 90 38 d5 bd b7 c2 49 3d
       -0.25345123 -0.05899401 -0.10411179 0.04925796
000060 d9 f3 83 3e 19 06 17 3e 8b e1 72 3e 1b 48 8b 3e
       0.25771978 0.1474842 0.2371885 0.2720345
000070 28 e5 1a 3e ae ff 31 3e 67 32 05 3e 9c f2 fe 3c
       0.15126479 0.1738269 0.13007508 0.031121545
000080 52 35 d4 3c 75 15 5f 3d 2e 64 0e 3e f1 c6 7c 3e
       0.025904331 0.054463822 0.13905403 0.24685265
000090 1e b5 63 bc cf 9e d1 bd 70 79 0f be a5 65 6b bd
       -0.013898162 -0.102353685 -0.14011168 -0.057469983
0000a0 0a 2d 36 be c1 b1 3c be c0 4b 96 3d c1 db 7a be
       -0.17790619 -0.18427183 0.07338667 -0.24497892
0000b0 2f 7c 4b 3e 7a 6e 8f 3e 34 5b fe 3c 5f 39 5a be
       0.19871591 0.28013974 0.031049348 -0.21310948
0000c0 32 16 45 3e a8 61 2b 3d 26 b6 d6 bd d2 74 fa bc
       0.19246748 0.04184118 -0.10483961 -0.030573282
0000d0 07 4d 5d 3a b4 98 f7 3d 0c dd 4f 3d 96 b7 5f be
       0.0008441959 0.12089673 0.050747916 -0.21847376
0000e0 6a b4 69 bd 23 b6 2b 3e 55 8a 72 be 22 9f 62 bd
       -0.057056822 0.16768698 -0.23685582 -0.055327542
0000f0 46 e9 91 3d 9e 96 c2 bd b7 ea d9 bb 1f 64 3b be
       0.071245715 -0.09501384 -0.0066502946 -0.18299912
000100 68 07 1f be df 95 85 3e 54 d9 30 3e fe c8 d6 3d
       -0.15530169 0.26090905 0.17270404 0.10487555
000110 2f 73 9e 3d d2 5b 6e be 1a b9 49 be d1 35 a0 3d
       0.07736813 -0.23277214 -0.19699517 0.07822765
000120 24 9b 84 3e 39 90 64 3e d8 30 30 3e 62 ef 58 bd
       0.25899613 0.22320642 0.17206132 -0.05296267
000130 94 4f 45 3e 89 50 37 3e 48 33 ff 3c d7 14 fc be
       0.19268638 0.17901815 0.031152382 -0.4923465
000140 e2 1b 81 3d 7a b7 02 be bd cd 40 3d 0a 3c 81 be
       0.06304146 -0.12765303 0.047071207 -0.2524112
000150 b9 c0 84 be 47 c1 d1 3b 00 b6 29 be e0 78 4d bb
       -0.25928286 0.0064012143 -0.16573334 -0.0031352565
000160 d3 bb 71 3d d3 60 35 bd ce fc 90 3e ca f5 28 be
       0.059017014 -0.044281792 0.28317875 -0.16500011
000170 aa 66 db bc 23 5e 7c 3e 61 b6 28 bf 08 41 14 be
       -0.026782352 0.24645285 -0.6590329 -0.14477932

layer3.bn1.weight f4 [8]
000000 2e b3 7d 3f a5 bd 89 3f 78 4a 84 3f 5c c6 82 3f
       0.9910153 1.0761 1.0335226 1.0216784
000010 51 1b 76 3f d1 fe 80 3f 33 f3 76 3f f8 bf 70 3f
       0.9613543 1.0077764 0.9646484 0.9404292

layer3.bn1.bias f4 [8]
000000 59 f6 fd bb 74 d9 92 3d ad 00 57 3d f1 03 05 3d
       -0.007750314 0.07170382 0.05249088 0.032474462
000010 9c 8e 00 bd d8 e1 70 3c 4c 26 a2 bc 9d 4b 68 bc
       -0.031386003 0.014702283 -0.019793652 -0.014178184

layer3.bn1.running_mean f4 [8]
000000 eb 21 26 be 75 2d 8a 3d 0b 78 18 3e 83 5e 22 be
       -0.16223876 0.067469515 0.14889543 -0.15856366
000010 b1 70 49 bd d5 99 f0 bd 3d d8 29 3d 62 84 a7 bd
       -0.049179737 -0.11748091 0.041465987 -0.08179547

layer3.bn1.running_var f4 [8]
000000 83 2a e7 3e e0 5e ea 3e b9 3d e9 3e 9b 67 e3 3e
       0.4514962 0.4577551 0.45554903 0.44414982
000010 69 bd e5 3e d7 d6 ed 3e d4 0d 04 3f 31 be e4 3e
       0.4487107 0.46452972 0.515836 0.44676355

layer3.conv2.weight f4 [8, 8, 1, 3]
000000 dd 32 29 be 38 ff 31 bd b5 72 c5 bd 7c 40 16 3e
       -0.16523309 -0.043456286 -0.09641019 0.14673036
000010 a3 ff dd 3e 15 88 40 3d 9b 4c 83 3d 15 83 be 3e
       0.43359098 0.047004778 0.06411096 0.37209383
000020 73 5c bb 3d ad b4 ab bd 3f 70 90 be 03 f1 30 3e
       0.09148493 -0.083840705 -0.28210637 0.17279439
000030 1e ca b6 bd 9d 97 be 3e f6 88 41 3e b9 79 0b bd
       -0.089252695 0.37225047 0.18899903 -0.03405163
000040 24 e3 29 be a3 cf 27 be 35 6f 0d 3e 77 26 e9 3d
       -0.16590554 -0.16387801 0.13811953 0.1138429
000050 2c 53 92 bc 71 50 28 3e de 41 39 3d a0 8c 06 be
       -0.017861925 0.16436936 0.04522883 -0.13139582
000060 d6 b3 17 3e 7c 4d 75 3c 2b 2c 1b 3e d9 ce 2d 3e
       0.14814696 0.014972087 0.15153567 0.16973437
000070 31 78 94 bd f0 e0 2c 3d bc 7c 4c 3d 02 6c 06 3d
       -0.07249487 0.042206705 0.049923643 0.032817848
000080 49 3a 68 3c ae 37 41 be bf b8 44 bd 7d a7 9d bd
       0.0141740525 -0.18868896 -0.04802775 -0.076979615
000090 a8 b9 57 bd 6b 5a c4 bc b0 5c f0 bb 13 cd 4f be
       -0.05266729 -0.023968896 -0.007335268 -0.20293073
0000a0 bb 27 67 3d b9 d1 0b 3e cc 10 c6 3b c4 92 24 3e
       0.056434374 0.13654222 0.006044483 0.16071612
0000b0 ef fe 81 bd 18 26 f5 bd db a2 e5 3d be 7f 5f 3d
       -0.06347453 -0.119701564 0.11212703 0.054565184
0000c0 4f 31 10 3d 4c 34 3f 3e 26 d0 3c 3e f6 37 99 3d
       0.035203274 0.18672293 0.18438777 0.07481377
0000d0 d5 58 54 3e cb 60 89 3d 3f 47 24 be 9b f3 5b be
       0.20737012 0.06707915 -0.16042803 -0.21479647
0000e0 f6 2f 47 3d 7b 0e 2b be b3 af 3b be 01 5b ea bb
       0.048629723 -0.16704743 -0.18328743 -0.007151962
0000f0 7b f5 12 be 6f 9c 0e 3e 5b 43 3c 3e 59 94 2e 3e
       -0.14351456 0.13926862 0.18385069 0.17048778
000100 13 3f 1e 3e 1a 87 2e 3e 55 94 ce bc 02 4e 97 3d
       0.15453748 0.17043725 -0.025217215 0.07387926
000110 f0 fa 71 3c f0 32 86 3d 9b 39 3c bd 39 a6 b2 3d
       0.014769301 0.06552684 -0.045953374 0.08723111
000120 db 01 42 be 2c 2e 42 be 31 ab 50 be 50 00 34 be
       -0.1894602 -0.18962926 -0.20377804 -0.17578244
000130 4a 39 9e 3e a3 97 49 3d 1c 9f 3e 3e 10 95 4c 3e
       0.30903083 0.049216878 0.18615383 0.19978738
000140 9c a5 b7 3d ee a5 ca 3d d2 14 6d be b3 cb d3 bd
       0.08967134 0.0989493 -0.23152474 -0.10341587
000150 c3 dd 2d 3e 1d f9 1f 3e 2d 16 bf 3d 63 3e e4 bc
       0.16979127 0.15622373 0.093304016 -0.02786178
000160 4f ff d9 bd 1e 9a e2 3d 04 c5 71 3d c5 cf f2 3d
       -0.106443994 0.11064552 0.05902578 0.11856035
000170 0a 76 ae 3d a7 20 a8 bd a2 33 51 3e 7b 21 16 3e
       0.08518608 -0.08209353 0.20429853 0.1466121
000180 6b f3 30 3e 59 9f 23 be 38 ee 4a 3e 60 f5 0e be
       0.17280357 -0.15978755 0.19817436 -0.1396079
000190 ae 93 95 3d 54 75 c9 3c 48 68 48 3d 12 3d 61 3d
       0.07303558 0.02459208 0.048927575 0.05498988
0001a0 68 3d ee bd 61 ce f9 3d 05 ec e1 bc 74 31 11 bd
       -0.11632806 0.12197567 -0.027578363 -0.035447553
0001b0 bc 67 1a be 5b 53 00 3e f5 32 81 bd db 27 51 3d
       -0.15078634 0.12531798 -0.063085474 0.0510634
0001c0 64 dd 51 be c0 34 ad bb 74 cf 21 be f5 98 58 3e
       -0.2049461 -0.0052858293 -0.15801793 0.21152098
0001d0 2e 16 2f 3e 25 b5 43 be c8 d7 09 3e f8 4e 04 3d
       0.17098305 -0.1911207 0.1346122 0.032301873
0001e0 2c de 1c 3e 07 1b a8 3d 9e e1 08 3e 17 70 fc bd
       0.15319127 0.0820828 0.13367316 -0.12326067
0001f0 a0 b5 37 be a7 27 bf bd 34 d0 a7 bd 82 83 d4 bd
       -0.17940378 -0.09333735 -0.081940085 -0.103766456
000200 33 15 8a 3d 63 8d 39 bd 7e 97 71 3d e4 c4 e5 bd
       0.06742325 -0.045300853 0.058982365 -0.112191945
000210 49 c4 d6 3c af 4f 75 3d 9e aa d8 3c dd 28 22 3e
       0.026216643 0.059890445 0.026448544 0.158359
000220 fd 8a 40 3e b5 45 30 3e 90 ff 02 bd 4a 2e 27 be
       0.1880302 0.17214091 -0.031982005 -0.16326252
000230 b9 a4 81 bd 27 03 10 be b9 4f be bd 87 99 1e 3d
       -0.063302465 -0.14063703 -0.0929255 0.038720634
000240 ae 7b 37 be 92 0a 63 bd 7d 33 3d 3e 1a 1e 83 3d
       -0.17918274 -0.055430003 0.18476672 0.06402226
000250 d8 79 e9 3d 30 c1 93 3d 9d 66 10 3e 6e e7 bc be
       0.11400193 0.07214582 0.14101644 -0.36895317
000260 75 eb 3b 3e e8 e7 3b 3e 12 5a 8c bd a6 5b 07 bd
       0.18351538 0.18350184 -0.06853117 -0.033046387
000270 6a d1 38 3e f6 cb 20 3e cf 3a dd 3d 98 7a 3f 3e
       0.18048635 0.15702805 0.108022325 0.1869911
000280 e7 ef a9 3d 93 96 f3 3c ab d5 b5 3d 96 68 29 be
       0.08297711 0.029734885 0.088786446 -0.16543803
000290 2e a9 0b be de 19 b3 3d 61 f4 ca 3c 5d ab 35 3e
       -0.13638756 0.08745168 0.024774732 0.17741151
0002a0 a6 11 42 be dd 87 23 be f8 bf 70 3c 79 e4 fa bd
       -0.18952045 -0.15969796 0.014694206 -0.12250609
0002b0 58 2b 31 3e 67 0d ed bc 4c c0 a2 bc 70 1d 8d 3b
       0.1730169 -0.028937055 -0.019867085 0.0043064877
0002c0 97 85 c2 3d b2 e5 32 3e 5c 34 bf bd 0c c4 e8 bd
       0.094981365 0.17470434 -0.09336159 -0.11365518
0002d0 5e 78 4c be 06 e8 80 be ac 53 d0 bd 88 53 03 3e
       -0.19967791 -0.2517702 -0.10172209 0.12824833
0002e0 95 95 40 3d 7e b9 0e b9 df 5c 7c 3c 9f 35 2f 3d
       0.047017653 -0.00013611277 0.015403002 0.042775746
0002f0 d9 23 96 3d af e5 35 be 9e 24 e3 3d 27 1d dd 3d
       0.07331056 -0.17763399 0.110909685 0.10796576

layer3.bn2.weight f4 [8]
000000 4a 0b 81 3f d4 66 77 3f 30 45 87 3f 10 69 69 3f
       1.008157 0.9664128 1.0567989 0.9117594
000010 df e0 7f 3f 84 83 83 3f 44 43 6a 3f 26 8b 78 3f
       0.999525 1.027451 0.9150889 0.97087324

layer3.bn2.bias f4 [8]
000000 9a 87 8f 3c 32 97 4b ba 4d 52 e8 3c 7e 80 7f bd
       0.017520715 -0.00077663653 0.028359557 -0.0623784
000010 3a 47 65 bb fe 88 99 3d 5f 42 07 bd e4 66 fa 3c
       -0.0034985081 0.07496832 -0.03302228 0.03056664

layer3.bn2.running_mean f4 [8]
000000 49 8b d9 3d b5 18 75 3d dd e2 cf 3d 85 36 a0 3d
       0.1062227 0.059838016 0.101506926 0.07822899
000010 da 76 ae 3a 87 a4 1f bd de ae 0f bb 5c b4 2f 3a
       0.0013310567 -0.038975265 -0.0021924297 0.0006702596

layer3.bn2.running_var f4 [8]
000000 d2 b3 1e 3f 5b 42 e2 3e c3 99 e3 3e 17 36 0f 3f
       0.61993134 0.4419125 0.44453248 0.5594191
000010 89 cd ff 3e 6c d0 f3 3e 52 a1 e4 3e 97 e8 e2 3e
       0.49961498 0.4761995 0.44654328 0.44318077

layer3.fc1.weight f4 [2, 8]
000000 03 35 fe bd cf 25 39 bd 9c ab 84 3e ab d5 88 be
       -0.12412455 -0.045202073 0.25912178 -0.26725516
000010 a2 a6 23 be eb db 83 3e 0d 42 60 bc 13 ec cd bc
       -0.15981534 0.25753722 -0.013687623 -0.025136983
000020 ca 88 9b 3e 21 52 78 be a2 17 1f be 34 dd ab 3e
       0.303778 -0.2425008 -0.15536359 0.33567202
000030 49 a4 26 be 2d 72 81 bc 7b f7 ad bd 13 12 f4 bd
       -0.16273607 -0.015801514 -0.08494469 -0.1191751

layer3.fc1.bias f4 [2]
000000 3c 4e 11 be 7c 80 b0 3e
       -0.1419 0.34473026

layer3.fc2.weight f4 [8, 2]
000000 aa 37 71 3e 14 6a d9 3e 6b 8a 86 3d 69 08 ac 3e
       0.2355639 0.42463744 0.0656937 0.33600166
000010 0b c6 30 3f e1 60 11 bf 5a a6 e7 be 18 87 06 bf
       0.6905219 -0.5678845 -0.45244104 -0.52549887
000020 bb e8 45 3e e3 99 c1 3e 08 c8 70 be a9 d7 a7 be
       0.19327061 0.3781272 -0.23513806 -0.32781723
000030 da 91 30 bf 94 c9 2b 3f c4 b1 ec 3e 0f 61 1f 3e
       -0.6897255 0.6710446 0.46229374 0.15564369

layer3.fc2.bias f4 [8]
000000 e6 97 b9 be 1e 7c 6d 3e 85 9f 2f 3e 19 b5 12 bf
       -0.36248702 0.23191878 0.17150696 -0.57307583
000010 d7 31 05 bf 07 e3 c5 bc 2a 32 19 bf cd fd 1e 3f
       -0.52029175 -0.024156107 -0.5984217 0.6210602

layer3.shortcut.0.weight f4 [8, 4, 1, 1]
000000 b4 c9 bc bd d8 a1 01 3f 79 30 b7 be 8e 1b d1 be
       -0.09218159 0.5063758 -0.3577917 -0.40841335
000010 9f b1 8f be 41 31 14 3e c4 7d 15 bf ed 16 5f 3e
       -0.28065202 0.14471914 -0.5839503 0.21786089
000020 a4 b3 ca 3e 3d 34 71 bd c8 79 f0 3e 70 e0 45 3e
       0.3959018 -0.05888771 0.46967912 0.19323897
000030 ed 7d b0 be 5d 7b 4b be 55 fe ab be d2 fb 04 bf
       -0.34471074 -0.19871278 -0.33592477 -0.5194675
000040 1d 83 bc 3e 0d b2 c4 be 1b 3c d0 be 15 2b 08 3f
       0.36818781 -0.38417092 -0.40670857 0.5319074
000050 da dd 18 be 74 fb 2b bf ad 06 3b 3e 27 7a 68 3e
       -0.1492838 -0.6718056 0.18264265 0.22702847
000060 41 d9 c1 be 2d 24 a3 be 11 c8 ee 3d 9a c4 63 bd
       -0.37861064 -0.31863537 0.116592534 -0.055607416
000070 71 90 ec be de 62 0a 3d e7 2e e6 3d ab f6 bf bb
       -0.4620395 0.033785693 0.11239415 -0.0058582625

layer3.shortcut.1.weight f4 [8]
000000 7f 13 7c 3f cb dd 6d 3f 74 1a 7d 3f 9e 75 83 3f
       0.9846725 0.92916554 0.9886849 1.0270269
000010 ed 63 7b 3f fa 9e 84 3f 27 5d 8a 3f 25 81 85 3f
       0.9819935 1.0361016 1.0809678 1.0430037

layer3.shortcut.1.bias f4 [8]
000000 15 56 b7 3c 06 b6 f3 bb 07 5e 0e 3d 79 4d b0 bd
       0.022379914 -0.0074374704 0.03475764 -0.08608527
000010 5e 91 5b ba 01 05 f6 3d 88 83 c0 bc 0f ec 1a 3d
       -0.00083758484 0.12012673 -0.023500219 0.03782278

layer3.shortcut.1.running_mean f4 [8]
000000 d2 7b 7f bd 28 3a aa bd ea 5f a2 3e 21 c9 00 bf
       -0.062373944 -0.08311874 0.31713802 -0.503069
000010 30 68 da bd 8b 25 4a be 0e 76 20 be 38 4f 47 bd
       -0.106644034 -0.19740884 -0.15670034 -0.048659533

layer3.shortcut.1.running_var f4 [8]
000000 36 98 35 3f fc c7 fb 3e f5 0d 0d 3f 7b 00 2a 3f
       0.7093538 0.49176013 0.5509942 0.66406983
000010 d3 e4 04 3f 84 05 55 3f 8b 9f 09 3f 30 c6 e7 3e
       0.5191166 0.8321154 0.5375907 0.45268393

layer4.conv1.weight f4 [8, 8, 1, 3]
000000 36 31 d4 3d b2 20 9b be 7a 2d 9c 3c 06 df a3 3d
       0.10360949 -0.30298382 0.019064654 0.08001523
000010 b9 f8 dc 3d f1 aa e5 bd 19 a1 04 bd fd 4a e5 3e
       0.107896276 -0.11214245 -0.032380197 0.44783774
000020 cd 3f c8 bd 85 9c 45 3e c2 c2 0d be f6 02 43 3e
       -0.09777794 0.19297989 -0.13843825 0.19044098
000030 6a 2b 18 3d b8 b7 46 3e 49 57 e3 3d 2a 4b 29 3e
       0.037150778 0.1940602 0.11100633 0.16532579
000040 28 ff d6 bd d8 a9 e0 bd 7c 57 29 be 60 74 0f be
       -0.10497886 -0.10969895 -0.16537279 -0.14009237
000050 ac 16 68 bc ae 70 3d bc a3 23 eb bd d9 69 15 be
       -0.014165562 -0.011562509 -0.114814065 -0.14591159
000060 69 f4 39 be 92 83 00 3e d1 cd 4a 3e cd d4 24 3e
       -0.18159641 0.1255019 0.19805075 0.16096802
000070 b3 cc a4 3e 87 d5 25 be 67 4e 09 be a5 88 49 3d
       0.32187423 -0.16194735 -0.13408814 0.04920258
000080 af c0 34 be 64 d5 3a be bd ef ce bd 69 a2 a7 3d
       -0.17651628 -0.18245465 -0.1010432 0.08185274
000090 1b db d2 3c 69 94 a1 3d d2 c3 b4 3d a7 ed 7a 3d
       0.025739243 0.07889635 0.08826412 0.0612618
0000a0 21 e4 0c be 66 1f b7 3b b8 e1 f5 3d 3e 95 39 3e
       -0.137589 0.00558846 0.12005943 0.18123338
0000b0 06 ea 01 be 11 87 40 be 59 9d 83 3c c5 23 51 3d
       -0.12686929 -0.18801524 0.01606624 0.051059503
0000c0 6a ea ff bc 8d 99 c7 3d 82 d7 2d 3e 8e 79 88 3c
       -0.031239707 0.09746084 0.16976741 0.016659524
0000d0 bf 60 15 bd 4a a6 ed 3d ae 67 8b 3c 6b f3 d4 bd
       -0.036469217 0.11603983 0.017017212 -0.10397991
0000e0 85 23 16 3e f2 4b 3d bd 8d f7 29 3e be 19 3a 3e
       0.14661987 -0.046215005 0.1659834 0.18173882
0000f0 8c c4 c7 3c ba 1b 92 3d 7b 52 4b 3c 43 91 1f 3e
       0.024385713 0.07134195 0.012409802 0.15582757
000100 71 5c 30 be 16 31 c8 bd 60 4a 12 3d 8f 70 42 3e
       -0.17222764 -0.097749874 0.03571546 0.1898825
000110 d3 5e 94 bd a4 c9 1e be 46 5a 8b 3e ab 05 0d 3e
       -0.07244649 -0.15506607 0.2721731 0.13771693
000120 f8 6c cb 3d e3 3b 54 3d 5e b4 48 be b9 de 7a 3d
       0.099328935 0.051814925 -0.19600055 0.06124756
000130 bd ed 00 3f bf 44 3e 3d a4 10 b7 3d f7 5c 29 3f
       0.5036276 0.04645228 0.08938721 0.6615748
000140 4b f4 da bd 5f 6b d4 bb 77 04 67 3d 09 f5 23 3e
       -0.106911264 -0.006482526 0.056400742 0.16011442
000150 df 3f 35 3e 79 9f d1 3e c8 06 37 3c 13 54 48 3e
       0.17700146 0.4094198 0.01117105 0.19563322
000160 8c cc 5f bb 6b 2f 99 3d b4 c7 36 bd ae d0 9d bd
       -0.003414902 0.074797474 -0.044624045 -0.07705818
000170 ea c3 99 3d 34 8a e3 bd 8a 84 98 bd 3d 12 16 bd
       0.07508071 -0.111103445 -0.07447155 -0.036638487
000180 ed 3d 37 be 49 ea 6e 3e af b8 c0 3d f6 ca c7 bd
       -0.17894717 0.2333156 0.094102256 -0.097555086
000190 22 cb 03 be 72 66 d8 3d 90 80 44 be dc 9f 13 3d
       -0.12870458 0.10566415 -0.19189668 0.036041126
0001a0 2b d4 14 3d 49 45 f0 bd 01 5c 2f 3c 9b ee 46 be
       0.03633515 -0.11731965 0.010703088 -0.19426958
0001b0 14 5b e5 bd c4 d3 28 be 01 b2 43 bd d3 c8 de 3d
       -0.111990124 -0.16487032 -0.04777718 0.10878148
0001c0 cf d9 29 be b2 57 9b 3b 7f 0f 37 be d8 64 df 3d
       -0.16586994 0.0047406787 -0.17877005 0.10907906
0001d0 bd 5e 35 3e 49 bb aa bd 7e c5 eb ba d0 f0 6c 3b
       0.17711921 -0.08336503 -0.0017987934 0.0036154278
0001e0 a1 1f cd 3c 2b 50 39 3e c2 ad 33 be 6b 28 ca bd
       0.025039496 0.18096988 -0.17546752 -0.0987099
0001f0 7d 20 4f 3d d3 b6 8a bc db 88 43 3c 11 28 a4 3d
       0.050568093 -0.01693288 0.011934484 0.080154546
000200 ad 4f 28 3e 75 03 69 bd 51 cb bf 3d 8c b4 cb bd
       0.16436644 -0.056888063 0.093649514 -0.09946546
000210 a3 63 89 3d 17 48 8f 3d b0 71 75 3c 74 e1 9c bd
       0.06708457 0.06996172 0.0149807185 -0.07660189
000220 1b f1 ce bd a4 05 37 be c4 34 ae bd e9 f3 e5 3d
       -0.10104581 -0.17873245 -0.08506158 0.11228163
000230 e6 74 ea 3d 49 39 01 bd 78 ee 25 3d 9f 94 99 bd
       0.11448078 -0.031548772 0.040510625 -0.0749905
000240 a8 34 91 bc 10 ff e0 3d 40 d8 ee 3d 6c dc 8c bd
       -0.017725304 0.10986149 0.1166234 -0.0687798
000250 ec 88 26 3e 86 5d cb bd 52 21 75 bd a9 fa 6c bd
       0.16263169 -0.099299476 -0.05984623 -0.057856236
000260 f8 4f 22 3e a5 90 9e bd 58 34 21 3e 3d 53 78 bd
       0.15850818 -0.077424325 0.15742624 -0.060626257
000270 f8 ad 0b bb fc 12 08 be 1a 6f bc bd 7b 69 a9 bd
       -0.002131341 -0.13288492 -0.092008784 -0.08272072
000280 7b 29 69 bd b8 fc e9 3d f4 fc 03 be 09 4e ad bd
       -0.056924324 0.114251554 -0.12889463 -0.0846215
000290 5c ed cc 3c 45 b8 32 3e 43 19 35 3e c9 5c e2 bd
       0.025015526 0.17453106 0.17685418 -0.110528536
0002a0 a0 6a b3 bd 54 07 b0 3d 5c 60 4b 3e 7b 74 c1 3d
       -0.087605715 0.08595148 0.19860977 0.09446045
0002b0 e2 65 51 be 9c 14 46 bd 51 89 cf bd 43 71 8b be
       -0.20449021 -0.0483595 -0.10133613 -0.2723485
0002c0 28 c5 d9 3d 85 51 41 3d 77 5d 2d be c6 7b 59 bd
       0.10633308 0.047196884 -0.16930185 -0.053096555
0002d0 df 7c 72 bd 45 ab 09 3d aa 47 f4 3d 01 97 46 be
       -0.059201118 0.0336106 0.11927731 -0.19393541
0002e0 11 92 f4 3d 26 7e 3a be ee 96 1f 3e 67 e4 3f 3e
       0.119419225 -0.18212184 0.15584919 0.18739472
0002f0 28 bb cb 3d 4d f1 bc bd 3e e4 2c be 65 49 e6 bc
       0.099478066 -0.09225712 -0.16883942 -0.02811117

layer4.bn1.weight f4 [8]
000000 1a e1 82 3f cb 9a 75 3f 2e 3c 83 3f b7 3d 81 3f
       1.0224946 0.9593932 1.025274 1.0096959
000010 99 3c 80 3f 85 5d 71 3f 0f c1 86 3f e8 b9 7b 3f
       1.0018493 0.94283324 1.0527667 0.98330545

layer4.bn1.bias f4 [8]
000000 39 8f 3f bc f4 4b be 3b 2f 05 d4 3c a2 9c b7 3c
       -0.011691862 0.005807394 0.025881378 0.022413556
000010 9d 1d 49 bc 6f 11 0c bc 2e c7 4e 3d cf 80 31 3c
       -0.012275127 -0.008549078 0.05048292 0.010833933

layer4.bn1.running_mean f4 [8]
000000 ed f3 65 bd a1 6a fd 3d 43 ba 40 3d 73 7c 87 3e
       -0.05614083 0.123738535 0.047052633 0.26462135
000010 4f eb ba bc e4 79 fa 3d ea 96 a9 3d 5f 19 39 bb
       -0.022817282 0.1223028 0.08280738 -0.0028243882

layer4.bn1.running_var f4 [8]
000000 31 58 f2 3e da 62 05 3f e8 12 ee 3e fb 8c 16 3f
       0.4733291 0.5210396 0.464988 0.5880887
000010 d2 f4 ec 3e fa 06 f0 3e 4f 8f fb 3e f0 ba ea 3e
       0.46280533 0.46880323 0.49132773 0.45845747

layer4.conv2.weight f4 [8, 8, 1, 3]
000000 60 47 49 3e 09 ce ad 3e 97 cf 03 be c4 74 bb 3d
       0.19656134 0.33946255 -0.12872158 0.09153131
000010 fb 9a 92 3d 71 db 82 bd cd f2 47 be 36 a4 70 be
       0.071584664 -0.063895114 -0.19526215 -0.23500142
000020 c3 5d 89 bb db 73 89 bd b9 dc 75 3e 54 23 8d 3d
       -0.0041920855 -0.06711551 0.2400998 0.06891504
000030 63 ea e8 3c 00 c4 f4 3c 64 b2 6e bd 5c b2 4f be
       0.028432077 0.029878616 -0.058275595 -0.20282882
000040 1d 6e 93 3c 70 a7 d5 bd 04 4f 4f 3e 9e 37 33 3e
       0.017996842 -0.10432327 0.20244986 0.17501685
000050 8f 6f f7 bd 40 87 2c 3e ba 78 d7 bd e1 1f bc 3c
       -0.12081825 0.16848469 -0.10521074 0.02296442
000060 d8 70 78 3d ba 6c c8 bd 6b 75 d8 bd 39 ee 36 3d
       0.06065449 -0.09786363 -0.10569271 0.04466078
000070 bc db 6e be 7e 26 a9 3d 3a 85 0e be f8 28 5e be
       -0.2332601 0.08259295 -0.1391801 -0.21695316
000080 b2 54 5a bd 36 53 4a be 99 e7 2c be 5f 5d 7b bc
       -0.053303428 -0.19758305 -0.16885222 -0.015342086
000090 11 f3 d9 bd 86 79 07 3e 87 44 b0 3d a6 43 f4 3d
       -0.10642064 0.13229951 0.086068206 0.119269654
0000a0 e2 63 27 be ff 47 4d 3e aa 40 28 3d 01 89 08 3c
       -0.16346696 0.20046996 0.041077293 0.0083334455
0000b0 69 0e 16 be 71 6d e1 bd b9 83 c3 bd 29 cd 05 3e
       -0.14653935 -0.110072024 -0.095466085 0.13066544
0000c0 41 95 3a bd 76 5f 25 3e eb 4f d3 3d 9a 98 24 be
       -0.045552496 0.16149697 0.103179775 -0.16073838
0000d0 c1 5a 43 3e 69 ec 18 be 56 8d 08 3d b7 57 75 3c
       0.19077589 -0.14933933 0.033337913 0.014974526
0000e0 4d b0 21 be 65 04 9c 3d c1 a6 29 bd 5d 85 fb 3d
       -0.1578991 0.07618026 -0.041418795 0.122812964
0000f0 18 ca 98 3d 60 3f 5e 3d 07 68 8c 3d 95 86 34 be
       0.07460421 0.054259658 0.06855779 -0.17629464
000100 8e 7d 41 3d 4b 4d 5c 3d 18 c5 3b 3e ae 3b 0a be
       0.04723888 0.05378465 0.18336904 -0.13499328
000110 50 8a 98 bd e4 10 04 3e 32 7b a6 bd 15 68 6e bd
       -0.07448256 0.12897068 -0.081289664 -0.05820473
000120 e2 1f 0a bd 99 d2 72 3d b6 76 e2 3c f8 b4 3a be
       -0.033721812 0.059282873 0.027644496 -0.18233097
000130 f5 bc 5c 3a b7 9c ad bd cb 2e 1b be a4 7c 19 be
       0.0008420491 -0.084771566 -0.15154569 -0.14988953
000140 b0 1c 77 bc bd 74 45 bd b0 50 37 3d 72 ac 9a bd
       -0.015082523 -0.048207033 0.044754684 -0.075524226
000150 41 40 1d 3e 8c 69 57 3e 11 44 ae bd 28 16 09 bd
       0.15356542 0.21036357 -0.085090764 -0.033468395
000160 80 08 1b 3e 40 60 f7 3d 28 93 f3 bd 62 d9 c7 3d
       0.15139961 0.12078905 -0.11893302 0.09758259
000170 5a 47 4e bd 53 04 e4 bd 47 82 f7 bd cc 34 0e 3d
       -0.050361015 -0.11133637 -0.12085395 0.03471832
000180 2e a6 3f 3e 9a e0 d4 3d b1 c0 a4 3d a8 ac f6 3d
       0.18715736 0.10394402 0.080445655 0.1204465
000190 83 00 67 3e 8f 28 0d 3e de be 65 3d 0c 26 22 be
       0.22558789 0.13785003 0.05609023 -0.15834826
0001a0 d0 c1 8d bd 9e 24 bd bd 88 c9 8b 3e 35 7a d7 3c
       -0.069217324 -0.092355 0.27302194 0.02630339
0001b0 71 10 9a bc 0a 19 f1 3d e1 cc 9f 3d 80 43 87 3d
       -0.018806668 0.11772354 0.078027494 0.066046715
0001c0 cf 3b 41 3e d9 ad 73 3d 8e 6e ac 3d 98 59 e7 3d
       0.18870471 0.059491966 0.08419524 0.112963855
0001d0 bf 15 08 3e 4d 3f 42 3e 8f 1b af 3d 81 72 37 3b
       0.13289545 0.1896946 0.08550178 0.0027991834
0001e0 54 c6 cb bd 88 29 16 3e 4e bc 64 bd 20 2f 8a 3d
       -0.099499375 0.1466428 -0.055843644 0.0674727
0001f0 b6 0e c3 3c 66 93 eb bd c5 a3 48 be f8 62 58 be
       0.023810726 -0.115027234 -0.19593723 -0.21131504
000200 a2 d4 13 3e 9d 5b ae bd 42 07 03 3c 38 88 14 be
       0.14436582 -0.085135676 0.007997336 -0.14505088
000210 be 2b 0e be d6 16 e8 bd 19 16 12 3e 13 2e 18 be
       -0.13883874 -0.113324806 0.14266242 -0.14861326
000220 13 d0 66 bd a5 2f a2 3d 61 df 3f bc c2 65 2f be
       -0.05635078 0.07919244 -0.0117109725 -0.17128661
000230 a6 ff 23 be cd 64 23 bd 5a 44 ab bd 98 66 f5 3d
       -0.16015491 -0.039891053 -0.083626464 0.11982459
000240 fc d1 0a bd 5f fb 3c 3e e0 c0 62 3d 7c 16 3c be
       -0.033891663 0.18455265 0.05535972 -0.18367952
000250 59 f9 90 bd dd 8a fa bd aa 2d 95 3d 80 6f ce bd
       -0.07078809 -0.12233517 0.072841 -0.10079861
000260 9c cf 02 bd fc 91 ea 3c 03 94 21 3c 35 74 92 3d
       -0.031936273 0.028634064 0.009861949 0.07151071
000270 3a 36 b1 bd 25 6d df bd 47 30 ac bd 75 09 64 bd
       -0.08652921 -0.109094895 -0.08407646 -0.05567308
000280 d2 1c b7 bc e3 28 f6 bd 89 87 40 be 62 ad fd be
       -0.02235261 -0.12019517 -0.18801703 -0.49546343
000290 56 b5 1d 3e 45 ee 39 3e 4e 19 07 3e 2a e0 4d be
       0.15401205 0.18157299 0.13193247 -0.20105043
0002a0 28 88 32 3e d9 1f 3e 3e 3b 47 56 3d 22 30 1e bd
       0.17434752 0.18566836 0.052314024 -0.03862012
0002b0 e4 ca b3 bd 84 02 00 3d 81 29 a6 bd 88 5f 46 3e
       -0.08778933 0.0312524 -0.08113385 0.1937238
0002c0 2b 40 e1 bc a5 5f 28 be e5 19 ed bd 67 69 8c 3d
       -0.027496418 -0.16442735 -0.115772046 0.068560414
0002d0 88 a4 a3 3d 4d 0c 4d 3c 3f 9b 13 be b6 8d 42 3e
       0.07990366 0.01251514 -0.1441469 0.18999371
0002e0 6f 32 33 bd e8 16 4a be 5d 05 b1 bd 88 2f 19 3d
       -0.04374927 -0.197353 -0.08643601 0.037398845
0002f0 81 c1 16 be 65 2f 40 3e 0d 33 f9 3d 26 2f 53 3d
       -0.14722253 0.1876808 0.1216794 0.051558636

layer4.bn2.weight f4 [8]
000000 c2 7c 87 3f 9d e8 84 3f 12 7b 7a 3f 72 84 78 3f
       1.0584948 1.0383488 0.9784404 0.97077096
000010 32 8d 83 3f aa f4 83 3f dc 70 6f 3f 65 63 83 3f
       1.0277464 1.030904 0.93531585 1.0264708

layer4.bn2.bias f4 [8]
000000 21 66 cf 3c c3 27 2f bc 54 20 16 bc 13 e3 62 bb
       0.025317254 -0.010690632 -0.009162981 -0.003462021
000010 a6 76 24 3c 09 af 98 3d 0c 50 36 bc c9 88 2c 3c
       0.010038054 0.0745526 -0.011127483 0.010530659

layer4.bn2.running_mean f4 [8]
000000 6e 24 4d 3d 89 dd 17 be 6a b1 02 3d 27 39 93 3d
       0.05008357 -0.14830603 0.031907476 0.07188635
000010 e0 f1 0e 3e 5f 8a b8 bd 73 13 83 bd 3a f4 37 3d
       0.13959455 -0.09010767 -0.06400194 0.044910647

layer4.bn2.running_var f4 [8]
000000 b9 47 01 3f e8 e3 ec 3e 5f 13 e3 3e 1b f6 01 3f
       0.50500065 0.4626763 0.44350716 0.5076615
000010 5d f2 0a 3f a9 98 eb 3e 78 4e 00 3f 17 01 eb 3e
       0.54276067 0.46014908 0.50119734 0.4589927

layer4.fc1.weight f4 [2, 8]
000000 cf dd 5f 3d 84 da 5d 3e 99 7e 55 bd 68 7e 45 3e
       0.054654893 0.21665388 -0.052122686 0.19286501
000010 c0 a0 82 bd 1f c3 69 3e 3b 2b a2 be 55 95 3a be
       -0.06378317 0.22828339 -0.31673607 -0.18221028
000020 d8 f9 5c 3e ce af 1e be 95 96 b7 bd 43 ea 10 be
       0.21579683 -0.15496752 -0.08964268 -0.14151864
000030 b3 ab 4b 3e 76 19 35 3e d5 8d a2 be 84 49 af be
       0.19889717 0.17685494 -0.31748834 -0.34235775

layer4.fc1.bias f4 [2]
000000 0f 38 a7 3e 65 aa 24 3e
       0.32659957 0.16080625

layer4.fc2.weight f4 [8, 2]
000000 ec 85 c0 bd 6d 65 7c be 35 58 ab 3e 7e 58 a2 be
       -0.094005436 -0.24648066 0.33465734 -0.3170814
000010 d3 92 9c 3e b7 5e 5b 3e 8b 28 58 3e ac 10 da bd
       0.30580768 0.2142285 0.21109216 -0.10647711
000020 dc d3 1e bf 03 3c 1f 3f a1 f9 13 3f f1 35 10 bf
       -0.6204202 0.62200946 0.5780278 -0.5633231
000030 81 e3 4e bd 6b 77 99 be 0d 4c 77 3c 45 c1 12 3e
       -0.050509933 -0.2997392 0.0150938155 0.14331539

layer4.fc2.bias f4 [8]
000000 57 c6 2c bf 7f 4b 9e 3e 3b c6 1a 3e 67 a4 24 bf
       -0.6749014 0.30916974 0.15114681 -0.6431336
000010 ba 7d 00 bf b5 d2 04 bf 18 8c 11 be 33 d7 0b bf
       -0.50191844 -0.51884013 -0.14213598 -0.5462524

layer5.conv1.weight f4 [16, 8, 1, 3]
000000 8b dd 71 3d 3f c8 ed 3d 18 5e e2 3d 63 3f c8 3d
       0.05904917 0.116104595 0.11053103 0.09777715
000010 5b c4 30 be d5 3e 3d be 13 df 3f 3e 03 e8 55 be
       -0.17262404 -0.18481 0.1873744 -0.20889287
000020 58 3c 99 bd 57 9d ca 3b b3 20 d8 3c 6a 1e 01 be
       -0.07482213 0.006183307 0.02638278 -0.12609258
000030 16 dd 47 3e 53 f4 19 be 9b aa c3 bd be b1 63 bd
       0.19517931 -0.15034609 -0.09554025 -0.05558943
000040 38 11 48 3e 91 97 83 3d 58 c2 26 3e 24 c0 76 bc
       0.19537818 0.064253934 0.16285074 -0.015060458
000050 83 6c 72 bd e0 0e b1 3c a6 68 fa 3d 4f 47 4a 3e
       -0.059185516 0.021613538 0.12226991 0.19753765
000060 62 4c d9 bd 08 ec 06 3e 09 09 bc bb 79 6e 13 be
       -0.10610272 0.13175976 -0.0057383818 -0.1439761
000070 7a ce 56 3e 28 9e 63 bd 18 95 41 3d de a9 8c bd
       0.20977202 -0.05557075 0.047261328 -0.06868337
000080 d8 47 f0 3d 21 53 4b be c3 a2 e9 3d 89 68 d0 3d
       0.11732453 -0.1985593 0.114079975 0.101761885
000090 2d 8e 33 be 36 cc 28 be 63 8e 0c be 0b d6 26 3e
       -0.17534705 -0.1648415 -0.13726191 0.16292588
0000a0 fb 14 a8 3c 72 ea da bc 7c 4c 0d be 89 11 15 3d
       0.020517817 -0.02672312 -0.13798708 0.036393676
0000b0 9e 06 c0 bb 0e e1 d8 bd 08 0d 25 be f5 33 93 bd
       -0.005860164 -0.10589801 -0.16118252 -0.071876444
0000c0 18 47 c9 3c f1 a4 c1 bd 19 0c 44 be ba 76 37 be
       0.024570033 -0.09455288 -0.1914524 -0.17916384
0000d0 82 d9 11 3d 9d 62 15 3e eb 9e 5c bd b0 de 36 3e
       0.035607822 0.14588399 -0.053862493 0.17858386
0000e0 e4 ce 91 3c b4 a6 38 be 47 51 48 bd 79 02 64 bc
       0.017798848 -0.18032342 -0.048905637 -0.013916605
0000f0 5a 78 ae bd 4e 9d 9e 3d ff db 09 be 51 86 34 3e
       -0.08519049 0.07744847 -0.13462828 0.17629363
000100 37 6d 03 3e 2b 28 99 3c 09 ee 37 3e d2 42 11 3e
       0.12834631 0.018695911 0.17961897 0.14185646
000110 90 b8 02 bc 76 98 17 3e c7 bd f5 bd b4 5a 2e be
       -0.007978573 0.14804253 -0.11999088 -0.17026788
000120 69 24 e0 3c bb 22 e3 bd c2 fa 91 3b 1a 85 fd bd
       0.027361112 -0.11090609 0.0044549415 -0.12378903
000130 55 79 42 bd db ed 2f 3e 9c e3 13 be 33 d5 e7 bd
       -0.047478992 0.17180578 -0.14442295 -0.113199614
000140 03 4b d2 bd ee fe 47 3e 17 11 2e be 5e 60 e9 bd
       -0.102682136 0.19530842 -0.16998707 -0.11395334
000150 0e 97 4b 3e 4f c4 dc bd f9 98 03 3e 92 16 eb 3c
       0.19881842 -0.107796304 0.12851323 0.028697286
000160 9b 28 2d 3d 1f 92 35 be a1 d6 2e 3d a0 ff 22 3b
       0.042275053 -0.17731522 0.042685155 0.0024871603
000170 26 42 bf 3c 51 69 d5 bd 27 99 f3 3d 1e 5f c9 bd
       0.023346972 -0.10420478 0.11894446 -0.09832595
000180 fb a6 44 be c7 a5 ef bd b6 de ba bd c4 69 1c be
       -0.19204323 -0.117015414 -0.0912451 -0.15274721
000190 1c 98 ba 3d 36 46 bf bd 0f 56 40 3e b4 e6 0a 3e
       0.09111044 -0.093395635 0.18782829 0.13564569
0001a0 11 e0 b0 bd 60 10 4c be 76 d7 44 bd 06 23 09 be
       -0.08636487 -0.19928122 -0.048057042 -0.13392267
0001b0 bc fe ec 3d d1 72 14 3d 38 bb b2 bd 43 57 7a 3d
       0.11572024 0.03624231 -0.087271154 0.061118376
0001c0 c3 87 0a 3e 2b db 52 3c 4d a4 3c be 38 df 3d 3e
       0.13528351 0.0128696365 -0.18422051 0.18542182
0001d0 b7 7e a8 bd 36 24 c1 3d f2 28 67 3c 20 c5 15 be
       -0.08227294 0.09430735 0.014108883 -0.14625978
0001e0 0f 8c cb bd 78 00 3b 3e d1 9f e7 3d 96 f9 3b be
       -0.099388234 0.18261898 0.113097794 -0.18356928
0001f0 18 8d 17 3e 40 60 f0 3d 6a 11 3a be 10 ea 34 bd
       0.14799917 0.11737108 -0.18170705 -0.044168532
000200 01 2d 6e 3d 71 67 b5 bd 45 08 cd 3d a3 3d 30 3e
       0.058148388 -0.088576205 0.10011343 0.17211013
000210 4b 65 3b 3e 87 84 1d be d6 1a 18 be 00 5f 63 bd
       0.18300359 -0.15382586 -0.14853987 -0.05551052
000220 a6 ec 6d 3c 47 87 18 bd ee 23 01 bd fb 84 25 be
       0.014521753 -0.037238386 -0.031528406 -0.1616401
000230 3c 3c 11 be 5f 5e 81 3d ef c7 1e 3e 97 d8 11 3e
       -0.14183134 0.06316828 0.15505956 0.14242779
000240 ae 00 96 3d db a6 86 be eb 3f be 3d 5d 99 46 be
       0.073243484 -0.26299176 0.09289535 -0.19394441
000250 b0 42 07 3d 73 ae 90 3c 7d ab d4 bd cb 33 73 3d
       0.033022583 0.017661309 -0.10384271 0.059375565
000260 5a 0e 6b 3d 44 ec 37 be aa c6 d0 bd 76 45 a8 3c
       0.057386734 -0.17961222 -0.10194142 0.020540934
000270 f2 e7 44 be bc 81 43 3e d2 22 9f 3d 40 03 ea bd
       -0.19229105 0.19092458 0.07770313 -0.11426401
000280 c3 82 67 be 70 6c 9e bd b6 80 93 bd 96 51 0e 3d
       -0.22608475 -0.077355266 -0.07202284 0.034745775
000290 bd 0d 3d 3e e4 41 ae 3d 74 54 56 3e de 4c 87 3d
       0.18462272 0.085086614 0.20930654 0.06606458
0002a0 c8 62 29 be c3 fa cf bd c7 5f 32 bd 33 1c 36 be
       -0.16541588 -0.10155251 -0.04354837 -0.17784195
0002b0 e4 e9 d0 bd 51 e0 19 3d 7f a4 09 3c 89 38 83 3e
       -0.10200861 0.03756744 0.008401035 0.2562907
0002c0 54 26 05 be d5 72 dd bc 93 8d be bc dd 32 f2 bc
       -0.13002902 -0.027032295 -0.023260867 -0.02956527
0002d0 48 b4 6e 3d a9 9e 6c 3e 6d 66 a2 bc 86 5d 4f bd
       0.0582774 0.23107399 -0.019824231 -0.0506263
0002e0 9a 09 47 bd 49 7d eb 3d 3a ca 14 3e 5d dc c5 bd
       -0.04859314 0.114985056 0.14530268 -0.096611716
0002f0 a8 0d a0 bd c8 64 00 be 38 27 dd bd e8 b3 38 bc
       -0.07815105 -0.12538445 -0.10798496 -0.011273362
000300 b6 02 48 be 1c 5a e5 3c 38 f6 10 be ad 50 38 3e
       -0.19532284 0.027997069 -0.14156425 0.17999525
000310 30 ee 31 3e ec bf fc bd 82 ea 44 bc 32 59 0f 3e
       0.17376018 -0.12341294 -0.012018802 0.13998869
000320 15 84 17 bd f9 86 2a 3e 83 23 8d 3e 3c 9f 42 3d
       -0.036991198 0.1665305 0.27566156 0.04751514
000330 b6 c2 41 be 46 d2 ff 3d 11 4e 98 bc 65 4e d3 bd
       -0.18921933 0.12491278 -0.018591912 -0.10317687
000340 ff a8 c8 3c a2 73 4d 3e ca 81 59 bd a0 37 01 3e
       0.024494646 0.20063642 -0.053102292 0.12618876
000350 44 72 4d 3e d7 0b 13 be c9 b1 30 be f5 75 0d be
       0.2006312 -0.14359985 -0.1725532 -0.13814528
000360 68 20 87 bd d2 ed ba bb 70 7f 0e 3d 12 1a b1 bd
       -0.06597978 -0.00570462 0.034789503 -0.08647551
000370 ca cb 7a be 76 71 88 3b 40 af dd bd cf e2 62 bd
       -0.24491802 0.004163916 -0.10824442 -0.055392083
000380 dd 84 32 3e 6a 2d 0a 3e 79 37 e4 bd 0c 14 e8 bc
       0.17433496 0.13493887 -0.11143393 -0.028329872
000390 63 97 46 3d a7 3c ee bd e6 3f 21 be 8c ca a9 3d
       0.048484217 -0.11632662 -0.15747032 0.08290586
0003a0 5c e4 50 3e 3a 86 d9 3d 5d 1b 9e bc c6 cd 90 bb
       0.20399612 0.10621305 -0.019300157 -0.0044190614
0003b0 66 e5 b8 bb 83 9c 23 be 36 06 97 3c f5 47 ca 3c
       -0.005642581 -0.15977673 0.018435579 0.024692515
0003c0 d6 ce 12 bd 2c 0a 67 bb 82 21 06 be 3a 85 4b 3e
       -0.035841785 -0.0035253866 -0.1309872 0.1987504
0003d0 65 18 a7 3d a4 f9 96 3d 11 1f 50 3e 2f bb 61 be
       0.0815895 0.07371834 0.20324351 -0.22044061
0003e0 31 64 36 3e d5 b7 4a bb 3d 71 02 be a0 6c 3a bd
       0.17811657 -0.0030932326 -0.1273851 -0.04551375
0003f0 f9 da 43 3e f3 3e 07 be 9b 41 1e be 60 f8 3b 3e
       0.191265 -0.13207607 -0.15454714 0.18356466

layer5.bn1.weight f4 [16]
000000 36 ba 7f 3f e7 9c 80 3f 0f a4 7f 3f 3a 43 80 3f
       0.9989351 1.0047883 0.9985971 1.0020516
000010 a2 dd 76 3f e5 4d 89 3f f9 28 77 3f 04 9d 82 3f
       0.96431935 1.0726897 0.96546894 1.0204167
000020 f5 80 7c 3f 12 bf 80 3f d4 18 7c 3f ea a4 80 3f
       0.9863427 1.005831 0.98475385 1.0050328
000030 7f 75 7f 3f fb 1d 7a 3f 82 df 80 3f b1 84 80 3f
       0.9978866 0.97701997 1.0068209 1.0040494

layer5.bn1.bias f4 [16]
000000 00 5e 85 3b 3a 58 55 3c dc 8a 64 3c c0 41 10 39
       0.0040700436 0.013021523 0.013949122 0.00013757404
000010 e7 97 5d bc 49 89 55 3d b1 20 a9 3a 3c d5 46 bb
       -0.013524986 0.05213288 0.001290342 -0.00303395
000020 9b bd bd 3c 00 9d 23 3c cd e8 b5 bc e9 fa 28 bc
       0.0231617 0.009986162 -0.022205735 -0.010313728
000030 c7 73 57 3b 44 82 33 ba ed 7e 63 3c 0d a5 ea ba
       0.0032875405 -0.0006847719 0.013885242 -0.0017901972

layer5.bn1.running_mean f4 [16]
000000 6e 9a 5d 3d e9 01 41 3d 85 a1 0b 3e 29 1e 00 be
       0.054102354 0.047120962 0.13635834 -0.12511505
000010 ca 34 2d 3e de 04 1c 3e 6e cb c3 bd 92 e6 a7 bd
       0.16914669 0.15236232 -0.095602855 -0.08198275
000020 d6 10 4b 3e 0a 89 4c bc 80 b5 4a be 69 12 95 be
       0.19830641 -0.0124838445 -0.197958 -0.29115608
000030 c5 8d 03 be e3 fe af 3a 2e f5 8b 3e 8b 8c 94 3d
       -0.1284705 0.0013427403 0.27335495 0.07253369

layer5.bn1.running_var f4 [16]
000000 6f 01 09 3f d9 39 02 3f 70 cc 0d 3f e5 d6 16 3f
       0.5351781 0.5086952 0.5539007 0.58921653
000010 5f ad 07 3f 35 bf eb 3e f9 ba f1 3e 37 bb fa 3e
       0.5299892 0.46044317 0.4721296 0.4897096
000020 27 2e 1f 3f 67 ed 02 3f 4a f5 06 3f c0 9d a6 3f
       0.621798 0.511435 0.5271803 1.3016891
000030 68 53 0c 3f ce 38 f9 3e 98 23 10 3f 38 63 ef 3e
       0.5481477 0.4867615 0.5630431 0.46755385
