das_new/models/20260106_143945/best_model.pth (torch, 98946 bytes, 176 tensors)

input_conv.weight f4 [4, 1, 1, 3]
0	0x3df5bce2	0.11998917
1	0x3ee5639f	0.44802567
2	0xbdfa47f5	-0.12220756
3	0x3f0ab620	0.5418415
4	0x3eddfaa3	0.43355283
5	0x3e8cd78d	0.27508202
6	0xbe4295f1	-0.1900251
7	0x3ea6336c	0.32461107
8	0x3d8262c7	0.063664965
9	0x3ed86e8f	0.4227185
10	0xbf042b17	-0.5162825
11	0xbd08f323	-0.033435

input_bn.weight f4 [4]
0	0x3f2daad8	0.6783881
1	0x3f7f5dd5	0.9975255
2	0x3f9047e9	1.1271945
3	0x3f7f4a77	0.99723

input_bn.bias f4 [4]
0	0xbdaf8d4a	-0.085718706
1	0xbc05af84	-0.008159522
2	0x3eba3563	0.36368856
3	0x3e0c293a	0.13687602

input_bn.running_mean f4 [4]
0	0x3ba84da8	0.0051362105
1	0x3ba2ddd3	0.004970291
2	0x3b73e242	0.0037213718
3	0xbbc1f1c8	-0.005918715

input_bn.running_var f4 [4]
0	0x3e52591d	0.20541807
1	0x3e44fa44	0.19236094
2	0x3ddcd890	0.107834935
3	0x3e8ba96a	0.2727769

layer1.conv1.weight f4 [4, 4, 1, 3]
0	0xbe6522ed	-0.22376604
1	0x3dd12a05	0.10213093
2	0x3e4a7d84	0.19774443
3	0x3df2ad2e	0.11849438
4	0x3e4005d7	0.18752228
5	0xbe7ebd0d	-0.24876805
6	0x3e0aa15c	0.13538116
7	0x3d02e9f1	0.031961385
8	0x3e7db725	0.24776895
9	0x3d57e787	0.052711036
10	0x3d6bb25e	0.05754315
11	0x3e39a46c	0.18129128
12	0x3e1888bb	0.14895909
13	0x3dd0d52f	0.101969115
14	0x3e8214c9	0.25406483
15	0x3d7bf4fe	0.06151294
16	0x3e70f37a	0.23530379
17	0x3d83075e	0.063978896
18	0x3a946189	0.0011320572
19	0x3e6e89dd	0.23294778
20	0xbe1dd6ec	-0.15414017
21	0xbe067f85	-0.13134582
22	0x3e79bf37	0.24389349
23	0xbc9e5073	-0.01932547
24	0xb99b8ecb	-0.00029670293
25	0xbe184968	-0.14871752
26	0xbe4ed9a5	-0.20200212
27	0x3e1df155	0.15424092
28	0xbf144459	-0.5791679
29	0x3e30884d	0.17239495
30	0xbe10c480	-0.14137459
31	0xbee69fb6	-0.45043725
32	0xbe11f60e	-0.14254019
33	0x3cb9b6d7	0.022670193
34	0xbe5d0095	-0.21582253
35	0x3dc10808	0.0942536
36	0xbc410a6c	-0.01178227
37	0x3cd14c78	0.025549158
38	0x3c179beb	0.009253482
39	0xbe1e61a2	-0.15466931
40	0x3e4435fb	0.19161217
41	0xbd4391c6	-0.047746442
42	0x3df55d12	0.119806424
43	0x3e3e195a	0.18564358
44	0x3dfd7bcb	0.12377127
45	0xbd079e86	-0.033110164
46	0xbe423ff2	-0.18969706
47	0xbceea2d9	-0.029130386

layer1.bn1.weight f4 [4]
0	0x3f7c21e6	0.98489225
1	0x3f80d112	1.0063803
2	0x3f676a9f	0.90397066
3	0x3f666dad	0.900111

layer1.bn1.bias f4 [4]
0	0xbc30df9f	-0.010795503
1	0x3c3755b7	0.01118987
2	0x3d0f4849	0.034981046
3	0x3c3bf37f	0.011471628

layer1.bn1.running_mean f4 [4]
0	0x3e1038d9	0.14084186
1	0x3ebb7abd	0.3661708
2	0xbf1fa3a6	-0.6235908
3	0x3dcbfd35	0.09960405

layer1.bn1.running_var f4 [4]
0	0x3d2d1702	0.04225827
1	0x3e1c50e8	0.15265238
2	0x3f44dcc3	0.76899356
3	0x3e19905c	0.14996475

layer1.conv2.weight f4 [4, 4, 1, 3]
0	0xbca82586	-0.020525705
1	0x3e9e9601	0.3097382
2	0x3e2fcfe1	0.17169143
3	0x3e1d3766	0.15353164
4	0x3eaafb71	0.3339496
5	0x3e810e9d	0.25206462
6	0x3e853a3e	0.26020998
7	0xbdaf5fd6	-0.08563201
8	0x3e04b7ee	0.12960789
9	0xbe05d44e	-0.13069269
10	0x3dcfda7b	0.10149094
11	0xbdeeb887	-0.116562895
12	0x3c32830e	0.010895504
13	0x3dfdad40	0.123865604
14	0xbe47a03c	-0.19494718
15	0x3e33137d	0.17487903
16	0x3eddd034	0.4332291
17	0x3e836832	0.25665432
18	0xbe3ae57c	-0.18251604
19	0xbf06f41a	-0.5271622
20	0xbe12a10d	-0.14319248
21	0x3e4bd86c	0.19906777
22	0x3add212f	0.0016870851
23	0xbe174972	-0.14774111
24	0x3e8b306d	0.27185383
25	0xbd230e40	-0.03980851
26	0x3be8eacc	0.007108068
27	0xbd7763e6	-0.060398005
28	0x3d9b7387	0.075903945
29	0x3d6a2016	0.057159506
30	0xbe423e6f	-0.18969129
31	0xbe828411	-0.25491384
32	0xbd2fbc07	-0.042903926
33	0xbe87a36f	-0.26491877
34	0xbe7aec54	-0.24504215
35	0x3e7abfe2	0.2448726
36	0xbe6c9242	-0.23102668
37	0xbeed6452	-0.463656
38	0x3e05ccaa	0.13066354
39	0xbd93aeef	-0.072111
40	0xbe3a8e53	-0.18218355
41	0xbe2b1228	-0.16706145
42	0x3e38b831	0.18039013
43	0xbe27b37e	-0.16377065
44	0x3dd496ad	0.103803016
45	0xbe087ed1	-0.13329627
46	0xbe644853	-0.22293214
47	0x3d4417b0	0.047874153

layer1.bn2.weight f4 [4]
0	0x3f6c3d7a	0.92281306
1	0x3f8b0f16	1.0863979
2	0x3f6b7991	0.9198237
3	0x3f6fbbef	0.9364614

layer1.bn2.bias f4 [4]
0	0x3e05e1fb	0.13074486
1	0x3e27d82d	0.16391058
2	0xbc9821cf	-0.018570809
3	0xbd571a58	-0.052515358

layer1.bn2.running_mean f4 [4]
0	0x3e624e6d	0.2210023
1	0x3c034317	0.008011601
2	0xbe2348f8	-0.15945804
3	0xbeb21d4f	-0.34787986

layer1.bn2.running_var f4 [4]
0	0x3eca8cc7	0.3956053
1	0x3e9e6f73	0.30944404
2	0x3c31e23e	0.010857163
3	0x3eea9220	0.4581461

layer1.fc1.weight f4 [1, 4]
0	0xbed11d14	-0.40842497
1	0xbe8c9ca5	-0.2746326
2	0xbe956320	-0.2917719
3	0xbcbe9dec	-0.023268662

layer1.fc2.weight f4 [4, 1]
0	0x3ee2eab0	0.44319677
1	0xbf1e8ccc	-0.6193359
2	0x3f008112	0.50196946
3	0xbe88f9eb	-0.26753172

layer1.fc2.bias f4 [4]
0	0x3eea12df	0.45717523
1	0x3ee3151f	0.44352052
2	0x3ebd2c63	0.36947927
3	0xbeea13fd	-0.45718375

layer1.shortcut.0.weight f4 [4, 4, 1, 1]
0	0xbe8a7779	-0.27044275
1	0x3e48c985	0.19608124
2	0xbf04a83e	-0.5181922
3	0x3ed19f85	0.40942016
4	0xbc7b4233	-0.015335607
5	0xbf205c29	-0.62640625
6	0xbef116a0	-0.47087574
7	0x3f0b2c96	0.5436491
8	0xbdd16e2d	-0.102260925
9	0x3e17bf56	0.14819083
10	0xbef08c28	-0.4698193
11	0x3e9d5596	0.3072936
12	0x3daf251f	0.08552002
13	0xbdf57304	-0.11984828
14	0x3f0469ef	0.5172414
15	0xbe11f63c	-0.14254087

layer1.shortcut.1.weight f4 [4]
0	0x3f7e940f	0.9944467
1	0x3f962ed1	1.1733037
2	0x3f60ae74	0.87766194
3	0x3f66a383	0.9009325

layer1.shortcut.1.bias f4 [4]
0	0x3e8e790b	0.27826723
1	0x3e82ce13	0.25547847
2	0xbc39600f	-0.011314406
3	0xbc76bd78	-0.015059821

layer1.shortcut.1.running_mean f4 [4]
0	0xbdd1f96b	-0.10252651
1	0xbe87c7b8	-0.2651956
2	0xbdcfd296	-0.10147588
3	0x3e5b5702	0.2141991

layer1.shortcut.1.running_var f4 [4]
0	0x3ebec28b	0.372578
1	0x3f9585c8	1.1681452
2	0x3e744d0c	0.23857516
3	0x3e766bd7	0.24064575

layer2.conv1.weight f4 [4, 4, 1, 3]
0	0x3e82ce24	0.25547898
1	0x3e9ac0f2	0.3022533
2	0x3e81e383	0.2536889
3	0x3dd1e376	0.10248463
4	0x3f733914	0.9500897
5	0xbdb0b922	-0.08629061
6	0x3df696e2	0.12040497
7	0x3f6ee2d8	0.93314886
8	0x3e2ad7d9	0.16683902
9	0xbcf3a56a	-0.029741962
10	0xbd8b8d1b	-0.06814023
11	0xbe880ba9	-0.26571396
12	0xbe0cf404	-0.1376496
13	0x3efca407	0.49343893
14	0xbe6de622	-0.2323232
15	0x3d19e740	0.037574053
16	0x3f29b813	0.662965
17	0x3d614d0c	0.05500512
18	0x3da5ae77	0.08089917
19	0x3f4e59d0	0.80605793
20	0x3e1fdac6	0.15610799
21	0x3e66f617	0.22554813
22	0xbf156c2a	-0.5836817
23	0x3d9758da	0.07389994
24	0xbe78d76c	-0.24300927
25	0xbebabd68	-0.3647263
26	0x3e3c182e	0.18368599
27	0xbe00a443	-0.12562661
28	0xbe0b0a74	-0.13578206
29	0xbe5c2e37	-0.21502005
30	0xbdbda3cd	-0.09259758
31	0xbd281f50	-0.041045487
32	0xbe7093bc	-0.23493856
33	0x3e46e3a4	0.19422776
34	0x3d88406e	0.06652914
35	0xbe2bc86d	-0.16775675
36	0x3e1d83d2	0.15382317
37	0xbeb155e9	-0.34635857
38	0xbd74472c	-0.059638187
39	0xbe46701b	-0.19378702
40	0xbf0a0bca	-0.5392424
41	0xbe6e4942	-0.23270133
42	0xbe8acd9f	-0.2711
43	0xbf056163	-0.52101725
44	0xbd581239	-0.052751753
45	0xbe141223	-0.14460044
46	0x3f26d85c	0.6517389
47	0x3e4a8c2e	0.19780037

layer2.bn1.weight f4 [4]
0	0x3f716bf2	0.94305336
1	0x3f40aa52	0.7525989
2	0x3f8df2e7	1.1089753
3	0x3f7c8e6e	0.9865483

layer2.bn1.bias f4 [4]
0	0xbd375a6a	-0.04476396
1	0xbe7be310	-0.24598336
2	0x3e24ed4f	0.16106151
3	0x3dcfc508	0.101450026

layer2.bn1.running_mean f4 [4]
0	0x3f85334a	1.0406277
1	0x3f5da40a	0.8657843
2	0xbe8998a7	-0.26874277
3	0xbf17c012	-0.5927745

layer2.bn1.running_var f4 [4]
0	0x3f4fb814	0.81140256
1	0x3f4f8f39	0.81077915
2	0x3d6ff340	0.05858159
3	0x3ef276b8	0.473562

layer2.conv2.weight f4 [4, 4, 1, 3]
0	0x3e0936dd	0.13399835
1	0x3de3808a	0.11108501
2	0x3e7b900f	0.24566673
3	0xbe7b4bd6	-0.24540648
4	0xbda38aeb	-0.07985481
5	0x3d9394e2	0.072061315
6	0xbe76a7b7	-0.24087416
7	0x3df82f0a	0.12118347
8	0x3d27f978	0.041009396
9	0xbd89063d	-0.06690643
10	0x3f04e16c	0.51906466
11	0xbe45ef0b	-0.19329469
12	0x3df37d82	0.11889173
13	0xbe3f4f39	-0.18682565
14	0x3ca4761c	0.02007585
15	0xbe06274a	-0.13100925
16	0x3e3d633a	0.18494883
17	0x3e4132d4	0.18867046
18	0x3e140b15	0.14457352
19	0xbe93f854	-0.28900397
20	0xbe0c0b29	-0.13676132
21	0x3d7ebb9c	0.062190637
22	0xbe588486	-0.21144304
23	0xbdcd4b80	-0.10024166
24	0xbe4d09d6	-0.20023283
25	0xbe5e556a	-0.2171227
26	0x3d3e3631	0.0464384
27	0xbe352267	-0.17688905
28	0xbe8718a9	-0.26386002
29	0xbbe1719f	-0.00688
30	0x3dd282fa	0.10278888
31	0xbe230b83	-0.1592236
32	0x3e54b340	0.20771503
33	0xbe684e8b	-0.22686212
34	0xbe3f8f23	-0.18706946
35	0xbe0ab0d5	-0.13544019
36	0xbd00137f	-0.031268593
37	0xbeb3ae0d	-0.35093728
38	0xbe85c9d3	-0.26130542
39	0xbe5a0029	-0.21289124
40	0xbf65556e	-0.8958348
41	0xbd430c07	-0.047618892
42	0xbd97de38	-0.07415432
43	0x3f717bc7	0.94329494
44	0x3e35e01f	0.17761277
45	0x3e8344e9	0.25638512
46	0x3e8688ea	0.26276332
47	0xbdc9b3bd	-0.098487355

layer2.bn2.weight f4 [4]
0	0x3f774e8f	0.96604246
1	0x3f875709	1.0573436
2	0x3f483975	0.7821267
3	0x3f364c1b	0.7120988

layer2.bn2.bias f4 [4]
0	0x3dddc46f	0.10828482
1	0x3dfd5314	0.123693615
2	0xbe099432	-0.13435438
3	0xbd810e2c	-0.06301531

layer2.bn2.running_mean f4 [4]
0	0x3eb6152a	0.35563022
1	0xbe9e8730	-0.30962515
2	0xbeaa5339	-0.3326662
3	0x3eaf8b2c	0.34285867

layer2.bn2.running_var f4 [4]
0	0x3e12484a	0.14285389
1	0x3db7525c	0.08951256
2	0x3cf54db7	0.029944284
3	0x3fa83b5f	1.3143119

layer2.fc1.weight f4 [1, 4]
0	0x3ed906dc	0.42388046
1	0xbe9f15b2	-0.3107124
2	0x3ea78e1c	0.32725608
3	0x3e44d59f	0.19222115

layer2.fc2.weight f4 [4, 1]
0	0x3d522b09	0.051310573
1	0x3f610af6	0.8790735
2	0xbf3f1f28	-0.74656916
3	0x3e8d3c58	0.275851

layer2.fc2.bias f4 [4]
0	0xbef1b416	-0.47207707
1	0x3e94c20a	0.2905429
2	0x3ebe38db	0.37152752
3	0x3b10b151	0.0022078345

layer3.conv1.weight f4 [8, 4, 1, 3]
0	0x3e072f8a	0.13201728
1	0x3eceb3ba	0.40371495
2	0xbe850847	-0.25982878
3	0x3e1f9fc5	0.15588291
4	0x3e9733f2	0.2953182
5	0xbe2a1f94	-0.16613609
6	0xbe5f7c2a	-0.21824709
7	0x3e60a432	0.21937636
8	0xbdbdd70f	-0.09269535
9	0x3d270743	0.04077841
10	0xbdbae647	-0.09125953
11	0xbd47baf4	-0.048762277
12	0xbe38e02b	-0.18054263
13	0x3ed12700	0.40850067
14	0x3d621dab	0.055204075
15	0x3d2d1ec5	0.042265672
16	0xbeb25e85	-0.34837738
17	0x3e4ae9dd	0.19815774
18	0xbd22757f	-0.039662834
19	0xbc7d34cf	-0.015454485
20	0xbdb8d2d3	-0.090245865
21	0x3e0c1034	0.13678056
22	0x3e0540d3	0.1301301
23	0xbe5d0dc2	-0.2158728
24	0x3e6e5450	0.2327435
25	0xbe940e0a	-0.2891696
26	0xbe239580	-0.15974998
27	0xbe031438	-0.12800682
28	0xbdc3c4bd	-0.09559009
29	0xbdf9378c	-0.12168798
30	0x3e2dc44f	0.16969417
31	0xbe21a42e	-0.15785286
32	0x3e25f945	0.1620837
33	0xbddee19f	-0.108828776
34	0x3e642c79	0.2228259
35	0x3e08614e	0.13318369
36	0x3ddd0023	0.10791042
37	0xbeb332b7	-0.3499963
38	0x3e19c2be	0.15015694
39	0x3e7549d0	0.23953938
40	0x3e2a16b8	0.16610229
41	0xbe586888	-0.21133626
42	0xbb7b9a6a	-0.0038391599
43	0xbe50c917	-0.2038921
44	0x3dcbafb8	0.09945625
45	0xbe719e58	-0.2359556
46	0xbdb6cb5c	-0.089255065
47	0xbe1f6cfb	-0.15568916
48	0x3daf8678	0.0857057
49	0x3e10b339	0.14130868
50	0x3ce29140	0.027657151
51	0xbdd74b45	-0.105124034
52	0xbe494306	-0.19654474
53	0xbc0bf678	-0.008542649
54	0xbd908129	-0.07055885
55	0xbdcd21bd	-0.10016201
56	0xbe0c1f88	-0.13683903
57	0xbcb7e680	-0.022448778
58	0x3ded5dcc	0.11590156
59	0xbdae446e	-0.08509146
60	0x3de3bad2	0.111196175
61	0x3c9effac	0.019409023
62	0xbd76991b	-0.060204607
63	0x3d642880	0.055702686
64	0x3e57ea8e	0.2108557
65	0xbb615747	-0.0034384297
66	0x3cd566aa	0.02604993
67	0x3e45d437	0.19319235
68	0xbd18a87c	-0.037270054
69	0x3daefb46	0.0854402
70	0x3da626a9	0.081128426
71	0xbe25233a	-0.16126719
72	0x3da38315	0.07983986
73	0xbddc8abe	-0.107686505
74	0xbdf2e28c	-0.11859617
75	0xbcba299d	-0.02272492
76	0x3eb30cdf	0.34970757
77	0xbe5a148b	-0.21296899
78	0xbd3debc5	-0.046367425
79	0x3e29eb82	0.16593745
80	0x3e00ad87	0.12566195
81	0x3e51944a	0.20466724
82	0x3e0b4062	0.13598779
83	0xbdafc0f9	-0.085817285
84	0xbd4ce051	-0.050018612
85	0x3e2f8a58	0.17142618
86	0xbe0a520b	-0.1350786
87	0xbde09b90	-0.10967171
88	0xbe774278	-0.2414645
89	0x3dd106e9	0.10206396
90	0xbdc8ff8b	-0.09814366
91	0xbe8339f5	-0.25630155
92	0xbd7701bb	-0.060304385
93	0xbe85535e	-0.26040167
94	0xbcc6af1b	-0.024253419
95	0x3d7ab451	0.06120712

layer3.bn1.weight f4 [8]
0	0x3f78fe24	0.9726279
1	0x3f80f803	1.0075687
2	0x3f616352	0.88042176
3	0x3f68b25b	0.9089715
4	0x3f69a160	0.91261864
5	0x3f855275	1.0415789
6	0x3f5b272c	0.85606647
7	0x3f81316d	1.0093209

layer3.bn1.bias f4 [8]
0	0xbd88e90b	-0.066850744
1	0x3d4e24fa	0.050328232
2	0xbd852cbb	-0.06502672
3	0x3cc03f9c	0.023467831
4	0xbd7450bf	-0.059647318
5	0x3d86a2ae	0.065739974
6	0xbd937c12	-0.07201399
7	0x3db0c5fd	0.08631513

layer3.bn1.running_mean f4 [8]
0	0x3f17af8e	0.5925225
1	0x3c33008c	0.010925423
2	0xbe8dcfb5	-0.2769753
3	0xbe67beae	-0.22631332
4	0xbdb0147c	-0.08597657
5	0x3ea1bff1	0.31591752
6	0x3eb44f8c	0.3521694
7	0xbe6d9f67	-0.23205338

layer3.bn1.running_var f4 [8]
0	0x3d3bdfad	0.04586761
1	0x3e505b5c	0.20347351
2	0x3c87f4d2	0.016596232
3	0x3d3207f3	0.043464612
4	0x3d9c9a4d	0.07646618
5	0x3d0e8d94	0.03480299
6	0x3da96642	0.08271457
7	0x3ddb7f02	0.10717584

layer3.conv2.weight f4 [8, 8, 1, 3]
0	0xbdb0912a	-0.08621438
1	0x3e149408	0.14509594
2	0x3e445caa	0.19175974
3	0x3c71a9b8	0.014749937
4	0x3e35bb98	0.17747343
5	0xbc8e4977	-0.017369015
6	0x3e06d805	0.13168342
7	0xbcc05ded	-0.023482287
8	0xbd4b4153	-0.049622845
9	0x3dbbbf89	0.09167392
10	0xbe7cd6eb	-0.2469136
11	0x3d6be544	0.05759169
12	0x3e334978	0.17508495
13	0x3e258934	0.1616562
14	0xbd6ac6e6	-0.05731859
15	0x3df232de	0.118261084
16	0xbe228edb	-0.15874808
17	0xbdd5aa44	-0.10432866
18	0x3e3c1147	0.18365966
19	0x3dc1e181	0.094668396
20	0xbe27e7c8	-0.16397011
21	0xbda994f5	-0.082803644
22	0x3e053805	0.13009651
23	0xbd2e7312	-0.04259021
24	0xbe06b06f	-0.13153242
25	0xbde27c2d	-0.11058841
26	0xbe384010	-0.17993188
27	0xbde4f2d8	-0.11179131
28	0x3ee8688e	0.4539227
29	0x3d50ec6f	0.05100673
30	0x3e0799d7	0.13242279
31	0xbe70b1a6	-0.23505268
32	0xbdda6d2f	-0.10665356
33	0xbe16b2eb	-0.1471669
34	0xbe160281	-0.14649393
35	0xbd191f6a	-0.037383474
36	0x3dffeecb	0.12496718
37	0x3da36f1c	0.07980177
38	0x3e40f502	0.18843463
39	0x3e110452	0.14161804
40	0xbcc980c0	-0.024597526
41	0x3d9a2244	0.07526067
42	0xbb709d17	-0.0036714727
43	0xbe80a461	-0.2512541
44	0x3d44ef49	0.048079763
45	0xbe1ca550	-0.15297437
46	0x3ebc93c7	0.36831495
47	0xbe360992	-0.17777088
48	0x3da7cb94	0.08193126
49	0xbebe13a2	-0.37124354
50	0x3dcc5a51	0.09978164
51	0xbc1ca758	-0.009561382
52	0x3e174892	0.14773777
53	0xbd4b97e8	-0.049705416
54	0x3dee539e	0.116370425
55	0x3ace90a5	0.001575966
56	0x3de0378a	0.10948093
57	0x3da33e9b	0.079709254
58	0x3df4c1d9	0.11951036
59	0xbd5867ae	-0.05283325
60	0xbd80f049	-0.06295831
61	0xbe736bdf	-0.23771618
62	0xbe140275	-0.14454062
63	0xbe14cfab	-0.14532344
64	0x3d8a2f1f	0.06747269
65	0xbc2f894c	-0.0107138865
66	0x3db8ad22	0.090173975
67	0x3d1f9775	0.0389628
68	0x3e2edca7	0.1707636
69	0xbe03bc33	-0.12864761
70	0xbe214cd4	-0.15751964
71	0xbda77d07	-0.08178144
72	0x3d9cd436	0.076576635
73	0x3e65ed9a	0.22453919
74	0xbc94a70a	-0.018146057
75	0x3e1c8ea9	0.15288796
76	0x3db06c5b	0.08614417
77	0xbddc3588	-0.10752398
78	0xbe0b5c95	-0.13609536
79	0xbca5eb29	-0.020253735
80	0xbdcd66be	-0.10029362
81	0xbd943def	-0.072383754
82	0xbe05c844	-0.13064677
83	0x3d7a0b0e	0.0610457
84	0xbe3b3b5c	-0.18284363
85	0x3deaa45d	0.11457131
86	0xbda9b063	-0.08285596
87	0x3de242d6	0.11047904
88	0xbe9251e1	-0.28578094
89	0xbd7a45d0	-0.061101735
90	0xbd706dc9	-0.05869845
91	0xbdd78e51	-0.105251916
92	0x3e124314	0.14283401
93	0x3d2f86c4	0.042853132
94	0x3d385886	0.045006298
95	0x3d22b7bb	0.039726
96	0x3dc1bafa	0.09459491
97	0x3d2e05aa	0.04248587
98	0x3e04f12a	0.12982622
99	0xbd89091f	-0.06691193
100	0x3e4688bb	0.19388096
101	0xbcfe64f3	-0.031053996
102	0xbe290b9e	-0.16508338
103	0x3e0bbecf	0.13647006
104	0xbdcd56f2	-0.10026349
105	0x3d8d4065	0.06897048
106	0xbe675e7e	-0.2259464
107	0x3e351775	0.1768473
108	0xbd24fc9a	-0.040279962
109	0x3db6a45d	0.089180686
110	0xbe44235e	-0.19154117
111	0xbc771dfa	-0.015082831
112	0xbe5047f0	-0.20339942
113	0xbcebfadd	-0.028806144
114	0x3d9bf882	0.076157585
115	0x3c13b2ad	0.009014768
116	0xbe03fffd	-0.1289062
117	0x3e1701cc	0.14746779
118	0xbdd7f136	-0.10544054
119	0x3dffd838	0.12492412
120	0x3d623b0d	0.055232096
121	0xbe1c08b6	-0.15237698
122	0xbd61cc5a	-0.055126525
123	0xbd853377	-0.06503957
124	0x3e7880f5	0.24267943
125	0x3e36c98b	0.1785032
126	0xbddc2bae	-0.10750519
127	0x3edb9e1a	0.4289406
128	0xbd22a4ba	-0.039707877
129	0xbd6065d0	-0.054784596
130	0xbeb3248c	-0.3498882
131	0x3dd372d8	0.10324639
132	0x3e372bcf	0.17887805
133	0x3e5d80b2	0.21631125
134	0xbdba23ce	-0.090888605
135	0x3db72564	0.089426786
136	0xbf382ab4	-0.7194016
137	0x3dad653b	0.08466574
138	0xbe318b55	-0.17338307
139	0xbf06bdc1	-0.5263329
140	0xbcce049c	-0.025148682
141	0x3e08d802	0.1336365
142	0x3f044600	0.5166931
143	0xbc7b9e33	-0.015357542
144	0x3cf2f43d	0.029657478
145	0xbe1f444f	-0.15553401
146	0xbd56f790	-0.052482188
147	0x3d04b7ee	0.03240197
148	0xbdaa2cb9	-0.083093114
149	0x3d87d0f7	0.06631654
150	0x3c499fdb	0.012306179
151	0x3e846f13	0.25865993
152	0xbd8ec660	-0.06971431
153	0xbde2824d	-0.11060009
154	0xbdc9ea87	-0.09859186
155	0xbe418460	-0.18898153
156	0xbe0a767c	-0.1352176
157	0xbe130b08	-0.14359677
158	0x3e3c276e	0.18374416
159	0xbe0f0efc	-0.1397056
160	0x3dcefc3a	0.10106702
161	0xbe077afd	-0.1323051
162	0x3e125a09	0.14292158
163	0xbe027331	-0.12739255
164	0xbe1a0374	-0.1504038
165	0xbccc3c81	-0.024931194
166	0xbdef49da	-0.11684008
167	0xbdb458f2	-0.088060275
168	0xbd90c3f3	-0.07068624
169	0x3e798307	0.24366389
170	0xbe19aaf2	-0.15006617
171	0x3e374610	0.1789782
172	0xbe7b36b1	-0.24532582
173	0x3d0e6797	0.03476676
174	0x3d050548	0.03247574
175	0xbe1323e0	-0.14369154
176	0x3db57ef1	0.08862103
177	0xbd7d74b0	-0.06187886
178	0x3de2b725	0.11070088
179	0x3de97780	0.11399746
180	0xbe0cef51	-0.13763167
181	0xbda21f91	-0.07916177
182	0xbba2ea35	-0.0049717673
183	0xbda694bc	-0.081338376
184	0x3e99fdb4	0.30076373
185	0xbe1c9b00	-0.15293503
186	0x3da94cf2	0.08266629
187	0x3e53d935	0.20688327
188	0x3d0bf9aa	0.034173645
189	0x3d9dfb00	0.0771389
190	0x3c2fcc74	0.010729898
191	0xbddc063e	-0.10743378

layer3.bn2.weight f4 [8]
0	0x3f7c4618	0.98544455
1	0x3f7d015b	0.98830193
2	0x3f5219a2	0.8207036
3	0x3f7b405c	0.9814508
4	0x3f76f97e	0.96474445
5	0x3f8044ab	1.0020956
6	0x3f6ad6c4	0.91733956
7	0x3f6f4b6d	0.93474466

layer3.bn2.bias f4 [8]
0	0x3cb545f2	0.02212808
1	0x3d8b0da8	0.06789714
2	0xbc564e61	-0.01308021
3	0x3dc5c65b	0.09656974
4	0xbccd36b2	-0.025050495
5	0x3dd239ed	0.10264955
6	0x3cbbed72	0.022940371
7	0x3d2ca4ff	0.04214954

layer3.bn2.running_mean f4 [8]
0	0x3de8addb	0.11361285
1	0x3e07ce55	0.13262303
2	0xbe1e950a	-0.15486541
3	0xbd554c4d	-0.05207472
4	0xbd5aa1ec	-0.053377077
5	0xbe21488a	-0.15750328
6	0xbe1dad0f	-0.15398048
7	0x3e3beafe	0.18351361

layer3.bn2.running_var f4 [8]
0	0x3dfbef07	0.1230145
1	0x3edb19eb	0.4279321
2	0x3c88e2c5	0.016709695
3	0x3d9c5fd7	0.076354675
4	0x3dc33744	0.095320255
5	0x40055e51	2.0838816
6	0x3c64cd24	0.013964925
7	0x3eabdf0c	0.3356861

layer3.fc1.weight f4 [2, 8]
0	0xbe961d66	-0.29319304
1	0xbd2dd93a	-0.04244349
2	0x3e0672d3	0.1312974
3	0x3e81f037	0.25378582
4	0xbcf909e5	-0.030400226
5	0x3e3ecd91	0.18633105
6	0x3db1175f	0.08647036
7	0xbe957c8a	-0.29196578
8	0x3c23cef1	0.009998069
9	0xbdc94531	-0.0982765
10	0x3dbfd88d	0.09367476
11	0x3e1417dd	0.14462228
12	0xbea5625b	-0.32301602
13	0xbe182397	-0.14857326
14	0xbdb74732	-0.08949126
15	0x3cacee6c	0.021109782

layer3.fc1.bias f4 [2]
0	0x3e0987a1	0.13430645
1	0xbcd0a46d	-0.02546903

layer3.fc2.weight f4 [8, 2]
0	0xbf03c7dd	-0.5147684
1	0xbe97f01a	-0.2967537
2	0x3ef7acb9	0.48373964
3	0x3e43646a	0.19081274
4	0x3eaff233	0.3436447
5	0x3e3ad0c5	0.18243702
6	0x3ed4cbc8	0.41561723
7	0xbe063f51	-0.13110091
8	0x3ec6964e	0.38786548
9	0x3ef85f7c	0.4851035
10	0xbe239138	-0.15973365
11	0x3dc54bdd	0.096336104
12	0xbee8d3df	-0.45474145
13	0x3cfa6355	0.030564943
14	0x3f13ed8d	0.5778435
15	0x3d7d30ae	0.061814003

layer3.fc2.bias f4 [8]
0	0x3f023cab	0.5087382
1	0x3e01a72a	0.12661424
2	0xbec71197	-0.38880607
3	0xbf12bf4f	-0.57323164
4	0x3f089113	0.53346366
5	0xbf2d2cd2	-0.67646515
6	0x3edd3c9f	0.43210313
7	0x3f0913bc	0.5354574

layer3.shortcut.0.weight f4 [8, 4, 1, 1]
0	0xbca60d5d	-0.020270044
1	0xbe702aed	-0.23453875
2	0xbeca7ae5	-0.39546886
3	0x3eabb33c	0.33535182
4	0x3eaa2fd2	0.3323961
5	0xbecf04ba	-0.40433294
6	0x3c8fa704	0.017535694
7	0x3e5cb457	0.21553169
8	0x3eee2022	0.4650889
9	0xbea6ae72	-0.32554966
10	0xbe0214cd	-0.12703247
11	0x3e6f5763	0.23373179
12	0x3e330943	0.17484002
13	0xbc852acc	-0.016255759
14	0xbed33f4d	-0.41259232
15	0x3e545d86	0.20738801
16	0x3cddf88d	0.027096057
17	0x3e1da4fb	0.15394966
18	0xbe878550	-0.26468897
19	0x3f10323c	0.5632665
20	0x3ddc0519	0.1074316
21	0xbf5f5dd0	-0.8725252
22	0xbe052feb	-0.1300656
23	0x3e8bf5b7	0.27335903
24	0xbe9e86a0	-0.30962086
25	0x3e37dc57	0.17955147
26	0xbeaf8dbc	-0.34287822
27	0x3ebf652d	0.37381878
28	0xbd61779f	-0.05504572
29	0x3f282f31	0.6569701
30	0xbe696239	-0.22791375
31	0xbec3ee71	-0.38267854

layer3.shortcut.1.weight f4 [8]
0	0x3f7484a6	0.95514905
1	0x3f72676d	0.94689065
2	0x3f82c240	1.021553
3	0x3f7fee93	0.9997341
4	0x3f795323	0.9739248
5	0x3f682334	0.90678716
6	0x3f74349c	0.95392776
7	0x3f77c569	0.967856

layer3.shortcut.1.bias f4 [8]
0	0x3d17d9f0	0.037073076
1	0x3d274e06	0.040845893
2	0xbd16de2e	-0.03683298
3	0x3dac017d	0.08398721
4	0x3bec6121	0.007213727
5	0x3dbce80b	0.09223946
6	0x3d4632f5	0.04838844
7	0x3c988028	0.018615797

layer3.shortcut.1.running_mean f4 [8]
0	0xbe9caf2a	-0.3060239
1	0xbd215df3	-0.039396238
2	0x3d2af521	0.04173768
3	0xbd4ae384	-0.049533382
4	0x3e432271	0.19056107
5	0xbf21e04f	-0.6323289
6	0xbde1acea	-0.11019309
7	0x3e869ea0	0.26292896

layer3.shortcut.1.running_var f4 [8]
0	0x3e5b520c	0.21418017
1	0x3e6c627b	0.23084442
2	0x3e9d1bd8	0.30685306
3	0x3e06ec3a	0.13176051
4	0x3dacb8cb	0.08433684
5	0x3f20ee6c	0.628638
6	0x3c0a4cc3	0.008441153
7	0x3e94b46e	0.29043907

layer4.conv1.weight f4 [8, 8, 1, 3]
0	0xbdadce05	-0.08486561
1	0xbe052141	-0.13000967
2	0x3e08e36a	0.13368002
3	0x3cf7ad54	0.030234016
4	0xbe6ea92d	-0.23306723
5	0xbb1c1765	-0.0023817655
6	0x3cd8f32c	0.02648314
7	0x3d9e186f	0.07719504
8	0xbd170e69	-0.036878977
9	0x3e0740fd	0.13208385
10	0xbe8271ff	-0.25477597
11	0xbd1736f5	-0.036917645
12	0xbc88667a	-0.016650427
13	0x3eae85f2	0.34086567
14	0x3de6c76e	0.11268507
15	0x3e1d1e0f	0.15343498
16	0xbdde403f	-0.10852098
17	0x3b873fd6	0.004127483
18	0x3e3bcffa	0.18341056
19	0x3d88bdfd	0.066768624
20	0xbd9b36d9	-0.07578821
21	0xba9b6e8f	-0.001185851
22	0xbc3ba5dc	-0.011453118
23	0x3dc6af7b	0.09701439
24	0x3dd2ef31	0.102995284
25	0xbe629af5	-0.22129424
26	0x3deaa80f	0.11457836
27	0x3deebf28	0.11657554
28	0x3e996212	0.29957634
29	0xbe3ef6bc	-0.18648809
30	0xbe2c3021	-0.16815235
31	0xbe00e50a	-0.12587371
32	0x3ce06ba9	0.027395086
33	0x3d983947	0.074328
34	0xbe94f7f7	-0.29095432
35	0xbe1abc31	-0.15110852
36	0x3e2cd7e9	0.16879238
37	0xbe115ae8	-0.14194834
38	0xbe24275d	-0.16030641
39	0x3dc78005	0.09741215
40	0x3cf16dda	0.029471327
41	0x3d6feca1	0.058575276
42	0xbd973d13	-0.07384696
43	0xbd3dec35	-0.046367843
44	0xbdfa9c11	-0.122367986
45	0xbe2b99e9	-0.16757931
46	0x3d22313b	0.03959773
47	0x3d00dadc	0.03145872
48	0xbe20bbf8	-0.15696704
49	0xbe1d3123	-0.15350775
50	0xbc9824f0	-0.0185723
51	0x3e413195	0.1886657
52	0xbe75ff6d	-0.24023218
53	0xbc8d7ff3	-0.017272925
54	0xbdacf537	-0.084452085
55	0x3e0ff98d	0.1406004
56	0x3e131fd9	0.14367618
57	0x3dfb7402	0.12277986
58	0xbe23fbfd	-0.16014095
59	0xbe0a3527	-0.13496839
60	0x3dd9649c	0.10614893
61	0x3c93a70b	0.018023988
62	0xbd1f9986	-0.03896477
63	0x3d7a0c6f	0.061047014
64	0xbe3499bc	-0.1763677
65	0x3dbfb577	0.093607835
66	0x3d1a04a3	0.03760208
67	0xbc2097c3	-0.009801808
68	0xbb0a1992	-0.002107237
69	0xbd667b99	-0.056270216
70	0xbd837080	-0.06417942
71	0x3cf2a42e	0.029619303
72	0x3e216a67	0.15763246
73	0xbdce577f	-0.10075282
74	0xbdb6600c	-0.08905038
75	0xbd027a88	-0.031855136
76	0xbe4ed672	-0.20198992
77	0xbe18375e	-0.14864871
78	0xbe31c40a	-0.17359939
79	0xbcfe2bb8	-0.031026706
80	0xbd95dead	-0.07317863
81	0xbe25c2e1	-0.16187622
82	0xbd87492e	-0.06605755
83	0x3df5929d	0.11990855
84	0xbd945b6d	-0.072440006
85	0x3d44c121	0.048035745
86	0xbe15b26b	-0.14618842
87	0xbdd8481c	-0.10560629
88	0x3bf92a5b	0.007603926
89	0xbe397cb5	-0.18113978
90	0x3e01312c	0.12616414
91	0xbdaf2c4a	-0.08553369
92	0xbda38b42	-0.07985546
93	0x3dffb0bd	0.12484882
94	0x3e09fd84	0.13475615
95	0x3d8546d6	0.065076515
96	0x3d53e14c	0.05172853
97	0xbe69dfdb	-0.228393
98	0xbbd5fc90	-0.006530352
99	0xbdd85afd	-0.1056423
100	0x3f20cf86	0.62816656
101	0xbda352f4	-0.079748064
102	0x3e2f8896	0.17141947
103	0x3d6b6306	0.057467483
104	0x3dd6e0b0	0.104920745
105	0xbe1ee1bb	-0.15515797
106	0xbe2cdd21	-0.16881229
107	0x3df4cbd4	0.1195294
108	0xbe221fe6	-0.15832481
109	0xbdd50d00	-0.1040287
110	0x3da96c94	0.08272663
111	0x3b1d7380	0.0024025142
112	0xbc663927	-0.014051712
113	0xbd414408	-0.04718402
114	0xbda19369	-0.078894444
115	0xbe0582c6	-0.13038167
116	0xbe01e3e6	-0.12684593
117	0x3d7bb3a0	0.0614506
118	0x3c951645	0.018199096
119	0xbe0ddcff	-0.13853835
120	0xbe15e1e5	-0.14636953
121	0xbeb4c0cf	-0.3530335
122	0xbe22e179	-0.15906323
123	0x3d8965e7	0.067088895
124	0xbdd32ebb	-0.103116475
125	0xbdaff9b7	-0.08592551
126	0xbe0cd505	-0.13753136
127	0xbc500f63	-0.012698981
128	0x3cdcc649	0.026950018
129	0x3d488316	0.04895314
130	0x3d98a4de	0.07453321
131	0xbe052c3a	-0.13005152
132	0xbe13fa45	-0.14450939
133	0xbe662875	-0.2247637
134	0x3df2b256	0.11850421
135	0xbd96849a	-0.073495105
136	0x3de38a02	0.11110307
137	0xbccd798e	-0.025082376
138	0xbdde0a3b	-0.10841795
139	0xbdbc1670	-0.09183967
140	0x3d53b0f2	0.05168242
141	0xbd993d5b	-0.07482406
142	0x3db98963	0.090594076
143	0x3e19567d	0.14974399
144	0x3dd6deaa	0.104916885
145	0xbe8b4a2d	-0.2720503
146	0x3e15061f	0.14553116
147	0xbc4b9948	-0.012426682
148	0xbe55026c	-0.20801705
149	0x3d5fd197	0.05464324
150	0x3e0424dc	0.12904686
151	0xbe5b2656	-0.21401343
152	0x3de1aee3	0.11019685
153	0xbe3db242	-0.18525031
154	0xbe91e03d	-0.28491393
155	0x3e444fc1	0.19171049
156	0xbc9419f5	-0.018078784
157	0xbde3f054	-0.11129823
158	0x3d4ec667	0.05048218
159	0xbd76ffd0	-0.060302556
160	0xbd167ab9	-0.03673813
161	0xbdf22fb0	-0.11825502
162	0xbe0efe13	-0.13964109
163	0xbe24a56f	-0.16078733
164	0xbda3ec63	-0.080040716
165	0xbe426f47	-0.18987761
166	0x3dc98a2b	0.098408066
167	0x3e0467f0	0.12930274
168	0xbe295ff6	-0.16540512
169	0xbb901584	-0.004397096
170	0x3deb03dd	0.11475346
171	0x3e22f655	0.1591428
172	0x3d7b0443	0.06128336
173	0x3e3924f9	0.1808051
174	0x3e2c4b3d	0.16825576
175	0xbdbcf295	-0.09225956
176	0x3b87d1e8	0.004144896
177	0x3d8dae57	0.06918018
178	0xbea16c51	-0.3152795
179	0x3decf813	0.11570754
180	0x3dd2a171	0.10284699
181	0xbc93170a	-0.017955322
182	0x3deef2c4	0.116673976
183	0x3ddcfcc1	0.107903965
184	0x3e1db7d5	0.15402158
185	0xbe3e86d4	-0.1860612
186	0xbe42c8af	-0.19021867
187	0x3e76d605	0.2410508
188	0xbe39222c	-0.18079442
189	0xbd8755b3	-0.06608143
190	0x3c8c3727	0.017116142
191	0xbdfcb5f2	-0.12339391

layer4.bn1.weight f4 [8]
0	0x3f700194	0.9375241
1	0x3f7cf646	0.98813283
2	0x3f76abd5	0.96355945
3	0x3f795ea4	0.97410035
4	0x3f82f2f8	1.0230398
5	0x3f6150dd	0.8801401
6	0x3f73ea00	0.9527893
7	0x3f5e7c12	0.86908066

layer4.bn1.bias f4 [8]
0	0xbc459f53	-0.012061912
1	0x3cb75ab4	0.022382118
2	0x3cdb692c	0.026783548
3	0x3c98c015	0.01864628
4	0x3d009876	0.031395398
5	0xbd93882e	-0.072037086
6	0x3b380e63	0.0028084747
7	0xbc49d97d	-0.01231992

layer4.bn1.running_mean f4 [8]
0	0xbea4dc87	-0.321995
1	0xbe91c97c	-0.28474033
2	0xbf1a4d7c	-0.6027448
3	0xbe548d8e	-0.20757124
4	0x3d875e2a	0.06609757
5	0xbea43f25	-0.32079425
6	0xbf4d3224	-0.80154634
7	0xba90632c	-0.0011015884

layer4.bn1.running_var f4 [8]
0	0x3e4bc10c	0.1989786
1	0x3e2fa5bc	0.17153066
2	0x3f097917	0.53700393
3	0x3e602641	0.21889593
4	0x3d669592	0.056294985
5	0x3eaa82ef	0.3330302
6	0x3fb007f9	1.3752433
7	0x3d9158a2	0.070969835

layer4.conv2.weight f4 [8, 8, 1, 3]
0	0x3db9aaff	0.09065818
1	0x3dca14de	0.09867261
2	0xbe0e1c22	-0.1387792
3	0x3de39de2	0.11114098
4	0xbdb80fe4	-0.08987406
5	0xbe0eb42e	-0.1393592
6	0x3e3e4d8f	0.18584274
7	0xbe37bdb6	-0.17943463
8	0x3db2b28d	0.08725462
9	0xbd21d059	-0.039505336
10	0xbe10ee70	-0.14153457
11	0x3cf082f1	0.029359313
12	0x3db64dcf	0.089015596
13	0xbc7f2d5d	-0.01557478
14	0xbd96ec6e	-0.07369314
15	0x3befd754	0.0073193703
16	0x3c29ac3b	0.010356004
17	0xbe16f9b9	-0.14743699
18	0xbe3e547f	-0.1858692
19	0xbe11b8b3	-0.14230613
20	0x3e41ad78	0.1891383
21	0xbd7c93a7	-0.06166425
22	0xbe07ba71	-0.13254716
23	0x3c43569f	0.011922508
24	0x3dc20f1a	0.09475537
25	0x3ba79272	0.005113893
26	0xbdf45c21	-0.11931635
27	0x3d0ee368	0.03488484
28	0xbd81ac89	-0.063317366
29	0xbc33280a	-0.010934839
30	0xbd98012c	-0.074220985
31	0x3e3d7ae9	0.18503918
32	0xbdda376a	-0.10655101
33	0xbd1ad418	-0.037799925
34	0x3e7a90df	0.24469326
35	0xbda226b9	-0.07917542
36	0xbe1c2915	-0.15250047
37	0xbe4622e9	-0.19349255
38	0xbc808dbf	-0.01569259
39	0xbe0b44af	-0.1360042
40	0xbe52db33	-0.2059143
41	0x3c5c5e8b	0.013450275
42	0xbb933e18	-0.004493486
43	0x3dc621ff	0.09674453
44	0xbe0e3773	-0.1388834
45	0xbe03a7e9	-0.12857021
46	0x3d532089	0.0515447
47	0x3cdc73af	0.026910631
48	0xbd05e88b	-0.032692473
49	0xbdf64b0e	-0.12026034
50	0xbdf626aa	-0.12019093
51	0x3e3450c9	0.17608942
52	0x3ed6b327	0.41933557
53	0xbcea5728	-0.028606012
54	0x3dc858f2	0.0978259
55	0x3d669a07	0.056299236
56	0xbd91fd28	-0.07128364
57	0x3de29b38	0.11064762
58	0x3e089b7e	0.13340566
59	0x3dfc7bb8	0.12328285
60	0x3a66cf4e	0.00088046945
61	0x3e5277dd	0.20553537
62	0xbe283ce2	-0.16429475
63	0xbd65d59f	-0.056111928
64	0xbd9e84b8	-0.07740158
65	0xbc16b135	-0.009197523
66	0x3d84c1a1	0.06482244
67	0xbd426755	-0.047461826
68	0x3e3dd536	0.18538365
69	0xbdea4ee0	-0.114408255
70	0x3e34e69e	0.17666098
71	0x3d62d7f5	0.055381734
72	0x3e165bb7	0.14683424
73	0xbcf8ed97	-0.03038673
74	0x3879e06d	5.957524e-05
75	0x3da94a37	0.082661085
76	0x3e198955	0.14993794
77	0x3d9dd26c	0.077061504
78	0x3c5d9ad9	0.013525688
79	0xbe2bf29a	-0.16791764
80	0x3d84e2a7	0.06488543
81	0x3dd4587a	0.10368438
82	0xbe4f1cab	-0.2022578
83	0x3d8361d1	0.064151414
84	0xbd7c2abb	-0.06156419
85	0x3f03554b	0.5130202
86	0x3dfd92d9	0.123815246
87	0xbd8b02de	-0.06787656
88	0xbe4c0ac3	-0.1992598
89	0xbdb9c27f	-0.090703
90	0xba3dff56	-0.0007247826
91	0xbded930c	-0.116003126
92	0x3d613585	0.05498268
93	0xbd33ba95	-0.04387911
94	0xbc43fad6	-0.011961659
95	0xbcb7b15a	-0.022423435
96	0x3e1c2c0e	0.1525118
97	0xbcaa6315	-0.0207992
98	0xbdce823c	-0.10083434
99	0x3df17de7	0.11791592
100	0x3e0c78e7	0.13717996
101	0xbdb776fa	-0.0895824
102	0xbd60a14b	-0.05484132
103	0xbe40baec	-0.18821305
104	0xbd6d0cc7	-0.057873514
105	0xbe33990f	-0.17538856
106	0xbe72a866	-0.23697051
107	0xbc9f3704	-0.019435413
108	0x3e2bfd02	0.16795734
109	0x3e62ce5b	0.22149031
110	0xbdb150cc	-0.08657989
111	0x3be85674	0.007090384
112	0xbe2c3694	-0.16817695
113	0x3e3548f3	0.17703609
114	0x3e4216c9	0.18954004
115	0x3bf70c11	0.00753928
116	0xbe1a69ca	-0.15079418
117	0x3d780bed	0.06055825
118	0x3dc3b547	0.0955606
119	0xbcda29a1	-0.026631178
120	0xbbc5ce1a	-0.006036532
121	0xbe008bb4	-0.12553293
122	0xbdfefc02	-0.124504104
123	0xbc88d5e7	-0.01670356
124	0xbe1a5c60	-0.15074301
125	0xbe00bda6	-0.12572345
126	0xbc9c1a13	-0.019055402
127	0xbe221e78	-0.15831935
128	0xbe140032	-0.144532
129	0x3e235295	0.15949471
130	0xbe433862	-0.19064477
131	0x3dd92548	0.10602814
132	0xbd299ee3	-0.04141129
133	0x3d2e1487	0.042500045
134	0x3dcac810	0.0990144
135	0xbe3877df	-0.18014477
136	0xbd666a91	-0.056253973
137	0xbe40c650	-0.1882565
138	0xbd7fc5c1	-0.062444452
139	0xbe3cc700	-0.18435287
140	0xbd9684ec	-0.073495716
141	0xbdad653d	-0.08466575
142	0xbdc68bb9	-0.09694619
143	0x3e39d6b0	0.18148303
144	0x3e34827a	0.17627898
145	0xbe944790	-0.28960848
146	0x3da44d23	0.08022525
147	0x3c5e1753	0.013555366
148	0x3e8c74ea	0.27432948
149	0x3d7dccaa	0.06196276
150	0x3d38ec9e	0.04514753
151	0x3de9759c	0.11399385
152	0x3cd4f351	0.025994929
153	0x3cf89b40	0.030347466
154	0x3c1885d4	0.009309251
155	0xbd81d0c4	-0.06338647
156	0x3d7eb926	0.06218829
157	0x3e7a822f	0.24463724
158	0x3dcd99e0	0.10039115
159	0xbd4b204f	-0.04959136
160	0xbdc159fe	-0.09440993
161	0xbd269ffb	-0.040679913
162	0xbc173705	-0.009229426
163	0xbd83575b	-0.06413146
164	0x3db5f4da	0.08884592
165	0x3e3faa6d	0.18717356
166	0x3d780610	0.060552657
167	0xbd8e2463	-0.06940534
168	0x3c8e9a09	0.017407434
169	0x3e8342c6	0.25636882
170	0x3e1a501d	0.15069623
171	0xbd81f913	-0.06346335
172	0xbd73a104	-0.05947973
173	0x3d38819f	0.04504549
174	0x3e0216d8	0.12704027
175	0x3e3729d9	0.17887057
176	0xbc0a129b	-0.008427287
177	0xbe26ee64	-0.16301876
178	0x3ddaf22a	0.106907204
179	0xbe3c5bbe	-0.18394372
180	0x3e3d0b8b	0.18461435
181	0xbc95313c	-0.018211953
182	0xbe059899	-0.13046493
183	0x3e1df24c	0.1542446
184	0x3bd83fac	0.006599387
185	0xbda91476	-0.08255856
186	0xbe096fe5	-0.1342159
187	0x3d888dcb	0.0666767
188	0x3d9d25f0	0.07673252
189	0xbdafa781	-0.08576871
190	0xbe8a4875	-0.27008405
191	0xbe01da86	-0.12681016

layer4.bn2.weight f4 [8]
0	0x3f74a09d	0.95557576
1	0x3f735ba9	0.9506174
2	0x3f5b4250	0.8564806
3	0x3f6cd6e2	0.92515385
4	0x3f78bf57	0.9716696
5	0x3f7bcac6	0.9835628
6	0x3f631084	0.88697076
7	0x3f64e31f	0.8940906

layer4.bn2.bias f4 [8]
0	0xbc0288d9	-0.007967197
1	0xbbba015f	-0.005676433
2	0xbd57c95c	-0.052682266
3	0x3d6f7e47	0.058470037
4	0x3d859563	0.06522634
5	0x3d5fa3df	0.05459964
6	0x3c526cca	0.01284332
7	0x3ba11f05	0.004917028

layer4.bn2.running_mean f4 [8]
0	0xbe7beb91	-0.2460158
1	0x3db16320	0.08661485
2	0x3e9a82e9	0.30178002
3	0xbd794a02	-0.060861595
4	0xbdc520fd	-0.09625433
5	0xbeca2b76	-0.39486283
6	0x3dd20ba1	0.10256124
7	0x3e2cd761	0.16879036

layer4.bn2.running_var f4 [8]
0	0x3cc4fa7b	0.02404522
1	0x3d4c5870	0.049889028
2	0x3c5b1328	0.013371266
3	0x3e794006	0.24340829
4	0x3da5f6a6	0.08103685
5	0x3dcacbe1	0.09902168
6	0x3cda99bb	0.026684633
7	0x3d90c049	0.070679255

layer4.fc1.weight f4 [2, 8]
0	0x3d5d1f93	0.05398519
1	0xbdb0dce7	-0.08635884
2	0xbdcce542	-0.10004665
3	0x3e77142e	0.24128792
4	0x3e94e75c	0.29082763
5	0xbe825d9f	-0.25462052
6	0x3db576a7	0.08860522
7	0x3b2ee091	0.0026684145
8	0xbe117ce0	-0.14207792
9	0xbe07fa52	-0.13279083
10	0xbe9de72e	-0.3084044
11	0x3e67772a	0.22604051
12	0xbea86639	-0.3289049
13	0x3e64dc9b	0.2234978
14	0x3b821d92	0.00397081
15	0x3ea03c31	0.31295922

layer4.fc1.bias f4 [2]
0	0x3d97abd1	0.07405818
1	0x3e0b805c	0.13623184

layer4.fc2.weight f4 [8, 2]
0	0xbd87f8c3	-0.066392444
1	0xbdfb71a0	-0.122775316
2	0x3f17d999	0.593164
3	0x3f2892a8	0.6584878
4	0x3e281509	0.16414274
5	0xbe9e2e45	-0.30894676
6	0x3e306e13	0.1722949
7	0xbecb73e4	-0.39736855
8	0xbf128696	-0.5723661
9	0xbf17f4f3	-0.5935814
10	0x3ea36b8f	0.31917998
11	0xbe496e36	-0.19670948
12	0xbe500362	-0.2031379
13	0x3d4afe3f	0.049558874
14	0xbebb17bd	-0.36541548
15	0xbf2953ff	-0.6614379

layer4.fc2.bias f4 [8]
0	0xbf2a1ef5	-0.66453487
1	0x3e783473	0.24238758
2	0x3f21dbc2	0.6322595
3	0xbd3b5d2a	-0.045743145
4	0x3f0b8669	0.5450197
5	0x3eaa3418	0.3324287
6	0x3ef54747	0.47905943
7	0x3ee8adf4	0.45445216

layer5.conv1.weight f4 [16, 8, 1, 3]
0	0x3b6c6220	0.003606923
1	0xbd353b0b	-0.04424576
2	0x3dd5ee9c	0.10445902
3	0xbe25dbf4	-0.16197187
4	0xbe80a147	-0.25123045
5	0x3de358da	0.111009315
6	0x3e0f228c	0.13978022
7	0x3e6f08dc	0.23343223
8	0x3dac6cd7	0.08419197
9	0xbc0382ab	-0.008026759
10	0x3e148b9f	0.14506386
11	0x3dbe78ba	0.093003705
12	0x3dc30387	0.09522157
13	0x3db80b41	0.089865215
14	0xbc1da3fc	-0.009621616
15	0xbdc1936c	-0.094519466
16	0x3d78a8b7	0.060707774
17	0x3cbd00e1	0.023071708
18	0xbdc9ee3e	-0.09859894
19	0x3deb95a6	0.115031525
20	0xbe0b05e7	-0.1357647
21	0x3d66f147	0.056382444
22	0x3cc23393	0.023706233
23	0x3e1e008c	0.15429896
24	0x3e331596	0.17488703
25	0x3df4f0ca	0.11959989
26	0xbd6915c7	-0.056905534
27	0x3e366a78	0.17814052
28	0x3c6e4f5a	0.014545286
29	0xbe0f1dd9	-0.1397623
30	0x3e13d750	0.14437604
31	0x3e1e0791	0.15432574
32	0xbe3880f0	-0.18017936
33	0x3d9a5730	0.07536161
34	0x3e05e52c	0.13075703
35	0xbcd6983e	-0.026195642
36	0x3c3b90b0	0.01144807
37	0xbb8cdf58	-0.0042990856
38	0x3d545db5	0.05184718
39	0x3e32537d	0.17414661
40	0x3d514940	0.051095247
41	0xbe2bdd0f	-0.16783546
42	0xbe16faf5	-0.1474417
43	0xbe1247c4	-0.14285189
44	0xbdf0004a	-0.11718805
45	0x3e1ca50e	0.15297338
46	0xbce201e9	-0.027588801
47	0xbe2ba55a	-0.16762295
48	0xbdc2e335	-0.095159926
49	0x3dd154f7	0.10221284
50	0x3d2af225	0.041734833
51	0x3dfcea37	0.123493604
52	0xbde0ec64	-0.10982588
53	0xbe2d1f8b	-0.16906564
54	0x3e23fa43	0.16013436
55	0xbde71a27	-0.11284285
56	0xbe1fb0a3	-0.15594725
57	0x3df24626	0.11829786
58	0x3f14abea	0.5807482
59	0x3e1328e0	0.14371061
60	0x3db952ed	0.0904902
61	0x3ea65a8d	0.3249096
62	0xbd8efc68	-0.069817364
63	0xbdc30a38	-0.095234334
64	0x3dde9cf5	0.10869781
65	0xbe0970c0	-0.13421917
66	0xbe17d7ee	-0.14828464
67	0xbd6dd6f9	-0.058066342
68	0xbddfa107	-0.109193854
69	0xbe205869	-0.15658726
70	0xbd12b567	-0.03581753
71	0x3d298c8b	0.041393798
72	0x3e29bb81	0.16575433
73	0xbe247442	-0.16059974
74	0x3e37043d	0.1787271
75	0x3e07abbc	0.13249105
76	0x3dbb7478	0.09153074
77	0xbd2745ae	-0.040837936
78	0x3dc14812	0.094375744
79	0x3daeb44d	0.085304834
80	0xbddea8e6	-0.108720586
81	0xbd7958af	-0.06087559
82	0x3d1ba622	0.038000233
83	0xbd1c18cd	-0.03810959
84	0xbe2be85a	-0.16787854
85	0xbc9847f3	-0.018588996
86	0x3dffd796	0.12492292
87	0x3c341035	0.010990192
88	0xbe8a8a0e	-0.27058452
89	0x3d813ca1	0.06310392
90	0xbe368090	-0.1782248
91	0x3e56f1f3	0.20990734
92	0xbdc5c663	-0.0965698
93	0xbe3dc438	-0.18531883
94	0xbe33b397	-0.17548977
95	0xbe4641da	-0.19361058
96	0xbe3d8aea	-0.18510023
97	0x3e97845d	0.29593173
98	0xbd2d633c	-0.042330965
99	0xbe01d4cc	-0.12678832
100	0xbde37c95	-0.111077465
101	0x3d548772	0.051886983
102	0xbe002b4c	-0.12516516
103	0xbd21a9af	-0.039468464
104	0x3e1e5475	0.15461905
105	0x3de159ec	0.11003479
106	0x3ea04699	0.31303862
107	0xbe378cb3	-0.17924766
108	0x3e3301e5	0.17481191
109	0x3e8a7fa8	0.2705052
110	0x3e401d8d	0.18761273
111	0x3dfe977f	0.12431239
112	0xbdcc4409	-0.09973914
113	0x3e0fcf5e	0.14043948
114	0x3e2b373b	0.16720288
115	0xbdc55de0	-0.09637046
116	0x3e2a04be	0.16603372
117	0xbd8554d0	-0.06510317
118	0x3d1e1ae3	0.03859986
119	0xbe2769c2	-0.16348937
120	0x3e3c97f4	0.1841734
121	0xbdf2480c	-0.11830148
122	0xbd0cbc73	-0.034359407
123	0x3e1551cc	0.14581984
124	0xbd471c40	-0.048610926
125	0xbe353db7	-0.17699324
126	0xbaaee615	-0.0013343716
127	0x3e8751a5	0.26429477
128	0x3d004875	0.0313191
129	0x3da89eaf	0.082333915
130	0xbe697cbb	-0.22801487
131	0xbda7e044	-0.08197072
132	0xbe15a574	-0.14613897
133	0xbdb26828	-0.087112725
134	0x3dbb5e2d	0.09148822
135	0xbd7daec1	-0.061934236
136	0xbc6bcadd	-0.014391628
137	0xbd2fa134	-0.042878345
138	0x3d83f9e4	0.06444147
139	0x3e494102	0.19653705
140	0xbe1edfca	-0.15515056
141	0x3df6d5c2	0.1205249
142	0x3cb40f78	0.021980032
143	0x3e331208	0.17487347
144	0xbd111d26	-0.03542819
145	0x3dee3d4b	0.116327845
146	0xbe113dc3	-0.14183716
147	0x3d426381	0.047458176
148	0xbcbf9c4a	-0.023389954
149	0x3d6f37a2	0.058402665
150	0xbdea55ee	-0.11442171
151	0xbde699cd	-0.11259804
152	0xbde015f7	-0.109416895
153	0xbbc71b25	-0.006076234
154	0x3dd25aee	0.1027125
155	0x3e0acfc6	0.13555822
156	0x3d213682	0.039358623
157	0x3e2b1354	0.16706592
158	0x3d77d3e9	0.060504828
159	0xbe1cf9ab	-0.15329616
160	0x3e64bb9b	0.22337191
161	0x3da3d1a2	0.07998969
162	0xbe13b5d7	-0.14424835
163	0x3bee87dc	0.0072793793
164	0xbe380535	-0.17970736
165	0x3dbdf173	0.092745684
166	0xbe1f2bbc	-0.15544027
167	0x3d653f8e	0.055968814
168	0x3e0ae4d4	0.13563854
169	0xbe00ffd1	-0.12597586
170	0x3d3038a4	0.043022767
171	0xbdd1eceb	-0.10250267
172	0x3c84920d	0.016182924
173	0xbda218af	-0.07914864
174	0xbcc1bd0a	-0.023649711
175	0xbd250c84	-0.04029514
176	0xbb378672	-0.002800372
177	0xbe444add	-0.19169183
178	0xbe378bf2	-0.17924479
179	0x3e406bba	0.18791094
180	0x3d9336d6	0.071881935
181	0x3d3ede81	0.046598915
182	0xbe0d8ba1	-0.13822795
183	0xbe23c3de	-0.15992686
184	0xbe2ca69f	-0.16860436
185	0xbdde3cf5	-0.108514704
186	0xbb6e6250	-0.0036374517
187	0xbe0e9632	-0.13924482
188	0x3d0a10c9	0.033707414
189	0xbe0588f5	-0.13040526
190	0xbde02b71	-0.10945786
191	0xbdb308da	-0.08741923
192	0x3df6c8dc	0.1205003
193	0x3c248bf7	0.010043136
194	0xbe1a6f5e	-0.15081546
195	0x3d9545d0	0.07288706
196	0xbd643894	-0.05571802
197	0xbd4e3bd3	-0.05035002
198	0x3d4a5730	0.049399555
199	0x3e6722c9	0.22571863
200	0x3d97e8dd	0.07417462
201	0x3d715311	0.05891711
202	0xbd2cd19c	-0.042192087
203	0xbd39e59a	-0.04538498
204	0x3e3662bf	0.17811106
205	0x3dc91e65	0.098202504
206	0xbe2bfb6e	-0.16795132
207	0x3e19ff66	0.15038833
208	0xbde25ff5	-0.110534586
209	0xbe00e20d	-0.12586232
210	0x3cb53de1	0.022124233
211	0x3dbf4727	0.09339743
212	0x3cad84b7	0.021181447
213	0xbe436f5c	-0.19085449
214	0x3e247683	0.16060834
215	0xbdca92f7	-0.098913126
216	0xbe1abea1	-0.15111782
217	0xbe256c45	-0.16154583
218	0x3dac5110	0.08413899
219	0x3e021e86	0.12706956
220	0xbe1678c7	-0.1469451
221	0x3dacfa4b	0.08446177
222	0xbda64465	-0.08118514
223	0xbda21ad2	-0.07915272
224	0xbd5e5da1	-0.05428851
225	0x3e431d5d	0.1905417
226	0xbebac8ec	-0.36481416
227	0x3bfac7c0	0.0076532066
228	0x3d9a3f74	0.07531634
229	0xbeae9587	-0.34098455
230	0xbdb68957	-0.08912914
231	0xbe08cecf	-0.13360141
232	0xbe86d653	-0.2633539
233	0x3df60a4b	0.12013682
234	0xbe037b9e	-0.12840125
235	0x3d5321a4	0.051545754
236	0xbdc163a6	-0.094428346
237	0xbcfa7186	-0.03057171
238	0x3d6fb5a1	0.058522824
239	0xbe1fe5c1	-0.15614988
240	0xbe3d9796	-0.18514857
241	0x3b8b6356	0.004253785
242	0x3dcf06f8	0.10108751
243	0x3d3a008b	0.045410674
244	0x3e2489a9	0.16068138
245	0x3d0c5a4a	0.034265794
246	0xbe07101e	-0.13189742
247	0x3d9d2ce2	0.07674576
248	0x3d1bbb07	0.03802016
249	0xbdc04fb2	-0.09390201
250	0xbc716f70	-0.014736041
251	0xbc2d7c57	-0.010588727
252	0xbd9f2f93	-0.07772746
253	0xbe213e97	-0.15746532
254	0x3d944846	0.072403476
255	0x3d89d416	0.06729905

layer5.bn1.weight f4 [16]
0	0x3f575da0	0.84127235
1	0x3f7fafe5	0.9987777
2	0x3f7160d3	0.9428837
3	0x3f7513eb	0.9573352
4	0x3f84069f	1.0314521
5	0x3f6e267f	0.9302749
6	0x3f6a785a	0.9158989
7	0x3f7566bc	0.95859885
8	0x3f6e8829	0.93176514
9	0x3f843a11	1.033022
10	0x3f6e94aa	0.93195593
11	0x3f68cc21	0.90936476
12	0x3f750dc4	0.9572413
13	0x3f70ae7f	0.9401626
14	0x3f7af30a	0.980271
15	0x3f6a063b	0.91415757

layer5.bn1.bias f4 [16]
0	0xbd86ecd4	-0.0658814
1	0x3d501ae6	0.050806902
2	0xbbbe52ab	-0.0058081946
3	0x3bbdeba1	0.0057959114
4	0x3d03778c	0.03209643
5	0x3d038560	0.03210962
6	0xbca31dd0	-0.019911677
7	0x3d167f51	0.036742512
8	0xbc8a7f79	-0.016906487
9	0x3e00cb71	0.12577607
10	0xbc849e67	-0.016188813
11	0xbcb1d958	-0.021710083
12	0x3cc286fe	0.02374601
13	0xbbaf6f90	-0.0053538755
14	0x3d024a8f	0.031809386
15	0xbd2803b0	-0.04101914

layer5.bn1.running_mean f4 [16]
0	0x3e8e8acc	0.2784027
1	0x3e90ee83	0.2830697
2	0x3f870b18	1.055026
3	0xbed2646c	-0.4109224
4	0x3f3798cd	0.7171753
5	0xbe960043	-0.29297075
6	0x3eff171e	0.49822325
7	0xbf358835	-0.7091096
8	0x3e30d8c5	0.17270191
9	0xbfa855fa	-1.3151238
10	0x3d6bd81b	0.05757914
11	0xbfa5a1f5	-1.294005
12	0xbefb6806	-0.491028
13	0x3ef011c7	0.46888563
14	0x3e98aa82	0.29817587
15	0xbeea7f48	-0.45800233

layer5.bn1.running_var f4 [16]
0	0x3e66eb85	0.22550781
1	0x3e60d72b	0.2195708
2	0x403ad9e5	2.9195492
3	0x3e0d2777	0.13784586
4	0x3f9b0450	1.2110691
5	0x3eb4ecb7	0.3533685
6	0x3f84e10f	1.0381182
7	0x3f078c7f	0.52948755
8	0x3d38deae	0.04513424
9	0x40665266	3.5987792
10	0x3e110094	0.14160377
11	0x3f97c7a2	1.1857798
12	0x3fa286db	1.2697405
13	0x3e4ed918	0.20200002
14	0x3ebc2501	0.36746982
15	0x3f111747	0.56676143

layer5.conv2.weight f4 [16, 16, 1, 3]
0	0xbd116476	-0.035496198
1	0xbd8b897a	-0.06813331
2	0xbd1563d4	-0.036472157
3	0x3d29fc68	0.04150048
4	0xbd897366	-0.06711464
5	0x3ce170f7	0.027519686
6	0x3b28fdae	0.002578597
7	0x3cf03d2f	0.02932605
8	0xbb0ba301	-0.0021306875
9	0x3dcc6761	0.099806555
10	0xbc1eb237	-0.009686044
11	0x3d1b2c44	0.037884012
12	0xbd51c213	-0.051210474
13	0x3d905074	0.07046595
14	0x3c5af60f	0.013364329
15	0x3d9c0101	0.07617379
16	0x3d04351a	0.032277204
17	0x3c854782	0.01626945
18	0x3d9149f8	0.070941865
19	0xbcb6e5ec	-0.022326432
20	0x3c504fce	0.012714339
21	0xbd6582dd	-0.056033004
22	0xbc986462	-0.018602554
23	0xbde077bc	-0.109603375
24	0xbdf70075	-0.12060634
25	0x3de50d48	0.11184174
26	0xbce4ff5e	-0.0279538
27	0xbe095dee	-0.13414738
28	0x3e39adc2	0.1813269
29	0xbd382817	-0.044960108
30	0xb8204ce9	-3.82186e-05
31	0x3dda6c4b	0.106651865
32	0x3dfbb8e3	0.12291124
33	0x3dd7297d	0.1050596
34	0x3cca4490	0.024690896
35	0x3e07dcd2	0.1326783
36	0x3de24602	0.11048509
37	0x3dc6a49b	0.09699365
38	0x3b6754d4	0.0035298364
39	0xbd25b0c0	-0.040451765
40	0x3d218480	0.039433002
41	0x3e018a05	0.12650307
42	0xbdb197da	-0.086715415
43	0xbe06a5de	-0.13149211
44	0xbdd23079	-0.10263152
45	0x3df9ce05	0.12197498
46	0x3dcc67f8	0.09980768
47	0x3b4b25de	0.0030997912
48	0x3c8505c4	0.0162381
49	0xbdfc321c	-0.12314245
50	0xbe026e0e	-0.12737295
51	0x3c34eee0	0.01104328
52	0xbe0d5b10	-0.13804269
53	0xbd1fcfa9	-0.0390164
54	0xbd687d36	-0.056760035
55	0xbbd517aa	-0.006503065
56	0xbd550083	-0.05200244
57	0xba80bb7e	-0.0009821502
58	0x3d1bfe5d	0.038084377
59	0xbcad5d7c	-0.02116274
60	0xbe02ae73	-0.1276186
61	0xbdde4db1	-0.10854662
62	0x3c85e77b	0.01634573
63	0x3da1a2a8	0.07892352
64	0x3e09cbd3	0.13456659
65	0xbd316874	-0.043312505
66	0x3d80f295	0.06296269
67	0x3d71aeda	0.059004642
68	0xbdd01842	-0.10160877
69	0xbdf7ba82	-0.120961204
70	0x3b350ad9	0.0027624874
71	0x3cee3bdb	0.029081276
72	0xbde6865d	-0.112560965
73	0x3dbb06c3	0.09132149
74	0xbdd0c375	-0.101935305
75	0xbdd70896	-0.104996845
76	0x3e2a2738	0.16616523
77	0x3d8a7758	0.06761044
78	0xbdb7f409	-0.08982093
79	0x3d4d4bce	0.05012112
80	0xbdd918b0	-0.10600412
81	0x3cae23cc	0.021257304
82	0x3d3c4cea	0.04597179
83	0xbddc6ddc	-0.107631415
84	0xbdba5874	-0.09098902
85	0x3c865cb8	0.016401634
86	0x3c5966ca	0.013269136
87	0xbd9e55d4	-0.07731214
88	0x3d790674	0.06079717
89	0x3df1de26	0.118099496
90	0xbda64ab3	-0.081197165
91	0x3d19c3f3	0.037540387
92	0xbd7f8a2f	-0.06238764
93	0x3db2233e	0.08698128
94	0x3db37124	0.08761814
95	0x3dbd7fa8	0.09252864
96	0xbcaed9da	-0.021344114
97	0xbdcfd397	-0.101477794
98	0xbcda619f	-0.026657877
99	0xbc68207f	-0.014167904
100	0xbdf65a76	-0.12028973
101	0x3dca5dd3	0.09881177
102	0x3e0c025a	0.13672772
103	0xbe0b2871	-0.13589646
104	0xbb7ece33	-0.0038880229
105	0xbdded9c9	-0.10881383
106	0xbd1e398b	-0.038629096
107	0x3e05a629	0.13051666
108	0x3e09c548	0.13454163
109	0xbd570b92	-0.05250127
110	0xbd5b0522	-0.053471692
111	0x3df2e31e	0.118597254
112	0xbb7935de	-0.0038026492
113	0x3d14c6a1	0.03632224
114	0xbdd361ef	-0.10321414
115	0xbe37115c	-0.17877716
116	0xbcf149a0	-0.029454052
117	0x3cc29ec2	0.023757342
118	0xbbee8c7e	-0.0072799316
119	0x3d29257b	0.04129551
120	0x3df5e654	0.12006822
121	0x3d6f4aec	0.05842106
122	0xbcb8d49d	-0.02256232
123	0xbd1e040a	-0.03857807
124	0x3e4a2a4e	0.197427
125	0x3e02bebc	0.12768072
126	0xbdf7e63c	-0.121044606
127	0x3e00252a	0.12514177
128	0xbdf8a10f	-0.121400945
129	0x3de742a3	0.11292007
130	0x3d9b09ea	0.0757025
131	0xbd8dce81	-0.06924153
132	0x3b5a524c	0.0033313213
133	0x3dabc768	0.08387643
134	0x3d946041	0.072449215
135	0xbd8256bc	-0.063641995
136	0xbdd986a3	-0.10621383
137	0xbd0e35f2	-0.034719415
138	0xbd9b5b6c	-0.07585797
139	0xbe083f33	-0.13305359
140	0x3de14ccb	0.11000975
141	0xbdeeba61	-0.11656643
142	0x3c3faea1	0.01169935
143	0xbdd62ff3	-0.10458364
144	0xbdb463e8	-0.08808118
145	0xbe50f792	-0.2040694
146	0xbda4a513	-0.08039298
147	0x3ce35468	0.027750209
148	0xbe9b6552	-0.3035074
149	0x3d7d9631	0.06191081
150	0x3dbc1b01	0.09184838
151	0xbe0ccfaf	-0.137511
152	0xbe05bce9	-0.13060345
153	0xbdbe2dea	-0.09286101
154	0x3d0858ba	0.03328774
155	0x3dfb40db	0.122682296
156	0xbdf75bf6	-0.12078087
157	0xbe0d5564	-0.13802105
158	0x3d641728	0.055686146
159	0x3d9bfb5b	0.076163016
160	0xbe1a2b0c	-0.15055484
161	0xbd6c7efb	-0.057738286
162	0x3e02d0eb	0.12775008
163	0xbe81a69f	-0.25322434
164	0x3dad07c3	0.08448746
165	0x3cecec92	0.0289214
166	0x3e1fabee	0.1559293
167	0xbd53c57c	-0.051702008
168	0x3da912e5	0.08255557
169	0xbd6e9668	-0.058248907
170	0x3d9ba435	0.075996794
171	0x3d6be882	0.057594784
172	0x3eef36b0	0.4672141
173	0xbe05ef00	-0.13079453
174	0xbc3ce56e	-0.01152931
175	0xb9bdea84	-0.00036223617
176	0xbca75caf	-0.020429937
177	0xbdcb2a3e	-0.099201664
178	0xbdd0b152	-0.10190071
179	0x3d8ee112	0.069765225
180	0xbdc98f8a	-0.09841831
181	0x3ea18445	0.31546226
182	0x3c317e7c	0.010833379
183	0xbcd13025	-0.025535652
184	0xbeb8fd89	-0.36130932
185	0x3cd9b83a	0.026577104
186	0x3deb386a	0.114853695
187	0xbed811ec	-0.42201173
188	0x3dc723b6	0.09723608
189	0xbd3eb983	-0.046563637
190	0x3e43be29	0.19115509
191	0xbc9a0876	-0.018802863
192	0xbce2b8a5	-0.027675936
193	0xbe5e712d	-0.2172286
194	0x3cb5de19	0.022200631
195	0xbe09c58f	-0.13454269
196	0xbe9b4c0a	-0.3033145
197	0x3e09572e	0.13412163
198	0x3df950a8	0.12173587
199	0xbe4b117e	-0.19830891
200	0x3d951bca	0.07280691
201	0x3e0b6e83	0.13616376
202	0xbd3dba66	-0.04632034
203	0xbe030619	-0.12795295
204	0xbc957996	-0.018246453
205	0xbec935bc	-0.3929881
206	0xbd4ca38c	-0.049960658
207	0xbd669d7b	-0.05630253
208	0xbe59306a	-0.21209875
209	0xbc3430cf	-0.010997965
210	0x3db102a1	0.086430795
211	0xbe85d6a5	-0.26140323
212	0xbd3d5d46	-0.04623153
213	0xbdc8e665	-0.09809569
214	0x3dff1315	0.124548115
215	0x3d098180	0.033570766
216	0xbd0353fa	-0.03206251
217	0xbe849823	-0.2589732
218	0x3d455a13	0.048181605
219	0xbbb23c42	-0.005439312
220	0x3d9597ac	0.0730432
221	0xbd30b4c2	-0.043141134
222	0x3dfaf113	0.122530125
223	0x3d9c7fc9	0.076415606
224	0x3dbdf812	0.09275831
225	0xbbcf03e8	-0.0063176043
226	0xbd9bd22e	-0.07608448
227	0xbd85d500	-0.06534767
228	0x3d3945dc	0.04523264
229	0x3dc50eb9	0.09621949
230	0xbd480248	-0.0488303
231	0x3d81067c	0.06300065
232	0xbe967921	-0.2938929
233	0x3e04a9d0	0.12955403
234	0xbd173849	-0.036918912
235	0xbe0de7ed	-0.13858004
236	0xbdd593db	-0.10428592
237	0xbde0d722	-0.10978533
238	0x3e3bffd3	0.18359308
239	0x3d4645b5	0.04840632
240	0xbe04c401	-0.12965395
241	0x3e1c613c	0.15271467
242	0x3d07a50e	0.033116393
243	0x3dcee6ba	0.10102601
244	0x3e299d0c	0.16563815
245	0xbd962f42	-0.073332325
246	0xbdedb5a8	-0.11606914
247	0x3e904fb8	0.2818582
248	0xbd82ea3f	-0.06392335
249	0xbdd49835	-0.10380594
250	0x3cd06466	0.025438499
251	0x3bb52404	0.005527975
252	0x3d25cf83	0.0404811
253	0x3eab453c	0.3345126
254	0xbc30084b	-0.010744165
255	0x3d74026e	0.05957263

layer5.bn2.weight f4 [16]
0	0x3f717d83	0.9433214
1	0x3f767a90	0.96280766
2	0x3f7b25d4	0.98104596
3	0x3f8dbfef	1.1074198
4	0x3f5b9e17	0.857881
5	0x3f8751f9	1.0571891
6	0x3f83cfd8	1.0297804
7	0x3f664f80	0.8996506
8	0x3f66f802	0.9022218
9	0x3f672886	0.9029621
10	0x3f652d1a	0.89521945
11	0x3f7591bd	0.95925504
12	0x3f52ae85	0.82297546
13	0x3f6c3911	0.92274576
14	0x3f88fbc2	1.070183
15	0x3f8ae90f	1.0852374

layer5.bn2.bias f4 [16]
0	0x3b96b7b9	0.004599538
1	0x3c964b11	0.018346341
2	0x3dd81864	0.10551527
3	0x3e448842	0.19192603
4	0xbe0efeda	-0.13964406
5	0x3e0a8a99	0.13529433
6	0x3dc00bc2	0.093772426
7	0xbd16e56e	-0.036839895
8	0xbd1e16a0	-0.038595796
9	0xbd5dc0fb	-0.05413912
10	0xbc8e4ff3	-0.017372107
11	0x3dbb9a75	0.0916032
12	0xbdca4782	-0.0987692
13	0xbe06f46b	-0.13179176
14	0x3e2c2fa0	0.16815042
15	0x3e12d1b3	0.14337806

layer5.bn2.running_mean f4 [16]
0	0x3e57dae1	0.2107959
1	0x3e443349	0.19160189
2	0xbdef25de	-0.116771445
3	0xbead58a7	-0.338567
4	0xbf3cae0e	-0.73703086
5	0x3eb82edb	0.35973248
6	0xbd1cb28d	-0.038256217
7	0xbe49a26a	-0.19690862
8	0xbe01c171	-0.12671448
9	0x3bdc0112	0.006713995
10	0x3d36df48	0.04464653
11	0xbc8a5c99	-0.016889857
12	0x3ec78fc2	0.38976866
13	0x3ed62a44	0.4182912
14	0xbd581b69	-0.052760515
15	0x3e1ce0d9	0.15320148

layer5.bn2.running_var f4 [16]
0	0x3d9e07ac	0.07716307
1	0x3dd7890e	0.10524188
2	0x3ee7c0f3	0.45264396
3	0x400ac252	2.1681104
4	0x3fd2e595	1.6476313
5	0x3fb9a37b	1.4503015
6	0x3cf40d28	0.02979143
7	0x3ce5df2d	0.02806052
8	0x3d381f2f	0.044951614
9	0x3cb46750	0.02202192
10	0x3ca83ab6	0.020535808
11	0x3e32f19a	0.17474976
12	0x3de09f2c	0.109678596
13	0x3e7f92d2	0.24958351
14	0x3d2e20a3	0.042511594
15	0x3f5fcd44	0.87422585
