das_new - 副本/models/20260105_195047/final_model.pth (torch, 99146 bytes, 176 tensors)

input_conv.weight f4 [4, 1, 1, 3]
000000 73 5c 47 be b6 39 1d 3d 4f e1 86 3e b2 a7 bf be
       -0.1946886 0.038385116 0.26343772 -0.3743263
000010 19 93 e8 be af be f3 3e 16 9d e2 be a5 80 d5 bd
       -0.45424727 0.47606418 -0.44260472 -0.104249276
000020 7b fc 46 3e ec fd 7a be 0f 49 ce 3e 26 64 24 bd
       0.19432251 -0.24510926 0.40290114 -0.04013457

input_bn.weight f4 [4]
000000 39 7a 6c 3f 2d 8c 7e 3f a4 06 6f 3f 3e c6 92 3f
       0.92373997 0.9943264 0.9336951 1.1466749

input_bn.bias f4 [4]
000000 9f 7e 39 3e cb 1a 1d be 8c c9 d8 bd d6 30 70 bd
       0.18114708 -0.15342252 -0.10585317 -0.058640324

input_bn.running_mean f4 [4]
000000 c1 26 54 ba dd 93 1c 3c f5 cf 0f 3b bd e0 0a bc
       -0.0008092933 0.009556738 0.002194402 -0.008476433

input_bn.running_var f4 [4]
000000 b7 af dc 3e 2f 94 09 3f 22 4d df 3e e1 bc 03 3f
       0.4310281 0.53741735 0.43613535 0.5146008

layer1.conv1.weight f4 [4, 4, 1, 3]
000000 32 19 83 3d da 25 b7 3e f7 fa 7d 3e 66 37 9a bb
       0.0640129 0.35771066 0.24802767 -0.004706311
000010 a6 08 61 be 0d 71 5a be 6c bd a0 bc 6e 65 0e 3d
       -0.21975955 -0.21332188 -0.019621573 0.0347647
000020 a2 d5 8f 3e 1b d2 56 be e1 1f 30 3f 1b a8 7b 3e
       0.28092676 -0.20978586 0.68798643 0.24575846
000030 98 14 81 3e 17 2c 31 3d fc cb 28 3e c7 56 09 3e
       0.25211024 0.043254938 0.16484064 0.13412009
000040 74 50 8c 3e a5 1d 91 be 03 24 8b bd 66 ec af 3e
       0.2740513 -0.2834293 -0.06793978 0.34360045
000050 b9 e8 64 be 42 62 14 be 7d 81 2a 3e 84 b6 8f be
       -0.22354402 -0.14490607 0.16650958 -0.28068936
000060 70 3a 5a 3e 42 be 00 bf 3f 8b 19 be 1c de 82 3e
       0.21311355 -0.5029031 -0.14994524 0.2556008
000070 b0 df 13 be d1 a7 63 be 3b c5 02 be 93 6f 00 be
       -0.14440799 -0.22231986 -0.1277055 -0.12542562
000080 9f 93 50 3e 06 a0 7a 3e e0 65 f6 be aa b3 91 be
       0.20368813 0.24475107 -0.481246 -0.28457385
000090 e4 53 27 be 17 1a 49 bf 70 2c ec bd 79 09 58 bd
       -0.16340595 -0.78555435 -0.11531913 -0.05274341
0000a0 74 3c 09 3f b3 54 13 3e 70 0f e1 bc 5c 6e d5 3e
       0.5360787 0.14387779 -0.027473181 0.4168576
0000b0 2d fc 3e 3e d9 28 6d 3e 8a 01 44 bf 4f 06 33 bd
       0.18650885 0.23160113 -0.7656485 -0.04370719

layer1.bn1.weight f4 [4]
000000 70 33 75 3f 0c d3 84 3f e2 f2 88 3f b5 06 6f 3f
       0.9578161 1.0376906 1.0699122 0.9336961

layer1.bn1.bias f4 [4]
000000 8a 8b 63 bd 49 07 3d 3d 8c e3 ba 3d ce b0 2e bd
       -0.055552997 0.046149526 0.09125432 -0.042649083

layer1.bn1.running_mean f4 [4]
000000 a3 c7 c5 3d 68 94 16 3e 56 4f 58 be 55 53 02 be
       0.09657218 0.1470505 -0.21124014 -0.12727101

layer1.bn1.running_var f4 [4]
000000 4f 8c 18 3f 07 96 e6 3e 44 f7 05 3f f1 6a 57 3f
       0.59589094 0.45036337 0.5233042 0.84147555

layer1.conv2.weight f4 [4, 4, 1, 3]
000000 45 88 6b 3e 40 41 4b 3e 24 69 50 be 76 c8 e2 bd
       0.23001201 0.1984911 -0.20352608 -0.11073391
000010 8e c6 7b 3c 65 9b ac 3d 21 bd 07 3e 13 10 79 3e
       0.015367163 0.08428077 0.1325574 0.24322538
000020 f3 7b 25 3d 42 26 fb bd 0d 6c da 3d a2 80 a3 bd
       0.04040141 -0.122631565 0.1066514 -0.07983519
000030 54 f0 2b bd fc 68 bd be e0 d0 d4 bd bd 75 1e be
       -0.04197724 -0.3699416 -0.10391402 -0.15474601
000040 14 ce 0f bf cc b4 80 be d5 93 fb bd 13 27 ac 3d
       -0.56173825 -0.25137937 -0.12284056 0.0840589
000050 f7 a9 c2 3d d1 d3 8e 3e 93 ad 68 bd 7e da 3a be
       0.095050745 0.27895978 -0.05680616 -0.1824741
000060 13 f8 2a 3e 29 1b 37 3d 8a cc f3 3d f9 a7 33 3e
       0.16696195 0.044703636 0.11904247 0.17544545
000070 c4 34 c6 3e b7 76 8c be 3d 01 77 3e b4 bf d2 be
       0.38712132 -0.27434322 0.24121566 -0.41161883
000080 91 4a 35 3e ad 25 11 3e 74 40 8d bc 23 0e 85 bd
       0.17704226 0.14174528 -0.017242648 -0.06496837
000090 a9 a2 93 bd 0a 40 73 be 08 8f 5b be 44 d7 ad 3c
       -0.07208759 -0.23754898 -0.21441281 0.02122081
0000a0 13 a1 dc 3d bd 36 b4 39 16 c8 ea bd d3 20 fe be
       0.1077291 0.0003437306 -0.114639446 -0.49634418
0000b0 a5 2b bb 3d c8 a1 25 3e 13 69 0c 3e c7 09 9e 3d
       0.09139184 0.16174996 0.13711958 0.07716709

layer1.bn2.weight f4 [4]
000000 24 37 78 3f a6 8d 89 3f e5 9e 6f 3f 86 24 6a 3f
       0.9695914 1.0746353 0.9360183 0.9146198

layer1.bn2.bias f4 [4]
000000 f4 21 ec 39 21 62 34 3d 4f 06 92 bd e9 ba 38 3c
       0.00045038725 0.044038896 -0.071301095 0.011275032

layer1.bn2.running_mean f4 [4]
000000 38 70 ca 3d 92 78 19 be 90 bf 56 3d 36 12 22 bd
       0.09884685 -0.149874 0.052428782 -0.03956815

layer1.bn2.running_var f4 [4]
000000 c8 92 e1 3e 80 57 fa 3e e2 aa fd 3e 82 5e e9 3e
       0.44057298 0.48894882 0.49544436 0.45579916

layer1.fc1.weight f4 [1, 4]
000000 7f 9a f3 be c2 90 d8 3e 6b 0b 6b be 28 fd a8 bd
       -0.4757881 0.4229794 -0.22953574 -0.08251411

layer1.fc2.weight f4 [4, 1]
000000 a0 63 c3 3e 50 90 90 be ef cf 71 3f 91 7a 40 bf
       0.38161945 -0.28235102 0.94457906 -0.7518702

layer1.fc2.bias f4 [4]
000000 3c 3a 22 be 53 7e 60 bf 23 14 70 bf 94 26 2b 3f
       -0.15842527 -0.87692755 -0.93780726 0.6685574

layer1.shortcut.0.weight f4 [4, 4, 1, 1]
000000 cc 33 03 bf 3e d4 bd 3d 0b d9 9b 3e 30 26 79 3e
       -0.5125091 0.092689976 0.30439028 0.24330974
000010 73 bd dd 3e b2 3d 85 be 70 08 01 bf 62 79 93 3e
       0.433086 -0.26023632 -0.504035 0.28803545
000020 8b b6 92 3d 12 1a e0 be 44 25 20 be 37 35 13 3f
       0.071637236 -0.4376989 -0.15639216 0.57503074
000030 54 02 9a be 76 f1 2b 3e 70 f2 d3 3e 32 60 ff bd
       -0.300799 0.16791329 0.41395903 -0.1246952

layer1.shortcut.1.weight f4 [4]
000000 27 f3 84 3f 87 34 64 3f 97 47 5e 3f d9 08 98 3f
       1.0386704 0.8914265 0.8682799 1.18777

layer1.shortcut.1.bias f4 [4]
000000 f3 32 36 ba df 90 45 3d 9f 9e a0 bd 58 d1 2a 3e
       -0.0006950341 0.048233863 -0.078427546 0.16681421

layer1.shortcut.1.running_mean f4 [4]
000000 2b ed 24 3d 12 c4 b6 3c eb 08 7f bc d1 e0 23 3d
       0.040265244 0.02231029 -0.015566091 0.040009324

layer1.shortcut.1.running_var f4 [4]
000000 f7 4e ee 3e 1d 44 3b 3f 02 e6 0c 3f 8a 10 09 3f
       0.4654462 0.7315081 0.55038464 0.5354086

layer2.conv1.weight f4 [4, 4, 1, 3]
000000 bf d9 7c 3e 4c 2b c5 3d c7 84 58 be e3 5a 85 3e
       0.24692439 0.09627399 -0.211444 0.26045904
000010 27 05 e3 bc e1 04 81 3d 90 38 80 ba 82 3a 3f 3e
       -0.027712418 0.06299759 -0.0009782482 0.18674663
000020 fa f6 6b 3e 06 a3 4f be 1e e7 a0 be 9b 29 84 3e
       0.23043433 -0.20277032 -0.31426328 0.25812992
000030 1e a0 1d 3e 67 23 5b be a0 f9 b1 bd 1a 30 bf 3d
       0.15393111 -0.21400224 -0.0869019 0.093353465
000040 a8 5f 9e 3e 27 1c 68 3e 38 0c 4b be 13 b3 a4 bd
       0.30932355 0.2266699 -0.1982888 -0.08041968
000050 81 d8 87 3d c6 88 98 b9 34 0a 8f bd f3 0d 93 be
       0.06633092 -0.00029093603 -0.06984368 -0.2872158
000060 38 b3 b7 3d 1a 2a 60 3e f8 61 31 be 30 8e 58 be
       0.0896973 0.2189106 -0.17322528 -0.2114799
000070 4e be d4 3d 35 de 56 3e 96 71 55 3e 8f 16 89 3e
       0.1038786 0.20983203 0.20844111 0.26775023
000080 e6 f3 90 be c4 a7 92 3d de 56 ab 3e 21 ba 2f 3d
       -0.2831108 0.07160905 0.33464712 0.042902116
000090 18 4e 88 3e 4e 72 ed bd 3a 32 7e 3d 27 11 ca bd
       0.2662208 -0.115940675 0.06205962 -0.09866553
0000a0 4d c8 66 bb f0 74 98 3d d5 8a 84 3e 41 50 90 3e
       -0.0035214603 0.07444179 0.2588717 0.2818623
0000b0 a1 8a 52 bc c6 fd 26 be 45 da f3 3e 0d 7f 44 3e
       -0.0128504345 -0.16307744 0.47627464 0.19189091

layer2.bn1.weight f4 [4]
000000 66 e0 7d 3f 6d 26 75 3f 81 dc 80 3f 85 96 85 3f
       0.9917053 0.9576176 1.0067292 1.043656

layer2.bn1.bias f4 [4]
000000 f3 14 a5 ba 60 cf f7 bb 8a 32 a5 bd 97 72 04 3e
       -0.0012594744 -0.007562563 -0.0806628 0.12934338

layer2.bn1.running_mean f4 [4]
000000 f1 22 8e bd 23 ea 9a 3a 2f 41 26 3e f7 63 2d 3e
       -0.06940258 0.0011819046 0.16235803 0.16932665

layer2.bn1.running_var f4 [4]
000000 2a 43 f5 3e a4 7e eb 3e 81 24 f4 3e 68 4b 00 3f
       0.47902805 0.45995057 0.476841 0.5011506

layer2.conv2.weight f4 [4, 4, 1, 3]
000000 b0 37 7f 3e b3 4c 92 3d da 8f 23 3e ec a3 c2 bb
       0.24923587 0.071435355 0.15972844 -0.005939951
000010 d8 1a b8 3e ae eb dc 3d d5 fc aa bd a0 f2 da 3d
       0.3595798 0.1078714 -0.08349005 0.10690808
000020 2a 51 48 be a2 84 51 bd 7f 7a 0a 3f 72 c3 b2 bd
       -0.19562212 -0.05115188 0.54093164 -0.087286845
000030 5e db 46 bc 8a b1 8c be e1 ba 0b be 19 ff 8f be
       -0.012137262 -0.27479202 -0.13645507 -0.28124312
000040 cd 8c f4 bd 74 af 0b be 67 b1 9d 3d b0 0d 6d 3d
       -0.11940918 -0.13641149 0.076998524 0.05787438
000050 90 ef 73 bd 58 1b fa 3c e5 a1 79 3e 57 91 b8 3d
       -0.059554636 0.030530617 0.24378164 0.090120964
000060 ea cd 42 3c 4c ba f1 bd fb a3 89 3e 02 a9 46 3c
       0.011889914 -0.118031114 0.2688292 0.012125256
000070 b0 69 8c be 65 bf 85 3e 8d 82 0e 3e a9 26 8c be
       -0.27424383 0.26122585 0.13916989 -0.27373245
000080 ad dd 01 be 43 18 c9 bd a4 80 37 be b5 88 89 bd
       -0.12682219 -0.09819081 -0.17920166 -0.06715528
000090 2c 92 2a 3e fc 87 b9 be 1b 14 f5 3d 27 10 31 bd
       0.16657323 -0.3623656 0.119667254 -0.043228295
0000a0 13 03 cc 3d 96 7a 63 bd 5f 47 5c 3e ae 50 bd be
       0.09961524 -0.05553683 0.21511601 -0.36975616
0000b0 a5 be 9d 3c ee 2e 76 3e 96 01 f8 bd 04 49 92 3e
       0.019255945 0.2404134 -0.121096775 0.28571332

layer2.bn2.weight f4 [4]
000000 0d 5f 78 3f f5 c3 86 3f 09 2a 81 3f 80 1a 89 3f
       0.97020036 1.0528551 1.0090953 1.0711212

layer2.bn2.bias f4 [4]
000000 80 aa 05 3c dd 77 0c 3d 8a c1 53 3b 1f 70 64 3b
       0.008158326 0.034293998 0.0032311403 0.0034856868

layer2.bn2.running_mean f4 [4]
000000 b6 9b 3f 3e 07 85 57 bc 06 9e 2b be b4 97 23 be
       0.18711743 -0.013154275 -0.167595 -0.15975839

layer2.bn2.running_var f4 [4]
000000 bf b9 fb 3e 88 38 ec 3e cf 16 f1 3e 98 6a 02 3f
       0.4916515 0.4613688 0.47087714 0.509439

layer2.fc1.weight f4 [1, 4]
000000 9a bc f9 3e 18 e2 40 be 5b 2a 02 be 05 d8 34 3d
       0.48776704 -0.18836248 -0.1271147 0.044151325

layer2.fc2.weight f4 [4, 1]
000000 f6 9e 6f bf 50 ed 76 3f de 22 30 bf 85 d7 42 be
       -0.9360193 0.9645586 -0.68803203 -0.19027527

layer2.fc2.bias f4 [4]
000000 ea 63 6c bf b2 3f 3c bf f2 1f 0a bf a5 f0 ce 3e
       -0.92339957 -0.7353469 -0.53954995 0.40417972

layer3.conv1.weight f4 [8, 4, 1, 3]
000000 00 c8 5e be b0 44 d0 be ff e7 98 3b 65 62 54 3e
       -0.21755981 -0.40677404 0.004666328 0.2074066
000010 11 d5 00 bd 3d 8a 05 be 82 74 7f 3e f3 e5 6d be
       -0.031453196 -0.13041015 0.24946788 -0.2323225
000020 9b 55 16 3e 0e 85 83 be 5f 4b 17 3f 5b 7f 3b 3d
       0.14681093 -0.2568745 0.5909938 0.045775753
000030 0f 4b 47 3e bf e2 82 3e 00 60 02 3d 18 2d 8e be
       0.19462226 0.2556362 0.031829834 -0.2776878
000040 82 44 81 3d b5 60 2b 3e 34 c0 4a bc d2 cf 47 be
       0.06311895 0.1673611 -0.012374926 -0.19512871
000050 56 2a e4 3d d0 43 2f be ab 7a 20 3e 3f 8d e9 3d
       0.111408874 -0.17115712 0.15671794 0.11403894
000060 5d 95 37 3d c4 5d 8b 3d 47 2e 4f 3e a5 4a a8 bd
       0.04482018 0.06804994 0.20232497 -0.08217362
000070 4f 2a e5 3e 08 ed 01 3e 77 78 bb 3d c3 e9 43 be
       0.4475884 0.12688076 0.09153836 -0.19132142
000080 81 0f a5 bd 2d 5d 53 be 75 bb bc 3d c8 7d f9 3d
       -0.08059598 -0.20641012 0.09215442 0.12182194
000090 e8 5f 0d 3d 57 3b 36 3e 9f 58 be bd 32 09 1c 3e
       0.03451529 0.17796074 -0.09294247 0.15237883
0000a0 6d 4f 09 3d fd 57 81 3e 58 9b 68 3e 08 88 4d be
       0.033523012 0.25262442 0.22715509 -0.20071423
0000b0 02 7c 7f bd 03 ae 83 be 62 9f 5e 3e 0f 71 80 be
       -0.062374122 -0.25718698 0.21740487 -0.25086257
0000c0 57 d6 ab 3d ae 89 78 3e f3 82 76 bd b0 d0 59 3d
       0.083904915 0.2427127 -0.060183477 0.053177536
0000d0 75 ea 50 be 4c f2 92 bd 2f 6b 85 bc e1 fd 94 be
       -0.20401938 -0.07175121 -0.01628646 -0.29099944
0000e0 e4 3b 11 be 5e 28 b1 bd 3c 89 18 be c8 af 81 3e
       -0.14183003 -0.086502776 -0.14896101 0.25329423
0000f0 91 f1 4f 3e ea 2b 03 3f e5 12 85 be ca 0a 3a be
       0.20306994 0.5123888 -0.25990978 -0.18168178
000100 fa 24 2f 3d 64 5a 1f be e8 76 7e be a0 01 a4 3e
       0.042759873 -0.15561825 -0.24850047 0.3203249
000110 d2 f5 a2 bd 63 cf 42 be 22 34 8a 3d 93 a1 64 be
       -0.07957043 -0.19024424 0.06748225 -0.2232726
000120 3b a8 79 be c3 1e ca 3c 2e 40 91 3e d6 f9 8a 3d
       -0.24380581 0.024672871 0.28369278 0.06785934
000130 0a 7d 23 be f2 1f 44 bc 58 62 85 be fe 8e 30 3e
       -0.15965667 -0.011970507 -0.26051593 0.17242047
000140 02 78 e3 3b ba 34 99 bb dc bb 18 be 5e 53 17 bb
       0.0069417963 -0.004675475 -0.14915413 -0.0023090462
000150 40 c1 aa bc 75 01 2b be 34 de 2a bd f5 5d 0e 3e
       -0.020844102 -0.16699775 -0.041715816 0.1390303
000160 29 a8 52 3e d0 7e 8f 3e 0d ec a0 3d ca fc de bd
       0.2057196 0.28026438 0.07857523 -0.108880594
000170 1c 36 ec bc 76 39 cc 3d 14 40 97 be a9 a4 fb bd
       -0.028834395 0.09971897 -0.29541075 -0.12287266

layer3.bn1.weight f4 [8]
000000 ed 19 85 3f 4b bb 7e 3f 6e 7c 80 3f 49 ff 7a 3f
       1.0398537 0.99504536 1.0037973 0.98045784
000010 34 83 84 3f 15 5a 79 3f af d4 80 3f a8 50 76 3f
       1.035254 0.9740308 1.0064906 0.9621682

layer3.bn1.bias f4 [8]
000000 2a 70 40 3d 7a 2c 95 ba 28 c5 b4 bb 8c 5e 08 bb
       0.046981968 -0.0011381053 -0.005516667 -0.0020808307
000010 07 79 23 3d b6 24 9d bc 26 00 4f 3b 69 34 a8 bc
       0.039910343 -0.019182544 0.0031585782 -0.020532804

layer3.bn1.running_mean f4 [8]
000000 5e e3 d9 3d 85 24 b0 3d 74 4a b6 3d 3c 01 b0 3d
       0.1063907 0.086007155 0.089009196 0.085939854
000010 e6 91 10 be e6 5d 5e 3e e9 14 eb bc f8 a4 01 be
       -0.14118156 0.21715507 -0.028696494 -0.12660587

layer3.bn1.running_var f4 [8]
000000 b9 bb 00 3f 44 38 fd 3e 87 3f f0 3e 04 9b f1 3e
       0.5028644 0.4945699 0.46923468 0.4718858
000010 d3 44 e7 3e e3 de 0a 3f b8 da ee 3e 12 39 e5 3e
       0.45169696 0.5424635 0.46651244 0.44770104

layer3.conv2.weight f4 [8, 8, 1, 3]
000000 35 5f 25 be 79 9e ab 3d 3f 04 43 3e 7e b1 4b be
       -0.161496 0.08379836 0.19044589 -0.19891927
000010 5d a8 42 3d fb 75 1a bd 74 78 41 be 0b a2 70 3e
       0.047523845 -0.03771017 -0.18893605 0.23499314
000020 4c 48 44 3e 46 6e b9 bd 28 3a 22 3e 32 2c 38 3e
       0.19168204 -0.09054236 0.15842497 0.17985609
000030 c3 c4 31 be ae 70 4d 3e 56 00 23 3e 2b 0f c9 3d
       -0.17360215 0.20062515 0.15918097 0.09817346
000040 d3 8b 4a be 77 77 a2 bd 78 53 d8 bd ee 6f 2a 3d
       -0.19779901 -0.07932942 -0.105627954 0.04161065
000050 07 82 a7 3d 1b d0 69 bd cf 5d 24 3e 7a 0f 11 3e
       0.081790976 -0.05708323 0.1605141 0.1416606
000060 6c c6 c7 bb 4c e6 4c 3e 99 54 90 bc a8 bc b7 bd
       -0.006096652 0.20009726 -0.017618464 -0.0897153
000070 c7 0c 10 3d ba e5 a6 bd 34 27 ae bd 64 c5 01 bd
       0.035168435 -0.081492856 -0.08503571 -0.031682387
000080 3e 66 7b 3c 5c 61 33 3e f7 6f eb bd 7f ce cd bd
       0.015344201 0.17517608 -0.11495965 -0.10049152
000090 d1 ab a0 bd 33 ce 85 be 7f e9 2d be 7d 7c 0a be
       -0.078452714 -0.2613388 -0.16983603 -0.13524051
0000a0 5c 93 1d 3e ec c6 36 3e ce be 66 3d 5d 2a 0c be
       0.15388244 0.1784932 0.05633431 -0.13688035
0000b0 19 f4 bc bc 91 13 04 3e 0e 55 fe 3d 45 44 35 be
       -0.023065614 0.12898089 0.12418567 -0.17701824
0000c0 dc 6a 18 3e c8 57 be bd 30 cb 4e be c4 2d 0a 3e
       0.14884514 -0.09294087 -0.20194697 0.1349402
0000d0 6d b7 4f 3d 58 c3 16 be ae 0c 7e 3d 29 15 4a bd
       0.050712038 -0.14722955 0.06202381 -0.049336586
0000e0 1e f5 2e be 78 42 47 be ba e9 a4 bd 73 04 42 3e
       -0.17085692 -0.1945895 -0.08052392 0.1894701
0000f0 e9 29 be 3c 98 49 d0 bd fa 27 23 be 31 6a 33 3e
       0.023213344 -0.10170287 -0.15933219 0.17520978
000100 02 13 3d be c2 fa 2f 3e 07 11 94 3d 2d c2 7b 3d
       -0.18464282 0.171855 0.0722981 0.061464477
000110 c6 a6 09 be 21 3c 38 3e 7c bc ed 3d c0 89 5b bd
       -0.13442525 0.17991687 0.11608216 -0.053598166
000120 47 b3 10 3e 7a 05 97 be 74 6d 34 3e 22 21 25 bd
       0.14130889 -0.29496366 0.17619878 -0.0403148
000130 46 cd 9a 3d e0 ff ed 3d ce 75 47 bd b7 46 af bd
       0.07558684 0.1162107 -0.04869633 -0.0855841
000140 39 99 85 bd b2 41 c1 3d 29 2b bd bc f2 e5 6e 3d
       -0.065233655 0.094363585 -0.02309187 0.05832476
000150 14 92 17 3e 48 6a 44 3e e5 88 21 3e 8f 46 ed bd
       0.14801818 0.19181168 0.15774877 -0.115857236
000160 a5 70 65 3b 30 1d ab 3d db 2d 05 3d 33 cb 26 3d
       0.0035009768 0.083551764 0.032514434 0.04072113
000170 0b 64 77 bb 75 74 df bd 69 8c 0d be be 3b cc 3d
       -0.003774884 -0.10910884 -0.13823093 0.099723324
000180 2d 5c 4d be 4c 52 af 3c 7f e3 f9 3d 8b f4 3f bd
       -0.20054694 0.021401547 0.122015946 -0.046864074
000190 91 69 09 bd 18 00 03 3e f8 ca 21 3e e7 3c 26 be
       -0.03354794 0.12793005 0.15800083 -0.1623417
0001a0 d0 89 26 3e 54 08 83 bc 58 3f d2 bd 65 75 00 3e
       0.16263509 -0.015995182 -0.10265988 0.12544782
0001b0 da 1e 2d 3e 67 6a 9a bd bf 0b 26 be 99 c6 0e 3e
       0.169063 -0.07539826 -0.16215418 0.13942946
0001c0 88 f0 b0 bd bc a1 30 3e ba 1f ee 3d 95 d8 a5 3d
       -0.08639628 0.17249197 0.11627145 0.0809795
0001d0 73 99 f0 3c ef 75 4e be 82 8c 3a be e5 7b 48 be
       0.029370045 -0.20162176 -0.18217662 -0.19578512
0001e0 72 d9 32 3e 55 6a c5 3c ff 6d b2 3b b8 3c 83 3c
       0.17465761 0.024098555 0.0054452415 0.016020164
0001f0 96 a7 a6 3a 22 87 74 3c fd 51 9f bd f5 ba f0 3d
       0.001271474 0.014924796 -0.0777931 0.11754409
000200 c3 1c 02 3e ae 1e 0b be 07 f1 99 bc d4 66 c9 3c
       0.12706284 -0.13585922 -0.018791689 0.024585165
000210 5c b4 47 be 1b f8 26 be 77 ff 08 3e fb 44 cb 3d
       -0.19502395 -0.16305582 0.13378702 0.09925266
000220 17 00 24 be 65 56 14 3d 25 6f 57 3c 50 f5 1b 3e
       -0.1601566 0.036215205 0.0131490575 0.15230298
000230 79 d8 19 be a5 1c e8 bd d8 fe 05 bd 58 06 61 3d
       -0.15023984 -0.113335885 -0.03271374 0.05493769
000240 65 ac 37 be d3 0b 97 3e 4c 0e aa bd 7c 61 e6 3d
       -0.17936857 0.2950121 -0.08303508 0.112490624
000250 dc c8 de bd 80 9d 9f 3c ba 21 47 be c3 d5 72 be
       -0.10878155 0.019484282 -0.1944646 -0.23714356
000260 7c ff da 3d 4e ba 34 3e 5a f5 a5 bb 9c 9b 98 3c
       0.10693261 0.17649195 -0.0050646486 0.018628888
000270 0c c6 fd 3c fe 64 3a be ca 8e cc 3d 20 47 44 3e
       0.030978225 -0.18202588 0.09988172 0.19167757
000280 02 b0 eb bd cb 1a 13 3e 89 9b 2e be 73 4e ad bd
       -0.1150818 0.1436569 -0.1705152 -0.084622286
000290 8e 80 f1 3d ff 39 00 3e ed 14 53 bd c9 f8 b9 3d
       0.11792098 0.12522124 -0.05153363 0.09080655
0002a0 35 eb d5 bd cc b3 57 3e 2d 04 1f 3e aa a6 15 be
       -0.10445253 0.21064681 0.15528937 -0.14614359
0002b0 8b 14 04 3d a8 b8 3d 3e 02 10 6b 3d 14 40 6a bc
       0.032246154 0.18527472 0.057388313 -0.014297504
0002c0 b3 42 c8 bc 03 fe 21 bd 57 b9 c5 3c 53 bf 8b 3d
       -0.024445867 -0.039548885 0.024136228 0.068236016
0002d0 2f ed 96 bd 36 fb a3 bd 91 b3 4c 3e af dc 05 be
       -0.07369458 -0.08006899 0.19990374 -0.13072465
0002e0 24 26 8d bd af 0f 8a 3d ac a9 15 bc 4c fd 99 be
       -0.0689204 0.06741273 -0.009134691 -0.30076063
0002f0 b8 d8 45 3e 03 c9 7f 3d 05 cb 99 bd 58 24 d0 bd
       0.19320953 0.06244756 -0.07509426 -0.10163182

layer3.bn2.weight f4 [8]
000000 11 00 88 3f 9f 32 74 3f a2 bf 7e 3f 91 bd 76 3f
       1.062502 0.9538974 0.9951116 0.96383005
000010 4b 88 7e 3f d1 45 7b 3f 54 86 81 3f 6f 5c 8b 3f
       0.99426717 0.98153406 1.0119119 1.0887583

layer3.bn2.bias f4 [8]
000000 3b dc 7e 3c 88 ea 1e bb ca 9c a6 bb 34 10 c5 bc
       0.015555437 -0.0024248678 -0.0050846087 -0.024055578
000010 c9 3f 64 3c 27 c9 b2 bc fc 84 bc 3c a4 88 0c 3d
       0.013931223 -0.021824433 0.02301263 0.03431

layer3.bn2.running_mean f4 [8]
000000 d7 a1 24 3e 91 68 f0 3b 66 45 23 bd b6 15 9e bc
       0.16077362 0.007336684 -0.039861105 -0.019297462
000010 27 52 ec bd 6c 42 a1 b7 a3 37 c6 bd c1 75 7d bd
       -0.11539107 -1.9223626e-05 -0.096785806 -0.061879877

layer3.bn2.running_var f4 [8]
000000 7b 92 ed 3e 73 df e4 3e 8c d3 ea 3e 86 1e e8 3e
       0.46400818 0.44701728 0.45864522 0.45335788
000010 43 d1 ed 3e e3 5f e4 3e df e0 f9 3e 95 ea e9 3e
       0.46448717 0.44604406 0.48804376 0.45686784

layer3.fc1.weight f4 [2, 8]
000000 48 40 8c be 6b af 50 be 41 82 1c 3e c3 32 6b 3e
       -0.27392793 -0.20379417 0.15284063 0.22968583
000010 e6 42 48 be 4c 16 19 3e bc 7f 82 bd a4 6c d6 3d
       -0.1955677 0.14949912 -0.0637202 0.1046994
000020 83 a9 cf 3d a9 85 a1 bc 81 14 13 3e 0c 36 ad bd
       0.10139754 -0.019717054 0.1436329 -0.08457574
000030 be 8e 8e be 1d 0f ac 3e 16 e7 49 be 9b b3 c4 3c
       -0.2784328 0.3360528 -0.19717059 0.024011424

layer3.fc1.bias f4 [2]
000000 25 e1 57 3e 4b 52 1f be
       0.2108198 -0.15558736

layer3.fc2.weight f4 [8, 2]
000000 94 fa 2e 3f 9c 2d 04 3f 40 aa 9a 3d a6 37 12 3f
       0.683511 0.51632094 0.07552004 0.5711616
000010 81 ad 42 bc 64 26 37 3e 69 f5 11 bf 94 0b 3d 3e
       -0.011882187 0.17885739 -0.5701509 0.18461448
000020 b7 c8 30 3f 88 12 f1 be 1b a4 a7 3e 5d 53 13 bf
       0.69056267 -0.4708445 0.3274239 -0.5754908
000030 fb b4 ff 3e 0d 55 f8 3e d0 7c 47 3e 3a ac 8a be
       0.49942765 0.4850239 0.19481206 -0.27084523

layer3.fc2.bias f4 [8]
000000 c5 49 13 bd 18 df d7 be 85 7d 2d 3f fd 2e 03 bd
       -0.035959024 -0.42162395 0.6776965 -0.032027233
000010 1f e2 f5 3e eb 2e d9 3e f5 53 90 3c 6f e7 0b bf
       0.4802408 0.42418608 0.017618159 -0.54650015

layer3.shortcut.0.weight f4 [8, 4, 1, 1]
000000 fc b7 7e 3e 05 c5 f3 3e f9 d4 a8 be 57 dc ba 3d
       0.24874872 0.4761125 -0.32974985 0.09124058
000010 74 7e 5e be db 7c e0 be 5c 59 b6 3e dd 36 9c 3e
       -0.21727926 -0.43845257 0.3561505 0.30510607
000020 f4 e3 88 be 98 a5 da be e3 d8 ad 3e 4f 33 b7 3e
       -0.26736414 -0.42704463 0.33954534 0.35781333
000030 03 6c 2f 3d 54 10 fa 3e 89 c2 24 3e ee bd 7c 3d
       0.042827617 0.48840582 0.16089834 0.06170457
000040 e0 00 ed 3e 34 c0 eb bd 2e 58 6c be 46 70 ba be
       0.4628973 -0.11511269 -0.23080513 -0.36413783
000050 ca 68 e0 be ef 4d ca be f4 f7 18 3d c1 d4 f1 3d
       -0.43829948 -0.39512584 0.03734584 0.11808158
000060 04 1d e1 3e 7b e0 23 3e c8 28 9a 3e 4e 61 75 bd
       0.4396745 0.16003601 0.3010924 -0.05990725
000070 3f fb 62 3e 12 2a af bd a5 3b dc be 68 35 9d 3e
       0.22166155 -0.08552946 -0.43014255 0.30704808

layer3.shortcut.1.weight f4 [8]
000000 19 e6 84 3f eb 86 7e 3f 08 05 80 3f 8c bf 81 3f
       1.038272 0.9942462 1.0001535 1.013658
000010 6f f9 7d 3f cc 70 80 3f 39 40 7d 3f 9a 55 75 3f
       0.9920873 1.0034423 0.9892612 0.9583374

layer3.shortcut.1.bias f4 [8]
000000 f5 6a 24 3c 42 4b d8 3b bc 66 28 39 64 ce e0 bc
       0.010035266 0.0066007683 0.0001606 -0.027442165
000010 00 18 fa 3b d4 38 8c bb 53 80 e4 3c d5 0f 04 3d
       0.0076322556 -0.0042792354 0.027893221 0.03224166

layer3.shortcut.1.running_mean f4 [8]
000000 f7 4c bf 3d 95 93 fe 3d fd bb b2 3d 86 79 7a 3e
       0.09340852 0.12430493 0.08727262 0.2446042
000010 24 9d 04 be 19 79 36 be 19 8d 8e 3e a4 3f 75 3d
       -0.1295057 -0.17819633 0.27842024 0.059875146

layer3.shortcut.1.running_var f4 [8]
000000 22 2e 21 3f 47 4d 0c 3f c9 d6 0a 3f 46 2d f8 3e
       0.6296102 0.54805416 0.54233986 0.4847204
000010 ff 51 05 3f be e1 1d 3f 8e 3e 28 3f 8e 5c 05 3f
       0.5207824 0.6167258 0.6572045 0.5209435

layer4.conv1.weight f4 [8, 8, 1, 3]
000000 7f 1a a9 bc a5 8b 82 bd 47 e8 42 bd 4b cc f2 3d
       -0.020642517 -0.06374291 -0.0475848 0.11855372
000010 fc 05 67 bc 28 54 df 3c 45 6b 82 bd 61 8c 20 3e
       -0.014100548 0.027261809 -0.06368116 0.1567855
000020 89 3e 65 bd 46 4a 00 be 82 87 04 be b9 c6 26 be
       -0.05596784 -0.12528333 -0.12942317 -0.16286744
000030 a6 84 a7 3d 33 c2 24 3e 06 53 0c be 7c 77 15 3d
       0.081795976 0.16089706 -0.13703546 0.036490902
000040 9c 50 18 3e 3e b8 e4 bd 96 e7 3a 3e ef 9f 5f be
       0.148745 -0.11167954 0.18252406 -0.21838354
000050 51 68 b6 bd aa 32 7e bd bb a8 71 be 9b 94 df 3c
       -0.089066155 -0.062060036 -0.23599522 0.02729254
000060 43 d5 43 bd 45 dc ad 3e 75 80 92 bd 83 b7 11 be
       -0.047810804 0.33957115 -0.071534075 -0.1423016
000070 f3 a8 08 3b bf 07 38 be 03 47 b3 3d cc 5d 21 be
       0.0020852655 -0.17971705 0.08753779 -0.15758437
000080 8d 46 4a bc 21 ab 24 3e 62 a7 a1 bd d0 71 19 be
       -0.012345922 0.16080905 -0.07893254 -0.14984822
000090 2e 19 eb 3d 5f a2 98 bd 96 48 7f 3c 3e 0c 0d be
       0.11479412 -0.07452845 0.015581271 -0.13774201
0000a0 e7 94 d8 3d 25 84 30 3e c3 d1 0b 3d 1e 15 36 3d
       0.10575276 0.17237909 0.03413559 0.044453733
0000b0 a9 62 c8 bc b5 37 e4 3b f6 15 3b 3d 87 e5 09 be
       -0.024461107 0.0069646486 0.04567524 -0.13466464
0000c0 a8 ae 2e 3e a9 af 6a be 15 6b 38 bd 56 79 0d 3e
       0.17058814 -0.22918572 -0.045023996 0.13815817
0000d0 49 38 05 3e 47 95 39 3e fc 2d 04 be 54 ed 1b 3d
       0.13009752 0.18123351 -0.12908167 0.03806813
0000e0 6a c6 64 bc 49 68 92 3d d2 e3 8d 3d 5e 12 cd 3d
       -0.013963321 0.07148797 0.06928219 0.10013269
0000f0 b5 4a 36 be fe 31 37 bd ae 75 da bd 3d ad b4 3d
       -0.17801936 -0.04472541 -0.10666977 0.08822105
000100 62 63 ea 3d fb 73 80 bc 42 22 0f be b0 b7 2f 3e
       0.11444737 -0.015680304 -0.13977912 0.17159915
000110 f9 25 50 be db c2 bc bd 91 96 06 3e 16 74 88 bb
       -0.20326985 -0.09216853 0.13143374 -0.004164229
000120 25 ac 0e be 04 65 ed bd b1 ff 09 3d 3a 78 b3 bd
       -0.13932855 -0.11591533 0.033691112 -0.08763166
000130 49 73 89 3e bd a3 0c be 06 87 d9 3c 5b 3e 10 be
       0.26845768 -0.13734336 0.026553642 -0.14086287
000140 a1 8d 09 be 37 55 21 bd bf b9 f8 bd c8 61 27 be
       -0.13432933 -0.039387908 -0.12144803 -0.16345894
000150 1d 58 a5 3d bb 35 61 3d 91 42 43 be 8f 96 ca 3d
       0.08073447 0.054982882 -0.19068362 0.09891998
000160 fe f5 23 be 17 32 a1 3d 91 93 be bd 61 9d 1b be
       -0.16011807 0.07870882 -0.0930549 -0.15196754
000170 7c 69 48 3e 9a 79 a9 3d c8 3c 7a 3d 3a 55 61 bc
       0.19571489 0.08275147 0.06109312 -0.01375323
000180 be 43 02 be a0 8c ae 3e b1 df e8 bd ad 36 88 3d
       -0.12721154 0.34091663 -0.11370791 0.066510536
000190 1f 82 2f be 8b 03 70 bd 62 6c 21 3e 25 54 a2 3d
       -0.17139481 -0.05859713 0.15764001 0.079262055
0001a0 ca 30 39 3e 9d 1f ce 3d 10 5c 1f 3e bd 23 dd 3d
       0.18085018 0.100646235 0.15562463 0.10797832
0001b0 a1 64 87 3c ec 40 f7 3d 6d 76 fa 3d a3 27 0b 3d
       0.016527476 0.1207293 0.12229619 0.033973347
0001c0 73 a6 4d 3d 57 27 4d bc af 05 1d 3e 4d 18 95 3c
       0.050207566 -0.012521586 0.153342 0.018200064
0001d0 16 b3 3b be 5f 25 84 bd f2 e4 80 3d ee 1a 3a 3e
       -0.18330035 -0.064524405 0.06293668 0.18174335
0001e0 c8 c3 1c bd 65 64 a8 3c 45 be 45 3e 6b 62 c2 bd
       -0.03827265 0.020555684 0.19310863 -0.09491428
0001f0 92 48 e8 bd a4 f4 21 be be 03 93 3c f6 25 ea b9
       -0.11341967 -0.15815979 0.01794612 -0.0004466024
000200 f6 45 4e 3e 76 5f a4 3c f2 42 4d be b6 28 36 3e
       0.20143875 0.02006505 -0.20045069 0.17788967
000210 83 57 81 bc 98 ec b4 bd 25 38 4b 3e e7 f2 14 3e
       -0.0157888 -0.08834189 0.19845636 0.14545785
000220 95 aa a4 bc 69 b5 02 3d fd b3 21 3d 20 01 fd 3d
       -0.020100871 0.031911287 0.03947829 0.1235373
000230 19 fe 00 bd 1d 22 67 3d b9 b1 64 3e 9d 83 4f be
       -0.031492326 0.056429017 0.22333421 -0.2026505
000240 6d 23 2f be 02 95 24 3e 01 41 29 be ae 0b 2d be
       -0.17103358 0.16072467 -0.16528703 -0.16898987
000250 7b 1b 0d be 70 79 ec 3c 08 c9 76 3d 99 6b 9c 3d
       -0.13780014 0.0288665 0.060250312 0.0763771
000260 25 08 85 bc 27 01 4e bc cd e6 fa bd d4 98 f8 3d
       -0.016239235 -0.012573517 -0.12251053 0.12138525
000270 02 0e 78 bd 63 d6 e2 bd f2 c9 87 bc 9c a1 f9 3d
       -0.060560234 -0.11076047 -0.016575787 0.12189028
000280 fc d8 3e 3e 7d 76 2f 3d 00 e5 14 be 26 1f 99 bd
       0.1863746 0.04283761 -0.14540482 -0.07476644
000290 6b 41 c5 3d a2 ef 6b ba ac 53 5b be 57 04 94 3d
       0.09631618 -0.00090002466 -0.21418637 0.0722739
0002a0 3c c1 fc bd c5 93 27 3e 2b c2 3a 3e 14 19 05 be
       -0.12341544 0.16364963 0.18238132 -0.12997848
0002b0 e1 03 e8 bd 8e 22 81 3d 19 08 e4 bc 48 02 84 be
       -0.11328865 0.06305419 -0.027835893 -0.2578299
0002c0 58 7a 41 be 17 bc 30 3e 05 9a 2a be 45 42 43 3e
       -0.18894327 0.1725925 -0.16660316 0.19068249
0002d0 ec fe d4 bc 9d 5d 8d bd 6c b9 53 bb 50 fe 97 ba
       -0.026000462 -0.06902621 -0.0032306565 -0.0011596177
0002e0 ce bd e4 3c 0c dc f8 bd cf 7f e1 3d 59 32 53 be
       0.027922537 -0.121513456 0.11010706 -0.20624675
0002f0 c8 49 fe 3d 8e 03 02 be f4 35 d6 3e 9b 76 36 be
       0.124164164 -0.12696669 0.41838038 -0.17818682

layer4.bn1.weight f4 [8]
000000 52 75 7e 3f 45 b9 82 3f 3b 42 80 3f b6 92 76 3f
       0.99397767 1.021279 1.0020212 0.96317613
000010 cb e3 82 3f dc a5 80 3f 70 0f 7a 3f b3 9e 81 3f
       1.0225767 1.0050616 0.97679806 1.0126556

layer4.bn1.bias f4 [8]
000000 6c 28 8a bb f9 4d 7c 3c 73 a0 42 3c 34 d1 32 bc
       -0.0042162444 0.0153994495 0.011879074 -0.010914136
000010 56 3d 19 3b 77 c8 d3 39 61 36 a7 bb 38 82 7e 3d
       0.0023382506 0.00040394414 -0.005102918 0.062135905

layer4.bn1.running_mean f4 [8]
000000 ec 96 d4 bb 88 39 d6 3d c7 d1 ae 3d 91 18 2d bd
       -0.006487718 0.10460192 0.085361056 -0.042259756
000010 36 3f 17 3e 98 06 de bc 0c bf c4 bc 20 d2 12 3d
       0.14770207 -0.027102754 -0.02401688 0.035844922

layer4.bn1.running_var f4 [8]
000000 84 3f f4 3e c1 d4 f4 3e 0f cf f7 3e aa 03 ed 3e
       0.4770471 0.47818568 0.4840016 0.46291858
000010 04 d5 0b 3f 64 5e ee 3e c1 3e ec 3e 1d 0a 01 3f
       0.5462191 0.4655639 0.46141627 0.50406057

layer4.conv2.weight f4 [8, 8, 1, 3]
000000 6c d2 19 be 74 c7 0c 3e 9f fe 51 bd a6 64 03 be
       -0.15021676 0.1374796 -0.051268216 -0.12831363
000010 e4 ca 81 3e 1f 24 8b 3d 53 0e 12 be fa ab 33 be
       0.25350106 0.06793999 -0.14263277 -0.17546073
000020 f7 6e 6a 3d 12 ce 46 3e 8c 99 bc 3b 74 4d 97 bd
       0.05723473 0.19414547 0.005755609 -0.0738782
000030 95 34 29 3e 6c 44 25 3e 05 f8 18 3e 34 6d 00 be
       0.16523965 0.16139382 0.14938362 -0.12541658
000040 d5 31 ab 3d cf 9a 20 3c 6b 0f 29 3e 5e 89 29 3d
       0.08359114 0.009802534 0.16509788 0.04139077
000050 3f 7d 35 3e 49 87 0c 3e 0b ec d5 3c 75 5b e0 bd
       0.17723559 0.13723482 0.02611353 -0.10954944
000060 60 98 aa bd 24 d9 43 be 61 85 b3 3c b0 7b 16 be
       -0.083298445 -0.19125801 0.021914186 -0.1469562
000070 46 db 18 be 4a 37 ac bd de 2b 15 be c0 ca 80 3d
       -0.14927396 -0.08408983 -0.14567515 0.062886715
000080 93 70 97 3d 9f 3e f5 bd a5 81 03 3e 98 ee 87 3d
       0.07394519 -0.11974835 0.12842424 0.06637305
000090 0e 6f 21 3c c7 19 06 3e c9 39 c6 3b df dd 29 3d
       0.009853138 0.13095771 0.006049369 0.04147136
0000a0 75 0a 0a be ad aa 02 be e2 ca 2a 3e 5e d5 3e be
       -0.13480552 -0.1276042 0.16678956 -0.1863608
0000b0 90 61 3a 3e 84 8b 31 3e 1f ea ba bc 6a 09 4e bd
       0.1820128 0.17338377 -0.022816716 -0.050301947
0000c0 4b ed 96 bd 90 8b f5 bd 4e d6 d7 3d 71 83 21 be
       -0.07369479 -0.1198951 0.10538922 -0.15772797
0000d0 b1 11 9c be 48 8f 20 3d bf 61 7e 3d fb 0f 0e 3e
       -0.30482247 0.039199144 0.062104937 0.13873284
0000e0 57 30 d2 3d 66 c1 2d 3c d3 3c 00 3d ab d5 26 3e
       0.10263126 0.010605192 0.031308006 0.16292445
0000f0 08 a6 0d 3d 59 e3 bb be 0f c0 ee bb 12 74 e3 bd
       0.034582168 -0.3669689 -0.0072860788 -0.11106123
000100 eb b5 75 3d dd 89 17 be ea 7e 46 3e e5 e7 1b 3d
       0.059987944 -0.14798684 0.19384351 0.03806295
000110 cf e8 1e 3e fa 1f 48 bd 82 25 0d 3e 01 0b df 3d
       0.15518497 -0.04885862 0.1378384 0.10890771
000120 92 7d 71 3d e2 4d 1f 3d b4 01 2f 3e c5 10 1d be
       0.058957644 0.038892634 0.17090493 -0.15338428
000130 11 8e 15 3e aa a0 62 bd 22 77 02 3e 77 65 47 3c
       0.14604975 -0.055329002 0.12740758 0.012170187
000140 c6 33 eb 3d ed 3f 02 3e ec 5d 17 3e cb 7f b7 bd
       0.114844844 0.12719698 0.14781922 -0.089599214
000150 59 53 e7 3b 5c 7b 8a 3d 84 44 39 be 25 6c 57 b9
       0.0070594964 0.0676181 -0.18092543 -0.00020544285
000160 9b c2 a3 bc e6 64 a5 bd 0e e6 93 bd 38 09 d0 bd
       -0.019990256 -0.080758855 -0.07221614 -0.10158008
000170 b4 b0 2d bd a0 0b 1c 3e 22 a1 10 3e d0 d1 af bd
       -0.042404845 0.1523881 0.14123967 -0.085849404
000180 8f 54 41 3e 7a fc 28 3d a9 13 32 3e 8c 40 31 3e
       0.18879913 0.041256405 0.17390312 0.17309779
000190 84 e3 92 3d 0d 00 22 3e bb 88 99 3c 76 e6 3a be
       0.071723014 0.15820332 0.018741956 -0.18251976
0001a0 24 c6 1c be b9 9c d5 bd 9a b2 50 3c fe b2 f5 bd
       -0.1530996 -0.10430283 0.012737894 -0.11997031
0001b0 30 4d 1e 3e 05 80 2d 3e 29 b1 ec 3d 84 a7 4b 3e
       0.15459132 0.16943367 0.11557228 0.19888121
0001c0 1c 46 02 3e d3 68 b6 bc 83 3a 3e 3e f9 f6 2b bd
       0.12722057 -0.022266781 0.18577008 -0.04198358
0001d0 cf 08 d2 bd 1a f4 8a 3d 00 5c 00 be 8f 52 41 3e
       -0.10255586 0.0678484 -0.12535095 0.1887915
0001e0 d2 e6 41 3e f9 53 23 bd 09 c6 07 3e 27 f8 8c bd
       0.18935707 -0.039875004 0.13259138 -0.06883269
0001f0 0e ee 72 bc 1a 24 26 3d 19 9a 4a 3e 28 2f ee bb
       -0.0148272645 0.040561773 0.19785346 -0.007268805
000200 04 9f d6 bd 6e ba 46 3e 5b 0f 4a 3d 39 f8 b6 bd
       -0.104795486 0.19407055 0.04933105 -0.089340635
000210 18 b7 70 3c ec 42 12 be 60 8a 92 3d 10 da 16 3e
       0.01469209 -0.14283341 0.07155299 0.14731622
000220 c3 6f 83 3e 4d 4e d0 bd 37 b8 14 be e8 31 79 bd
       0.25671205 -0.10171185 -0.14523397 -0.06083861
000230 76 ed 36 be e6 52 c3 bd d5 7a 42 3e fb fc 4c 3e
       -0.17864022 -0.09537296 0.18992169 0.2001838
000240 52 0f 4f 3d 61 a3 41 3e d7 ef a7 bd 85 2d f7 bd
       0.05055172 0.1890998 -0.08200043 -0.12069229
000250 3d 95 09 be 9c a9 00 be f7 c7 06 3e f6 a8 ac bd
       -0.13435836 -0.12564701 0.13162218 -0.08430664
000260 42 33 16 3e 32 3c b2 3d 4f ed 06 be e1 e9 e2 bd
       0.14667991 0.087028876 -0.13176464 -0.11079765
000270 59 ff 0b 3e 60 01 f1 bd 60 94 28 3d 53 fa 5b bd
       0.13671626 -0.117678404 0.041157126 -0.053705525
000280 74 b5 96 bd ba d3 04 be 3e fb 6b bd 56 17 52 3e
       -0.07358828 -0.12971392 -0.05761265 0.20516714
000290 60 c2 34 3d 25 b7 1a 3d 60 c2 68 bd 71 27 29 bd
       0.044130683 0.037772316 -0.056825995 -0.04129738
0002a0 e1 db 1a be ec d7 1e be d9 6f 15 3d 05 4c 26 be
       -0.1512294 -0.15512055 0.03648362 -0.16239937
0002b0 59 63 17 3e 89 60 3b be c3 22 d0 bd 80 ce 86 3d
       0.14783992 -0.18298544 -0.1016288 0.065823555
0002c0 de 10 72 3d 5e 16 08 be 79 fa de 3d e1 91 8c bd
       0.059098117 -0.13289782 0.108876176 -0.06863762
0002d0 69 22 ed bd f5 9a 05 3d 3d 0f fb bd a7 48 ca bd
       -0.11578829 0.03261848 -0.12258766 -0.098771386
0002e0 f3 7b 14 3d 11 1e 04 3e 50 cd 9e 3c 56 51 7d 3d
       0.03625102 0.12902094 0.01938501 0.061845146
0002f0 74 cb 41 3e 69 0c 46 be 4f 2c d3 3d c3 d5 3c be
       0.18925267 -0.19340672 0.103111856 -0.18440919

layer4.bn2.weight f4 [8]
000000 d1 76 81 3f 13 93 7d 3f 6a 1b 78 3f 6f 0b 86 3f
       1.0114385 0.9905254 0.9691683 1.0472239
000010 24 31 78 3f c0 0a 81 3f 21 54 86 3f ea 79 68 3f
       0.9694998 1.0081406 1.0494424 0.90811026

layer4.bn2.bias f4 [8]
000000 15 bf 62 3c 2e aa 49 3d ff f1 cb ba 63 cf 15 3a
       0.013839503 0.04923456 -0.0015559791 0.0005714802
000010 cd c3 3c 3c 35 51 b4 3c 2d 47 c3 3c a6 85 c9 bc
       0.011521292 0.022011379 0.02383765 -0.024599861

layer4.bn2.running_mean f4 [8]
000000 cd 74 ab 3d a8 da a7 bd 79 b8 e0 bc 97 be 89 3d
       0.08371887 -0.08196002 -0.027431713 0.06725805
000010 b5 d1 14 3d 8d 34 17 3d 36 05 59 bd 1d a5 91 3d
       0.036332805 0.03691535 -0.052983485 0.07111571

layer4.bn2.running_var f4 [8]
000000 32 05 f1 3e b7 39 e6 3e 5c 53 fd 3e 07 4f eb 3e
       0.47074276 0.44965908 0.4947766 0.4595873
000010 64 94 e9 3e 8d f2 eb 3e 79 fc fc 3e 34 49 e9 3e
       0.45621026 0.4608349 0.4941137 0.45563662

layer4.fc1.weight f4 [2, 8]
000000 20 5a 3b 3e cc a5 0a be f2 3a 8e 3e 94 56 85 3e
       0.18296099 -0.13539809 0.27779347 0.26042616
000010 7a a3 47 3e 55 e1 37 be 24 73 76 be b3 ab 6a 3e
       0.19495955 -0.17957051 -0.2406736 0.2291706
000020 01 91 99 bd d0 d9 59 be d0 3a 94 be e9 dd 3c 3d
       -0.074983604 -0.21274495 -0.2895112 0.046110068
000030 58 ec b8 3d 39 30 87 be f5 02 1e 3e f3 2c db bd
       0.09029454 -0.26403978 0.15430816 -0.10701933

layer4.fc1.bias f4 [2]
000000 61 93 a6 3e 16 10 82 3e
       0.32534316 0.25402898

layer4.fc2.weight f4 [8, 2]
000000 ed 3f ac 3d 33 48 21 bf 0b f8 5e 3e f1 ab 83 be
       0.084106304 -0.6300079 0.21774308 -0.25717118
000010 f7 ab db be 5c 60 dd be da 2c c0 be c0 74 85 be
       -0.42904636 -0.4323758 -0.3753422 -0.26065636
000020 d0 b7 25 bf 10 15 a7 bd 23 d0 db be 57 ff a7 3e
       -0.647336 -0.08158314 -0.42932233 0.32811996
000030 50 9e 1d bf b2 0b 19 bf 30 a3 35 be 34 33 22 3f
       -0.6156969 -0.5978347 -0.17738032 0.6335938

layer4.fc2.bias f4 [8]
000000 a7 0d 60 3e 4f 01 9b 3e 19 ea 01 3f 8d a1 22 bf
       0.21880208 0.30274436 0.5074783 -0.63527757
000010 5b 6c ac be bf 02 02 3d d5 a7 df 3e 7d 9c 62 3d
       -0.3367642 0.0317409 0.43682733 0.05532502

layer5.conv1.weight f4 [16, 8, 1, 3]
000000 cc 0b 36 3e fe 8f 06 3e c2 6d c0 3d ad d5 6b bd
       0.17777938 0.13140866 0.09395935 -0.057576824
000010 5b b4 b4 3d af 60 1a 3e 2b 32 10 bd 45 dd d4 bd
       0.088234626 0.15075944 -0.035204094 -0.10393766
000020 80 19 fa bc 86 58 1d 3e 23 23 47 bd 63 ac 20 3e
       -0.030529737 0.153658 -0.048617493 0.1569076
000030 b5 bc 16 3e 3a a3 33 be b4 77 4c be 3c 77 bb 3d
       0.14720424 -0.17542735 -0.19967538 0.091536015
000040 de 2d 4c bd 33 06 cc bc 25 f3 8c bd 9c 7d 25 bc
       -0.04984843 -0.0249053 -0.06882314 -0.010100748
000050 3d 58 39 be 4a 6a 31 3e a3 fd 06 be b0 47 16 bb
       -0.18100066 0.17325702 -0.13182692 -0.0022930913
000060 80 de ac bd 45 7b ee 3d 6f 80 e8 bd a6 67 aa bc
       -0.08440876 0.116446055 -0.11352622 -0.020801377
000070 b4 8b 1d bc d3 18 2a bd c9 99 1e be de aa 17 be
       -0.009615827 -0.04152758 -0.15488352 -0.14811274
000080 7c ee ee bd 82 f5 0d 3d c0 c4 e9 bd de 75 a4 bc
       -0.11666581 0.034657963 -0.1141448 -0.020075735
000090 11 c4 08 3e af 5b 1d be 77 bf 34 be 0c 2c da bd
       0.13356043 -0.15367006 -0.17651163 -0.106529325
0000a0 4a af 1f 3e 7c 0c 8f bd db c6 cd ba 0d 57 ab 3d
       0.15594211 -0.06984803 -0.0015699522 0.08366213
0000b0 bb 0f 30 3e cb 8a 02 3e 09 31 37 3e 2e c4 01 3d
       0.171935 0.12748258 0.17889799 0.031681232
0000c0 a7 2e 69 bc 77 cf 33 be 3a 4e 29 3d ae 48 3a be
       -0.014232314 -0.1755961 0.04133437 -0.18191788
0000d0 02 42 98 bd 8b 31 3a bb d6 52 dd 3c 8a 89 8d 3d
       -0.07434465 -0.0028410878 0.027017038 0.06910999
0000e0 8a 84 0b be 4f 91 e9 3d 19 c9 1a be 22 7b dc bd
       -0.13624778 0.114046685 -0.15115775 -0.10765673
0000f0 08 bf 0e be 11 a5 71 bd 64 ae 4e 3e b9 00 8e bd
       -0.1394006 -0.05899531 0.20183712 -0.069337316
000100 1f 67 3c be 59 04 0d 3e 81 50 4a be 85 6f 64 bc
       -0.18398713 0.1377119 -0.19757272 -0.013942604
000110 da f3 0d 3d e3 28 a1 bc ee df ab bd eb 66 27 be
       0.034656383 -0.019672817 -0.083923206 -0.16347854
000120 4d d4 49 be 02 c7 57 3e 9b 41 8d bd 27 1f c5 3d
       -0.19709893 0.21072009 -0.06897279 0.096250825
000130 2c ba 29 be 20 d7 6a bd 4a 17 6e 3d 55 9b 4f bd
       -0.16574925 -0.057334065 0.05812768 -0.050685246
000140 82 1f 4a bd 1b ae b1 bd 92 f2 80 3e 78 e8 4a 3e
       -0.049346454 -0.08675786 0.25185066 0.19815242
000150 18 d2 91 3d 51 a3 43 bc 68 1e e9 3c 96 38 23 be
       0.0712015 -0.011940793 0.028456882 -0.15939555
000160 9c 60 cb bd a8 93 12 3e be bf f7 bd df 44 de bd
       -0.09930536 0.14314139 -0.12097119 -0.1085298
000170 23 b1 f9 3d 08 eb 31 3d 1c 31 47 3c 17 62 89 3d
       0.12191989 0.043437034 0.012157705 0.06708162
000180 35 6e 8b 3d ea f1 bc be 2f c6 e9 bd 8b a9 7b bc
       0.0680813 -0.36903316 -0.11414754 -0.015360246
000190 41 3c 97 bd a4 ff 1b 3e 87 6e 0c 3e 0c 71 e0 bd
       -0.073845394 0.15234238 0.13714038 -0.10959062
0001a0 ae f0 28 3e 69 85 d8 3d a7 c2 b6 3b 85 f0 14 3e
       0.16498062 0.10572321 0.0055774036 0.14544876
0001b0 cc a7 0d be fc e6 6b 3d 3a 72 24 bd 2e 2c eb 3d
       -0.1383354 0.05759333 -0.040147997 0.11483036
0001c0 1d 3b 16 be ab 7c 3a 3d af 58 04 bd aa 60 ee bd
       -0.14670987 0.04552905 -0.032311138 -0.11639531
0001d0 6b 7b cc bd c3 dd 84 bd 37 5e 14 be f8 90 00 3e
       -0.099844776 -0.0648761 -0.14489065 0.12555301
0001e0 95 ce 9f 3d 67 dd 9a 3d d1 e6 d0 bd 44 bc b4 3d
       0.07803074 0.075617604 -0.10200275 0.08824971
0001f0 1a 4e 50 bd 43 55 8b 3d 42 8a 11 3d 98 55 50 3d
       -0.050855733 0.06803372 0.035532244 0.05086288
000200 0a 66 01 3c 01 5b 48 3b ec 0b 51 3e 11 d1 ef 3d
       0.007897863 0.003057182 0.20414704 0.11709798
000210 39 08 09 be 3c b0 55 3e 6f b8 0b 3e 39 3f 0f 3e
       -0.13382043 0.2086801 0.13644575 0.13988961
000220 49 f8 77 bd fa 9a 8e 3c 9b db 19 3e 9e 54 3e be
       -0.060539518 0.017407883 0.15025179 -0.18586966
000230 22 f1 18 3e a1 8e 45 be 7d dc 31 be 79 8e 87 3d
       0.14935735 -0.1929269 -0.17369266 0.066189714
000240 8f 26 50 bd 1a e6 12 3e 31 6b 09 3e 70 76 9b 3b
       -0.050818022 0.1434559 0.13419797 0.0047443435
000250 05 c7 30 3b 66 eb 8a bd e9 f8 e5 bd e3 f7 4d be
       0.0026974094 -0.0678318 -0.112291165 -0.20114093
000260 d1 12 8c 3d cf a6 e6 bd 68 6e 97 3e 21 81 7c bd
       0.068395264 -0.11262285 0.2957642 -0.061646584
000270 51 b9 d4 3c 56 f0 10 bd 24 59 14 be 78 29 58 bc
       0.025967272 -0.035385452 -0.1448713 -0.013193481
000280 1b 5f b9 bc b8 75 00 be 1f 6d 87 3d a7 2c de 3d
       -0.022628358 -0.12544906 0.0661261 0.108483605
000290 ee 28 95 bc ae 25 1f 3d 1a 67 31 be b0 8a b4 bd
       -0.018207993 0.038854294 -0.17324486 -0.08815515
0002a0 8b 06 2e be 06 82 be bd 35 f5 36 3d 57 b0 96 bd
       -0.16994683 -0.09302144 0.04466744 -0.07357853
0002b0 95 d4 1b 3e 27 ea 2d be ea 79 29 3e ab cd 2f 3e
       0.15217812 -0.16983853 0.16550413 0.171683
0002c0 c6 80 36 3e e6 31 4d be f8 31 9b 3c f2 9b 25 be
       0.1782256 -0.20038566 0.018944725 -0.1617277
0002d0 a6 74 7d bd 85 c2 5e be 27 72 28 be 9c c8 3b 3e
       -0.061878823 -0.21753891 -0.16449796 0.18338245
0002e0 78 cf 5a 3e f6 0b ea 3c cc e5 19 bc 9e 03 28 3e
       0.21368206 0.028570157 -0.009393167 0.1640763
0002f0 70 0f aa 3d 54 d5 d5 bc fb 67 56 3d 22 45 0d be
       0.08303726 -0.0261027 0.052345257 -0.13795903
000300 7e c3 8e bb 7c ae 4f bd fa e0 01 3e 49 e5 1a bc
       -0.0043568006 -0.05070351 0.12683478 -0.00945408
000310 63 51 66 be a7 5a b5 b9 2f 17 2d bd 6e b9 2a 3e
       -0.22491984 -0.00034590552 -0.042258438 0.16672298
000320 da 78 e0 bd 0a 71 0c be 8b 54 31 be 82 d9 04 be
       -0.109605506 -0.13714996 -0.17317407 -0.12973598
000330 4c a5 ac ba fd a1 dd bb 98 6c f9 3d 37 a3 6c 3d
       -0.0013171821 -0.0067636953 0.12178916 0.05777284
000340 3d 4d 58 be 87 8c 8e 3d aa 54 34 be 8a 68 ef 3d
       -0.21123214 0.06960397 -0.17610422 0.11689861
000350 48 67 af bd fa f2 da 3d 4e 23 e1 3d 53 7d c8 3d
       -0.08564621 0.10690875 0.10993062 0.09789529
000360 04 ff 2c be 39 4d 5f 3e e8 ab 53 bd 0c 7f 23 be
       -0.16894156 0.21806802 -0.051677614 -0.15966433
000370 75 af 10 be a6 2c 4a 3e 71 ba 91 3d e5 f6 47 3d
       -0.14129432 0.19743595 0.07115639 0.04881944
000380 9d 50 1a bd 53 f3 49 3e 3d d1 d4 3d 4a 81 9e bd
       -0.037674535 0.19721727 0.103914715 -0.07739504
000390 7d b2 f4 ba 1a 59 31 3d d1 a0 c5 bd c3 21 42 be
       -0.0018668916 0.043297864 -0.09649814 -0.18958192
0003a0 24 dd b8 3d b0 97 25 3e 15 a6 97 bd 15 4c a4 3d
       0.09026554 0.16171145 -0.074047245 0.08022324
0003b0 49 3f ae bd bf 0d 24 be 82 8c ec bd 9b 76 04 bd
       -0.085081644 -0.16020869 -0.11550237 -0.032339673
0003c0 8e ba a2 3c 63 d0 df 3d d1 ac 7f 3d 50 db e7 bd
       0.019864347 0.109284185 0.06242067 -0.113211274
0003d0 9a a7 3f 3e 8e f4 ac bd 4b 9c 85 bb dc 64 86 3d
       0.18716279 -0.084450826 -0.0040774695 0.06562206
0003e0 43 96 9a 3d e3 f2 84 bd 23 9f 15 be 64 35 4b 3d
       0.075481914 -0.064916395 -0.14611487 0.049611464
0003f0 79 90 d6 bd 33 30 80 bb 21 55 34 be 67 cd fd 3d
       -0.10476775 -0.003911996 -0.17610599 0.12392693

layer5.bn1.weight f4 [16]
000000 01 1a 80 3f e3 73 7e 3f dd ff 7f 3f e0 4f 7b 3f
       1.0007936 0.9939558 0.9999979 0.98168755
000010 aa 14 82 3f a5 6f 83 3f 4d fa 7d 3f 08 74 7e 3f
       1.0162556 1.0268446 0.99210054 0.993958
000020 92 49 7c 3f eb f4 7c 3f 3d 3e 82 3f 45 41 83 3f
       0.9854976 0.98811215 1.0175244 1.0254294
000030 8a e6 7f 3f f3 5e 7e 3f dc 9d 75 3f a6 a4 82 3f
       0.9996115 0.9936363 0.95944 1.0206497

layer5.bn1.bias f4 [16]
000000 b5 e6 04 3c 2f 39 d5 3c 18 91 c5 ba 84 e3 61 bc
       0.0081116455 0.026028244 -0.0015073149 -0.013787154
000010 34 29 11 3c 6c 18 36 3c b7 d5 cb 3b be 0f a8 3b
       0.008859921 0.011114221 0.006220545 0.0051288297
000020 36 fe 93 3b d5 e4 1f bc db 79 c6 3c 13 7b a7 3c
       0.0045163883 -0.009759148 0.024228027 0.020444429
000030 5f 5e af 3b 54 00 31 bb f1 55 6f bc 34 81 3e 3c
       0.005351826 -0.0027008252 -0.014607892 0.011627484

layer5.bn1.running_mean f4 [16]
000000 73 e8 d5 bd 74 b0 fa 3d 6b 59 9b be 84 2a a2 3d
       -0.10444727 0.12240687 -0.30341658 0.079182655
000010 d9 8d 8f be 06 38 17 3d e7 f5 8a 3d 32 ba 3e 3e
       -0.2803791 0.036918662 0.067851834 0.18625715
000020 c6 50 82 bd 9a 75 01 3e 4d 51 de 3d a2 7b a1 bd
       -0.063630626 0.12642518 0.10855351 -0.07884909
000030 3a b4 96 bd 17 79 e6 3d 73 6b 0f 3d 2f ff b7 3c
       -0.07358594 0.11253565 0.03501458 0.022460548

layer5.bn1.running_var f4 [16]
000000 bf f6 eb 3e 86 c1 00 3f 09 07 3c 3f d0 bb 29 3f
       0.4608669 0.50295293 0.73448235 0.66302204
000010 cc 8c 15 3f 89 46 10 3f 9d dc 14 3f cd 12 05 3f
       0.58417964 0.5635763 0.5814913 0.5198181
000020 fa bd fc 3e c7 1d 0a 3f a8 39 ef 3e 14 bf 00 3f
       0.4936369 0.53951687 0.46723676 0.5029156
000030 98 85 ed 3e 81 65 4a 3f 06 36 13 3f 74 89 16 3f
       0.46390986 0.7906113 0.5750431 0.58803487
