das_new/models/20260105_194556/final_model.pth (torch, 99146 bytes, 176 tensors)

input_conv.weight f4 [4, 1, 1, 3]
-0.20918511 -0.4244573 0.2396735 -0.35082224 0.37363628 0.005146573 -0.55318636 0.49108368
-0.49234542 -0.24831837 0.20352943 -0.2698173
00000000: 9f34 56be 7852 d9be f86c 753e f99e b3be
00000010: 414d bf3e 95a4 a83b 9f9d 0dbf 526f fb3e
00000020: b314 fcbe 2c47 7ebe 056a 503e 7e25 8abe

input_bn.weight f4 [4]
0.77692854 1.2570529 0.8158086 1.1509665
00000000: cae4 463f 1ce7 a03f d5d8 503f df52 933f

input_bn.bias f4 [4]
-0.13645722 0.12800622 -0.032404643 0.066914864
00000000: 71bb 0bbe 1014 033e bbba 04bd a90a 893d

input_bn.running_mean f4 [4]
-0.019619625 0.017269833 0.022699041 0.009406033
00000000: 56b9 a0bc 7779 8d3c 57f3 b93c c31b 1a3c

input_bn.running_var f4 [4]
0.54348683 0.51802766 0.5817463 0.45643136
00000000: f421 0b3f 769d 043f 53ed 143f 5fb1 e93e

layer1.conv1.weight f4 [4, 4, 1, 3]
-0.10975902 -0.28045973 -0.13567692 0.092701435 2.1125734 -0.23881695 0.054369017 1.8543962
-0.12741727 -0.25621706 2.088757 0.22487798 0.23840143 0.07696497 0.1272593 -0.030961612
-0.2062169 0.13583314 -0.04400337 -0.3283341 -0.27023935 0.005920556 -0.050206188 0.008647668
0.23711888 0.35204965 -0.14250141 0.24922878 -0.22325031 0.07349489 -0.20573105 -0.109529026
-0.27716532 0.035189733 0.036109407 0.25874487 0.06814264 0.0015410014 0.23641588 0.007198499
0.3334818 -0.035839148 -0.27382144 0.4842738 0.08232625 0.048018273 0.22588192 0.090686984
00000000: 56c9 e0bd 6b98 8fbe e4ee 0abe 40da bd3d
00000010: 6734 0740 6e8c 74be 0cb2 5e3d db5c ed3f
00000020: ac79 02be e22e 83be 32ae 0540 6a46 663e
00000030: 811f 743e cf9f 9d3d 4350 023e 35a3 fdbc
00000040: 862a 53be d817 0b3e e13c 34bd 681b a8be
00000050: d05c 8abe 3901 c23b 01a5 4dbd f3ae 0d3c
00000060: 4bcf 723e da3f b43e e4eb 11be d435 7f3e
00000070: bb9b 64be 7d84 963d 29ab 52be c150 e0bd
00000080: 9de8 8dbe 1c23 103d 75e7 133d 357a 843e
00000090: 5e8e 8b3d 6dfb c93a 0117 723e 63e1 eb3b
000000a0: 20be aa3e 12cc 12bd 5332 8cbe bcf2 f73e
000000b0: aa9a a83d cfae 443d 974d 673e 19ba b93d

layer1.bn1.weight f4 [4]
0.84939784 1.0002899 1.0513588 1.0997722
00000000: 2372 593f 8009 803f ed92 863f 56c5 8c3f

layer1.bn1.bias f4 [4]
0.06040993 0.038019013 0.033830464 -0.027292019
00000000: 6770 773d d3b9 1b3d d091 0a3d 8393 dfbc

layer1.bn1.running_mean f4 [4]
0.8756468 -0.05251739 -0.046688676 0.14545032
00000000: 642a 603f 7a1c 57bd a03c 3fbd eef0 143e

layer1.bn1.running_var f4 [4]
5.542706 0.47283736 0.5015092 0.53924984
00000000: d95d b140 bd17 f23e e862 003f 470c 0a3f

layer1.conv2.weight f4 [4, 4, 1, 3]
-0.15954718 -0.21453454 -0.22664967 -0.27565867 0.030872002 0.1751729 0.24266009 0.10656814
-0.040184718 0.06708365 -0.23945117 -0.27500758 0.10031033 0.07071877 -0.28379804 -0.23673554
0.51105773 0.1905743 0.18509813 0.33014408 -0.19781214 -0.26597503 0.4609943 0.1194026
0.15528964 -0.33485126 0.052480333 -0.062057815 0.26032156 -0.23121852 0.1511162 0.4563147
-0.21482629 -0.12338226 -0.71526486 -0.21002492 0.24057125 -0.37266845 0.027693683 0.066729106
-0.041140642 -0.2674234 0.21837112 0.1672396 0.15165982 0.12594676 0.1710815 0.08385394
00000000: 5660 23be f1ae 5bbe da16 68be 2223 8dbe
00000010: 48e7 fc3c 8660 333e e37b 783e 6640 da3d
00000020: bb98 24bd 2763 893d b032 75be cbcd 8cbe
00000030: 816f cd3d 01d5 903d fa4d 91be cd6a 72be
00000040: aed4 023f e925 433e 5d8a 3d3e a508 a93e
00000050: 448f 4abe e12d 88be 7207 ec3e 5a89 f43d
00000060: 3f04 1f3e a071 abbe 9ef5 563d 5630 7ebd
00000070: de48 853e 8cc4 6cbe 35be 1a3e 15a2 e93e
00000080: 6cfb 5bbe d7af fcbd 991b 37bf c610 57be
00000090: 4f58 763e 66ce bebe dddd e23c 45a9 883d
000000a0: 1783 28bd b8eb 88be ae9c 5f3e dc40 2b3e
000000b0: b64c 1b3e 30f8 003e fd2f 2f3e 9dbb ab3d

layer1.bn2.weight f4 [4]
1.048043 0.90022045 1.0203091 1.0550466
00000000: 4626 863f d974 663f 7d99 823f c40b 873f

layer1.bn2.bias f4 [4]
0.12552106 -0.038396493 0.02577897 0.044729058
00000000: 9888 003e a445 1dbd 6b2e d33c d135 373d

layer1.bn2.running_mean f4 [4]
-0.054265957 0.1771247 -0.019497331 0.01597346
00000000: fb45 5ebd 2d60 353e deb8 9fbc c6da 823c

layer1.bn2.running_var f4 [4]
0.5070214 0.4649716 0.61469996 0.4464066
00000000: 28cc 013f c210 ee3e fa5c 1d3f 688f e43e

layer1.fc1.weight f4 [1, 4]
0.2691332 -0.4031861 -0.36681163 -0.46984294
00000000: d4cb 893e 696e cebe bcce bbbe 418f f0be

layer1.fc2.weight f4 [4, 1]
-0.28789228 0.21687983 0.9170567 -0.9638331
00000000: 9e66 93be bf15 5e3e 3ac4 6a3f c4bd 76bf

layer1.fc2.bias f4 [4]
-0.5379343 -0.459556 0.649114 -0.9145288
00000000: 10b6 09bf ed4a ebbe 562c 263f 8f1e 6abf

layer1.shortcut.0.weight f4 [4, 4, 1, 1]
0.067034096 -0.15153266 -0.33405986 -0.12404733 0.057127852 0.21853325 0.22206016 0.39305365
0.36233377 0.33921438 0.0042040134 -0.20300247 -0.0330011 -0.19814454 -0.29153427 0.018147184
00000000: 2c49 893d 612b 1bbe e509 abbe 870c febd
00000010: e5fe 693d 2ec7 5f3e bd63 633e 543e c93e
00000020: d083 b93e 82ad ad3e d2c1 893b e1df 4fbe
00000030: 292c 07bd 67e6 4abe fb43 95be 67a9 943c

layer1.shortcut.1.weight f4 [4]
1.0373238 0.9434974 1.0204117 1.0264554
00000000: 07c7 843f 0c89 713f da9c 823f e462 833f

layer1.shortcut.1.bias f4 [4]
0.14022416 -0.032539755 0.023970746 0.053592872
00000000: ec96 0f3e 6848 05bd 4c5e c43c 3384 5b3d

layer1.shortcut.1.running_mean f4 [4]
-0.09313701 0.1781877 0.06937604 -0.10949515
00000000: 9ebe bebd d676 363e 0615 8e3d fe3e e0bd

layer1.shortcut.1.running_var f4 [4]
0.51913947 0.5408062 0.44021142 0.48497787
00000000: 53e6 043f 4672 0a3f 6463 e13e 054f f83e

layer2.conv1.weight f4 [4, 4, 1, 3]
-0.2606858 -0.28025177 0.113565296 -0.2215791 0.060673364 0.24625829 -0.13624239 0.0019151882
0.15608034 -0.22658734 -0.18886048 -0.17884365 0.28145263 0.048009403 0.00016788782 -0.102427825
0.10301471 -0.112686425 -0.026810566 0.25012478 -0.008312548 -0.070537396 -0.4576745 0.0027766593
-0.018645473 0.19316882 -0.110325694 -0.2280984 0.20259109 -0.030727016 0.09415697 -0.3404871
-0.15334186 0.18476339 0.14587316 -0.08761955 0.042713493 0.21078138 0.2666399 -0.13757628
0.19503711 -0.16171746 0.11557127 0.14431944 -0.08395383 -0.28440243 0.38494372 -0.28169566
00000000: 9c78 85be 297d 8fbe ec94 e83d a2e5 62be
00000010: a284 783d 222b 7c3e 2083 0bbe 0d07 fb3a
00000020: 86d3 1f3e 8306 68be a464 41be ca22 37be
00000030: 8f1a 903e 82a5 443d 0b0b 3039 aec5 d1bd
00000040: 60f9 d23d 24c8 e6bd d5a1 dbbc 5b10 803e
00000050: 5a31 08bc e975 90bd 5054 eabe 9df8 353b
00000060: 64be 98bc 0cce 453e 70f2 e1bd a192 69be
00000070: 0a74 4f3e 39b7 fbbc 5fd5 c03d 5354 aebe
00000080: a605 1dbe 9d32 3d3e c65f 153e e171 b3bd
00000090: 58f4 2e3d 13d7 573e 0685 883e cce0 0cbe
000000a0: cfb7 473e 4399 25be a1b0 ec3d 7ac8 133e
000000b0: fcef abbd 329d 91be 5817 c53e 6a3a 90be

layer2.bn1.weight f4 [4]
1.0090383 0.9601455 1.0025997 1.025668
00000000: 2b28 813f 18cc 753f 3055 803f 1749 833f

layer2.bn1.bias f4 [4]
0.0030280484 0.052115556 0.009918008 0.11495732
00000000: 3972 463b 1f77 553d 247f 223c be6e eb3d

layer2.bn1.running_mean f4 [4]
-0.16973798 0.008021523 0.090693735 0.22880945
00000000: cbcf 2dbe b56c 033c a3bd b93d 064d 6a3e

layer2.bn1.running_var f4 [4]
0.47063032 0.46372294 0.4456171 0.48485845
00000000: 75f6 f03e 186d ed3e ed27 e43e 5e3f f83e

layer2.conv2.weight f4 [4, 4, 1, 3]
0.035961125 0.10467871 0.114241876 0.004345867 0.12057483 0.10478554 0.14531413 0.021787105
-0.2549845 -0.10330144 0.3361894 0.23876879 -0.28768906 -0.27561167 -0.23158593 -0.2578218
0.16738544 0.24333146 -0.14544575 0.1145818 -0.08524253 0.17699514 0.33979917 -0.0064094714
-0.058447722 0.27381125 -0.049767878 0.13873403 0.015064785 -0.031193348 0.19240469 -0.50324196
0.15729927 -0.06417091 -0.23597302 0.0012460345 -0.07691999 -0.099439345 -0.089881964 -0.06967932
0.3157279 0.23451442 -0.114045225 0.1616791 0.016920501 0.10106172 -0.13443339 0.17234378
00000000: f94b 133d cb61 d63d a5f7 e93d c667 8e3b
00000010: f0ef f63d cd99 d63d 3acd 143e df7a b23c
00000020: 548d 82be b58f d3bd 0421 ac3e ce7f 743e
00000030: fb4b 93be f91c 8dbe dd24 6dbe 3801 84be
00000040: 1767 2b3e e22b 793e bbef 14be dda9 ea3d
00000050: a393 aebd 373e 353e 28fa ad3e 8b06 d2bb
00000060: e166 6fbd fd30 8c3e 67d9 4bbd 4b10 0e3e
00000070: 4ad2 763c 3189 ffbc bc05 453e 77d4 00bf
00000080: 0f13 213e 0a6c 83bd e9a2 71be fb51 a33a
00000090: 3a88 9dbd dba6 cbbd 0914 b8bd 08b4 8ebd
000000a0: 16a7 a13e 8c24 703e 8b90 e9bd 358f 253e
000000b0: dd9c 8a3c 72f9 ce3d e8a8 09be e37a 303e

layer2.bn2.weight f4 [4]
0.94143593 0.9953154 1.0173252 0.97839487
00000000: f201 713f fdcc 7e3f b637 823f 1678 7a3f

layer2.bn2.bias f4 [4]
0.11297605 -0.0033049516 0.03123333 0.0024594746
00000000: fd5f e73d e397 58bb 0add ff3c 232f 213b

layer2.bn2.running_mean f4 [4]
0.13136904 0.089034125 -0.052673705 0.031597827
00000000: 9b85 063e 8657 b63d 62c0 57bd b96c 013d

layer2.bn2.running_var f4 [4]
0.45579413 0.4879332 0.46377933 0.47728083
00000000: d95d e93e 61d2 f93e 7c74 ed3e 275e f43e

layer2.fc1.weight f4 [1, 4]
0.35546708 -0.08091491 0.45324472 -0.32757077
00000000: c8ff b53e b7b6 a5bd b10f e83e 5bb7 a7be

layer2.fc2.weight f4 [4, 1]
0.8003173 -0.3665742 -0.2609085 -0.86522657
00000000: 98e1 4c3f 9daf bbbe cd95 85be 7d7f 5dbf

layer2.fc2.bias f4 [4]
0.5843563 0.8516552 -0.15145022 -0.21443783
00000000: 6098 153f 1306 5a3f c415 1bbe 9795 5bbe

layer3.conv1.weight f4 [8, 4, 1, 3]
-0.06995048 0.2145442 0.041665882 0.09607735 -0.11786525 -0.12043335 0.18231301 0.30619302
-0.25485137 -0.23236501 -0.12956 0.19180639 -0.032860614 -0.25066242 0.07966347 0.062171794
-0.027065482 0.15740152 -0.21246602 0.10658835 -0.2596467 0.21840438 -0.105628386 0.090330675
0.22226901 -0.25255403 -0.1749858 -0.05190759 -0.3192881 -0.09772207 0.108301036 -0.013322509
-0.1301586 -0.06445628 0.07115662 0.28380993 -0.1324862 0.18254937 -0.22819525 0.16190177
0.06641427 0.10631946 0.2610516 0.24154446 0.046791814 0.15330914 -0.29711246 0.19384181
0.1810835 -0.20907436 0.22554345 -0.2200706 -0.18104291 0.10977864 0.2611726 -0.16095822
0.28236163 0.20955618 -0.2457582 -0.17152241 -0.2570828 0.031169254 0.040445413 0.06997653
0.26552594 0.2671813 -0.21270192 0.070446506 -0.107003555 -0.22600076 0.11825896 -0.0022810102
-0.26708344 -0.015079144 0.084126815 -0.17823349 -0.28586987 -0.10993672 -0.07144654 0.1865463
0.13625601 -0.12895373 -0.08317206 -0.0020277034 -0.022939792 -0.34197906 0.13347347 -0.011204061
-0.093600035 0.2610852 -0.25917414 -0.037941683 -0.2108941 0.1290399 -0.3080039 -0.15975966
00000000: 3242 8fbd 7ab1 5b3e d8a9 2a3d 34c4 c43d
00000010: 5663 f1bd c3a5 f6bd 43b0 3a3e 55c5 9c3e
00000020: e17b 82be 18f1 6dbe 60ab 04be e568 443e
00000030: da98 06bd d356 80be 9a26 a33d daa7 7e3d
00000040: 6eb8 ddbc dd2d 213e b190 59be fe4a da3d
00000050: 6af0 84be 66a5 5f3e b253 d8bd 4aff b83d
00000060: 7d9a 633e c34e 81be 7a2f 33be 0e9d 54bd
00000070: bb79 a3be 8222 c8bd efcc dd3d a746 5abc
00000080: 4c48 05be a701 84bd 90ba 913d 894f 913e
00000090: 76aa 07be 39ee 3a3e 04ac 69be 94c9 253e
000000a0: 3404 883d 04be d93d 8ea8 853e 6e57 773e
000000b0: c6a8 3f3d 12fd 1c3e 201f 98be 787e 463e
000000c0: f46d 393e 9717 56be ddf4 663e 305a 61be
000000d0: 5063 39be a0d3 e03d 6ab8 853e 3bd2 24be
000000e0: b491 903e e595 563e 0aa8 7bbe 92a3 2fbe
000000f0: 5ba0 83be aa56 ff3c 17aa 253d db4f 8f3d
00000100: 04f3 873e fdcb 883e 88ce 59be 4246 903d
00000110: ae24 dbbd be6c 67be c131 f23d 007d 15bb
00000120: 29bf 88be 840e 77bc ae4a ac3d d782 36be
00000130: 895d 92be 8126 e1bd 9052 92bd fe05 3f3e
00000140: b286 0b3e 720c 04be 1d56 aabd 38e3 04bb
00000150: 3bec bbbc e117 afbe 45ad 083e 3d91 37bc
00000160: 60b1 bfbd f6ac 853e 79b2 84be bd68 1bbd
00000170: 9ff4 57be 0923 043e b0b2 9dbe 0998 23be

layer3.bn1.weight f4 [8]
1.0125792 1.042527 1.0117948 0.9752197 1.026605 0.93266904 0.9929983 1.0025709
00000000: 329c 813f 8671 853f 7e82 813f 00a8 793f
00000010: cb67 833f 66c3 6e3f 2335 7e3f 3e54 803f

layer3.bn1.bias f4 [8]
-0.006576981 0.029193563 0.034951504 -0.014650119 0.03259085 -0.030832175 -0.0043733055 0.029793674
00000000: b783 d7bb 5727 ef3c 4f29 0f3d 0d07 70bc
00000010: fc7d 053d c293 fcbc f24d 8fbb dd11 f43c

layer3.bn1.running_mean f4 [8]
0.011178482 -0.15467021 -0.1126842 0.07429703 -0.3245108 0.1720392 -0.07614204 -0.19694683
00000000: f425 373c de61 1ebe f9c6 e6bd 0b29 983d
00000010: 4826 a6be 0b2b 303e 5cf0 9bbd 6eac 49be

layer3.bn1.running_var f4 [8]
0.48931867 0.4830219 0.5168893 0.46802172 0.59668714 0.54048043 0.53440005 0.4990793
00000000: fa87 fa3e a54e f73e db52 043f 8ba0 ef3e
00000010: 7dc0 183f ed5c 0a3f 71ce 083f 5287 ff3e

layer3.conv2.weight f4 [8, 8, 1, 3]
0.14304475 0.16131689 -0.10670881 0.12650885 -0.06458866 0.10304126 -0.098932184 -0.2011476
-0.0030123575 -0.021654207 -0.061482072 -0.0059593325 -0.08471317 0.0038848624 -0.016130606 -0.0492809
0.10455463 0.18823908 0.10741078 0.0015628213 0.107743874 0.15175994 -0.19129197 0.09122577
-0.16046885 0.11576208 -0.02293495 -0.05070604 0.15305416 -0.15565524 -0.0071932254 0.089929245
0.18046004 0.15149146 0.059376705 0.15061617 0.04022682 0.15538299 0.08424215 -0.16170157
-0.028655054 0.120267056 0.15387037 0.16041225 -0.20145981 0.14845441 0.18588354 0.091605164
0.15834203 0.2132451 0.08423491 0.017964909 0.20857929 0.0142212305 -0.16915971 -0.071002945
-0.13360848 0.08057489 -0.048125364 -0.15961494 0.09906693 -0.038794354 -0.04160156 0.055046435
-0.012183195 -0.059340615 0.033790976 0.00076111656 0.18593802 0.094248645 -0.104730904 -0.14185417
0.20276612 -0.042034406 -0.1372193 0.07643365 0.28641456 -0.06021734 0.038812526 0.19762105
-0.120617844 0.0022272621 -0.04014228 -0.072343096 -0.17236508 0.25470188 -0.186116 -0.17500533
0.0050139134 0.056823604 -0.090156846 -0.05575656 0.16918199 -0.13581842 0.20569596 0.013760887
-0.067609616 -0.1856118 -0.088641584 0.13599478 0.027372839 0.024164017 0.12447277 0.15408042
0.041199747 -0.07696454 -0.15788102 0.19235696 -0.029335842 0.1471194 -0.17873394 0.1550768
-0.0032637257 0.17357916 0.051228013 -0.13286075 -0.08784608 0.13718879 0.030094394 0.19178386
0.11093437 0.21822575 -0.14804614 0.122503616 -0.019004188 -0.1716224 0.12556839 -0.16194373
-0.07559974 0.19024724 0.1347749 -0.10716963 0.09648592 -0.16509828 -0.059282955 -0.037273943
-0.14014709 -0.025252981 -0.09723708 -0.10013537 -0.12720023 -0.16736439 -0.16026378 0.080204576
0.18910207 -0.047254868 -0.19758128 -0.0057619037 0.15081859 0.13998477 0.058163997 -0.19543354
-0.20390508 0.13157053 -0.16065224 0.0027918837 -0.08857197 0.12816234 0.13226087 0.09447386
-0.06916904 0.02770748 0.16009785 0.17038031 0.0444774 -0.19796823 0.10816791 -0.16607538
0.06580711 -0.12861797 0.15899408 0.0042111394 0.22355941 -0.0051602046 -0.17219783 -0.042092115
-0.09635189 0.0004564106 -0.18680942 0.12748979 0.0805799 -0.09853254 0.097488806 0.17930286
0.20077246 -0.050780095 0.18136398 0.03490026 -0.14027946 0.057779837 -0.07816941 -0.020540249
00000000: 537a 123e 4130 253e 268a dabd 898b 013e
00000010: 0f47 84bd 4c07 d33d f59c cabd a3f9 4dbe
00000020: f96a 45bb 2a64 b1bc a0d4 7bbd 8146 c3bb
00000030: 197e adbd 2d99 7e3b 5524 84bc c5da 49bd
00000040: bd20 d63d bfc1 403e 2ffa db3d 95d7 cc3a
00000050: d2a8 dc3d f566 1b3e 0be2 43be 94d4 ba3d
00000060: f251 24be ab14 ed3d 14e2 bbbc 23b1 4fbd
00000070: 3bba 1c3e 1664 1fbe 26b5 ebbb d32c b83d
00000080: 84ca 383e 9420 1b3e fd34 733d 203b 1a3e
00000090: e1c4 243d b81c 1f3e 2687 ac3d 1995 25be
000000a0: 01be eabc 934e f63d 3290 1d3e 1c43 243e
000000b0: 7b4b 4ebe 6f04 183e 4158 3e3e 7d9b bb3d
000000c0: 6a24 223e ec5c 5a3e 5a83 ac3d 252b 933c
000000d0: cf95 553e 2a00 693c 3438 2dbe fe69 91bd
000000e0: a9d0 08be 7304 a53d 1a1f 45bd 1972 23be
000000f0: 9ae3 ca3d d4e6 1ebd 6666 2abd 5f78 613d
00000100: 069c 47bc 250f 73bd 6868 0a3d ab85 473a
00000110: 8966 3e3e 6f05 c13d 287d d6bd 3842 11be
00000120: eca1 4f3e 452c 2cbd 3783 0cbe 3f89 9c3d
00000130: eea4 923e 75a6 76bd e2f9 1e3d 2c5d 4a3e
00000140: 7d06 f7bd 42f7 113b 3b6c 24bd 9e28 94bd
00000150: 7980 30be 4968 823e 3195 3ebe 9934 33be
00000160: c14b a43b debf 683d 27a4 b8bd fe60 64bd
00000170: 0b3e 2d3e fc13 0bbe f6a1 523e 5875 613c
00000180: e976 8abd 0511 3ebe b889 b5bd 3742 0b3e
00000190: 013d e03c 9ef3 c53c 94eb fe3d 42c7 1d3e
000001a0: 11c1 283d 969f 9dbd 90ab 21be 39f9 443e
000001b0: b851 f0bc 78a6 163e 0806 37be 74cc 1e3e
000001c0: 3be4 55bb bcbe 313e 77d4 513d a60c 08be
000001d0: a5e8 b3bd 387b 0c3e 8588 f63c fd62 443e
000001e0: 8f31 e33d 9276 5f3e 6899 17be 2de3 fa3d
000001f0: acae 9bbc c8bd 2fbe 0095 003e 94d4 25be
00000200: 09d4 9abd 2cd0 423e 6e02 0a3e c07b dbbd
00000210: 699a c53d 860f 29be afd2 72bd 90ac 18bd
00000220: b882 0fbe 57df cebc 3c24 c7bd c613 cdbd
00000230: c740 02be 9261 2bbe 301c 24be 4c42 a43d
00000240: f9a3 413e 528e 41bd bf52 4abe 5ace bcbb
00000250: 3070 1a3e 2b58 0f3e 5f3d 6e3d bb1f 48be
00000260: 7ecc 50be 6dba 063e 0582 24be 09f8 363b
00000270: 3965 b5bd fd3c 033e 656f 073e 837b c13d
00000280: 7fa8 8dbd ccfa e23c b1f0 233e 2d78 2e3e
00000290: ef2d 363d 2fb8 4abe 2387 dd3d aa0f 2abe
000002a0: e1c5 863d 6eb4 03be 58cf 223e 99fd 893b
000002b0: c2ec 643e ef16 a9bb a154 30be c868 2cbd
000002c0: 2454 c5bd 654a ef39 f84a 3fbe af8c 023e
000002d0: 1307 a53d 6ecb c9bd 36a8 c73d 2b9b 373e
000002e0: 4c97 4d3e cafe 4fbd 7bb7 393e 93f3 0e3d
000002f0: 6ba5 0fbe 8daa 6c3d 4917 a0bd 0644 a8bc

layer3.bn2.weight f4 [8]
0.991153 0.9998473 1.0178308 1.0460504 0.9760716 0.98638666 1.0098 0.96665764
00000000: 34bc 7d3f fef5 7f3f 4848 823f fbe4 853f
00000010: d4df 793f d683 7c3f 2041 813f e076 773f

layer3.bn2.bias f4 [8]
-0.0051022847 0.045313407 0.0070982752 0.06047844 -0.0018745419 0.03213328 0.0056075817 -0.026266765
00000000: 1131 a7bb 8d9a 393d a698 e83b 3eb8 773d
00000010: 30b3 f5ba 309e 033d cebf b73b 662d d7bc

layer3.bn2.running_mean f4 [8]
-0.06437402 0.17995541 0.03823578 0.16215031 -0.012376297 -0.05734819 0.025661279 -0.04553667
00000000: 87d6 83bd 3b46 383e 1f9d 1c3d bb0a 263e
00000010: f4c5 4abc f0e5 6abd 9a37 d23c a984 3abd

layer3.bn2.running_var f4 [8]
0.44619867 0.46618193 0.43455425 0.46932104 0.44814432 0.4489406 0.44791996 0.44763651
00000000: 2774 e43e 66af ee3e e57d de3e d94a f03e
00000010: 2c73 e53e 8bdb e53e c455 e53e 9d30 e53e

layer3.fc1.weight f4 [2, 8]
-0.10131581 0.32238647 -0.22542454 0.0545159 0.26240852 0.28429583 -0.026139773 0.21048783
-0.11718952 0.21709093 0.22588363 -0.29933476 0.20637058 0.100837186 0.1486533 -0.053732283
00000000: aa7e cfbd d70f a53e b1d5 66be 104c 5f3d
00000010: 695a 863e 398f 913e 1423 d6bc 1f8a 573e
00000020: 0f01 f0bd 164d 5e3e 0a4e 673e 6842 99be
00000030: cf52 533e ba83 ce3d 9238 183e 6216 5cbd

layer3.fc1.bias f4 [2]
-0.3456168 -0.26886594
00000000: aff4 b0be cca8 89be

layer3.fc2.weight f4 [8, 2]
0.63329417 0.302912 -0.52972513 0.20942007 0.07998894 -0.28915256 0.5901008 0.13686562
0.6376725 -0.12818535 -0.040197317 0.004319562 0.1194376 -0.12223335 0.004750538 0.5951378
00000000: 911f 223f 4817 9b3e 119c 07bf 3772 563e
00000010: 3ed1 a33d ce0b 94be d910 173f 8026 0c3e
00000020: 813e 233f 0543 03be f1a5 24bd 1d8b 8d3b
00000030: b39b f43d 7b55 fabd 67aa 9b3b f35a 183f

layer3.fc2.bias f4 [8]
0.19373418 -0.10809615 0.22326452 -0.5981806 -0.4646527 0.051171854 0.31422535 0.65456855
00000000: 4162 463e 8461 ddbd 749f 643e 5d22 19bf
00000010: f5e6 edbe 9499 513d 25e2 a03e ce91 273f

layer3.shortcut.0.weight f4 [8, 4, 1, 1]
0.24347454 -0.4008781 0.033950347 -0.23955324 -0.37388226 0.23794842 0.045624245 0.22210225
-0.059777994 -0.29493937 0.51735175 0.29746753 -0.20364822 -0.40778595 0.06952779 -0.114398904
0.046816245 0.26943228 -0.05808555 0.09550989 -0.015510017 -0.04720744 0.4417152 0.362371
-0.32853806 -0.2393854 0.4233399 -0.13666105 -0.20655599 -0.42875227 0.3050981 -0.33209062
00000000: 6451 793e e53f cdbe 850f 0b3d 724d 75be
00000010: 7f6d bfbe c0a8 733e 7de0 3a3d c66e 633e
00000020: c5d9 74bd 4b02 97be 2a71 043f aa4d 983e
00000030: 2989 50be 52c9 d0be 9664 8e3d f949 eabd
00000040: 64c2 3f3d 07f3 893e 1deb 6dbd b09a c33d
00000050: ba1d 7ebc 975c 41bd 7f28 e23e b188 b93e
00000060: 2436 a8be 7221 75be 02c0 d83e e0f0 0bbe
00000070: 6a83 53be 6b85 dbbe d135 9c3e c807 aabe

layer3.shortcut.1.weight f4 [8]
1.0202304 1.0488392 0.9861462 1.0428742 0.96898305 1.0247248 0.9785081 1.0022082
00000000: e996 823f 5d40 863f 1474 7c3f e77c 853f
00000010: 460f 783f 2f2a 833f 827f 7a3f 5c48 803f

layer3.shortcut.1.bias f4 [8]
-0.0042603845 0.059793476 0.018826894 0.059880793 -0.0028265824 0.046064526 0.0011682654 -0.042200472
00000000: b29a 8bbb 01ea 743d dc3a 9a3c 9045 753d
00000010: 2f3e 39bb 28ae 3c3d 7b20 993a 67da 2cbd

layer3.shortcut.1.running_mean f4 [8]
-0.12863834 0.066259496 0.15539563 -0.26746875 0.12000588 0.26133272 -0.062023077 -0.3188308
00000000: c5b9 03be 0fb3 873d 0820 1f3e aaf1 88be
00000010: a5c5 f53d 67cd 853e e90b 7ebd ca3d a3be

layer3.shortcut.1.running_var f4 [8]
0.65800107 0.5544621 0.49391672 0.7152185 0.5282078 0.4855538 0.568384 0.9041815
00000000: c272 283f 3af1 0d3f a7e2 fc3e 8f18 373f
00000010: a038 073f 829a f83e 9d81 113f 7078 673f

layer4.conv1.weight f4 [8, 8, 1, 3]
-0.13921092 0.19623335 0.104165494 0.062070437 -0.20092854 0.02781922 -0.1399918 0.07195585
0.03403925 -0.1986359 -0.20407592 -0.12677382 -0.11622414 -0.17675237 0.042285204 0.017120698
-0.19362229 0.19202906 0.07427665 0.010817676 -0.15632251 0.10681864 0.11431644 0.13948976
-0.124554224 0.09043201 0.17922084 0.1248268 -0.24308747 0.109360725 -0.13467859 -0.091368765
0.13540582 -0.13957748 -0.27674413 0.120330475 -0.11626492 -0.1105538 -0.02676083 0.008665484
0.09170528 0.13222875 -0.14951815 -0.08822991 -0.088295236 -0.2014885 -0.063846335 0.08749784
0.07018012 0.15261646 0.13503867 0.026497079 -0.1986808 -0.16106206 0.104898594 0.21040101
-0.045397077 -0.06309097 0.028525205 0.14932625 -0.09663707 -0.063769124 0.03058408 -0.14490095
0.019173497 -0.004366856 0.06737543 0.029590255 -0.12785126 -0.1293314 0.16336071 -0.14267604
0.050515402 0.030089555 0.08530775 0.099194415 -0.08436245 0.10163113 0.063033484 -0.19279616
-0.131654 0.13913234 -0.11492118 0.1436178 -0.08499004 0.13105907 -0.13994625 -0.12845825
-0.01506562 -0.076560125 0.06146884 -0.1991315 -0.09624613 0.054956466 0.006980588 0.191677
0.0054218974 -0.24941796 -0.13416757 -0.15461698 0.17975526 0.11275483 0.037353177 0.07445347
0.0060476405 0.19315922 0.05120442 0.15262145 -0.12788324 0.10269971 0.13361372 -0.103220485
-0.22057801 0.1765262 0.009434669 0.31557316 -0.15377358 -0.14131571 0.04461348 -0.11829339
-0.16844265 -0.10064941 0.0055933013 0.013700882 0.15256302 0.04614624 -0.15111096 0.17905156
-0.16161449 0.18761252 0.04535311 -0.18135874 0.15768099 -0.12633397 0.064036585 0.09171398
-0.13146926 -0.051865306 0.16128664 -0.024114389 0.02835475 0.04409604 -0.07780472 -0.029669309
-0.05644503 0.12930255 -0.06791122 -0.12350923 0.20963597 -0.18527108 -0.063836694 0.08700796
-0.105730034 -0.20221698 0.10836983 0.038962662 0.024830058 -0.042197242 -0.19485298 -0.027981149
-0.05508134 0.050874535 -0.17430162 0.15171842 -0.18606953 0.20184022 -0.072703764 -0.015526733
-0.19388056 -0.03959631 -0.17495704 0.10887235 -0.036314227 0.07035915 0.16661294 -0.08994482
0.05501712 0.05880593 0.2537091 0.020240476 -0.13337001 -0.081392504 0.033188 -0.016775465
-0.08342507 0.13645928 -0.13455373 -0.05386411 -0.16982692 -0.13798858 0.12405207 0.12981142
00000000: 4f8d 0ebe 65f1 483e b854 d53d 923d 7e3d
00000010: 36c0 4dbe 22e5 e33c 035a 0fbe 975d 933d
00000020: be6c 0b3d 3667 4bbe 47f9 50be ffd0 01be
00000030: ec06 eebd 93fe 34be 4033 2d3d b540 8c3c
00000040: ec44 46be 44a3 443e 5b1e 983d 9f3c 313c
00000050: 0213 20be bbc3 da3d bd1e ea3d 67d6 0e3e
00000060: 4916 ffbd 6b34 b93d ab85 373e 31a5 ff3d
00000070: eceb 78be 84f8 df3d 2fe9 09be 8c1f bbbd
00000080: d3a7 0a3e 66ed 0ebe 68b1 8dbe d36f f63d
00000090: 4d1c eebd 086a e2bd 8739 dbbc adf9 0d3c
000000a0: facf bb3d f966 073e 491b 19be e2b1 b4bd
000000b0: 22d4 b4bd 0053 4ebe dec1 82bd 1132 b33d
000000c0: 98ba 8f3d 7d47 1c3e 9447 0a3e 6710 d93c
000000d0: fb72 4bbe 74ed 24be 13d5 d63d 5d73 573e
000000e0: 49f2 39bd d735 81bd b1ad e93c fbe8 183e
000000f0: a8e9 c5bd 6399 82bd 778b fa3c ea60 14be
00000100: bd11 9d3c d817 8fbb 21fc 893d 4367 f23c
00000110: 71eb 02be 736f 04be 0848 273e ab19 12be
00000120: 3de9 4e3d 5f7e f63c d4b5 ae3d 7126 cb3d
00000130: 38c6 acbd fb23 d03d b317 813d 5b6c 45be
00000140: 4ed0 06be b578 0e3e cc5b ebbd 8b10 133e
00000150: 420f aebd 5934 063e 124e 0fbe 8f8a 03be
00000160: cad5 76bc 8ecb 9cbd c0c6 7b3d 21e9 4bbe
00000170: b11c c5bd 081a 613d 6bbd e43b fa46 443e
00000180: 2caa b13b 6c67 7fbe 3963 09be ea53 1ebe
00000190: c311 383e 01ec e63d a5ff 183d 107b 983d
000001a0: 492b c63b 88cb 453e babb 513d cc48 1c3e
000001b0: d3f3 02be 3a54 d23d 09d2 083e 4365 d3bd
000001c0: 34df 61be 49c3 343e df93 1a3c ce92 a13e
000001d0: d276 1dbe 11b5 10be a0bc 363d ce43 f2bd
000001e0: 3b7c 2cbe 4721 cebd 0348 b73b aa79 603c
000001f0: 7b39 1c3e d703 3d3d d5bc 1abe 4b59 373e
00000200: 457e 25be 7f1d 403e 2fc4 393d 1bb6 39be
00000210: 2077 213e b15d 01be 9d25 833d 8ad4 bb3d
00000220: e19f 06be b770 54bd 5328 253e 8a8b c5bc
00000230: 3848 e83c 0d9e 343d 1558 9fbd 0d0d f3bc
00000240: e732 67bd e367 043e 0a15 8bbd 68f2 fcbd
00000250: d0aa 563e b4b7 3dbe d0bc 82bd 3b31 b23d
00000260: fd88 d8bd f811 4fbe 00f1 dd3d 5097 1f3d
00000270: 6868 cb3c 04d7 2cbd 8a87 47be b938 e5bc
00000280: f99c 61bd d161 503d 207c 32be 135c 1b3e
00000290: 0389 3ebe 34af 4e3e b6e5 94bd d763 7ebc
000002a0: a088 46be be2f 22bd f027 33be 77f8 de3d
000002b0: 3abe 14bd 7518 903d 959c 2a3e fd34 b8bd
000002c0: a259 613d 7dde 703d 29e6 813e 5bcf a53c
000002d0: 2692 08be 1db1 a6bd 24f0 073d b36c 89bc
000002e0: c3da aabd fbbb 0b3e 74c8 09be 9da0 5cbd
000002f0: 1ce7 2dbe e14c 0dbe 030f fe3d 49ed 043e

layer4.bn1.weight f4 [8]
1.0035238 0.99258506 1.0012221 0.9791211 1.0205563 1.0061852 0.9880849 1.0067568
00000000: 7873 803f 0e1a 7e3f 0c28 803f aea7 7a3f
00000010: 97a1 823f adca 803f 22f3 7c3f 68dd 803f

layer4.bn1.bias f4 [8]
0.017039124 0.0138638215 -0.032314833 -0.026301023 0.012065513 -0.0023797792 -0.014188823 0.0027085573
00000000: a295 8b3c 1525 633c 8f5c 04bd 3e75 d7bc
00000010: 6eae 453c 12f6 1bbb 3d78 68bc 0d82 313b

layer4.bn1.running_mean f4 [8]
-0.11153704 -0.12231432 0.09542355 -0.095532954 0.05999111 -0.0139660165 0.15806882 -0.031877384
00000000: 886d e4bd ee7f fabd 6c6d c33d c8a6 c3bd
00000010: 3db9 753d b8d1 64bc cbdc 213e dc91 02bd

layer4.bn1.running_var f4 [8]
0.49536505 0.51521504 0.457211 0.5027982 0.51986414 0.4652803 0.48130354 0.4845644
00000000: 7da0 fd3e 22e5 033f 8f17 ea3e 62b7 003f
00000010: d115 053f 3839 ee3e 6b6d f63e d318 f83e

layer4.conv2.weight f4 [8, 8, 1, 3]
0.18263954 0.16761608 0.11817074 -0.08499033 0.08459722 0.006987977 0.10876807 0.30924606
0.074298605 0.033794105 0.046753295 -0.16673568 -0.11689395 0.005125976 0.18411328 -0.075851694
9.370183e-05 -0.18395527 0.010782554 0.018658113 -0.07217174 -0.0024602346 -0.013454275 -0.13612983
0.10229822 -0.14628921 -0.10126916 0.19189642 0.024311991 0.13356362 -0.13109803 -0.08171267
-0.18776074 -0.18708637 0.065936744 -0.106000796 -0.19278948 -0.10452687 -0.0100117605 0.18245593
-0.16633485 -0.013467686 0.11681459 -0.08594233 -0.09928286 0.13547148 0.05772666 0.1670645
0.15095152 -0.10292353 -0.09601559 -0.022471704 0.055495787 0.016630786 0.095792465 -0.123321496
-0.1260623 -0.1301375 -0.1526325 -0.20304468 -0.016347893 0.115295574 -0.16307811 -0.027680203
-0.005641464 -0.036069795 0.037947148 -0.19914976 0.1720416 -0.12466651 0.20002702 -0.070659064
-0.054949462 -0.05877394 0.03753523 0.1264057 -0.036827076 -0.103767246 -0.12385787 -0.1414406
0.07213485 0.1458417 0.121470764 -0.10602892 -0.1346864 0.19558275 -0.09728012 -0.12075432
-0.09705631 0.18333206 -0.072219014 -0.07490192 -0.04418466 0.13641533 0.17399466 0.1462816
0.109442994 -0.07181651 0.106277004 0.0790543 0.01485385 -0.07880322 0.11620325 -0.03760491
-0.20264708 -0.12500528 -0.13818017 0.012852863 -0.14525601 -0.00972186 0.05063953 0.13058972
-0.1720576 -0.113197125 -0.17195885 -0.15789731 -0.05222034 0.13620164 0.072181016 0.105876856
-0.19752611 -0.19616067 -0.16090234 0.008717236 0.1419737 -0.010264322 -0.184868 -0.06244675
-0.06896833 0.07395034 0.15088685 -0.052753642 0.19625564 0.044801533 -0.11267424 -0.038951207
0.14743456 -0.048025038 0.06181394 -0.17178774 -0.112782925 -0.03493351 -0.016504401 0.041697524
-0.18537337 -0.044809803 -0.16627643 -0.004460453 -0.1948307 -0.13827878 0.051377546 0.034549236
-0.014953933 0.0057348064 0.036935527 -0.015209371 -0.18419783 0.0265645 -0.19904813 -0.20155801
0.33993748 -0.15133937 -0.057332102 0.09982772 0.17140792 0.06856992 0.077107064 0.13188912
-0.08938134 -0.08558446 -0.12170148 -0.08973095 -0.051151678 0.1993914 -0.121577226 -0.2835093
0.04039785 -0.20034415 0.007583569 0.15407687 0.12882455 0.2432881 -0.036400624 -0.20005721
0.016729143 0.104884975 -0.109093636 0.09635015 -0.151449 -0.15739618 -0.11762008 0.1459292
00000000: dc05 3b3e 8da3 2b3e 8003 f23d 690f aebd
00000010: 4f41 ad3d 66fb e43b cbc1 de3d 8055 9e3e
00000020: de29 983d b06b 0a3d 6280 3f3d c2bc 2abe
00000030: 1866 efbd cef7 a73b 3188 3c3e 2258 9bbd
00000040: c981 c438 c55e 3cbe 4fa9 303c e6d8 983c
00000050: c7ce 93bd e33b 21bb 526f 5cbc 9e65 0bbe
00000060: bb81 d13d d7cc 15be 3566 cfbd 7f80 443e
00000070: f129 c73c e7c4 083e 903e 06be f958 a7bd
00000080: 5a44 40be 9293 3fbe d809 873d f216 d9bd
00000090: 9b6a 45be 2f12 d6bd 5e08 24bc bad5 3a3e
000000a0: af53 2abe 92a7 5cbc 7d3c ef3d 8802 b0bd
000000b0: d054 cbbd 09b9 0a3e ca72 6c3d f512 2b3e
000000c0: 0993 1a3e 92c9 d2bd d2a3 c4bd 9416 b8bc
000000d0: 8d4f 633d 493d 883c d72e c43d fb8f fcbd
000000e0: 7a16 01be c442 05be b24b 1cbe f2ea 4fbe
000000f0: 04ec 85bc 1620 ec3d f3fd 26be 98c1 e2bc
00000100: 08dc b8bb ecbd 13bd 786e 1b3d eaed 4bbe
00000110: ac2b 303e 2851 ffbd e2d3 4c3e b3b5 90bd
00000120: b012 61bd f1bc 70bd 8bbe 193d 7f70 013e
00000130: fdd7 16bd ec83 d4bd 32a9 fdbd ced5 10be
00000140: 70bb 933d 8757 153e aac5 f83d b125 d9bd
00000150: 3beb 09be d846 483e cd3a c7bd 0a4e f7bd
00000160: 75c5 c6bd 66bb 3b3e 90e7 93bd 2e66 99bd
00000170: f9fa 34bd 76b0 0b3e a82b 323e d8ca 153e
00000180: a623 e03d 8914 93bd c2a7 d93d 39e7 a13d
00000190: 905d 733c 9563 a1bd f8fb ed3d 9b07 1abd
000001a0: b782 4fbe 6201 00be 1a7f 0dbe d194 523c
000001b0: febd 14be 7048 1fbc 656b 4f3d 50b9 053e
000001c0: de2f 30be e5d3 e7bd fb15 30be d5af 21be
000001d0: ffe4 55bd 7178 0b3e a4d3 933d f7d5 d83d
000001e0: 4944 4abe 58de 48be 95c3 24be bdd2 0e3c
000001f0: 8e61 113e b02b 28bc 094e 3dbe 2ac8 7fbd
00000200: 453f 8dbd 4773 973d 1582 1a3e 3414 58bd
00000210: 3df7 483e d081 373d c0c1 e6bd 4d8b 1fbd
00000220: 16f9 163e e7b5 44bd 9d30 7d3d 20e9 2fbe
00000230: bcfa e6bd 7116 0fbd 3d34 87bc 06cb 2a3d
00000240: 84d2 3dbe 7c8a 37bd 5e44 2abe fe28 92bb
00000250: b381 47be f498 0dbe 4371 523d 8083 0d3d
00000260: 5701 75bc 0beb bb3b b549 173d ba30 79bc
00000270: 5b9e 3cbe cb9d d93c 46d3 4bbe 3965 4ebe
00000280: 490c ae3e b5f8 1abe 11d5 6abd 7a72 cc3d
00000290: 8f85 2f3e 636e 8c3d 4fea 9d3d f10d 073e
000002a0: 900d b7bd e846 afbd a03e f9bd dcc4 b7bd
000002b0: 6c84 51bd 422d 4c3e 7bfd f8bd 2228 91be
000002c0: 3778 253d 0427 4dbe 967f f83b 54c6 1d3e
000002d0: 95ea 033e 8420 793e d218 15bd ccdb 4cbe
000002e0: 8e0b 893c efcd d63d 7c6c dfbd 3a53 c53d
000002f0: 7215 1bbe 772c 21be cce2 f0bd 776e 153e

layer4.bn2.weight f4 [8]
0.9512018 0.97336656 1.0169837 1.0009059 0.9941371 1.0087698 0.9364127 1.0512362
00000000: f681 733f 8d2e 793f 862c 823f af1d 803f
00000010: c57f 7e3f 5e1f 813f beb8 6f3f e88e 863f

layer4.bn2.bias f4 [8]
-0.021923076 0.004902905 0.028811362 0.020399347 0.0011051334 0.026546428 0.005890984 -0.011447054
00000000: 0698 b3bc 8ca8 a03b ce05 ec3c 881c a73c
00000010: 20da 903a e577 d93c 2809 c13b 6d8c 3bbc

layer4.bn2.running_mean f4 [8]
0.10678688 -0.08466131 -0.0052884994 0.009915708 -0.11181295 0.024048403 0.033183537 -0.018788857
00000000: 14b3 da3d e962 adbd 264b adbb 7e75 223c
00000010: 30fe e4bd 2801 c53c 76eb 073d 17eb 99bc

layer4.bn2.running_var f4 [8]
0.446678 0.4626284 0.44159296 0.45586637 0.4709436 0.43754998 0.47080842 0.44577473
00000000: fbb2 e43e a1dd ec3e 7918 e23e 5167 e93e
00000010: 851f f13e 8d06 e03e cd0d f13e 963c e43e

layer4.fc1.weight f4 [2, 8]
-0.2556866 0.044154968 -0.29013696 -0.12448563 0.14726952 0.2926976 -0.20771381 -0.057398245
0.23921849 0.3527015 0.19912271 0.056822978 -0.25394028 -0.18678823 0.15509623 -0.12814674
00000000: 5be9 82be d7db 343d d58c 94be 52f2 febd
00000010: d2cd 163e 76dc 953e eeb2 54be 6c1a 6bbd
00000020: b1f5 743e 4a95 b43e d3e6 4b3e 36bf 683d
00000030: 7604 82be 6a45 3fbe 8cd1 1e3e e638 03be

layer4.fc1.bias f4 [2]
0.19952008 0.35680208
00000000: fe4e 4c3e c3ae b63e

layer4.fc2.weight f4 [8, 2]
0.27492186 0.40321636 -0.60900164 -0.1826031 -0.15235627 0.47884887 0.52183604 -0.56160057
0.14238304 0.19702023 0.20681873 -0.3892228 0.70553994 0.20621106 0.4515628 -0.6422543
00000000: 8fc2 8c3e 6072 ce3e 88e7 1bbf 4ffc 3abe
00000010: 4803 1cbe ae2b f53e 0c97 053f 0ec5 0fbf
00000020: dccc 113e acbf 493e 4ac8 533e 3648 c7be
00000030: 449e 343f fe28 533e 3d33 e73e c76a 24bf

layer4.fc2.bias f4 [8]
-0.34929678 -0.3599374 0.11963865 -0.28209865 0.11958199 0.1652265 -0.694174 0.51258165
00000000: 07d7 b2be b749 b8be 1c05 f53d 3c6f 90be
00000010: 67e7 f43d 2331 293e 63b5 31bf 8d38 033f

layer5.conv1.weight f4 [16, 8, 1, 3]
0.12651382 0.22570983 0.076171085 -0.045633458 0.1312966 0.06427387 -0.17713612 -0.111811385
-0.1581862 0.17522618 -0.008398532 -0.023399804 -0.0784188 0.09206729 -0.056727655 0.17554925
0.03694125 -0.191824 0.066229105 -0.08890916 -0.18813004 -0.03483073 0.027101811 -0.029402101
0.1394871 0.018149285 0.19878395 0.06814842 0.0651874 0.19791949 -0.05091346 -0.17711334
-0.037735756 -0.024915908 -0.06746643 0.16131599 -0.13854241 -0.017170254 -0.020644618 -0.119924985
-0.18390834 0.18643045 0.20346852 -0.026589708 -0.16327013 -0.16443698 -0.124992505 -0.079637416
0.005130679 0.16174445 0.15314518 -0.17013435 0.068993695 0.15479834 -0.12070891 -0.112414844
0.12345763 -0.20307602 -0.1107558 -0.16715916 -0.18494919 0.014522386 0.12376765 -0.059012916
-0.20124637 -0.065199845 -0.12786469 -0.14925413 0.01533224 -0.06267585 -0.06184143 0.10455494
-0.113853194 0.12869662 -0.11146008 0.029509779 0.06510333 -0.04576662 0.17139779 -0.017660597
-0.15044491 -0.09821913 -0.04162061 -0.11886087 -0.057838175 0.0053912844 -0.08235228 -0.045075186
0.0769397 0.08120447 0.09063383 0.17947648 0.04611749 0.048309173 0.16940993 0.11176026
-0.0008710354 0.10745589 0.025973065 0.16362503 0.17973399 -0.146667 0.024165627 -0.1717135
-0.13440871 0.03155038 -0.010154835 -0.14810695 0.043583717 0.048476066 0.058619935 -0.060459238
-0.12838589 -0.09257317 0.19574848 0.22535145 0.0774281 -0.115768746 0.08543018 0.111502334
0.08206026 -0.07229508 0.199029 -0.041042943 0.030449271 -0.19796063 -0.17429489 -0.015312561
-0.07043432 0.18522155 0.112254046 -0.13141006 -0.15122892 0.15178716 0.11501128 0.099924326
0.142636 -0.086645484 0.17268297 0.19090526 0.15760083 0.19766465 -0.03746584 0.1242545
0.0014152927 0.1721306 0.13829693 -0.038142134 0.07436135 -0.15399876 -0.15114799 0.0001853093
-0.1733152 -0.06656353 -0.1166171 -0.04545803 0.09698393 0.05983586 0.083809085 -0.058300234
-0.13852988 0.14437425 0.047554083 0.14864336 0.19130619 -0.07733335 0.07645422 0.03582298
-0.060198985 0.0906865 -0.031125613 0.032293454 -0.19885917 0.0148259085 -0.14003523 -0.15491095
-0.19107574 -0.16259544 -0.017801244 0.15716934 -0.0022927783 0.14411063 0.15891156 -0.02203101
0.24553649 -0.12884066 -0.2005119 0.09585659 0.023573626 -0.18785276 0.10928579 -0.19594215
-0.14451742 -0.0023304445 -0.060164254 0.04730176 -0.0426732 -0.05821225 0.09784753 -0.1375204
-0.15100874 0.070998706 -0.0068297875 0.12499508 0.035816588 -0.18754114 -0.02984621 0.04631222
0.051347192 -0.035600126 0.17458549 -0.22292285 0.051269155 -0.019021228 -0.21567652 0.029538156
0.0055856593 0.24954365 0.17093767 0.025574727 -0.21529514 0.08285049 -0.050250523 -0.12050867
-0.16085438 -0.15243277 0.04593876 0.07273352 -0.20155893 -0.098280594 -0.11712542 -0.17776817
-0.12835711 0.022055991 -0.07231158 0.086086564 -0.19313133 -0.08623232 -0.15024991 -0.10077137
-0.07615648 -0.062062588 0.13666011 -0.02694568 0.027885634 -0.1290562 -0.13125944 0.026351703
0.14249483 0.046675377 -0.028407607 -0.14932851 -0.15984222 -0.16517799 -0.020438816 -0.03718536
00000000: d78c 013e 7a20 673e 96ff 9b3d 26ea 3abd
00000010: 9e72 063e 05a2 833d 2c63 35be 5efd e4bd
00000020: 90fb 21be 7e6e 333e ff99 09bc f2b0 bfbc
00000030: 099a a0bd c68d bc3d 425b 68bd 2fc3 333e
00000040: b54f 173d 836d 44be 20a3 873d 0116 b6bd
00000050: 29a5 40be abaa 0ebd 9e04 de3c addc f0bc
00000060: b5d5 0e3e cfad 943c 058e 4b3e 6691 8b3d
00000070: f980 853d 68ab 4a3e a28a 50bd 335d 35be
00000080: cf90 1abd 721c ccbc d72b 8abd 0530 253e
00000090: 10de 0dbe a2a8 8cbc e71e a9bc 3b9b f5bd
000000a0: 7852 3cbe a0e7 3e3e 0d5a 503e a9d2 d9bc
000000b0: 4930 27be 2b62 28be 12fc ffbd f118 a3bd
000000c0: 411f a83b 56a0 253e 17d2 1c3e b337 2ebe
000000d0: 914c 8d3d 7583 1e3e 3c36 f7bd c139 e6bd
000000e0: 5bd7 fc3d 29f3 4fbe f0d3 e2bd c52b 2bbe
000000f0: 5263 3dbe 4def 6d3c e579 fd3d 87b7 71bd
00000100: 8713 4ebe 7f87 85bd f6ee 02be 13d6 18be
00000110: 1334 7b3c 325c 80bd 704d 7dbd e620 d63d
00000120: dd2b e9bd 0cc9 033e 2f45 e4bd 7ebe f13c
00000130: e554 853d c875 3bbd e782 2f3e f5ac 90bc
00000140: 3b0e 1abe 1c27 c9bd 5f7a 2abd 546d f3bd
00000150: b9e7 6cbd 5fa9 b03b 50a8 a8bd c2a0 38bd
00000160: 9092 9d3d 874e a63d 3b9e b93d afc8 373e
00000170: b1e5 3c3d d7df 453d cc79 2d3e 90e2 e43d
00000180: 3256 64ba d511 dc3d 77c5 d43c 528d 273e
00000190: 300c 383e e02f 16be fef6 c53c aad5 2fbe
000001a0: 70a2 09be f93a 013d 7760 26bc 59a9 17be
000001b0: d784 323d d78e 463d 751b 703d 1ba4 77bd
000001c0: 9777 03be 0197 bdbd 4a72 483e 88c2 663e
000001d0: a092 9e3d 2a18 edbd 05f6 ae3d 565b e43d
000001e0: 360f a83d 710f 94bd 42ce 4b3e a51c 28bd
000001f0: c070 f93c 31b6 4abe 5c7a 32be 89e1 7abc
00000200: de3f 90bd b8aa 3d3e 73e5 e53d 5c90 06be
00000210: c1db 1abe 186e 1b3e 098b eb3d 20a5 cc3d
00000220: 2c0f 123e 3073 b1bd ced3 303e ab7c 433e
00000230: 1d62 213e 9a68 4a3e c875 19bd 2579 fe3d
00000240: 5881 b93a 0143 303e b69d 0d3e ed3a 1cbd
00000250: c34a 983d dab1 1dbe 8ac6 1abe 964f 4239
00000260: 8a79 31be 7652 88bd f2d4 eebd 3332 3abd
00000270: 839f c63d 7216 753d 19a4 ab3d 3acc 6ebd
00000280: c7da 0dbe d8d6 133e 12c8 423d f735 183e
00000290: c5e5 433e f360 9ebd 0894 9c3d 1ebb 123d
000002a0: 3693 76bd d8b9 b93d 24fb febc 2446 043d
000002b0: bda1 4bbe 5ee8 723c 6565 0fbe faa0 1ebe
000002c0: 5ca9 43be 6b7f 26be ead3 91bc 00f1 203e
000002d0: 7042 16bb bd91 133e b6b9 223e 607a b4bc
000002e0: eb6d 7b3e ceee 03be fe52 4dbe 7650 c43d
000002f0: 7a1d c13c 795c 40be 3ad1 df3d 0fa5 48be
00000300: 60fc 13be 5fba 18bb cb6e 76bd 7ebf 413d
00000310: 18ca 2ebd f86f 6ebd 4964 c83d 26d2 0cbe
00000320: 09a2 1abe c567 913d 69cc dfbb 6cfd ff3d
00000330: 6ab4 123d c90a 40be 0a80 f4bc e2b1 3d3d
00000340: 6f51 523d 70d1 11bd 8ac6 323e e345 64be
00000350: 9bff 513d 68d2 9bbc 4eda 5cbe 01fa f13c
00000360: e807 b73b 5f88 7f3e 490a 2f3e 1782 d13c
00000370: 5476 5cbe 85ad a93d 7ed3 4dbd 40cd f6bd
00000380: 03b7 24be 5617 1cbe 482a 3c3d 50f5 943d
00000390: 7765 4ebe 5647 c9bd 74df efbd dc08 36be
000003a0: 0c70 03be c4ae b43c 1818 94bd 274e b03d
000003b0: 38c4 45be 929a b0bd 1ddb 19be 3861 cebd
000003c0: eef7 9bbd 5735 7ebd a1f0 0b3e 30bd dcbc
000003d0: 6a70 e43c 4f27 04be e068 06be 87df d73c
000003e0: 2aea 113e ae2e 3f3d 12b7 e8bc 93e9 18be
000003f0: aead 23be 6b24 29be 4e6f a7bc ad4f 18bd

layer5.bn1.weight f4 [16]
0.9896212 1.0128803 1.0116504 1.0033718 0.99547035 1.0281667 1.0066746 0.9521654
0.9822564 1.0086124 1.0007671 1.014604 0.9592522 1.0000949 1.0191122 1.0105487
00000000: d157 7d3f 10a6 813f c37d 813f 7d6e 803f
00000010: 25d7 7e3f f79a 833f b7da 803f 1dc1 733f
00000020: 2875 7b3f 361a 813f 2319 803f 8bde 813f
00000030: 8d91 753f 1c03 803f 4572 823f a959 813f

layer5.bn1.bias f4 [16]
0.01209347 0.013825594 0.015960319 0.00957419 -0.011736566 0.021645054 -0.0034489653 -0.007968177
0.009818439 -0.010630284 0.001358691 0.0272834 -0.030235581 0.0048292745 0.0061808475 0.016804952
00000000: b123 463c bf84 623c 37bf 823c 10dd 1c3c
00000010: ba4a 40bc f850 b13c 0908 62bb f58c 02bc
00000020: 85dd 203c a52a 2ebc 1b16 b23a 7081 df3c
00000030: 9cb0 f7bc e43e 9e3b b588 ca3b 8aaa 893c

layer5.bn1.running_mean f4 [16]
0.098465085 -0.18642715 -0.1003481 0.17443332 0.058604214 0.16186692 0.07454806 0.1371983
-0.20867181 -0.08287964 -0.10409782 -0.2537143 0.09519202 0.31233582 -0.08227233 -0.0034853
00000000: 10a8 c93d c2e6 3ebe 4e83 cdbd a69e 323e
00000010: f90a 703d 71c0 253e a7ac 983d b67d 0c3e
00000020: 10ae 55be cdbc a9bd 3d31 d5bd d7e6 81be
00000030: 09f4 c23d 7bea 9f3e 657e a8bd a269 64bb

layer5.bn1.running_var f4 [16]
0.48600343 0.4996349 0.48052958 0.47796482 0.45444 0.4768463 0.48675564 0.48430446
0.5958236 0.50600463 0.4864707 0.54826474 0.45502347 0.5017352 0.48897612 0.4547423
00000000: 71d5 f83e 25d0 ff3e f907 f63e ceb7 f43e
00000010: 5cac e83e 3325 f43e 0938 f93e c1f6 f73e
00000020: e587 183f 8589 013f b012 f93e 145b 0c3f
00000030: d6f8 e83e b871 003f 145b fa3e fcd3 e83e

layer5.conv2.weight f4 [16, 16, 1, 3]
-0.10274973 0.08071486 -0.12299008 0.10249422 0.16482991 -0.1151909 0.023725484 -0.026202172
-0.01817951 0.03224482 -0.13800712 0.013484252 0.0055121877 0.1642989 0.07581237 0.07598066
-0.103369385 -0.028309587 -0.0577084 0.10850551 0.06529039 0.018135818 0.06993204 -0.053884503
-0.10530678 0.10443415 0.07679493 0.04416285 0.1291359 0.13702196 -0.12877242 0.052712284
-0.04620914 -0.12745382 -0.029277848 -0.06340239 -0.035952803 -0.09796518 0.08868252 0.13043778
0.0066406517 0.034536224 0.1337664 0.03050988 0.01340491 0.060398515 -0.054034945 -0.12185168
0.105763726 0.11845792 0.114234574 -0.04327867 0.087462 0.0053219697 0.07268972 0.15054315
-0.12506315 0.018392282 -0.13193762 -0.067441866 -0.105280235 -0.13709143 -0.11547298 -0.0216735
-0.060624365 0.09575693 0.09873046 -0.101339996 -0.12051676 -0.03067403 0.04531817 -0.098709434
-0.094537154 0.09449307 -0.12347904 0.015699718 -0.10611124 -0.108796164 0.09712573 -0.038459968
-0.08719286 0.08075151 0.08284548 0.1262932 0.13500017 0.04606329 -0.1198459 0.04312006
-0.11900532 -0.019019589 -0.068874985 -0.010170645 -0.11639404 -0.000121156314 -0.06955905 -0.0574488
-0.018519145 -0.009598746 0.028755298 -0.10750706 -0.07278679 -0.08957784 0.03730228 -0.016434142
-0.023355678 0.015484277 -0.09250212 0.081689745 -0.038440023 -0.050841056 -0.079306394 0.046873786
-0.13614365 -0.06259137 -0.05776957 0.021185743 0.03739437 0.116058245 -0.13463713 0.07519728
-0.03204643 0.026095439 -0.13086268 -0.051227037 -0.048332054 0.0975385 0.023689613 0.024404727
0.09452203 -0.107706584 -0.038819645 -0.065535076 0.11254121 0.08527079 -0.11387483 -0.12122297
-0.17659745 -0.06734662 -0.097422615 -0.09017245 -0.1097531 0.0668215 -0.020341448 0.07880164
-0.13640182 -0.0032155295 -0.116488844 0.048427064 -0.0233969 0.050495207 0.06535678 0.021964194
-0.11500784 0.11626123 0.10222128 0.12287035 -0.02007218 0.013722085 0.11880487 0.10783175
0.0913781 -0.045069166 -0.09435895 0.13091254 0.05045607 0.10346528 0.068929136 0.0016347388
-0.023394588 0.010607552 0.1138866 -0.07885868 0.11370456 -0.0058270483 -0.088465944 -0.07175412
0.10213258 0.12277855 0.084261164 0.0016649198 -0.06767784 0.04237451 -0.12789516 0.038791712
-0.038591683 -0.068761766 -0.024996985 0.09583605 0.14098552 0.010130501 -0.10358649 -0.016973283
-0.09362362 -0.10459544 0.060498223 -0.067445226 -0.06690438 0.109873116 -0.10763784 -0.040739857
-0.007078341 0.001797383 -0.101076916 0.022539396 -0.10748527 0.0066468553 -0.01028281 -0.066999815
0.08395458 -0.1010219 -0.09515838 -0.046710305 0.04815672 -0.13172296 -0.020903522 -0.10740018
0.10080125 -0.14748242 0.11997764 -0.08528742 -0.073567145 0.08487706 0.10232313 0.11206873
0.09167221 -0.03055489 -0.14096367 -0.118378535 -0.111197695 0.084020026 0.066363744 0.035643615
0.082889654 0.098132044 -0.1331681 -0.04768654 0.042939957 -0.033744283 -0.14290135 -0.052487697
-0.031272978 0.09233507 -0.106013626 0.037881594 0.09980889 0.12016021 0.045428667 -0.03075877
-0.048642054 0.11051923 -0.13217081 0.12113111 0.05011256 0.0351754 0.13292992 0.03739619
00000000: 736e d2bd d54d a53d 39e2 fbbd 7de8 d13d
00000010: 2cc9 283e 35e9 ebbd f25b c23c f0a5 d6bc
00000020: 32ed 94bc 2513 043d bd51 0dbe 0ded 5c3c
00000030: 959f b43b f93d 283e 8443 9b3d c09b 9b3d
00000040: 54b3 d3bd 82e9 e7bc a55f 6cbd 2338 de3d
00000050: f8b6 853d 9191 943c 8838 8f3d ffb5 5cbd
00000060: 15ab d7bd 92e1 d53d a946 9d3d 1be4 343d
00000070: 343c 043e 7c4f 0c3e ebdc 03be d6e8 573d
00000080: cc45 3dbd 4183 02be 19d8 efbc 1dd9 81bd
00000090: 3f43 13bd f8a1 c8bd 2e9f b53d 7b91 053e
000000a0: d399 d93b db75 0d3d 0ffa 083e dbef f93c
000000b0: 45a0 5b3c 6f64 773d bf53 5dbd 608d f9bd
000000c0: a79a d83d 119a f23d d1f3 e93d fa44 31bd
000000d0: 471f b33d eb63 ae3b 59de 943d fc27 1a3e
000000e0: 8e10 00be 69ab 963c a81a 07be f61e 8abd
000000f0: 2a9d d7bd b261 0cbe 197d ecbd a08c b1bc
00000100: 4151 78bd 361c c43d 3233 ca3d 588b cfbd
00000110: 7ed1 f6bd 1a48 fbbc 8c9f 393d 2c28 cabd
00000120: b29c c1bd 9585 c13d 94e2 fcbd b29c 803c
00000130: da50 d9bd 86d0 debd dbe9 c63d 3388 1dbd
00000140: 2c92 b2bd 0c61 a53d e4aa a93d 0153 013e
00000150: 7c3d 0a3e dcac 3c3d c471 f5bd a99e 303d
00000160: 10b9 f3bd f8ce 9bbc 540e 8dbd c7a2 26bc
00000170: 0060 eebd 4d15 feb8 fa74 8ebd 6f4f 6bbd
00000180: 76b5 97bc 0f44 1dbc 3b90 eb3c a92c dcbd
00000190: 3e11 95bd 9674 b7bd 47ca 183d e5a0 86bc
000001a0: 6854 bfbc c4b1 7d3c c071 bdbd f44c a73d
000001b0: 4973 1dbd b63e 50bd 646b a2bd bafe 3f3d
000001c0: 3e69 0bbe e72f 80bd c99f 6cbd b98d ad3c
000001d0: d72a 193d f2af ed3d 51de 09be 0801 9a3d
000001e0: 1e43 03bd 1ac6 d53c de00 06be 71d3 51bd
000001f0: d5f7 45bd 44c2 c73d b810 c23c 6cec c73c
00000200: c494 c13d 4595 dcbd 5901 1fbd 4137 86bd
00000210: 027c e63d 74a2 ae3d 3537 e9bd c043 f8bd
00000220: f6d5 34be 06ed 89bd 8285 c7bd 55ac b8bd
00000230: 3cc6 e0bd b6d9 883d 1ca3 a6bc c162 a13d
00000240: ebac 0bbe a2bb 52bb b491 eebd 755b 463d
00000250: dbaa bfbc 10d4 4e3d c7d9 853d 41ee b33c
00000260: 3b89 ebbd 5e1a ee3d 6459 d13d 73a3 fb3d
00000270: 6a6e a4bc 99d2 603c f84f f33d e4d6 dc3d
00000280: 7124 bb3d 729a 38bd 443f c1bd f00d 063e
00000290: 06ab 4e3d 9be5 d33d b82a 8d3d bb44 d63a
000002a0: 02a6 bfbc 4ccb 2d3c 613d e93d a980 a1bd
000002b0: f0dd e83d d3f0 bebb a22d b5bd d3f3 92bd
000002c0: e32a d13d 5273 fb3d 1e91 ac3d 7039 da3a
000002d0: ae9a 8abd e590 2d3d f3f6 02be 0fe4 1e3d
000002e0: 5012 1ebd f8d2 8cbd 7ac6 ccbc b145 c43d
000002f0: 825e 103e 67fa 253c 2725 d4bd 8e0b 8bbc
00000300: bebd bfbd 2236 d6bd fccc 773d b920 8abd
00000310: 2a05 89bd 2805 e13d 3a71 dcbd d6de 26bd
00000320: 6ef1 e7bb 2a96 eb3a 6a01 cfbd 8aa4 b83c
00000330: 3d21 dcbd ddcd d93b 3b79 28bc 3337 89bd
00000340: 61f0 ab3d 92e4 cebd 66e2 c2bd 4e53 3fbd
00000350: fb3f 453d 62e2 06be dd3d abbc a0f4 dbbd
00000360: e370 ce3d a205 17be d6b6 f53d 2cab aebd
00000370: 5faa 96bd 06d4 ad3d ca8e d13d 4a84 e53d
00000380: a4be bb3d 404e fabc c858 10be 7270 f2bd
00000390: 9ebb e3bd b112 ac3d b7e9 873d 0aff 113d
000003a0: 0dc2 a93d 74f9 c83d 385d 08be f652 43bd
000003b0: cfe1 2f3d 7237 0abd bb54 12be 57fd 56bd
000003c0: 1818 00bd 2b1a bd3d ac1d d9bd bb29 1b3d
000003d0: 9a68 cc3d 8e16 f63d 6913 3a3d d1f9 fbbc
000003e0: e43c 47bd e857 e23d c957 07be 9613 f83d
000003f0: d442 4d3d 1514 103d c81e 083e bf2c 193d

layer5.bn2.weight f4 [16]
1.0090818 0.99168974 0.9811994 0.979818 1.0607753 1.0007683 0.99427694 1.0754253
0.98711246 1.0103765 1.0186632 1.0515659 1.0736678 0.96876216 0.9895582 0.98630494
00000000: 9829 813f 61df 7d3f e22f 7b3f 5ad5 7a3f
00000010: 7cc7 873f 2d19 803f ef88 7e3f 89a7 893f
00000020: 67b3 7c3f 0454 813f 8e63 823f b699 863f
00000030: f26d 893f cc00 783f b053 7d3f 7b7e 7c3f

layer5.bn2.bias f4 [16]
0.053789906 0.00935485 -0.026018651 0.009483095 0.09356545 0.009218446 -0.08341199 0.07883298
-0.013275199 0.10933322 0.06386868 0.09059641 0.11071162 -0.02003746 -0.01938493 -0.041612152
00000000: ce52 5c3d 1645 193c 1125 d5bc fc5e 1b3c
00000010: 3e9f bf3d f708 173c e8d3 aabd 2f73 a13d
00000020: 3880 59bc 18ea df3d 95cd 823d 9c8a b93d
00000030: c6bc e23d 9925 a4bc 25cd 9ebc 8171 2abd

layer5.bn2.running_mean f4 [16]
0.11192989 -0.0167763 -0.12374271 0.1266911 -0.101999566 0.100298405 0.120762676 -0.007233087
-0.051106535 0.078331515 0.080073744 -0.015337948 -0.01959096 -0.036532987 -0.13167977 0.1311937
00000000: 803b e53d 736e 89bc d16c fdbd 50bb 013e
00000010: 26e5 d0bd 4069 cd3d 6c52 f73d 8803 edbb
00000020: 1655 51bd 466c a03d b4fd a33d 044c 7bbc
00000030: 397d a0bc 9da3 15bd 10d7 06be a457 063e

layer5.bn2.running_var f4 [16]
0.44950002 0.509382 0.46147 0.4662314 0.46166283 0.44851258 0.45792222 0.45827606
0.46407247 0.47604656 0.4881294 0.51640755 0.48389187 0.45718795 0.48642468 0.45777
00000000: de24 e63e dc66 023f cc45 ec3e e2b5 ee3e
00000010: 125f ec3e 71a3 e53e c874 ea3e 29a3 ea3e
00000020: e89a ed3e 60bc f33e 19ec f93e 4933 043f
00000030: adc0 f73e 8a14 ea3e a80c f93e d460 ea3e

layer5.fc1.weight f4 [4, 16]
0.24844809 -0.14500478 0.13148843 0.034603283 -0.23981054 0.08605793 -0.11867644 -0.13912891
0.17003268 -0.062206205 -0.06823072 0.12495672 0.094388574 0.094740085 0.016593218 -0.17959547
-0.016656052 -0.23596713 -0.11851873 -0.21688944 -0.089342125 0.07039883 0.07240828 0.04377895
0.2083142 0.1596282 0.09205165 -0.056960925 -0.20607945 0.14384271 -0.23972937 -0.24389087
-0.24232115 -0.014653006 -0.091620736 -0.14501096 -0.17943045 -0.030100828 0.09527228 0.15197095
-0.038520947 0.24895377 -0.050863072 0.10130658 -0.06804113 -0.1137446 -0.10007964 0.22165392
0.060830172 0.049222693 -0.07671197 0.02344319 -0.15650526 0.09424506 0.059366275 0.03460782
0.18510388 0.08158234 0.2396 0.123632394 -0.09574625 -0.20218007 -0.20522867 -0.14125228
00000000: 2d69 7e3e 227c 14be e7a4 063e 2cbc 0d3d
00000010: e590 75be 243f b03d a20c f3bd cf77 0ebe
00000020: 0c1d 2e3e efcb 7ebd 8cbc 8bbd 4fe9 ff3d
00000030: cc4e c13d 1707 c23d 80ee 873c e0e7 37be
00000040: 4672 88bc 5ea1 71be f3b9 f2bd 4418 5ebe
00000050: 01f9 b6bd 432d 903d cb4a 943d 8e51 333d
00000060: 5150 553e 9375 233e 9385 bc3d dc4f 69bd
00000070: 7e06 53be 814b 133e 9e7b 75be 87be 79be
00000080: 0923 78be 2913 70bc a7a3 bbbd c17d 14be
00000090: 9ebc 37be 0396 f6bc 1d1e c33d 469e 1b3e
000000a0: 24c8 1dbd bded 7e3e cc55 50bd d379 cf3d
000000b0: 2659 8bbd eef2 e8bd 8ef6 ccbd 3ff9 623e
000000c0: 0f29 793d bc9d 493d 2a1b 9dbd ef0b c03c
000000d0: ea42 20be 8e03 c13d 0d2a 733d eec0 0d3d
000000e0: df8b 3d3e a414 a73d b459 753e fb32 fd3d
000000f0: 9c16 c4bd 4b08 4fbe 7727 52be 70a4 10be

layer5.fc1.bias f4 [4]
-0.11595306 -0.031864304 0.23637418 -0.07824013
00000000: cc78 edbd 2584 02bd 130c 723e 5c3c a0bd

layer5.fc2.weight f4 [16, 4]
0.353555 0.42179674 -0.24842277 -0.13007213 -0.27011767 -0.21339016 0.3168865 0.32039484
-0.15378052 -0.38681844 -0.020023597 0.23333092 0.22502957 -0.46623188 -0.27760893 -0.20656145
0.21418777 -0.27433336 0.18133171 -0.110704534 -0.47140127 -0.47462237 0.22752902 0.058331564
-0.4818245 -0.43112105 -0.03189057 0.19274186 -0.4294657 -0.39046648 -0.3896167 -0.26063025
0.20339347 0.21372423 0.18142067 0.2854717 0.35147288 -0.44133595 0.32728562 0.31959552
-0.123401746 -0.034808584 0.18092202 -0.07595441 -0.35447222 0.35490295 0.016542576 0.05248576
0.11826936 -0.2655141 -0.09487059 0.2118854 0.092648976 0.35829416 0.19129327 0.29930612
0.38514858 -0.1232643 -0.42730233 -0.36241865 0.0869246 0.15663701 -0.0015922548 0.45258355
00000000: 2905 b53e bef5 d73e 8a62 7ebe a131 05be
00000010: dd4c 8abe f382 5abe f33e a23e cb0a a43e
00000020: a478 1dbe 110d c6be 8708 a4bc 4dee 6e3e
00000030: 276e 663e f2b5 eebe c222 8ebe d884 53be
00000040: 0a54 5b3e 6c75 8cbe 05af 393e 0fb9 e2bd
00000050: 825b f1be b401 f3be 5efd 683e 14ed 6e3d
00000060: b3b1 f6be e6bb dcbe b09f 02bd 1f5e 453e
00000070: eee2 dbbe 39eb c7be d77b c7be 5471 85be
00000080: 6146 503e 86da 5a3e 57c6 393e 5929 923e
00000090: 41f4 b33e c9f6 e1be fb91 a73e 06a2 a33e
000000a0: 0eba fcbd 7293 0ebd 9f43 393e fc8d 9bbd
000000b0: 627d b5be d7b5 b53e 4c84 873c 4ffb 563d
000000c0: 3537 f23d 77f1 87be 834b c2bd 7cf8 583e
000000d0: bfbe bd3d 5572 b73e 62e2 433e a73e 993e
000000e0: 3232 c53e fe71 fcbd 5fc7 dabe f08e b9be
000000f0: 8605 b23d 7465 203e 35b3 d0ba 08b9 e73e
