das/结果/数据/中断模型.pth (torch, 636732 bytes, 308 tensors)

network.0.conv1.weight f4 [8, 1, 7]
-0.027808858 0.07701461 -0.30925113 0.013986397 0.05817781 0.42124155 -0.01630945 0.19443238
0.16724288 -0.22844534 0.18004546 0.13901375 -0.19625187 -0.121252514 0.006816723 0.16003992
-0.058147203 -0.18295008 0.13464892 -0.012063415 -0.031306177 -0.20268825 0.05807659 -0.04375751
-0.2964024 -0.071368776 -0.030067189 0.06820823 -0.07538336 -0.008654077 0.09456832 -0.13803153
-0.08836519 -0.29506737 0.010366335 -0.08546423 0.21451685 -0.1359033 0.13089977 -0.17255594
-0.0569821 -0.019781567 0.041074328 0.22857094 0.100172654 -0.0016146749 -0.16022614 -0.26485252
-0.051416855 0.032408137 -0.10029614 -0.31685168 0.102813885 -0.19175172 -0.10591316 -0.19584428
00000000: 67cf e3bc d6b9 9d3d 2a56 9ebe 3327 653c
00000010: db4b 6e3d f9ac d73e 659b 85bc 4819 473e
00000020: b841 2b3e 93ed 69be d65d 383e 9f59 0e3e
00000030: 40f6 48be 3d53 f8bd d15e df3b 81e1 233e
00000040: c32b 6ebd 4457 3bbe 68e1 093e a1a5 45bc
00000050: e83a 00bd 828d 4fbe b8e1 6d3d 133b 33bd
00000060: 0ec2 97be cb29 92bd 774f f6bc c2b0 8b3d
00000070: 9762 9abd d4c9 0dbc 09ad c13d 2358 0dbe
00000080: cff8 b4bd 1213 97be 8fd7 293c df07 afbd
00000090: 4eaa 5b3e 3c2a 0bbe 970a 063e 81b2 30be
000000a0: 1066 69bd f40c a2bc 8e3d 283d 800e 6a3e
000000b0: 5227 cd3d 80a3 d3ba 5212 24be c09a 87be
000000c0: 7b9a 52bd 65be 043d 1068 cdbd 623a a2be
000000d0: 1690 d23d 905a 44be 00e9 d8bd 678b 48be

network.0.conv1.bias f4 [8]
0.0 0.0 0.0 0.0 0.0 0.0 0.0 0.0
00000000: 0000 0000 0000 0000 0000 0000 0000 0000
00000010: 0000 0000 0000 0000 0000 0000 0000 0000

network.0.bn1.weight f4 [8]
1.0 1.0 1.0 1.0 1.0 1.0 1.0 1.0
00000000: 0000 803f 0000 803f 0000 803f 0000 803f
00000010: 0000 803f 0000 803f 0000 803f 0000 803f

network.0.bn1.bias f4 [8]
0.0 0.0 0.0 0.0 0.0 0.0 0.0 0.0
00000000: 0000 0000 0000 0000 0000 0000 0000 0000
00000010: 0000 0000 0000 0000 0000 0000 0000 0000

network.0.bn1.running_mean f4 [8]
0.00015552339 2.170075e-05 -2.0842232e-05 4.5802466e-05 -3.6076613e-05 0.00016389426 1.6099702e-05 0.00019555567
00000000: fe13 2339 010a b637 5ad6 aeb7 061c 4038
00000010: f850 17b8 08db 2b39 d90d 8737 130e 4d39

network.0.bn1.running_var f4 [8]
0.16601114 0.12219136 0.047882773 0.21128538 0.19599405 0.06691845 0.10799174 0.39877355
00000000: d3fe 293e 773f fa3d ba20 443d 325b 583e
00000010: aab2 483e 8a0c 893d c62a dd3d 0c2c cc3e

network.0.conv2.weight f4 [8, 8, 7]
0.15209228 0.16463186 -0.108369425 0.11675106 -0.09446745 -0.11538305 -0.1768759 -0.24868552
-0.09148392 0.2102842 0.020754496 -0.090379395 0.17881557 -0.058319744 0.26716614 -0.23951496
0.12374891 0.021056378 0.16113141 -0.13257708 0.19272058 0.0505393 0.25861177 0.6101552
-0.0074154707 -0.11772637 0.08959316 -0.06286739 -0.21598716 -0.14895594 -0.35590443 0.06770288
0.20278259 0.15210888 0.053941842 -0.21351367 -0.372639 0.033106405 0.034558617 0.0628813
-0.121912554 0.5503493 0.10343502 0.07416525 0.087980434 0.35085776 -0.09926389 -0.08657432
-0.14913268 0.059649605 -0.036640227 0.0017045571 -0.07062285 -0.16689105 0.053685308 0.006623811
-0.1560933 -0.08049757 -0.12512062 0.16833173 0.23549737 -0.030729888 -0.25154278 0.00033781902
0.27620938 -0.045454763 -0.09651092 0.26124012 -0.020154355 -0.14906633 0.041784078 -0.10897491
-0.14086713 -0.18576418 -0.28269783 -0.1259575 0.09072292 -0.00090647663 -0.23257005 0.06401938
0.19477127 -0.027272122 0.19526972 -0.039364487 0.22559379 0.022922255 0.1382046 0.010263893
0.20138367 -0.21371864 0.09624241 -0.12384868 -0.029724615 -0.08238417 0.12504789 0.07906034
0.14053667 0.09090657 0.07080542 0.42411262 0.227279 -0.19195668 -0.119657725 -0.06279371
-0.026086545 -0.22131222 0.0046517607 0.15837602 -0.30952635 0.10147747 -0.037046835 0.014984814
-0.30031914 -0.15358502 0.37136352 -0.05130123 0.13075934 0.36834678 -0.011186723 -0.1309717
0.0395606 -0.009643982 -0.1601713 0.0003516348 -0.0028403208 -0.1002872 -0.031079836 -0.16647606
0.089394785 0.22876883 -0.010606573 0.173521 0.1636333 0.0947352 -0.044325273 0.12233689
-0.26020154 0.22908022 0.07821949 -0.36983365 0.3673276 0.19498095 -0.026089238 -0.24397957
-0.32328737 0.11632604 0.2117852 0.21385084 0.06842242 0.06380797 -0.28741518 -0.18421943
-0.03688693 0.21248329 0.035357684 0.27589786 -0.19172196 -0.12915228 -0.0132299755 0.11507922
0.270303 0.106981955 -0.095049314 -0.19493629 0.25414747 0.00017942689 -0.04077916 -0.18514831
-0.0921736 0.36492074 0.69545186 -0.18869688 0.059812766 0.062488507 -0.09138279 0.37817174
-0.043152858 0.030615756 0.081998326 0.2434815 -0.10898036 -0.13100784 0.16620062 0.07217807
0.13832438 0.12196469 0.12419558 -0.012961042 0.12285138 -0.35058758 0.20588659 -0.065078594
-0.13372518 0.20289116 -0.08131737 0.27377424 -0.26578525 0.06402244 -0.05033805 0.1213929
0.1457173 0.13039307 0.16716626 0.07858095 0.013087824 -0.15718806 -0.0007981728 0.14647202
-0.2006382 -0.12052795 0.19345607 -0.37104046 0.023362754 -0.07251994 0.0398711 0.04712603
-0.055015977 0.25560397 -0.24737918 -0.0978625 -0.10608704 -0.053356025 -0.11838624 -0.19104089
-0.052117683 -0.1300272 -0.028914569 -0.04541708 -0.04568887 0.23540395 0.005311642 0.12985706
-0.034734476 -0.015943132 0.27873737 0.122844115 -0.04864382 0.036531046 -0.08699004 -0.13568382
0.06849195 -0.058584053 0.08432483 0.13813059 0.35290658 0.38351643 -0.17471765 -0.2544707
-0.1633158 -0.24836186 -0.39474747 0.110523514 0.18870065 0.011297292 -0.4619722 -0.057609424
00000000: 14be 1b3e 4195 283e caf0 ddbd 2e1b ef3d
00000010: 2778 c1bd f34d ecbd f51e 35be 6ba7 7ebe
00000020: ec5b bbbd be54 573e 5505 aa3c d518 b9bd
00000030: 6e1b 373e afe0 6ebd 00ca 883e 6943 75be
00000040: 1270 fd3d 6d7e ac3c a2ff 243e 49c2 07be
00000050: 8b58 453e 4c02 4f3d c368 843e 2233 1c3f
00000060: 7afd f2bb 861a f1bd 9e7c b73d 9ec0 80bd
00000070: bd2b 5dbe e887 18be 1b39 b6be cfa7 8a3d
00000080: 3da6 4f3e 6ec2 1b3e 1ff2 5c3d 54a3 5abe
00000090: 8aca bebe 959a 073d 568d 0d3d e9c7 803d
000000a0: 4aad f9bd b1e3 0c3f bdd5 d33d f3e3 973d
000000b0: 162f b43d a1a3 b33e de4a cbbd e14d b1bd
000000c0: 3db6 18be 2553 743d 1014 16bd 726b df3a
000000d0: b6a2 90bd 7de5 2abe 20e5 5b3d 8e0c d93b
000000e0: ecd6 1fbe e9db a4bd 9f1f 00be 275f 2c3e
000000f0: 3926 713e 3fbd fbbc 37ca 80be 4d1d b139
00000100: 516b 8d3e c62e 3abd 84a7 c5bd 44c1 853e
00000110: bf1a a5bc d8a4 18be c825 2b3d 3d2e dfbd
00000120: 793f 10be f738 3ebe c5bd 90be 01fb 00be
00000130: f0cc b93d 9ea0 6dba d826 6ebe 981c 833d
00000140: 1f72 473e c969 dfbc c9f4 473e a83c 21bd
00000150: 0f02 673e 74c7 bb3c 8285 0d3e e329 283c
00000160: 8537 4e3e 0fd9 5abe be1a c53d 60a4 fdbd
00000170: 0981 f3bc 08b9 a8bd 8e0c 003e 63ea a13d
00000180: d8e8 0f3e 392d ba3d 6f02 913d 4a25 d93e
00000190: d4bb 683e 4b90 44be 1c0f f5bd fd99 80bd
000001a0: 73b3 d5bc ac9f 62be cc6d 983b 532d 223e
000001b0: 3d7a 9ebe 6bd3 cf3d 6cbe 17bd de82 753c
000001c0: 6ec3 99be 6445 1dbe 5c23 be3e 3d21 52bd
000001d0: c7e5 053e f397 bc3e 8448 37bc 721d 06be
000001e0: 4c0a 223d cb01 1ebc f203 24be a05b b839
000001f0: ad24 3abb 6063 cdbd 249b febc b378 2abe
00000200: 9d14 b73d 6042 6a3e 31c7 2dbc 7daf 313e
00000210: 7d8f 273e 8704 c23d 6b8e 35bd c38b fa3d
00000220: 2339 85be 0194 6a3e 8a31 a03d d65a bdbe
00000230: 5d12 bc3e 16a9 473e 19b9 d5bc c8d5 79be
00000240: ec85 a5be 593c ee3d 38de 583e b7fb 5a3e
00000250: 0e21 8c3d c1ad 823d 1528 93be 05a4 3cbe
00000260: c016 17bd 3895 593e 38d3 103d 7c42 8d3e
00000270: c352 44be 7f40 04be 8ac2 58bc a7ae eb3d
00000280: 2865 8a3e 5b19 db3d 37a9 c2bd 619d 47be
00000290: 9e1f 823e 8a24 3c39 0c08 27bd 8597 3dbe
000002a0: 83c5 bcbd e4d6 ba3e 2209 323f c139 41be
000002b0: 3bfe 743d f3f3 7f3d e626 bbbd ba9f c13e
000002c0: 0dc1 30bd e5cd fa3c bdee a73d 3753 793e
000002d0: 1831 dfbd eb26 06be 7f30 2a3e 19d2 933d
000002e0: e8a4 0d3e a0c8 f93d 415a fe3d 8d5a 54bc
000002f0: 8199 fb3d 3780 b3be efd3 523e ed47 85bd
00000300: 41ef 08be b3c2 4f3e b989 a6bd 232c 8c3e
00000310: 0115 88be 321e 833d 452f 4ebd d79c f83d
00000320: ea36 153e c385 053e a22d 2b3e 0def a03d
00000330: 506e 563c e8f5 20be 783c 51ba c3fc 153e
00000340: 1a74 4dbe 5cd7 f6bd 5919 463e 04f9 bdbe
00000350: 3f63 bf3c 5685 94bd e14f 233d 3907 413d
00000360: 6f58 61bd 86de 823e f850 7dbe 226c c8bd
00000370: 2944 d9bd d98b 5abd 7c74 f2bd 39a0 43be
00000380: 5a79 55bd da25 05be 3fde ecbc 4307 3abd
00000390: 4124 3bbd bc0d 713e 480d ae3b 40f9 043e
000003a0: bd45 0ebd 2c9b 82bc aab6 8e3e b295 fb3d
000003b0: be3e 47bd 94a1 153d d627 b2bd b3f0 0abe
000003c0: 8245 8c3d d5f5 6fbd 7fb2 ac3d 1b72 0d3e
000003d0: 2cb0 b43e 445c c43e 2fe9 32be fc49 82be
000003e0: 423c 27be 9252 7ebe 571c cabe 275a e23d
000003f0: be3a 413e 4718 393c 9f87 ecbe dcf7 6bbd

network.0.conv2.bias f4 [8]
0.0 0.0 0.0 0.0 0.0 0.0 0.0 0.0
00000000: 0000 0000 0000 0000 0000 0000 0000 0000
00000010: 0000 0000 0000 0000 0000 0000 0000 0000

network.0.bn2.weight f4 [8]
1.0 1.0 1.0 1.0 1.0 1.0 1.0 1.0
00000000: 0000 803f 0000 803f 0000 803f 0000 803f
00000010: 0000 803f 0000 803f 0000 803f 0000 803f

network.0.bn2.bias f4 [8]
0.0 0.0 0.0 0.0 0.0 0.0 0.0 0.0
00000000: 0000 0000 0000 0000 0000 0000 0000 0000
00000010: 0000 0000 0000 0000 0000 0000 0000 0000

network.0.bn2.running_mean f4 [8]
0.20235483 0.031349313 0.18340355 0.2984094 -0.1981815 -0.6627518 -0.3690315 0.24142347
00000000: 1b36 4f3e 2368 003d 24ce 3b3e 1ec9 983e
00000010: 17f0 4abe 1aaa 29bf b2f1 bcbe b737 773e

network.0.bn2.running_var f4 [8]
0.6403716 0.5554938 0.67465484 1.1529813 1.1280444 1.6030824 1.113035 0.7843279
00000000: 65ef 233f d734 0e3f 2eb6 2c3f e494 933f
00000010: c263 903f ce31 cd3f ee77 8e3f b7c9 483f

network.0.fc1.weight f4 [8, 8]
-0.33383626 -0.40863088 -0.5034893 -0.54541904 0.20934218 0.58521956 0.08540642 -0.20321548
0.60097677 0.42771298 0.14462435 -0.36734757 -0.2583304 0.024329484 0.38544816 -0.17517385
0.22640759 -0.5417391 -0.34591353 -0.15869752 -0.5177831 0.2298649 -0.13025412 -0.5762706
0.52671033 0.0036190748 -0.25674418 0.5656256 -0.35180563 0.04320258 0.35647744 0.21507019
-0.5517874 0.2355501 0.11924988 0.2902981 -0.1939609 -0.52491856 -0.42649388 -0.37887836
0.31703806 -0.29328427 0.54002625 0.35700035 0.5879076 -0.20223296 0.5255812 -0.061469495
0.5368342 -0.2602628 0.3044632 -0.55156934 -0.12173611 -0.39744034 -0.09390628 0.4821847
-0.4171679 -0.19559991 0.5707924 -0.09803897 0.4856617 -0.6026464 -0.46258903 0.31683135
00000000: 96ec aabe 1138 d1be ade4 00bf 95a0 0bbf
00000010: cc5d 563e f3d0 153f 90e9 ae3d b817 50be
00000020: 9dd9 193f 32fd da3e 6818 143e fb14 bcbe
00000030: e243 84be a04e c73c 7659 c53e c660 33be
00000040: 64d7 673e 6aaf 0abf 941b b1be 9a81 22be
00000050: 6f8d 04bf b461 6b3e 5661 05be 7886 13bf
00000060: 7dd6 063f 002e 6d3b f973 83be d7cc 103f
00000070: de1f b4be 30f5 303d 3684 b63e 5c3b 5c3e
00000080: f041 0dbf 0c34 713e 4839 f43d f4a1 943e
00000090: b09d 46be 1061 06bf 685d dabe 58fc c1be
000000a0: d052 a23e 5b29 96be 293f 0a3f c0c8 b63e
000000b0: 1d81 163f 2816 4fbe 7d8c 063f 70c7 7bbd
000000c0: f76d 093f 2a41 85be 9ae2 9b3e a633 0dbf
000000d0: c850 f9bd 4d7d cbbe f051 c0bd eae0 f63e
000000e0: 0897 d5be 584b 48be 731f 123f a8c8 c8bd
000000f0: a6a8 f83e 0947 1abf 78d8 ecbe b837 a23e

network.0.fc1.bias f4 [8]
0.0 0.0 0.0 0.0 0.0 0.0 0.0 0.0
00000000: 0000 0000 0000 0000 0000 0000 0000 0000
00000010: 0000 0000 0000 0000 0000 0000 0000 0000

network.0.fc2.weight f4 [8, 8]
-0.1996499 -0.26422992 0.48994476 -0.06188631 -0.5668591 0.3963669 0.5059921 0.16979676
-0.076363385 -0.12657642 -0.03052485 0.016269684 0.5338672 0.54286164 -0.017814994 -0.33349374
0.4118722 0.21305287 -0.2861086 0.47961003 0.121264756 0.3299563 -0.028342009 -0.17538416
-0.47419882 0.07674849 0.50377494 -0.28952694 0.5249292 -0.6038484 0.50547117 -0.35411558
0.12809408 0.04373604 0.19493091 0.33205795 -0.30057827 -0.22043869 0.26579076 0.14731449
-0.11375767 0.051124215 0.019856155 -0.2342476 -0.4466591 0.048900127 -0.19862235 -0.52604795
0.011005402 -0.49042457 -0.60408133 -0.27689698 -0.406656 -0.3824159 -0.2127802 -0.35347164
0.28938532 -0.3357429 -0.07620114 -0.42879617 -0.30660108 -0.5478853 -0.082564294 0.22830093
00000000: 0671 4cbe 2549 87be 0ada fa3e 807c 7dbd
00000010: ae1d 11bf 9af0 ca3e b388 013f 34df 2d3e
00000020: 6864 9cbd 409d 01be 400f fabc 0048 853c
00000030: 85ab 083f fbf8 0a3f c0f0 91bc b1bf aabe
00000040: eae0 d23e 882a 5a3e d47c 92be 728f f53e
00000050: a859 f83d 08f0 a83e 802d e8bc e897 33be
00000060: 30ca f2be 502e 9d3d 65f7 003f e03c 94be
00000070: c361 063f cf95 1abf 8f66 013f a34e b5be
00000080: 182b 033e 9024 333d f89b 473e 8003 aa3e
00000090: 65e5 99be aeba 61be ba15 883e 9cd9 163e
000000a0: c8f9 e8bd a067 513d 60a9 a23c 9ade 6fbe
000000b0: 80b0 e4be 804b 483d a863 4bbe 14ab 06bf
000000c0: 0050 343c ee18 fbbe 13a5 1abf 71c5 8dbe
000000d0: 3735 d0be 04cc c3be 0ee3 59be 3cfa b4be
000000e0: 502a 943e 7ee6 abbe 580f 9cbd 2c8b dbbe
000000f0: d1fa 9cbe 3642 0cbf 7817 a9bd b8c7 693e

network.0.fc2.bias f4 [8]
0.0 0.0 0.0 0.0 0.0 0.0 0.0 0.0
00000000: 0000 0000 0000 0000 0000 0000 0000 0000
00000010: 0000 0000 0000 0000 0000 0000 0000 0000

network.0.shortcut.0.weight f4 [8, 1, 1]
-0.11072111 0.5154666 -0.26753783 0.13526678 0.91583645 -0.9812498 0.027217627 0.39907455
00000000: c0c1 e2bd 9ef5 033f b8fa 88be 6083 0a3e
00000010: 4274 6a3f 3033 7bbf 80f7 de3c 8053 cc3e

network.0.shortcut.0.bias f4 [8]
-0.34163737 0.4399382 -0.8231375 -0.93946946 0.94948936 0.18117738 -0.029180646 0.6592488
00000000: 18eb aebe 943f e13e 24b9 52bf 1281 70bf
00000010: bc11 733f 9086 393e 400c efbc 88c4 283f

network.0.shortcut.1.weight f4 [8]
1.0 1.0 1.0 1.0 1.0 1.0 1.0 1.0
00000000: 0000 803f 0000 803f 0000 803f 0000 803f
00000010: 0000 803f 0000 803f 0000 803f 0000 803f

network.0.shortcut.1.bias f4 [8]
0.0 0.0 0.0 0.0 0.0 0.0 0.0 0.0
00000000: 0000 0000 0000 0000 0000 0000 0000 0000
00000010: 0000 0000 0000 0000 0000 0000 0000 0000

network.0.shortcut.1.running_mean f4 [8]
-0.33702254 0.43414488 -0.81232315 -0.92693925 0.9371658 0.17862673 -0.028783374 0.65045875
00000000: 388e acbe 3d48 de3e 69f4 4fbf e44b 6dbf
00000010: 19ea 6f3f ede9 363e 1ccb ebbc 7784 263f

network.0.shortcut.1.running_var f4 [8]
0.024858478 0.2639348 0.08079631 0.030547712 0.8043372 0.9212974 0.014001318 0.16350393
00000000: 02a4 cb3c 7622 873e 8978 a53d 323f fa3c
00000010: 0be9 4d3f 25da 6b3f c965 653c 936d 273e

network.1.conv1.weight f4 [8, 8, 7]
-0.16716741 -0.04364831 -0.040520716 0.022475446 -0.1712179 0.009523298 -0.020959387 0.20158295
0.22400369 -0.15008909 0.10521941 0.037039943 -0.15673195 -0.20358934 -0.12252228 0.041568194
-0.13786456 0.4939039 -0.16026805 0.058869477 0.21236835 -0.42328474 -0.559437 0.098441966
-0.029047979 0.059985474 -0.16739519 -0.025365654 -0.32098353 -0.15656708 -0.14317913 -0.15462114
-0.027296022 0.34333056 -0.16420326 -0.25484076 0.068612084 0.24042325 -0.019870117 0.15931785
-0.08791053 0.5175071 -0.22787537 -0.08325414 -0.0118233 -0.27987656 -0.23249637 -0.3454674
-0.0853343 0.09209848 -0.15815863 0.064036645 -0.035239242 0.1736383 -0.00966209 -0.2837097
0.2281554 -0.01482132 0.20311171 0.012465729 -0.08636396 0.18087327 0.06238853 0.41633207
0.03425922 -0.14844592 0.3497808 -0.1112933 0.11798369 0.35510084 -0.09052446 -0.08869036
0.03922597 0.35609514 -0.09136232 0.027408399 -0.2750846 -0.05911991 -0.27761737 0.047430713
0.030272499 -0.23746625 0.114311986 -0.010938669 -0.013755497 -0.05461291 0.20246862 0.1406963
0.14325264 -0.18364882 -0.35039756 -0.07065604 -0.012307905 0.29123738 0.43909526 -0.2650742
-0.009199817 0.16713959 0.25272024 0.43327594 -0.12925763 -0.31323618 -0.20044063 0.05494668
-0.31519854 -0.14779861 0.1934325 -0.1780974 0.3147037 0.21239372 0.18061295 0.31061995
-0.07994382 0.064288825 0.027597535 -0.067440316 -0.08446642 -0.15600157 0.20251818 -0.15686674
0.19053268 -0.27701676 0.2878085 0.11813841 -0.25131828 0.32963017 0.05148546 0.018939178
0.09926777 0.0137364715 -0.085949995 -0.03344476 0.09344859 0.024084587 -0.07885103 -0.018126277
-0.08210631 -0.04121091 0.31353316 -0.13313283 0.01300107 -0.097006574 0.006827455 0.0076118917
0.20903817 0.2658097 0.34396434 -0.29721445 -0.16514345 0.076799616 -0.24558325 -0.15225846
-0.34357193 -0.05624241 -0.11433355 -0.2705142 -0.18045945 -0.38911825 0.14902186 -0.051956847
0.10625549 -0.21846426 -0.07513581 -0.117515214 -0.061189882 -0.08373351 -0.07880716 0.06473197
-0.004482017 -0.2650174 -0.013710144 -0.3037478 0.2762678 -0.22006197 -0.15501563 0.24286242
0.15840523 0.15639088 -0.100587055 0.24608615 -0.16677538 0.28402308 0.18447328 -0.17200324
-0.058362402 -0.1354847 0.2512447 -0.18626013 -0.38056588 -0.25692344 -0.21623197 0.12110664
0.0820165 -0.18103416 -0.2403393 0.13422771 0.0011407734 -0.24764004 0.026158774 -0.09463104
-0.0817769 -0.0728091 -0.18807617 -0.092519335 0.20324692 0.102274425 -0.05287595 -0.07293695
-0.19658788 -0.08875194 -0.15361202 -0.028403178 0.049371522 -0.11401111 0.0021808653 0.09029149
0.27977467 0.00022591924 -0.062378317 -0.12985106 0.258109 -0.12851939 0.38884488 -0.11590044
0.1766687 -0.048691764 -0.15087497 -0.011087547 0.020801773 -0.17382538 -0.018070178 0.17180653
-0.034493357 -0.19545119 -0.24474658 -0.27857372 -0.17804393 -0.015324991 -0.13210535 -0.030440245
-0.029711794 0.09854314 -0.09507984 0.16139032 -0.0042636935 -0.017229304 -0.1740648 -0.14858647
0.16517422 0.0010508756 -0.117332935 0.17891817 0.08977127 -0.18965532 0.06681684 -0.060655132
00000000: ef2d 2bbe 92c8 32bd 0df9 25bd 6d1e b83c
00000010: bf53 2fbe 9b07 1c3c 05b3 abbc c36b 4e3e
00000020: 3961 653e f4b0 19be 467d d73d 32b7 173d
00000030: 577e 20be b979 50be f6ec fabd 6943 2a3d
00000040: 5e2c 0dbe f9e0 fc3e 4f1d 24be 1f21 713d
00000050: 1777 593e c7b8 d8be 4337 0fbf f19b c93d
00000060: 07f6 edbc 54b3 753d a569 2bbe a2cb cfbc
00000070: f457 a4be 1f53 20be 8d9d 12be 0155 1ebe
00000080: e89b dfbc 06c9 af3e e624 28be 7d7a 82be
00000090: 7e84 8c3d 8331 763e a8c6 a2bc 3824 233e
000000a0: 700a b4bd 587b 043f 2958 69be 2681 aabd
000000b0: 84b6 41bc fb4b 8fbe 8713 6ebe 1ae1 b0be
000000c0: c0c3 aebd 219e bc3d 56f4 21be a525 833d
000000d0: 0657 10bd 3dce 313e be4d 1ebc 6642 91be
000000e0: 92a1 693e 1fd5 72bc 84fc 4f3e 0f3d 4c3c
000000f0: 96df b0bd d836 393e 1d8b 7f3d 7a29 d53e
00000100: 6553 0c3d 3502 18be 7816 b33e beed e3bd
00000110: 6fa1 f13d c7cf b53e e364 b9bd 4ba3 b5bd
00000120: 69ab 203d 1a52 b63e 2b1c bbbd 9487 e03c
00000130: e4d7 8cbe b827 72bd dd23 8ebe b546 423d
00000140: 08fe f73c 5a2a 73be 671c ea3d 1a38 33bc
00000150: bc5e 61bc c9b1 5fbd ef53 4f3e b112 103e
00000160: d2b0 123e 700e 3cbe 4f67 b3be 1db4 90bd
00000170: 18a7 49bc 111d 953e 18d1 e03e ceb7 87be
00000180: d4ba 16bc a426 2b3e 8c64 813e 58d6 dd3e
00000190: 1d5c 04be 7e60 a0be 4f40 4dbe c50f 613d
000001a0: b461 a1be 8558 17be 2b13 463e 2a5f 36be
000001b0: d820 a13e bd7d 593e 9af2 383e 9409 9f3e
000001c0: 96b9 a3bd dca9 833d 3a14 e23c 261e 8abd
000001d0: bbfc acbd e0be 1fbe ed60 4f3e ada1 20be
000001e0: 001b 433e 24d5 8dbe a35b 933e 8df2 f13d
000001f0: caac 80be 49c5 a83e 6be2 523d 5626 9b3c
00000200: e74c cb3d f00e 613c 8d06 b0bd 5ffd 08bd
00000210: f961 bf3d 0a4d c53c a67c a1bd 8f7d 94bc
00000220: 5a27 a8bd c5cc 28bd 6b87 a03e f953 08be
00000230: 7102 553c 62ab c6bd d8b8 df3b 2d6d f93b
00000240: 1a0e 563e 3618 883e 181c b03e 7e2c 98be
00000250: 5d1b 29be 1e49 9d3d 2d7a 7bbe a4e9 1bbe
00000260: a9e8 afbe 715e 66bd b527 eabd d680 8abe
00000270: 5dca 38be 823a c7be 3099 183e b4d0 54bd
00000280: 7a9c d93d 18b5 5fbe cee0 99bd d1ab f0bd
00000290: 3ea2 7abd 797c abbd a665 a1bd 3292 843d
000002a0: e2dd 92bb 5cb0 87be 83a0 60bc d584 9bbe
000002b0: f972 8d3e ed57 61be 6bbc 1ebe edb0 783e
000002c0: fb34 223e ee24 203e 9600 cebd 02fe 7b3e
000002d0: 2ac7 2abe 796b 913e 90e6 3c3e 9e21 30be
000002e0: 6a0d 6fbd 80bc 0abe 25a3 803e faba 3ebe
000002f0: 88d9 c2be 788b 83be ea6b 5dbe c206 f83d
00000300: 44f8 a73d 0561 39be 811b 76be fd72 093e
00000310: 0186 953a 5a95 7dbe ed4a d63c ebcd c1bd
00000320: a67a a7bd f01c 95bd 0a97 40be c77a bdbd
00000330: f61f 503e 4175 d13d 7494 58bd f85f 95bd
00000340: 554e 49be 94c3 b5bd 784c 1dbe c8ad e8bc
00000350: cb39 4a3d a87e e9bd d9ec 0e3b bfea b83d
00000360: a03e 8f3e bce4 6c39 6880 7fbd adf7 04be
00000370: dd26 843e 969a 03be ad16 c73e 365d edbd
00000380: a4e8 343e 0471 47bd f87e 1abe 8ba8 35bc
00000390: 7b68 aa3c 48ff 31be e907 94bc 0dee 2f3e
000003a0: e848 0dbd 5b24 48be d99e 7abe 37a1 8ebe
000003b0: 2651 36be ac15 7bbc a046 07be d25d f9bc
000003c0: 2666 f3bc fcd0 c93d 38b9 c2bd 8143 253e
000003d0: 74b6 8bbb 7824 8dbc 0b3e 32be 0d27 18be
000003e0: 6e23 293e 89bd 893a 404c f0bd 5336 373e
000003f0: 00da b73d 0135 42be 44d7 883d 8471 78bd

network.1.conv1.bias f4 [8]
0.0 0.0 0.0 0.0 0.0 0.0 0.0 0.0
00000000: 0000 0000 0000 0000 0000 0000 0000 0000
00000010: 0000 0000 0000 0000 0000 0000 0000 0000

network.1.bn1.weight f4 [8]
1.0 1.0 1.0 1.0 1.0 1.0 1.0 1.0
00000000: 0000 803f 0000 803f 0000 803f 0000 803f
00000010: 0000 803f 0000 803f 0000 803f 0000 803f

network.1.bn1.bias f4 [8]
0.0 0.0 0.0 0.0 0.0 0.0 0.0 0.0
00000000: 0000 0000 0000 0000 0000 0000 0000 0000
00000010: 0000 0000 0000 0000 0000 0000 0000 0000

network.1.bn1.running_mean f4 [8]
-0.8202675 0.55737466 -0.31141537 -0.5004732 -0.1619732 0.31439245 0.1185731 0.10845675
00000000: 0dfd 51bf 1bb0 0e3f d671 9fbe 031f 00bf
00000010: 4ddc 25be 0cf8 a03e 74d6 f23d 931e de3d

network.1.bn1.running_var f4 [8]
4.9152203 1.7567128 0.86025625 1.7932993 0.6770367 1.4763657 1.1890998 1.3052883
00000000: 7c49 9d40 f7db e03f c139 5c3f d58a e53f
00000010: 4752 2d3f 8df9 bc3f 6c34 983f b013 a73f

network.1.conv2.weight f4 [8, 8, 7]
-0.08148596 0.23442288 -0.2876045 0.15933713 0.081868954 0.27296057 0.10091478 -0.012573872
0.16630107 0.03202936 -0.11171412 0.16204022 0.32945496 -0.30376944 -0.1910276 0.17295715
-0.07071061 -0.061946716 -0.13928308 0.01581196 0.058272373 0.04318767 0.22152731 0.46628627
-0.11380184 -0.25366157 0.10961007 -0.037387457 0.056074437 0.19700032 0.06772983 0.16359659
0.18739739 0.0018074599 -0.2816777 0.16624522 -0.006885485 -0.13406478 0.029072149 -0.33940455
-0.17960887 -0.19136672 0.379501 -0.5033242 -0.44717327 0.25843617 0.13799493 0.18121909
-0.08140195 -0.05403408 0.27554867 -0.054301318 0.17792168 0.30477828 -0.097194135 -0.28250766
0.029847872 -0.18963733 0.27554017 -0.14557444 0.06555064 0.28704157 0.12704833 -0.509435
0.036082003 0.007052011 -0.37531412 -0.04055267 0.14862561 -0.106465705 -0.03411621 -0.1299651
0.07749411 -0.03587435 0.09449838 -0.03745841 -0.06062386 0.03932415 -0.07540287 0.11508257
0.3126183 0.21220678 0.06125187 0.15316744 -0.027203266 0.05934614 0.1150987 0.13629296
-0.17908841 -0.25528106 0.1835711 0.20665875 -0.2695019 -0.32254943 0.268608 0.21866591
0.34107074 0.020424161 -0.121401176 -0.020663064 0.17466052 -0.23630632 0.056513213 -0.12181542
0.087384135 0.18737037 -0.28905714 -0.016856225 0.17464639 -0.06237974 0.183423 -0.0059121205
0.18484826 -0.13119209 -0.15665859 -0.05282074 0.34465158 -0.13327774 0.19792552 -0.07095075
0.26845887 0.07195987 0.17074083 0.014431578 0.1323598 0.12983513 0.041032508 -0.09860836
0.14803176 0.108266786 0.26236093 0.24083237 -0.26963034 -0.25045413 -0.1084709 0.14484039
-0.026281478 -0.2714849 -0.046905845 0.17467645 -0.1783773 0.08143565 -0.23368199 -0.2858697
0.017140232 -0.19555412 0.03162525 0.42593783 0.009314072 -0.026620531 0.16370806 -0.112667374
-0.2274855 -0.0897797 0.055139158 -0.17358266 0.057655815 -0.25498995 -0.03190429 0.16249278
0.17891273 0.0940131 -0.2037339 -0.26955238 -0.052364696 0.15437937 -0.11006133 -0.12171186
0.22962622 0.3364611 0.097818375 -0.15379223 0.046786092 -0.040762328 0.14721571 -0.357479
-0.17477964 -0.30479237 -0.2845119 -0.20874262 -0.0712462 -0.2901769 0.40161645 0.352463
0.04692021 0.06187404 0.032005396 0.14298001 0.15478237 0.09608633 -0.045793388 -0.23874113
-0.03964848 -0.070660144 -0.1467507 0.1080583 0.13262996 0.14192615 0.11722687 -0.18622828
-0.13132913 0.031356134 -0.18937394 0.11133661 0.124709815 -0.22118457 0.03991025 0.011290082
-0.037077192 0.10606018 0.27136803 0.060237043 0.11167419 -0.06272781 -0.18683219 -0.089930885
0.1453087 -0.07638717 0.12099038 -0.28772157 -0.3172352 0.07931684 0.06418821 0.08098497
-0.32343027 -0.18208973 0.078877844 0.03193073 -0.042681985 -0.05110107 -0.23668237 0.29780075
-0.26315114 0.33605283 0.0594434 -0.00052184286 0.04119114 0.009026182 -0.44836867 -0.1202696
0.2755963 -0.24627288 -0.24220033 -0.23685388 -0.29760098 -0.1126833 -0.2594565 -0.0966359
-0.32618245 -0.3820721 0.39352405 0.13962023 -0.05969107 0.033766784 -0.1870716 -0.18386933
00000000: 1ce2 a6bd 8d0c 703e e640 93be 4629 233e
00000010: e9aa a73d 7dc1 8b3e 68ac ce3d a402 4ebc
00000020: d44a 2a3e 3831 033d 5fca e4bd dfed 253e
00000030: 52ae a83e ab87 9bbe bd9c 43be ae1b 313e
00000040: b9d0 90bd d7bb 7dbd 39a0 0ebe 1588 813c
00000050: 03af 6e3d 8ee5 303d 0ed8 623e 13bd ee3e
00000060: f010 e9bd eedf 81be 3f7b e03d 9723 19bd
00000070: 4fae 653d 74ba 493e f0b5 8a3d dd85 273e
00000080: 1ae5 3f3e 4ae8 ec3a 0f38 90be 303c 2a3e
00000090: a29f e1bb 4748 09be b728 ee3c 6fc6 adbe
000000a0: 63eb 37be a3f5 43be f44d c23e dbd9 00bf
000000b0: e5f3 e4be bf51 843e 8b4e 0d3e 7f91 393e
000000c0: 11b6 a6bd d752 5dbd b714 8d3e 0f6b 5ebd
000000d0: 1a31 363e e60b 9c3e b80d c7bd d8a4 90be
000000e0: 8683 f43c 4a30 42be 9a13 8d3e 7711 15be
000000f0: 6a3f 863d 1df7 923e f518 023e 556a 02bf
00000100: b9ca 133d 8e14 e73b 2c29 c0be 8e1a 26bd
00000110: 5031 183e b10a dabd 70bd 0bbd 9215 05be
00000120: 3bb5 9e3d fcf0 12bd 5e88 c13d fd6d 19bd
00000130: ba50 78bd 5c12 213d d26c 9abd 69b0 eb3d
00000140: 810f a03e bc4c 593e 3ee3 7a3d edd7 1c3e
00000150: 62d9 debc f014 733d deb8 eb3d 6290 0b3e
00000160: f462 37be 33b4 82be 10fa 3b3e 5a9e 533e
00000170: 27fc 89be 3325 a5be fd86 893e f5e9 5f3e
00000180: d3a0 ae3e 9250 a73c 2ea1 f8bd 9645 a9bc
00000190: 35da 323e 49fa 71be 667a 673d 5d7a f9bd
000001a0: 74f6 b23d 05de 3f3e 4cff 93be 1116 8abc
000001b0: 81d6 323e e681 7fbd 3dd3 3b3e 76ba c1bb
000001c0: dd48 3d3e 3857 06be 1c6b 20be 8f5a 58bd
000001d0: 2c76 b03e f679 08be fdac 4a3e a04e 91bd
000001e0: 7173 893e b25f 933d afd6 2e3e 6d72 6c3c
000001f0: 5489 073e 80f3 043e b411 283d 2ef3 c9bd
00000200: a395 173e faba dd3d 2c54 863e c39c 763e
00000210: fd0c 8abe 863b 80be fe25 debd 0a51 143e
00000220: 414c d7bc 1200 8bbe 5820 40bd 62de 323e
00000230: 8aa8 36be bcc7 a63d 554a 6fbe 835d 92be
00000240: ac69 8c3c 573f 48be 7a89 013d 8614 da3e
00000250: 0d9a 183c 4d13 dabc 16a3 273e 27be e6bd
00000260: f5f1 68be 6bde b7bd 99d9 613d a7bf 31be
00000270: 8128 6c3d 0b8e 82be 13ae 02bd 8264 263e
00000280: e634 373e f189 c03d 9f9f 50be c502 8abe
00000290: 5d7c 56bd a015 1e3e d667 e1bd 1144 f9bd
000002a0: 2323 6b3e a144 ac3e 0055 c83d b67b 1dbe
000002b0: c6a2 3f3d 66f6 26bd b7bf 163e 7d07 b7be
000002c0: 6ff9 32be bf0d 9cbe 8bab 91be a0c0 55be
000002d0: 87e9 91bd 1192 94be aca0 cd3e 0876 b43e
000002e0: 682f 403d a26f 7d3d 1718 033d 5a69 123e
000002f0: 457f 1e3e e9c8 c43d d991 3bbd 8e78 74be
00000300: 7266 22bd 44b6 90bd d145 16be ac4d dd3d
00000310: 26d0 073e 1755 113e a414 f03d a0b2 3ebe
00000320: 257b 06be 4a6f 003d 3eeb 41be 7304 e43d
00000330: dc67 ff3d 357e 62be ee78 233d 09fa 383c
00000340: 41de 17bd 1436 d93d c0f0 8a3e 1ebb 763d
00000350: 70b5 e43d 7077 80bd f050 3fbe af2d b8bd
00000360: cecb 143e e070 9cbd cec9 f73d 3e50 93be
00000370: a76c a2be de70 a23d 1c75 833d 73db a53d
00000380: a798 a5be bb75 3abe b58a a13d ccc9 023d
00000390: 4ed3 2ebd 5b4f 51bd dd5c 72be 5779 983e
000003a0: bfbb 86be 1e0f ac3e ec7a 733d 48cc 08ba
000003b0: 0ab8 283d 8de2 133c 9490 e5be e84f f6bd
000003c0: f51a 8d3e f52e 7cbe 5d03 78be d389 72be
000003d0: 285f 98be 81c6 e6bd 7bd7 84be 0be9 c5bd
000003e0: 6301 a7be f49e c3be fc7b c93e 9bf8 0e3e
000003f0: a07e 74bd 0a4f 0a3d b38f 3fbe 3e48 3cbe

network.1.conv2.bias f4 [8]
0.0 0.0 0.0 0.0 0.0 0.0 0.0 0.0
00000000: 0000 0000 0000 0000 0000 0000 0000 0000
00000010: 0000 0000 0000 0000 0000 0000 0000 0000

network.1.bn2.weight f4 [8]
1.0 1.0 1.0 1.0 1.0 1.0 1.0 1.0
00000000: 0000 803f 0000 803f 0000 803f 0000 803f
00000010: 0000 803f 0000 803f 0000 803f 0000 803f

network.1.bn2.bias f4 [8]
0.0 0.0 0.0 0.0 0.0 0.0 0.0 0.0
00000000: 0000 0000 0000 0000 0000 0000 0000 0000
00000010: 0000 0000 0000 0000 0000 0000 0000 0000

network.1.bn2.running_mean f4 [8]
0.24681346 0.19282323 -0.00043075945 -0.10944581 -0.039194666 0.20655447 0.10150162 0.49427813
00000000: abbc 7c3e 7473 453e 8ed7 e1b9 2025 e0bd
00000010: 968a 20bd 0483 533e 15e0 cf3d 0612 fd3e

network.1.bn2.running_var f4 [8]
0.83169883 0.7458872 0.62749255 1.6305104 3.0173666 1.1766194 0.64636976 0.4524191
00000000: 37ea 543f 77f2 3e3f 5aa3 203f 91b4 d03f
00000010: 891c 4140 779b 963f 7d78 253f 7aa3 e73e

network.1.fc1.weight f4 [8, 8]
0.30443364 -0.52330077 -0.4132635 0.11359292 -0.35001388 -0.07535887 0.30599952 -0.54411143
-0.37144887 -0.34885135 -0.34137437 -0.5097445 -0.57133365 0.10034311 0.53783447 0.082534075
-0.05736631 -0.44036698 0.51155764 -0.18707594 0.5909452 -0.13557628 0.3797984 0.443734
0.41722685 -0.5389995 -0.13821942 0.17209667 -0.046242893 0.20100707 0.32464343 0.08006066
-0.15334052 -0.27112374 -0.43570647 0.59435457 -0.40339404 0.10531509 0.2983821 0.11199528
-0.07210487 -0.38285068 -0.02173227 0.24109685 -0.46178946 0.33218557 0.30497843 -0.1844666
-0.3734153 -0.24180046 -0.2355941 0.15764272 -0.17615995 0.4619158 0.3644812 -0.49503213
0.27344966 -0.39620727 -0.12918955 0.12227291 -0.2818829 -0.25631127 -0.0051568747 -0.520367
00000000: bade 9b3e 0af7 05bf 4697 d3be 68a3 e83d
00000010: 0535 b3be c055 9abd f8ab 9c3e e34a 0bbf
00000020: 8c2e bebe a59c b2be 9fc8 aebe 9e7e 02bf
00000030: ec42 12bf b080 cd3d 85af 093f a007 a93d
00000040: f0f8 6abd c877 e1be 71f5 023f d690 3fbe
00000050: 2f48 173f 82d4 0abe f074 c23e 1a31 e33e
00000060: c29e d53e dffb 09bf 6489 0dbe 1c3a 303e
00000070: 3069 3dbd ccd4 4d3e aa37 a63e d8f6 a33d
00000080: 4c05 1dbe bbd0 8abe eb14 dfbe 9f27 183f
00000090: aa89 cebe 70af d73d 8ac5 983e c85d e53d
000000a0: b8ab 93bd 0105 c4be e007 b2bc 18e2 763e
000000b0: ab6f ecbe 3a14 aa3e 2226 9c3e d0e4 3cbe
000000c0: 4a30 bfbe 8a9a 77be 943f 71be 186d 213e
000000d0: 4663 34be 3a80 ec3e 489d ba3e da74 fdbe
000000e0: 9801 8c3e aedb cabe 444a 04be 386a fa3d
000000f0: f552 90be 3b3b 83be 00fb a8bb c636 05bf

network.1.fc1.bias f4 [8]
0.0 0.0 0.0 0.0 0.0 0.0 0.0 0.0
00000000: 0000 0000 0000 0000 0000 0000 0000 0000
00000010: 0000 0000 0000 0000 0000 0000 0000 0000

network.1.fc2.weight f4 [8, 8]
-0.2288036 -0.047445714 -0.22758406 -0.44676858 0.00589025 0.55391175 -0.37049535 0.06149465
0.4004087 0.083828926 0.102719486 0.37518823 -0.40731555 -0.5452839 -0.4456435 0.6040332
0.103877485 0.22522694 0.5622447 0.13483173 0.0884015 -0.3408164 -0.40039584 0.59154564
0.1803999 0.18983048 0.028715909 0.074705124 0.25870258 0.32648987 -0.51287323 0.4182598
-0.122302085 0.28653675 -0.4953478 -0.35211375 -0.17327642 -0.15756628 0.10060763 -0.27496442
-0.58248657 0.5744837 -0.1073522 0.16135406 0.36548555 -0.43849275 0.44457918 -0.1561606
0.2524516 -0.26363614 0.18538827 0.48523062 -0.49576893 -0.45024276 -0.476068 -0.5903172
0.14075828 0.41884166 -0.46574798 0.2613365 -0.3874433 0.17671293 -0.31238192 0.33893514
00000000: 7e4b 6abe 7056 42bd cc0b 69be dabe e4be
00000010: 0003 c13b 29cd 0d3f 91b1 bdbe d0e1 7b3d
00000020: 5e02 cd3e 80ae ab3d 985e d23d ac18 c03e
00000030: aa8b d0be ba97 0bbf 632b e4be eba1 1a3f
00000040: b8bd d43d e4a1 663e 45ef 0f3f 5411 0a3e
00000050: d80b b53d 7d7f aebe af00 cdbe 896f 173f
00000060: c0ba 383e ec62 423e a03d eb3c 00ff 983d
00000070: aa74 843e ae29 a73e a94b 03bf 2626 d63e
00000080: 8479 fabd f2b4 923e 3a9e fdbe 4148 b4be
00000090: 606f 31be 0e59 21be 600b ce3d 23c8 8cbe
000000a0: d71d 15bf 5d11 133f 78db dbbd 003a 253e
000000b0: ec20 bb3e 1f82 e0be e29f e33e 90e8 1fbe
000000c0: 5641 813e 51fb 86be 6cd6 3d3e 2670 f83e
000000d0: 6dd5 fdbe 3886 e6be 2fbf f3be 071f 17bf
000000e0: f022 103e 6a72 d63e 8576 eebe e6cd 853e
000000f0: f85e c6be 3cf4 343e 86f0 9fbe e888 ad3e

network.1.fc2.bias f4 [8]
0.0 0.0 0.0 0.0 0.0 0.0 0.0 0.0
00000000: 0000 0000 0000 0000 0000 0000 0000 0000
00000010: 0000 0000 0000 0000 0000 0000 0000 0000

network.2.conv1.weight f4 [8, 8, 7]
-0.054161165 0.052007847 0.06889655 0.17604993 -0.07008214 -0.09794225 0.10168373 0.10053357
0.15271512 0.076935135 0.06544838 -0.26333666 -0.12688562 -0.2885997 0.0017561399 -0.35244298
-0.1727029 -0.010467025 -4.8587142e-05 -0.10955822 -0.21588409 0.31703 -0.23885806 -0.22113127
0.14347509 0.07851365 0.0827845 0.06485562 -0.44459853 0.06996302 0.0421094 -0.12647603
0.07500901 -0.0014633756 -0.06750347 -0.03247197 0.15373226 0.1218713 0.06324148 0.045404978
0.025483333 0.25090864 -0.13433792 -0.4633765 -0.081938446 -0.121826954 0.31554142 -0.007565131
-0.041772865 0.09442531 0.05702191 -0.18058197 0.19315702 -0.3542906 -0.19687809 0.1929601
-0.14136793 -0.006542 -0.20527764 0.013425657 -0.08692395 0.44426247 0.21919315 -0.21622387
-0.38181454 -0.064735085 -0.14785361 0.094546236 0.05913412 0.015092917 -0.0022950356 -0.08615711
-0.08694746 0.06273449 -0.10951659 0.40819582 -0.14140597 -0.112581596 -0.07083964 0.23668225
-0.015477811 0.08763623 -0.0471858 0.0038870084 0.27877614 -0.18656863 -0.56645674 -0.10211871
-0.26394272 0.020449985 0.30341166 0.080383 -0.14609706 -0.020554714 0.2087278 -0.2509605
0.037841257 -0.09033447 -0.1428669 -0.019687194 0.0921082 0.11500272 0.10284112 -0.049313053
0.17491181 -0.15212832 -0.004864941 -0.11406608 0.111630924 0.32560834 -0.018749986 0.054922063
0.15324694 -0.025216892 0.17548427 0.22718821 -0.09063065 -0.11754259 -0.13209866 -0.08291789
0.21480091 0.102999 0.2791186 0.05770279 0.11746051 -0.2195045 0.044540502 0.0034342178
-0.12248508 0.19386297 0.27244204 -0.22237699 0.20123895 0.0359401 -0.19252396 -0.25094298
0.013501132 0.2688696 0.09501031 0.008722067 0.3060611 -0.055902515 0.49001613 0.025298014
-0.04189124 0.2197394 -0.44750917 -0.33827102 0.23749653 -0.055699494 0.36786228 -0.32488933
0.1238821 -0.18858042 -0.21822843 -0.13882871 0.050330624 -0.005744901 -0.012709614 0.2619867
0.013568212 -0.18935344 0.3206505 0.10348391 -0.028022414 -0.006228835 0.21979438 0.020111106
0.05212978 0.1281047 0.3171977 0.030846046 -0.22942747 0.16295956 0.2163735 0.23474659
-0.13493602 0.20317103 0.16016287 -0.23839915 -0.035646707 -0.3771922 -0.04229747 0.3480975
-0.011389412 -0.008915009 -0.06045497 0.29886106 0.028095769 0.1881511 0.18219249 0.019769419
-0.15621433 -0.3715252 0.17147645 0.13962905 -0.087775685 0.2728002 0.33259293 0.07936199
-0.19515902 -0.040494367 -0.057395842 -0.0010592223 0.035626434 -0.14417808 0.041121706 0.055575613
-0.27461487 -0.14264183 -0.002729451 0.23832618 0.2727251 -0.062363766 -0.1544677 0.031552143
-0.06263481 0.46789208 -0.09444288 -0.1904116 0.03531633 -0.13762227 0.26148614 -0.17209893
0.038432207 0.048026755 -0.21815455 0.11263628 -0.2275251 -0.13794741 0.14238906 0.012136453
-0.077749446 0.118841216 0.20574462 0.009793878 -0.15464614 -0.0589542 0.119989105 -0.13784285
-0.19449763 5.0979466e-05 -0.07368182 0.19101347 -0.12649448 -0.19825172 -0.13488956 0.20251374
-0.12779586 0.27175757 0.117652714 -0.05651193 0.13644655 -0.018209156 -0.039868932 0.20961969
00000000: 19d8 5dbd 2e06 553d a219 8d3d 6f46 343e
00000010: 3a87 8fbd f295 c8bd 8f3f d03d 8be4 cd3d
00000020: 5a61 1c3e 2b90 9d3d cd09 863d 10d4 86be
00000030: 4eee 01be 57c3 93be 472e e63a 6873 b4be
00000040: 07d9 30be e37d 2bbc 0cca 4bb8 0f60 e0bd
00000050: b810 5dbe c251 a23e 3597 74be 3c70 62be
00000060: 22eb 123e c4cb a03d ec8a a93d 06d3 843d
00000070: 6ba2 e3be c648 8f3d e87a 2c3d ef82 01be
00000080: 539e 993d bdce bfba 423f 8abd 5401 05bd
00000090: fd6b 1d3e a997 f93d c084 813d 92fa 393d
000000a0: 6cc2 d03c 1977 803e e18f 09be af3f edbe
000000b0: 58cf a7bd 6980 f9bd a58e a13e ebe4 f7bb
000000c0: 061a 2bbd 0f62 c13d ce8f 693d 7bea 38be
000000d0: f4ca 453e 9465 b5be 699a 49be 5597 453e
000000e0: c1c2 10be 465e d6bb 4d34 52be 49f7 5b3c
000000f0: 2f05 b2bd 5f76 e33e 2b74 603e ca69 5dbe
00000100: 327d c3be d493 84bd f066 17be 75a1 c13d
00000110: 9e36 723d 4848 773c 4f68 16bb 2473 b0bd
00000120: 8311 b2bd f17a 803d 3c4a e0bd 0bff d03e
00000130: bacc 10be 2e91 e6bd 6014 91bd d55c 723e
00000140: a596 7dbc a07a b33d e645 41bd 2ebd 7e3b
00000150: bfbb 8e3e d90b 3fbe 4f03 11bf 9d23 d1bd
00000160: 8023 87be ba86 a73c c658 9b3e d89f a43d
00000170: 789a 15be 5c62 a8bc bebc 553e e57d 80be
00000180: 6fff 1a3d 4701 b9bd b34b 12be 0a47 a1bc
00000190: 39a3 bc3d 8c86 eb3d 5d9e d23d 7cfc 49bd
000001a0: 151c 333e 87c7 1bbe 156a 9fbb 7a9b e9bd
000001b0: c19e e43d 23b6 a63e 9299 99bc f5f5 603d
000001c0: c4ec 1c3e a893 cebc 26b2 333e 07a4 683e
000001d0: 909c b9bd 2bba f0bd df44 07be dbd0 a9bd
000001e0: c5f4 5b3e 24f1 d23d a2e8 8e3e c359 6c3d
000001f0: 238f f03d cac5 60be 1a70 363d 9d10 613b
00000200: 75d9 fabd 0484 463e 867d 8b3e cbb6 63be
00000210: 9511 4e3e ed35 133d 0025 45be 997b 80be
00000220: da33 5d3c 47a9 893e c494 c23d 00e7 0e3c
00000230: 0ab4 9c3e 09fa 64bd 65e3 fa3e c83d cf3c
00000240: 2696 2bbd 5e03 613e ec1f e5be dc31 adbe
00000250: 4a32 733e 2725 64bd 7258 bc3e e557 a6be
00000260: e6b5 fd3d 3a1b 41be 4677 5fbe 1d29 0ebe
00000270: 7c27 4e3d b93f bcbb fc3b 50bc 1f23 863e
00000280: 354d 5e3c dee5 41be 4d2c a43e 5fef d33d
00000290: 438f e5bc 411b ccbb c711 613e 0cc0 a43c
000002a0: 0986 553d e12d 033e bd67 a23e d9b0 fc3c
000002b0: 09ef 6abe dfde 263e 0491 5d3e 6961 703e
000002c0: ab2c 0abe 110c 503e bc01 243e e81e 74be
000002d0: 4802 12bd 561f c1be 1d40 2dbd d639 b23e
000002e0: a89a 3abc 4210 12bc a19f 77bd 5104 993e
000002f0: 1929 e63c afaa 403e ab90 3a3e 7af3 a13c
00000300: a6f6 1fbe 8d38 bebe 8697 2f3e ebfa 0e3e
00000310: bdc3 b3bd 78ac 8b3e 9f49 aa3e 8a88 a23d
00000320: c4d7 47be 6cdd 25bd e717 6bbd 9ad5 8aba
00000330: 06ed 113d 6ba3 13be 3c6f 283d 41a3 633d
00000340: 529a 8cbe b310 12be 97e0 32bb c70b 743e
00000350: a0a2 8b3e 2671 7fbd c82c 1ebe d23c 013d
00000360: ae46 80bd 8d8f ef3e 456b c1bd 42fb 42be
00000370: dba7 103d daec 0cbe 83e1 853e b43a 30be
00000380: 176b 1d3d b4b7 443d e863 5fbe daad e63d
00000390: 57fc 68be 1642 0dbe 70ce 113e f9d7 463c
000003a0: 1a3b 9fbd 0663 f33d b8ae 523e 8076 203c
000003b0: 8f5b 1ebe f679 71bd d9bc f53d ad26 0dbe
000003c0: 632a 47be c9d2 5538 7ee6 96bd 0999 433e
000003d0: c587 01be 8002 4bbe 7d20 0abe c35f 4f3e
000003e0: ebdc 02be cf23 8b3e e8f3 f03d 0e79 67bd
000003f0: a5b8 0b3e 5e2b 95bc 9b4d 23bd 8ba6 563e

network.2.conv1.bias f4 [8]
0.0 0.0 0.0 0.0 0.0 0.0 0.0 0.0
00000000: 0000 0000 0000 0000 0000 0000 0000 0000
00000010: 0000 0000 0000 0000 0000 0000 0000 0000

network.2.bn1.weight f4 [8]
1.0 1.0 1.0 1.0 1.0 1.0 1.0 1.0
00000000: 0000 803f 0000 803f 0000 803f 0000 803f
00000010: 0000 803f 0000 803f 0000 803f 0000 803f

network.2.bn1.bias f4 [8]
0.0 0.0 0.0 0.0 0.0 0.0 0.0 0.0
00000000: 0000 0000 0000 0000 0000 0000 0000 0000
00000010: 0000 0000 0000 0000 0000 0000 0000 0000

network.2.bn1.running_mean f4 [8]
-0.58975285 -0.10532993 0.6795466 0.70937854 0.21270679 0.625569 -0.045646206 -0.118718654
00000000: 0bfa 16bf 38b7 d7bd c4f6 2d3f d599 353f
00000010: cfcf 593e 4a25 203f 84f7 3abd c422 f3bd

network.2.bn1.running_var f4 [8]
2.3053696 1.1841841 3.153733 3.0585482 1.7434576 3.2926471 1.7598776 1.3138086
00000000: 2d8b 1340 5893 973f c3d6 4940 41bf 4340
00000010: 9e29 df3f bbba 5240 ab43 e13f e12a a83f

network.2.conv2.weight f4 [8, 8, 7]
0.054454613 -0.26400307 -0.21089353 -0.11325847 -0.31224698 0.20987894 -0.0040333397 -0.21485484
0.00061932026 0.049370795 -0.23938991 -0.032360233 0.12956448 0.18412296 0.10101355 0.43295103
-0.19220358 0.057090648 0.101605415 0.073121786 -0.12877296 0.08121 -0.044644114 -0.3553459
0.116384454 -0.12095587 0.1922833 -0.122714676 0.24199848 0.23524645 0.3589163 -0.20066652
-0.021244405 0.2142682 0.39358613 -0.26109385 0.044225313 0.16091707 -0.08950668 0.03980221
0.057663828 0.089914866 0.28530908 0.038025707 0.1538078 0.17816664 -0.019004274 0.0008572842
0.118477575 0.23514237 -0.23560524 0.014629802 0.23563121 0.0046334956 0.08846189 0.038352586
0.18840292 0.08081621 0.15728682 -0.0033694147 -0.346626 -0.05869733 0.32155356 -0.18983766
0.045899246 -0.048434846 -0.27878734 -0.27571264 -0.035372335 0.2157462 0.30977973 0.09168318
0.19623606 0.02060473 -0.05245125 -0.028427577 -0.015223992 -0.0024996477 0.121543065 0.055578902
0.1306277 -0.07833113 -0.0903682 0.0678862 -0.035677016 -0.19639134 -0.07002923 0.11779859
0.12828393 -0.010975263 0.06081208 -0.05344856 0.3390804 0.47808495 -0.151604 0.048687384
0.22294576 0.2378807 -0.25209692 -0.09895036 -0.012755533 -0.07479817 -0.13031337 -0.43301323
-0.17696527 0.13080128 -0.044693675 -0.09286468 -0.17598143 -0.14064768 0.14813244 -0.006687837
-0.2373312 0.15198477 0.36760014 -0.2066864 -0.0059822984 -0.011494098 -0.17622735 -0.042973597
0.1858932 0.15351103 -0.050935525 0.04800575 -0.017367478 -0.05105942 -0.08886685 0.060683325
-0.39971235 0.08539781 -0.022999635 0.11404111 0.23369569 -0.071417235 -0.34682295 -0.12974016
0.28778946 0.008975825 0.07495088 -0.058357295 -0.16807255 0.07710885 0.18605961 -0.34424844
-0.08738741 0.26584065 -0.111339875 0.08530646 0.023448413 -0.03422871 0.09659685 0.13492693
0.27374828 -0.06507273 -0.071608394 0.08578793 0.014816415 0.13069293 -0.16660377 0.0028855624
-0.19185312 -0.036307864 -0.30402306 -0.10850536 -0.05905233 -0.14307511 -0.29278335 -0.18622656
-0.3769664 -0.11512007 0.12664215 0.37877616 0.00075448246 0.023359876 -0.040348005 0.16303968
-0.35275626 0.034782294 -0.23021959 -0.03986986 -0.16368341 0.09953093 -0.18755332 -0.24331813
0.27466357 -0.052516896 0.3230361 -0.1430776 0.23769034 -0.17169939 -0.10977756 -0.04129036
-0.36904413 -0.65634704 0.04194206 -0.25188103 -0.21023543 0.024777144 -0.44156426 -0.051634654
0.078379355 -0.039106064 -0.016600806 -0.04105784 -0.0849397 0.058012556 -0.24333337 -0.2176563
0.012019672 0.05374959 -0.19579369 0.13323197 -0.060996648 -0.10914796 0.103245884 -0.17434028
0.24088904 0.09908225 0.06762478 0.10879299 -0.055022404 -0.12094242 0.19488958 0.033692043
-0.04648754 0.0037565765 0.11183761 -0.06267055 0.03810331 0.114086434 0.19386466 -0.19521421
0.291802 0.4061257 -0.072854474 0.1860555 -0.14296924 -0.07156817 0.06654243 0.16249265
-0.039550684 -0.23632476 -0.032732613 0.12593508 0.17419952 0.060794245 0.08058807 -0.053651817
-0.04300568 -0.16889475 -0.14066032 -0.0022104844 -0.18830335 -0.12954782 0.16158262 -0.15039247
00000000: cd0b 5f3d 692b 87be 79f4 57be 0ff4 e7bd
00000010: d6de 9fbe 81ea 563e 1b2a 84bb e802 5cbe
00000020: e159 223a 0839 4a3d a122 75be 2a8c 04bd
00000030: 8dac 043e bb8a 3c3e 31e0 ce3d c2ab dd3e
00000040: 04d1 44be e2d7 693d 8016 d03d e0c0 953d
00000050: 0fdd 03be 6e51 a63d bfdc 36bd e6ef b5be
00000060: f95a ee3d b6b7 f7bd eae5 443e d551 fbbd
00000070: 73ce 773e 72e4 703e e1c3 b73e 867b 4dbe
00000080: bf08 aebc 1f69 5b3e 1f84 c93e 18ae 85be
00000090: 9a25 353d 72c7 243e 474f b7bd a407 233d
000000a0: e830 6c3d 4925 b83d 0814 923e d8c0 1b3d
000000b0: cb7f 1d3e 5171 363e daae 9bbc 5ebb 603a
000000c0: 5fa4 f23d 29c9 703e 8042 71be d6b1 6f3c
000000d0: 4f49 713e 94d4 973b 822b b53d 9a17 1d3d
000000e0: b2ec 403e f882 a53d cc0f 213e 66d1 5cbb
000000f0: f778 b1be 9d6c 70bd aba2 a43e ce64 42be
00000100: d900 3c3d 9e63 46bd 37bd 8ebe 352a 8dbe
00000110: 95e2 10bd 92ec 5c3e 739b 9e3e 64c4 bb3d
00000120: 1bf2 483e 40cb a83c 1fd7 56bd f3e0 e8bc
00000130: 0d6e 79bc 21d1 23bb 92eb f83d b4a6 633d
00000140: 45c3 053e 126c a0bd f612 b9bd ec07 8b3d
00000150: 1022 12bd d01a 49be 7c6b 8fbd 6340 f13d
00000160: dd5c 033e 97d1 33bc 1616 793d e1ec 5abd
00000170: f29b ad3e 8dc7 f43e 143e 1bbe 6c6c 473d
00000180: e54b 643e 0097 733e d912 81be 7da6 cabd
00000190: 95fc 50bc c82f 99bd de70 05be e9b3 ddbe
000001a0: 6236 35be c5f0 053e b710 37bd d62f bebd
000001b0: 7a34 34be f205 10be 08b0 173e a525 dbbb
000001c0: f306 73be e5a1 1b3e 1636 bc3e 9aa5 53be
000001d0: 2807 c4bb be51 3cbc f174 34be 1505 30bd
000001e0: c95a 3e3e ff31 1d3e c5a1 50bd ada1 443d
000001f0: 3e46 8ebc af23 51bd d3ff b5bd 148f 783d
00000200: 19a7 ccbe 0ce5 ae3d bb69 bcbc 638e e93d
00000210: ec4d 6f3e 3343 92bd c792 b1be 9bda 04be
00000220: 2459 933e 570f 133c d97f 993d 0f08 6fbd
00000230: 361b 2cbe 3feb 9d3d 6986 3e3e 5541 b0be
00000240: 2cf8 b2bd 441c 883e 2906 e4bd 27b5 ae3d
00000250: e316 c03c 6733 0cbd 92d4 c53d 492a 0a3e
00000260: bc28 8c3e da44 85bd 6ca7 92bd 95b1 af3d
00000270: 8cc0 723c 5ed4 053e 2e9a 2abe b41b 3d3b
00000280: 2575 44be 8eb7 14bd e9a8 9bbe 0f38 debd
00000290: dbe0 71bd 4882 12be b3e7 95be 2db2 3ebe
000002a0: bd01 c1be 12c4 ebbd 7bae 013e f3ee c13e
000002b0: 76c8 453a 365d bf3c f343 25bd e0f3 263e
000002c0: 789c b4be e177 0e3d afbe 6bbe 944e 23bd
000002d0: a09c 27be dfd6 cb3d fa0d 40be 6328 79be
000002e0: b4a0 8c3e f51b 57bd fd64 a53e ef82 12be
000002f0: 1965 733e f7d1 2fbe 0fd3 e0bd 1520 29bd
00000300: 5af3 bcbe 5c06 28bf 70cb 2b3d 8df6 80be
00000310: f547 57be 70f9 ca3c b614 e2be dc7e 53bd
00000320: 5b85 a03d ae2d 20bd 6afe 87bc 442c 28bd
00000330: def4 adbd 939e 6d3d 622c 79be 4be1 5ebe
00000340: 29ee 443c 8828 5c3d 247e 48be f66d 083e
00000350: 9fd7 79bd f788 dfbd 9472 d33d 4286 32be
00000360: 9eab 763e a2eb ca3d dc7e 8a3d dcce de3d
00000370: 2c5f 61bd a9b0 f7bd 2291 473e ab00 0a3d
00000380: b869 3ebd e530 763b 1e0b e53d 6b59 80bd
00000390: 3712 1c3d 26a6 e93d 7584 463e 3ce6 47be
000003a0: 1267 953e b5ef cf3e ba34 95bd 5585 3e3e
000003b0: 8766 12be 5592 92bd 6647 883d 7964 263e
000003c0: e6ff 21bd 1eff 71be a212 06bd 20f5 003e
000003d0: 5c61 323e 6303 793d 5c0b a53d 02c2 5bbd
000003e0: b926 30bd bff2 2cbe 4209 10be c6dd 10bb
000003f0: 98d2 40be 2fa8 04be ea75 253e 7c00 1abe

network.2.conv2.bias f4 [8]
0.0 0.0 0.0 0.0 0.0 0.0 0.0 0.0
00000000: 0000 0000 0000 0000 0000 0000 0000 0000
00000010: 0000 0000 0000 0000 0000 0000 0000 0000

network.2.bn2.weight f4 [8]
1.0 1.0 1.0 1.0 1.0 1.0 1.0 1.0
00000000: 0000 803f 0000 803f 0000 803f 0000 803f
00000010: 0000 803f 0000 803f 0000 803f 0000 803f

network.2.bn2.bias f4 [8]
0.0 0.0 0.0 0.0 0.0 0.0 0.0 0.0
00000000: 0000 0000 0000 0000 0000 0000 0000 0000
00000010: 0000 0000 0000 0000 0000 0000 0000 0000

network.2.bn2.running_mean f4 [8]
0.37011793 0.17265184 -0.24155647 -0.71062154 0.20800471 -0.3776009 -0.6533652 0.3686385
00000000: 1980 bd3e a5cb 303e 945a 77be 4beb 35bf
00000010: 30ff 543e e854 c1be f142 27bf 2fbe bc3e

network.2.bn2.running_var f4 [8]
1.6701733 1.220703 0.61357003 3.188007 0.6020744 1.1242287 1.9919767 0.7644722
00000000: 3dc8 d53f ff3f 9c3f ed12 1d3f 4f08 4c40
00000010: 8c21 1a3f bae6 8f3f 18f9 fe3f 73b4 433f

network.2.fc1.weight f4 [8, 8]
-0.3515634 0.13455486 -0.2804013 0.017122746 -0.45186526 0.34071255 -0.5995195 -0.08533698
-0.27617076 -0.18674809 0.22816265 0.52485305 0.10117304 0.3079391 0.19467294 0.07091421
-0.06767422 0.5224528 0.20631695 0.1295622 0.24155712 0.47988588 0.42802662 0.5234335
-0.45608544 0.22446233 0.14665675 0.32015187 0.5586354 0.042188704 -0.45107052 -0.095109165
-0.2302717 0.2231934 0.46984702 -0.16268903 -0.6003952 -0.056899726 0.24258333 -0.3932126
0.37636113 -0.44993347 0.46606797 -0.3181681 -0.016059756 -0.299953 0.026652694 0.034576
0.4226634 0.081742644 -0.15910384 0.20023024 0.5536187 -0.18960255 0.4631446 -0.18338159
0.45195884 0.33370012 -0.29648015 0.5320049 0.42883092 0.012635231 -0.3092158 0.40492827
00000000: 1e00 b4be c0c8 093e c290 8fbe 0045 8c3c
00000010: e25a e7be e071 ae3e 1c7a 19bf 28c5 aebd
00000020: 4166 8dbe e43a 3fbe 78a3 693e c55c 063f
00000030: d033 cf3d 32aa 9d3e 5858 473e 783b 913d
00000040: c898 8abd 77bf 053f c044 533e f4ab 043e
00000050: c05a 773e 9ab3 f53e 4e26 db3e bdff 053f
00000060: 0884 e9be 74d9 653e 302d 163e f2ea a33e
00000070: bb02 0f3f 10ce 2c3d b7f2 e6be 98c8 c2bd
00000080: 58cc 6bbe d08c 643e ca8f f03e f497 26be
00000090: 80b3 19bf b00f 69bd c467 783e 2953 c9be
000000a0: 68b2 c03e ae5d e6be 76a0 ee3e eee6 a2be
000000b0: c08f 83bc 7193 99be c056 da3c 909f 0d3d
000000c0: 5667 d83e b068 a73d 1eec 22be 2809 4d3e
000000d0: f5b9 0d3f 2c27 42be 4a21 ed3e 62c8 3bbe
000000e0: 2667 e73e beda aa3e 3fcc 97be 7931 083f
000000f0: ba8f db3e 0004 4f3c 8951 9ebe c252 cf3e

network.2.fc1.bias f4 [8]
0.0 0.0 0.0 0.0 0.0 0.0 0.0 0.0
00000000: 0000 0000 0000 0000 0000 0000 0000 0000
00000010: 0000 0000 0000 0000 0000 0000 0000 0000

network.2.fc2.weight f4 [8, 8]
0.50427586 0.047393084 -0.32742608 -0.53062886 -0.0074989796 0.2531749 0.19196105 -0.6122904
0.42951304 0.567504 -0.47062033 0.027000427 -0.20716515 0.53610975 -0.15866187 -0.042565882
0.25714558 -0.36985785 -0.15604109 -0.37525105 -0.33990926 -0.3944643 -0.12379736 0.5262696
-0.3072159 -0.16613472 -0.5188998 0.48437566 -0.4073695 -0.021650791 0.1433115 0.042033315
0.10595679 0.34793335 0.22476733 -0.044801295 0.12337214 -0.48761207 -0.1653234 0.016534686
-0.2910555 -0.34798878 0.38082522 -0.0038642883 0.5374649 0.28408653 -0.5232244 0.3462094
-0.32306474 0.12808096 -0.577248 -0.5863755 -0.19198704 0.2867474 0.2980224 0.113563776
0.55545944 -0.40826106 -0.088871956 -0.19955471 -0.27607608 -0.27449432 0.10462481 0.26996982
00000000: 3918 013f 401f 423d 64a4 a7be 4bd7 07bf
00000010: 00ba f5bb 24a0 813e 7091 443e 10bf 1cbf
00000020: 22e9 db3e f147 113f 26f5 f0be 0030 dd3c
00000030: 1a23 54be 7d3e 093f 4278 22be 9059 2ebd
00000040: 96a8 833e 025e bdbe 3cc9 1fbe e820 c0be
00000050: 9608 aebe 3af7 c9be 7889 fdbd 9bb9 063f
00000060: 674b 9dbe 381f 2abe 9ed6 04bf 1600 f83e
00000070: bc92 d0be 005d b1bc 40c0 123e 202b 2c3d
00000080: e0ff d83d 5224 b23e 6829 663e 9081 37bd
00000090: 88aa fc3d 4aa8 f9be 8a4a 29be c073 873c
000000a0: 3a05 95be 962b b2be 86fb c23e 0040 7dbb
000000b0: 4d97 093f ca73 913e 09f2 05bf 5c42 b13e
000000c0: be68 a5be a827 033e 86c6 13bf b41c 16bf
000000d0: 4098 44be 8ed0 923e 6496 983e 2094 e83d
000000e0: 9732 0e3f 9807 d1be 8002 b6bd 1258 4cbe
000000f0: d859 8dbe 858a 8cbe 8845 d63d 7c39 8a3e

network.2.fc2.bias f4 [8]
0.0 0.0 0.0 0.0 0.0 0.0 0.0 0.0
00000000: 0000 0000 0000 0000 0000 0000 0000 0000
00000010: 0000 0000 0000 0000 0000 0000 0000 0000
