das/结果/数据/中断模型.pth (torch, 633788 bytes, 308 tensors)

network.0.conv1.weight f4 [8, 1, 7]
00000000: e69c a5be 07c9 703e 9778 1f3e b60a ef3d
00000010: 9199 e8be 3f2a 16bd 84d7 ca3d 72bf 34be
00000020: 65f4 2b3e 3c85 67be 73da f83e c91e 4a3d
00000030: 2ccb c6bd 3673 23be f808 8fbe 8ea6 9f3b
00000040: 87d7 583e 144e 803e e393 25be c9f3 723e
00000050: 12b3 f53c fe90 5bbe 8485 1ebe e9dc 66bd
00000060: 94d7 27be fcbb 8a3d 82c6 273e 3370 263e
00000070: 7042 2abe 51e2 093e f7b8 cbbd f267 4cbe
00000080: b4f1 1bbe 0993 66be dffd e03e a928 89bb
00000090: 77e7 053e 17e1 6cbd 8bd0 f83c 63e9 53be
000000a0: 2f16 d8bd e302 d7bb 83b1 843e d93a a6bc
000000b0: b63b 12be 0148 f43e f450 113e 6175 80be
000000c0: d8bb 443e 19cb 133e e0b1 6a3e 3fad 743e
000000d0: 5738 a6bd eafa cd3d e339 463e 486e bf3d
-0.32346267 0.23514186 0.15573345 0.11671965 -0.45429662 -0.036661383 0.099043876 -0.17651156
0.16792448 -0.22609419 0.48604164 0.049345765 -0.09706721 -0.15961918 -0.2793653 0.00487215
0.21175967 0.2505957 -0.16169696 0.23725809 0.029992614 -0.21442029 -0.1548062 -0.05636302
-0.1639083 0.067741364 0.16384318 0.16253738 -0.16626906 0.13465239 -0.099473886 -0.19961527
-0.15228921 -0.22517027 0.43943688 -0.0041857553 0.13076578 -0.05783185 0.030372879 -0.20694499
-0.10551106 -0.0065616234 0.2591668 -0.020291733 -0.1428059 0.47711185 0.14191037 -0.25089553
0.19212282 0.14432944 0.22919416 0.23894213 -0.08116215 0.10057624 0.1935802 0.09347206

network.0.conv1.bias f4 [8]
00000000: 0000 0000 0000 0000 0000 0000 0000 0000
00000010: 0000 0000 0000 0000 0000 0000 0000 0000
0.0 0.0 0.0 0.0 0.0 0.0 0.0 0.0

network.0.bn1.weight f4 [8]
00000000: 0000 803f 0000 803f 0000 803f 0000 803f
00000010: 0000 803f 0000 803f 0000 803f 0000 803f
1.0 1.0 1.0 1.0 1.0 1.0 1.0 1.0

network.0.bn1.bias f4 [8]
00000000: 0000 0000 0000 0000 0000 0000 0000 0000
00000010: 0000 0000 0000 0000 0000 0000 0000 0000
0.0 0.0 0.0 0.0 0.0 0.0 0.0 0.0

network.0.bn1.running_mean f4 [8]
00000000: e83d c9b6 3b83 8eb8 9395 d1b8 bd24 3c38
00000010: 2226 9438 4208 dc37 b66a fab8 5fd6 36b9
-5.9974736e-06 -6.795531e-05 -9.993757e-05 4.4856908e-05 7.064293e-05 2.6229889e-05 -0.000119408054 -0.00017436732

network.0.bn1.running_var f4 [8]
00000000: 6c11 593f 9ed2 563f 2045 573f ca6a 543f
00000010: ffb2 583f f041 523f 32d1 623f d515 693f
0.8479221 0.83915126 0.8408985 0.8297545 0.84648126 0.8213186 0.88600457 0.9104894

network.0.conv2.weight f4 [8, 8, 7]
00000000: 7572 023e c25b 9cbd 2b61 0cbe 0379 0bbc
00000010: 3616 afbe 3507 22be 1868 cbbd d9a0 4ebc
00000020: 54d4 8cbc bc09 f9be b444 da3a 039e 883e
00000030: 10bb b2bd ef53 113e 7972 dd3a 35e2 5ebd
00000040: 017e 463d 240b ad3d c3c8 babe ff97 053e
00000050: d9f6 1abe dd1c e53e 0825 973c d822 b2bd
00000060: ba59 0e3e 7f81 5c3d 00f1 e03e 0d4e 99be
00000070: 1911 013e ac16 613d afc0 8abe 7443 bbbd
00000080: 7c60 ec3d 0d0e d03d f101 08bd 9aac 73bd
00000090: 532a 113e cf6e c73d fe43 53bd 5261 6d3c
000000a0: 86b7 0f3e 72cd 2abe b03e 3fbe 39db f8bc
000000b0: 9896 ff3d 0d39 0ebc f136 403d e691 153e
000000c0: c991 72be 9095 023e cb88 d73d 0d56 a4be
000000d0: 66a3 d4be 82ac ff3d 6f27 7fbe 9ecb c8bb
000000e0: 556c 973d 05dd 16be 45b9 eebd 7245 813e
000000f0: 706d 23bd 89f2 94be d3e9 c03d 775f 8abd
00000100: 91e2 23bc 547d 8dbd dab6 bbbd fde5 ab3d
00000110: 2516 263e 321c b2bd af63 cbbd 6990 acbd
00000120: 526b f4be 2c74 babd 4db7 b6be 3579 cb3d
00000130: d324 a4be bc56 babd 88b5 cebd 9a5d a6bd
00000140: 5a6c 3a3e ee9d d0bb 3457 963e f7ce e43c
00000150: c620 2c3e 6734 5c3e 30e6 4cbd 941e 083e
00000160: 8ae6 ac3d 3028 853e f078 483e e612 59bd
00000170: b598 fdbd f534 903d 1cab 39bd abf3 bc3d
00000180: 2c99 4fbe e89a cfbd f5a9 a3be 3791 563e
00000190: b439 2d3c 707a 40bd 3e53 5db9 ccdd 873e
000001a0: 0148 f33b 48b1 90bd d0f8 143d 35f3 43bc
000001b0: a3f8 2abe b8ae 95bd 325a 053d a046 863e
000001c0: d024 1fbd 8448 0cbd 0a56 c5be d5df 9abd
000001d0: 07bb 01be 06ce 78bd 4965 713e 75f7 2fbd
000001e0: 5aa9 b13d 5e0b d6bd 8c20 d83d 7c96 783e
000001f0: d04d c23d ba58 48be cae2 acbd 84fc 873d
00000200: b1a5 70be 2abe 8bbe 163d ec3c ead7 8fbe
00000210: 6227 9dbe 4ed1 bd3e b0e7 c73c e31d 243e
00000220: 3c27 2b3b aa12 81be de71 623e 6130 a3ba
00000230: 2f50 dd3c 3e7c f2be 6dc8 163e a6c9 853e
00000240: 21dc 80bb 7377 483c 8c20 38be 34e4 54be
00000250: ffc8 a1be 4f54 2a3e 1d14 3abb c85a 39bd
00000260: 7063 b23d 73d0 0dbc 70f1 81be bb28 af3d
00000270: 0c53 0abe d368 893e abf3 4d3e b673 ebbd
00000280: 06ff 08bd 718e a53e 6c62 1fbe ded6 b5be
00000290: 5821 c33e 470a cabd b041 22be 9731 1e3e
000002a0: d61d 03be 7672 373e f88f ab3e 9eb2 513e
000002b0: efe2 cf3d 010c b4bc 3258 5dbe 411b 0f3f
000002c0: d2ab 6c3e 2f56 813e 75cf 9ebc 2139 823c
000002d0: d36f 4c3d e531 e23e e34f b1bd 9bdd c73d
000002e0: 1de6 ff3d c7f0 f1be 22ad 2bbe 5d42 71bb
000002f0: e008 53be 3616 953d 4491 9abe aefc 2b3e
00000300: b436 16be df93 89be e0c6 c73c bd52 b13e
00000310: 45b4 3ebd e0fa dc3d 99f3 d13d c3fe c03c
00000320: 462f 773c 8fa8 99bd d75c d43e fa85 2fbe
00000330: 0edb 193e 4c4c 2c3e 41b7 9d3d 774f 79be
00000340: 0933 06be dd00 e8bd 7f2a 52be 1d13 273e
00000350: 2557 e8bc 1258 523d b33c 823d 6f4f bd3e
00000360: ddf1 b9bd 5f03 ac3d 80d5 09be ac11 85bc
00000370: 49b0 96bd 92d3 993d 6610 0e3d 8856 d83c
00000380: e9d2 823e 28ab 80be 905c 1cbd 271c e93d
00000390: a52e 51bd 2a26 50bd da27 9bbe af72 c13c
000003a0: d534 233e 3737 bbbd 7611 c2bd ad56 ef3c
000003b0: 8640 6d3e 8ac3 aa3d 1a34 4d3d 3e62 443e
000003c0: c2d7 c8bc 6931 f8bd 1f86 143e 7e6c 45bd
000003d0: 6630 e4bc 994e fdbd c907 93be 8baa 023d
000003e0: 5c70 35be 7fbe 26be 5d1e 55be 48f2 8f3e
000003f0: db7e 433d 25d7 dcbe ad0f 97bc 74f7 193e
0.12738974 -0.07634689 -0.13708942 -0.008512738 -0.34196633 -0.15823062 -0.09931964 -0.012611591
-0.01719109 -0.4864024 0.0016652555 0.26683053 -0.087270856 0.14192174 0.0016895077 -0.054414947
0.04846001 0.084493905 -0.36481294 0.13046263 -0.15133227 0.44748583 0.018450275 -0.08698052
0.13901415 0.053834435 0.43933868 -0.2994236 0.12604178 0.054953262 -0.2710013 -0.09143725
0.115418404 0.1015893 -0.033204976 -0.059490778 0.14176302 0.09737932 -0.051578514 0.014488535
0.14034852 -0.16679934 -0.18676257 -0.030377971 0.12479895 -0.008680594 0.046927396 0.14606437
-0.23688425 0.12752366 0.10524138 -0.32096902 -0.41530913 0.12484075 -0.24917386 -0.0061277887
0.073937096 -0.1473275 -0.11656431 0.25248295 -0.03989929 -0.2909129 0.094195984 -0.0675649
-0.010002748 -0.0690867 -0.091657355 0.08393476 0.16219385 -0.08696784 -0.099311225 -0.084259816
-0.4773813 -0.09104189 -0.35686722 0.09935228 -0.32059345 -0.090985745 -0.10093218 -0.08123322
0.18205395 -0.006366483 0.29363406 0.02793072 0.16809377 0.21504365 -0.05002421 0.13292915
0.08442409 0.26007223 0.19577384 -0.05299654 -0.12382642 0.07041351 -0.0453292 0.092261635
-0.20273274 -0.10136968 -0.31965604 0.20953833 0.0105728395 -0.046991765 -0.00021107213 0.26536405
0.007424355 -0.07065064 0.0363701 -0.011959841 -0.1669641 -0.073087156 0.03255672 0.26225758
-0.038853467 -0.034248844 -0.38542205 -0.07562224 -0.12669002 -0.060743354 0.23573793 -0.042960603
0.08674879 -0.10451387 0.10553083 0.24276155 0.09487498 -0.19565096 -0.08441694 0.066399604
-0.23500706 -0.2729352 0.028837722 -0.28094417 -0.3069411 0.3707375 0.02440247 0.16027026
0.0026115915 -0.25209552 0.2211375 -0.0012450331 0.027015774 -0.47360414 0.14724894 0.26130408
-0.0039324914 0.01223551 -0.17981166 -0.20790178 -0.3159866 0.16633724 -0.0028393336 -0.04525259
0.087103724 -0.008655655 -0.25379515 0.085526906 -0.13508242 0.26837787 0.20112483 -0.114966795
-0.033446334 0.32335237 -0.15564889 -0.35515493 0.38111377 -0.098652415 -0.1584537 0.15448605
-0.1280435 0.17914757 0.33508277 0.20478293 0.10150706 -0.02197838 -0.21615675 0.5590096
0.23112419 0.25261065 -0.019386033 0.015896382 0.04991133 0.44178692 -0.08657815 0.09759065
0.124950625 -0.4725401 -0.16765264 -0.0036813237 -0.20608854 0.07279627 -0.30188954 0.16795608
-0.14669305 -0.2687063 0.024386823 0.34633437 -0.046558637 0.10790038 0.10251541 0.02355898
0.015086954 -0.07502853 0.4147708 -0.17140952 0.15024969 0.1682598 0.077009685 -0.2434672
-0.13105406 -0.1132829 -0.20524023 0.16315885 -0.028361866 0.05135352 0.06359234 0.36974666
-0.09079335 0.083990805 -0.1346035 -0.016243778 -0.073578425 0.07511057 0.034683608 0.026408449
0.25551537 -0.25130582 -0.038174212 0.11382323 -0.051069874 -0.050817646 -0.30303842 0.023614256
0.15938123 -0.09141391 -0.09475987 0.029216135 0.23169145 0.08338077 0.050098516 0.19178101
-0.024516944 -0.12118799 0.14504288 -0.04819917 -0.02785511 -0.12368507 -0.28716877 0.031900924
-0.17718643 -0.16283606 -0.20812364 0.28114533 0.0477284 -0.43132892 -0.018440092 0.15035802

network.0.conv2.bias f4 [8]
00000000: 0000 0000 0000 0000 0000 0000 0000 0000
00000010: 0000 0000 0000 0000 0000 0000 0000 0000
0.0 0.0 0.0 0.0 0.0 0.0 0.0 0.0

network.0.bn2.weight f4 [8]
00000000: 0000 803f 0000 803f 0000 803f 0000 803f
00000010: 0000 803f 0000 803f 0000 803f 0000 803f
1.0 1.0 1.0 1.0 1.0 1.0 1.0 1.0

network.0.bn2.bias f4 [8]
00000000: 0000 0000 0000 0000 0000 0000 0000 0000
00000010: 0000 0000 0000 0000 0000 0000 0000 0000
0.0 0.0 0.0 0.0 0.0 0.0 0.0 0.0

network.0.bn2.running_mean f4 [8]
00000000: e8c3 42bd 9b59 c9bc 9402 60bd f2d7 973d
00000010: 6df8 b2bc 3a23 3cbd 62c7 9ebd 5195 42bd
-0.047550112 -0.02457886 -0.05468996 0.07414235 -0.021846974 -0.045932032 -0.07752873 -0.04750568

network.0.bn2.running_var f4 [8]
00000000: d8f0 7d3f 235d 723f 48f0 723f 5f96 7e3f
00000010: e6cc 6f3f 5bac 703f 2eaa 873f facf 863f
0.99195623 0.94673365 0.9489789 0.994482 0.93672025 0.94012994 1.059881 1.053222

network.0.fc1.weight f4 [8, 8]
00000000: c149 15bf 461f b63e e0aa a5bd 6641 adbe
00000010: a6ad c6be 2fe5 9abe c480 30be 9a97 dcbe
00000020: 2c2c 723e 752a 073f 3012 81bd 5860 fc3d
00000030: 2027 623e 89bc c6be e4cc a23e 78f8 9cbd
00000040: 497e 01bf e08d 78bd 1817 f33d 2cd8 523e
00000050: ad84 0e3f c47e edbe e68b 913e 787f d7be
00000060: 30e2 2ebe 59a7 083f 4d7d 99be ef0c d6be
00000070: 4026 3cbc be16 c83e 8242 6fbe 580c 6b3e
00000080: 2252 e73e 9c63 3b3e 1447 bbbe abe7 aabe
00000090: feed d7be 5272 6cbe d8da adbd 3cb0 2d3e
000000a0: 4a5b 37be ba10 d9be 1650 eb3e 008e ea3b
000000b0: 3032 30be 0061 373d 90ab 18be bc4a 883e
000000c0: 48db 86be b666 d3be c4f0 5cbe c003 fe3d
000000d0: aa4c e4be 32cf ccbe 39de 1b3f 68d4 d1bd
000000e0: 583f 713e 9a67 19be 7ef6 d73e b0d6 203d
000000f0: c5a1 edbe d154 013f b096 d43d 7826 fd3d
-0.58315665 0.35570735 -0.080892324 -0.33838958 -0.38804358 -0.30252978 -0.1723662 -0.43084413
0.23649663 0.5279916 -0.06302297 0.123230636 0.22085238 -0.38815716 0.31796944 -0.07664579
-0.5058332 -0.060682178 0.11869639 0.20590276 0.556712 -0.46385777 0.28427047 -0.42089438
-0.17078471 0.5338035 -0.2997841 -0.41806743 -0.011483729 0.3907985 -0.23365214 0.22953928
0.4517985 0.18299717 -0.36577666 -0.33379874 -0.4217376 -0.23090485 -0.08489007 0.1696176
-0.17905918 -0.42395574 0.45959538 0.007158041 -0.17206645 0.04477024 -0.14909196 0.26619518
-0.26339173 -0.412893 -0.2157622 0.12403059 -0.4458974 -0.40001827 0.6088596 -0.102455914
0.2355932 -0.14980927 0.42180246 0.039267242 -0.46412483 0.50520045 0.10380304 0.12360853

network.0.fc1.bias f4 [8]
00000000: 0000 0000 0000 0000 0000 0000 0000 0000
00000010: 0000 0000 0000 0000 0000 0000 0000 0000
0.0 0.0 0.0 0.0 0.0 0.0 0.0 0.0

network.0.fc2.weight f4 [8, 8]
00000000: 2023 f5bd 3a7c d53e 8ab5 c73e 50f2 b8bd
00000010: 02cf e8be e8ed 23be 68b9 583e 88a3 c8be
00000020: a236 e53e 24cb b7be 2567 0b3f 1a5f e03e
00000030: a48c e9be fa08 fdbe 1cb5 a7be a21b ee3e
00000040: 20f8 093d 81f8 cebe 6f58 19bf 5bd2 0d3f
00000050: 8a0a 32be eecc 36be 1089 a73e a670 4dbe
00000060: 191c e7be 008c 1e3a 5a36 afbe 00d8 d3be
00000070: 26be cfbe ec53 2ebe af76 91be 800d 923d
00000080: 0029 84bd e81a c03d e811 3c3e ea73 e6be
00000090: 8488 9f3e b0f0 41bd 3718 00bf c0e2 3e3e
000000a0: d04f 2e3e dc97 043e 0038 84ba 9891 6a3e
000000b0: f426 ab3e b294 a43e 7a43 e63e 7dc7 90be
000000c0: de77 d13e 5c8d e6be e08c e0be a6e8 87be
000000d0: 7fa4 113f 222a fb3e 02a2 fb3e 6267 f43e
000000e0: c086 193c e321 093f 3eae ccbe 300d d0be
000000f0: a852 e2bd 2098 5f3d 1042 e7bd 26f1 a7be
-0.1196959 0.4169634 0.3900569 -0.090305924 -0.45470434 -0.16008723 0.21164477 -0.39187264
0.44768244 -0.35897171 0.5445426 0.43822557 -0.45615113 -0.4942091 -0.32755363 0.46505457
0.033683896 -0.40423968 -0.59900564 0.553991 -0.17386833 -0.17851612 0.32721758 -0.20062503
-0.45138624 0.00060480833 -0.34221154 -0.41375732 -0.4057476 -0.17024201 -0.2841086 0.07131481
-0.06453133 0.09380132 0.18366206 -0.4501031 0.3115884 -0.047348678 -0.5003695 0.18641186
0.17022634 0.12948555 -0.001008749 0.22907102 0.33428156 0.32144696 0.44973356 -0.28277197
0.40911764 -0.45029724 -0.4385748 -0.26544684 0.56891626 0.49055582 0.4914704 0.47735125
0.009370506 0.5356733 -0.39976686 -0.4063506 -0.11050922 0.054588437 -0.11291897 -0.3280117

network.0.fc2.bias f4 [8]
00000000: 0000 0000 0000 0000 0000 0000 0000 0000
00000010: 0000 0000 0000 0000 0000 0000 0000 0000
0.0 0.0 0.0 0.0 0.0 0.0 0.0 0.0

network.0.shortcut.0.weight f4 [8, 1, 1]
00000000: e056 79be a095 343d f450 153f 58c0 1f3e
00000010: d4aa 88be 4a24 75bf 0064 983b 8052 c63c
-0.24349546 0.044088006 0.5832665 0.15600717 -0.26692832 -0.957585 0.004650593 0.024209261

network.0.shortcut.0.bias f4 [8]
00000000: 92b6 77bf eee6 6b3f 3819 813e 84a6 b0be
00000010: 8c41 13bf 14b7 8fbe 9eee 253f 8ef2 113f
-0.96762955 0.92149246 0.25214553 -0.3450204 -0.5752189 -0.28069365 0.64817226 0.57010734

network.0.shortcut.1.weight f4 [8]
00000000: 0000 803f 0000 803f 0000 803f 0000 803f
00000010: 0000 803f 0000 803f 0000 803f 0000 803f
1.0 1.0 1.0 1.0 1.0 1.0 1.0 1.0

network.0.shortcut.1.bias f4 [8]
00000000: 0000 0000 0000 0000 0000 0000 0000 0000
00000010: 0000 0000 0000 0000 0000 0000 0000 0000
0.0 0.0 0.0 0.0 0.0 0.0 0.0 0.0

network.0.shortcut.1.running_mean f4 [8]
00000000: a639 3cbe d840 333e 99a3 433d 5a51 86bd
00000010: 9dad dfbd 8680 59bd 9c20 fc3d 37e8 dd3d
-0.18381366 0.17505205 0.04776344 -0.06558485 -0.10921786 -0.053101085 0.12310907 0.10835307

network.0.shortcut.1.running_var f4 [8]
00000000: d31f 523f 5c73 4f3f f13a 5f3f 907e 503f
00000010: cfad 523f fb17 7a3f 6a5c 4f3f 2863 4f3f
0.8207981 0.810354 0.8719931 0.8144312 0.8229646 0.9769284 0.8100039 0.81010675

network.1.conv1.weight f4 [8, 8, 7]
00000000: ed2f 0ebd ca26 ab3c 698e 083d 119f f1bc
00000010: 218d 8fbe 5d3f 493d cc87 6a3d 1c59 f63d
00000020: a603 1f3e a8df dd3c 6329 333d 59a9 843d
00000030: 229a a93d b2e1 723e c5a7 0e3e 0245 e6bd
00000040: 223c af3e d6d1 f9bb 827e 0abd f35a edbd
00000050: 9c1f 8b3e a1b5 943d 4123 85be b792 cebd
00000060: 0b9a a53e 19ec e13b b316 8bbd 5770 ec3c
00000070: ce8f 3bbe 6fd3 8dbe e89a 373d 9f1c 063e
00000080: 71c3 a53e 6d8f 353e 72e8 bd3d da45 5c3e
00000090: ffdc bbbd b0dd 013d 2e84 1dbe e527 72be
000000a0: 1a10 013d 8085 fc3d 85d7 e23d fec2 973e
000000b0: bd18 a33d a60e a83c c9f0 3a3e b29d 363e
000000c0: 722b af3e 89ca 8fbd f3c2 9b3d 132e 93be
000000d0: 79d6 1ebe 29f4 6b3e 294a e53e 9533 a0bd
000000e0: ce4a 71be 5062 923e 4360 903e ad02 3a3e
000000f0: 6103 02bc d7e5 a43d fc17 0f3c 4b6c acbd
00000100: f114 a13e 8fb4 91bd c537 9abd a43f 863e
00000110: 7f14 6cbe 5786 ffbd 94f7 443d d8a8 1f3d
00000120: c26b 14be e46a bdbe e910 76bd b9ab 643d
00000130: 785f 703e ee2f 42be c40d a5be 94dc d53d
00000140: fec6 93be 17e5 803e 9608 13be 848d b6bd
00000150: ee07 4ebe 9297 d73d b046 6fbe d0ca be3d
00000160: 5c90 723e 6c4d b5be 3e85 fc3d e66a 9fbe
00000170: 246f 753e 5b88 953e a2b8 6dbd 2653 1f3e
00000180: a286 f2bd 94b2 573e d4fa 87be 266b 65bd
00000190: 5ec5 8ebc 8e2c 03be 9623 9c3c c2a5 fe3d
000001a0: ca66 0c3e d240 acbe 63dc 8b3e a3de f4bd
000001b0: 7968 1dbd 318d f23c 79ef 8d3e fb3c c2be
000001c0: 843a 5d3e 6bea e4bc fa48 02be 353e 063e
000001d0: 2116 bd3d 0392 293e 865e 41be 98cf 673d
000001e0: 41db 8a3d 4389 4fbd c16a f7bd 29bc a0bd
000001f0: 60b4 1c3e e795 a0be 6c7a b8be bc43 313e
00000200: 009d 023e 053b bd3e 2236 553d 0f47 f9bc
00000210: d185 0b3e 88a6 23bf 08eb 3f3e 87ff e23d
00000220: 48fc f03c 8009 a3be 8d0c c93e 0181 403c
00000230: df01 433d 5f5e 1f3e d7a1 4bbe 9a5b 43be
00000240: e609 44be 4a74 4d3e 9de9 1b3d 51d9 793d
00000250: b115 4fbe 4a36 41be 4b2a 313d 0859 0bbe
00000260: 24b2 c53d 949c c5bd b238 d7be 8064 ec3d
00000270: 0636 803e 89e7 0f3e 4a9d 78be 7482 903e
00000280: c443 823e f7ee 3ebe d1c9 8ebe 4175 d73c
00000290: 484f f03d 3382 df3e a40f 353d f986 1b3d
000002a0: 7b0a 013d 4e14 163e 8da5 adbd 814c f73d
000002b0: 2d97 593e 7561 ea3d a0cd 6fbe 2950 d03d
000002c0: b5a4 b63d f02d 1cbe c76b 0fbe e577 8c3d
000002d0: 0d90 5c3e 358a e33d 98cf 72be 7bb4 f93c
000002e0: c025 a2bd 3f50 d6bd 361a b5bd dbc1 923c
000002f0: 2a8f 91be 546d 7fbd 6f47 38bd 31c4 773e
00000300: 7014 f7bd 5c1b 163e 8790 793d c15e 603e
00000310: 9c31 1f3e 4230 873d f40f 86be 6ce0 4b3d
00000320: 4cec c23d 9d1a b1be 61e6 42bd 4da6 37be
00000330: c484 ac3d bebd 4a3d 3c12 f4bd 494e cdbd
00000340: 9354 cfbe aee3 83be fc83 893d 4f9a d43c
00000350: b348 d6bd efce 943c 78bc afbd bda0 a7bc
00000360: 1e74 2b3e a53a 7e3d 1bf5 fe3d d336 1fbe
00000370: 43d8 46bd 155a af3d c863 203e d7cc 5fbe
00000380: 4c22 7d3d e8b8 51bd 93c6 373e b384 1d3d
00000390: 3f39 eebd f32c 63be fca3 c9bd 4efe 8cbd
000003a0: d6c5 973e 6ec1 86be 1792 3a3d d4d4 143e
000003b0: 32b6 2fbe eda3 733d ca34 79be d9ff 973b
000003c0: 676d 563d aa20 b3bc ee0c 593e c082 af3d
000003d0: adff c63d 2250 a0be f63d b63d a8ca b13e
000003e0: 93be 023f f259 b83d 85b4 c3bd 2956 bc3d
000003f0: e01a 8d3e 8063 53be ea45 083c 5d5a 0bbd
-0.034713674 0.02089252 0.033338938 -0.029494794 -0.2803736 0.049132694 0.057258412 0.12028715
0.15528736 0.027084187 0.04374064 0.06477613 0.082813516 0.23718908 0.13931186 -0.11243631
0.34225565 -0.0076238913 -0.033812054 -0.11589613 0.27172554 0.072612055 -0.2600346 -0.100865774
0.32344088 0.0068946 -0.06791439 0.028862162 -0.18316576 -0.27700374 0.044825464 0.13096856
0.32375672 0.17730494 0.09272851 0.21511021 -0.09173011 0.03170556 -0.15382454 -0.23648031
0.031509496 0.123301506 0.11076263 0.29640955 0.07963703 0.020514797 0.18255915 0.17833593
0.34212834 -0.070210524 0.07605543 -0.2874609 -0.15511502 0.23042358 0.44783142 -0.078223385
-0.23563692 0.2859063 0.28198442 0.18165083 -0.007935376 0.08051651 0.008733746 -0.08419093
0.3146129 -0.07114517 -0.075301684 0.2622043 -0.23054694 -0.12476795 0.04808767 0.03897938
-0.14494231 -0.36995614 -0.06007472 0.05582783 0.23473918 -0.18963596 -0.32237065 0.104424626
-0.28862756 0.25174782 -0.14358744 -0.08913711 -0.20120212 0.105269566 -0.23366809 0.09316027
0.23687881 -0.3541063 0.123301014 -0.31136245 0.23968178 0.29205593 -0.058037408 0.15559062
-0.118420854 0.21064216 -0.26558554 -0.056010388 -0.017428096 -0.12809965 0.019059937 0.124339595
0.13711086 -0.33643204 0.2731658 -0.11956527 -0.03842971 0.029608341 0.27721766 -0.3793715
0.21604353 -0.02794381 -0.12723151 0.13109668 0.092327364 0.16559605 -0.18883714 0.05659446
0.067801006 -0.050668012 -0.120809086 -0.07848389 0.15303183 -0.31364366 -0.360309 0.17310995
0.12755203 0.3695909 0.05205358 -0.030429391 0.13625266 -0.6392598 0.18742001 0.11083894
0.029417172 -0.31843185 0.39267388 0.011749507 0.047609206 0.15563343 -0.19885956 -0.19077912
-0.19144401 0.20063892 0.038064588 0.060998265 -0.20223118 -0.18868366 0.043253224 -0.13608181
0.09653118 -0.096490055 -0.42035443 0.11542606 0.25041217 0.14053167 -0.24278751 0.28224528
0.25442326 -0.18645845 -0.2788835 0.026301028 0.11733872 0.43654022 0.04420437 0.037970517
0.031504136 0.14656183 -0.08478842 0.12075139 0.21249075 0.1144437 -0.23418283 0.10171539
0.08918134 -0.15251899 -0.14005958 0.068588056 0.21539326 0.11110345 -0.23712003 0.030481568
-0.079173565 -0.104645245 -0.0884289 0.017914703 -0.28429538 -0.062360123 -0.04499 0.24195935
-0.12064445 0.14658874 0.060928848 0.21911146 0.15546268 0.06601001 -0.26184046 0.049774572
0.09517726 -0.34590617 -0.047582988 -0.17934532 0.084237605 0.04949736 -0.119175404 -0.10024697
-0.40494213 -0.25759643 0.06714627 0.025952486 -0.10463085 0.01816508 -0.085808694 -0.020462388
0.16743514 0.062067647 0.12449094 -0.15548258 -0.048546087 0.08562104 0.15663064 -0.21855484
0.061800286 -0.05120173 0.17946844 0.03845663 -0.116320126 -0.22185116 -0.09845731 -0.06884442
0.29643124 -0.2631945 0.04554948 0.14534312 -0.17159346 0.059482504 -0.24336544 0.0046386537
0.052350428 -0.021866161 0.21196339 0.085698605 0.09716735 -0.31311136 0.08898537 0.34724927
0.51072043 0.09001531 -0.09555916 0.09196121 0.27559566 -0.20643425 0.00831745 -0.034021724

network.1.conv1.bias f4 [8]
00000000: 0000 0000 0000 0000 0000 0000 0000 0000
00000010: 0000 0000 0000 0000 0000 0000 0000 0000
0.0 0.0 0.0 0.0 0.0 0.0 0.0 0.0

network.1.bn1.weight f4 [8]
00000000: 0000 803f 0000 803f 0000 803f 0000 803f
00000010: 0000 803f 0000 803f 0000 803f 0000 803f
1.0 1.0 1.0 1.0 1.0 1.0 1.0 1.0

network.1.bn1.bias f4 [8]
00000000: 0000 0000 0000 0000 0000 0000 0000 0000
00000010: 0000 0000 0000 0000 0000 0000 0000 0000
0.0 0.0 0.0 0.0 0.0 0.0 0.0 0.0

network.1.bn1.running_mean f4 [8]
00000000: c641 e43d d3d4 06bd d00e 2c3c a171 0abd
00000010: f7a6 113c e8df 9abd 8b9a c9bb 4514 073d
0.11145358 -0.03291781 0.010501578 -0.03379977 0.008889905 -0.07562238 -0.006152456 0.032978315

network.1.bn1.running_var f4 [8]
00000000: b766 8a3f e593 943f 53ce 883f 91c8 6b3f
00000010: 523d 813f 5aa4 893f 2d70 783f 4f53 893f
1.0812596 1.1607634 1.0687965 0.92102915 1.0096838 1.0753281 0.97046167 1.0728549

network.1.conv2.weight f4 [8, 8, 7]
00000000: 7cdb 55be 6336 6c3d 230b c93d 2dde f23d
00000010: 236e a73d 137f b23c 9029 cb3d 4e1f 923e
00000020: 7aa0 4c3d 34f9 e33c 5e9a 95ba 12d9 073e
00000030: 6fd9 06be 1103 e8bc bc5a 0cbc 9d7d a33c
00000040: a828 ac3d bef4 96be b497 f5bd 9be5 01be
00000050: 99f1 753e f418 9cbe 5187 233d 0aef 863c
00000060: 153f feba 9555 d93d 8992 243d 022f 8fbd
00000070: 2800 633e bad2 b3bd a5cf 513e 8c3b 363d
00000080: cc27 153c af40 cf3c dbd7 873e 9afb bb3e
00000090: c9f9 c23d 1b90 80be e072 efbd 3e19 933d
000000a0: 688f bfbc 9e5b ab3b 24bc 38bd 0ad6 02be
000000b0: 8d59 fdbd 6bb5 883e 06c0 5bbe 1a61 a23c
000000c0: 238f 8cbd d052 5dbd 02fd d8bd e8aa cebc
000000d0: 4b95 6dbc 1831 823e e811 353e ae00 5abe
000000e0: b233 bcbd 9c12 8fbd c046 48be c9f3 b0bd
000000f0: 31ac 313d 1818 983d f452 febd 5daf 1dbd
00000100: 0867 10bc 27c1 52be 9d7a 173e 6577 9f3d
00000110: 51d3 c5bd e543 ab3e b551 6a3d b49f dfbd
00000120: 25e6 883d d39d 37bd 133e a6bc c466 0a3d
00000130: 537a e3bd 50ac d43d b536 14bd 9139 893b
00000140: fd00 e3bd 4121 c8bc f571 703e cf69 55bc
00000150: b25c c1be 6e19 d33c 56ee 56bd 02e6 0b3e
00000160: e836 57be bdee a33d 5529 bfbd 5084 003e
00000170: 3009 1cbd 67bf cd3e f37b 2fbe 0c53 11be
00000180: 6e43 89bd 0e40 ddbc 9ccc bebe e9b6 11bc
00000190: b226 b93b b8fc 25be b006 b83d b5b7 a33d
000001a0: 6b6d 83be 0e42 423d dbc1 443d 2573 98be
000001b0: ae73 83bc 3276 c53e ca23 e7bd 3140 5e3e
000001c0: a2c0 6fbd 6772 78be 556b 05be b05b d83e
000001d0: d1f7 3dbe 1761 61be 676b 98bc 7cf2 8dbe
000001e0: e5ba ad3e 3b14 33bd 7461 003f 60fc 7ebc
000001f0: 9871 9c3d 796b cd3e cd79 40bd f929 143e
00000200: aa76 46be 9a80 ca3e 4c1c 39be 33ae 53be
00000210: c17c 353e 0818 923e 333b 833d 91fc ba3d
00000220: 3da9 3bbd 3456 313d 98f2 b2bc 3fdd 973e
00000230: 9925 1f3e 31e2 e53e ecae 0f3d 17ab 233e
00000240: 862a 3b3e a703 8b3c c2d7 203e 93b3 e93d
00000250: 9425 80be ce1e b6bd 61de 463d c6b6 0c3c
00000260: 3dc9 7a3e c60e bfbd 0521 6ebd 4c0f 95be
00000270: ed52 88bd 9b9a 50be 5428 91be 1bde c4bd
00000280: 0538 fa3c ab1c 4e3e 8eba ab3e ad0c 873e
00000290: 1745 d5bd 56c3 823d 01dc a73d ff37 1c3e
000002a0: 2845 f0bd 80aa b0bd 0b18 923e c580 ed3d
000002b0: 9ac4 d63b 1e4d 6d3e 41fe 153e 07fb 4a3e
000002c0: 0115 8f3d bd1c 9d3c 9d06 52be 9fbd aa3e
000002d0: 91cd 63be 75c5 55be bfa2 82bd 05ef a13b
000002e0: ea9d 33bd ea6b 55bd e4bb 043e 5403 79be
000002f0: fea2 55bd f89d b5be 53dc 71be 2ad5 c53e
00000300: 61aa a4bc 630f dd3d 619d 0a3d 87d5 1bbe
00000310: 7dce 16be 5c92 b7be e2bc a93e 07a7 183e
00000320: f993 be3b b0fa 703e b3ba d63e f2db 22bd
00000330: 9ab4 213c ebc1 133e 10c6 b5bd 56db 4ebe
00000340: 6fa7 10be d807 51bb 6fa5 b63c 82d5 21be
00000350: fa4e 463d 9113 8e3d 03ba c5be 2159 dfbc
00000360: 7a38 b0be 112d 89be 72a4 11be dbcf 34bd
00000370: 8bc7 643e fb67 8abd fd77 693d 9f69 9abd
00000380: 86fc 5a3d 323f c9bc 9bda b03d b95b 7dbe
00000390: ca51 69be 24a9 983e b541 653d f949 a7be
000003a0: 4b41 a7be e13d 4cbd 48c2 32be 4b54 113e
000003b0: 64d8 a93d 03ad 3dbe e740 8fbb 3f13 c83d
000003c0: 7c67 cfbe 3302 61bd 7f4e 3dbe 452a 303e
000003d0: 2638 103e de5e 0d3d bac7 58bd 2c32 113e
000003e0: 2389 d1be 1501 7dbe 33e4 68bd 295d 86bd
000003f0: d10d e5be 9a0f 41be 6ff9 34be b382 5fbe
-0.20884508 0.057669055 0.09816577 0.11858783 0.08175304 0.02178911 0.09920037 0.2853951
0.04995773 0.02782879 -0.0011413803 0.132664 -0.13168882 -0.028321775 -0.008566555 0.019957358
0.08406192 -0.29483598 -0.11991826 -0.12685244 0.24017943 -0.30487788 0.03992397 0.016471405
-0.0019397462 0.106120266 0.04017881 -0.06991388 0.22168028 -0.08780427 0.20489366 0.044490382
0.009103727 0.025299398 0.26531872 0.36715394 0.09520299 -0.25109944 -0.116918325 0.07182549
-0.023383811 0.0052294275 -0.0451013 -0.12776962 -0.12370596 0.2670091 -0.2145997 0.019821692
-0.06863239 -0.054034054 -0.105951324 -0.025227979 -0.014500926 0.2542808 0.17682612 -0.21289322
-0.091895476 -0.06985971 -0.19558239 -0.08640248 0.043377105 0.074264705 -0.12418166 -0.038497318
-0.008813627 -0.20581494 0.14792867 0.077864446 -0.09659446 0.33450237 0.05720683 -0.10919133
0.066845216 -0.044828247 -0.020293271 0.03378941 -0.11107316 0.103844285 -0.036184985 0.0041877707
-0.11084173 -0.02442992 0.23480971 -0.013025715 -0.37766033 0.025768962 -0.05247339 0.1366196
-0.21017039 0.0800452 -0.09334055 0.12550473 -0.0380947 0.4018509 -0.17137127 -0.14191836
-0.06702314 -0.027008083 -0.3726548 -0.008893707 0.005650365 -0.16209686 0.089856505 0.07994024
-0.25669417 0.047426276 0.048036437 -0.29775348 -0.016046371 0.38566738 -0.11286123 0.21704175
-0.05853332 -0.24262391 -0.13029225 0.42257452 -0.18551566 -0.22009693 -0.0186059 -0.27724063
0.33931652 -0.043720465 0.501487 -0.015563101 0.07638854 0.40121058 -0.04699116 0.14469136
-0.19381204 0.3955124 -0.180772 -0.2067192 0.17723371 0.2853396 0.06407776 0.091302045
-0.045815695 0.0432951 -0.021844193 0.29660985 0.15541686 0.44899133 0.035078928 0.15983234
0.1827794 0.016969515 0.15707305 0.11411204 -0.2502867 -0.08892594 0.04855192 0.008588498
0.24490829 -0.0932899 -0.05813696 -0.29113233 -0.06656442 -0.20371477 -0.2835108 -0.09612676
0.03054429 0.20128123 0.33540767 0.26376858 -0.104135685 0.063849136 0.08196259 0.15255736
-0.117319405 -0.0862627 0.28533968 0.115968265 0.0065541985 0.23173949 0.14647771 0.19822322
0.06986428 0.019178743 -0.20510335 0.33347794 -0.22246386 -0.20876105 -0.063786976 0.0049418234
-0.04385177 -0.052104868 0.129623 -0.24317676 -0.052157395 -0.35472083 -0.23619203 0.38639194
-0.020100774 0.107939504 0.033841494 -0.15218173 -0.14727207 -0.3585385 0.3315192 0.14907466
0.0058159796 0.2353313 0.41939315 -0.039760537 0.009869719 0.14429443 -0.08875668 -0.20200858
-0.14126371 -0.0031895544 0.022295682 -0.15804103 0.04841516 0.06937326 -0.38618478 -0.02726418
-0.34418088 -0.26792195 -0.14222887 -0.04414354 0.22341745 -0.06758114 0.056999195 -0.07539677
0.05346348 -0.024566267 0.08635446 -0.2474202 -0.22785106 0.29816544 0.055970866 -0.32673624
-0.32667002 -0.0498637 -0.17456925 0.14192311 0.08293226 -0.1852303 -0.0043717506 0.09769296
-0.4050864 -0.054933738 -0.18486975 0.17203625 0.14083919 0.0345143 -0.05292485 0.14179295
-0.4092494 -0.24707444 -0.056858253 -0.06560738 -0.44737104 -0.18853608 -0.17673276 -0.21827202

network.1.conv2.bias f4 [8]
00000000: 0000 0000 0000 0000 0000 0000 0000 0000
00000010: 0000 0000 0000 0000 0000 0000 0000 0000
0.0 0.0 0.0 0.0 0.0 0.0 0.0 0.0

network.1.bn2.weight f4 [8]
00000000: 0000 803f 0000 803f 0000 803f 0000 803f
00000010: 0000 803f 0000 803f 0000 803f 0000 803f
1.0 1.0 1.0 1.0 1.0 1.0 1.0 1.0

network.1.bn2.bias f4 [8]
00000000: 0000 0000 0000 0000 0000 0000 0000 0000
00000010: 0000 0000 0000 0000 0000 0000 0000 0000
0.0 0.0 0.0 0.0 0.0 0.0 0.0 0.0

network.1.bn2.running_mean f4 [8]
00000000: 3169 1d3d 3525 3bbd f10f e03d 8b59 01bd
00000010: 789c d2bd 70ea 7fbd 236e 0f3d 0a21 17be
0.038430396 -0.04568978 0.109405406 -0.031579535 -0.1028375 -0.062479436 0.035017144 -0.14758697

network.1.bn2.running_var f4 [8]
00000000: 53e2 673f ad69 6f3f 74fa 8b3f b5de 713f
00000010: 4cb5 833f e6da 783f 82ce 8f3f 6d54 903f
0.9057972 0.93520623 1.0935807 0.9448045 1.0289702 0.9720901 1.1234896 1.1275765

network.1.fc1.weight f4 [8, 8]
00000000: fb5f 1c3f 0057 2ebd 93d6 16bf 6844 3e3e
00000010: 38f5 19bf dbd3 0c3f 0060 a3b8 c3bd fabe
00000020: 7b90 8fbe 46f1 ea3e e6d2 05bf 8f40 13bf
00000030: ec0b 11bf 3c86 773e 18c5 803e 5c03 043e
00000040: 67ea 19bf 38e8 563e 06a2 db3e aeb4 d9be
00000050: 08f8 413e 1010 46bd b1f0 06bf 260f 963e
00000060: f89d 883e b1de a9be a807 0bbf f3b6 12bf
00000070: 00e8 4b3e a0a1 14bd defc 18bf 02d4 ddbe
00000080: 71eb 0cbf e8c7 d4be e093 a83c a0f7 42bd
00000090: 32df 3bbe 4b0b 033f 6903 b0be b6e4 d23e
000000a0: a068 f83d e03e 73bd 49a2 153f 7583 d7be
000000b0: 50a7 ae3e 0076 a6bd 5a52 a8be 66a7 c03e
000000c0: 4551 e8be 86b4 f6be 5070 93bd 4e1b fe3e
000000d0: 84c1 ccbe 1a23 ffbe 36fe ef3e e0b0 3b3e
000000e0: 1593 89be b023 a3bd 2e2c d1be 6c50 abbe
000000f0: a83c e63d f267 f93e 64c7 043e 9f24 183f
0.61083955 -0.04256344 -0.58921164 0.18580782 -0.601398 0.55010766 -7.790327e-05 -0.48972902
-0.28039917 0.45887202 -0.5227493 -0.57520384 -0.56658816 0.241723 0.2515037 0.12891906
-0.60123295 0.20987022 0.42897052 -0.4252066 0.18942273 -0.048355162 -0.52711016 0.29308432
0.2668302 -0.33177713 -0.5430856 -0.5731041 0.1991272 -0.03628695 -0.59760845 -0.43325812
-0.55046755 -0.41558766 0.020578325 -0.047599435 -0.18346861 0.51189107 -0.34377602 0.41190118
0.12129331 -0.059386134 0.5845075 -0.4209248 0.34112024 -0.081279755 -0.3287533 0.37627715
-0.45374504 -0.48184603 -0.07199156 0.49630207 -0.3999139 -0.49831468 0.46873635 0.18329191
-0.26870027 -0.07965791 -0.4085402 -0.33459795 0.11242038 0.48712116 0.12966686 0.5943088

network.1.fc1.bias f4 [8]
00000000: 0000 0000 0000 0000 0000 0000 0000 0000
00000010: 0000 0000 0000 0000 0000 0000 0000 0000
0.0 0.0 0.0 0.0 0.0 0.0 0.0 0.0

network.1.fc2.weight f4 [8, 8]
00000000: bca4 9fbe 68b7 da3d f023 0fbd f8b3 bc3e
00000010: e047 2dbd d069 db3d 0e3f ddbe a04c 18bf
00000020: d1e2 90be 68fd ecbe 4120 0dbf 4748 bebe
00000030: a050 143e 72e4 2cbe c00a f23c 55ac 0d3f
00000040: c267 fd3e c832 5b3e a20c 39be e669 fe3e
00000050: 2050 b93e a67d dc3e 0086 8bbb 6c3d 84be
00000060: 58f8 de3d e308 0b3f e05d d0bd 446f 2c3e
00000070: 8656 d63e 8899 c1be 049f 1a3e bce7 10bf
00000080: 20be 213d b8a2 be3e cd5b 00bf 4a0f 6abe
00000090: e06f 543d 2748 163f 3c78 6ebe 36cb eb3e
000000a0: 7475 823e 5350 0cbf 00b8 a23b 9677 99be
000000b0: 04bf 1cbf b6f9 2bbe 3277 4bbe 36c7 903e
000000c0: 08a9 ccbd 5ee3 9f3e 4414 23be 8863 97be
000000d0: 7fda 98be c4d7 093e 50c1 bebd 1fd5 123f
000000e0: 8260 853e 4021 cb3c 70bc 3e3e e365 b2be
000000f0: 2366 093f cf2c 91be 45b4 16bf 36e0 8dbe
-0.3118037 0.10679513 -0.034946382 0.36856055 -0.042304873 0.107135415 -0.4321217 -0.5949192
-0.28298047 -0.46287084 -0.5512734 -0.37164518 0.14483881 -0.1688402 0.029546142 0.5534108
0.49493223 0.2140609 -0.18071225 0.4969017 0.36193943 0.43064612 -0.0042579174 -0.2582811
0.108872116 0.54310435 -0.10174155 0.1683932 0.41862887 -0.37812448 0.15099722 -0.566036
0.039487958 0.3723352 -0.50140077 -0.22857395 0.051864505 0.58703846 -0.23288053 0.46053475
0.25480235 -0.54810065 0.004965782 -0.2997405 -0.61228967 -0.16794476 -0.19869688 0.28276986
-0.09993178 0.31228155 -0.159257 -0.29568124 -0.298542 0.13461214 -0.09314215 0.57356447
0.26050192 0.024796128 0.1862657 -0.34843358 0.53671473 -0.283545 -0.5886882 -0.27710122

network.1.fc2.bias f4 [8]
00000000: 0000 0000 0000 0000 0000 0000 0000 0000
00000010: 0000 0000 0000 0000 0000 0000 0000 0000
0.0 0.0 0.0 0.0 0.0 0.0 0.0 0.0

network.2.conv1.weight f4 [8, 8, 7]
00000000: a1e6 cbbd a622 c4be b988 a83d a1c1 2abd
00000010: db11 593c 3e78 753e 7357 853d 2404 11be
00000020: bb7c 60be 4005 cbbe 83a4 343a 31db 333e
00000030: 8265 1a3e 9ba7 2bbe 657f 19bc 6b84 ba3e
00000040: 5074 813d 49f4 b23b 93e4 b9bd 1609 2939
00000050: 4aa8 573d dd9c 613e 1634 073e 0721 743e
00000060: c943 06be f05c b03e 2e76 0c3d d932 50bd
00000070: a1e0 83bd 05cb d7bd 0fde 3dbe f405 d9bd
00000080: 0cbd cf3d 091d f43d 4fdc a33d 82cf 50be
00000090: 8af0 633d aa78 d5be 2579 7d3d 7112 7cbe
000000a0: 2c06 673e c424 c1bd 61be 723e b819 acbe
000000b0: 1f8d cdbd b884 aabd eaf9 013c 5d80 f83d
000000c0: a488 3c3e c775 c33e a639 3a3e 3e3b 0b3d
000000d0: ff0b 4ebd b771 543e f34a ad3e d278 e3bd
000000e0: 0ce6 223e 9977 b6bb 50bc 0abc 0c6d 4c3d
000000f0: cf78 133e 0b4e 4abe 30e9 59bd 95bb ba3e
00000100: 46bf 933e 2455 15be 8e7a 823d 3341 61be
00000110: 06f5 983e 1984 babd 5aa7 a13d a034 913e
00000120: 12c1 79bd 9539 f7bd 2a17 683e 82b6 4b3d
00000130: 0992 5a3e ac43 9e3c b282 70be 1174 d3be
00000140: f597 863e 31ad 46bd 660b 8e3e 68b7 c23c
00000150: 1f82 dbbd ee82 84bd aa9d 373e de49 243c
00000160: 56cd 453e 5d24 e93b e3e2 79bd 63d0 203e
00000170: f6be d2bd 1cda 863d a8dd 1d3e 7783 95be
00000180: 0907 6f3d 461d da3e ef49 8ebd b935 48be
00000190: ffc1 2c3e 740c 11be 68db 8c3d cdd2 0e3d
000001a0: bd4d 06be c073 50bd 1ffe 44bc ffaf 36be
000001b0: efc7 9f3d e051 9b3e 73c6 2f3e ccc6 85be
000001c0: 6e6c 0dbe 4100 47bc b233 f43b c8d2 3c3e
000001d0: 23e7 0b3e a73e 813d b47e 213e eb40 9fbe
000001e0: 3876 d03e 94fc 6fbe 78af c3be 45bb 2f3d
000001f0: 644c acbc 1d59 0cbe b4de ad3e dfb6 52bd
00000200: ec86 113e b2cd 843c abd3 ac3d 1857 0e3e
00000210: c28e a5bd d2a9 1a3b 0afb bbbe 863a 16be
00000220: b3f4 7abe fc88 fbbc d282 f2bc 76b1 50ba
00000230: 759a b13d b848 3e3d 1f0c 9abd c7f4 29be
00000240: af20 923d 7086 9dbe 69f2 cb3d da10 76be
00000250: a7c5 52be cd9c d0bd 2f6d 3bba d58e 313e
00000260: 2d0e ea3d 1eb1 64be 7718 8dbd 2b24 ff3d
00000270: 5518 5abe e0ae cb3d a54b 983e 254b 4b3e
00000280: 4ac4 e1be a839 a43e 9a42 2a3e 0ff6 38be
00000290: 20be fe3b c8d2 24bb be0f 36be bec2 183e
000002a0: dc44 a6bd 87cb 61be dc91 b93d 1932 cc3d
000002b0: 5191 9e3d 17c6 3f3e ffcd 35be b3c6 603e
000002c0: 3651 92be 7989 613d 1f46 fc3d 24d3 c4bd
000002d0: e360 f7bd a3a1 41bd 9409 d6bd 8295 c03e
000002e0: 204f cc3d 75e7 343b d88a 5fbe eea4 793e
000002f0: 3497 93be e51a ca3e 3a91 4f3c efd9 6dbe
00000300: 227d 873e 1f09 adbe c78d 5dbe fb65 0fbe
00000310: 25b5 9e3d e619 ec3d ec86 013c 7468 173e
00000320: 0d4a babd 7c10 fd3b 92cf 123e ad01 023f
00000330: 8e62 86bd 13e4 fa3b 25a7 05bf c995 a7bd
00000340: 4580 c5bc 7df1 38be 9278 50be 7b49 f83d
00000350: 1355 23bc 9f6f bdbe 77bd b63c 9f85 44be
00000360: 2211 ee3d b111 963e 6723 31be d321 b43e
00000370: ef2d ad3d aaf5 a93e 6fc1 4c3e 7a67 003e
00000380: 77d2 9ebe 9f15 803e 4c2b 263e 52cd 80be
00000390: ba41 573d 6012 b8bd ec18 cdbd 0630 953e
000003a0: 29d4 f03d 8efe 523c b81b 3bbe be78 a63d
000003b0: 3973 14be e1af ad3d 1944 393e f722 34be
000003c0: b99e cbbe 9f77 413e f144 193d 8f6f 86be
000003d0: 804f 25be c010 d13e 4180 33be 515a 4b3e
000003e0: 3e74 3c3d 9cac 1fbe 727f c33e fa58 393e
000003f0: 7011 913d 4d3d c5be 47ab 3bbd 8df3 0dbe
-0.09956098 -0.38307685 0.08229203 -0.041688565 0.013248886 0.2397165 0.0651082 -0.14161736
-0.21922581 -0.39652443 0.0006890969 0.17564084 0.15077785 -0.16763155 -0.009368752 0.36429152
0.06321013 0.00546125 -0.090768 0.0001612048 0.052650727 0.22032495 0.13203463 0.23840724
-0.13111795 0.34445906 0.034292392 -0.050829742 -0.06439329 -0.1053677 -0.1854174 -0.105968386
0.1014348 0.119196005 0.08001005 -0.20391658 0.055649318 -0.41693622 0.06188311 -0.2461641
0.22560948 -0.094308406 0.23705436 -0.33613372 -0.10036682 -0.08326095 0.007933119 0.12133858
0.184115 0.38175794 0.18186054 0.033992045 -0.05030441 0.20746504 0.33846244 -0.11107029
0.15908068 -0.0055684564 -0.008467749 0.049908683 0.14401554 -0.19756334 -0.0532009 0.3647124
0.28856868 -0.1458326 0.06371032 -0.21997528 0.29874438 -0.09107227 0.07893248 0.28360462
-0.06097514 -0.1207153 0.22665086 0.0497346 0.2134477 0.019319378 -0.23487356 -0.4129949
0.2628781 -0.048505012 0.2774307 0.023769096 -0.10718178 -0.06470285 0.17931238 0.010027377
0.1931661 0.0071149305 -0.06100739 0.15704493 -0.10290329 0.0658457 0.15416586 -0.29201862
0.05835632 0.4260046 -0.069476955 -0.19551744 0.16870879 -0.14164907 0.06877786 0.034869004
-0.13115592 -0.050891638 -0.012023478 -0.17840575 0.07801806 0.30335903 0.17165546 -0.26128232
-0.13810894 -0.012146057 0.0074524516 0.18439782 0.1366239 0.06310778 0.1577099 -0.31104216
0.40715194 -0.23436195 -0.3821981 0.042903204 -0.02103252 -0.13705869 0.33958972 -0.05144393
0.14211625 0.016211364 0.0843881 0.13900411 -0.080838695 0.0023599756 -0.36714965 -0.14670762
-0.24507408 -0.030704968 -0.029603396 -0.0007961014 0.086720385 0.04645607 -0.07521843 -0.16597281
0.0713514 -0.3076663 0.099583454 -0.24029866 -0.20583211 -0.101861574 -0.00071497535 0.17339642
0.11428485 -0.2233319 -0.06889432 0.1245807 -0.21298344 0.09945464 0.29745212 0.19852884
-0.4409507 0.32075238 0.16626969 -0.18062614 0.0077741295 -0.002515005 -0.17779443 0.14918038
-0.08118603 -0.22050296 0.090610236 0.09970493 0.07742561 0.18727909 -0.17754363 0.21950798
-0.28577584 0.055062745 0.12318062 -0.096105844 -0.120790266 -0.04727329 -0.10451046 0.37614065
0.099760294 0.002760378 -0.21830308 0.24379322 -0.28826296 0.39473644 0.012668902 -0.23227666
0.26462656 -0.3379602 -0.21636115 -0.14003746 0.07749394 0.11528377 0.007905703 0.1478594
-0.09096155 0.0077229124 0.14336994 0.5078381 -0.065617666 0.007656583 -0.5220817 -0.08182866
-0.024109015 -0.1806087 -0.20358494 0.1212339 -0.009969014 -0.36999223 0.02230714 -0.19191597
0.116243616 0.29310372 -0.17298661 0.35182056 0.08456027 0.3319524 0.19995664 0.12539473
-0.31019947 0.25016496 0.16227454 -0.25156647 0.052552916 -0.0898788 -0.10014519 0.291382
0.11759216 0.012878073 -0.18272293 0.081284985 -0.14497079 0.08480812 0.18092383 -0.17591463
-0.39769533 0.18893288 0.037419263 -0.26256987 -0.16143608 0.40833092 -0.17529394 0.19858672
0.046009295 -0.15593189 0.3818317 0.18100348 0.07083404 -0.3852333 -0.04581764 -0.13862438

network.2.conv1.bias f4 [8]
00000000: 0000 0000 0000 0000 0000 0000 0000 0000
00000010: 0000 0000 0000 0000 0000 0000 0000 0000
0.0 0.0 0.0 0.0 0.0 0.0 0.0 0.0

network.2.bn1.weight f4 [8]
00000000: 0000 803f 0000 803f 0000 803f 0000 803f
00000010: 0000 803f 0000 803f 0000 803f 0000 803f
1.0 1.0 1.0 1.0 1.0 1.0 1.0 1.0

network.2.bn1.bias f4 [8]
00000000: 0000 0000 0000 0000 0000 0000 0000 0000
00000010: 0000 0000 0000 0000 0000 0000 0000 0000
0.0 0.0 0.0 0.0 0.0 0.0 0.0 0.0

network.2.bn1.running_mean f4 [8]
00000000: 2f8b 773d 4fcd b03d 3dd7 79bd 3eda ab3b
00000010: d273 67bd bcf2 cebd 0e52 e3bd 8125 cd3c
0.06043547 0.086329095 -0.060996283 0.0052445224 -0.05650694 -0.10104892 -0.11099635 0.025042297

network.2.bn1.running_var f4 [8]
00000000: 0daf a53f 18be 7d3f 090a 833f 678a 8e3f
00000010: e806 933f 85e4 bd3f 71b0 903f 4371 843f
1.2944046 0.99118185 1.0237437 1.1135987 1.1486483 1.4835364 1.1303846 1.0347065

network.2.conv2.weight f4 [8, 8, 7]
00000000: 223f 6bbd 57e4 9dbe 8b6f 57be 12ed 2dbe
00000010: 2f17 f43e 038d 1bbe d087 bcbe 9010 76be
00000020: da17 0ebd 40a0 12be 2d12 bc3e 8dab ddbd
00000030: 5e97 f43d 8333 263e f7c0 8d3d 23e6 37bd
00000040: b2dc b73d 94c0 adbd daf4 a53e d1ab 9ebd
00000050: 0f0c 353d d140 8e3e 6db9 fdbe 89ff eabd
00000060: e5b7 6d3e 18c8 9abe 1def 01bd 9f3b c03d
00000070: a2aa 833e 6bee be3e 4436 173e 8110 b93d
00000080: 787d 56be 6162 52bd 23c1 ad3d 0298 72be
00000090: 770a 94be 83e0 8ebe ef71 b1be 883d 553d
000000a0: a629 77be ddb1 1e3d 48be 5c3e ca66 943e
000000b0: f2f5 68be c7ae a63d 08aa ccbc 5d6d 08be
000000c0: edcd 9b3e cd13 863a af82 6a3d 4fb1 ce3d
000000d0: 6baa e5be 8a55 90be fad5 f8bd 1d2e b83b
000000e0: 2a6f d4bd d271 1b3e 6f90 1ebe b2fe 98bc
000000f0: d809 223c b078 803e 0f1b 18be 0c95 db3d
00000100: 8767 1a3e 6f60 b3bd 38fd 3abe 70a0 763e
00000110: 3201 d33d 1bd3 9b3e 6455 dc3c b27e e0bc
00000120: d966 c73c 0a77 483e 0cad 823e b0d9 893e
00000130: 14c6 cebe 06be f73e 7620 72bd 0147 b4bd
00000140: 92ba bcbd bf39 b03d 651f a1be ffee b0be
00000150: 449f 85be 1a21 8d3e 8cab 003e a796 363e
00000160: 350c 5bbe ad24 923e 7d40 7e3d 311b 673e
00000170: 641b babc d3cc 81be d426 03be f685 553e
00000180: f5d9 cdbd da1f 903d c4b8 023e 0cd6 cc3c
00000190: 8162 023e c11a ffbc a313 2f3e 1193 5b3e
000001a0: 3908 f7bd 23e8 7b3e a6cb 213e 38eb 8b3e
000001b0: bc59 e93d 8c8c f2bc 4462 02be 966f 7cbc
000001c0: 1314 ddbd 93d5 4abe de71 a6bd e1f0 abbe
000001d0: 8af5 8cbe e347 2e3e 69e1 66be 2fb8 acbc
000001e0: 80b2 b33d 95d0 b33e 9d27 1fbd a1e8 b9bd
000001f0: 8441 be3d a718 013e 2e98 e5bd c1f5 1bbd
00000200: 8321 e33d 7328 5abe dea8 4f3d 8bf6 093d
00000210: 761c 16be 433d 893e b303 df3d 8394 b73d
00000220: cd36 823e d43f 99bd ac33 383d 2b99 07be
00000230: 4237 8dbe ce8f ac3d 2b42 afbd c154 53be
00000240: e0a0 83be 9e02 cc3c f231 453c f402 1abf
00000250: 1447 273e 5bc9 db3b b895 b4bd 4141 7d3e
00000260: 1efa dfba a04a 5c3c e5eb 29bd dd0c 4fbe
00000270: 6554 5c3d c815 e0bd cae3 bcbd 738b 473e
00000280: 0d9d 4b3e 502a 453e 3b9f 853d dd9b 61bd
00000290: d443 743e f22d 1dbe 5234 073e 9420 223d
000002a0: 6c11 993e 3dda 223d 38a8 8b3e 0c0f a13e
000002b0: 3db6 30bc ce2e 1d3e 0168 8abc 1a1d 19be
000002c0: 3bc3 d9bd 7ac9 923d 966c 28be 82c7 c83c
000002d0: 2d3d 8ebe 3a03 40bd e491 d9bd 7c09 923d
000002e0: 0f0d febd 28bc 10be 499f 073e 9687 b73d
000002f0: 3c7a 9dbe 33f3 7fbe df15 d63d 98b3 9fbd
00000300: 4865 47be 2690 5fbe 1605 f23d 3369 0dbf
00000310: 8bde cebe 97e3 5fbe e055 cabd cf61 943e
00000320: 9401 84be 34bc b4bd a303 083d 4572 eb3c
00000330: 3b49 c1bd d309 5f3e 6502 393b fed0 91be
00000340: d364 68bd caa0 df3d 73ec 793e d601 a93e
00000350: 4ae6 66be e03b 85be cc4e aa3c 7147 8d3e
00000360: 0df5 14bd 6fef 5c3e 047f 62bd 3cc7 4ebe
00000370: ad3e 4b3e fc17 863e d2af 183e 2172 3fbd
00000380: 2a68 613d a1a4 a23d 48a2 56be 1d92 823d
00000390: 2b14 a3bd b9e2 203e b198 cb3e 5769 84be
000003a0: 556f 1e3e 5f8a 46be 2c6a 9ebe e6a7 60bd
000003b0: bfa4 483d cd32 65be 38d9 d33c 9fb4 4cbd
000003c0: d316 0c3d 6376 15be 2ac3 4a3e 3dc3 8f3e
000003d0: ea83 1c3e 9a67 22be 3749 b43d 919f 8c3e
000003e0: f79a abbd 0c99 753d 8aa7 01be 5639 9ebe
000003f0: 7619 3abe 0a17 edbd 1b45 b53e e9e2 5abe
-0.057433255 -0.30838272 -0.21038644 -0.16984966 0.47673938 -0.1519051 -0.36822367 -0.24029756
-0.034690715 -0.14318943 0.36732617 -0.10823736 0.119429335 0.16230588 0.06921571 -0.04489721
0.08977641 -0.08483997 0.3241337 -0.07747615 0.044200953 0.27783826 -0.4955553 -0.11474521
0.23214681 -0.30230784 -0.031722177 0.09386372 0.2571612 0.37291273 0.14766794 0.09036351
-0.209463 -0.051363353 0.084841035 -0.23690799 -0.28914234 -0.27905664 -0.34657237 0.052060634
-0.24136981 0.038743842 0.21556962 0.28984672 -0.2275007 0.08138805 -0.024983421 -0.13322969
0.30430546 0.001022929 0.057253536 0.10092413 -0.4485658 -0.2819026 -0.12150188 0.0056207315
-0.10372765 0.15180138 -0.15484785 -0.018676136 0.009890042 0.25092077 -0.14854072 0.10721788
0.15078555 -0.087586276 -0.18260658 0.2408464 0.10302962 0.30434498 0.026896186 -0.027404163
0.024341034 0.1957666 0.2552265 0.26923895 -0.40385497 0.48387164 -0.05911299 -0.088026054
-0.09215273 0.08604764 -0.31469265 -0.3455734 -0.26098073 0.27564317 0.1256544 0.17830907
-0.21391375 0.28543606 0.06207322 0.22568966 -0.022718139 -0.2535158 -0.1280778 0.20851883
-0.10051338 0.07037325 0.12765795 0.02500441 0.12732889 -0.031140687 0.17097335 0.2144282
-0.12062115 0.24600272 0.15800342 0.27327895 0.113940686 -0.029608034 -0.12732798 -0.015407464
-0.107948445 -0.19808035 -0.08127187 -0.33582214 -0.2753108 0.1701961 -0.22546925 -0.02108392
0.087742805 0.35120073 -0.038856138 -0.090775736 0.0928984 0.1260706 -0.112106666 -0.038076166
0.11090376 -0.21304493 0.050698154 0.033682387 -0.14659294 0.2680455 0.108893774 0.08963873
0.25432435 -0.074828774 0.044971153 -0.13242023 -0.2758122 0.08425866 -0.085575424 -0.206378
-0.25708675 0.024903592 0.012035834 -0.60160756 0.16335708 0.006707353 -0.08817619 0.24731924
-0.001708809 0.013445526 -0.041484732 -0.2021975 0.053791422 -0.109416544 -0.09223135 0.1948679
0.19884129 0.19254422 0.065245114 -0.055080283 0.23854 -0.15349558 0.13203552 0.03958185
0.29896104 0.03975891 0.27276778 0.31456792 -0.0107856365 0.15349886 -0.016895296 -0.14952508
-0.106329404 0.07167335 -0.16447672 0.024509195 -0.27781048 -0.046878077 -0.106235296 0.07130715
-0.124048345 -0.14134276 0.13244356 0.08961408 -0.3075732 -0.24995117 0.1045339 -0.07797927
-0.1947223 -0.21832332 0.11817376 -0.55238646 -0.40404162 -0.21864162 -0.098796606 0.28980872
-0.25782454 -0.088249594 0.033206593 0.028741011 -0.09437796 0.21781091 0.0028230187 -0.2847976
-0.05673678 0.1091934 0.24406604 0.33009213 -0.22548786 -0.26022243 0.020789526 0.27593568
-0.03636651 0.21575712 -0.055296913 -0.2019319 0.19848128 0.26190174 0.1491082 -0.0467397
0.05503098 0.07941557 -0.20960343 0.06375525 -0.07962831 0.15711488 0.39764932 -0.25861618
0.15472157 -0.19388722 -0.30940378 -0.05484762 0.04898524 -0.2238266 0.025860414 -0.04997694
0.034201454 -0.14595942 0.19801012 0.28078642 0.15284696 -0.15859833 0.08803027 0.2746549
-0.083791666 0.05996041 -0.12661567 -0.3090312 -0.18173775 -0.1157666 0.35404286 -0.21375622

network.2.conv2.bias f4 [8]
00000000: 0000 0000 0000 0000 0000 0000 0000 0000
00000010: 0000 0000 0000 0000 0000 0000 0000 0000
0.0 0.0 0.0 0.0 0.0 0.0 0.0 0.0

network.2.bn2.weight f4 [8]
00000000: 0000 803f 0000 803f 0000 803f 0000 803f
00000010: 0000 803f 0000 803f 0000 803f 0000 803f
1.0 1.0 1.0 1.0 1.0 1.0 1.0 1.0

network.2.bn2.bias f4 [8]
00000000: 0000 0000 0000 0000 0000 0000 0000 0000
00000010: 0000 0000 0000 0000 0000 0000 0000 0000
0.0 0.0 0.0 0.0 0.0 0.0 0.0 0.0

network.2.bn2.running_mean f4 [8]
00000000: f5a6 88bd c4fd d93d 8eb4 1fbd 0780 2fbd
00000010: 0d18 5abd 940a e73d ed75 6bbd ae05 f2bc
-0.066724695 0.10644105 -0.03899055 -0.042846706 -0.053245593 0.112813145 -0.05748551 -0.029543724

network.2.bn2.running_var f4 [8]
00000000: df5a 7d3f 958b 813f 034d 7f3f 925d 6f3f
00000010: 2651 6e3f 97dc 773f 9853 773f 3a10 6f3f
0.98966783 1.0120722 0.99726886 0.9350215 0.9309257 0.9682097 0.9661193 0.93384135

network.2.fc1.weight f4 [8, 8]
00000000: a054 613e a104 0bbf 20de 333d d0e0 0c3e
00000010: 4355 023f 90d1 aa3e d08d 60be ac87 fdbd
00000020: 3183 0e3f 025a af3e 2cd0 813e eba0 efbe
00000030: 8284 babe ac62 80be a924 13bf effb 123f
00000040: d8d7 823d f0b8 6ebd 8827 433e 4614 e43e
00000050: 7e07 d83e 94cf 0d3e 2bbd 143f fb68 163f
00000060: d6f6 e2be f2c0 b0be 2842 d93d f22e f6be
00000070: b208 a6be f0bc b43d 2ecd cebe b115 1b3f
00000080: 20b8 323e 4cda fbbe 80d1 abbe 768d c93e
00000090: 76a3 16bf e0b7 85bd 7232 05be a860 ec3d
000000a0: cc8e 613e 4069 a73e 98ed 193e cc38 eebd
000000b0: def1 c73e ee15 eebe ecf1 0e3e 8984 cfbe
000000c0: 7735 163f 80e4 1cbc 1a92 b6be e674 f43e
000000d0: f2bc d03e 231b 1a3f 4e10 cc3e 217e 163f
000000e0: 0031 253b f4b4 823e 19ab a5be 007c 32bb
000000f0: 12d7 9bbe b4fb 5d3e fb36 dfbe 00c9 6d3e
0.22004938 -0.5430394 0.043913007 0.13757634 0.5091135 0.33363008 -0.21929097 -0.12379393
0.5566893 0.34248358 0.25354135 -0.46802458 -0.3642922 -0.2507528 -0.57477814 0.5741567
0.06388825 -0.05828184 0.19058049 0.44546717 0.42193216 0.13848716 0.5810115 0.5875394
-0.44328946 -0.34522206 0.106083214 -0.4808269 -0.3242851 0.088250995 -0.40390915 0.60579973
0.1745305 -0.49189985 -0.33558273 0.3936574 -0.5884317 -0.06529212 -0.13007525 0.11541873
0.22027129 0.32697487 0.15032041 -0.11631927 0.39051718 -0.46501106 0.13959473 -0.40530804
0.5867533 -0.009575963 -0.35658342 0.47745436 0.40769154 0.6019766 0.3985619 0.5878621
0.0025206208 0.2552868 -0.323571 -0.0027234554 -0.30437523 0.21678048 -0.43596634 0.23221207

network.2.fc1.bias f4 [8]
00000000: 0000 0000 0000 0000 0000 0000 0000 0000
00000010: 0000 0000 0000 0000 0000 0000 0000 0000
0.0 0.0 0.0 0.0 0.0 0.0 0.0 0.0

network.2.fc2.weight f4 [8, 8]
00000000: e0e1 c7bc 53f1 15bf ce7e af3e 1821 80bd
00000010: e2ec 71be 0018 7a3d 0f24 1a3f 95df 153f
00000020: 8079 b73e cbba 103f d146 0f3f 3444 1abf
00000030: c808 29be e2db dc3e 0019 e23b 08d1 18bf
00000040: 48e6 babd 1a20 11bf 40e7 743d abea ffbe
00000050: ffd3 0d3f 0098 26bb ca2e efbe c891 3e3e
00000060: 3039 503d 0005 ef3b 3093 4d3e 6fa8 9abe
00000070: 480f 9b3e b84a d83d 7185 0d3f 00b1 573c
00000080: dc69 83be 88ec 963d 7eda 13be 1ab8 fa3e
00000090: 9564 0c3f a1c7 0a3f 04d5 24be ae15 e93e
000000a0: 3c6b c13e 8e7a 00bf 8a0b 61be a43e 133e
000000b0: 3430 e8bd 4054 843e f78f 0a3f 0f0c 0e3f
000000c0: 50b2 95bd 9cc1 2d3e 6657 983e 4248 14bf
000000d0: 7610 35be 0a31 cbbe 1b0b 173f 2812 bf3e
000000e0: fa7d fe3e c075 bb3c ca8d f63e f0b2 6a3d
000000f0: d4cd 82be 5c58 a93e 9a69 b53e 001f 623e
-0.024399698 -0.58571357 0.34276432 -0.06256312 -0.2362552 0.061058044 0.6021127 0.58544284
0.35834885 0.56535023 0.5596743 -0.6026032 -0.16507256 0.43136507 0.006899953 -0.59693956
-0.09125954 -0.5668961 0.05979085 -0.49983725 0.55401605 -0.002542019 -0.46715385 0.18610299
0.05083579 0.007294297 0.20075679 -0.3020663 0.30285096 0.105611265 0.5528174 0.013164759
-0.25666702 0.073693335 -0.14438817 0.48968583 0.54840976 0.5421086 -0.16096884 0.45524353
0.37777126 -0.50187004 -0.21977058 0.14379364 -0.11337319 0.25845528 0.5412592 0.5548715
-0.07309401 0.16968387 0.2975418 -0.57922757 -0.1768206 -0.3968585 0.5900132 0.3731854
0.49705487 0.022883296 0.4815505 0.057299554 -0.2554766 0.33075225 0.3543213 0.22082138

network.2.fc2.bias f4 [8]
00000000: 0000 0000 0000 0000 0000 0000 0000 0000
00000010: 0000 0000 0000 0000 0000 0000 0000 0000
0.0 0.0 0.0 0.0 0.0 0.0 0.0 0.0
