AI/best_fc_model.pth (torch, 943300 bytes, 6 tensors)

fc1.weight f4 [256, 784]
0	0xbd0cdb9c	-0.034389123
1	0xbd0bd675	-0.03414007
2	0xbb98e07e	-0.0046654334
3	0xbd25571d	-0.04036628
4	0xbbc2ccb0	-0.005944811
5	0xbcec016c	-0.028809272
6	0x3cd59a62	0.026074592
7	0x3b826ea3	0.003980474
8	0xbc64911b	-0.013950611
9	0xbd205811	-0.039146487
10	0x3b0cf1e1	0.0021506476
11	0xbd00018a	-0.031251468
12	0xbc727377	-0.014798037
13	0x3c888a60	0.016667545
14	0x3bc61a36	0.006045605
15	0xbc9c8e9c	-0.01911097
16	0xbbe9a8ee	-0.0071307337
17	0x3bf83d0d	0.007575637
18	0xbc952845	-0.018207679
19	0xbcc8ec05	-0.024526605
20	0xbcdb8ff6	-0.026802044
21	0xbca2560c	-0.019816421
22	0xbcd6b1d0	-0.026207834
23	0xba0629ec	-0.0005117941
24	0x3cb4c0dd	0.02206462
25	0x3c59be98	0.01329007
26	0xbbf103de	-0.0073551973
27	0xbc88d7de	-0.016704496
28	0xbc2bae0b	-0.010478507
29	0xbd25753d	-0.04039501
30	0x3c4fead3	0.012690264
31	0xbc3255ac	-0.010884684
32	0xbc1ffb2d	-0.009764475
33	0xbc0f8630	-0.00876002
34	0xbce38828	-0.027774885
35	0xbbd2ca6e	-0.006432823
36	0x3c37df6b	0.011222701
37	0xbd3761c3	-0.044770967
38	0x3ca2c438	0.019868955
39	0x3c64f2ed	0.013973934
40	0xbceee825	-0.02916343
41	0xbca083bd	-0.019594068
42	0x3ce769e4	0.028248735
43	0xbbc96b99	-0.00614686
44	0xbb651250	-0.0034953542
45	0xbcbeaf22	-0.02327687
46	0x3cab60be	0.020920154
47	0xbcadfa23	-0.021237439
48	0x3aef9ab1	0.0018280355
49	0xbcd019e4	-0.02540297
50	0x3ce5b4d4	0.028040327
51	0xbc8f38d2	-0.017483149
52	0xbc032e03	-0.0080065755
53	0x3d0957fd	0.033531178
54	0x3c93fcea	0.018064935
55	0xbd1cb64a	-0.038259782
56	0x3b95cdca	0.004571651
57	0xbd392039	-0.045196746
58	0x3cbbfb60	0.022947013
59	0x3c155f18	0.00911691
60	0xbc72513b	-0.014789875
61	0x39abf67f	0.00032799316
62	0xbb5e5988	-0.0033927877
63	0x3c9f4e69	0.019446569
64	0xbca703d5	-0.02038757
65	0x3ccbe061	0.024887266
66	0xbbe12258	-0.006870549
67	0x3ce02c11	0.027364762
68	0x3c7d0804	0.015443806
69	0xbbbc4d15	-0.0057464936
70	0x3cc56ee5	0.02410073
71	0xbcd6cfa7	-0.026222063
72	0x3c91c976	0.01779626
73	0x3c9404c0	0.018068671
74	0xbce7e965	-0.028309533
75	0x3c89e921	0.016834797
76	0xbc04ddf7	-0.008109561
77	0xbc0fb6ac	-0.00877158
78	0x3c1c7315	0.009548922
79	0x3cf2d295	0.029641429
80	0xbbc5fa39	-0.0060417918
81	0x38c0f1b0	9.200291e-05
82	0x3c9270fd	0.017876143
83	0x3cac8707	0.02106048
84	0xbcbbcb7e	-0.022924181
85	0xbc1da359	-0.009621465
86	0x3cc6db01	0.024274351
87	0xbc1959be	-0.009359775
88	0xbcf8464d	-0.03030696
89	0xbc81738b	-0.015802165
90	0xbd08d621	-0.033407334
91	0x3cabf5b2	0.02099118
92	0xbcfb1d8c	-0.030653737
93	0x3c0dff37	0.008666805
94	0x3caca5e4	0.021075197
95	0x3ad98526	0.0016595467
96	0x3bc200e9	0.0059205187
97	0xbd09d9d7	-0.033655014
98	0xbd0527fe	-0.032508843
99	0xbcad0f32	-0.02112541
100	0x3b962d80	0.0045830607
101	0xbd3d4e40	-0.046217203
102	0xbc67c9a6	-0.014147198
103	0x3cacc7d6	0.021091383
104	0xbb5ad4ba	-0.0033390955
105	0x3b738a5a	0.0037161321
106	0x3c8d982a	0.017284472
107	0x3ccd3ca6	0.025053333
108	0x3c9de32e	0.019273367
109	0x3cbae5f3	0.022814726
110	0x3d0af6d7	0.03392681
111	0xbbe47b9c	-0.006972743
112	0x3bc3150d	0.005953437
113	0x3a06a6f4	0.0005136572
114	0x3c9eb559	0.019373583
115	0x39153801	0.0001423061
116	0xbcd91ee8	-0.026503995
117	0xbc98a63a	-0.01863395
118	0x3be479df	0.006972536
119	0x3cb527cd	0.022113705
120	0xbd2224e6	-0.03958597
121	0xbc8bb196	-0.017052453
122	0x3c36220e	0.011116518
123	0x3ba85422	0.0051369825
124	0xbcae662f	-0.02128896
125	0x3c458a4d	0.012056899
126	0x3ce24db6	0.027624946
127	0x3b244c29	0.002506981
128	0xbc648962	-0.01394877
129	0x3c062937	0.008188537
130	0xbd068101	-0.03283787
131	0xbd286566	-0.041112326
132	0xbd0f0513	-0.03491695
133	0x3c6a7967	0.014311171
134	0x3c4bb8e9	0.012434223
135	0x3b12441f	0.0022318435
136	0x3c8dd539	0.017313587
137	0x3c23f62f	0.010007425
138	0xbc5746a8	-0.013139404
139	0x3cbf2702	0.02333403
140	0x3b130cf7	0.0022438148
141	0x3c007da9	0.00784246
142	0xbd170e46	-0.036878847
143	0x3bc154f6	0.0059000207
144	0xbc553974	-0.013014186
145	0x3cc7adee	0.024374928
146	0xbcf31e61	-0.029677572
147	0xbd047731	-0.032340232
148	0xbbf5996d	-0.0074950964
149	0xbcd431ec	-0.02590271
150	0xbcee5aa6	-0.029095959
151	0xbbb60f3e	-0.005556016
152	0x3c99fdb6	0.018797737
153	0xbca22a88	-0.019795671
154	0xbcc4ee07	-0.024039282
155	0xbc1f1b11	-0.009711043
156	0xbd04175e	-0.032248847
157	0xbbc1e22d	-0.005916855
158	0x3c5e1f87	0.013557321
159	0x3ca1b2ea	0.019738633
160	0xbc2cdb30	-0.010550305
161	0xb9b0bb46	-0.00033708866
162	0xbc2a4545	-0.010392492
163	0xbca26cc4	-0.019827254
164	0xbd2baeae	-0.041914634
165	0x3b122d22	0.0022304733
166	0x3cc91495	0.024545947
167	0xbd070880	-0.03296709
168	0x3ca6285e	0.02028292
169	0x3c8679c8	0.016415492
170	0xbc114ed5	-0.008868893
171	0x3ce1bbeb	0.027555427
172	0x3c97f381	0.018548729
173	0x3c88962b	0.016673168
174	0xbcae0a6a	-0.0212452
175	0x3cb009d6	0.021489065
176	0xbcde2aa5	-0.027119944
177	0xbaef3740	-0.0018250719
178	0xbc7605f9	-0.015016072
179	0xbc048412	-0.008088129
180	0x3b8b666e	0.004254154
181	0xbd14f0a2	-0.036362298
182	0xbd379385	-0.04481842
183	0xbd1da821	-0.03849042
184	0xbbeacc0b	-0.007165437
185	0x3c9b3d88	0.018950239
186	0xbc6c2812	-0.01441385
187	0x3b974f83	0.004617633
188	0xbcabee64	-0.020987697
189	0x3bde2361	0.00677912
190	0x3cde822f	0.027161686
191	0xbd17579a	-0.036948778
192	0xbceca4bc	-0.028887145
193	0x3d02a349	0.031894002
194	0xbceadbf1	-0.02866933
195	0x3ccd5b3b	0.025067916
196	0xbcdc3d23	-0.026884621
197	0x3c19d791	0.009389774
198	0x3c88997d	0.016674751
199	0xbbeb87cc	-0.007187819
200	0xbcbd141e	-0.023080882
201	0xbc9bd248	-0.019021168
202	0x3c1bea80	0.009516358
203	0xbd0d4afa	-0.03449533
204	0xbad3aca4	-0.0016149473
205	0xbd1a0ad9	-0.037608
206	0xbd23da22	-0.04000295
207	0xbc535bdc	-0.012900319
208	0xbcdd0b11	-0.026982816
209	0xb96f4c60	-0.00022821268
210	0x3d159bb1	0.036525432
211	0x3c90d2a7	0.017678572
212	0xbd033ee5	-0.032042403
213	0xbd124bca	-0.03571681
214	0xbc07926f	-0.008274659
215	0x3d030b10	0.031992972
216	0x3cf37526	0.029718947
217	0xbc1701e0	-0.009216756
218	0xbc330585	-0.010926609
219	0x3c723615	0.014783402
220	0xbc76f4b2	-0.015072988
221	0xbcdfcaf4	-0.027318455
222	0xbc7c75d2	-0.01540895
223	0xbce9d94c	-0.028545998
224	0x3d08b33d	0.03337406
225	0x3c1fc49d	0.009751466
226	0x3c91c164	0.017792411
227	0xbcb95305	-0.022622595
228	0x3a88b5d1	0.0010430162
229	0x3caa9018	0.020820662
230	0x3bc467df	0.0059938277
231	0x3cbba030	0.022903532
232	0xbcc8958f	-0.024485378
233	0xbbc11d8d	-0.0058934153
234	0xbd26bb49	-0.040705953
235	0x3d073892	0.033012934
236	0xb987111d	-0.00025761957
237	0xbd300616	-0.042974554
238	0xbd0406a5	-0.0322329
239	0xbcce0aa6	-0.025151562
240	0x3d0bd5e8	0.034139544
241	0xbcf90e2c	-0.030402265
242	0x3c896d4f	0.016775755
243	0x3ba84dac	0.0051362123
244	0xbcf45518	-0.029825732
245	0xbd0f56bf	-0.034994837
246	0xbab685d1	-0.0013925378
247	0x3cec371f	0.028834878
248	0xbcb26daf	-0.021780817
249	0xbcc69f7c	-0.02424597
250	0xbd155dcf	-0.036466416
251	0xbca98593	-0.020693576
252	0xbd0c3160	-0.034226775
253	0xbc80305b	-0.015648058
254	0xbb98e086	-0.004665437
255	0xbc4561b0	-0.012047216

fc1.bias f4 [256]
0	0x3c8cfe14	0.017210998
1	0x3cf4f8a5	0.02990372
2	0x3c0f4cbf	0.008746325
3	0x3c66882b	0.014070551
4	0xbcb9c0c6	-0.02267493
5	0x3c32ba50	0.010908678
6	0x3c2eab4d	0.0106609585
7	0x3c0621f1	0.008186803
8	0xbd06714e	-0.0328229
9	0xbc0e12ac	-0.008671444
10	0xbc169fbd	-0.009193358
11	0xbd07c289	-0.033144508
12	0xbd147f6e	-0.03625434
13	0x3c975bdb	0.018476417
14	0xbc919135	-0.017769435
15	0xbcda7c0a	-0.026670475
16	0xbc3a2c7a	-0.011363143
17	0xbc561979	-0.013067597
18	0x3cd47bed	0.025937999
19	0x3cebba3d	0.028775329
20	0xbd22b6fc	-0.03972529
21	0x3bc6ccc7	0.006066892
22	0xbb9f6102	-0.004863859
23	0xbcfa74d1	-0.03057328
24	0xbcc6d8ee	-0.024273362
25	0x3c743c7f	0.0149070015
26	0xbcca120f	-0.024666814
27	0x3c494540	0.012284577
28	0xbc221d63	-0.009894702
29	0xbc175987	-0.009237654
30	0xbd392fed	-0.04521172
31	0x3c988af8	0.018620953
32	0xbd1078a3	-0.0352713
33	0xbc829463	-0.015939897
34	0xbb98af18	-0.0046595447
35	0xbc45c4bb	-0.01207083
36	0xbc8ce659	-0.017199682
37	0xbcd6f07a	-0.026237715
38	0x384b886a	4.8526017e-05
39	0xbc9f637d	-0.01945662
40	0x3b529c53	0.0032136634
41	0x3d0203f9	0.03174207
42	0x3c369e80	0.011146188
43	0xbb2e6ea8	-0.002661625
44	0xb884d433	-6.333776e-05
45	0x3cae0547	0.02124275
46	0xbc3520ed	-0.011055213
47	0xbc20c632	-0.009812878
48	0x3c59077e	0.013246415
49	0xbcbbb350	-0.022912651
50	0xb92dae40	-0.00016563479
51	0x3c8ce081	0.017196896
52	0x3c24aa91	0.010050432
53	0x3c1d8821	0.009614975
54	0xbc503ae4	-0.012709353
55	0x3c30738a	0.010769734
56	0x3c58fc5e	0.013243763
57	0xbccb69aa	-0.024830658
58	0xbce8ad9f	-0.028403101
59	0xbc883956	-0.016628902
60	0xbce85176	-0.028359156
61	0x3cd21e64	0.025649257
62	0x3cc85c79	0.024458157
63	0xbd065b5e	-0.03280198
64	0xbc5aae0e	-0.013347162
65	0xbc0fec51	-0.00878437
66	0xbd2989ba	-0.041391112
67	0xbcba5ba0	-0.022748768
68	0x3cbb2873	0.022846436
69	0xbca82ff9	-0.020530688
70	0x3c7c3e68	0.015395738
71	0x3c9c12c7	0.019051922
72	0x3cc4588b	0.023968002
73	0xbca9bb27	-0.020719124
74	0x3b27d86a	0.002561117
75	0x3c574f34	0.013141442
76	0x3c59b57b	0.013287897
77	0xbc4cee15	-0.012507935
78	0x3c8dac7b	0.01729416
79	0xbcf9ce8b	-0.030493995
80	0xbd18457b	-0.037175637
81	0x3b23194a	0.00248869
82	0xbd007a69	-0.03136674
83	0x3cad23fd	0.021135325
84	0xbce500ce	-0.027954485
85	0xbd2685b6	-0.04065486
86	0x3ca41deb	0.020033797
87	0x3cd62c03	0.026144033
88	0x3cf0230b	0.029313585
89	0x3c1da52d	0.0096219005
90	0xbcf3126d	-0.029671872
91	0x3c268ed5	0.01016589
92	0xbc49b24a	-0.012310574
93	0xbcc17115	-0.023613492
94	0x3cc3cd61	0.023901643
95	0xbd3414a7	-0.043965008
96	0x3cedc32f	0.029023735
97	0xbccb39fb	-0.02480792
98	0x3bab285b	0.0052233166
99	0xbca0853e	-0.019594785
100	0x3cccc331	0.024995418
101	0xbbccddc0	-0.0062520206
102	0xbcca9e2d	-0.024733627
103	0xbc85e54e	-0.016344693
104	0xbca165d8	-0.019701883
105	0x3b72551d	0.0036977
106	0x3c96d5b1	0.018412443
107	0xbc5def30	-0.013545796
108	0xbc132cf0	-0.008982882
109	0xbc882bf4	-0.016622521
110	0xbb0fd03b	-0.0021944183
111	0xbc13e6a3	-0.009027156
112	0x3c4352a5	0.011921559
113	0xbc017b66	-0.007902956
114	0xbb08dd2d	-0.0020883784
115	0xbc89da1b	-0.016827634
116	0x3cc5f213	0.024163282
117	0xbd0ba53b	-0.034093123
118	0xbd27485f	-0.040840503
119	0x3bb77602	0.0055987844
120	0x3c42d3d0	0.01189132
121	0xbc928a43	-0.017888194
122	0xbce57cc2	-0.02801359
123	0x3d0833ad	0.033252407
124	0x3cccc8e7	0.024998141
125	0x3c378408	0.011200912
126	0xbcfef391	-0.031122
127	0x3c5f10ff	0.013614892
128	0xbc2c325a	-0.010510052
129	0x3b6bda7c	0.003598838
130	0x3c83a2ff	0.016068934
131	0xbcc28fdc	-0.023750238
132	0x3b2c1286	0.0026256158
133	0xbcdb97b5	-0.026805738
134	0x3d0194d0	0.03163606
135	0x3cdc0398	0.026857182
136	0x3c9028db	0.017597606
137	0x3a811cc7	0.0009850495
138	0xbcfa31ec	-0.030541383
139	0x3cbf058a	0.02331807
140	0x3caaf29e	0.020867642
141	0x3ca889af	0.020573465
142	0xbcba4d6b	-0.022741994
143	0x3ca348a1	0.019932093
144	0xbd15eca7	-0.036602642
145	0x3c8db79a	0.017299462
146	0xbcd84e65	-0.026404569
147	0xbd0dc6d7	-0.034613457
148	0xbce5f831	-0.028072448
149	0xbd0885c0	-0.03333068
150	0x3aec3abf	0.0018022879
151	0xbb1b3df0	-0.002368804
152	0xbd27cef1	-0.04096884
153	0x3ccc8af5	0.024968604
154	0xbcc870e7	-0.024467899
155	0x3cbacc2b	0.022802433
156	0xbd02ed78	-0.03196475
157	0x3bdf4b7c	0.0068144184
158	0x3c2fee3b	0.010737951
159	0xbd208815	-0.039192278
160	0xbcd59816	-0.026073497
161	0x3ca1852a	0.019716818
162	0x3ca41ce9	0.020033317
163	0xbc569f15	-0.013099452
164	0xbc45e907	-0.012079484
165	0xbccef0fe	-0.025261398
166	0x390aefa8	0.00013249984
167	0xbc347268	-0.011013605
168	0x3c169dd3	0.009192902
169	0xbca0c792	-0.019626413
170	0x3ac75f56	0.0015210907
171	0xbc72e04f	-0.014823987
172	0xbc64821d	-0.013947037
173	0xbd24c017	-0.040222254
174	0x39354392	0.00017286677
175	0xbcb93e00	-0.022612572
176	0xbbc3db52	-0.0059770728
177	0xbd29a8a2	-0.041420586
178	0xbc7917c6	-0.015203422
179	0xbcb2a277	-0.021805985
180	0xbd255882	-0.04036761
181	0xbcb1fd46	-0.021727215
182	0xbcef40eb	-0.02920576
183	0xbc46e7df	-0.012140243
184	0xbc842cbb	-0.01613461
185	0xbcf52069	-0.02992268
186	0x3c04277f	0.008066057
187	0xbc046b52	-0.008082228
188	0xbcc6fd91	-0.024290832
189	0x3b3774e9	0.0027993268
190	0xbd0db8b3	-0.03459997
191	0x3cb3567f	0.02189183
192	0x3c3bdb40	0.0114658475
193	0xbcc3afc4	-0.023887523
194	0x3ab66e41	0.0013918356
195	0xbd0b3405	-0.033985157
196	0xbc00f445	-0.007870738
197	0x3cffbfe9	0.03121944
198	0xbd290752	-0.041266747
199	0x3cf54dff	0.029944418
200	0xbb1bebce	-0.0023791674
201	0x3c0469c2	0.008081855
202	0xbad60544	-0.0016328474
203	0xbbefd614	-0.0073192213
204	0xbcd35457	-0.025797052
205	0xbc77d2c0	-0.01512593
206	0x3c1a3c90	0.009413853
207	0xbd09b2a8	-0.033617646
208	0xba928e37	-0.0011181299
209	0x3cd1591c	0.025555186
210	0xbc59c8e0	-0.013292521
211	0x3bcc67af	0.006237946
212	0x3baea1aa	0.0053293305
213	0xbcb45ad3	-0.022015965
214	0xbc7f1676	-0.01556932
215	0xb906af31	-0.000128445
216	0x3cdbb315	0.026818791
217	0xbd02fdda	-0.031980373
218	0xbb7e72c1	-0.0038825723
219	0x3c26f95b	0.010191287
220	0x3ceb342e	0.028711405
221	0x3c9b1c8f	0.018934516
222	0x3c9b6d6b	0.018973073
223	0xbc7035b9	-0.014661246
224	0xbd2c95cd	-0.04213505
225	0xbc1eb96e	-0.009687765
226	0x3cf4323e	0.029809114
227	0xbcaf3ecb	-0.021392247
228	0x3c0edc5c	0.00871953
229	0xbc842444	-0.016130574
230	0xbbec5ceb	-0.007213225
231	0x3c9a0b4e	0.018804219
232	0xbccfbcc7	-0.02535857
233	0x3cd542ec	0.026032887
234	0x3b98d99c	0.004664613
235	0xbc1f2038	-0.009712271
236	0xbc973d09	-0.018461721
237	0x3cbcce18	0.023047492
238	0xb80fa6b1	-3.42491e-05
239	0xbd2655ea	-0.040609278
240	0xbd1ae67b	-0.03781746
241	0xbd027b7d	-0.03185605
242	0x3c98e549	0.01866402
243	0xbd236ede	-0.039900653
244	0xbced91d5	-0.029000202
245	0xbb25b3c2	-0.0025284146
246	0xbc86dd38	-0.016462907
247	0xbc250e2f	-0.010074182
248	0xbbe99031	-0.0071277847
249	0xbcad2b76	-0.021138888
250	0x3c74932b	0.014927666
251	0x3cc7eca1	0.024404826
252	0x3c9b7810	0.018978149
253	0x3c1551cc	0.00911374
254	0x3cbf8a16	0.023381274
255	0x3cf29265	0.029610822

fc2.weight f4 [128, 256]
0	0xbb00f400	-0.0019676685
1	0x3d2cc478	0.042179555
2	0x3d07a9be	0.033120863
3	0xbd2e97e8	-0.042625338
4	0xbc918688	-0.017764345
5	0x3d79687c	0.06089066
6	0x3cfc0a0c	0.03076651
7	0xbbd2fcb0	-0.006438814
8	0xbaa56a80	-0.001262024
9	0x3cc133c0	0.023584247
10	0x3d539b50	0.05166179
11	0xbd2fc5d7	-0.042913284
12	0x3ca9a6e8	0.02070947
13	0xbc22b7b0	-0.00993149
14	0x3c1a1f40	0.009406865
15	0x3a7bdb00	0.00096075237
16	0xbcafa66c	-0.02144166
17	0xbcc84ba8	-0.024450138
18	0xbcd4ace4	-0.025961347
19	0xbd5b9c14	-0.053615645
20	0x3afcde40	0.001929231
21	0x3c975680	0.018473864
22	0xbd254f30	-0.040358722
23	0x3d750f90	0.059829295
24	0xbcd2972c	-0.02570685
25	0xbcf8b45c	-0.03035944
26	0xbd51b920	-0.05120194
27	0xbca14094	-0.019684114
28	0x3d728ca6	0.059216164
29	0xbab02cc0	-0.0013441071
30	0xbc0833b0	-0.0083131045
31	0x3a72f800	0.0009268522
32	0x3d4160cc	0.047211453
33	0x3c534848	0.012895651
34	0x3d36110e	0.04444986
35	0x3cd307bc	0.025760524
36	0xbcef49f0	-0.02921006
37	0x3cd27464	0.025690265
38	0xbd29554e	-0.04134112
39	0xbc705c38	-0.014670424
40	0x3b0021c0	0.0019551367
41	0x3c204670	0.009782419
42	0xbd32c798	-0.04364738
43	0x3da82fca	0.0821224
44	0xbd2d24bd	-0.042271364
45	0xbceeeed4	-0.029166616
46	0xbd68c428	-0.056827694
47	0x3d69932a	0.057025112
48	0xbd73bcf6	-0.05950638
49	0xbccace14	-0.024756469
50	0xbb8fe280	-0.0043910146
51	0xbd372dfa	-0.04472158
52	0xbce89468	-0.028391078
53	0x3ce7002c	0.028198324
54	0xbc58a6a8	-0.013223328
55	0xbd794196	-0.060853563
56	0x3d52fc0e	0.05150991
57	0x3d3d0520	0.046147466
58	0xbc836c20	-0.016042769
59	0xbd704076	-0.058655225
60	0x3cedefa0	0.029044926
61	0x3c3810c0	0.011234462
62	0xbd7996ba	-0.06093476
63	0xbd2fe154	-0.0429395
64	0x3d6f021c	0.05835162
65	0xbd5375d4	-0.05162604
66	0xbcd58b5c	-0.026067428
67	0xbcec4788	-0.028842703
68	0x3d404b94	0.046947077
69	0xbca37f44	-0.019958146
70	0xbd32ce26	-0.04365363
71	0x3acc1480	0.0015570074
72	0x3d1fafd4	0.038986042
73	0x3d2a7276	0.041613065
74	0xbd7399e8	-0.05947295
75	0x3d3737dc	0.044731006
76	0xbd64b59c	-0.05583726
77	0xbc684ac0	-0.014177978
78	0x3cbdc2e8	0.023164228
79	0xbd7f9444	-0.062397256
80	0xbd25cac0	-0.04047656
81	0xbd38115a	-0.044938423
82	0x3be84890	0.0070887282
83	0x3cae5bab	0.021283945
84	0xbd257544	-0.040395036
85	0x3d3e47ac	0.04645507
86	0x3cd4f3d0	0.025995165
87	0x3d55624d	0.0520957
88	0xbd00d1f2	-0.03145022
89	0x3cce8310	0.02520898
90	0xbd14257e	-0.036168568
91	0x3b182980	0.0023218095
92	0xbd77db18	-0.06051168
93	0x3c173688	0.00922931
94	0xbb9e68c0	-0.0048342645
95	0xbd3ea864	-0.04654731
96	0xbc710730	-0.014711186
97	0xbd4080fa	-0.046998
98	0xbd4c3214	-0.049852446
99	0xbd70a1f2	-0.058748193
100	0xbd6b4ab3	-0.057444286
101	0x3d1077a8	0.035270363
102	0x3d257e5c	0.04040371
103	0xbbb2ed80	-0.005460441
104	0xbc33a048	-0.010963507
105	0x3d40ae8a	0.047041453
106	0x3cc70ef4	0.024299122
107	0x3d06e132	0.032929607
108	0x3d12c732	0.0358345
109	0x3c897684	0.016780145
110	0x3d0f96fc	0.0350561
111	0x3c225b98	0.009909533
112	0x3ceb2b10	0.028707057
113	0x38377000	4.3734908e-05
114	0xbc1c1560	-0.009526581
115	0x3d0f91a4	0.035051003
116	0x3cdaa52c	0.026690088
117	0x3d4ddb14	0.050257757
118	0x3d3c20a8	0.04592958
119	0x3c7908b8	0.015199833
120	0xbcaa58d8	-0.020794317
121	0x3d0c7f4a	0.03430108
122	0x3bbb7c80	0.0057216287
123	0x3c210d38	0.009829812
124	0x3c8011b0	0.015633434
125	0xbc5f7550	-0.013638809
126	0xbc89f7fa	-0.016841877
127	0xbcb1ddae	-0.02171215
128	0xbc0c3048	-0.008556433
129	0xbc97a89b	-0.018513015
130	0x3d444a12	0.0479222
131	0xbd3a0650	-0.045416176
132	0x3d0bde89	0.034147773
133	0xbcc31334	-0.023812868
134	0x3cda8534	0.026674844
135	0x3c149768	0.009069301
136	0x3cdd9fe0	0.027053773
137	0xbd15a9bc	-0.036538824
138	0xbd4aa288	-0.049471408
139	0xbc74ccd0	-0.014941409
140	0x3d5b6c48	0.053570062
141	0x3d377518	0.044789404
142	0xbcbcb688	-0.023036256
143	0xbd41fe72	-0.0473618
144	0x3c9fd6cb	0.019511601
145	0x3d6f23f8	0.05838391
146	0x3cecb5fc	0.02889537
147	0xbd546056	-0.051849686
148	0x3cf217d4	0.029552378
149	0x3c655a00	0.013998508
150	0xbcac50ec	-0.02103468
151	0xbd11838e	-0.03552585
152	0x3d1bad2c	0.038006946
153	0x3c046988	0.008081801
154	0x3d466a84	0.048441425
155	0xb99b4a00	-0.00029619038
156	0x3cb9f310	0.022698909
157	0xbd03f6a4	-0.032217637
158	0xbd66cab6	-0.056345664
159	0x3d7ab690	0.06120926
160	0xbd7b0548	-0.061284333
161	0x3cf396bc	0.029734962
162	0x3bdd554f	0.0067545543
163	0xbd295de0	-0.04134929
164	0x3a611d00	0.000858739
165	0x3d00c0b8	0.03143379
166	0x3d0ec3a0	0.03485453
167	0xbc119be8	-0.008887269
168	0x3d37fb18	0.044917196
169	0x3c9899a4	0.018627949
170	0xbd27eb88	-0.040996104
171	0xbc85ca98	-0.016331956
172	0xbcbd8398	-0.023134038
173	0x3a7b0580	0.00095757097
174	0x3b06ada0	0.0020550266
175	0x3cc6137c	0.024179213
176	0x3d3c62ae	0.045992546
177	0xbbb8c410	-0.005638607
178	0x3a01d780	0.00049530715
179	0x351a0000	5.736947e-07
180	0x3c7e6b28	0.015528478
181	0xbc87de40	-0.01658547
182	0x3d74ea3f	0.059793707
183	0x3c85f964	0.01635427
184	0xbd6019a8	-0.054711968
185	0xbd090c04	-0.033458725
186	0xbd04c6b0	-0.032416046
187	0xbc8e5bac	-0.017377697
188	0x3c9c8708	0.019107357
189	0xbd228590	-0.039678156
190	0xbcec16b0	-0.028819412
191	0x3c943688	0.018092409
192	0xbd2e218e	-0.04251247
193	0xbc88742c	-0.016656958
194	0x3ce8f25c	0.028435878
195	0xbcda8a64	-0.026677318
196	0xbc82565c	-0.01591032
197	0xbc3f2318	-0.011666082
198	0xbc8db32c	-0.01729735
199	0xbcfe3888	-0.031032816
200	0x3cde8f20	0.027167857
201	0x3c75b908	0.014997728
202	0x3d77f83e	0.060539477
203	0x3c243358	0.010022007
204	0xbd2e8bd2	-0.04261381
205	0x3cf6ae10	0.030112296
206	0xbd134f6e	-0.035964422
207	0x3d684376	0.05670496
208	0xbca8590e	-0.020550277
209	0xbc64c520	-0.013963014
210	0xbc3de878	-0.011591069
211	0xbd3cbb52	-0.04607708
212	0x3d5dc242	0.054140337
213	0xbd1ea690	-0.038733065
214	0xbac0ca00	-0.0014708638
215	0xbc8dec88	-0.017324701
216	0xbc9ba830	-0.019001096
217	0x3c259f98	0.010108851
218	0xbba022e0	-0.00488697
219	0x3d39eeba	0.045393683
220	0x3d62ea08	0.05539897
221	0x3d2acdcc	0.04170017
222	0x3d429a1a	0.047510244
223	0xbd171616	-0.036886297
224	0xbd00ecec	-0.031475946
225	0xbc8146bc	-0.0157808
226	0x3c923214	0.017846145
227	0xbcacac30	-0.0210782
228	0x3b330240	0.0027314574
229	0xbd5b5a52	-0.053552933
230	0x3c927f20	0.017882884
231	0xbd533ab0	-0.05156964
232	0xbd048632	-0.03235454
233	0xbd25f8ae	-0.040520363
234	0xbccc1358	-0.024911568
235	0x3d0d6c7a	0.03452728
236	0xbb4c9c80	-0.003122121
237	0xbd93cdfb	-0.07217022
238	0x3bfe0a10	0.0077526644
239	0x3cbad85c	0.022808246
240	0xbd694ab2	-0.056956
241	0xbd261e32	-0.04055614
242	0x3ce4e3ac	0.027940594
243	0x3cfc53ac	0.030801617
244	0xbd5df2d4	-0.054186657
245	0xbcc60fe0	-0.024177492
246	0xbd386b1e	-0.04502403
247	0xbd2224ae	-0.03958576
248	0x3ab430c0	0.0013747439
249	0x3b140080	0.0022583306
250	0xbd61a02a	-0.055084385
251	0xbba152f0	-0.004923217
252	0x3c9da87c	0.019245379
253	0x3d6d63d6	0.05795654
254	0xbd388de8	-0.045057207
255	0x3c93413c	0.017975442

fc2.bias f4 [128]
0	0xbd43c88a	-0.04779867
1	0xbcf94de2	-0.030432645
2	0xbd2b7b72	-0.041865773
3	0xbb1e1658	-0.0024122205
4	0xbd43bd78	-0.047788113
5	0xbc32d02f	-0.010913893
6	0xbc81e675	-0.01585696
7	0xbaf1666a	-0.0018417363
8	0xbba79a30	-0.005114816
9	0xbba1f468	-0.0049424656
10	0xbba1fc47	-0.004943404
11	0xbb22a76c	-0.002481903
12	0xbd4a5429	-0.049396668
13	0xbd47d4ed	-0.048787046
14	0xbbbdb965	-0.005789923
15	0xbb3d80f5	-0.0028915976
16	0xbc3df2b7	-0.011593512
17	0xbd09ded7	-0.033659782
18	0xbb3df4f4	-0.0028985115
19	0xbb13c7d8	-0.0022549536
20	0xbc023597	-0.007947347
21	0xbbe266f1	-0.006909244
22	0xbd498daa	-0.049207367
23	0xbb9f3760	-0.004858896
24	0xbd6f9c0c	-0.058498427
25	0xbd567ca3	-0.052364957
26	0xbc646f18	-0.013942502
27	0xbd57670f	-0.05258852
28	0xbb2ca589	-0.0026343784
29	0xbc51cdbe	-0.0128054
30	0xbbd4ef58	-0.0064982586
31	0xbc9b1bd1	-0.018934162
32	0xbbde1650	-0.006777562
33	0xbd4fd064	-0.050735846
34	0xba78db76	-0.00094931514
35	0xbc4a7f08	-0.012359388
36	0xbd50dc82	-0.050991543
37	0xbb57143b	-0.0032818455
38	0xbd78517d	-0.06062459
39	0xbc8ed567	-0.017435743
40	0xbd9621f2	-0.07330693
41	0xbc495a49	-0.012289592
42	0xbc8d4059	-0.017242597
43	0xbda9a9d4	-0.08284345
44	0xbae537fb	-0.0017487997
45	0xbd98466b	-0.07435306
46	0xbc883b73	-0.01662991
47	0x3ce2a083	0.027664429
48	0xbcfd464b	-0.030917307
49	0xbaad4afa	-0.0013221197
50	0xbc902b53	-0.017598784
51	0xbd8bbb26	-0.06822805
52	0xbc216dc0	-0.009852827
53	0xbd785362	-0.060626395
54	0xbb3c7160	-0.00287541
55	0xbc001ba2	-0.007819088
56	0xbac3bf2d	-0.0014934294
57	0xbbecb417	-0.007223617
58	0xba31ea44	-0.00067869225
59	0xbc026b19	-0.007960104
60	0xbcf89b07	-0.03034736
61	0xbc9f036b	-0.01941081
62	0xbd3b1d82	-0.045682438
63	0xbbae5f3b	-0.005321411
64	0xbca761c3	-0.020432359
65	0xbae8db49	-0.0017765547
66	0xbd7c5252	-0.061601944
67	0xbd16e6f0	-0.036841333
68	0xbb9f128b	-0.0048545054
69	0xbd9fcc57	-0.078026466
70	0xbbbd2c48	-0.005773101
71	0xbb83a12f	-0.0040170173
72	0xbd092170	-0.033479154
73	0xbb4dcf25	-0.0031403985
74	0xbd1ba089	-0.037994895
75	0xbbe58d8c	-0.007005399
76	0xbccdf905	-0.025143156
77	0xbce52844	-0.027973302
78	0xbb194e67	-0.0023392679
79	0xbd91d7c8	-0.07121235
80	0xbc6df090	-0.014522687
81	0xbb877e71	-0.004134946
82	0xbbcd1477	-0.006258543
83	0xbd8a23af	-0.06745087
84	0xbb7da109	-0.003870072
85	0xbb2eb1cb	-0.0026656266
86	0xbc8b53b7	-0.017007692
87	0xbd414ce9	-0.047192488
88	0xbd03aaf5	-0.03214546
89	0xbb4251e7	-0.0029650868
90	0xbcdb7ccf	-0.026792912
91	0xbb167e3f	-0.0022963432
92	0xbc2ee7a0	-0.010675341
93	0xbc948cb2	-0.018133495
94	0xbc14ca99	-0.009081506
95	0xbc5bb5f7	-0.013410083
96	0xbd92c188	-0.071658194
97	0xbbb28eb7	-0.005449142
98	0xbb357d7e	-0.0027693207
99	0xbc4b75b6	-0.012418201
100	0xbc06fc1e	-0.00823882
101	0xbcef249d	-0.029192263
102	0xbb03bf81	-0.002010316
103	0xbd38ec43	-0.04514719
104	0xbadeae99	-0.001698929
105	0xbb78b0f0	-0.003794726
106	0xbd8e3583	-0.069438
107	0xbcda620f	-0.026658086
108	0xbb5f5139	-0.0034075512
109	0xbc9055e0	-0.017619073
110	0xbc77c5f1	-0.0151228765
111	0xbc116a82	-0.008875491
112	0xbbc85a77	-0.0061143
113	0xbbb22e6d	-0.0054376633
114	0xbbb14ca9	-0.00541075
115	0xbbacac3b	-0.005269555
116	0x3c0357ad	0.008016509
117	0xbb8f5efe	-0.0043753376
118	0xbd89754a	-0.06711824
119	0xbd4ba5bc	-0.049718603
120	0xbd18045f	-0.037113544
121	0xbd62a2c5	-0.05533101
122	0xbc20778a	-0.009794125
123	0xbd08b796	-0.033378206
124	0xbcb8cee3	-0.022559589
125	0xbbf2305d	-0.0073910193
126	0xbcadca6a	-0.021214683
127	0xbb1c99fa	-0.0023895488

fc3.weight f4 [10, 128]
0	0xbd0cd154	-0.03437932
1	0x3cf66fc3	0.030082589
2	0x3d3ec7ce	0.046577267
3	0x3c951041	0.018196227
4	0xbcfa9491	-0.03058842
5	0x3d780c21	0.060558442
6	0x3d797e3d	0.060911406
7	0x3ce6ad0a	0.028158683
8	0x3cef268a	0.029193182
9	0x3d1b5e29	0.037931595
10	0x3cb1ca72	0.021702979
11	0xbdb6ecc8	-0.08931881
12	0x3d4bec35	0.04978581
13	0xbcfd6d2e	-0.03093585
14	0xbc859ffa	-0.016311634
15	0xbd140426	-0.03613677
16	0x3d500014	0.050781325
17	0x3daa0cc3	0.08303215
18	0xbc753277	-0.014965645
19	0x3cc02da9	0.023459272
20	0xbd680ba8	-0.05665174
21	0x3d858f76	0.065215036
22	0x3d9e75ef	0.07737338
23	0x3d194802	0.037422188
24	0xbd5d36d6	-0.054007374
25	0x3c8e5243	0.01737321
26	0x3d79e2e1	0.061007384
27	0x3d8e1edb	0.06939479
28	0xbd8e19c7	-0.069385104
29	0x3b052303	0.0020315058
30	0x3ccefb94	0.025266446
31	0xbc0024cd	-0.007821274
32	0x3b88c39e	0.00417371
33	0xbd806afa	-0.06270404
34	0xbdb1ec1b	-0.08687612
35	0x3d1c08fd	0.03809451
36	0x3d13949d	0.0360304
37	0xbcd14b3c	-0.02554857
38	0xbba9406b	-0.00516515
39	0x3cbd5667	0.023112489
40	0xbd67a58f	-0.056554373
41	0x3db9a18e	0.09064017
42	0x3d11f7c3	0.035636675
43	0xbd3e6879	-0.04648635
44	0xbd031a90	-0.032007754
45	0xbd3cdeb7	-0.046110835
46	0x3d1b041d	0.03784572
47	0xbdb87da7	-0.09008341
48	0xbcfd8b41	-0.03095019
49	0xbdb357f7	-0.08757012
50	0x3d6f2ffa	0.058395363
51	0xbd5678ed	-0.052361418
52	0x3d2b7e73	0.04186864
53	0x3d47cdb4	0.04878016
54	0xbda3adc4	-0.079921275
55	0x3bb5a3ea	0.0055432217
56	0xbd20395e	-0.03911721
57	0x3d760d06	0.060071014
58	0x3d22634f	0.03964549
59	0xbd8d5eec	-0.069028705
60	0x3d9275e3	0.07151391
61	0x3d01d444	0.031696573
62	0x3ae0bb23	0.0017145615
63	0x3bc736e8	0.0060795434
64	0xbd87613f	-0.06610345
65	0x3d0e501b	0.034744363
66	0x3c3bfd91	0.011474029
67	0x3ce87d25	0.028379986
68	0x3d2be1ff	0.041963574
69	0xbd844b4b	-0.064596735
70	0xbda0b2ae	-0.078465804
71	0xbd0e8211	-0.03479201
72	0xbdb9af41	-0.0906663
73	0xbd247ec2	-0.04015995
74	0xba87beb9	-0.0010356522
75	0x3dafa4d5	0.08576361
76	0xbd890191	-0.06689752
77	0x3d997cbf	0.074944966
78	0x3cea550d	0.028605008
79	0x3d442ce4	0.047894374
80	0x3d1c0d24	0.03809847
81	0xbd0c44e2	-0.03424538
82	0x3cf31dbc	0.029677264
83	0x3c1dd616	0.009633562
84	0xbc487ae8	-0.012236334
85	0xbb47d8c3	-0.003049419
86	0xbd8b2edb	-0.06796046
87	0x3da93ccf	0.082635514
88	0x3d1c6aed	0.03818791
89	0xbd78cd3c	-0.0607426
90	0xbd607337	-0.054797377
91	0x3d03d146	0.032182
92	0x3da4173b	0.08012243
93	0xbdc644d4	-0.09681097
94	0x3d3763b9	0.044772837
95	0x3d8c4023	0.068481706
96	0xbd65f929	-0.05614582
97	0xbc599696	-0.013280531
98	0xbd17117e	-0.036881916
99	0x3bc97f80	0.0061492324
100	0x3c872579	0.01649736
101	0x3cf781cb	0.030213257
102	0xbd654f78	-0.05598399
103	0xbd5f75fd	-0.05455588
104	0xbd7d7351	-0.061877552
105	0xbd049004	-0.032363907
106	0x3b83a36c	0.004017284
107	0x3d67d34d	0.056597997
108	0x3d223785	0.03960373
109	0xbd8c75b9	-0.06858391
110	0xbda6fc22	-0.08153559
111	0x3caaa09a	0.020828534
112	0x3d588c3e	0.05286812
113	0xbb3633a9	-0.0027801788
114	0x3c47db97	0.01219835
115	0x3d4565ca	0.048192777
116	0xbd97e1eb	-0.07416137
117	0xbbd3a784	-0.0064591784
118	0xbd7dda82	-0.061975963
119	0xbc77219a	-0.015083695
120	0x3d054c79	0.032543633
121	0xbd81c45c	-0.06336281
122	0xbd446d76	-0.047955953
123	0xbd1d3a06	-0.038385414
124	0xbd00a33e	-0.03140568
125	0xbd6a4933	-0.057198714
126	0x3d4d3e73	0.050108384
127	0xbd6b9032	-0.057510562
128	0x3dc0a4ce	0.09406434
129	0xbcbbdb19	-0.022931622
130	0x3ca280e8	0.019836858
131	0x3d58182b	0.052757423
132	0x3ca867b8	0.02055727
133	0x3ba9be82	0.005180181
134	0x3c133ced	0.008986694
135	0x3dbca41c	0.09210989
136	0x3d3a3b2b	0.045466583
137	0xbc816e94	-0.015799798
138	0xbcf7a1fe	-0.030228611
139	0xbce5ac1d	-0.028036172
140	0xbda6459a	-0.08118744
141	0xbd35459d	-0.04425584
142	0xbd0af111	-0.033921305
143	0xbd1b4f9d	-0.037917722
144	0x39940ec8	0.00028239773
145	0x3d653df8	0.0559673
146	0x3c079a82	0.008276584
147	0x3db08cbd	0.08620594
148	0x3d12b40c	0.035816237
149	0xbd4e2269	-0.050325785
150	0x3d38e076	0.045135938
151	0xbd55b32f	-0.052172836
152	0xbca4d221	-0.020119729
153	0x3d7b7f47	0.061400678
154	0xbd563c07	-0.05230334
155	0x3d4a5346	0.049395822
156	0xbcfc1e63	-0.030776208
157	0xbd1dd8c9	-0.03853682
158	0xbbb48eed	-0.005510202
159	0xbd8018c5	-0.062547244
160	0xbd8e5a99	-0.06950874
161	0xbda9e74e	-0.08296071
162	0x3c805b57	0.015668554
163	0xbd085839	-0.03328726
164	0x3d7dbd0c	0.061947867
165	0x3d04ca59	0.032419536
166	0xbc0f9464	-0.008763406
167	0x3d0d041d	0.03442775
168	0x3d0e9df9	0.034818623
169	0xbcedb5a0	-0.02901727
170	0xbd21036a	-0.039309897
171	0x3d8ed295	0.06973759
172	0xbcd28aaa	-0.025700886
173	0xbbaff388	-0.0053696074
174	0xbcc7d8df	-0.024395404
175	0x3dd1f076	0.102509424
176	0x3d0a697e	0.03379201
177	0xbd5db341	-0.054126028
178	0x3c7a7afe	0.015288113
179	0x3d000d03	0.03126241
180	0xbd2862ba	-0.041109778
181	0xbc159829	-0.009130516
182	0xba85bb84	-0.0010202979
183	0x3d7571be	0.059922926
184	0x3d066059	0.032806728
185	0xbce516e1	-0.027965011
186	0xbc239817	-0.0099849915
187	0x3b2a9064	0.0026026005
188	0x3cf10435	0.029420951
189	0xbd77cdd1	-0.060499016
190	0xbd76a9ca	-0.060220517
191	0x3db29ed4	0.087217
192	0x3d92c0b7	0.07165664
193	0xbd559ac1	-0.052149538
194	0x3aabab3d	0.0013097298
195	0xbd85e72f	-0.065382354
196	0xbcb76388	-0.022386327
197	0x3d993dfb	0.07482525
198	0x3d0be4fa	0.034153916
199	0xbd0f7530	-0.035023868
200	0xbda0d800	-0.07853699
201	0x3d694e1b	0.056959253
202	0x3ce9917f	0.02851176
203	0xbd92b3cf	-0.07163202
204	0x3cf014e7	0.029306842
205	0xbd4a4daa	-0.049390472
206	0xbd94ffeb	-0.07275375
207	0x3c604548	0.013688393
208	0x3d442aeb	0.047892492
209	0x3d6889fd	0.05677222
210	0x3ce27c19	0.027647065
211	0x3c69190a	0.014227161
212	0x3d8014c1	0.062539585
213	0x3ce3dd33	0.027815437
214	0x3d7024ed	0.058628965
215	0xbc752e70	-0.014964685
216	0xbc2b33e7	-0.010449386
217	0x3c079e11	0.008277432
218	0xbd8ebdff	-0.06969833
219	0xbd986b22	-0.07442309
220	0xbd2dfae1	-0.042475585
221	0xbc862b59	-0.016378092
222	0x3d1d5bf3	0.038417768
223	0x3d8af356	0.06784694
224	0xbd5081e3	-0.05090512
225	0x3c8e2879	0.017353283
226	0x3d92048b	0.07129773
227	0x3d50c9f5	0.05097385
228	0x3d13394b	0.03594331
229	0xbd72d218	-0.059282392
230	0x3cd73660	0.026271045
231	0x3aee756d	0.0018192955
232	0x3da437a7	0.08018427
233	0x3c881f14	0.016616382
234	0x3c441c6c	0.011969667
235	0x3d60a2eb	0.05484287
236	0x3d013359	0.03154311
237	0x3be6d4c4	0.0070444066
238	0xbcbe0c4a	-0.02319922
239	0x3ce97023	0.028495854
240	0x3ca831b3	0.020531511
241	0x3db4d070	0.08828819
242	0x3ce6baf2	0.028165314
243	0x3d2d7157	0.042344417
244	0x3d9459eb	0.07243713
245	0xbbb301fc	-0.005462883
246	0xbd59138e	-0.052997164
247	0x3d1d23b5	0.03836413
248	0xbd73ad7f	-0.05949163
249	0xbd30ae48	-0.043134958
250	0x3d1e88ee	0.038704805
251	0x3dbc539c	0.09195635
252	0xbcdb7453	-0.026788866
253	0xbd493ef5	-0.049132306
254	0x3c1779db	0.009245361
255	0xbd41fa32	-0.047357745

fc3.bias f4 [10]
0	0x3c840025	0.01611335
1	0x3cc7e85c	0.02440279
2	0x3b813e57	0.003944199
3	0xbbe52fdd	-0.006994231
4	0x3c322254	0.010872442
5	0x3d14dd4d	0.03634386
6	0xbc8c8488	-0.01715304
7	0x3ba9e133	0.0051843165
8	0xb9c68242	-0.00037862553
9	0x3be7b0e7	0.007070649
