AI/best_optimized_model.pth (torch, 622698 bytes, 14 tensors)

fc1.weight f4 [160, 784]
00000000: 8c40 3abc 750e ffba aacb 073c 39e1 393c
00000010: 2de6 de3c 25c8 fd3c 1b83 a33c 4029 22bb
00000020: 2946 c0bc e3a7 0bbc 1e62 913c 8c36 873c
00000030: 85a7 673d 21a6 863d 407d 4a3d 3298 a23c
00000040: 2bd3 443d 6085 b33c d22d 19bc a2f9 f8bc
00000050: c4ae a2bc 21e7 0abd d489 debc a0bd 25bd
00000060: 48d4 f0bb 5235 5b3c c04c 2abc a049 22bc
00000070: 221e f3bb a98e c6bb 6fe9 82b9 552e 583b
00000080: 80d7 4b3d fbbe 343d 90d1 5d3c b685 2c3a
00000090: f469 5d39 1f77 91bb 6b74 0abd 25fd 53bd
000000a0: 2d37 083c 441a 153c b97e 053d 7311 f63c
000000b0: aa3d 1b3c 7166 bcbc 4ece 3cbd 5190 13bd
000000c0: e70e 1ebd 473f 66bc c683 45bc 5fc1 b8bb
000000d0: 5dcb 3f3c 02be e13c ce4f 1d3c ad17 33bc
000000e0: 0934 44bc 4e82 2ebc f133 a33a 72f5 f23c
000000f0: 043d 8a3d 5bda 443d af23 803c 4872 783c
00000100: 0a56 9cbc d518 1cbd f463 57bd 49bc 10bd
00000110: bdee 4d3c 51c6 eb3c a285 223d 1e32 3d3d
00000120: e5b3 263d e0cb 8f3c 17d9 98bc 2d4b a5bc
00000130: 646d c0bc 5adc 8fbb e00b 8bbc 32e3 d53c
00000140: 8e20 1d3c 08e7 4f3c 08a7 a33c 31f2 0c3b
00000150: e742 0cbb eeea c7bb 6947 c03c 08d0 873d
00000160: 37a5 c73d 83da 3b3d 9e21 063c a1c7 313c
00000170: f0c3 44bd 3c21 7ebd 02ed 88bd 2267 8fbc
00000180: 51f6 c13c 0ecc 023d 1fff 853d bfff 4d3d
00000190: a43f 0b3c fb46 813c 4f7b 45bc 40f7 03bc
000001a0: 5fef a8bb ca3e 68bc 72fc c9bb 4aad cb3c
000001b0: a5fd 343d 16b8 c43c f1f2 143d 5e2e b4bb
000001c0: a243 20bc 33b5 253c f378 2a3d 03c4 7e3d
000001d0: 860e be3d 9051 083d 57c6 ea3c 383d b4bb
000001e0: 0f45 42bd 0ea1 65bb a249 0a38 ad98 a73b
000001f0: 1a24 9b3c 0594 683d 2e1d a03d 7f92 733d
00000200: 695b 5e3d 2e45 543d 4dea b53c 37d7 a63c
00000210: e340 2f3c d70c ef3b fe67 513c 80dd 383d
00000220: 2592 df3c c20a 203d 342c 293d 2c39 56b9
00000230: c738 84bc 7ca2 733c faec 5a3d e171 563d
00000240: 1bc9 773d 4af9 173d 27ed 133d f073 83ba
00000250: 5c37 7bbc 26e2 a33c cdb0 0ebd 1cba 9fbc
00000260: fb80 203b db73 ed3c 3d98 2f3d e107 b43c
00000270: 5a20 873c 82ef b13c f55c dcbb 911f 13bd
00000280: 6d52 f2bb 33a1 ad3c 13c8 cc3c 6028 fe3c
00000290: 3ceb 963c 1d37 273d b722 373d 80a4 453c
000002a0: cdfd 08bd d873 1cbc 944d f33c c329 f03c
000002b0: 7a02 923d 078e ad3c a6a0 433d 1c28 80bb
000002c0: 2e17 0bbd 1d5c 5f3c c972 dabc 3fa4 6bbd
000002d0: 1141 42bd 3fed dbbc 53ae 23bb e0d7 073c
000002e0: 1a70 40ba 34ee c23b 1bd3 29bc 5a63 fbbb
000002f0: d7b8 773b 1abc 263b 7769 ed3c 258c 543d
00000300: b530 cf3c d567 f13c 9377 9a3d 1c16 e2b9
00000310: aada 3abd 0509 a5bc 4d14 41bc e9e7 92ba
00000320: 4a79 033d 7753 873c 3cd2 d33c d85e 25bd
00000330: 6212 78bd 0403 50bc dfca 79bd 2448 72bd
00000340: c3b8 95bd f160 37bd 5be5 13bd 8191 8cbc
00000350: 33c3 b6bc 1ac7 2dbd e786 1fbd 0c2a 19bd
00000360: d948 f1bc 3e46 03bd 3315 ae3b b24c 003c
00000370: a8b9 493d 694d fa3c e5e6 6b3d 201f 48bb
00000380: a208 4dbd 07b6 d5bb 173c 35bc d36b 433c
00000390: 9858 d23c 4928 f43c c9c9 223d 849b 0fbd
000003a0: 3f5c 4cbd 5d83 9fbc 6754 89bd 3fb8 95bd
000003b0: 0195 5fbd 9669 a0bd 8be2 26bd 619c 48bd
000003c0: 54f3 26bc 65f8 83bc 512c 10bd d3a9 ebbc
000003d0: 4baf 30bd 9322 2bbd 60e1 7abc 6a52 35bc
000003e0: 0471 2d3d 5898 b13c 833f dd3c caa0 19bc
000003f0: 7a44 0bbd a0bc 073d 0a51 18bc 679e d13c
-0.011367928 -0.0019459265 0.008288303 0.011345201 0.027209366 0.030979225 0.019959977 -0.0024743825
-0.023470955 -0.008523914 0.017746981 0.016505502 0.056556243 0.06574655 0.049435854 0.019847963
0.048052948 0.021914184 -0.009349303 -0.030392472 -0.019858725 -0.033911828 -0.027165331 -0.040464044
-0.0073495246 0.013379412 -0.010394275 -0.009905249 -0.0074193636 -0.006059487 -0.00024969454 0.00329866
0.049766064 0.044127446 0.013538733 0.0006581204 0.00021115673 -0.004439249 -0.03380243 -0.05175509
0.008313936 0.0091005005 0.032591555 0.030037617 0.009475151 -0.022998067 -0.046095185 -0.036026303
-0.03858843 -0.014053172 -0.012055343 -0.005638286 0.0117062 0.027556423 0.009601546 -0.010930938
-0.011975297 -0.010651184 0.0012451393 0.029658053 0.06749919 0.048059803 0.015642015 0.0151639655
-0.019083995 -0.03810962 -0.052585557 -0.035335813 0.012569127 0.028781088 0.039678223 0.046190374
0.040698905 0.01755327 -0.018658204 -0.020177448 -0.023489662 -0.0043902816 -0.016973436 0.026109312
0.009590281 0.0126893595 0.019977108 0.0021506662 -0.0021402182 -0.006101004 0.023471551 0.06631476
0.09748309 0.045862686 0.008186726 0.010850818 -0.048038423 -0.062043414 -0.06685831 -0.017505232
0.023677023 0.031932883 0.06542801 0.050292727 0.00849906 0.015780916 -0.012053325 -0.008054554
-0.0051554884 -0.014175126 -0.006164127 0.024862904 0.044187207 0.02401356 0.0363645 -0.0054986915
-0.00978175 0.010114002 0.041619252 0.06219865 0.09280114 0.03328091 0.028659029 -0.005500462
-0.04742914 -0.0035038623 3.297034e-05 0.005114636 0.018938113 0.056781787 0.078180656 0.05946588
0.054286394 0.051823787 0.02220645 0.020366294 0.010696623 0.007295232 0.012781141 0.045133114
0.027291367 0.03907276 0.04130192 -0.00020429929 -0.016140355 0.014870282 0.053448655 0.052354697
0.060494523 0.037102975 0.036114838 -0.0010029059 -0.015333023 0.020005297 -0.03483658 -0.019497924
0.002449094 0.028985908 0.042869795 0.021976413 0.016494919 0.021720652 -0.0067249485 -0.035918776
-0.00739508 0.02119503 0.024997747 0.031025112 0.018422715 0.040824044 0.04471084 0.012063146
-0.03344517 -0.009549104 0.029700078 0.029316789 0.071293786 0.021185888 0.04776063 -0.0039110314
-0.033957653 0.013632801 -0.026666062 -0.057529684 -0.047425333 -0.026846526 -0.0024975732 0.008291215
-0.0007340923 0.005948806 -0.010365273 -0.0076717557 0.0037799382 0.0025441707 0.028980954 0.051891465
0.02529178 0.029468456 0.07542338 -0.00043122552 -0.04561869 -0.020145902 -0.011784625 -0.0011208031
0.032098092 0.016519291 0.025857083 -0.040373653 -0.060564406 -0.0126960315 -0.06098449 -0.05915083
-0.07310631 -0.044770185 -0.036107402 -0.017159225 -0.022309875 -0.042426206 -0.038947012 -0.037393615
-0.029453682 -0.03204941 0.0053125857 0.007830786 0.04924932 0.03055449 0.057593245 -0.003053613
-0.05005706 -0.0065219435 -0.01106169 0.011927563 0.02567701 0.029804366 0.03974322 -0.03506042
-0.04989266 -0.019471819 -0.067055516 -0.07310533 -0.05458546 -0.07832639 -0.040743392 -0.04897726
-0.01018985 -0.016109655 -0.035198513 -0.028767502 -0.043135922 -0.04178102 -0.015312523 -0.011067012
0.04234411 0.021679088 0.027007824 -0.009376714 -0.03400085 0.03313887 -0.009296665 0.025588227

fc1.bias f4 [160]
00000000: e1ee ba36 eae0 b136 dfa0 d4b5 3e3a 6a36
00000010: 7452 9836 d077 4b35 5502 a536 8f0b 86b6
00000020: 379e 0336 1d39 b4b5 7920 8fb6 5f5d 1fb6
00000030: 033b 2b36 adb1 b836 90e1 d634 a0a7 c2b4
00000040: 368c a736 36eb f2b6 1be8 0e36 8f51 83b6
00000050: 8fb0 3233 1773 2ab6 4751 9e36 ae7b 2835
00000060: d369 2036 95e9 e935 005a a836 e502 3a36
00000070: f504 0db7 7bc2 1ab6 8086 2936 707a b135
00000080: 890a a8b5 a5fb f8b6 997d 68b6 3ed9 02b6
00000090: b71c 1cb6 cc79 9fb5 fd27 b536 ccdd 86b6
000000a0: 7de0 e1b6 7d5e 30b6 5fae 95b5 5da2 f0b6
000000b0: 9771 3f36 b544 aab6 47a6 2835 07af c0b6
000000c0: da54 54b5 5d18 c235 b6be a3b5 5ec7 2536
000000d0: e6a3 86b6 9b91 1c35 0b66 c2b5 f4ad f2b6
000000e0: c824 9536 cc5d 5f36 043b 19b7 c0ca b236
000000f0: df56 89b6 6c05 8936 5aca 6bb7 1ee3 c036
00000100: 1b7d b8b6 dd2b c3b6 058d 6eb6 0610 9536
00000110: 8fca ab34 c19a 9f36 13e3 ac35 f988 18b5
00000120: 4d66 2736 a970 8736 0c34 c9b6 3333 5eb6
00000130: acb1 2ab7 d898 08b7 db8e feb6 08fa 1c36
00000140: e1fd c0b5 c2e7 8ab5 a09c 19b6 e712 1f36
00000150: fe7c 8a36 60dd 13b5 e8fc a336 17e9 cf36
00000160: fc13 95b5 9fb6 42b6 c703 8136 8e27 ba35
00000170: c9c7 0435 be9c 23b5 2603 7336 09ab 7537
00000180: 26a4 8836 61f2 e635 6c1a 2cb6 218a efb5
00000190: c2fb 59b6 efd8 e5b5 3f69 31b5 b5cf 8cb5
000001a0: 5b88 38b6 6126 a836 bb21 66b4 c8a1 17b6
000001b0: 1c8c 2d36 0a7f df36 49e1 6fb6 3336 e3b5
000001c0: 81b4 9eb5 0a66 3537 b4c5 ce35 8a9b 4fb6
000001d0: c8f7 30b6 986c a136 2e2c 3e36 1723 b935
000001e0: 3f29 feb3 dc1c 0ab6 3e86 6936 e576 d336
000001f0: 7c31 42b6 b856 24b5 a7a4 1036 18c7 82b6
00000200: 61e0 f8b5 501a 4eb5 6a90 f2b5 1554 6536
00000210: 8dc7 9c36 2657 6f36 8c30 8036 54d3 21b6
00000220: dae5 a136 fca7 1837 4f69 1fb6 8300 4236
00000230: 4b37 0a37 5cbf 9b36 934a b435 cbbc 23b6
00000240: 4e24 3537 50f3 d2b5 8e4e 0a36 55b7 8935
00000250: cce5 0ab6 7426 9ab6 f14c 5637 35db d135
00000260: 9e53 96b4 e732 a836 7d08 2cb4 bb10 00b3
00000270: 6aac 0b36 3ab7 42b7 41e4 61b6 4999 0736
5.571041e-06 5.3011945e-06 -1.584205e-06 3.4902619e-06 4.539552e-06 7.5797743e-07 4.9176547e-06 -3.994857e-06
1.9612614e-06 -1.3427667e-06 -4.2655124e-06 -2.3747195e-06 2.5515335e-06 5.5043115e-06 4.0024725e-07 -3.625728e-07
4.9933105e-06 -7.239544e-06 2.1294752e-06 -3.913599e-06 4.1604434e-08 -2.5398965e-06 4.718229e-06 6.2764855e-07
2.3903456e-06 1.7427834e-06 5.0172675e-06 2.7717845e-06 -8.405409e-06 -2.306099e-06 2.5261252e-06 1.3223162e-06
-1.2520042e-06 -7.4202712e-06 -3.4643801e-06 -1.9497961e-06 -2.3262526e-06 -1.1881871e-06 5.3988756e-06 -4.0193318e-06
-6.7316564e-06 -2.6281043e-06 -1.1152114e-06 -7.171459e-06 2.8527336e-06 -5.0743934e-06 6.282684e-07 -5.7424218e-06
-7.909963e-07 1.4461217e-06 -1.219995e-06 2.4702963e-06 -4.0125915e-06 5.832641e-07 -1.4483825e-06 -7.232413e-06
4.444828e-06 3.3284186e-06 -9.133251e-06 5.3284166e-06 -4.0930313e-06 4.0835494e-06 -1.4054205e-05 5.748486e-06
-5.4981915e-06 -5.816559e-06 -3.5546848e-06 4.4424114e-06 3.1998613e-07 4.756585e-06 1.2881086e-06 -5.6823734e-07
2.4944486e-06 4.036429e-06 -5.996326e-06 -3.311038e-06 -1.0174157e-05 -8.141818e-06 -7.5864205e-06 2.3391349e-06
-1.4379003e-06 -1.0349252e-06 -2.2889944e-06 2.370385e-06 4.1272715e-06 -5.508391e-07 4.8872207e-06 6.196216e-06
-1.1107181e-06 -2.9014552e-06 3.8449393e-06 1.3869592e-06 4.946456e-07 -6.095032e-07 3.6211654e-06 1.464296e-05
4.0722252e-06 1.7206877e-06 -2.5645377e-06 -1.7847088e-06 -3.2482062e-06 -1.7124966e-06 -6.609079e-07 -1.0491264e-06
-2.7497506e-06 5.011258e-06 -2.143269e-07 -2.2594922e-06 2.5860563e-06 6.660707e-06 -3.5744908e-06 -1.6928592e-06
-1.1824451e-06 1.08121985e-05 1.5405735e-06 -3.093594e-06 -2.6370271e-06 4.810816e-06 2.8337922e-06 1.3793787e-06
-1.1835299e-07 -2.05804e-06 3.4797845e-06 6.302131e-06 -2.8937056e-06 -6.1220953e-07 2.1553512e-06 -3.8974795e-06
-1.8542743e-06 -7.677927e-07 -1.8072435e-06 3.4172601e-06 4.672393e-06 3.5664502e-06 3.820349e-06 -2.4113879e-06
4.824932e-06 9.099018e-06 -2.3754144e-06 2.890855e-06 8.238315e-06 4.641637e-06 1.3432749e-06 -2.4398785e-06
1.0796894e-05 -1.5717033e-06 2.0609327e-06 1.0260652e-06 -2.0697362e-06 -4.594034e-06 1.2773308e-05 1.5635511e-06
-2.8000517e-07 5.012716e-06 -1.6021836e-07 -2.981754e-08 2.0812972e-06 -1.1605962e-05 -3.3660474e-06 2.0205791e-06

bn1.weight f4 [160]
00000000: 7536 033f b23c d43e ea6a ce3e 874d ce3e
00000010: 6478 053f ea34 033f f743 f33e 0552 a93e
00000020: b60e 093f d952 eb3e cf8a eb3e 2a15 fb3e
00000030: da91 e93e f808 d23e 0f25 d43e 2fbf ee3e
00000040: f1f4 ee3e 2270 d13e a762 dd3e 1316 e53e
00000050: a135 fa3e 130b ec3e 8e93 c43e eabe ec3e
00000060: d336 c63e d84f aa3e 45e1 ec3e ac05 ca3e
00000070: ec27 f93e 3c0a f13e 6293 d13e 48e9 eb3e
00000080: c176 fb3e f5c8 063f 9c28 0c3f 0a8b d03e
00000090: 80af 103f 65ba c43e 7731 f83e 4e51 0a3f
000000a0: 5345 fe3e 7399 093f e2f8 0f3f b676 e73e
000000b0: a6bc c43e 5186 f53e 7a26 b73e eda3 fc3e
000000c0: 3d72 f83e d415 033f 1fa0 0c3f 93e0 ef3e
000000d0: a4e8 c53e 065a bd3e 83e0 063f d715 ce3e
000000e0: 4e3b c33e 524c f83e 9d8d e33e 7dbf fb3e
000000f0: c084 ff3e a17e 023f 97df d13e 613c f73e
00000100: da4a 193f dfcf d53e 68c5 0b3f d3ed 023f
00000110: b53d cf3e 312a ef3e 42a6 f63e 0b05 d93e
00000120: 394a 0a3f 55a2 033f 553b f33e b4b1 ca3e
00000130: c2c6 df3e ab08 ee3e ca3c 023f 91c9 ee3e
00000140: ada8 023f 94eb c03e 3cf6 df3e 33ac f93e
00000150: 9576 d83e ee52 f83e 5ee2 de3e 30c0 0c3f
00000160: b571 fb3e ea3a 0b3f af02 db3e d5c0 e93e
00000170: 2277 db3e 0490 b03e 6422 fe3e d919 ff3e
00000180: 8641 0c3f d4c0 d83e bd2d d53e ef56 df3e
00000190: bc00 f83e 94cf f83e e81f e53e 11d8 db3e
000001a0: 4362 8e3e 289c b63e 2a3d d13e 1c6b e23e
000001b0: f1a0 e23e 415f f63e 86b8 c53e 8b0e d03e
000001c0: b57d f53e a9d1 fe3e aada e93e 766f d83e
000001d0: 9787 ea3e 706f f93e abdd e73e 3044 993e
000001e0: c886 fa3e 1d9a 8b3e cbeb f83e d9f6 e23e
000001f0: ea61 f23e c2e3 d63e 912c cc3e ab5a e73e
00000200: 7d11 fa3e ef43 d63e 60f4 023f 7cd6 d13e
00000210: a8d3 e83e f001 ea3e b484 ff3e f3fc c53e
00000220: 9ef9 fb3e 7ffc 123f 3d70 b73e ee4e ce3e
00000230: b0c9 f63e 46e7 043f 49a7 043f 3963 0a3f
00000240: b490 fc3e 01be 053f 90b7 cf3e 4b5e b83e
00000250: 1c04 033f 540b e33e 204e 093f 8ec3 9d3e
00000260: b72d 063f e1dd 123f 1a1d d73e 38ff dd3e
00000270: 01fb f03e 9b73 0a3f d342 f73e e7bd 163f
0.5125497 0.41452557 0.40315944 0.40293524 0.52136827 0.51252615 0.4751279 0.33070388
0.5353807 0.45961645 0.4600434 0.49039584 0.45619088 0.41022468 0.41434523 0.46630237
0.4667125 0.40905863 0.43239328 0.44743404 0.4886904 0.461022 0.38393825 0.46239406
0.38713703 0.3326404 0.46265617 0.39457452 0.4866327 0.4707812 0.40932757 0.46076417
0.4911404 0.52650386 0.54749465 0.40731078 0.5651779 0.38423458 0.4847524 0.5403031
0.49662265 0.5374977 0.5623914 0.45207757 0.38425177 0.47954038 0.35771543 0.49343815
0.48524657 0.5120518 0.54931825 0.46851024 0.38654053 0.36982745 0.5268633 0.40251037
0.38131183 0.48495728 0.4444398 0.4916953 0.49905968 0.5097447 0.40990898 0.48288253
0.5987984 0.41760156 0.54598093 0.5114414 0.40476766 0.46711877 0.4817372 0.4238666
0.54019505 0.51419574 0.47506204 0.39588702 0.43706328 0.46490988 0.50874007 0.46638158
0.5103863 0.37679732 0.4374255 0.4876419 0.4227797 0.4850077 0.4353208 0.54980755
0.4911019 0.5438677 0.42775485 0.45654932 0.4286433 0.34484875 0.49635613 0.49824408
0.5478748 0.42334616 0.41636458 0.43621013 0.4843806 0.4859587 0.44750905 0.42938283
0.27809343 0.35666013 0.40866977 0.44222343 0.44263414 0.48119548 0.38617343 0.40636095
0.4794747 0.49769333 0.4567464 0.42272538 0.45806572 0.48717833 0.45286307 0.29934835
0.48930955 0.27266017 0.48617396 0.44328955 0.47340328 0.4197064 0.3987775 0.45186362
0.48841467 0.41848704 0.51154137 0.4098395 0.4547398 0.45704603 0.49905932 0.38669547
0.4921388 0.5741653 0.3582782 0.40294594 0.4820075 0.51915395 0.51817757 0.5405765
0.4932915 0.5224305 0.40569735 0.3600944 0.51178145 0.4434458 0.53634834 0.3081326
0.52413505 0.5736981 0.4201439 0.4335878 0.470665 0.5408265 0.4829317 0.5888352

bn1.bias f4 [160]
00000000: 30a1 89be 557a 44be 8ca7 d1bd 0aad 81be
00000010: f25a b6be 7acd 95be 1d9d 89be d8d3 6cbd
00000020: 617e 93be a785 c3be 0c4a 2ebe a8fa cdbe
00000030: ac94 82be df78 6fbe f909 92be 7435 76be
00000040: 53a6 bfbe 0959 69be 6d13 7ebe c38b 94be
00000050: 54fb bcbe 2713 8dbe 4778 80bd 8c98 47be
00000060: a336 38be c96e 5fbe c3a0 91be a66b 2fbe
00000070: 371f 82be 3202 96be 42b0 37be 264b 95be
00000080: 7821 a5be f859 9ebe 912e c8be 7b4b fcbd
00000090: d41d debe f2cf 0abe 12a8 68be b755 e9be
000000a0: 34c2 0bbe 0794 7ebe 2252 72be 5d59 04be
000000b0: c378 3cbe 6469 bdbe 4d94 20be 15a7 afbe
000000c0: ee1d 31be 7aee a2be 9a8f a8be 2d72 b7be
000000d0: ca0a 05be eeec 43be c8f8 9cbe 5646 33be
000000e0: dbab aebd 1a80 98be cdb5 8bbe df64 63be
000000f0: cc93 58be 1814 b9be 1f5e 88be 7311 b7be
00000100: 23d1 d6be 0440 97bd ec96 95be c3de b7be
00000110: 6459 5dbe b0b9 95be ce1f aebe a8fa d1be
00000120: ffb6 d5be a0d7 a8be a71e 8cbe 66ec 62bd
00000130: d9d3 aebe e226 a3be 4831 83be afcc c0be
00000140: a28c 51be 1f71 43be a79c 8abe 0bee a0be
00000150: ca2f 51be c1b8 9abe 8d0b 74be a7ce c7be
00000160: 8806 44be 48f8 92be 43d1 2abe 65b1 a0be
00000170: 04db 4bbe efce bbbd caa2 a0be d0c6 b1be
00000180: 728a 99be ea40 05be 9909 80be af24 16be
00000190: 353d babe f420 98be 5dd4 4dbe 2236 a6be
000001a0: 0dd7 80bd 6c89 bdbd d8a1 2ebe 6941 90be
000001b0: b441 3abe d5ca 9cbe 87f7 1fbe 859e 6cbe
000001c0: 037f babe 69d1 acbe f526 1abe 0a72 f2bd
000001d0: 7ef5 6bbe d0f0 85be 3a07 58be 080a 09be
000001e0: 2abf b5be f11e 50bd a1dd d1be 95ff a6be
000001f0: e5a0 adbe 4d7d 2fbe b29e 9ebe 89cb 58be
00000200: 9641 87be 3492 b4be 86c3 8dbe 2a50 46be
00000210: a6aa a4be 326d 66be b925 6bbe b7cd 87be
00000220: 3d1d aebe c14f 44be 2c32 11be ad1a 7fbe
00000230: 8831 8bbe c60b cbbe 8300 6fbe e305 b2be
00000240: 92f5 adbe 335b e4be bc59 22be 1a93 05be
00000250: 8b51 a7be daa6 b9bd cd70 c0be 53be 8bbd
00000260: 354d e6be d2f4 99be ee54 8bbe 3774 86be
00000270: c9fd 95be 64fe 94be 604d a7be 44ba 80be
-0.2688079 -0.19187291 -0.10237035 -0.2532733 -0.3561626 -0.2925833 -0.2687768 -0.057819217
-0.28807357 -0.38187906 -0.17020434 -0.40230298 -0.25504053 -0.23385952 -0.28523234 -0.24043828
-0.37431583 -0.2278787 -0.24812098 -0.2901288 -0.36910498 -0.27553675 -0.06272941 -0.19491786
-0.17989592 -0.21819605 -0.28442964 -0.17130908 -0.2541444 -0.2929855 -0.17938331 -0.29158896
-0.32252097 -0.30928016 -0.39098027 -0.12319084 -0.43382132 -0.13555887 -0.22720364 -0.45573208
-0.13648301 -0.24861155 -0.23664144 -0.12924714 -0.18405442 -0.3699447 -0.15681572 -0.3430716
-0.17296574 -0.31822568 -0.3292206 -0.35829297 -0.12992397 -0.1913335 -0.30658555 -0.175073
-0.085288726 -0.29785234 -0.2728714 -0.22206448 -0.2115013 -0.36148143 -0.2663431 -0.357555
-0.41956434 -0.07385257 -0.29216707 -0.3591214 -0.21616131 -0.2924323 -0.3400864 -0.41011548
-0.41741177 -0.3297701 -0.27367136 -0.05540123 -0.34146002 -0.31865603 -0.25623536 -0.3765616
-0.20463803 -0.19086121 -0.2707264 -0.31431612 -0.20428386 -0.3021908 -0.23832531 -0.3902485
-0.19143116 -0.2870505 -0.1668139 -0.3138534 -0.19907767 -0.09170329 -0.31374198 -0.34721994
-0.29988438 -0.13013044 -0.25007322 -0.14662431 -0.36374822 -0.2971264 -0.20100541 -0.32463175
-0.06291018 -0.09254727 -0.17053926 -0.28174904 -0.18189126 -0.306235 -0.15621768 -0.23107345
-0.36425027 -0.33753517 -0.15053923 -0.118381575 -0.23042867 -0.26160288 -0.21096507 -0.13382733
-0.3549741 -0.050810758 -0.40989402 -0.3261687 -0.33911815 -0.17137642 -0.3098045 -0.21171393
-0.26417226 -0.35267794 -0.27688235 -0.19366518 -0.32161444 -0.22502592 -0.22963609 -0.26524135
-0.34006682 -0.19171049 -0.14179295 -0.2491252 -0.27186227 -0.3965742 -0.23340039 -0.34770116
-0.33976418 -0.4460083 -0.15854543 -0.13044396 -0.326794 -0.090650275 -0.3758606 -0.06823411
-0.4498078 -0.30069596 -0.27213234 -0.2626054 -0.29295185 -0.29100335 -0.3267622 -0.2514211

bn1.running_mean f4 [160]
00000000: b0ac a4bf d249 56bf 1262 30c0 5c54 a540
00000010: 00cf 9cc0 904f 6dc0 e913 af3f 13d6 e740
00000020: 8f16 0cc0 4295 48c0 1aae abc0 243a 00c1
00000030: f6cc f5bd 0db9 a340 2165 9cc0 3390 4abf
00000040: 79c0 91c0 5637 3ebf be4e 2cbf 3221 993f
00000050: 89bb 55c0 e036 bac0 07d7 3abf ef24 c6be
00000060: 595a db3d f5f2 86c0 b674 1cc0 986f 973f
00000070: 142a 143e 69e9 42c0 bf6a 6d3f cb3d c53e
00000080: c69a 0cc0 2b3c 92bf c5fe 30c0 d30e d53f
00000090: 9dde babf c10a 143f ea8b 2a40 277a a6bf
000000a0: 2593 5fc0 e6bb 663f c567 02bf ffe4 b93f
000000b0: ecde 843e f56a e03f f5c6 12bf a046 a7bf
000000c0: b5be 46bf c064 18c0 49e7 043f e6df 1fc0
000000d0: 4757 0ebe 82ac 80bf 9c82 fbbf c5ca 8040
000000e0: 9f4b b5bf b333 12bf bce9 3440 1b75 75bf
000000f0: 39a2 3cc0 dd8b 52c0 8f6b ae3e f4d1 49c0
00000100: b49e 6dbd fc39 3140 6326 c7bf 01bf 643e
00000110: 1828 1fc0 1fb4 b9bf 99c1 0fbf ba16 eebf
00000120: cff0 38bf 27b5 843f 1131 10c0 cdf4 dbbf
00000130: b571 ac3f 8c83 15c0 7265 e43f 40c6 dbbf
00000140: f62b 893e f039 dcc0 caf1 413f 9054 5fbe
00000150: 3341 aabe e49e ccbe 03a6 11bf 6050 e8bf
00000160: a781 51bf 5931 23be 9d19 c03f d422 b0c0
00000170: f640 6ebd 5c72 993f 89f5 0cbf 73dc 003e
00000180: da7e 1fc0 55e6 143f 8d98 293f 7cec 9bbf
00000190: 17ab 4dc0 5063 25c0 a752 b43f f8f2 59c0
000001a0: 4295 b440 1506 acbf c19f 853f 5f3f 83bf
000001b0: 2877 17c0 4e8d 15c0 51b2 34bf 9adb 03c1
000001c0: a1d2 9fbf 50da 793d 436f edbf f1ed 5fc0
000001d0: 1c15 eabe fcda 4bc0 4d05 30c0 11ee 4840
000001e0: 48e7 2fc0 f377 2240 4327 b6bf d15e a7bf
000001f0: 359c 4fc0 4bed abbe 0cd7 60c0 5fe7 56bf
00000200: 7f94 9fbf 4a4f 80bd 6082 d4bf 93ff 99be
00000210: a0ed 43bf a95a 9b3f ee3b ca3d e500 c2c0
00000220: 89a9 acc0 de97 0ec0 1c0d 35c0 8cc7 0fc0
00000230: 97e4 8bbf 0298 72c0 1ce0 1fbf 375d 8dbf
00000240: d347 69c0 696f 02c0 28d3 c93f d330 85c0
00000250: 3d83 13c0 2ae1 8d3f 7a30 46bf dbe5 2240
00000260: 0d8b 31c0 90d3 41bf f38a 2d40 3970 61c0
00000270: d596 ce3f 8c0b ecbf 25d1 b3be c23d 0ec0
-1.28652 -0.8370639 -2.7559857 5.166548 -4.9002686 -3.707981 1.3677951 7.244882
-2.1888769 -3.13411 -5.3650026 -8.0141945 -0.12001984 5.116339 -4.887345 -0.7912628
-4.554745 -0.74303186 -0.6730765 1.1963255 -3.3395712 -5.8191986 -0.72984356 -0.38700053
0.10710592 -4.217158 -2.4446235 1.1830931 0.14469177 -3.0454962 0.92741007 0.38523707
-2.1969466 -1.1424612 -2.76555 1.6645149 -1.4599186 0.5782891 2.6647897 -1.3006028
-3.493356 0.9013046 -0.5093959 1.4523009 0.25951326 1.7532641 -0.57334834 -1.3068428
-0.77634746 -2.3811493 0.51915413 -2.4980407 -0.13900481 -1.0052645 -1.9649234 4.024752
-1.4163703 -0.57110137 2.826766 -0.95881814 -2.9474013 -3.2897866 0.34066436 -3.1534395
-0.05801268 2.769164 -1.555859 0.22338487 -2.4868221 -1.4508094 -0.5615478 -1.8600686
-0.72242445 1.0367783 -2.2529948 -1.7184082 1.3472201 -2.336154 1.7843459 -1.7169876
0.26791352 -6.8820724 0.75759566 -0.21809602 -0.33252868 -0.39964974 -0.5689394 -1.8149529
-0.8183846 -0.15936793 1.5007817 -5.5042515 -0.05816742 1.1988025 -0.55062157 0.12584095
-2.4921174 0.5816396 0.662484 -1.2181544 -3.2135675 -2.5841866 1.4087723 -3.4054546
5.64322 -1.3439356 1.0439378 -1.0253714 -2.3666477 -2.3367496 -0.7058459 -8.241114
-1.2486154 0.060999215 -1.8549579 -3.4988978 -0.4571923 -3.1852407 -2.7503235 3.1395304
-2.7484913 2.5385711 -1.4230732 -1.3075811 -3.2439091 -0.33579478 -3.5131254 -0.83946794
-1.2467192 -0.06265123 -1.6602287 -0.300778 -0.7653446 1.2137042 0.09874712 -6.062609
-5.395695 -2.2280192 -2.8289251 -2.2465544 -1.0929135 -3.7905278 -0.6245134 -1.1044072
-3.6450088 -2.03805 1.5767565 -4.16221 -2.3048851 1.108434 -0.7741772 2.5452793
-2.774112 -0.75713444 2.7116058 -3.5224745 1.613978 -1.8441024 -0.35120502 -2.2225194

bn1.running_var f4 [160]
00000000: 22b6 9a41 5bdb a741 6c5f c241 3ae8 2c41
00000010: a607 8941 35b9 ab41 f648 4941 eb86 c041
00000020: bc4d 4541 6e69 d041 18d7 9941 7c74 5742
00000030: f8fa 2c41 f16b 8d41 2a89 1f42 5c3f 9b41
00000040: ef4b fb41 2e0f 1241 7c63 7641 a37c b340
00000050: 8920 b041 0226 ad41 cce4 c741 c0d4 b141
00000060: b7ef 4f41 498d fe41 b566 be41 fe93 1741
00000070: 26a3 3141 2fb9 1c42 59f0 be41 8251 5b41
00000080: d035 0941 3d9e 1141 93df cc41 fc47 6741
00000090: 1496 1c41 c83e e540 325d 2341 a0cb 1c41
000000a0: 376c 8341 a010 3841 f237 9541 5ca1 1141
000000b0: 2e7c 7941 7ea8 ed40 7cff b241 ede7 1041
000000c0: 13b9 ba41 fb70 ee41 a50b 2f41 ee54 a441
000000d0: 1f5b 6041 96e0 3141 e6b6 8741 ad6f 3c41
000000e0: 92a7 0842 0ad1 c741 65b7 2141 bf9d f940
000000f0: fabc 8541 77ce 6241 6c51 dd40 915e c441
00000100: dd4b 5341 0e3b 4541 28fd 5341 ea1b 8041
00000110: cb97 e241 8ecd 1641 d85c 4241 a6d7 e241
00000120: c921 2b41 d9c1 6041 610f 5741 7239 5241
00000130: 85ef a241 1979 5d41 38fe 8a41 55a1 4141
00000140: 3e63 2941 69d3 2342 8e2a 9b41 72bb 9641
00000150: c3fb 5d41 f695 8b41 f49a f340 b13e 3741
00000160: dc38 9841 1f6d 9841 f078 6141 fb8c e041
00000170: 712d 8241 c1f3 3641 731c 3341 6786 1a41
00000180: ef57 4b41 aded 3541 9c8b a841 5737 0342
00000190: e76a 9e41 c167 9f41 cc82 2241 e55d ca41
000001a0: 38c9 0042 6c30 9641 2afc a941 8a36 5c41
000001b0: 73dc da41 2708 8741 d93e 8141 fdab 1d42
000001c0: 68fa 1341 d96a 2041 f99c 9e41 7417 9741
000001d0: 2ca2 1c41 4e5e 2042 3301 ce41 73a2 9e41
000001e0: 263c bd41 0190 c341 af8c e240 bf6a 1241
000001f0: 4780 5941 5510 9641 0bc6 ac41 1025 3c41
00000200: 5cbb 9c41 b025 2641 7ff8 9541 8407 4e41
00000210: 681f 6a41 b65c 4341 36a2 9041 f138 d641
00000220: 1849 0842 d4c4 8a41 4ed5 0442 c754 1b41
00000230: eacb 4e41 a0c2 8241 8b40 0a41 6c64 5e41
00000240: 8742 3a41 35df b640 a034 5b41 8a8e 1941
00000250: 7411 9b41 181e b741 43cc 2641 f660 ac41
00000260: 4772 2841 0402 9541 369d a241 8673 b341
00000270: 855c c141 15bb 1e42 2f05 4641 d4d3 fc41
19.338932 20.982107 24.296593 10.806696 17.128735 21.465433 12.580313 24.065878
12.331478 26.05148 19.230026 53.863754 10.811272 17.677706 39.88395 19.405937
31.412077 9.128706 15.399288 5.6089644 22.015886 21.643559 24.986717 22.228882
12.996024 31.818987 23.80015 9.473631 11.102331 39.180843 23.867357 13.707399
8.575638 9.101132 25.609167 14.455074 9.78664 7.1639137 10.210253 9.799713
16.42784 11.504059 18.652317 9.101894 15.592817 7.426818 22.374748 9.0566225
23.340368 29.805166 10.940343 20.54147 14.022246 11.117331 16.964306 11.777265
34.163643 24.97707 10.107274 7.800506 16.717274 14.175406 6.916189 24.546175
13.206021 12.326918 13.249306 16.01363 28.324118 9.425184 12.147667 28.355297
10.695748 14.047326 13.441255 13.139025 20.366953 13.842065 17.37413 12.101888
10.586729 40.956455 19.395779 18.841526 13.873965 17.448223 7.612665 11.4528055
19.027763 19.053282 14.092026 28.068838 16.272188 11.43451 11.194446 9.657813
12.708968 11.370526 21.068169 32.804043 19.802198 19.925661 10.156933 25.295847
32.196503 18.773643 21.248127 13.763315 27.357641 16.87898 16.155687 39.417957
9.248634 10.026086 19.826647 18.886452 9.789593 40.092094 25.750586 19.82932
23.65437 24.445314 7.0796733 9.151061 13.593818 18.757975 21.5967 11.759048
19.591484 10.384201 18.746336 12.876835 14.632668 12.2101345 18.079205 26.777803
34.07138 17.346107 33.208305 9.708198 12.924784 16.345032 8.640758 13.899517
11.641242 5.714747 13.700348 9.5973 19.383522 22.889694 10.424869 21.547344
10.5279 18.625984 20.326763 22.431408 24.170176 39.682697 12.376266 31.603432

fc2.weight f4 [160, 160]
00000000: aa05 3fbd 3e80 6f3d b758 933d 6213 52bd
00000010: 3045 e4bd 7ec7 75bd 3f1e cabd fd05 03bd
00000020: 18e4 39bc a868 e2bc f226 11bc 75b6 93bb
00000030: d00f 8dbc 9249 5b3c bbf6 0f3c 5f1e 31bc
00000040: 7bce 78bc 9b91 8ebd 2ff8 d9bc f461 56bc
00000050: 909d 223d 9691 b33d 30b8 91bc 62bc bfbc
00000060: 1765 ee3c b501 1c3c ea66 2b3d 1cd7 71bd
00000070: 0a3c d93d 516f 4b3c e532 693c 2133 c1bd
00000080: 7ee0 873d a4e2 1dbd 4736 04be 29f6 33bd
00000090: fedb 9d3c 0668 e0bc ac26 59bc 8dba 4bbd
000000a0: e272 08bc 5fd3 e7bd 8d4d 8ebd 98b0 f0bd
000000b0: d4b8 523c a92a b03d ec9f 373d 7f72 96bd
000000c0: 9337 093d 4b8c bd3b 188b 82bd dcc4 313d
000000d0: 8b99 353d d180 973d 5245 1b3d c46e d63c
000000e0: 9e8e 9fbc 4240 7d3c 2ece b4bd ff00 d33c
000000f0: 6a24 dfbd 69d7 013e a9b6 e7bc 59f1 1f3b
00000100: 24ad ebbd 9470 a43c 987b b0bd c88c 81bc
00000110: 1355 713d d3e0 e43d 7009 76bd d416 c43c
00000120: de5c b6bd 32a0 bdbb 6663 69bd 3411 e3bd
00000130: 839f 48bd bf60 f7bd e9ad 083d 6b58 8abd
00000140: abef 34bd c6e3 c03d 2255 233c 7c2d 94bd
00000150: a4f4 1a3d 281c 963c 30cb 22bd 2117 d53c
00000160: 7d91 053d b346 b7bd f09e 113d 4784 ff3a
00000170: 46cb 84bd ff50 153e 5eac a03d 947c 8bbd
00000180: 30ba dbbd 5512 6f3d 886d d33c ae7b bd3c
00000190: 9368 1d3c 5b82 80bd 40dd 333d fbb2 02bd
000001a0: 2b81 b43c 3f09 b43d 80f9 043d 7d9b 313d
000001b0: 1b71 fa3c 354c 1fbd 587c 13bd db30 c63c
000001c0: 1505 95bd 0a21 0bbe 19b1 0cbe 541d 9939
000001d0: f39a dfbc 5b02 e13a 6a2e 83bc e868 6bbd
000001e0: f513 e4bd fa23 3bbd 48d3 f63b f2af 6bbd
000001f0: 80cc 883d 57d9 9abb bf2e a83d c299 873c
00000200: a91f ae3d f7a1 d33c 1bda 2a3e f04a 583b
00000210: 3b47 a43d 25ce 973d 80d5 ac3c d676 463d
00000220: ed84 afbc 1643 823d 8f73 573d b987 b5bd
00000230: 77a3 55bd d3b7 ea3c 3c7c babc a74c d2bc
00000240: 1b23 23bd d3ab 283c d389 943d 7ea2 d4bc
00000250: dc30 0f3d 23dd 753d 9657 45bd a2f3 b13b
00000260: a2e5 b13b 9a61 303c e282 353c 38ca 8d3c
00000270: d76e ea3b 1f73 61bc 0b36 363c 5b65 b5bc
00000280: 4fcf 9a3d 5d8b 4abc 78a2 bfbd 43e8 91bb
00000290: 87c8 4ebd ac5c d1bd 4290 9fbd 992f 4e3d
000002a0: 8ea5 a9bd 3fa0 c13c 32a2 793d 61b6 8a3d
000002b0: a332 67bc 6499 b73c d8ab dbbc 160f 423d
000002c0: b928 213d 885e 473d 8b70 e53c 13a8 29bd
000002d0: 4d12 6fbd 6d1c 43bd 750f 90bc a8e4 b53c
000002e0: 335f bdbb 62fe 2f3c 09a7 29bd 5fbb 49bd
000002f0: d721 6cbd b47d b13b a68d 963d a52b 52bc
00000300: 9386 edbd 2465 8dbd 69b9 52bd 6582 b6bc
00000310: 6567 0abe 0bcb b0bc a847 103d 5004 cebd
00000320: da01 b6bd 7688 c93c f7f7 af3c c98c 673d
00000330: 1ffa 943d fbb5 f93c 9f07 6d3c 227a a6bc
00000340: 6bce 01be 0d72 8ebd 3b84 dfbd 0c38 b53b
00000350: 1848 8b3c e434 183d 4059 c7bc c98e 253d
00000360: 6da9 c8b9 344d cebc fee5 a83c c7f4 e5bc
00000370: 8f2e 6a3d 358c d2bc bd1d f0bc 49a2 be3c
00000380: 0a17 b0bd c5eb 253d 24e8 a9bd e049 933d
00000390: 67ba 05bd 70a1 b3bd 606e 17bb 4421 1fba
000003a0: 792e cfbc adc9 e83c ff14 713b 6acc a43b
000003b0: 9791 183d 28e8 5cbc 3092 763d dd97 5cbd
000003c0: d52b 823c 63aa cbbc e31d e3bc 8dbf ad3d
000003d0: 8a8d 3e3c 6aab 3f3d 522b 8cbd 15e8 efbc
000003e0: 9c31 35b9 b8f4 82bd a0d6 313c a568 2abd
000003f0: 0269 bd3d e9f7 a13c 6aab b9bc dcb6 f93c
-0.04663626 0.05847191 0.071946554 -0.051288016 -0.11146009 -0.060004704 -0.0986905 -0.031988133
-0.011345886 -0.027637795 -0.008859383 -0.0045078346 -0.017219454 0.01338424 0.0087868525 -0.010810464
-0.0151859475 -0.06961366 -0.026607601 -0.013084877 0.039701045 0.08768003 -0.017788023 -0.023405258
0.029100938 0.009521891 0.041846193 -0.059043035 0.10607155 0.012416677 0.014233326 -0.0943358
0.06634615 -0.03854622 -0.1291133 -0.04393593 0.01926994 -0.027393352 -0.013253849 -0.049738456
-0.008328171 -0.11319613 -0.069483854 -0.117524326 0.012861449 0.08601887 0.044830248 -0.07346057
0.033500265 0.0057845465 -0.06374186 0.04340063 0.044335883 0.07397617 0.037907906 0.026175864
-0.019477185 0.015457215 -0.08828388 0.02575731 -0.10895617 0.12679829 -0.028285341 0.002440533
-0.11507633 0.020073213 -0.08617324 -0.0158142 0.058919024 0.11175694 -0.060067594 0.023936667
-0.08904432 -0.005786919 -0.05697956 -0.110872656 -0.048980247 -0.12079 0.03336898 -0.06755146
-0.044173878 0.09418444 0.009969028 -0.07235238 0.037830964 0.018323973 -0.039744556 0.026012005
0.03260945 -0.08949032 0.035551965 0.0019494378 -0.06484084 0.14581679 0.078453764 -0.06810871
-0.10728872 0.058367092 0.025809065 0.023130264 0.009607452 -0.06274863 0.043912172 -0.03190897
0.022034248 0.08790826 0.032464504 0.043361176 0.030571511 -0.038891036 -0.036007255 0.024193218
-0.0727636 -0.13586822 -0.13739432 0.00029204285 -0.027295565 0.001716684 -0.016013343 -0.057473093
-0.11136619 -0.045688607 0.007532511 -0.05754084 0.0667963 -0.004725616 0.08212041 0.01655281
0.085021324 0.025834067 0.16684763 0.003300365 0.08021399 0.07412366 0.021097898 0.048453175
-0.021425689 0.06360452 0.05260044 -0.08863778 -0.052157845 0.028652107 -0.022764318 -0.025671316
-0.0398284 0.010294872 0.072528504 -0.025956389 0.034958705 0.060025346 -0.04817923 0.0054306546
0.0054289857 0.0107654575 0.011078568 0.01730834 0.0071543264 -0.013760357 0.011121283 -0.022143057
0.07559072 -0.012362328 -0.0935716 -0.0044527366 -0.050484207 -0.10222754 -0.07791187 0.05033836
-0.0828353 0.023635982 0.060945697 0.06773067 -0.014111194 0.02241201 -0.02681534 0.04737767
0.039345477 0.048674136 0.028007766 -0.041420054 -0.058367062 -0.04763453 -0.017585495 0.022203758
-0.005779171 0.010741802 -0.041419063 -0.049250957 -0.05764946 0.0054165963 0.07351236 -0.0128277885
-0.115979336 -0.06904057 -0.051446352 -0.022278974 -0.13516004 -0.021581193 0.035224587 -0.10059416
-0.08887072 0.024601202 0.021480544 0.056530748 0.07274269 0.030482283 0.014467149 -0.02032191
-0.12676398 -0.06955347 -0.10913893 0.005530363 0.01700215 0.037159815 -0.02433455 0.040419374
-0.00038273205 -0.025183298 0.020617481 -0.02807082 0.057173308 -0.025701622 -0.029311055 0.023270743
-0.08598144 0.04050805 -0.082962304 0.07191825 -0.03264847 -0.08771026 -0.002310656 -0.00060703256
-0.025290715 0.028416479 0.0036786196 0.005029251 0.03724822 -0.013483085 0.06019801 -0.053855766
0.015890041 -0.02486152 -0.027724212 0.08483801 0.011630425 0.046794333 -0.068442 -0.02928547
-0.00017279986 -0.06394333 0.010854393 -0.041603703 0.09248544 0.019771533 -0.022664744 0.030482702

fc2.bias f4 [160]
00000000: cf6e 9a37 a3a8 6337 334a ddb5 a0cc 96b6
00000010: d37e 81b7 4a76 6e38 c930 82b7 7202 1f38
00000020: 65fe aeb7 8c95 bbb8 1680 4436 744c 6cb7
00000030: 7ba8 1fb8 6aaa edb6 d940 8e36 52b2 f236
00000040: eb3a 9837 8882 0ab8 782c 76b6 52fa c936
00000050: 93f4 c337 a9fd 1eb7 f809 2eb7 9077 3237
00000060: 500d b5b7 b7c0 b537 7902 41b8 6e42 5337
00000070: fe05 8eb6 20d2 8738 9ebb 5f36 63a9 2737
00000080: 41e8 0cb7 b3f2 24b8 a1f6 9d38 518d 5938
00000090: ca9c 8637 584e 3fb8 0c74 3234 2b9f 5937
000000a0: d446 3db8 471b 65b7 08d0 0c38 d013 80b7
000000b0: 5156 1238 c945 d4b7 35df aab7 7241 99b7
000000c0: 0e7a 88b7 14da 7936 53e9 8234 a3de 5db7
000000d0: 5fa7 cab6 3fe5 0cb8 026a 1937 6176 d9b6
000000e0: 1925 29b8 ff7a 53b8 9cd2 7fb7 066d 8138
000000f0: 6112 e236 3f9e 2c38 e265 4138 a798 aab6
00000100: d542 5236 2654 3c35 f2e4 f937 d767 6d37
00000110: 4667 b4b7 93d2 19b7 2d46 a436 1713 2738
00000120: 7573 55b8 9971 c8b5 d4fa e436 533f 72b7
00000130: 5c19 c8b6 5be1 e337 b885 4eb7 2d0f af37
00000140: c06a 89b8 9cbd b036 d831 8237 5fe0 9bb7
00000150: 4193 9337 b946 6ab7 5f7e f5b6 fb64 c7b6
00000160: 54e9 03b8 0877 d437 21d8 1e38 0aa9 8135
00000170: 465c b5b7 f2af 8837 5aea 4737 5ca0 62b8
00000180: 9d01 a2b7 769c 0738 a31f 32b7 a1a2 beb7
00000190: e38b af37 e395 ee37 4842 81b7 6142 e8b6
000001a0: aad3 0837 7239 6436 f8b4 66b7 5275 52b8
000001b0: 38a8 0eb7 5d49 5137 a359 0db7 bc88 e2b7
000001c0: 4da3 c6b7 a2ca d1b7 db63 9d37 5af0 66b7
000001d0: ef89 b6b6 2957 2cb7 a9d4 6736 e21e 8836
000001e0: 30bc 4db7 698e df37 f49f 0f36 0642 b4b6
000001f0: c674 f237 a9bc 36b8 03da 1838 d26e 01b8
00000200: 600c 9fb7 f37d 8837 b637 ce36 31a2 d535
00000210: 7af6 1b38 a0e1 b037 1a13 6ab7 e491 71b7
00000220: 7488 c537 19a5 be36 8348 16b7 161a 2db7
00000230: 43bf 48b6 32a0 ff36 5e5c 7f37 bb67 cab6
00000240: ae09 2fb7 a478 9037 fae8 c637 83bb 19b7
00000250: 02ce 0637 18dc 5c37 6c95 f937 5f95 1ab7
00000260: 2fc1 6c36 f474 3237 7544 20b8 e18e 2c37
00000270: 903b 49b7 7784 f037 12c9 0037 6774 8437
1.840983e-05 1.3569518e-05 -1.6487378e-06 -4.49417e-06 -1.5437055e-05 5.6853787e-05 -1.5519925e-05 3.791083e-05
-2.0860878e-05 -8.94471e-05 2.9280832e-06 -1.4084497e-05 -3.8065464e-05 -7.082989e-06 4.239479e-06 7.2329212e-06
1.8147248e-05 -3.302333e-05 -3.668274e-06 6.019408e-06 2.33597e-05 -9.476594e-06 -1.0373529e-05 1.0637465e-05
-2.158308e-05 2.1666621e-05 -4.601709e-05 1.2592047e-05 -4.2326274e-06 6.4764405e-05 3.3338797e-06 9.993414e-06
-8.398726e-06 -3.932668e-05 7.5322816e-05 5.1868443e-05 1.6047055e-05 -4.5610912e-05 1.661976e-07 1.2971267e-05
-4.5127075e-05 -1.3655815e-05 3.3572345e-05 -1.5268015e-05 3.48895e-05 -2.5304866e-05 -2.0369518e-05 -1.8269497e-05
-1.62693e-05 3.723083e-06 2.4384153e-07 -1.3224463e-05 -6.0395537e-06 -3.3592103e-05 9.1441925e-06 -6.480885e-06
-4.032729e-05 -5.042087e-05 -1.5248221e-05 6.1715065e-05 6.7374644e-06 4.1155374e-05 4.610967e-05 -5.084166e-06
3.133134e-06 7.015791e-07 2.9789724e-05 1.4150478e-05 -2.1505763e-05 -9.168539e-06 4.8957504e-06 3.983368e-05
-5.0890685e-05 -1.4934222e-06 6.8241297e-06 -1.4439068e-05 -5.9634167e-06 2.7165448e-05 -1.2309691e-05 2.0868692e-05
-6.552553e-05 5.267282e-06 1.5520418e-05 -1.858192e-05 1.7592336e-05 -1.3963953e-05 -7.3162805e-06 -5.942418e-06
-3.1450138e-05 2.5327798e-05 3.787142e-05 9.660446e-07 -2.161985e-05 1.6294394e-05 1.19158885e-05 -5.4031945e-05
-1.9312656e-05 3.2332224e-05 -1.0616993e-05 -2.2725495e-05 2.0926766e-05 2.8441607e-05 -1.5408863e-05 -6.9218663e-06
8.155514e-06 3.4008085e-06 -1.3751203e-05 -5.0177165e-05 -8.503026e-06 1.2474452e-05 -8.425125e-06 -2.7004971e-05
-2.3679482e-05 -2.50091e-05 1.8762357e-05 -1.37650295e-05 -5.4400803e-06 -1.02722925e-05 3.4545467e-06 4.056711e-06
-1.2262768e-05 2.6649986e-05 2.1401765e-06 -5.372104e-06 2.8903025e-05 -4.3567885e-05 3.6442663e-05 -3.0859206e-05
-1.896004e-05 1.6271113e-05 6.145764e-06 1.5916941e-06 3.718443e-05 2.10859e-05 -1.3951934e-05 -1.4398687e-05
2.3547771e-05 5.681661e-06 -8.95758e-06 -1.0317677e-05 -2.9913651e-06 7.6182414e-06 1.522069e-05 -6.032145e-06
-1.0433067e-05 1.7222315e-05 2.3711927e-05 -9.163169e-06 8.034987e-06 1.3164266e-05 2.9752693e-05 -9.2138935e-06
3.5279188e-06 1.0636857e-05 -3.821073e-05 1.02852655e-05 -1.1994402e-05 2.8671913e-05 7.67621e-06 1.578983e-05

bn2.weight f4 [160]
00000000: 5fa7 133f a35e 023f 804a 0c3f 5401 493f
00000010: 9dec 073f 7923 2f3f 1406 173f 1c71 2a3f
00000020: ddac 0b3f 9b95 233f e59f 1d3f caa9 0c3f
00000030: 22af 363f 34f3 353f 76bb 0d3f b934 163f
00000040: d065 3c3f 5f7c 203f c50a 2c3f d37c 263f
00000050: 1885 223f 9692 163f 23c6 0e3f ef1a 3f3f
00000060: e01c 163f 3016 293f 0a9c 353f cd31 0d3f
00000070: 8a5c 403f ea42 0f3f c581 3a3f 343a 073f
00000080: 6513 283f d8cc 0d3f 32b4 0f3f d6e0 0d3f
00000090: c185 293f 027e 183f 5780 223f fa7e 303f
000000a0: 38c4 033f 9483 073f 4791 1f3f 3f8f 393f
000000b0: 8c19 193f 6aa8 233f d357 323f 41b6 fa3e
000000c0: ad15 133f b303 3f3f 0a83 1e3f b43c 003f
000000d0: a4ac 0b3f b5e7 0e3f 6967 263f 5448 013f
000000e0: 20f8 203f ffe3 1d3f 3dec 5a3f e323 2a3f
000000f0: 345a 113f bcf4 083f f66d 153f 991f f63e
00000100: 804b 313f 855b 1e3f 0faa 233f 9c97 113f
00000110: 384d 1b3f a8d2 3f3f 4695 0a3f 889d 0a3f
00000120: 8332 123f 6dd3 583f f5e4 203f 9166 1f3f
00000130: 27f4 143f 026d 0f3f ba68 303f 020d 193f
00000140: 4f25 563f e89c 113f f81e 2b3f b466 253f
00000150: cb07 0f3f 0525 223f c4a7 153f bf49 2c3f
00000160: c831 293f a3ea 253f 12a7 063f cd41 2c3f
00000170: fa77 343f 3a34 093f 1b9c 173f 0111 0a3f
00000180: 8ef4 1f3f 620f 3c3f c905 263f 2555 4c3f
00000190: 3cef 1b3f dbc7 013f 4831 083f 7dc0 1d3f
000001a0: f6bb fd3e bf0b 273f 1d20 603f 7100 393f
000001b0: 2d19 1d3f 4ea6 3f3f b23e 073f 8e93 433f
000001c0: 2100 2a3f 011f 1e3f 08f1 1e3f 2b71 093f
000001d0: 257a 1e3f 28ce 173f 3911 263f 0fca 1f3f
000001e0: 6b1c 043f 831f 263f 2fa1 323f 4c71 1d3f
000001f0: ea54 fd3e 9cc8 043f c671 263f 0986 243f
00000200: 2085 fb3e 940a 113f f196 353f 0884 183f
00000210: fb60 263f 14c1 163f dc2a 153f 9a96 173f
00000220: 84f0 183f 3ad1 213f b1d1 213f 5ab6 103f
00000230: 7304 483f 1c81 0b3f ea80 0f3f ebdd 173f
00000240: 929a 313f 8f77 2e3f 743c 223f 0a3d 053f
00000250: 7349 033f 1656 2b3f 5fbc 2a3f 9664 143f
00000260: 1ee5 fa3e 4b94 333f 68e6 113f 3363 5d3f
00000270: eed2 193f 4ebf 5a3f 5181 323f 43a0 2f3f
0.57677263 0.50925654 0.5480118 0.7851765 0.5309542 0.684135 0.5899365 0.6657884
0.54560643 0.63900155 0.61572105 0.5494658 0.7136098 0.71074224 0.5536417 0.586742
0.73592854 0.62689775 0.67203933 0.65034217 0.63484335 0.5881742 0.5577108 0.7465047
0.5863781 0.6604948 0.7094122 0.55154115 0.75141203 0.5596148 0.7285426 0.52823186
0.65654594 0.5539069 0.5613433 0.554212 0.6621972 0.5956727 0.6347708 0.6894375
0.5147128 0.5293515 0.6233105 0.724842 0.59804606 0.63928854 0.6966526 0.48967174
0.5745495 0.7461502 0.619187 0.50092626 0.54560304 0.55822307 0.6500154 0.5050099
0.6287861 0.6167602 0.8551672 0.6646101 0.56778264 0.53498435 0.5837091 0.48070982
0.6925583 0.618584 0.63931364 0.5687196 0.606647 0.7493081 0.54134023 0.54146624
0.57108325 0.8469761 0.6284936 0.6226588 0.58185047 0.5602571 0.689098 0.59785473
0.8365068 0.56880045 0.6684413 0.6460984 0.55871266 0.6333774 0.58459115 0.6730003
0.66091585 0.6481115 0.5259868 0.67287904 0.7049557 0.53595316 0.59222573 0.53932196
0.62482536 0.7346097 0.6485258 0.7981742 0.6091192 0.5069558 0.532002 0.6162184
0.49557465 0.652523 0.87549 0.722663 0.6136654 0.74863136 0.5283004 0.76397026
0.66406447 0.6176606 0.62086535 0.53688306 0.6190513 0.59298944 0.6487003 0.6241769
0.5160586 0.64891833 0.69777197 0.61501 0.49478847 0.51868606 0.65017354 0.6426702
0.49125004 0.56656766 0.70933443 0.59576464 0.6499173 0.58888364 0.58268523 0.59214175
0.59742 0.6320988 0.6321059 0.56528246 0.7813179 0.5449388 0.5605608 0.59322995
0.6937648 0.6815118 0.63373494 0.52046263 0.5128395 0.6692823 0.6669368 0.5796598
0.49002928 0.7014815 0.569922 0.8647949 0.6008748 0.8544816 0.6972857 0.68603915

bn2.bias f4 [160]
00000000: 48c8 11bd 2549 913c e912 203d ebc3 423d
00000010: c65c 043e ba37 693e 0a75 7b3d 6ddd 753d
00000020: 6701 1b3d 28d3 823d fbea 853d c6af eb3d
00000030: 52ae ee3d aaaf b43c 61c5 8d3d 282c 1c3e
00000040: 5946 183e 5b62 013e bf58 ae3d ba4f f83d
00000050: af8f 3c3c affd c83c 5888 ff3d a0aa 9b3d
00000060: 1c06 623c db16 3c3d 930a 413e 7cd5 f3bb
00000070: 00b5 0f3e 2444 1a3e 1616 8f3e 86d7 533d
00000080: 2a93 a6bd 9d91 7a3d a2b7 b03d 6822 0c3d
00000090: f295 7ebc 5c2f 28bd fc7f 573c e171 633d
000000a0: 1202 c73d 774d 083e 51a9 773d 5be8 c53c
000000b0: 12e1 8e3d 66c7 08bd 594b 023e 2f02 a43d
000000c0: d03c 06bd 8bbb 213e 3804 7d3d e0a5 b83c
000000d0: d69b 16bd 6060 0abe 8d6b f53d b173 253d
000000e0: bcc8 e93b 74d7 ab3d 20a5 1b3e 7ed2 1fbc
000000f0: aedc 073e d9ff 8a3d 8144 ccbd 04d7 873d
00000100: 0941 4c3d 643c 9f3c 70fa a7bc 5e80 953d
00000110: a5fa f03d 6ab0 423b b745 023d a12e 163d
00000120: f288 fbbc d284 ec3d 5c10 f5bd 8bf7 e8bd
00000130: c046 69bd 7202 0d3d f08e 1fbb ded2 a6bd
00000140: 3cab 803e 53dd 643d 2ae3 7b3b b3ee 653d
00000150: 7ffd 78bc f659 213e 7d1b adbc 1362 de3d
00000160: 4a7f 4f3e 768d e23c dfd1 19bd c98c 523e
00000170: c199 babc e0c2 e43a 52bb 9c3c f35a d83c
00000180: 54f5 eb3d 95df d13d a679 cd3d 504d 953e
00000190: f287 883d 2947 723d a54d 183d e911 0a3e
000001a0: 9e5f c53d bc82 8b3e 48ad 593e 3673 2c3e
000001b0: 749d a73d cd8f bf3d 1614 c73c 05a8 583d
000001c0: f58a 5cbd 3955 373e 60fc f33d 0a3c 883d
000001d0: 09ee bbbc 8eb5 113e aad3 3e3e 0589 1d3e
000001e0: 55b9 45bd 0d2d ce3d 36d2 e93d 71a2 1b3e
000001f0: 9998 0ebd 0880 0dbd a748 6a3e 661e 193e
00000200: 315a 9c3d 8739 653d 2a97 0f3e 0e1a 1fbd
00000210: a2fd 223e fd2e 04bd 0a68 02bd 5db5 633d
00000220: ee34 00bd b682 f7bc 5930 d5bc 960c 483d
00000230: 2e36 5f3e 4071 51bc e8e6 23bd 960c 0c3e
00000240: 36ab 403e 30e3 ea3c 3f7a ba3d 5e6c 1b3e
00000250: 1d25 5fbd 1cc8 333d 662a 8b3b 0a61 96bd
00000260: bc97 be3d b3c2 033e efba 343e bd05 723e
00000270: 885f 7dbd 8035 693e 9772 e03c b639 173d
-0.035591394 0.017735073 0.039080534 0.047550123 0.12926015 0.22775164 0.061390914 0.06002562
0.037843134 0.06387931 0.065389596 0.115081355 0.11654343 0.02205642 0.06922413 0.1525122
0.14870586 0.12635176 0.08513021 0.12124582 0.011508866 0.024535028 0.124771774 0.076009035
0.013795402 0.045920234 0.1885169 -0.007441221 0.1403389 0.15065056 0.27946538 0.05171921
-0.08133538 0.061174024 0.08628775 0.0342125 -0.015538679 -0.04106079 0.013153072 0.055528525
0.09717192 0.133108 0.060464207 0.024158647 0.069765225 -0.033393286 0.12724055 0.08008229
-0.03277284 0.15794198 0.0617716 0.022540033 -0.03676971 -0.13513327 0.11983404 0.040393535
0.007134525 0.08390704 0.15199709 -0.009754775 0.13267776 0.0678708 -0.099740036 0.06632808
0.04986671 0.019437976 -0.02050516 0.07299875 0.11766557 0.0029707202 0.031804767 0.036665563
-0.030704949 0.11548771 -0.11966011 -0.1137534 -0.056952238 0.03442616 -0.0024346672 -0.081456885
0.2513064 0.055875134 0.003843496 0.056135844 -0.015197157 0.15756974 -0.021131271 0.1085855
0.202634 0.027655344 -0.037553664 0.20561518 -0.022778394 0.0017453097 0.01913229 0.026410555
0.11521402 0.10247723 0.10032968 0.29160547 0.066665545 0.059149895 0.037183423 0.13483395
0.09637378 0.2724818 0.21257508 0.16840824 0.08184329 0.093536 0.02430157 0.05289461
-0.053843457 0.17903604 0.11913371 0.066520765 -0.022940652 0.14229414 0.18635431 0.153843
-0.04827245 0.100671865 0.11417048 0.15198685 -0.034813497 -0.03454593 0.22879277 0.14953002
0.0763439 0.055963065 0.14022508 -0.038843207 0.15917066 -0.032271374 -0.0318375 0.055592883
-0.031300478 -0.030213695 -0.02602403 0.048840128 0.21798012 -0.012783349 -0.04001513 0.13676676
0.18815312 0.028672785 0.09105348 0.15178058 -0.054478753 0.04389201 0.0042469976 -0.073427275
0.09306285 0.1286724 0.17649435 0.23635001 -0.061858684 0.22774315 0.02739839 0.03692027

bn2.running_mean f4 [160]
00000000: 63c8 7bbd a435 fcbd cde7 e1bd 3c7c 0bbe
00000010: 2f0a dfbd a6f2 49be 0e41 2d3e 196a 13be
00000020: 9cdc 2c3d 626c 13be a414 01bb 503a 183d
00000030: a71c 9c3b e45f 46be 2f9b 54be c5ec e7bd
00000040: 5fd8 13be cbbf f83d 9aaa 2d3b 6ac8 823d
00000050: 87d9 f03e 1e9a c23d 0927 923e a977 8bbd
00000060: f450 513c 976e 81be abc7 7abc b8f4 2cbd
00000070: 2072 1b3d f8c7 c2bd cfba 13be 65eb a93d
00000080: 82e0 01be ad0f 06be c21d 48be f1b7 f0bd
00000090: 4f3c 65be ae96 87be 136c 00be a0d6 c6bd
000000a0: 676a d63c f91a 16bd 6e01 debd 570a 313d
000000b0: 8a1c cbbd 88cf a1bd e11a a1bd efda 213e
000000c0: 4445 63bd 96b2 e5bc 3cea a5bd 5ba7 493d
000000d0: 8513 833b 4f36 f9bd 9401 9c3c 1c3d 3ebe
000000e0: 27d8 50be d4bc 863d 316f 91be 7010 acbe
000000f0: 53b6 48bd 2b62 c2bd e23e fdbd ba5f 933c
00000100: 2413 e8bd aaa8 fbbd ec98 a2be c513 4bbd
00000110: f93f 523a 0704 823c 6566 d1bd fb1e 3a3e
00000120: 1501 15be 0a87 16be c151 bfbe 2be0 3abe
00000130: fc8a 71bd 68de 38be 33d4 f23d 1f4c 7cbe
00000140: b94a fc3b c6d8 3ebe 9762 bcbd 21a1 dfbd
00000150: c457 0bbe f30c d3bd 217b 5abe 5d3b f33d
00000160: b307 b93d 5214 72bd 4a35 193e de18 a83d
00000170: 1eb4 a73e eda5 babd 3d26 3e3d 1bfc ca3d
00000180: 0c85 1fbe b4a7 f53c 55e3 373e f06b 2cbe
00000190: 5cd3 033d 093c 973e 6869 c23d 808b 3bbe
000001a0: 0a81 b53c 5dfb f3bd 1384 3abd bbba 16be
000001b0: 1984 6dbd 3f29 623e e593 2a3c 9e0b 64be
000001c0: 2e17 babd cc17 be3d d24a 46be 2078 c33e
000001d0: cb6f a73d 69a8 06be 8d38 353d f864 43be
000001e0: fcbe 0fbe cd01 5dbd 4463 35bd c658 d4bd
000001f0: b2a5 e4bd 849e 7cbd 7f78 ae3d a7bd cd3d
00000200: 4723 a8bd b71b d5bd cfc5 493c 3cdc 05be
00000210: 6882 6c3d 135b c9bd a1e4 58be b8d8 1cbe
00000220: d0d3 0f3c 2824 68bd 9dc4 f93c d2f4 1bbd
00000230: 656a 9a3d bca6 4dbe 2195 0cbe e6b5 f8bd
00000240: ad47 fb3d a9b3 cebd cce9 40bd 657b c2bd
00000250: 9cea 0fbe 44c7 e0bd 6903 a4be 9c7f 8fbe
00000260: bbd9 63be 24e0 4dbd 8d57 483e 437e 2cbe
00000270: 4acb 5bbc c7a9 423d a9ee f8bd bae4 b73c
-0.0614704 -0.12314919 -0.110305406 -0.1362161 -0.10890614 -0.1972147 0.16919348 -0.14395942
0.042202577 -0.14396814 -0.001969614 0.037164986 0.004764158 -0.19372517 -0.20762323 -0.11324457
-0.14438008 0.121459566 0.0026499392 0.06385882 0.4704096 0.09502052 0.28545406 -0.06809933
0.012775648 -0.25279686 -0.015306394 -0.04222557 0.037950635 -0.09510797 -0.1442673 0.08296851
-0.12683299 -0.13091917 -0.19542602 -0.11753834 -0.22386287 -0.26482147 -0.12541227 -0.09708905
0.026173783 -0.036646817 -0.108401164 0.04322275 -0.09917553 -0.079009116 -0.07866455 0.15806173
-0.05548598 -0.028039258 -0.08101317 0.04923187 0.0040001296 -0.12168562 0.019043721 -0.18577999
-0.20394956 0.06578985 -0.28405145 -0.3360629 -0.049002003 -0.0949138 -0.123655096 0.017989982
-0.11331776 -0.122880295 -0.31757295 -0.0495794 0.0008020397 0.015871061 -0.10224608 0.1817588
-0.14551194 -0.14699951 -0.3736706 -0.18249576 -0.058970436 -0.18053591 0.1185688 -0.24638413
0.0076993373 -0.1863738 -0.09198492 -0.10919405 -0.13607699 -0.10305204 -0.21336032 0.11876557
0.09034672 -0.05910141 0.14961734 0.08207868 0.32754606 -0.09113679 0.046423186 0.099113666
-0.15578097 0.029987194 0.17957814 -0.1683805 0.03218399 0.2953799 0.09492761 -0.18314934
0.022156257 -0.11913178 -0.045536112 -0.1471967 -0.057987306 0.22086047 0.010411237 -0.22270057
-0.090864524 0.09281883 -0.19364479 0.38177586 0.0817562 -0.13150181 0.044243384 -0.19081485
-0.14037699 -0.053956795 -0.04428412 -0.10368495 -0.111644164 -0.06167461 0.085190766 0.10045939
-0.082098536 -0.10405677 0.012315228 -0.13072294 0.057741553 -0.09831824 -0.21180965 -0.15317047
0.008778527 -0.056675106 0.03048926 -0.038075276 0.075398244 -0.20083135 -0.13728763 -0.121440694
0.122695304 -0.10092861 -0.047097966 -0.09496192 -0.1405434 -0.10975507 -0.32033852 -0.28027046
-0.22251026 -0.050262585 0.19564648 -0.1684504 -0.013415167 0.047525194 -0.12154896 0.022447933
