das_new/models/20260106_143235/best_model.pth (torch, 98946 bytes, 176 tensors)

input_conv.weight f4 [4, 1, 1, 3]
000000 6f ed 01 3f f8 e7 c7 be 1a 92 30 be ee 22 b7 3e
       0.5075292 -0.39044166 -0.17243233 0.35768837
000010 b0 c7 e6 3e 7e 7b f7 be e3 b2 ce be c9 b7 d4 be
       0.45074224 -0.48336405 -0.40370855 -0.41546467
000020 0c ef fd 3e 40 27 cf be de 02 85 3e 56 76 91 be
       0.4959644 -0.40459633 0.2597875 -0.28410596

input_bn.weight f4 [4]
000000 8d 16 5c 3f 52 f5 aa 3f 26 c5 62 3f 42 37 68 3f
       0.8597191 1.3356116 0.88582075 0.90709317

input_bn.bias f4 [4]
000000 d7 cc 5b be d1 61 9a 3e dd 4a 06 3d 3a 3e 7d 3d
       -0.21464859 0.30152753 0.03278624 0.061826922

input_bn.running_mean f4 [4]
000000 a8 49 fb ba 87 07 11 3b 61 b1 05 bb b5 38 a7 3a
       -0.0019171732 0.002212973 -0.0020399916 0.0012757989

input_bn.running_var f4 [4]
000000 da 4e 52 3e 50 3b 82 3e 0e 40 66 3e e1 95 fc 3d
       0.20537892 0.25435877 0.22485372 0.12333275

layer1.conv1.weight f4 [4, 4, 1, 3]
000000 c6 2a 8a 3e d4 eb f0 bc dd 40 b2 bb 79 47 4f be
       0.2698576 -0.029409327 -0.005439861 -0.20242108
000010 ef 6d 70 be c3 d6 1b be 75 08 35 be 92 72 8d bd
       -0.23479436 -0.15218644 -0.17679007 -0.06906618
000020 20 2b f6 3d f3 2f 1f be d9 2e 0b be d2 cb 4e 3e
       0.12019944 -0.15545635 -0.1359209 0.20194939
000030 97 ff aa bd 4a b9 f9 3e 73 ce 8a 3e 75 50 8a 3e
       -0.08349531 0.48774177 0.27110633 0.2701451
000040 8d f7 ae be 28 0c 33 be 59 2d 85 3e c2 61 64 3e
       -0.3417324 -0.17485106 0.2601116 0.22302917
000050 37 07 3e 3e 2e c0 47 be 1c 02 7f be d8 42 85 3e
       0.1855744 -0.19506904 -0.24903148 0.2602756
000060 ba 8e 3f be cd 15 39 3f 40 af 81 be e9 ad ab bd
       -0.1870679 0.7229889 -0.25329018 -0.0838278
000070 ba 96 b5 bf 1b 1b ae bd 3f f2 24 3e 9d 65 dd 3e
       -1.4186623 -0.08501264 0.16108035 0.43241587
000080 b1 38 f1 bd 27 7f 0d 3e ce 53 89 bf a2 c3 42 3e
       -0.11778391 0.13818036 -1.07287 0.1901994
000090 e8 ce 74 3e 7d e2 ba be 9f ed c9 bb 02 e7 f3 bd
       0.23907053 -0.36500922 -0.00616236 -0.119092956
0000a0 37 17 b4 be c3 36 2f be 51 1d 09 3e be 91 01 bf
       -0.35173962 -0.17110734 0.1339009 -0.5061301
0000b0 72 32 54 3e bd 00 95 3d 18 67 5c be 97 71 92 be
       0.20722368 0.072755314 -0.21523702 -0.28602287

layer1.bn1.weight f4 [4]
000000 3a 36 77 3f 0b d3 84 3f 51 8f 7b 3f ea a6 80 3f
       0.9656712 1.0376905 0.9826556 1.0050938

layer1.bn1.bias f4 [4]
000000 34 46 db bc fc 11 e3 3d aa c9 5a 3e eb e6 7c be
       -0.026766874 0.110874146 0.21365991 -0.24697463

layer1.bn1.running_mean f4 [4]
000000 43 8b 47 be 6f 75 e6 bd c2 9e 48 bf 9b 9c ec be
       -0.19486718 -0.112528674 -0.78367245 -0.4621323

layer1.bn1.running_var f4 [4]
000000 18 44 1e 3e 36 43 d3 3e 21 a4 8c 40 9b 27 43 3e
       0.15455663 0.41262215 4.3950353 0.19058077

layer1.conv2.weight f4 [4, 4, 1, 3]
000000 d5 02 7b be 69 18 82 3e 55 62 19 be 63 f2 13 3e
       -0.24512799 0.25409248 -0.14978917 0.14447932
000010 81 73 9b 3e d4 73 29 bd 6b c4 43 be 31 42 c1 3e
       0.3036156 -0.041370228 -0.19117896 0.37745813
000020 4b 63 30 be e3 38 32 3b b8 61 93 3d 1c d4 b7 bd
       -0.17225377 0.0027194552 0.07196373 -0.089760035
000030 c6 d0 2a bc 74 a6 ed bd b3 3b 72 3e 6b c8 90 be
       -0.010425752 -0.11604014 0.23655586 -0.28277907
000040 18 02 83 3e c2 c9 10 be b2 be cb bc df f4 ad 3d
       0.25587535 -0.14139464 -0.024871204 0.08493971
000050 77 5e 4f 3d 48 c5 83 be fe e4 a5 be bd 6f 31 bb
       0.050627198 -0.2573645 -0.3240127 -0.0027074658
000060 8b 11 87 bd 74 f3 d2 bb 00 24 97 bd 39 db 82 3e
       -0.06595143 -0.0064377133 -0.07379913 0.2555788
000070 88 b6 da 3c bb dd 0e 3e 3c a4 55 bd f2 b9 2b be
       0.026698366 0.13951771 -0.05215858 -0.16770151
000080 c7 90 2f be e3 35 28 3c 0c 41 96 be 56 f3 23 3e
       -0.17145072 0.010266754 -0.29346502 0.16010794
000090 37 04 e3 3d e9 34 d6 3e 07 f2 61 be 06 61 3b 3c
       0.11084788 0.41837242 -0.22064982 0.011436706
0000a0 1f 8c c5 3e 9b 91 6a bd 2b 6e c1 3d 0e 42 0f bf
       0.38583466 -0.057267766 0.09444841 -0.55960166
0000b0 b1 18 1d 3e 52 67 60 3c 49 2b 9e be e3 3e 97 bd
       0.1534145 0.0136965085 -0.308924 -0.073850416

layer1.bn2.weight f4 [4]
000000 8f ad b0 3f bc 22 67 3f 28 00 88 3f 44 e8 7e 3f
       1.3802966 0.90287375 1.0625048 0.9957316

layer1.bn2.bias f4 [4]
000000 93 94 27 3e 61 19 a2 bd b6 02 17 3e f0 ff d1 3d
       0.1636527 -0.07914997 0.14747128 0.10253894

layer1.bn2.running_mean f4 [4]
000000 ca 9d af 3e 11 c7 55 3d 58 d1 e1 bd 8a 35 13 bc
       0.3430007 0.052191798 -0.11026257 -0.008984933

layer1.bn2.running_var f4 [4]
000000 f7 3c 00 3e 99 b0 ad 3d c2 6e 8c 3d 02 7e 8c 3d
       0.12523256 0.08480949 0.06857063 0.068599716

layer1.fc1.weight f4 [1, 4]
000000 5e 7e a7 3e be dc 95 be 3d b8 e1 bd 6e 04 c5 bd
       0.32713598 -0.29269975 -0.11021469 -0.096199855

layer1.fc2.weight f4 [4, 1]
000000 3f 81 10 3e 61 6f aa bd c2 1c 2b 3e fb 98 f4 be
       0.14111803 -0.08322025 0.16710189 -0.47772965

layer1.fc2.bias f4 [4]
000000 ee f9 1d be 19 67 5a 3f e6 e1 85 be ae f6 47 3f
       -0.15427372 0.85313565 -0.2614891 0.7811078

layer1.shortcut.0.weight f4 [4, 4, 1, 1]
000000 7d 67 96 3d 76 f9 ea 3e ce 4f 0a bf f2 4f ed 3e
       0.073439576 0.4589345 -0.5402802 0.46350056
000010 5f bf d5 3e 5d e5 ed 3e f8 da af 3d 24 36 e7 be
       0.41747567 0.46464053 0.08586687 -0.45158494
000020 84 3f 59 be 27 7d 53 3e a3 41 a4 3e bb 69 80 3e
       -0.21215636 0.2065321 0.32081327 0.25080666
000030 ff fa 1d 3e 9a d3 8d be d2 f7 b5 3d f0 7c 94 be
       0.15427779 -0.27700502 0.088851586 -0.2900157

layer1.shortcut.1.weight f4 [4]
000000 6a 78 2d 3f 83 95 6c 3f 34 d4 87 3f 11 d9 86 3f
       0.6776186 0.92415637 1.0611634 1.0534993

layer1.shortcut.1.bias f4 [4]
000000 9c cc 29 3e e9 d5 f4 bd 53 42 2f 3e 72 68 9f 3d
       0.16581959 -0.119548626 0.17115144 0.07783593

layer1.shortcut.1.running_mean f4 [4]
000000 a5 80 7b 3e 1b be 63 3e 11 cc 71 3e df 4e 4e be
       0.24560793 0.22240488 0.23613001 -0.20147274

layer1.shortcut.1.running_var f4 [4]
000000 83 8b 30 3f b5 2e a1 3d 53 dc 25 3e fb e3 a6 3e
       0.6896288 0.07870237 0.16197328 0.3259581

layer2.conv1.weight f4 [4, 4, 1, 3]
000000 eb 29 87 be 7e ea 77 be 43 dd 83 be a2 57 26 bc
       -0.26399168 -0.24210545 -0.25754747 -0.010152729
000010 24 39 b0 3d b6 48 28 be 3b 8c ec bd 00 cf 22 3d
       0.08604649 -0.16433987 -0.11550184 0.03974819
000020 b4 d4 11 be fb ae 3a 3c a7 d0 8e 3e a5 1a 65 3e
       -0.14241296 0.011394258 0.27893564 0.22373445
000030 27 27 75 be 34 5a e3 3e 08 ea 7f 3e bb 35 90 3d
       -0.23940717 0.44404757 0.2499162 0.07041498
000040 fa 6a 29 bd cd ce 7d be 32 24 1e be 07 fd a9 be
       -0.041361786 -0.2478592 -0.15443495 -0.33200857
000050 15 8e 64 3e 75 0c eb bd f3 1d 87 3e 70 72 87 3e
       0.22319825 -0.11476985 0.26390037 0.26454496
000060 0c 59 82 3e 4e d0 45 be 60 19 36 be 6d 42 9a bd
       0.25458562 -0.19317743 -0.17783117 -0.07532201
000070 3b 2f 7b 3e d0 7d 48 be 47 3e 69 be 2e 9e 06 be
       0.24529736 -0.19579244 -0.22777663 -0.13146278
000080 43 bb 60 3e ec 1f a1 3c b4 c3 4c bd f1 35 94 bc
       0.21946435 0.019668542 -0.049991325 -0.018092128
000090 56 f0 6d 3e 6e 1e e6 3e 67 60 13 3d c2 bf 5f 3a
       0.23236212 0.4494509 0.03598061 0.0008535349
0000a0 a9 49 0c be af 1c 92 3d 2b 8f 6a 3e b6 07 13 be
       -0.13699974 0.07134377 0.22906177 -0.1435841
0000b0 da 5e 2f be d5 88 77 3d 56 38 f9 3d 83 fa 5a be
       -0.17126027 0.060433228 0.12168948 -0.21384625

layer2.bn1.weight f4 [4]
000000 0d 57 7e 3f 77 53 82 3f 6d 24 7f 3f dd 65 7c 3f
       0.9935158 1.0181721 0.99664956 0.9859293

layer2.bn1.bias f4 [4]
000000 5c b8 44 3c 4f 09 ae 3d 4b e9 98 bd c5 e3 c1 bc
       0.012006845 0.08497869 -0.07466372 -0.02366818

layer2.bn1.running_mean f4 [4]
000000 bd ef 01 3e 90 00 96 3d 0e 65 61 bd b9 42 82 3d
       0.12689109 0.07324326 -0.055028014 0.063603826

layer2.bn1.running_var f4 [4]
000000 10 89 9d 3d 59 b7 b9 3e 2b c5 87 3d 14 29 1c 3e
       0.07692158 0.36272696 0.06629404 0.15250045

layer2.conv2.weight f4 [4, 4, 1, 3]
000000 b2 7e 91 3e cf 34 51 3e 0c b8 b7 bd fd 6a 43 3d
       0.28416973 0.20430301 -0.08970651 0.047709454
000010 82 65 d3 3e 10 80 7d 3e fc 02 46 3e af de bb 3d
       0.41288382 0.24755883 0.19337076 0.09173333
000020 25 60 54 bd 69 84 b4 bc c0 1c 3c 3e bf 3b 52 be
       -0.051849503 -0.022035794 0.18370342 -0.20530604
000030 1f dd bd bd 61 e1 03 be 64 a0 53 bd 12 80 93 be
       -0.09270691 -0.12878944 -0.051666632 -0.28808647
000040 f6 87 e3 bc d9 b5 28 be ab e0 1b 3e 58 e4 02 be
       -0.027774792 -0.1647562 0.15222423 -0.12782419
000050 fb 94 51 be 01 17 87 be 38 5f fa 3d ba aa 65 be
       -0.20466988 -0.26384738 0.12225193 -0.22428408
000060 7f cd 62 3d dc dc 9e bd 38 c3 f9 3c 77 8f 50 3e
       0.055371758 -0.07756969 0.030488595 0.20367227
000070 65 71 2a be d7 41 ca bd 06 d2 3d 3e 50 0d 1c be
       -0.16644819 -0.09875839 0.18537149 -0.15239453
000080 11 d6 6b 3e 2f 13 84 bd 61 7b 00 3e 1f eb 5d 3b
       0.23030879 -0.064489715 0.12547065 0.0033862067
000090 bc 97 e1 3d 76 81 b5 3e 3e b9 80 be 0b e2 cc bd
       0.11015269 0.35450333 -0.2514133 -0.10004052
0000a0 51 cc 44 3e d0 c7 79 3e bd 44 85 bd af 18 cb be
       0.19218566 0.24392629 -0.065072514 -0.3966727
0000b0 d5 4a 2f 3d 46 6c 34 3d 84 0e bf 3c 59 eb a1 bd
       0.042795975 0.04404857 0.023322351 -0.07906217

layer2.bn2.weight f4 [4]
000000 43 28 7d 3f 32 a9 87 3f a6 7d 7e 3f 33 cd 67 3f
       0.9888956 1.0598509 0.99410474 0.90547484

layer2.bn2.bias f4 [4]
000000 87 2a d8 bc 63 b8 9d bd d8 87 71 bb fd ba 29 bd
       -0.026387466 -0.077011846 -0.003685465 -0.04143809

layer2.bn2.running_mean f4 [4]
000000 24 c2 a7 3e 36 66 93 bd d8 9e dc bd f9 dd bf 3d
       0.32765305 -0.071972296 -0.107724845 0.0936851

layer2.bn2.running_var f4 [4]
000000 ee a2 2b 3e 9d 6b 8f 3d dc 64 9c 3d be 41 f1 3d
       0.16761371 0.070029475 0.07636425 0.117801175

layer2.fc1.weight f4 [1, 4]
000000 b3 15 97 be 61 55 bb 3d 37 08 92 be c2 9c 04 3e
       -0.29508743 0.09147144 -0.28521892 0.12950423

layer2.fc2.weight f4 [4, 1]
000000 42 39 dd 3d 1a 5a 16 3e 73 f6 ed be 42 a6 5a bf
       0.10801937 0.14682809 -0.46477088 -0.8540994

layer2.fc2.bias f4 [4]
000000 62 7d 0e 3f da bb ab be a2 01 cc 3e ea e8 6e bf
       0.5566007 -0.33541757 0.39844996 -0.9332415

layer3.conv1.weight f4 [8, 4, 1, 3]
000000 9e b7 3b bc 52 80 7a be a1 ae a1 bd f1 73 98 bd
       -0.011457352 -0.24463013 -0.07894636 -0.07443989
000010 15 6f 0c 3e ca 5a ea 3d d6 dc 6e 3c 66 72 42 be
       0.1371425 0.11443098 0.014579019 -0.18988952
000020 90 18 fe bd d3 77 8f 3e 2b 9b 40 be a6 89 85 3e
       -0.12407029 0.28021106 -0.18809192 0.2608158
000030 91 e1 5a be 91 2d f4 bd be 4e 89 be d0 14 31 3e
       -0.2137511 -0.119227536 -0.26817888 0.17293096
000040 1f a2 2d 3e d4 15 3c 3e bd 66 7a be 51 a5 94 be
       0.16956376 0.18367702 -0.24453254 -0.29032376
000050 3b 99 80 3e 3e 28 41 3e d1 38 48 3d 72 df b7 bc
       0.25116906 0.18863007 0.04888231 -0.022445414
000060 e3 38 66 3e fd 24 80 3e 3a 99 5e 3e b4 f6 33 3e
       0.22482638 0.2502822 0.21738139 0.17574579
000070 76 26 7b bd d5 76 93 3e da ac 0f bd e9 28 c5 bd
       -0.061315976 0.288016 -0.035076953 -0.096269436
000080 dd c4 82 be a4 b3 33 3e c5 fd 44 3e da 39 eb bd
       -0.2554082 0.17548996 0.1923743 -0.11485644
000090 78 41 37 be f2 02 1b be 1f 00 27 3e 35 7e 38 be
       -0.17896068 -0.15137842 0.1630864 -0.18016894
0000a0 90 aa 12 be 69 cc 42 3e 03 82 79 be dc 20 46 be
       -0.14322877 0.19023289 -0.24366002 -0.19348472
0000b0 1e 79 90 bd dc 84 b7 3c 6a 87 ec 3d 42 59 70 be
       -0.07054351 0.02240222 0.11549266 -0.23471549
0000c0 fe ae 25 3d 3d 9c 51 bf 34 8d 18 be 3e e3 5c 3d
       0.04045009 -0.81879026 -0.14897615 0.053927653
0000d0 83 42 0b be 5a ab f2 3d f5 40 93 bc 30 ed 09 bf
       -0.13599591 0.11849089 -0.01797531 -0.53877544
0000e0 09 d7 6e be f0 19 ee 3c f3 6b 47 bd c1 e8 88 3e
       -0.23324217 0.029065102 -0.048686933 0.26740077
0000f0 cf d0 8a 3d c9 26 a3 bd 14 4a 70 3e 50 60 e7 3d
       0.06778108 -0.07966382 0.23465759 0.11297667
000100 82 c9 49 3d cd 9d 8b bd db f5 f0 bd dd 3d a8 3e
       0.04926444 -0.068172075 -0.11765643 0.32859698
000110 9e 02 2b 3e 49 38 61 3e c3 ab 00 be 29 dc 43 3e
       0.16700217 0.21994127 -0.12565522 0.19126953
000120 ca 39 88 3e e2 46 dd 3d 8e ba aa 3c 9d 00 7e 3d
       0.2660659 0.108045354 0.02084091 0.062012304
000130 5b c9 78 bd 34 bb cf 3d 9e 2f 63 be 18 08 c8 be
       -0.060738903 0.10143128 -0.22186133 -0.39068675
000140 30 2a f9 3d e7 c1 19 be b4 27 cb bd 23 6d 45 bc
       0.1216625 -0.15015374 -0.09919682 -0.012049946
000150 5c b9 1c be d4 b5 1a 3d 34 8b 12 3e dc 83 12 be
       -0.15305084 0.03777106 0.14310914 -0.14308113
000160 79 0c 1f 3e b8 d2 92 be 12 3a 46 3e d2 ab a3 3d
       0.15532102 -0.2867639 0.1935809 0.079917565
000170 63 6f 3e bd 38 05 6f 3e cb 97 c8 3e 75 70 cd ba
       -0.046492945 0.23341835 0.3917831 -0.0015673774

layer3.bn1.weight f4 [8]
000000 50 21 83 3f 03 1d 7d 3f 48 a2 79 3f 9c 46 7d 3f
       1.0244541 0.98872393 0.97513247 0.98935866
000010 51 39 88 3f d8 8e 7e 3f 6e 82 7c 3f 3c 70 76 3f
       1.0642492 0.9943671 0.9863652 0.96265006

layer3.bn1.bias f4 [8]
000000 26 28 39 3b f4 b5 3c 3a 38 8d f2 3c bd d4 0b bd
       0.002825269 0.0007198744 0.029608354 -0.03413843
000010 f7 64 ef 3d 3a 50 94 bb cf e1 2a bd 8d 55 e9 bb
       0.116891794 -0.0045261653 -0.041719254 -0.007120794

layer3.bn1.running_mean f4 [8]
000000 59 1c c1 be 9a 62 4b be a6 6c 2c 3e b1 63 5e be
       -0.3771694 -0.19861832 0.16838321 -0.21717717
000010 82 cc 66 bf 48 9f 28 3e df d1 ab be 35 5f f6 3e
       -0.90155804 0.16467011 -0.33558556 0.48119512

layer3.bn1.running_var f4 [8]
000000 05 35 20 3e cf 05 23 3e 4d 66 66 3e e8 19 37 3e
       0.15645225 0.15920185 0.22499962 0.17880976
000010 18 56 1b 3f 65 bd aa 3e f1 b1 ac 3e cb 97 3e 3e
       0.60678244 0.33347622 0.3372951 0.18612592

layer3.conv2.weight f4 [8, 8, 1, 3]
000000 88 d1 19 be 9f f8 ae be 46 12 3b 3e e0 bc 37 3e
       -0.15021336 -0.34174058 0.1826869 0.17943144
000010 e5 5f 6e be 84 40 e5 3d 19 57 27 bd 3e 0a 43 3e
       -0.23278768 0.11193946 -0.040854547 0.19046876
000020 ae 20 db bd 52 eb 49 be ae 06 09 be 8f 67 3e 3d
       -0.106995925 -0.19718674 -0.13381454 0.04648548
000030 a6 ab 4f be c2 0c 4f be 6d d8 be 3d d7 ba 53 3c
       -0.20280322 -0.2021971 0.09318624 0.012922964
000040 01 2d 07 3f 77 75 44 bd 8e d0 e0 3c a1 d1 23 3e
       0.52803046 -0.047963586 0.027443197 0.15997936
000050 00 f8 b3 3d af 5f 00 be 28 20 ae 3e 14 42 13 ba
       0.087875366 -0.125365 0.34008908 -0.00056174514
000060 2d 32 10 bd 85 24 05 bd d0 70 2e 3e f8 74 f7 3d
       -0.0352041 -0.03250553 0.17035222 0.12082857
000070 32 a7 0e be 2e 66 06 3e 8d d4 95 bc b4 ed a5 3e
       -0.13930967 0.13124916 -0.018289829 0.32407916
000080 d4 f6 fe bd ce c8 30 bb ce b1 40 be 57 c5 c7 3c
       -0.124494225 -0.0026975158 -0.18817827 0.024386091
000090 0a 1c 11 bd 7b c1 b5 bd d9 35 94 bc 8b 86 ff 3d
       -0.03542713 -0.08874794 -0.018092083 0.12476834
0000a0 12 d3 3e bd f3 b9 fa 3b 8f 85 30 be 4f ef f8 3d
       -0.04658801 0.0076515614 -0.17238449 0.121550195
0000b0 5a 3c 3b 3e 98 86 de 3d 12 d3 6f 3e 31 4f a2 3d
       0.18284741 0.108655155 0.2342036 0.07925261
0000c0 63 78 d3 bd 02 0c 0a be 1d d7 51 3d e7 6b 1a bd
       -0.10325696 -0.13481143 0.05123054 -0.03770056
0000d0 37 15 a8 3d 84 35 09 bd fa 31 00 be 10 3e 43 be
       0.082071714 -0.033498302 -0.12519065 -0.19066644
0000e0 c2 f6 d3 3c a0 f5 d2 3d 0d 46 58 3d 5a ac de bd
       0.0258745 0.103007555 0.05280118 -0.10872717
0000f0 7d 96 16 be 09 ee 03 be 2e 5d 1d be e5 d2 61 3d
       -0.14705844 -0.12883772 -0.15367576 0.055132765
000100 f8 f5 8b bd fd 98 4f 3e 3f 0f 0c 3e 0b 7a 37 be
       -0.06834024 0.20273204 0.13677691 -0.1791765
000110 d7 7f 7f bd f5 fb 20 3d 39 37 07 be 77 2a 36 be
       -0.062377777 0.039302785 -0.1320466 -0.17789637
000120 d8 3f d8 bc 42 20 5c be 4d e1 d9 3d 8d 5c b3 3c
       -0.02639763 -0.2149668 0.10638676 0.021894718
000130 84 51 d0 3d f7 28 55 3d c9 60 25 be f3 1c 72 bd
       0.10171798 0.05204102 -0.16150202 -0.05910964
000140 09 a4 ae bd 2b 50 fa bd d7 05 92 3d 68 04 b4 bd
       -0.08527381 -0.12222322 0.0713002 -0.08789903
000150 69 66 07 3e 8a 03 4c 3e dd fd f5 bd b5 a5 ed bd
       0.1322266 0.19923225 -0.12011311 -0.11603872
000160 79 2a 07 3e 5c 1d 2a be 09 d8 9b 3d 91 09 e5 3d
       0.13199796 -0.16612762 0.07609565 0.11183465
000170 c8 cd 13 3e 00 74 40 3e e6 4c 83 3d e1 f2 92 bd
       0.14433968 0.1879425 0.064111516 -0.07175232
000180 14 26 c4 bc 27 1c 17 be 31 09 da 3d 7a 92 ae 3d
       -0.023943938 -0.14756833 0.10646284 0.08524032
000190 54 02 66 be bf 30 f8 3d d4 86 cb 3d 1d 10 9f 3e
       -0.22461826 0.121186726 0.09937826 0.3106698
0001a0 14 ae ca 3d 6d 8d 1e 3e 84 f9 84 3d 96 44 fb 3d
       0.09896484 0.15483637 0.06492904 0.12268941
0001b0 04 c1 a6 3d 3e f7 c8 be be 91 a4 3d 7b 00 20 bd
       0.081422836 -0.3925113 0.080356106 -0.03906296
0001c0 a7 0f 97 3e 66 a8 00 3e 86 ae 3e be ed 53 9a 3d
       0.2950413 0.12564239 -0.18621263 0.07535539
0001d0 77 44 43 be 9e 15 1c 3d 99 b2 32 3e 87 bf 9a 3d
       -0.19069086 0.038106553 0.17450942 0.07556062
0001e0 81 29 42 be 1c f8 8a 3e 3b e8 32 be 90 43 2c be
       -0.18961145 0.27142417 -0.17471401 -0.16822648
0001f0 81 b5 35 3d d7 40 87 bc de 78 3d 3e 77 97 26 bd
       0.04436255 -0.01651041 0.18503138 -0.040671792
000200 72 75 1a 3e 44 3f 1d 3e d9 5f ed bd b1 d0 cc bd
       0.15083864 0.15356165 -0.11590547 -0.10000742
000210 17 b8 76 bd b4 67 0e be bd 11 d8 bd cd 3f 62 bd
       -0.060234156 -0.13906747 -0.10550258 -0.055236626
000220 3d 70 ec bc 0f 1f 6c 3d db 2a f9 3d 7e 61 fe bb
       -0.028862113 0.057646807 0.12166377 -0.007763087
000230 8c 02 ea bd a7 17 4c 3d b7 97 8b 3d 97 17 02 be
       -0.11426267 0.049827244 0.06816047 -0.12704311
000240 f9 ef bc bd c6 ca 5b 3c 81 c9 3d bc 35 4e 0c 3e
       -0.09225459 0.013415044 -0.011583687 0.13701709
000250 27 60 d7 3c 95 e2 1f 3e c7 c4 4b be 70 d7 4d be
       0.026290966 0.15613778 -0.19899283 -0.20101714
000260 00 40 21 3e f5 73 d1 3c 84 88 89 be b0 35 4e 3e
       0.1574707 0.025567988 -0.26861966 0.20137668
000270 6c 03 4a 3e 73 56 cb be 7e fa 45 3c 54 8f 18 3e
       0.19727868 -0.39714393 0.012083648 0.14898425
000280 9c dc dc be 84 2d 8f bd 73 4a 03 3e 2f bd f4 3d
       -0.43137062 -0.06991103 0.12821369 0.119501464
000290 73 23 87 3b 7d d6 0f 3e 9f cc d9 be 05 ae ad 3d
       0.004124099 0.14046665 -0.42538926 0.08480457
0002a0 ab a2 ff bd 89 d1 6b 3d 41 86 9f 3b 03 68 29 be
       -0.12482198 0.057572875 0.0048682992 -0.16543584
0002b0 f0 c1 29 3d c3 10 b7 3d 7a af 30 3e b4 e1 1c 3e
       0.04144472 0.08938744 0.17254439 0.15320474
0002c0 b4 da 08 bc 33 c8 59 bd 1c ac 2d 3e b3 77 3f bd
       -0.008352924 -0.05316944 0.16960186 -0.046745013
0002d0 e3 1e 40 be 46 aa 40 3e 02 f9 2f bd 15 1f 4d 3e
       -0.18761782 0.18814954 -0.04296208 0.20031388
0002e0 15 46 bb bd 49 92 97 bd 96 7b 4b be f0 d2 cd 3d
       -0.091442265 -0.074009486 -0.19871363 0.10049999
0002f0 df b6 cf 3d cb d4 0f 3e 65 7c e2 3d cb c9 45 3e
       0.10142302 0.14046018 0.110588826 0.19315259

layer3.bn2.weight f4 [8]
000000 3e 15 80 3f 8d 44 6c 3f c4 68 80 3f 13 15 83 3f
       1.0006483 0.922921 1.0031972 1.0240806
000010 a9 2d 7f 3f 73 21 77 3f d4 88 84 3f b5 09 81 3f
       0.99679047 0.96535414 1.0354257 1.0081087

layer3.bn2.bias f4 [8]
000000 d9 ef 18 3d ac 12 b4 bc 3a 43 00 bd a7 e5 19 3d
       0.03733811 -0.02198156 -0.031314112 0.03757253
000010 86 b6 92 3b 14 e5 e7 bb 66 3f 3d bd 53 61 cf 3b
       0.004477325 -0.007076869 -0.04620304 0.0063287406

layer3.bn2.running_mean f4 [8]
000000 88 0b 71 3d a2 a7 7f 3d 6e e2 86 be 02 f8 e5 3d
       0.058848888 0.062415726 -0.26344627 0.11228944
000010 fa 02 c5 3c 73 d3 23 3d 0c 2a 0b bf 42 41 8f 3e
       0.02404927 0.039996576 -0.54361033 0.27979475

layer3.bn2.running_var f4 [8]
000000 c1 f8 ec 3e 81 c8 23 3e 92 9f a5 3d 31 e3 88 3d
       0.46283534 0.15994455 0.08087076 0.06683958
000010 5b e6 a7 3e c8 6c 88 3d eb ff 1f 3e d5 d5 f9 3d
       0.32792935 0.066613734 0.15624969 0.12198988

layer3.fc1.weight f4 [2, 8]
000000 dc 71 5c be d4 fb 46 3e ee f0 70 3e f8 12 93 3e
       -0.21527809 0.19432002 0.23529407 0.2872541
000010 8b e0 91 be 6f 85 a7 3e e3 db 2d bd b8 ce c0 bd
       -0.28491625 0.3271899 -0.04244603 -0.094144285
000020 05 68 be be 7d 93 90 3e 51 bf 82 3c 03 51 0f be
       -0.37188736 0.28237525 0.015960367 -0.13995747
000030 35 af 08 bd 62 50 43 3e 95 03 13 3d 80 dd 09 3e
       -0.033370215 0.19073632 0.035892088 0.13463402

layer3.fc1.bias f4 [2]
000000 82 71 95 be d1 16 4e 3e
       -0.29188162 0.20125891

layer3.fc2.weight f4 [8, 2]
000000 c5 db 14 3e 2d 1c 78 3e 1f a7 d6 3e 5b 72 49 bd
       0.1453696 0.24229498 0.41924378 -0.049181323
000010 8e 10 19 bf f6 2e f2 3e 0f 6c cc be 8e 71 23 3f
       -0.59790885 0.47301453 -0.39926192 0.63845146
000020 7c a5 38 be 4c c6 06 bf f8 5b c1 3e 1c bc bb 3e
       -0.18031877 -0.52646327 0.3776548 0.36666954
000030 b1 12 0b bf cb a2 20 3f af ca 50 3e 97 fb e1 3d
       -0.54325396 0.627484 0.20389818 0.11034315

layer3.fc2.bias f4 [8]
000000 0b 40 4e 3e c6 40 d3 bc c9 37 05 3e f0 89 13 3f
       0.20141618 -0.025787722 0.13009562 0.5763235
000010 1f 3d 1f bf 26 aa 67 3b fe 30 fc be f7 5b bd 3d
       -0.6220264 0.003534922 -0.49256128 0.092460565

layer3.shortcut.0.weight f4 [8, 4, 1, 1]
000000 71 f2 0b 3e 38 0a eb 3e ab f4 38 3d c2 ef 71 3e
       0.13666703 0.45906234 0.04515521 0.23626617
000010 a5 da 5a 3e dd 8c 84 bd da d9 b6 be e3 fb 59 3e
       0.21372469 -0.0647218 -0.35713083 0.21287493
000020 05 e6 4b 3c cb 21 b2 bc f1 27 0d 3f 44 cc 10 be
       0.012444978 -0.02174463 0.5513907 -0.14140421
000030 5e 48 76 be 77 ce 9c bd b5 31 e9 3d 65 76 d3 3e
       -0.24051043 -0.076565675 0.11386434 0.41301265
000040 69 aa 97 3e 1f a5 ee 3e 44 ea b0 3b 09 d9 5f 3d
       0.296222 0.46610352 0.0053990204 0.05465034
000050 b7 a7 0a be d6 ae 7a 3d cc c5 6e be 56 b9 12 be
       -0.1354054 0.061201893 -0.23317641 -0.14328513
000060 fb ac bc 3d f5 24 04 3f 4f 33 9a bc b8 46 04 be
       0.09212681 0.5161889 -0.018823294 -0.12917602
000070 fd 5c a3 be fa 3a 0e be 79 52 0d 3d 4a d1 ca 3e
       -0.31906882 -0.13889685 0.03450248 0.396128

layer3.shortcut.1.weight f4 [8]
000000 8e 57 7c 3f 4e 82 7a 3f e9 d4 75 3f 5f a3 82 3f
       0.985711 0.9785508 0.96028 1.0206107
000010 7a cd 82 3f 73 75 84 3f 0f cd 6f 3f 4b e2 7c 3f
       1.0218956 1.0348343 0.9367227 0.98782796

layer3.shortcut.1.bias f4 [8]
000000 c3 97 14 3d 43 f6 0c bd 73 7a dd bb 44 40 62 3d
       0.036277544 -0.03441454 -0.006758982 0.05523707
000010 04 c8 22 3c d1 ec 63 bc 41 4e da bc d4 e9 8d 3c
       0.009935383 -0.013911442 -0.026648642 0.017323412

layer3.shortcut.1.running_mean f4 [8]
000000 80 af 07 3f 8e 4c 31 bd 90 2b 9e 3e a7 e9 75 3e
       0.53002167 -0.0432859 0.3089261 0.24014913
000010 37 aa e3 3e f5 b5 b0 be 9a de 51 3e d2 ab c3 3d
       0.444658 -0.34513822 0.20495072 0.095542565

layer3.shortcut.1.running_var f4 [8]
000000 17 7b 47 3e 3c 43 0c 3f 5e 1a 22 3f 5f 95 f7 3d
       0.19480549 0.5479009 0.63321483 0.12089037
000010 c4 92 30 3e 75 ce 03 3e 0f f4 1b 3e d1 05 ff 3d
       0.17243487 0.12871726 0.1522982 0.12452281

layer4.conv1.weight f4 [8, 8, 1, 3]
000000 a3 70 dd 3c 17 2d eb bd 37 82 0b be 7d 6c 95 3c
       0.027031248 -0.114832096 -0.13623892 0.018240208
000010 53 90 bc 3d f8 35 d6 bd 37 20 0a 3d 1b 2c cd 3e
       0.09207215 -0.104595125 0.03372213 0.40072712
000020 b1 a1 eb 3d 20 64 00 3e bd ed bc bd 04 b3 4a be
       0.115054496 0.12538195 -0.092250325 -0.19794852
000030 78 f3 3b 3e 0e 58 e3 bd e0 24 c1 3d e3 0a 22 bd
       0.18354595 -0.111007795 0.094308615 -0.039561164
000040 67 51 9f bc a8 b2 f4 3c 34 f5 5e 3d 04 9c 3b 3b
       -0.019447995 0.029870346 0.054433063 0.0028626928
000050 9b f7 c8 bc bf 61 cb bd 0d 35 44 be 1f 2b 22 3e
       -0.02453213 -0.09930753 -0.19160862 0.15836762
000060 a2 33 02 3e ae a5 96 3d 4a 95 4c 3e d3 53 d2 3c
       0.12715009 0.0735582 0.19978824 0.025674736
000070 e1 27 03 be af f3 87 bd 4e 85 36 3e 5f 9d 00 3d
       -0.12808181 -0.06638276 0.17824289 0.03140008
000080 5a b1 c4 bd f8 75 98 3d 12 b5 62 be e3 17 8c 3d
       -0.096041396 0.07444376 -0.22139385 0.068404935
000090 dc 7e 12 bd c1 15 82 3b 0c fd df 3d f8 22 00 be
       -0.035765514 0.0039698784 0.10936937 -0.1251334
0000a0 f5 c0 0a 3e 17 d6 41 3d 11 d6 6d ba 5f 9d 75 bd
       0.1355017 0.047323313 -0.0009072731 -0.059964534
0000b0 34 71 ff 3d cb ca 43 3b 58 0d 01 be 97 fb 27 3d
       0.12472764 0.0029875513 -0.12602746 0.04101142
0000c0 8c ec ea bd 58 12 00 be b7 8f 9e 3c 75 80 9c 3d
       -0.11470899 -0.12506998 0.019355638 0.07641689
0000d0 80 5d cd bb 51 b9 36 bd eb 29 a8 bd 5c 25 85 bd
       -0.0062672496 -0.044610325 -0.0821112 -0.06501266
0000e0 4d 0d 09 be c1 0c 0f bc 73 93 30 3e bb e9 a5 ba
       -0.1338398 -0.008731068 0.17243747 -0.0012658158
0000f0 bd 39 e8 3a 5b d9 7c be 33 8d be bd 51 17 e1 3d
       0.0017717403 -0.2469229 -0.09304275 0.109907754
000100 82 92 81 3d d8 14 18 3e 98 40 83 3d 05 c0 3a be
       0.06326772 0.14851701 0.06408805 -0.18237312
000110 87 de 0b be 48 c7 50 bd e8 57 b5 3e 1c 58 3b be
       -0.13659106 -0.0509713 0.3541863 -0.1829533
000120 4e ee 87 3d 5d 75 b4 3e ab a6 e4 3d c7 79 e1 bc
       0.0663725 0.3524579 0.11164602 -0.027523888
000130 23 c1 3b 3e fe b9 2b 3e 78 a2 a2 3c d5 11 b8 bd
       0.18335395 0.16770169 0.019852862 -0.08987776
000140 2f df fc 3d aa d0 0e 3e 85 25 69 3d 2a de 9e bd
       0.123472564 0.13946787 0.056920547 -0.07757218
000150 b7 40 27 be 5d aa 1a 3f 99 c6 0d 3e 92 ff c4 3d
       -0.1633328 0.60416204 0.1384529 0.09619059
000160 57 05 74 bb 2e 4f 87 bd ed ad 49 3e e0 df e9 3e
       -0.0037234628 -0.06606899 0.19695254 0.45678616
000170 b6 da 29 3e 80 40 44 be f2 d7 a6 bd 82 a8 f7 3d
       0.16587338 -0.1916523 -0.08146657 0.12092687
000180 ef cc 12 be 44 ef 8c bf b7 1d 20 be 31 91 b3 3d
       -0.14335988 -1.1010518 -0.15636335 0.087679274
000190 91 92 77 be 53 6e 2c be ab 23 ed bc 04 62 0d 3f
       -0.24177004 -0.1683896 -0.028947672 0.55227685
0001a0 49 eb ce bc 9c 99 90 3d 8b 07 7b be e2 0f 1b be
       -0.025258677 0.07060549 -0.24514596 -0.15142778
0001b0 44 6b 1d 3e a8 73 dc bf 3b 15 a5 bd 13 9a 6b 3d
       0.1537295 -1.7222795 -0.0806069 0.057519984
0001c0 cc ed 15 3f 14 5e c9 bd 07 48 42 bd 49 32 91 bf
       0.58565974 -0.09832397 -0.047431972 -1.1343471
0001d0 6d 12 bd 3d a1 5b 2a be 9b a9 1e be ff 94 09 be
       0.0923203 -0.16636516 -0.15494387 -0.13435744
0001e0 b5 2d c7 3d 47 38 5c be 80 be 93 3d da fd 74 bc
       0.09725515 -0.21505843 0.07214069 -0.014953101
0001f0 05 26 29 be 8f b0 01 3e d8 63 90 bc 5d ad b9 bd
       -0.1651841 0.12665008 -0.017625734 -0.090662695
000200 86 48 23 be 3f ef 4f 3e 00 18 a8 be 30 1d 30 3e
       -0.15945634 0.20306109 -0.3283081 0.17198634
000210 ac 77 4a bd 3a b7 a5 bc 41 f7 9b 3d 0d 86 0e 3e
       -0.049430534 -0.02022897 0.07615519 0.13918324
000220 7f 7e 33 bd 3e 8a 1f bb 11 1a 9c bc 79 26 eb 3d
       -0.043821808 -0.0024343873 -0.019055398 0.114819475
000230 cc 00 14 be b9 7c 0f be d5 35 20 be 23 55 17 3c
       -0.14453429 -0.14012422 -0.15645535 0.009236607
000240 f4 32 5a 3c 91 d8 ee bd d4 d5 f1 3c af f9 28 be
       0.013317812 -0.116624005 0.029520907 -0.16501497
000250 d5 04 ef bd a3 39 3a be 0d 84 d6 3d 1d f4 93 3e
       -0.116708435 -0.18186049 0.104744054 0.2889718
000260 38 24 9e bd 83 89 11 3d 33 45 46 be a2 74 3f be
       -0.07721752 0.035531532 -0.19362335 -0.18696836
000270 9e 98 23 be 00 81 b3 be 6a b5 cd 3c bb bd 46 3e
       -0.15976188 -0.35059357 0.025110919 0.19408314
000280 2b d0 d0 3d 86 64 41 3e 5d 57 38 3e 20 a0 57 3e
       0.10195955 0.18886003 0.18002076 0.21057177
000290 c6 c8 ea bb 91 70 3c be 6c f9 88 3d b7 4c f3 bd
       -0.0071650473 -0.18402316 0.066881984 -0.118798666
0002a0 13 45 de 3d be 7a bb be cd 81 48 be b0 b6 1e 3e
       0.108530186 -0.36617082 -0.19580765 0.15499377
0002b0 b4 b7 af bd db 46 fe 3d 97 03 fc 3d e0 b5 3e 3e
       -0.085799605 0.12415858 0.12305372 0.18624067
0002c0 a4 f1 ad bd 0a 10 c8 bc 50 83 70 bd 66 ba 4c 3e
       -0.08493355 -0.02442171 -0.05871898 0.1999298
0002d0 99 ee 0d be 4f 86 ba be 55 44 20 3e 97 be bd 3d
       -0.13860549 -0.36430594 0.15651067 0.09264868
0002e0 18 6b 14 3e 59 08 42 be cc fc df 3c 85 07 71 3e
       0.14493978 -0.18948497 0.027342223 0.23538025
0002f0 2c d2 4e be 22 de 35 3e 12 5e 22 3c d2 15 16 3e
       -0.20197362 0.17760518 0.009910123 0.14656761

layer4.bn1.weight f4 [8]
000000 03 83 88 3f 70 a9 81 3f b1 7e 6f 3f 42 93 79 3f
       1.0664982 1.0129833 0.9355269 0.9749032
000010 7d 5c 79 3f e2 a9 82 3f 9e c5 82 3f 11 73 7a 3f
       0.9740675 1.0208094 1.0216558 0.9783183

layer4.bn1.bias f4 [8]
000000 a4 7d b7 3d 5f 57 17 3d c1 35 8e bd 65 63 d4 3c
       0.08959511 0.036948558 -0.069438465 0.025926301
000010 16 9a a9 bc 60 bc bb 3d 78 cc 35 3d 93 1e 09 bd
       -0.020703357 0.09166789 0.04438445 -0.033476423

layer4.bn1.running_mean f4 [8]
000000 74 4d 70 bd 23 87 22 be 2e f8 16 3b 21 24 3c 3f
       -0.058667615 -0.15871863 0.002303611 0.7349263
000010 b0 39 d4 bf 8e 53 03 bf f2 5a da bd ad 02 2d be
       -1.6580105 -0.5129937 -0.10661878 -0.16895552

layer4.bn1.running_var f4 [8]
000000 6a ce 8d 3e 66 9f 75 3e be 7b bb 3e 9c d5 67 3f
       0.27696544 0.23986587 0.36617845 0.9056032
000010 19 7b 09 41 52 32 f8 3e 65 7f 02 3f 32 2b 2c 3f
       8.592553 0.4847589 0.5097564 0.6725341

layer4.conv2.weight f4 [8, 8, 1, 3]
000000 ed e8 89 bd a8 0c 79 3e c6 0a 23 3c ae ef 47 3e
       -0.0673388 0.24321234 0.009951299 0.19525024
000010 57 2d 19 3e 83 a7 0d 3e 17 b3 a1 bb 81 5a e8 bc
       0.14958702 0.13833432 -0.0049346793 -0.028363468
000020 66 8e 3d 3e 15 61 0e be 2a 88 ed bd d9 7b f4 bd
       0.18511352 -0.13904221 -0.11598237 -0.119376846
000030 18 8c d1 bc 9e cc ab bb 13 ab 99 3d 6f 86 4c 3e
       -0.025579497 -0.005242898 0.07503333 0.19973157
000040 d8 22 c1 3d 33 bc 06 bd 7e fe cf 3d 35 04 6b 3e
       0.09430474 -0.032894325 0.101559624 0.22950824
000050 73 61 b1 3d 25 65 e8 bd 39 8e 9a 3d 87 43 61 bd
       0.08661165 -0.11347417 0.07546658 -0.05499604
000060 12 fe e6 3d 46 6a 9e be 11 98 3c bd dd 49 31 be
       0.11278929 -0.30940455 -0.04604346 -0.17313333
000070 12 4c 8d be ec 88 e1 ba 44 6b b8 bd 26 41 d6 bc
       -0.275971 -0.0017206944 -0.09004834 -0.026154112
000080 57 09 9a bd 98 7a 90 bd 3c d0 48 3e 95 e5 c5 3d
       -0.07521313 -0.07054633 0.19610685 0.0966293
000090 6c 45 ff 3c 57 43 fb bc 09 32 bd bd 10 33 47 bd
       0.031161033 -0.030671759 -0.09238059 -0.04863268
0000a0 84 22 45 be 87 82 20 3e 39 a3 39 be 08 8f 6d be
       -0.19251448 0.15674792 -0.18128671 -0.23199093
0000b0 00 0e 15 3e b7 45 27 3e f7 6c 49 bd b1 72 02 be
       0.14556122 0.16335188 -0.049176183 -0.12739064
0000c0 59 24 e9 3d db 6b 44 3e af d1 45 3d 74 81 c3 bd
       0.11383886 0.19181769 0.048295673 -0.095461756
0000d0 c0 6e bf bd d5 87 40 3e e5 ff 30 bd fd eb 18 be
       -0.09347296 0.18801816 -0.04321279 -0.14933772
0000e0 48 a9 18 3e ba 9c 21 be e2 27 a5 bd 8c 35 74 bb
       0.14908326 -0.15782443 -0.08064248 -0.0037263362
0000f0 a1 d2 06 3e 6c b2 93 bd b6 94 08 3d 86 91 11 3e
       0.13166286 -0.07211766 0.033344947 0.14215669
000100 7f 54 a2 3e 6e d1 b6 bd a0 8f a6 bd b4 21 4a 3e
       0.3170509 -0.08926664 -0.08132863 0.19739419
000110 6a dd a2 3b c9 fc 07 3d 38 47 31 3e 2b 03 25 3e
       0.0049702423 0.03320006 0.17312324 0.1611449
000120 88 66 84 3d 23 0e c6 3d 87 63 28 3e e5 1d b7 3d
       0.06464869 0.09670665 0.16444217 0.08941249
000130 2c 00 c8 bd 28 fd 16 3e 8b 07 19 bd 78 00 0c 3e
       -0.09765658 0.14745009 -0.03736071 0.13672054
000140 c3 69 3b 3b 29 41 d2 bd b3 4a 65 bd bb b9 48 3e
       0.0028596974 -0.102663346 -0.05597944 0.196021
000150 70 66 47 be 7e 99 36 be c6 20 43 3e 4e 0f 50 3e
       -0.1947267 -0.1783199 0.19055471 0.20318338
000160 94 87 56 be fb 4a 10 bc 4e 26 0d 3e 91 5c ce 3d
       -0.20950156 -0.008806939 0.13784143 0.100762494
000170 70 4f 30 3e 48 6a 0d be ad ee b7 bd 1b 0e 00 3e
       0.17217803 -0.13810074 -0.08981071 0.12505381
000180 3e f8 eb bd 17 b6 98 3d b6 e0 33 3e f5 5a 22 3e
       -0.11521958 0.07456606 0.17566189 0.1585501
000190 9a 7e 6e be af 97 42 be 81 8f 31 3d 10 71 ca bb
       -0.23290482 -0.19003175 0.043349747 -0.006178029
0001a0 f1 c3 ac 3d 9d 04 44 3e e4 14 ad be f3 ab 99 3d
       0.0843581 0.19142385 -0.33805 0.075035
0001b0 5a f8 0b 3c c2 03 d6 bd 18 54 98 3d ac 8b f8 bc
       0.008543098 -0.104499355 0.074379146 -0.030340038
0001c0 37 3e 3d be ea a4 18 3e 2c e0 ea bd 2a e8 56 3d
       -0.18480764 0.1490666 -0.11468539 0.052467503
0001d0 ca a7 2a 3e 21 0d 49 3e 81 50 5d bd c7 8a 7e 3d
       0.16665569 0.19633915 -0.054031853 0.062144067
0001e0 e1 8c 9b 3c 07 64 6a 3e 72 0e 09 3e 47 85 31 be
       0.018988075 0.2288972 0.13384417 -0.17335998
0001f0 b9 a6 22 3e ca 32 5e bd 5e c3 24 3e b5 9a 94 3d
       0.15883912 -0.054247655 0.16090152 0.072560705
000200 9d 4f 6b 3d 13 bc 97 3b 71 0c a9 be 30 b0 9d 3d
       0.057448972 0.0046305745 -0.33017305 0.07699621
000210 8a a3 59 3d 9a 79 42 3e a6 e2 36 3e 11 bf fc 3d
       0.05313448 0.189917 0.17859897 0.123411305
000220 35 b2 01 3e d8 6e 8d 3c 94 39 b6 3d 72 0e 28 bc
       0.12665637 0.017264768 0.08897701 -0.01025735
000230 43 97 62 bd 05 4b 36 be b2 f9 61 bd 9c 1b d4 3c
       -0.055320036 -0.17802055 -0.05516977 0.025892071
000240 36 dc 3a bd e5 3f 32 3e 64 29 f1 bc f2 6a 2b bd
       -0.045620166 0.17407186 -0.029438682 -0.041850038
000250 95 6a 22 be 41 c3 90 bd 67 93 25 be 4b cb 10 be
       -0.1586097 -0.07068492 -0.16169511 -0.1414005
000260 50 16 6c 3d 2f 82 41 3c ce c3 b2 3d eb bc 4f 3c
       0.057638466 0.011810823 0.08728753 0.012679319
000270 84 75 12 3e ce 33 8b 3c 6c 26 c4 3c 2f 79 6b 3c
       0.14302641 0.016992476 0.023944102 0.014372154
000280 08 d8 7b 3e 60 1e 0d be a6 1a 07 be 7f 17 1b 3e
       0.24594128 -0.13781118 -0.1319376 0.15145682
000290 ae 80 3f be 65 ef ff bd ab c3 5b 3e 6d 30 3b bc
       -0.18701431 -0.12496833 0.2146136 -0.01142512
0002a0 5c 82 b6 3d 80 8d 6e bd 2d 99 4a 3e 8b 25 1f 3e
       0.08911583 -0.058240414 0.19784994 0.15541665
0002b0 35 d5 73 be ba 60 08 be 22 1b 67 3d a9 4b 0a 3e
       -0.23811801 -0.13318148 0.05642236 0.13505425
0002c0 5b 03 86 3d d3 e0 58 3d 89 86 31 bc 1b a4 7c 3c
       0.06543609 0.052948784 -0.010835298 0.015419985
0002d0 09 26 47 be 0b 14 ae bb fb 9f 77 bc 66 68 55 3d
       -0.19448103 -0.005312448 -0.015113826 0.052101515
0002e0 d9 b2 0e be e2 7e b7 bd 8d f1 de bd e4 61 de bd
       -0.13935412 -0.08959748 -0.10885916 -0.10858515
0002f0 af bf 3b 3e dc 88 e4 bd 83 ea 03 3e 8b a4 71 3d
       0.1833484 -0.11158916 0.12882428 0.05899481

layer4.bn2.weight f4 [8]
000000 a0 1e 85 3f 29 bb 7b 3f ba b3 8b 3f 73 29 83 3f
       1.0399971 0.9833246 1.0914223 1.0247024
000010 3b 05 81 3f 89 0f 81 3f 79 18 7f 3f 7c c2 71 3f
       1.0079721 1.0082866 0.9964672 0.94437385

layer4.bn2.bias f4 [8]
000000 5f e7 eb 3c ca 37 ca bc 5b 8a 2b 3d 7b 82 e5 3c
       0.02879685 -0.024684805 0.041879993 0.02801632
000010 a8 9d df b8 c3 d3 05 3c d8 99 cf b9 ea 6c 03 3c
       -0.000106628344 0.008168164 -0.0003959674 0.008021573

layer4.bn2.running_mean f4 [8]
000000 ec 8b 81 3e 84 93 ab be 17 b4 55 3e 4a 88 e8 bd
       0.25302064 -0.33510983 0.2086948 -0.1135412
000010 f4 53 86 be 6f 36 18 3e 6d 5f 75 3e f3 60 04 be
       -0.26235926 0.14864515 0.23962183 -0.12927608

layer4.bn2.running_var f4 [8]
000000 b7 98 2f 3e c0 0b 7c 3e e6 e4 35 3e 59 3a bc 3d
       0.171481 0.24613857 0.17763099 0.091908164
000010 27 ba dc 3d 05 e7 44 3e 20 52 0c 3e 35 e5 c0 3d
       0.10777693 0.19228752 0.13703203 0.09418718

layer4.fc1.weight f4 [2, 8]
000000 d6 05 89 3e 11 43 3c bc 07 af 36 3e 56 15 8f 3e
       0.26762265 -0.011490599 0.17840205 0.27945966
000010 60 2f 99 3e 5c 77 b3 3e 7a b7 98 bd 32 de a5 be
       0.29918957 0.35052 -0.074568704 -0.32396084
000020 6b 75 ad be 97 44 b0 be 79 61 9a 3e 65 0d 87 3e
       -0.33878645 -0.3442733 0.3015249 0.26377407
000030 08 bd 5e 3d f8 f9 d0 bd 0a ab 6c be 79 1f b2 3c
       0.054379493 -0.10203928 -0.23112121 0.021743523

layer4.fc1.bias f4 [2]
000000 54 42 84 3e a4 df 1d 3d
       0.25831854 0.03854336

layer4.fc2.weight f4 [8, 2]
000000 80 0b 63 be 6e 57 8b 3e f1 16 12 bf 26 d2 89 3d
       -0.22172356 0.2721514 -0.57066256 0.06729536
000010 2d b2 46 bd 6f aa 39 be 22 15 97 3e c2 d7 ed 3e
       -0.048509765 -0.18131422 0.2950831 0.46453673
000020 94 1a 24 be 65 4a 18 be 6e 96 f7 3d bc e5 95 be
       -0.16025764 -0.1487213 0.12089239 -0.29276836
000030 73 22 a8 be 79 34 de 3e b3 d4 9d be 62 65 2f bf
       -0.32838783 0.43399408 -0.3082634 -0.6851407

layer4.fc2.bias f4 [8]
000000 87 47 0d 3f 5d 8d c3 3e 74 b0 13 bf 6e 8d 3f be
       0.5518727 0.3819379 -0.5769112 -0.18706295
000010 c4 08 8e bd 9f 8d e3 3e 51 50 cd be 26 24 11 3e
       -0.06935266 0.44443986 -0.4010034 0.14173946

layer5.conv1.weight f4 [16, 8, 1, 3]
000000 1d 0d 15 be ba 6d a9 bd 5c 8d 7c bd 92 76 2c be
       -0.14555784 -0.08272882 -0.06165825 -0.16842106
000010 e3 d2 dd 3d 8b 1e 4a be eb a8 e4 3d 18 1f 3d bd
       0.10831239 -0.19738214 0.11165031 -0.04617223
000020 df 4f 3f be 01 be 63 3d 23 86 5f be bf 9f 4e 3e
       -0.18682812 0.055601124 -0.21828513 0.20178126
000030 51 9e 13 3e 3a ea 3f 3e 76 1a 14 be 0b db b3 bd
       0.14415862 0.18741694 -0.14463219 -0.087820135
000040 ac 6e 7b bd f4 d0 02 be e0 29 4d be 15 2f 62 3d
       -0.06138484 -0.12775022 -0.20035505 0.055220682
000050 6e 11 98 3d 26 10 ce 3d fa 69 b3 bd 9f af ed bd
       0.074251994 0.10061674 -0.08760448 -0.11605763
000060 c4 70 db 3d ff 6f 67 3d 26 3a 0f 3e 5e 26 87 3d
       0.10714868 0.056503292 0.13987026 0.06599115
000070 88 78 1c bc ac 3f 40 be 56 28 02 3e ec 04 8e bd
       -0.009550221 -0.18774289 0.127107 -0.069345325
000080 ab 4f fb bb 36 de 76 bc b9 e4 bd 3d a2 56 a1 3d
       -0.0076694093 -0.015067628 0.09272141 0.07877852
000090 41 c6 cd bd 9b 75 5c bc ef 68 df 3d f2 36 46 bd
       -0.100475796 -0.013455774 0.10908686 -0.048392244
0000a0 02 93 4e 3e 27 70 09 be cd aa 4c be 0e ae f1 bd
       0.20173267 -0.13421689 -0.1998703 -0.118007764
0000b0 4d 82 b3 bd 61 35 7a 3d 6b fb 3c be 38 e6 73 bd
       -0.08765087 0.061086062 -0.18455283 -0.059545726
0000c0 98 24 12 3e 25 a5 c7 3c 21 6b 9e 3d 8a 50 b4 3d
       0.14271772 0.02437074 0.07735277 0.08804424
0000d0 a0 c5 c7 bd fb 34 12 be 5a d5 82 3c fc f9 cf 3e
       -0.09754491 -0.14278023 0.015970875 0.4062041
0000e0 78 7e 2a bd 78 61 c8 bd b0 78 e5 bd 22 f9 d3 3d
       -0.041624516 -0.09784216 -0.1120466 0.10350253
0000f0 9e e5 2b 3b e2 d2 b1 bd 72 f5 09 3e 0b bd a9 3d
       0.0026229392 -0.08682801 0.13472536 0.0828801
000100 d6 b5 95 3d e3 9c 10 3e e4 c3 a3 3c 1c 62 81 3e
       0.07310073 0.14122348 0.019990869 0.25270164
000110 02 6c 19 be b3 09 9f 3c bf f9 14 3e 8c 83 0f bc
       -0.14982608 0.019413805 0.14548396 -0.008759391
000120 e9 d4 31 be d4 d9 6d be 44 21 07 be d7 56 43 be
       -0.17366375 -0.23227626 -0.13196284 -0.19076096
000130 9b 3c 76 bd 14 f8 75 3d 2d f9 7a 3d c6 ce 28 be
       -0.06011639 0.06005104 0.06127279 -0.16485128
000140 e3 8c e2 bd 22 58 a0 bd 27 d0 49 3d b6 52 24 be
       -0.11062028 -0.0782931 0.049270775 -0.16047177
000150 1a 9d f4 3c 74 be e1 3d 25 89 49 3d b6 55 68 3d
       0.029860068 0.11022654 0.049203057 0.056722365
000160 83 47 c0 bb 0e ad 33 3d 9a 5a 4d 3e 56 00 49 bd
       -0.0058679 0.04386621 0.20054093 -0.049072586
000170 9b 57 11 be 49 0a 30 be 1f 80 83 3d 7c 36 3e 3e
       -0.14193575 -0.17191423 0.064209215 0.18575472
000180 ff 8d 4d 3e d5 57 eb bc 50 ce 34 3d 13 21 ca 3d
       0.20073698 -0.028728405 0.044142067 0.0986959
000190 18 90 ce 3d bd 25 1f 3e bb f9 21 3e 2f 1e 0d be
       0.100860775 0.1554174 0.15817921 -0.13781045
0001a0 58 08 c0 3c 5a 3a d9 3d 03 ec 51 be b2 21 48 be
       0.023441479 0.10606833 -0.20500188 -0.19544104
0001b0 db 12 19 3e c9 c1 36 be 03 e3 09 3e 9b 6b 22 be
       0.14948599 -0.1784736 0.13465504 -0.1586136
0001c0 eb 00 47 3e be ca a2 3d b9 f7 a9 bc b3 5e e9 3c
       0.19433944 0.07948826 -0.020748006 0.028487539
0001d0 a2 59 9b 3c 05 7c 1b bd 10 5d 63 3d e1 2a 07 bd
       0.018963639 -0.03796007 0.055508673 -0.032999877
0001e0 d3 3e 2b be d2 d2 4a 3e 0f f1 15 bd ec 7f e1 bd
       -0.16723184 0.19806984 -0.036606845 -0.11010727
0001f0 95 30 0d be 1b 64 09 be e3 d6 2a b9 49 8b ee 3d
       -0.13788064 -0.13417093 -0.00016292515 0.1164766
000200 e2 aa 1e be f0 d8 c6 bd d0 7b 0d be eb 47 2e 3e
       -0.15494874 -0.09709346 -0.13816762 0.17019622
000210 1e 78 8a bd 57 2e 2a bb 2b ae e3 bd 4a 45 b2 3d
       -0.06761192 -0.0025967562 -0.11117204 0.08704622
000220 a1 d3 ab 3d f7 eb 3d bd 86 dc 2b 3e b4 07 a3 bd
       0.083899744 -0.04636761 0.16783342 -0.07960454
000230 e2 f0 aa 3d fa 0b 34 bd 1d 1a 77 3d 5b e3 2c 3e
       0.08346726 -0.043956734 0.060327638 0.16883604
000240 25 d0 3c be 0f de 20 3e 40 b1 9d bc a6 3f 24 3d
       -0.18438776 0.15709709 -0.019249558 0.040099762
000250 4d e5 45 3d 3b 57 d0 3c f1 d2 5b 3c bc 86 f9 3d
       0.04831438 0.02543222 0.013416992 0.12183902
000260 1e 66 69 3d 85 0d 80 bd dc 63 f2 bd e8 52 80 3c
       0.056982152 -0.06252579 -0.11835453 0.015664533
000270 1f cb 44 3e 60 8c 39 be 9e 42 c7 3d f2 e8 c8 3c
       0.1921811 -0.18119955 0.09729503 0.02452514
000280 a4 bd d4 bd 5a 77 e6 bc 21 c3 30 bd 66 7f 2e 3e
       -0.103877336 -0.028133083 -0.04315484 0.17040786
000290 cb d5 c9 3d 52 b5 21 be c3 a1 91 3d ca ee 1d 3e
       0.09855231 -0.15791824 0.07110932 0.15423122
0002a0 43 31 bf bd 0c ed 9b bd 7e ce af 3c e0 5c 01 3e
       -0.09335568 -0.076135725 0.021460768 0.12633085
0002b0 17 85 36 3d d4 6f 19 3c 20 07 94 3c db e4 1b 3e
       0.044560518 0.009365041 0.018069804 0.1522402
0002c0 6c 2a 2b bd 30 a6 10 be 1d f7 12 3e 55 72 48 bd
       -0.041788504 -0.14125896 0.14352079 -0.04893716
0002d0 81 6c 0d 3d 51 13 03 3e b2 6c 69 3d 92 af 13 3e
       0.034527306 0.12800337 0.056988426 0.14422444
0002e0 c4 59 23 be 9a 09 2a be 90 2e 2a be a3 68 9b bd
       -0.15952212 -0.16605225 -0.16619325 -0.07588317
0002f0 c1 4f 2a 3e 0b 44 3c 3d 11 85 7b 3e b4 3b 4d bd
       0.16631986 0.04596333 0.2456248 -0.050105765
000300 f3 66 48 3e b9 09 66 be 83 e2 ce bd 98 21 63 3c
       0.19570522 -0.22464646 -0.101017974 0.01386299
000310 d6 70 48 3d c1 55 20 be 71 99 1d 3e b1 21 2b be
       0.048935734 -0.15657713 0.15390565 -0.16712071
000320 09 80 48 3e 4e f2 e2 3c bb 67 17 be 48 c6 f8 3d
       0.19580092 0.02770343 -0.14785664 0.12147194
000330 a6 82 c6 bc 1e a8 c5 3c 11 12 19 be c3 30 21 bd
       -0.02423222 0.024128016 -0.14948298 -0.039353143
000340 e8 28 d8 bc a2 31 3a 3e 44 eb 33 3d 7f 53 50 be
       -0.026386693 0.18182996 0.04392554 -0.20344351
000350 f3 c6 58 3d 67 ac e8 3d 04 52 45 3d 97 a5 01 be
       0.052924108 0.11361008 0.04817392 -0.12660824
000360 61 a7 93 3d 44 4d 34 be 54 6d 3a 3e 78 a0 4b be
       0.07209659 -0.176076 0.18205768 -0.19885433
000370 86 56 0d bc 32 8b 2e bd 5c 15 46 3e e1 7e 96 3d
       -0.008626586 -0.042613216 0.19344085 0.07348419
000380 4e 53 e0 bd 61 d8 44 3d 9d 3a 4a 3e 25 82 50 be
       -0.10953389 0.048057918 0.19748922 -0.20362146
000390 d6 17 3b be fa 9c f6 bd d8 8e 28 3e ea b2 36 bd
       -0.18270811 -0.1204166 0.1646074 -0.04460422
0003a0 68 39 57 3d 41 a5 02 be 37 26 36 3e 12 16 2f be
       0.05254498 -0.12758352 0.17788015 -0.17098263
0003b0 da 07 30 be 64 85 3a 3d 4a 83 3f 3e 45 a0 c3 bc
       -0.17190495 0.045537367 0.18702427 -0.023880133
0003c0 4f 11 bc 3d 5a 4d 3e 3e d0 84 16 3e b8 41 8a bd
       0.09182989 0.18584195 0.14699101 -0.06750816
0003d0 bd b1 0a 3e 84 56 05 be d0 d4 00 be 0d a8 d1 3d
       0.13544364 -0.13021284 -0.12581182 0.10237131
0003e0 60 69 be bd 2a 92 ce 3b df 63 3a 3e 0a 38 8d bd
       -0.092974424 0.006304045 0.1820216 -0.06895454
0003f0 f3 ce 2e 3d dc 55 8c bd 92 07 81 3d 96 6a 96 bd
       0.04267783 -0.06852314 0.06300272 -0.073445484

layer5.bn1.weight f4 [16]
000000 dd 66 7f 3f 95 82 80 3f 2f a9 7e 3f 9b 78 77 3f
       0.9976633 1.003985 0.99476904 0.96668404
000010 50 9c 7f 3f 4c c0 7c 3f 62 20 85 3f 66 22 82 3f
       0.9984789 0.9873092 1.0400507 1.0166748
000020 3a 4d 76 3f 2e db 80 3f 64 95 7b 3f 2d 33 7e 3f
       0.9621159 1.0066888 0.98274827 0.9929684
000030 ba 59 86 3f c2 20 74 3f 87 97 81 3f 09 ae 80 3f
       1.0496132 0.95362484 1.0124367 1.0053111

layer5.bn1.bias f4 [16]
000000 13 f6 48 bc ad 1f ce 3b 11 f7 e6 bb 75 26 db 3c
       -0.0122657 0.006290397 -0.0070484956 0.026751736
000010 34 13 ab bb b2 2f ac bc 76 6b 4f 3d bf 15 eb 3b
       -0.005220795 -0.021018837 0.050639592 0.007174223
000020 06 3b b2 bc 37 3f e7 3b f3 d6 89 bc de c2 2c bc
       -0.02175666 0.0070570963 -0.016826129 -0.010544507
000030 93 ca 58 bb eb b7 04 bd 78 79 24 3d 84 77 25 3d
       -0.0033079728 -0.03240196 0.040154904 0.040397182

layer5.bn1.running_mean f4 [16]
000000 2b 03 0b be cc 04 14 bd 05 ce e5 3e a4 91 1f be
       -0.13575427 -0.036137387 0.44883743 -0.15582901
000010 79 61 1f be 97 20 f2 3c 57 13 fe 3d 59 24 a1 3e
       -0.15564527 0.029556556 0.124060325 0.31473044
000020 98 88 e2 be b8 9f ce 3d fa c3 44 3f ae d0 3e bd
       -0.44244838 0.10089058 0.76861537 -0.04658573
000030 4c 11 64 3e c9 1b 02 3f 50 a5 c0 3e e3 b0 94 be
       0.22272223 0.50823647 0.37626123 -0.29041204

layer5.bn1.running_var f4 [16]
000000 56 b9 47 3e 59 b7 11 3e 82 ad 1e 3f b0 36 68 3e
       0.19504294 0.14230098 0.619835 0.22677112
000010 13 63 85 3e ac 00 36 3e 88 bf 62 3e ec 24 08 3f
       0.2605215 0.17773694 0.22143376 0.5318134
000020 dc 22 ac 3e 89 d7 be 3e a4 17 a9 3e f4 06 a0 3e
       0.33620346 0.37273815 0.3302585 0.31255305
000030 40 e2 cd 3e 70 d9 eb 3e 6f f5 ab 3e 5d 9f 5b 3e
       0.40211678 0.4606433 0.33585688 0.21447511
