das_new - 副本/models/20260106_103043/best_model.pth (torch, 99330 bytes, 176 tensors)

input_conv.weight f4 [4, 1, 1, 3]
000000 ff 27 79 3e 0d cb 9e c0 96 a2 4c be 01 d2 bc 3e
       0.24331664 -4.9622865 -0.19983897 0.3687897
000010 4a 5c 0d 3e db c7 f1 be 16 29 f4 be ec 8c fa be
       0.13804737 -0.4722279 -0.47687596 -0.4893564
000020 23 3c 7a bd f5 c6 c5 3e 33 d2 cc be 08 e6 fc bc
       -0.061092507 0.38628355 -0.4000412 -0.030871406

input_bn.weight f4 [4]
000000 30 17 97 3f 41 f5 59 3f b2 2f 74 3f b2 e2 8a 3f
       1.1803951 0.8513985 0.9538528 1.0850432

input_bn.bias f4 [4]
000000 7a 74 e4 be 5b 9f 07 3f 98 49 43 be c1 48 d9 bc
       -0.44620115 0.5297753 -0.19071043 -0.02652395

input_bn.running_mean f4 [4]
000000 43 16 82 34 48 a0 e3 b1 2e da cc 32 93 bb a4 32
       2.4230584e-07 -6.6247914e-09 2.3847942e-08 1.9177412e-08

input_bn.running_var f4 [4]
000000 ad 63 c5 41 8b aa 9c 3c 5e b5 75 3e fa 33 24 3e
       24.67367 0.01912429 0.23994967 0.16035452

layer1.conv1.weight f4 [4, 4, 1, 3]
000000 2e 79 44 3d 3a 12 a5 be aa 17 0d 3e f7 4f 90 bd
       0.04796713 -0.32240468 0.13778558 -0.07046502
000010 5a 57 56 bf 2a fa 88 be a4 b7 54 be c4 68 d1 bd
       -0.8372704 -0.2675336 -0.20773178 -0.102250606
000020 69 8e 33 3e 11 f9 62 be e3 58 8a bc 41 97 73 3d
       0.17534794 -0.22165324 -0.016888088 0.05947042
000030 bb 06 33 be 84 c4 02 bf 01 95 4f be be c1 1f be
       -0.17483036 -0.5108111 -0.20271684 -0.1560125
000040 fb cb d0 3e eb 20 bb bd d7 50 0c 3e 6f be 01 be
       0.40780625 -0.09137138 0.13702713 -0.12670301
000050 8a 4d 60 3e 02 b7 92 3c d2 20 f3 be bc c6 7e bd
       0.21904579 0.01790953 -0.47485977 -0.062201247
000060 b8 65 2e be 47 b5 e7 be 3f 7f 69 3e 64 37 76 3e
       -0.1703099 -0.4525549 0.22802447 0.24044567
000070 90 08 69 3e b4 ee 85 bc b8 ef 90 bd 57 fa a0 bd
       0.22757173 -0.016349174 -0.07076973 -0.078602485
000080 85 63 cc bd a8 50 5a 3d 57 1f 64 3b 7e d5 a3 3d
       -0.09979919 0.053299576 0.003480872 0.07999705
000090 ad 98 85 3e e9 ba a6 be 1e 8c 9a bc 21 86 cd 3c
       0.26093045 -0.32564476 -0.018865641 0.025088372
0000a0 28 3d 95 be 26 11 8d 3e af bb 2e be b0 d8 b5 be
       -0.2914822 0.27552146 -0.17063783 -0.35516882
0000b0 67 f5 89 be 31 41 88 be d1 1c 3e bf 17 ed e6 bd
       -0.2694504 -0.26612237 -0.7426272 -0.1127569

layer1.bn1.weight f4 [4]
000000 18 3d 8a 3f a9 22 8e 3f 93 53 57 3f e8 d1 62 3f
       1.0799894 1.1104327 0.841119 0.8860154

layer1.bn1.bias f4 [4]
000000 dd 6c 21 bd c7 4d ff 3e a0 10 0a 3e 08 a5 59 3b
       -0.03941046 0.49864027 0.13482904 0.0033209939

layer1.bn1.running_mean f4 [4]
000000 da 49 15 bf c9 ec cc bd 00 62 de 3b 3e 2b 21 bf
       -0.58315814 -0.10006101 0.006786585 -0.6295661

layer1.bn1.running_var f4 [4]
000000 20 eb ba 3e 70 7b d3 3e 7a 43 b2 3d be f4 21 3e
       0.3650751 0.41305113 0.087042764 0.15816018

layer1.conv2.weight f4 [4, 4, 1, 3]
000000 02 42 4f be e6 0e 8a 3d 4f 8c f5 3c 75 2e b3 3d
       -0.20240024 0.06741123 0.02997413 0.08749095
000010 2b fc 37 3f 9c 91 6e 3d d8 c9 24 3e 4f 84 87 3e
       0.7186915 0.058244333 0.16092622 0.2646813
000020 2f d1 62 be 6d 30 21 3e 5f 4b e9 3e 4e 99 3f bd
       -0.2215011 0.15741129 0.45565316 -0.046777062
000030 5b 72 27 be de a7 88 be 96 56 a5 bd 89 ad 83 be
       -0.16352217 -0.26690573 -0.080731556 -0.25718334
000040 16 4f 37 3e 19 6b e1 bd c5 06 58 be 08 aa a6 3e
       0.17901263 -0.110067554 -0.21096332 0.325516
000050 92 f7 0f 3e 81 98 f5 3d 1d c9 31 be 82 00 a7 3d
       0.14059284 0.119919784 -0.17361875 0.08154394
000060 34 b6 53 3e 87 f9 7b be fc bb 2a 3c 90 b0 47 3e
       0.20674974 -0.24606906 0.0104207955 0.19500947
000070 1e 55 2b 3f b6 95 42 3e 2c 4a 22 3e fb 72 73 3e
       0.66926754 0.19002423 0.15848607 0.2377433
000080 b8 d3 9c bd 82 e4 66 3e 74 5c b9 3c 9e af 62 be
       -0.0765757 0.22548106 0.022627093 -0.22137305
000090 0a e7 43 be b4 2f f7 be cf 6b 65 be 54 8a 40 3e
       -0.19131103 -0.48278582 -0.22404407 0.18802768
0000a0 bd cf 47 3e fb 4e 6a be 1b f1 ce 3b 77 b9 b0 3d
       0.1951284 -0.22881691 0.006315363 0.086291246
0000b0 2b 10 2d be a1 ef e2 bd e6 97 af be 57 dd f0 bd
       -0.16900699 -0.11080862 -0.34295577 -0.11760967

layer1.bn2.weight f4 [4]
000000 d7 4d 6c 3f 2e b5 33 3f 63 de 63 3f 5c ef 2e 3f
       0.92306274 0.70198333 0.8901121 0.68333983

layer1.bn2.bias f4 [4]
000000 c3 26 2d 3f b7 79 8a bc 5d 10 57 3f ab b1 c1 bd
       0.6763727 -0.016903741 0.84009343 -0.094577156

layer1.bn2.running_mean f4 [4]
000000 a7 f8 51 3f f1 b6 b8 3d 15 d4 f6 3e cc a8 07 be
       0.8202004 0.09019268 0.4820868 -0.13247985

layer1.bn2.running_var f4 [4]
000000 16 1d 2a 3f 24 3d 0b 3e 18 b6 0c 3f ad 20 bd 3d
       0.6645063 0.13597542 0.54965353 0.09234748

layer1.fc1.weight f4 [1, 4]
000000 60 4f 53 be 44 5d 44 bc 27 6d a5 3e ca 1e a4 3e
       -0.20635748 -0.011985127 0.3230984 0.3205474

layer1.fc2.weight f4 [4, 1]
000000 9b b0 38 3e 34 1f 62 bf dd 2f 41 3e d3 d5 a8 be
       0.1803612 -0.8832886 0.18865915 -0.32975635

layer1.fc2.bias f4 [4]
000000 f8 04 0e bf 24 4a 04 3e 55 96 03 3f 37 cc 6b bf
       -0.5547633 0.12918907 0.51401263 -0.9210848

layer1.shortcut.0.weight f4 [4, 4, 1, 1]
000000 ee 44 2f bf e8 74 da 3e 38 9d cc be 9f 2c cf 3d
       -0.68464553 0.42667317 -0.39963698 0.10115933
000010 85 e4 67 3e 46 2d c5 3e 17 91 b2 bd 9e 1e 89 3d
       0.22645767 0.38511103 -0.0871908 0.06695293
000020 cd 82 40 be 93 a0 98 3e 83 ed d5 be 49 ab b0 be
       -0.18799897 0.29810008 -0.4178277 -0.3450568
000030 36 49 94 be cf 6b a1 3e 3b 9a fc be 87 51 a2 bd
       -0.28962106 0.31527564 -0.49336419 -0.07925706

layer1.shortcut.1.weight f4 [4]
000000 37 bb 7e 3f 5f d4 40 3f 37 84 64 3f 94 83 48 3f
       0.9950442 0.7532405 0.89264244 0.7832577

layer1.shortcut.1.bias f4 [4]
000000 4e d9 0e 3f 91 b0 c8 be ab 57 8e 3e ce 40 0a be
       0.5580033 -0.3919721 0.2780126 -0.13501284

layer1.shortcut.1.running_mean f4 [4]
000000 ed d8 14 3d ca 08 8f 3e 6d 6f 04 be 0c c3 46 bd
       0.03633969 0.27936393 -0.1293313 -0.048525855

layer1.shortcut.1.running_var f4 [4]
000000 c5 6e 9a 3e b1 ef 94 3d db 0f 80 3e e3 fb 5a 3e
       0.30162635 0.0727228 0.25012097 0.2138515

layer2.conv1.weight f4 [4, 4, 1, 3]
000000 ce 18 35 bd 5c 82 68 be 28 d2 14 bc fd 83 c5 3b
       -0.04421311 -0.22705978 -0.009083308 0.006027697
000010 c9 4f 2a 3e 26 c8 8f be 77 d3 50 bd 10 34 90 be
       0.16631998 -0.2808239 -0.05098292 -0.2816472
000020 2d eb ec bd 90 45 52 3e 83 50 4f be 32 da 81 bd
       -0.11568294 0.20534348 -0.20245557 -0.063404456
000030 ce 7a 4d 3e a7 64 a2 3d b9 50 88 3d 4f cb 0d 3d
       0.20066378 0.07929354 0.066560216 0.03461772
000040 7f b5 a6 3e f3 b1 ca 3d de 6e eb bd 8a e3 2d be
       0.32560346 0.09897222 -0.114957556 -0.1698133
000050 cd c9 0c be fa d7 65 3e 19 54 98 3e f9 5f 5c 3e
       -0.13748856 0.2244567 0.2975166 0.21520986
000060 bf 4f 42 3d 51 01 99 3e 6d 24 6e bc 97 4b 1b be
       0.047439333 0.29883817 -0.014535052 -0.15165554
000070 de 6a 44 bd 65 d6 ed 3b 3e df 7e 3d d2 6c 03 3f
       -0.04795348 0.007258224 0.06222462 0.5133792
000080 1b 80 a2 bd ca d6 83 3d d9 59 a4 3e a7 b5 4a 3e
       -0.079345904 0.06437452 0.32099798 0.19795857
000090 cf 19 41 be 67 40 6a 3e 59 2d 3d be 4b b5 62 3e
       -0.18857501 0.2287613 -0.1847433 0.2213947
0000a0 44 9f ef 3c f6 b8 9a bd 7e ea 35 be 3e 18 15 3f
       0.029250748 -0.0755481 -0.17765233 0.58240116
0000b0 b7 b7 50 3d 9c 5c 28 be 8b 9f 6a 3d 8d e0 7f 3e
       0.050956454 -0.16441578 0.05728106 0.24988003

layer2.bn1.weight f4 [4]
000000 aa 71 8e 3f 26 51 3a 3f 3b 58 6e 3f 34 5b 73 3f
       1.1128438 0.7278007 0.9310338 0.9506104

layer2.bn1.bias f4 [4]
000000 94 a0 05 3e 39 62 3e be 54 30 ae 3e 78 5f 0e 3f
       0.13049537 -0.18592156 0.34021246 0.55614424

layer2.bn1.running_mean f4 [4]
000000 c7 2f 21 bf 25 41 13 3e ff c0 86 3f ab 0d 76 3f
       -0.6296353 0.1438032 1.0527648 0.96114606

layer2.bn1.running_var f4 [4]
000000 d4 85 10 3f bd 24 45 3e 8c e3 e0 3f bb 70 b1 3f
       0.56454206 0.19252296 1.7569442 1.3862528

layer2.conv2.weight f4 [4, 4, 1, 3]
000000 84 b2 a2 3b e1 57 16 3f cb 06 44 3a e5 04 09 be
       0.0049651284 0.5872784 0.0007477819 -0.13380773
000010 d2 b0 89 3e f9 42 9a bc b0 70 48 bd f9 14 4d be
       0.26892716 -0.018830763 -0.048935592 -0.20027532
000020 16 d3 76 3e 12 97 52 bd c9 02 03 bf f3 42 72 3e
       0.2410396 -0.051413603 -0.51176125 0.23658352
000030 19 46 2f 3e b6 7a 1c 3e 6d 2b 25 3e ff 68 a9 3d
       0.17116584 0.15281186 0.16129847 0.082719795
000040 bb 76 89 3e 84 72 6c 3e 46 9e 33 3e fe 9e 6d 3e
       0.26848397 0.23090559 0.17540845 0.23205182
000050 fe b1 9f bd 18 b9 81 3e 0e 8d 30 3e 2f 7a ed bd
       -0.07797621 0.25336528 0.17241308 -0.1159557
000060 6e a4 88 3e 26 a2 73 be 7f 4c 4b 3e 2a 98 f6 3c
       0.2668795 -0.23792323 0.198534 0.030101854
000070 a0 12 a9 3d f2 79 80 3e b9 1f 07 3e 86 d8 0c 3f
       0.082555056 0.25093037 0.13195695 0.5501789
000080 64 e6 fc 3d ab b7 69 be 28 f8 0c 3f ae fe 8e be
       0.12348631 -0.2282397 0.55066156 -0.2792868
000090 9d 6f ea 3d 20 60 10 3e f8 90 cb bd 93 3b 3d bd
       0.1144707 0.14099169 -0.0993976 -0.046199393
0000a0 02 d8 26 3b 47 d3 f5 bd ad 34 63 3e 4b 2c a9 3e
       0.002545834 -0.120031886 0.22188063 0.33041605
0000b0 28 7d 3f 3e 52 c0 20 3e 58 75 b1 3d b9 43 85 bd
       0.18700087 0.15698364 0.0866496 -0.06507058

layer2.bn2.weight f4 [4]
000000 10 66 a8 3f 97 76 4a 3f 9c 74 91 3f 5f f3 86 3f
       1.3156147 0.79087204 1.1363711 1.0543021

layer2.bn2.bias f4 [4]
000000 3a 23 7a bf 3a a8 45 be 84 89 24 3f 67 f0 3a 3d
       -0.9771 -0.19302455 0.6427233 0.04563942

layer2.bn2.running_mean f4 [4]
000000 dc c7 97 bd a3 70 bc 3e 23 92 0a 3f 0d c8 9c 3e
       -0.07411167 0.36804685 0.54129237 0.30621377

layer2.bn2.running_var f4 [4]
000000 11 aa 13 3f 8b 34 39 3e 94 d9 8d 3f 6b 8b ba 3d
       0.57681376 0.1808645 1.1082025 0.09108623

layer2.fc1.weight f4 [1, 4]
000000 76 ed 82 3f 6d ba e5 3e 62 a2 cd 3e b2 71 56 3f
       1.0228717 0.44868794 0.4016295 0.83767235

layer2.fc2.weight f4 [4, 1]
000000 0b cf b7 3f 7e a1 13 3f 0c fc 33 3f eb 21 fe 3e
       1.436006 0.5766829 0.7030647 0.49635252

layer2.fc2.bias f4 [4]
000000 3a 90 37 bf 7e 26 6d bf 06 dc c0 be ed 5f 9b bd
       -0.7170445 -0.9263686 -0.37667865 -0.07586656

layer3.conv1.weight f4 [8, 4, 1, 3]
000000 27 39 9a 3d 85 4e 0b 3f c2 40 92 bc 01 5d 93 3c
       0.07530432 0.54416686 -0.017853145 0.017988684
000010 0e 18 f7 3d fe eb a6 bc 8a 65 03 be ea fb db 3e
       0.12065135 -0.020376202 -0.12831703 0.42965633
000020 3d 42 18 bd af 30 08 3e da 8a f1 3e 7a 03 16 be
       -0.037172545 0.13299821 0.47176248 -0.14649764
000030 c6 44 2f bd 6c ef dc bc 9a af 74 bd 42 d9 b0 3d
       -0.042790197 -0.026969634 -0.05973778 0.08635189
000040 87 57 64 3d ae 7e 6e 3e b9 a2 86 3e 4d f8 69 be
       0.055747535 0.23290512 0.26296023 -0.22848625
000050 35 ae 57 be fe 2f 31 be 6f ac 7e bd f8 68 64 be
       -0.21062548 -0.17303464 -0.062176164 -0.22305667
000060 7e 8a 3a 3e 43 86 0c bf 78 11 33 be 9c 1a 53 be
       0.18216893 -0.5489237 -0.17487133 -0.2061562
000070 79 e3 78 3c 82 44 84 3d 97 47 21 3e 22 ad da bd
       0.015190952 0.06458379 0.15749966 -0.10677554
000080 7f 16 1a bd dc b5 61 bc 5d 87 e2 3c 01 6e e6 3d
       -0.03761911 -0.013776269 0.027652437 0.1125145
000090 bd d1 53 3e 9c 6e ee be 6c e1 8d be d7 da f7 bd
       0.20685478 -0.46568763 -0.27711046 -0.12102287
0000a0 4e cc 8b 3c 6a c1 16 be 90 20 05 3d c7 2a 3b 3f
       0.017065194 -0.14722219 0.032501757 0.7311215
0000b0 5f 0b 88 be 7f 16 fa bd db 6d 78 3e a0 3a b6 bc
       -0.26571175 -0.12211322 0.24260657 -0.022244751
0000c0 4b 5f aa 3d ec b9 db bd dc a7 18 3d 0d a8 7e bd
       0.08318957 -0.10728821 0.03726946 -0.062171984
0000d0 a0 f5 a0 3d cb 1c ae 3d 58 12 e3 3d ba db 7b be
       0.07859349 0.085015856 0.11087483 -0.24595538
0000e0 a3 ba 22 be 6d 5f 24 3e 09 14 ba bd fe f5 06 3e
       -0.15891509 0.16052027 -0.09085853 0.13179776
0000f0 dc 25 2d be 20 d0 cc 3e a6 d8 33 3e 8b 48 32 3e
       -0.16908973 0.40002537 0.17563114 0.17410485
000100 6e ca 43 3f b6 07 b6 3d d0 2a 24 bd 02 e9 a7 3f
       0.7648076 0.088881895 -0.04007989 1.3117983
000110 58 0f 50 3e b6 3c 8d 3d 72 f6 f1 3e be ab cf 3c
       0.20318353 0.06896345 0.47258335 0.025350448
000120 30 07 a6 3d 27 2f 4c 3f b2 d9 4f be cf b5 06 3d
       0.0810684 0.7975945 -0.20297888 0.03288823
000130 30 5f 83 3f f8 c8 af bc 6b 5c b6 3d db a9 a9 3f
       1.0263424 -0.021458134 0.08904346 1.3254961
000140 b9 b9 0c bd bc a9 27 be 9f 79 4e 3f 6b 72 71 3e
       -0.034356806 -0.16373342 0.8065433 0.23578803
000150 16 4d 6e 3e 6b 68 ae be 1c 01 69 bd 5f 65 fd bd
       0.23271593 -0.3406404 -0.056885824 -0.123728506
000160 0c be 31 bf 65 88 d5 3d 36 d7 8d be 65 1f 0d bf
       -0.69430614 0.10426406 -0.27703255 -0.5512603
000170 0c db 0a be 9f 03 a5 3d b0 8c 07 bf d3 e5 10 3e
       -0.13560122 0.08057331 -0.5294905 0.14150171

layer3.bn1.weight f4 [8]
000000 45 2f 76 3f 85 6d 75 3f 61 c2 74 3f a4 ff 95 3f
       0.9616588 0.9587024 0.956091 1.171864
000010 1e 93 77 3f 1d fc 62 3f 72 79 82 3f 01 a0 6f 3f
       0.9670886 0.88665944 1.0193312 0.9360352

layer3.bn1.bias f4 [8]
000000 7c 75 dc bd 35 5c 99 bd 35 f3 ce bd a1 dd ba 3c
       -0.10764596 -0.0748829 -0.10104982 0.022810759
000010 f3 d1 13 be f3 b2 02 3e e9 bf 2c 3b 82 38 48 bd
       -0.14435558 0.12763576 0.0026359505 -0.048882015

layer3.bn1.running_mean f4 [8]
000000 32 bd be 3f 98 22 a4 be c1 73 4d bf e3 8f be 3e
       1.4901488 -0.32057643 -0.8025475 0.37219152
000010 18 a8 e5 be 27 5b 28 40 3c af 5b 40 66 08 d4 bf
       -0.44854808 2.6305635 3.4325705 -1.6565063

layer3.bn1.running_var f4 [8]
000000 03 ba 77 40 af 31 20 3e cc 22 5b 3f 2c 39 02 3f
       3.8707283 0.15643953 0.8559997 0.5086849
000010 e1 e8 95 3e f7 e7 56 41 13 4f ba 41 80 8f c5 40
       0.29279235 13.431632 23.28861 6.173767

layer3.conv2.weight f4 [8, 8, 1, 3]
000000 15 6b 2a 3e 85 98 bd 3c 97 39 e4 3d e7 dc 9d bd
       0.16642411 0.023144016 0.11143797 -0.077081494
000010 3e f4 cd 3d 18 a5 07 39 bc 6d d3 3d dc 47 50 3e
       0.10056351 0.00012936105 0.103236645 0.20339912
000020 31 75 1d be 9d 6c 38 3e fd a3 ff 3e b4 f6 a6 bc
       -0.15376736 0.18010183 0.499298 -0.02038131
000030 79 f4 56 bb 51 e0 50 3e ac 3c a2 3b 16 bd 9d bc
       -0.0032799526 0.2039807 0.0049510803 -0.019255202
000040 dd e2 c7 3e 6d 9e 90 bd b6 9d 00 3e 1e 15 99 3e
       0.3904027 -0.07061467 0.12560162 0.29898924
000050 47 19 f8 bc 6a 86 11 3e 12 a5 93 3d aa 94 1f 3e
       -0.03028549 0.14211431 0.07209219 0.15584055
000060 5d 23 57 3c 66 71 8e be 46 9e f6 bb f8 27 df 3b
       0.01313099 -0.2782089 -0.007526192 0.0068101846
000070 2b 1b f3 3c 9c e1 42 be 8d 22 d3 bb 6b 44 83 be
       0.02967604 -0.19031376 -0.0064433278 -0.25638136
000080 82 c4 47 be bc a1 d3 bd 85 8c 06 bf 09 57 b7 bd
       -0.19508556 -0.10333583 -0.52558166 -0.089521475
000090 b0 ee 72 3d 6d 5c 27 be e9 52 1a be 34 5d a4 bd
       0.05930966 -0.16343851 -0.1507069 -0.080255896
0000a0 37 b6 3f be 70 4a e1 bd 4f bc 66 bd b4 6c 05 be
       -0.18721853 -0.11000526 -0.05633193 -0.13029748
0000b0 33 d3 19 bd b2 20 8a bd 62 54 95 bc 2d 64 d1 3d
       -0.03755493 -0.067445174 -0.018228713 0.10224185
0000c0 99 34 03 be d3 d9 22 bd c2 05 3a be e7 65 f5 3d
       -0.12813033 -0.039758515 -0.18166259 0.11982327
0000d0 ab e8 28 be f1 d2 3b bd 7b 4d 23 be f3 1f 95 3d
       -0.16495006 -0.045855466 -0.15947525 0.072814845
0000e0 69 d8 3d bd 8e 3e 3c bd d8 21 dc 3e 0b 97 df bc
       -0.046348963 -0.045958094 0.4299457 -0.027293703
0000f0 9a 61 e9 3d d1 0c 52 be 0a 82 09 3e 1d 85 f0 bd
       0.11395569 -0.20512702 0.13428512 -0.11744139
000100 cf 60 92 bd 3c 2c 25 3d 31 8a f8 3d db 92 3f bd
       -0.07147371 0.04032539 0.12135733 -0.04677091
000110 87 33 55 3d 91 50 9e bc 87 c8 03 be 1f ab c1 3d
       0.052051093 -0.019325526 -0.12869464 0.09456467
000120 0e e3 33 bd 15 01 c5 bc 4e a1 93 3d a1 73 c2 3d
       -0.043917708 -0.024048368 0.07208501 0.09494711
000130 dc 4e aa 3d 9c 62 0d bd 75 51 cf bd 07 87 75 be
       0.083158225 -0.03451787 -0.101229586 -0.2397729
000140 9e 06 93 3c a7 71 44 be 3e 27 78 be a8 4a 39 3e
       0.017947491 -0.1918398 -0.2423372 0.18094885
000150 48 ec 07 bc 50 3f 36 3d c8 0a 2e be e0 5f f1 bd
       -0.00829608 0.044493973 -0.169963 -0.11785865
000160 fa 26 fd bd b7 61 f1 bd 16 02 1e 3e 3c ea f3 3d
       -0.1236095 -0.11786216 0.15430483 0.11909911
000170 f1 53 27 bd f8 a0 c2 bc c2 e7 7c 3e 57 3f 91 bb
       -0.040851537 -0.023758397 0.24697784 -0.0044325995
000180 2b a7 24 be 21 9e 2e 3d 73 5e 47 be fa ab 49 3d
       -0.16079395 0.042631272 -0.19469623 0.049236275
000190 c5 57 16 be c2 0e fb 3d f2 7f b0 bd 4f ad 0f 3e
       -0.14681919 0.12258674 -0.08618154 0.14030956
0001a0 4b 6a b1 bd 20 48 3e 3e ff 70 17 3e 99 1a 2b 3e
       -0.08662852 0.18582201 0.14789198 0.16709365
0001b0 ec 1a f6 bd ed 96 c1 bc 44 a7 b7 3d a0 9f 92 3b
       -0.12016854 -0.023631537 0.0896745 0.004474595
0001c0 80 fb 73 3c c4 5b 23 be f1 70 32 be 76 4f ca 3e
       0.014891505 -0.15952975 -0.17425896 0.3951375
0001d0 8a 93 98 bd 69 8d ef bd 78 b3 4e 3b 5c f2 3c bc
       -0.07450016 -0.11696894 0.0031540077 -0.011532392
0001e0 ff f7 e9 bd 46 36 0f bf fb 91 ba 3c 0c ac 4b 3e
       -0.114242546 -0.5594219 0.022774687 0.1988985
0001f0 01 83 17 3e 2c 3c f1 bd ee 53 9f bd ca e5 be bd
       0.14796068 -0.11779055 -0.0777968 -0.093211725
000200 fe dd 71 bd 70 b3 2e be e9 eb 84 be 98 7a c2 bd
       -0.0590496 -0.17060637 -0.25961235 -0.09496039
000210 52 bd 33 bd c5 08 42 3e 7a 0d d1 bd 3b ea 18 3c
       -0.04388172 0.18948658 -0.102076486 0.009333189
000220 c1 3e c2 be 11 9a 19 be 2c 16 04 3e b3 53 f2 be
       -0.37938502 -0.15000178 0.12899083 -0.47329482
000230 56 6f 07 be 19 45 46 3e db c0 cd 3d ca 85 43 bd
       -0.13226065 0.19362296 0.1004655 -0.047735013
000240 67 c6 bd bd 7a c1 8c be 43 f1 13 bd 93 ce 3c 3e
       -0.09266358 -0.2749136 -0.036118757 0.18438177
000250 b2 c2 5b be 0f 18 37 be 3b 0e 0d 3e 21 95 c2 be
       -0.21460989 -0.17880271 0.1377496 -0.380044
000260 ec b4 1c 3d 30 60 15 be b1 62 e9 be 11 90 d6 bd
       0.038258478 -0.14587474 -0.45583108 -0.10476697
000270 61 e1 5c 3d a0 40 6f be 5a c6 2a be e7 e5 ad 3d
       0.053925876 -0.23364496 -0.16677228 0.08491116
000280 7e 77 0b be 42 5a 45 be 56 8e 8b 3d 0b 16 da be
       -0.13619801 -0.19272712 0.06814258 -0.42594942
000290 9f 5f 4a be 8e a6 d2 bd 6d 05 1a be 0c ce 49 be
       -0.19763039 -0.10285674 -0.15041132 -0.19707507
0002a0 6c f9 bf 3d 64 0e 92 3e 7b 93 5c 3d 8c 6c 9a 3d
       0.09373745 0.28526604 0.053851586 0.07540235
0002b0 53 95 14 3e df 79 eb bd bb f7 ca 3d af 19 cb 3d
       0.14510088 -0.114978544 0.09910532 0.09917008
0002c0 a0 f7 f2 3d 4a 25 81 3d 09 df 8b 3b 9e 1a 6c 3d
       0.11863637 0.063059404 0.004268531 0.05764257
0002d0 a9 5d bd bd a5 9a 3a 3e 63 58 13 3e ff 08 40 3e
       -0.0924638 0.18223055 0.14389186 0.18753432
0002e0 88 6b 40 3e c4 99 24 bd e2 94 f6 bd 09 a6 7c 3e
       0.1879102 -0.040185705 -0.12040116 0.24672712
0002f0 4f ec b2 bb f6 02 43 be fc 7e 26 3d 62 21 d7 bd
       -0.005460299 -0.19044098 0.040648445 -0.10504414

layer3.bn2.weight f4 [8]
000000 c4 6f 96 3f 49 4e 69 3f 5a e8 65 3f fd f1 6e 3f
       1.1752858 0.9113508 0.89807665 0.93337995
000010 a7 93 55 3f 09 02 85 3f a1 24 84 3f 60 e7 97 3f
       0.83428425 1.0391246 1.0323678 1.1867485

layer3.bn2.bias f4 [8]
000000 9c 87 1e 3e bc c9 15 3e 96 37 00 3e dd 42 79 bd
       0.15481418 0.14627737 0.12521204 -0.06085478
000010 d9 5a af bd ed e8 e8 3c 72 43 98 3e 36 49 2d be
       -0.0856225 0.02843138 0.29738957 -0.16922459

layer3.bn2.running_mean f4 [8]
000000 fb d2 2b 3f 89 9d 10 bf e5 d7 c4 bc c8 23 5a bd
       0.67118806 -0.5649038 -0.024028728 -0.05325678
000010 d7 43 61 3e 8f 03 02 bf bc 46 53 bf 72 b0 cc 3e
       0.21998535 -0.5078668 -0.8252981 0.39978367

layer3.bn2.running_var f4 [8]
000000 1e 85 51 3f 36 a9 33 3f 7a bc 26 3e 72 00 56 3d
       0.81843746 0.7018007 0.16282836 0.05224652
000010 a2 62 6f 3e be 07 dd 3f bc da 4b 3f 03 e8 4e 3e
       0.23377469 1.7267988 0.7963064 0.20205693

layer3.fc1.weight f4 [2, 8]
000000 49 e6 b5 bb b1 36 b9 bd 58 d6 b5 3e 2e 87 be 3e
       -0.005551134 -0.09043635 0.35515094 0.3721251
000010 dc db 55 3d c0 ef de 3e 67 0c ce 3d 0c f3 bf 3d
       0.052211627 0.4354229 0.10060959 0.093725294
000020 7e b0 54 bd 99 79 31 be 1f 3c a7 be 2f 25 4d 3e
       -0.05192613 -0.17331542 -0.32663056 0.20033716
000030 1c 10 41 3d d0 f5 80 bd 3a 38 d2 bd 86 54 85 3e
       0.047134504 -0.06296885 -0.102646306 0.2604105

layer3.fc1.bias f4 [2]
000000 b5 96 1d bd 42 ac 10 be
       -0.038473804 -0.14128211

layer3.fc2.weight f4 [8, 2]
000000 ea 16 a4 3e df bd a1 3e f4 3e 9a bd 11 07 06 bf
       0.32048732 0.31590173 -0.075315386 -0.5235453
000010 32 b7 fb 3c 3e 4d 60 be fe 64 d8 bd 71 0d e9 be
       0.030727003 -0.21904466 -0.10566138 -0.45518067
000020 55 75 e8 3e 07 ca 0f 3f 3d 2d eb be 79 78 f0 be
       0.45402017 0.56167644 -0.45932952 -0.46966913
000030 45 40 02 3f 5d 77 1f 3f d1 e7 66 be 4c 4d 2e 3f
       0.5087932 0.6229151 -0.22549368 0.68086696

layer3.fc2.bias f4 [8]
000000 30 2f 84 3e 3f 7d 24 bf 46 61 09 3f b3 4b 22 bf
       0.2581725 -0.6425361 0.5366405 -0.6339676
000010 5e b2 3d bd aa ce ec 3e b4 ee 8e bd 61 d4 1e 3f
       -0.046312682 0.46251422 -0.06979123 0.62042814

layer3.shortcut.0.weight f4 [8, 4, 1, 1]
000000 d5 cd 64 bf f3 bd 9e bd 56 5c e0 3d c2 ac 2a be
       -0.89376575 -0.07751074 0.10955112 -0.16667464
000010 a6 72 c3 3e 9e 45 85 be 1d b6 2e be fb 56 f5 3e
       0.38173407 -0.26029676 -0.17061658 0.47917923
000020 04 2d d1 bd 73 1b a8 be 00 c5 13 3f 3a ee 4d 3e
       -0.10213664 -0.32833442 0.57722473 0.20110407
000030 67 c2 39 bd ba b3 15 3e de d2 cd 3e d3 29 d7 3e
       -0.045351412 0.14619341 0.4019994 0.42024097
000040 11 95 24 3f e6 cd 61 be 39 19 43 be 04 c2 1c 3f
       0.6428996 -0.220512 -0.1905259 0.61233544
000050 25 62 fe 3e 90 91 ee 3c 91 26 b7 bd 32 ed d1 3e
       0.49684253 0.029122144 -0.08942903 0.41001278
000060 3e a3 c9 be 34 26 36 bf 83 98 a8 3c e6 e3 ab 3e
       -0.39382356 -0.71152043 0.020580536 0.3357231
000070 a1 4c bf 3e 86 bd b5 3e 25 06 fb bd 92 ef b5 3c
       0.3736315 0.35496157 -0.12257031 0.022208963

layer3.shortcut.1.weight f4 [8]
000000 3b 38 8a 3f 87 1d 87 3f cf 82 62 3f d5 5f 74 3f
       1.079841 1.0555886 0.8848085 0.9545873
000010 dd c9 6a 3f 5c b7 7c 3f 56 f7 5b 3f 08 a7 8a 3f
       0.9171427 0.98717284 0.8592428 1.0832224

layer3.shortcut.1.bias f4 [8]
000000 fb 6c 07 3e 8b 02 46 3e 3f 94 92 bd 09 86 15 be
       0.13225166 0.19336908 -0.07157182 -0.14601912
000010 78 ba 90 3c 37 e1 52 be 09 ed 99 3e 4f 75 b0 bd
       0.01766704 -0.20593725 0.30063656 -0.08616125

layer3.shortcut.1.running_mean f4 [8]
000000 4d e3 88 bf 70 22 d5 3e f9 fd fe 3e ca 9d 34 3f
       -1.0694367 0.41627836 0.4980314 0.70553267
000010 32 65 4f 3f fb 23 3f 3f 7a 36 17 bf c1 95 ea 3e
       0.81013787 0.74664277 -0.590675 0.45817378

layer3.shortcut.1.running_var f4 [8]
000000 ff 87 dd 3f 7e 28 a1 3e b9 e4 b9 3e 38 68 99 3f
       1.7307128 0.31476206 0.36307314 1.198493
000010 18 9a 90 3f 3e 6f 86 3f 62 2b 53 3f 4a 61 01 3f
       1.1297026 1.0502698 0.8248807 0.50539076

layer4.conv1.weight f4 [8, 8, 1, 3]
000000 ae 16 e3 3d 89 1c 45 be fa 95 11 be a0 61 1c 3d
       0.1108831 -0.19249167 -0.14217368 0.03817904
000010 9f ed 48 be 71 f9 7a 3b 00 92 bb bd 3e 52 17 bd
       -0.19621895 0.0038295651 -0.09158707 -0.036943667
000020 3e 6f 3a 3c 64 9d 37 be c1 a7 b0 3c be c9 16 be
       0.011379061 -0.17931134 0.021564366 -0.14725396
000030 72 81 b3 bd d5 96 0f be b8 27 16 be e1 ca 3f 3e
       -0.08764924 -0.14022382 -0.14663589 0.18729736
000040 8a e7 13 be 6a ab 26 3d d5 71 bd bb a2 db e3 3d
       -0.14443794 0.040690817 -0.005781392 0.11125876
000050 41 3a 9e bd a2 89 66 3c 1f cf 8b be c4 0e 41 3d
       -0.07725955 0.0140709 -0.27306458 0.047133222
000060 ec 42 27 bd 51 87 30 be b7 5d 37 bd 5a 3d 0a be
       -0.040835306 -0.17239119 -0.044767108 -0.13499966
000070 27 1e 0e bd f8 e3 3a be 9d 97 1b 3e 6d 73 4a bd
       -0.034696724 -0.18251026 0.15194555 -0.049426485
000080 d0 cc 31 bc 80 d3 b4 3d d5 be 37 be 32 30 21 3e
       -0.010852054 0.08829403 -0.1794389 0.15741041
000090 8a d6 0f 3e d8 de a4 bd 50 6f 20 be 93 aa 88 bc
       0.14046684 -0.080503166 -0.15667462 -0.016682899
0000a0 5f 63 05 be 29 c6 35 be 5f 65 6d bd 43 76 a8 3e
       -0.13026188 -0.17751373 -0.057958003 0.32902727
0000b0 f3 0d b9 bd 87 97 48 be 5e 34 b7 be 5d fa 91 3d
       -0.09035864 -0.19589053 -0.3578214 0.07127831
0000c0 f2 27 b5 bd a7 00 af bd 5e 60 11 be 74 57 63 bc
       -0.088455096 -0.08545046 -0.14196917 -0.013875831
0000d0 dc 39 eb bd 31 13 45 3e 6b ef 32 be 22 ba 1d be
       -0.11485645 0.19245602 -0.17474143 -0.15403035
0000e0 b7 db ec 3d 26 20 be bd 9d 77 db bc cb 8a 28 be
       0.11565345 -0.092834756 -0.026790434 -0.16459195
0000f0 9e 22 3e bd 3a e3 cb bc 8b 69 20 3e 96 a4 99 3d
       -0.046419732 -0.024888624 0.15665261 0.075020954
000100 40 d9 83 bd d6 80 bd bd 22 8f e0 bd a2 5b 82 3d
       -0.064379215 -0.09253089 -0.109648004 0.06365134
000110 ff 1b 9e bd 0e 09 f2 bb 1c e0 91 be 54 8b 1a be
       -0.077201836 -0.0073863333 -0.28491294 -0.15092212
000120 2a 03 ce bc 7f 21 24 3f 0b 1b e7 bc b0 7e a0 3c
       -0.025147993 0.6411361 -0.028211137 0.01959166
000130 4e 49 39 be 2b c9 9f 3c bb e1 cc 3c 92 6d 7b 3d
       -0.1809437 0.019505104 0.02500998 0.06138379
000140 10 ea c5 bd f2 de 23 bd e0 c7 e8 3c 45 eb fc bd
       -0.096637845 -0.04000754 0.02841562 -0.123495616
000150 b1 de f1 bd ff f4 e5 be b1 3f 06 be 39 cb 31 3e
       -0.11810053 -0.4491348 -0.13110234 0.1736268
000160 6d ea 14 3d 63 c0 16 3d f7 63 a5 bc 31 89 d0 be
       0.03635638 0.036804568 -0.020189269 -0.4072967
000170 12 70 a5 3d 84 a5 22 3e 4e 4b aa be 05 52 98 3d
       0.08078016 0.15883452 -0.33260578 0.07437519
000180 79 6c 27 be 8f ca e4 3d 26 01 dd 3d 63 24 cd bd
       -0.16349973 0.111714475 0.10791235 -0.10016706
000190 99 0d 94 be 99 5c c1 3d b4 6c 0b 3e 79 9d 58 3e
       -0.28916624 0.0944149 0.13615686 0.21153821
0001a0 f5 45 79 3d 18 e0 2f 3e 4a ef cf bd f3 9a 2e 3d
       0.06085773 0.17175329 -0.10153063 0.04262824
0001b0 bd bc 04 3e 4c a9 f0 bd 37 b6 98 bd 76 6e 2e be
       0.12962623 -0.11751041 -0.0745663 -0.17034325
0001c0 52 79 99 3d 93 30 48 3e 4f 4c 13 bd 38 33 90 3c
       0.07493843 0.1954978 -0.035961445 0.017602548
0001d0 39 9e 54 3c 36 13 59 3d fc 47 c9 3e 42 3a 36 3b
       0.012977176 0.052996837 0.39312732 0.002780572
0001e0 aa 39 09 3d f7 5d e1 3d 7b ce ba bc 1c cf 0b be
       0.03350226 0.110042505 -0.022803536 -0.13653225
0001f0 91 0a 97 3e 54 fa 02 be d7 0b 8b 3d b3 2d 87 bd
       0.2950025 -0.12790805 0.06789368 -0.06600513
000200 db 51 8a bd 06 19 a0 bd 76 63 cd bd fa 0c c8 3d
       -0.06753894 -0.07817273 -0.10028736 0.097681
000210 93 7c 46 3e 6e 93 89 3e 2d 56 4b 3e 7b 14 eb bc
       0.19383459 0.26870292 0.19857092 -0.02869629
000220 8a c3 6b be f8 bd df bc ad 26 37 3e 61 53 04 be
       -0.23023811 -0.027312264 0.17885847 -0.12922432
000230 df 91 4b be c2 9a 2b be f0 6a da 3e d6 53 3d be
       -0.19879864 -0.16758254 0.42659712 -0.18489012
000240 c9 6a 15 be 33 b4 8c 3d ab d9 4b be 5b 87 d6 bd
       -0.14591517 0.06870308 -0.19907252 -0.10475036
000250 44 e8 14 3e 0f e6 0e be 4b 0d 18 3d d6 97 a9 3e
       0.14541727 -0.13954948 0.037122052 0.33123654
000260 28 ed b9 3d a3 1b 43 3d 5d 5e 25 3e 0d 85 12 3e
       0.09078437 0.04763378 0.16149278 0.14308567
000270 4e 96 20 be a6 2e 56 3d d1 ea d0 bd 5c 4d 01 be
       -0.15682337 0.05229058 -0.10201038 -0.12627167
000280 32 90 67 bd b5 df 48 bc e4 92 bd bd 59 28 01 3e
       -0.056534 -0.012260367 -0.09256533 0.12613048
000290 0d 7e 90 3d 95 df b1 bd cb e5 f8 3e d2 e3 fa bd
       0.07055292 -0.08685223 0.48612818 -0.122504845
0002a0 21 0f 45 3d bc 4e 4b 3d a7 a1 b5 bd 30 a9 3a 3d
       0.04811013 0.049635634 -0.08868723 0.045571506
0002b0 4d fb 8b 3d 3a 5d 7b bd b9 f6 75 3d e8 1e d5 bd
       0.06835041 -0.061368205 0.060049746 -0.104062855
0002c0 89 d6 49 bd 0a 89 91 bd dc 97 85 3d e0 6f ea 3d
       -0.049276862 -0.07106216 0.065231055 0.1144712
0002d0 ab 60 fc 3d fd 93 63 be 0d 3e 56 bd 12 42 11 3e
       0.123231255 -0.22224422 -0.05230527 0.1418536
0002e0 20 b6 e1 bd ff df 24 be 13 d8 1b bd c8 62 a1 3c
       -0.11021066 -0.16101073 -0.03804786 0.019700423
0002f0 b8 f4 1a 3e 3c a0 06 3e 6c b6 2d be 40 4e a0 bd
       0.15132415 0.13147062 -0.1696412 -0.07827425

layer4.bn1.weight f4 [8]
000000 55 1b 80 3f 5c 29 87 3f 0b 84 75 3f 59 69 88 3f
       1.0008341 1.0559497 0.95904607 1.065715
000010 a7 50 6b 3f 92 73 69 3f 0e 72 7b 3f 30 5b 6f 3f
       0.9191994 0.9119197 0.9822091 0.93498516

layer4.bn1.bias f4 [8]
000000 eb 42 e8 3d 06 9a 74 3e d3 d3 15 3d 38 0f 0a be
       0.113408886 0.2388688 0.036578964 -0.13482368
000010 d4 e7 a8 3c 59 98 6d be 75 90 9b 3d 39 17 de bd
       0.020618357 -0.23202647 0.07595912 -0.10844273

layer4.bn1.running_mean f4 [8]
000000 9d 3a c4 be df 4c 37 be c2 05 ac be 1f 30 d6 be
       -0.38325968 -0.17900418 -0.33598143 -0.41833588
000010 95 f6 7d 3e a6 37 db 3e 15 83 43 3f 17 19 4e be
       0.24801095 0.42815894 0.7637189 -0.20126759

layer4.bn1.running_var f4 [8]
000000 51 fc 17 3f 62 35 65 3f 89 1e 05 3f 34 d2 6d 3f
       0.5936938 0.8953458 0.5199972 0.9289887
000010 48 d1 e5 3e 42 32 90 3f 1d 14 bc 3f 6f 0a b3 3e
       0.4488623 1.1265337 1.4693638 0.34968898

layer4.conv2.weight f4 [8, 8, 1, 3]
000000 ff 32 d3 bd f6 33 73 be bd 40 a4 bd 3d 0c ae 3c
       -0.10312461 -0.2375029 -0.0802016 0.02124607
000010 71 30 00 bf d3 24 d1 bd f7 09 46 3e 9d 97 7e be
       -0.50073916 -0.10212102 0.19339739 -0.24862523
000020 33 22 f1 bd 50 f6 c1 bd 68 2a f1 3e 78 52 3b be
       -0.11774101 -0.094708085 0.47102666 -0.18293178
000030 b1 62 ee bd 51 72 ae 3e 70 25 f9 bd dc fe b1 3d
       -0.11639918 0.34071591 -0.12165344 0.08691189
000040 96 4f de bc 74 35 5b 3d 17 ab f2 bd 26 d1 db 3e
       -0.027137559 0.053517774 -0.11849039 0.42933005
000050 db eb 8e bd a3 88 9a 3d eb b2 80 bd 0a eb 26 be
       -0.069785796 0.07545593 -0.06284126 -0.16300598
000060 4d fc 35 3e b8 a5 e5 bd 70 ac 43 be 0b 12 43 be
       0.17772026 -0.11213249 -0.19108748 -0.19049852
000070 22 01 86 be 0b fc 7f 3d 97 07 7a 3d d6 2d e5 bd
       -0.2617274 0.062496226 0.061042394 -0.11190383
000080 23 e1 67 bd ac 9f 70 bd 7c 0c 86 be 30 cc 2b be
       -0.05661119 -0.058746025 -0.261814 -0.1677711
000090 35 e9 8e 3d b9 0a b7 bd 75 a5 1c 3e a9 c4 d9 3d
       0.069780745 -0.08937592 0.15297492 0.10633213
0000a0 80 f9 aa be 73 8a 2c bd 1b ea 95 3c fe f1 a8 be
       -0.33393478 -0.042124223 0.018300107 -0.32997125
0000b0 2d f8 07 be 1f e8 47 3e 76 9b c9 bd 4f 89 10 3e
       -0.13278265 0.19522141 -0.09844105 0.14114879
0000c0 6d f7 00 3e 99 4b ff bc 1d 7c 16 3e f6 c0 00 3e
       0.12594385 -0.031163977 0.14695783 0.12573609
0000d0 be eb 87 bd f6 17 2c be 76 47 97 bd 54 6f 48 be
       -0.06636761 -0.16806015 -0.07386677 -0.19573718
0000e0 96 88 4b be 96 5d 0a be be 7c c1 bd 79 be 0d be
       -0.19876322 -0.13512263 -0.09447621 -0.13842191
0000f0 d4 fd 0e 3d e3 36 d1 bd a0 b4 48 3e 66 8a 0e 3e
       0.034910038 -0.10215547 0.19600153 0.13919982
000100 16 d3 54 be 65 2a 25 3d 31 33 30 be 2d 94 dc be
       -0.20783648 0.040323634 -0.17207028 -0.430818
000110 e5 7f ec 3d e0 ae 9f bd 5c 39 3c be 28 e2 5c bd
       0.115478314 -0.07797027 -0.18381256 -0.053926617
000120 83 d1 e9 3d 58 39 77 3e e9 40 0a 3e f4 96 1d be
       0.11416914 0.24142969 0.13501324 -0.15389615
000130 a3 1c d0 3d b7 98 a5 3d b1 38 2f be 72 da 09 3d
       0.10161712 0.08085769 -0.1711147 0.03365559
000140 05 1c 51 bd 03 8d 05 be a7 34 4e 3d 93 c2 01 3e
       -0.051052112 -0.13042073 0.050343182 0.1267188
000150 44 0e 49 3d ab 76 0b 3e a0 a1 43 3e c0 e8 90 bd
       0.04908587 0.13619487 0.19104624 -0.070756435
000160 d0 de 60 3e 90 c9 12 be 83 4a e9 3c 3f a0 a7 3d
       0.21959996 -0.14334702 0.028477913 0.081848614
000170 e7 39 a2 3d 95 42 86 3d 04 cc b0 bc c9 4c 91 bd
       0.079212 0.06555668 -0.021581657 -0.07094724
000180 ed 7b 1e be 7b 89 54 bd 75 33 c9 3d 52 cd 13 3e
       -0.15476961 -0.051888924 0.09824268 0.14433792
000190 d8 a5 37 be 98 8b 9c bd a6 3c cc bd d6 1d 26 ba
       -0.17934358 -0.07643813 -0.09972505 -0.00063368434
0001a0 49 99 44 3e 97 46 3e be 20 e4 b5 bc 6f 77 16 3e
       0.19199099 -0.18581615 -0.022203505 0.14693998
0001b0 a6 6e f3 bd b0 1b 86 be f6 61 b7 bd 64 9c 6a bd
       -0.11886339 -0.26193 -0.089542314 -0.057278052
0001c0 7f d4 d1 bd 91 7d e9 3d cc 07 f4 bd f4 b8 39 be
       -0.102456085 0.11400903 -0.1191555 -0.1813696
0001d0 a1 26 85 bd 1d 6d af bc 8d e2 d8 bd 1e 1a 57 bd
       -0.065015085 -0.021414334 -0.10590086 -0.05251514
0001e0 6c 1c 0b 3e 20 05 b6 3d 48 cb e7 bc 99 49 a0 bd
       0.13585061 0.08887696 -0.028295174 -0.07826538
0001f0 4b cc c9 3d ee 5b b0 3d 9d a2 eb bd c9 69 d3 bd
       0.09853419 0.08611284 -0.115056254 -0.10322911
000200 97 81 2b 3e e1 d1 23 3e 08 81 b1 3e 7e 38 07 be
       0.16748653 0.15998031 0.34668756 -0.13205144
000210 19 bc 1c be 7c 61 44 be 85 ad 2d bd d8 ef aa 3d
       -0.15306129 -0.19177812 -0.04240181 0.08346528
000220 99 d2 9c be ae 99 93 bd ce 05 35 39 fc 0f 07 bd
       -0.30629423 -0.072070464 0.00017263668 -0.03297423
000230 1d 5e 06 be de 4f fb 3d ba be 05 3e f4 18 03 bc
       -0.13121839 0.12271093 0.13061038 -0.008001555
000240 a1 f1 cd ba de 30 c9 3d 13 5e b7 3d 2d 72 03 3e
       -0.001571227 0.09823774 0.0895349 0.12836523
000250 3f 1a f4 3d b5 3a a3 3d 3c 23 20 3e 53 89 75 bd
       0.119190685 0.07970182 0.15638441 -0.059945416
000260 20 88 0e be 29 62 91 bd af be e6 be 80 0a 0f bd
       -0.13919115 -0.07098801 -0.45067355 -0.034922123
000270 f6 c5 6e 3d 53 c0 85 be 0d 6a 68 3c 10 47 22 3e
       0.05829426 -0.26123294 0.014185441 0.1584742
000280 56 77 58 be 11 c8 cb bd 52 a2 8a 3d 17 48 1a be
       -0.21139273 -0.09950269 0.067692414 -0.15066563
000290 bd be 18 bc e0 3b 3a be b2 8b a2 bd 15 fd 29 3e
       -0.009322819 -0.18186903 -0.07936801 0.1660045
0002a0 2a 86 3b be cc 4e 51 3e d5 58 ab bd cc bb 39 3d
       -0.18312898 0.20440215 -0.08366553 0.045345113
0002b0 7f 20 d8 3d 77 f1 20 be ef 3f 66 bb 79 c3 01 bc
       0.10553073 -0.15717112 -0.0035133322 -0.0079201395
0002c0 25 c6 09 3d 2c 33 45 bd 91 6d 30 be c8 e3 1d bc
       0.03363623 -0.048144504 -0.17229296 -0.009636827
0002d0 76 b4 18 3e 4a 0c a6 be 23 cf 19 be f0 7b 1e 3e
       0.1491259 -0.3243125 -0.15020423 0.15476966
0002e0 1e 6a 1f 3e af 59 f1 3d 36 3a 60 3d 13 4a b0 be
       0.15567824 0.11784684 0.054743014 -0.34431514
0002f0 1c 31 ab 3d 37 7d 3a be af d5 e9 bd f8 73 4f bc
       0.08358976 -0.18211828 -0.1141771 -0.012661926

layer4.bn2.weight f4 [8]
000000 7a cb 95 3f c5 58 7d 3f c1 c0 7b 3f ca f8 54 3f
       1.1702721 0.98963577 0.98340994 0.8319212
000010 7e e3 83 3f b3 6d 66 3f bd 60 8a 3f 50 2e 60 3f
       1.03038 0.9001114 1.0810772 0.8757067

layer4.bn2.bias f4 [8]
000000 52 16 4a be c7 e1 ea bc b9 ae 88 3e cb ff 3d be
       -0.19735077 -0.028672112 0.26695803 -0.18554609
000010 89 49 ad 3d fb 35 e0 bd f4 c5 55 bc 88 4f 05 3e
       0.08461291 -0.10947796 -0.013047684 0.1301862

layer4.bn2.running_mean f4 [8]
000000 ca 2c cf bd f5 6a 08 bf 3b 07 cc be 1e 92 8f 3e
       -0.10115965 -0.53288203 -0.39849266 0.28041166
000010 7f db 94 be 14 5a 42 3d 7a 38 78 be c5 0f b9 bd
       -0.29073712 0.047449186 -0.24240294 -0.09036211

layer4.bn2.running_var f4 [8]
000000 5f ef 39 3f 26 49 8f 3e fb ca 9f 3e d6 fb c3 3d
       0.72630876 0.27985495 0.3120955 0.09569518
000010 de 73 34 3e f4 50 5f 3e 69 ab 9b 3e a9 cd 85 3e
       0.17622325 0.21808225 0.30404213 0.2613347

layer4.fc1.weight f4 [2, 8]
000000 a1 a7 84 3e 40 d1 40 3e e4 ca 2d be d2 d7 9d be
       0.2590914 0.18829823 -0.16971928 -0.3082872
000010 32 55 0a 3e 4d 34 5c be 67 a9 69 be 97 09 8e 3e
       0.13509062 -0.21504326 -0.22818528 0.2774169
000020 95 bf a4 3c 58 ac b3 3d b2 c8 8c 3e 40 5e 09 be
       0.020110885 0.08773106 0.27496868 -0.1341486
000030 d1 7d 80 be c2 05 08 3e e0 22 0e be e5 62 75 bd
       -0.2509599 0.13283446 -0.13880491 -0.059908766

layer4.fc1.bias f4 [2]
000000 2a 8f aa be cd 3f 8b be
       -0.3331235 -0.27197114

layer4.fc2.weight f4 [8, 2]
000000 7d 45 ad be c9 71 dd 3d 84 e6 0d 3e 24 2e b8 be
       -0.33842078 0.108127184 0.13857466 -0.35972703
000010 25 70 3d 3d 4d 6f d7 3e 2a b2 f9 3b da 86 25 bf
       0.046249527 0.42077103 0.0076201158 -0.6465889
000020 bc 48 ca bd 49 b9 6a be a9 45 0e bd 76 52 23 3f
       -0.09877154 -0.22922243 -0.0347344 0.637977
000030 84 c2 18 3f 91 33 e5 3e 6b 2b 46 3e fa a8 f5 be
       0.5967181 0.44765905 0.193525 -0.4798048

layer4.fc2.bias f4 [8]
000000 ed f0 46 3f 0d 2a c5 be 9b bb ca 3d 9a dc e5 be
       0.77711374 -0.38508645 0.09899064 -0.44894868
000010 62 6d 6d 3e 57 79 f5 3e 17 dc 6d bd e2 d5 08 3f
       0.23186257 0.47944137 -0.058071222 0.5345136

layer5.conv1.weight f4 [16, 8, 1, 3]
000000 3e 90 0d be 1e 99 c8 3d 97 fe 40 be 28 08 fb 3c
       -0.13824555 0.0979483 -0.18847118 0.030643538
000010 cc d9 20 3e 09 2a 99 bd f1 94 39 be 4c 87 64 be
       0.15708083 -0.07478721 -0.18123223 -0.22317237
000020 42 d8 8c bd 64 68 8b bb 43 77 39 be 94 da 09 3e
       -0.068771854 -0.0042543877 -0.18111901 0.13462287
000030 64 6b 15 bc c7 13 0b 3d e8 39 0d 3e a5 d5 0e be
       -0.009119842 0.033954408 0.1379162 -0.13948686
000040 57 d5 18 be ab a4 2c be d2 9f f0 bd 2d a6 4e 3e
       -0.14925133 -0.16859691 -0.11749233 0.20180579
000050 6f 04 1e be a7 93 e8 3d 84 c9 43 be 2f 54 0e be
       -0.15431379 0.113562874 -0.19119841 -0.13899301
000060 6a 54 88 3d a5 a8 8f 3c f0 e5 59 bd 28 23 20 3c
       0.06656726 0.01753647 -0.0531978 0.009774007
000070 99 35 0b be 84 43 94 bd 80 67 e7 3d b9 9e c1 3e
       -0.13594665 -0.0723944 0.11299038 0.37816408
000080 70 a9 d4 3d 84 b0 55 bd c7 52 19 3c 29 ee 09 3e
       0.1038388 -0.05217029 0.009358115 0.13469757
000090 0c 11 c7 bd ac f8 6b bd 66 91 48 be 8b 26 c4 bd
       -0.09720048 -0.0576102 -0.19586715 -0.09577664
0000a0 c0 b2 21 3d f4 ca 27 3e 0a 3d 1e be 04 26 cd bd
       0.03947711 0.16386014 -0.15452972 -0.100170165
0000b0 89 91 99 3d be 31 b6 3d 93 05 3b be 65 22 b8 bd
       0.07498462 0.08896206 -0.18263845 -0.08990935
0000c0 03 0d 39 3e e4 04 4e 3e 5b e7 3a be b6 38 9d 3d
       0.1807137 0.20119053 -0.18252318 0.076768324
0000d0 76 b0 b7 bd b1 81 22 3e c5 73 e7 bb 1d d0 93 3d
       -0.08969204 0.15869786 -0.0070633614 0.07217429
0000e0 d1 0d 47 3e e2 11 3a 3e b5 ab 88 3e aa 8d 99 bc
       0.19438864 0.18170884 0.26693502 -0.018744309
0000f0 45 bb e4 3b fe 42 28 be 94 62 9a 3d c3 3c 0c bd
       0.006980332 -0.16431805 0.075383335 -0.034237634
000100 0b 6d 4a bd 1b dd c2 3d 3e 52 23 3e 24 9f 3e 3e
       -0.049420398 0.09514829 0.15949342 0.18615395
000110 af 87 ad bd 12 04 91 bd 96 6a 9a 3d da 56 45 be
       -0.08473145 -0.070808545 0.07539861 -0.19271412
000120 32 5e d3 3d 20 f2 72 3d b2 2d 56 bd 79 72 ff 3c
       0.10320701 0.05931294 -0.052289672 0.031182515
000130 59 e1 0a 3d 61 de 10 be f8 fb 47 3d 17 74 0b be
       0.033906315 -0.14147331 0.04882428 -0.13618504
000140 13 e6 e3 bc b0 27 9c bd 08 fe 40 3e 13 31 dc 3d
       -0.027819669 -0.07624757 0.18846905 0.10751548
000150 60 d9 b1 3d 69 83 c9 be fc 0b 1d 3e 54 17 cc 3d
       0.08684039 -0.3935807 0.15336603 0.09965387
000160 65 80 03 3a c7 47 32 3e b6 68 2d bd 65 83 8a 3e
       0.00050163857 0.17410193 -0.04233619 0.2705337
000170 81 12 19 be 9c 78 a6 bd 47 42 14 3e 72 ae e7 bd
       -0.14948465 -0.08128473 0.14478408 -0.1131257
000180 8b 52 34 be f3 fe 9c 3e 55 6d 60 3d 20 88 9d 3d
       -0.17609613 0.3066326 0.054791767 0.076919794
000190 6a 1d 20 bd 11 cd 07 be 53 ea 0f 3e 89 e9 06 3e
       -0.03909055 -0.1326182 0.14054231 0.13175024
0001a0 fa b8 37 3e fd 90 23 be b3 5a 4a 3d 3e b8 0b 3e
       0.17941657 -0.15973277 0.049402904 0.13644502
0001b0 4b cf 05 3e 36 52 ad bd fa 88 3e be 54 0f d9 3c
       0.13067357 -0.08462946 -0.1860694 0.026496567
0001c0 65 54 b8 3d 7e 0c ec bc 3a 1b 5a bd 76 9a b5 bd
       0.09000472 -0.02881455 -0.05324862 -0.08867352
0001d0 4a c5 ba bd 59 cd 34 3d 38 56 75 be 1f 8a 44 3e
       -0.09119661 0.044141147 -0.23958671 0.19193314
0001e0 23 3d 4d 3d 29 42 dd 3e ba b2 29 be a9 be 7b bc
       0.050107133 0.4321454 -0.16572085 -0.015365281
0001f0 c5 1b 2f be 69 07 8d bc 7a f1 32 3e 14 da 62 3d
       -0.17100437 -0.017215448 0.17474928 0.055383757
000200 26 47 46 3d 12 84 01 3e 70 1e 56 bd 52 3e de bd
       0.048407696 0.12648037 -0.05227512 -0.108517304
000210 0b 5d da 3b 34 50 95 bd 5a fa 01 3e c0 f5 f3 bc
       0.0066639236 -0.07290688 0.12693158 -0.029780269
000220 09 c6 3b 3e f9 ba 33 3e 49 ee 4a be 07 ae 2d bd
       0.18337263 0.17551793 -0.19817461 -0.042402294
000230 bc 57 4a bd 10 38 0a 3e 3c f3 cb bc 54 de 0b be
       -0.049400076 0.13497949 -0.024896257 -0.1365903
000240 1c f3 45 be 5b e7 43 3e 17 9d 50 bd 2d 87 c5 bd
       -0.1933102 0.19131224 -0.050931063 -0.09644923
000250 ca 8c 82 be 9e 7b e7 3d 2e 29 b4 bd 11 3e 99 3e
       -0.2549804 0.11302875 -0.08796917 0.29930165
000260 f4 05 d4 3d b3 23 00 bd f0 b0 c3 be 4f ff b2 3d
       0.10352698 -0.031284045 -0.3822093 0.087401025
000270 90 04 2f 3e da 5a 77 be b6 4d d7 bc bb c1 76 bd
       0.17091584 -0.24155751 -0.026282173 -0.06024335
000280 b6 b2 1c 3e 99 f9 c7 bd 0f b0 4a be c0 fd 2a be
       0.15302548 -0.09764404 -0.19793724 -0.1669836
000290 d3 cb 63 3d 61 77 c6 3d e9 aa f7 bd 9b 10 1e bd
       0.055614304 0.096907385 -0.120931454 -0.038590055
0002a0 fb 24 e1 3d 2a 69 91 3e f5 b7 d0 bb 79 67 17 bd
       0.109933816 0.28400546 -0.0063695856 -0.036963914
0002b0 0c 47 97 3e 54 68 9c 3c 02 d3 04 3e 79 9a 31 bd
       0.29546392 0.019092716 0.12971118 -0.043360207
0002c0 49 57 02 3e 57 7b 12 be 30 5e 9a 3d d7 43 46 3e
       0.12728609 -0.14304863 0.07537496 0.19361816
0002d0 fb 19 01 bc 22 47 83 be 71 6a 34 3e 13 5c e2 3d
       -0.007879729 -0.25640208 0.17618729 0.11052718
0002e0 8a 48 31 3e 9c 90 0f be 08 2d b3 39 b6 77 c9 bd
       0.17312828 -0.14020008 0.0003417509 -0.09837286
0002f0 92 05 11 3d a4 56 0c bd d3 03 90 3d 89 9c a6 bd
       0.035405703 -0.034262314 0.070319794 -0.081353255
000300 3e 54 5e ba 24 73 26 be a2 51 08 be 8e 95 0e 3e
       -0.0008481181 -0.1625486 -0.1331239 0.13924238
000310 65 ab 11 bd 6c e5 99 3d 21 37 fe bd 1a 33 b6 bd
       -0.035563845 0.07514462 -0.12412859 -0.088964656
000320 db 91 40 3e 5f db 41 be d2 12 fa bd 3a b1 a7 bd
       0.1880564 -0.1893134 -0.12210621 -0.081881
000330 9b df c0 bc 28 27 8e 3d 4e 00 b3 3d 4c 80 18 3e
       -0.023544123 0.06941062 0.087402925 0.14892691
000340 e4 96 32 be 56 2c 1e 3e e2 37 2d be ec 46 b0 3d
       -0.17440373 0.154466 -0.16915849 0.08607277
000350 9d a5 32 3e 2e 00 fb bd 57 8e 0f be 5e fa 93 3d
       0.17445989 -0.12255894 -0.14019142 0.07225488
000360 30 fd e4 bd 38 16 62 3c 36 10 9a bd c8 c3 f1 bd
       -0.11181104 0.013799243 -0.07522623 -0.118049204
000370 7e 2d 35 be b2 ea 41 bd 8d 9f d5 bd 61 e4 f0 3d
       -0.17693135 -0.047342964 -0.104308225 0.1176231
000380 ec f1 26 3e d6 7d dd bc 2a 2c d5 3c 3a ed 00 3e
       0.16303223 -0.027037542 0.026022036 0.12590495
000390 2f 35 f4 bd 01 71 0b 3e d0 5a 82 bd f2 8d 11 3e
       -0.119242065 0.13617326 -0.06364977 0.14214304
0003a0 10 b3 59 3e 2c 89 f0 3d c0 6b 4e 3a 14 11 06 3e
       0.21259713 0.117449135 0.00078743324 0.13092452
0003b0 db 0f ec bd da bf 1c be 39 9c 8b 3e 5f 42 54 3c
       -0.11526462 -0.1530756 0.27267626 0.012955277
0003c0 8f 4a 85 bd 94 99 58 be 96 0b f1 3d c4 61 81 bd
       -0.065083615 -0.21152335 0.11769788 -0.063174754
0003d0 34 0f 07 bd 8a 96 39 3e 14 20 a2 bd f1 57 80 bd
       -0.032973483 0.18123832 -0.07916275 -0.062667735
0003e0 ef e0 91 3d 32 aa 28 3e 28 33 b2 3d 7a e1 73 3d
       0.07122981 0.16471174 0.087011635 0.059541203
0003f0 00 64 32 3e 56 4e 76 bd 9f d4 c0 bd 3c f4 43 be
       0.1742096 -0.0601333 -0.09415554 -0.19136137

layer5.bn1.weight f4 [16]
000000 96 28 75 3f 7f 1e 73 3f 1c 1d 6d 3f 3a 73 7c 3f
       0.95765054 0.9496841 0.9262254 0.9861332
000010 56 ac 76 3f a2 91 77 3f a0 51 8e 3f 75 b4 7d 3f
       0.96356714 0.96706593 1.111866 0.9910348
000020 65 a7 7b 3f f5 70 6b 3f 90 92 7d 3f 7c 67 74 3f
       0.983023 0.91969234 0.9905176 0.95470405
000030 11 97 6e 3f a7 51 73 3f 09 51 82 3f 32 81 81 3f
       0.9319926 0.95046467 1.018098 1.0117552

layer5.bn1.bias f4 [16]
000000 36 a3 13 bd 6a 0e 81 bd 1c a7 18 be d5 b5 c4 3c
       -0.036044322 -0.063015774 -0.14907497 0.024012486
000010 9f e9 ca 3c 4a c2 f3 3d 70 bd d8 3d b0 31 8e bd
       0.024769602 0.11902292 0.10583007 -0.06943071
000020 07 ef ff 3b 50 20 ac bc 18 32 c1 3d b7 20 52 bd
       0.0078104767 -0.021011502 0.09433383 -0.05130073
000030 ef f7 7e bd c2 0c 0a bd b9 b3 84 bd ac f6 0f 3d
       -0.062248167 -0.033703573 -0.06479592 0.035147354

layer5.bn1.running_mean f4 [16]
000000 1a 1e 41 3c d3 6f 36 bc ac 62 b5 3e 82 87 2d 3e
       0.011786962 -0.011135059 0.35426843 0.16946223
000010 0c 2e 23 3c 8e 87 13 3e 74 0a 74 be de 84 34 3e
       0.009959709 0.14407179 -0.23832113 0.1762881
000020 55 00 4e be e9 67 cb 3e 69 fd e9 bd 22 0e 99 be
       -0.20117314 0.39727715 -0.11425287 -0.29893595
000030 31 d7 0c 3e 3f f5 ae 3d 0c 32 5d 3e bf 76 ee 3c
       0.13753964 0.08542871 0.21601123 0.029109357

layer5.bn1.running_var f4 [16]
000000 a9 2e 3e 3e 30 a0 1b 3e 86 a7 91 3e a0 94 31 3e
       0.18572487 0.15197825 0.28448123 0.17341852
000010 71 70 96 3e 58 ea d7 3e 80 b7 b6 3e 15 6f 5b 3e
       0.2938266 0.42170978 0.35686874 0.21429093
000020 df b6 57 3e 80 55 03 3e 74 12 52 3e 91 af 94 3d
       0.21065854 0.12825584 0.20514852 0.07260049
000030 c0 11 f0 3e 66 7f 8d 3e 5e 79 59 3e a8 ba 3c 3e
       0.46888542 0.2763626 0.21237704 0.18430579
