das_new - 副本/models/20260106_103043/final_model.pth (torch, 99530 bytes, 176 tensors)

input_conv.weight f4 [4, 1, 1, 3]
0.23957711 -4.8859735 -0.19676864 0.3631227 0.13557826 -0.46496794 -0.4695428 -0.4818434
-0.060153235 0.38034308 -0.39390546 -0.030396942
00000000: b453 753e e559 9cc0 b87d 49be 38eb b93e
00000010: 07d5 0a3e 4710 eebe ea67 f0be 2eb4 f6be
00000020: 3d63 76bd 54bc c23e faad c9be 0203 f9bc

input_bn.weight f4 [4]
1.2947892 0.791471 1.0503042 1.151045
00000000: a7bb a53f d89d 4a3f 5e70 863f 7155 933f

input_bn.bias f4 [4]
-0.4895065 0.745461 0.02941059 -0.10009669
00000000: 99a0 fabe 88d6 3e3f 7aee f03c 7eff ccbd

input_bn.running_mean f4 [4]
-1.8764226e-08 5.71254e-10 -2.0422681e-09 -1.475411e-09
00000000: f82e a1b2 6d06 1d30 f657 0cb1 69c7 cab0

input_bn.running_var f4 [4]
23.873198 0.018381901 0.23217759 0.15516452
00000000: 4ffc be41 a495 963c f6bf 6d3e 73e3 1e3e

layer1.conv1.weight f4 [4, 4, 1, 3]
0.047229618 -0.28598145 0.1356691 -0.06938301 -0.841719 -0.26341859 -0.20453754 -0.2154258
0.17265192 -0.21824375 -0.118629046 0.058556035 -0.17214037 -0.44362494 -0.19960281 -0.15361653
0.6013833 -0.08996692 0.13491943 -0.11718226 0.2156801 0.017634293 -0.4283299 -0.06124514
-0.16769132 -0.4638556 0.22451937 0.23675013 0.29569796 -0.016097583 -0.06968157 -0.08298606
-0.09826576 0.05248053 -0.010026366 0.0787666 0.25692007 -0.33856428 -0.018575585 0.024702728
-0.03948148 0.27128902 -0.16801545 -0.41182932 -0.26531008 -0.2620315 -0.7870143 -0.11102387
00000000: d873 413d 296c 92be d7ec 0a3e ae18 8ebd
00000010: e57a 57bf cdde 86be 4a72 51be 9598 5cbe
00000020: aacb 303e 4a7b 5fbe c9f3 f2bd 74d8 6f3d
00000030: 9145 30be cf22 e3be ae64 4cbe a74d 1dbe
00000040: 42f4 193f 9440 b8bd 5228 0a3e 41fd efbd
00000050: 3edb 5c3e cb75 903c 0f4e dbbe 2fdc 7abd
00000060: 46b7 2bbe 7b7e edbe 68e8 653e a06e 723e
00000070: b965 973e 14df 83bc 36b5 8ebd 98f4 a9bd
00000080: 8f3f c9bd d3f5 563d a145 24bc 6250 a13d
00000090: 078b 833e 4c58 adbe d32b 98bc 605d ca3c
000000a0: 55b7 21bd 65e6 8a3e 3e0c 2cbe 4bdb d2be
000000b0: b9d6 87be fe28 86be c579 49bf 7c60 e3bd

layer1.bn1.weight f4 [4]
1.0325967 1.1769989 0.84419376 0.8068435
00000000: 212c 843f e6a7 963f 151d 583f 4c8d 4e3f

layer1.bn1.bias f4 [4]
0.12314223 0.5979424 0.23484309 -0.042442847
00000000: fe31 fc3d c112 193f b57a 703e 8dd8 2dbd

layer1.bn1.running_mean f4 [4]
-0.8323489 0.14138141 0.080430634 -0.5768492
00000000: d114 55bf 4ac6 103e d1b8 a43d 64ac 13bf

layer1.bn1.running_var f4 [4]
0.27916762 0.5689707 0.13712882 0.30214235
00000000: 0fef 8e3e 10a8 113f 7f6b 0c3e 67b2 9a3e

layer1.conv2.weight f4 [4, 4, 1, 3]
-0.19929002 -0.026459903 0.029513173 0.08614508 0.7227846 0.0573495 0.15845099 0.34013912
-0.2180944 0.15499385 0.41741908 -0.046058085 -0.16100933 -0.27736136 -0.079489864 -0.25323415
0.20016186 -0.10837435 -0.20771924 0.3301879 0.1384329 0.11807564 -0.1323473 0.08029012
0.2035701 -0.08874438 0.010260661 0.1920121 0.7778706 0.18710102 0.15605077 0.2749558
-0.07539916 0.22201559 -0.028225053 -0.2179687 -0.18836811 -0.49466753 -0.22060022 0.18513839
0.16831551 -0.2252998 0.0062182816 0.08718514 -0.16640896 -0.1091042 -0.38414678 -0.115800634
00000000: af12 4cbe 70c2 d8bc 9cc5 f13c d56c b03d
00000010: 6908 393f 4fe7 6a3d fa40 223e b726 ae3e
00000020: 2354 5fbe b5b6 1e3e f4b7 d53e 67a7 3cbd
00000030: a1df 24be 4f02 8ebe 95cb a2bd e8a7 81be
00000040: 3bf7 4c3e 5ff3 ddbd 5ab4 54be 630e a93e
00000050: 5bc1 0d3e a4d1 f13d 0d86 07be 256f a43d
00000060: ae74 503e 9dbf b5bd 551c 283c d29e 443e
00000070: 8722 473f 6997 3f3e c6cb 1f3e 02c7 8c3e
00000080: e06a 9abd 0e58 633e 3a38 e7bc 3033 5fbe
00000090: 92e3 40be 1045 fdbe 06e5 61be eb94 3d3e
000000a0: e75a 2c3e feb4 66be bac2 cb3b 1f8e b23d
000000b0: 1c67 2abe 0672 dfbd e3ae c4be e228 edbd

layer1.bn2.weight f4 [4]
0.72742254 0.6801797 0.99889106 0.59277236
00000000: 5d38 3a3f 4220 2e3f 53b7 7f3f eebf 173f

layer1.bn2.bias f4 [4]
0.8956507 0.023022702 1.0413436 -0.23108126
00000000: 5d49 653f 1b9a bc3c bf4a 853f 91a0 6cbe

layer1.bn2.running_mean f4 [4]
0.89228517 0.15146813 0.7286452 -0.1774363
00000000: cd6c 643f 761a 1b3e 7e88 3a3f ddb1 35be

layer1.bn2.running_var f4 [4]
0.9775123 0.17367084 0.7966209 0.06152746
00000000: 3f3e 7a3f c5d6 313e 59ef 4b3f 3804 7c3d

layer1.fc1.weight f4 [1, 4]
-0.14038546 -0.011401705 0.37649837 0.33459988
00000000: 35c1 0fbe 38ce 3abc 65c4 c03e ad50 ab3e

layer1.fc2.weight f4 [4, 1]
0.25460956 -0.88256365 0.17074028 -0.3282539
00000000: 2f5c 823e b1ef 61bf 8ad6 2e3e e510 a8be

layer1.fc2.bias f4 [4]
-0.3203315 0.109980345 0.7433299 -0.9129162
00000000: 7e02 a4be 603d e13d de4a 3e3f e0b4 69bf

layer1.shortcut.0.weight f4 [4, 4, 1, 1]
-0.7103365 0.4827168 -0.42141005 0.009750007 0.2155683 0.44391206 -0.056008108 0.08479609
-0.24188556 0.32293907 -0.46461886 -0.3471176 -0.29215342 0.32846972 -0.48639444 -0.09385064
00000000: 9dd8 35bf a826 f73e 0fc3 d7be 7ebe 1f3c
00000010: f0bd 5c3e 7148 e33e c268 65bd 93a9 ad3d
00000020: d9b0 77be 4558 a53e 86e2 edbe 66b9 b1be
00000030: 2295 95be 2f2d a83e b108 f9be c434 c0bd

layer1.shortcut.1.weight f4 [4]
0.64634794 0.76679546 0.79362774 0.74820006
00000000: 0f77 253f b54c 443f 302b 4b3f 0a8a 3f3f

layer1.shortcut.1.bias f4 [4]
1.1481322 -0.43061364 0.27584803 -0.14489004
00000000: fff5 923f 6479 dcbe f43b 8d3e 0e5e 14be

layer1.shortcut.1.running_mean f4 [4]
0.031858288 0.39020064 -0.1382535 -0.05877881
00000000: d67d 023d 61c8 c73e 5392 0dbe 0dc2 70bd

layer1.shortcut.1.running_var f4 [4]
0.47785726 0.09399003 0.3643933 0.28551498
00000000: b5a9 f43e d87d c03d c291 ba3e 052f 923e

layer2.conv1.weight f4 [4, 4, 1, 3]
-0.04353339 0.10873012 -0.008943689 0.0059349746 0.26558384 -0.27650827 -0.05019956 -0.51505643
-0.11390548 0.20218562 -0.09294799 -0.062429547 0.19757916 0.13580301 0.06553717 0.034085255
0.39223704 0.097451106 -0.11319118 -0.16215669 -0.13537551 0.22100534 0.3090138 0.21190225
0.046709545 0.30147877 -0.014311675 -0.1493251 -0.03563875 0.0071466444 0.061268143 0.5656709
-0.07812705 0.06338495 0.24097493 0.19491617 -0.18567672 0.185684 -0.1819051 0.21798997
-0.029235002 -0.07438688 -0.17491978 0.6370711 0.050173413 -0.1618873 -0.09971388 0.24603766
00000000: 1150 32bd e6ad de3d 8d88 12bc 2d7a c23b
00000010: 9bfa 873e 7e92 8dbe 0e9e 4dbd bdda 03bf
00000020: 4747 e9bd bf09 4f3e 845b bebd 20b6 7fbd
00000030: 3152 4a3e f20f 0b3e 5a38 863d fb9c 0b3d
00000040: 4bd3 c83e 7294 c73d c7d0 e7bd 670c 26be
00000050: e19f 0abe 394f 623e 0f37 9e3e e7fc 583e
00000060: 8252 3f3d 6d5b 9a3e 847b 6abc aee8 18be
00000070: f0f9 11bd 662e ea3b 4ef4 7a3d cfcf 103f
00000080: 1301 a0bd f8cf 813d 22c2 763e 1b98 473e
00000090: 0a22 3ebe f223 3e3e 5545 3abe c338 5f3e
000000a0: 3e7e efbc 2658 98bd 2c1e 33be 1717 233f
000000b0: a382 4d3d c9c5 25be ca36 ccbd 4cf1 7b3e

layer2.bn1.weight f4 [4]
1.1304399 0.70516145 0.9017878 0.9357798
00000000: 41b2 903f 7685 343f 91db 663f 448f 6f3f

layer2.bn1.bias f4 [4]
0.015911771 -0.27421832 0.37112904 0.6079717
00000000: 6759 823c 5866 8cbe a004 be3e 09a4 1b3f

layer2.bn1.running_mean f4 [4]
-0.2933043 0.34722704 1.2512987 0.98903453
00000000: fb2b 96be bec7 b13e 8e2a a03f 5e31 7d3f

layer2.bn1.running_var f4 [4]
0.14686047 0.28371504 1.4925269 0.91206527
00000000: 9762 163e 1943 913e 1f0b bf3f 1c7d 693f

layer2.conv2.weight f4 [4, 4, 1, 3]
0.0048888507 0.52908087 0.00073627813 -0.13174926 0.37772217 -0.018541109 -0.048183136 -0.24296214
0.23733373 -0.050623212 -0.58935654 0.23294513 0.16853675 0.22303768 0.15881701 0.08144796
0.2290293 0.22735621 0.17271174 0.23677537 -0.076778635 0.24946891 0.15920746 -0.11417353
0.26277918 -0.30962813 0.1954827 0.029639121 0.058517497 0.24707259 0.1299292 0.5064986
0.12158844 -0.22473206 0.5680655 -0.27499557 0.11271102 0.28517348 -0.097869456 -0.045489587
0.16723935 -0.11818645 0.21846852 0.41888803 0.18412626 0.1545712 0.13412349 -0.06407024
00000000: a732 a03b d871 073f ca02 413a 47e9 06be
00000010: cd64 c13e 86e3 97bc ae5b 45bd 11cb 78be
00000020: 9d07 733e 495a 4fbd 12e0 16bf 2b89 6e3e
00000030: e694 2c3e fd63 643e eda0 223e 30ce a63d
00000040: a886 6a3e 11d0 683e 59db 303e 3e75 723e
00000050: 1e3e 9dbd c774 7f3e 4807 233e d0d3 e9bd
00000060: fe8a 863e 9487 9ebe 9e2c 483e becd f23c
00000070: 0bb0 6f3d 9900 7d3e 290c 053e e4a9 013f
00000080: 5c03 f93d 2920 66be be6c 113f 38cc 8cbe
00000090: 09d5 e63d 4202 923e c86f c8bd 4a53 3abd
000000a0: cb40 2b3e bd0b f2bd 36b6 5f3e 7e78 d63e
000000b0: 988b 3c3e ea47 1e3e ab57 093e 4237 83bd

layer2.bn2.weight f4 [4]
1.4094847 0.80724126 1.3281517 0.988723
00000000: ff69 b43f 5da7 4e3f e000 aa3f f31c 7d3f

layer2.bn2.bias f4 [4]
-1.1236347 -0.13657898 0.8409427 0.0015380086
00000000: 43d3 8fbf 5cdb 0bbe 0548 573f 0197 c93a

layer2.bn2.running_mean f4 [4]
-0.20460516 0.40054154 0.528419 0.50306094
00000000: 0484 51be c813 cd3e 7846 073f 9ac8 003f

layer2.bn2.running_var f4 [4]
0.6164822 0.122459 1.0322218 0.1742643
00000000: c7d1 1d3f c9cb fa3d d81f 843f 5772 323e

layer2.fc1.weight f4 [1, 4]
1.1214583 0.4448003 0.45804965 0.8370074
00000000: f28b 8f3f ddbc e33e 7c85 ea3e 1e46 563f

layer2.fc2.weight f4 [4, 1]
1.3781928 0.5453758 0.96304846 0.5142997
00000000: 9f68 b03f c09d 0b3f 588a 763f 25a9 033f

layer2.fc2.bias f4 [4]
-0.73483944 -0.92260176 -0.29952094 -0.07303403
00000000: 701e 3cbf a12f 6cbf cf5a 99be de92 95bd

layer3.conv1.weight f4 [8, 4, 1, 3]
0.07414594 0.47745654 -0.01757876 0.017712178 0.10025754 -0.020062856 -0.12634562 0.495786
-0.036601126 0.13095354 0.4658977 -0.1442448 -0.042132944 -0.14906138 -0.058819577 0.085025586
0.058746997 0.22932687 0.25891694 -0.3039287 -0.2073877 -0.17037535 0.011557218 -0.21962622
0.17936787 -0.62018526 -0.17218088 -0.20298612 -0.039222933 0.06359022 0.15508106 0.013899765
-0.037040465 -0.013564409 0.059868496 0.11078474 0.20367394 -0.4004435 -0.27284878 -0.11916293
0.09634873 -0.14495853 0.032001976 0.8768027 -0.26162574 -0.12023586 0.30886528 -0.021902611
0.0819112 -0.20498295 0.036696065 -0.061216418 0.11246333 0.08370897 0.10916955 -0.31592992
-0.1564721 0.15805309 0.016987458 0.12977242 -0.16649073 0.37450513 0.17293158 0.17142852
0.7241176 0.08751451 -0.039463714 1.3205975 0.20006111 0.06790428 0.44730318 0.024961036
0.07982242 0.7447611 -0.19986036 0.032382607 0.9924679 -0.021128234 0.08767415 1.3462229
-0.033828717 -0.16121672 0.78833115 0.23216298 0.22914012 -0.3327561 -0.056011207 -0.12182661
-0.68097454 0.10266121 -0.27277178 -0.56002825 -0.13351552 0.07933348 -0.5092863 0.13932583
00000000: d4d9 973d 2f75 f43e 5501 90bc 2119 913c
00000010: d353 cd3d dc5a a4bc bf60 01be aad7 fd3e
00000020: 10eb 15bd af18 063e 258a ee3e e9b4 13be
00000030: 9893 2cbd 8ca3 18be ccec 70bd e521 ae3d
00000040: b1a0 703d aad4 6a3e c390 843e 8b9c 9bbe
00000050: 715d 54be e076 2ebe 7c5a 3d3c b2e5 60be
00000060: 36ac 373e 76c4 1ebf 2f50 30be 98db 4fbe
00000070: 3aa8 20bd 973b 823d 92cd 1e3e d7bb 633c
00000080: beb7 17bd 413d 5ebc ab38 753d 1ce3 e23d
00000090: e78f 503e ee06 cdbe d6b2 8bbe b20b f4bd
000000a0: 7c52 c53d 0270 14be 8114 033d 2476 603f
000000b0: cff3 85be 383e f6bd 9723 9e3e 1b6d b3bc
000000c0: 0fc1 a73d 0de7 51be 9d4e 163d 11be 7abd
000000d0: 2d53 e63d 9c6f ab3d 4994 df3d 91c1 a1be
000000e0: 393a 20be abd8 213e 4829 8b3c 10e3 043e
000000f0: 8c7c 2abe 23bf bf3e fa14 313e f58a 2f3e
00000100: c55f 393f cf3a b33d b4a4 21bd 5709 a93f
00000110: d2dc 4c3e 6611 8b3d ec04 e53e 167b cc3c
00000120: f079 a33d aaa8 3e3f 32a8 4cbe a0a3 043d
00000130: 6012 7e3f 1e15 adbc 818e b33d 0851 ac3f
00000140: fb8f 0abd ff15 25be 12d0 493f 22bc 6d3e
00000150: b5a3 6a3e 025f aabe 026c 65bd 3b80 f9bd
00000160: 5954 2ebf 0a40 d23d bea8 8bbe 035e 0fbf
00000170: 4bb8 08be 9779 a23d 9660 02bf 6eab 0e3e

layer3.bn1.weight f4 [8]
0.9191617 0.90930504 0.95177853 1.2199727 0.9411738 0.9038138 0.9985686 0.8986322
00000000: 2e4e 6b3f 37c8 683f c2a7 733f 1128 9c3f
00000010: c4f0 703f 5760 673f 31a2 7f3f c30c 663f

layer3.bn1.bias f4 [8]
-0.06664235 -0.15995386 -0.17582986 0.015680648 -0.24207655 0.23671518 0.05717582 -0.12294435
00000000: c97b 88bd f2ca 23be be0c 34be b474 803c
00000010: eae2 77be 7765 723e 3131 6a3d 3fca fbbd

layer3.bn1.running_mean f4 [8]
1.6651475 -0.59541583 -1.0164155 0.59076273 -0.6778795 2.7802696 3.7024937 -1.7768377
00000000: 8e23 d53f 2c6d 18bf e719 82bf 3a3c 173f
00000010: 8389 2dbf f0ef 3140 a8f5 6c40 6b6f e3bf

layer3.bn1.running_var f4 [8]
2.8837295 0.29591155 0.4898442 1.6974984 0.32717553 11.433959 18.786186 5.0275245
00000000: 068f 3840 b881 973e dccc fa3e a147 d93f
00000010: 8d83 a73e 7ff1 3641 1c4a 9641 7be1 a040

layer3.conv2.weight f4 [8, 8, 1, 3]
0.16386682 0.08089542 0.10972439 -0.075897045 0.07829491 0.00012737035 0.101648614 0.33246887
-0.15140307 0.17733426 0.48627162 -0.020067904 -0.003229527 0.20405912 0.004874996 -0.018959269
0.47797737 -0.06952955 0.123670615 0.36282364 -0.02981998 0.1399313 0.06254257 0.15344675
0.012929157 -0.219055 -0.007410495 0.006705562 -0.053963073 -0.18738718 -0.0063442443 -0.2695744
-0.19208732 -0.10174646 -0.53380054 -0.088144936 0.058397852 -0.22802241 -0.14838895 -0.07902235
-0.14698038 -0.108313195 -0.05546615 -0.09087208 -0.03697767 -0.06640905 -0.07427249 0.10066981
-0.12616111 0.019440984 -0.17887136 0.117980756 -0.26678953 -0.04515074 -0.15702172 -0.012718678
-0.04563633 -0.045251347 0.43447554 -0.026874239 0.1122038 -0.30723125 0.13222007 -0.11563537
-0.116689615 0.039705016 0.11949145 -0.030521313 0.051250614 -0.019028675 -0.104291394 0.09311221
-0.043242663 -0.03265873 0.07097648 0.093486264 0.09699634 -0.033987556 -0.09967414 -0.23243155
0.017671814 -0.18889008 -0.27051613 0.17816618 -0.008168478 0.051271662 -0.16735062 -0.11604656
-0.14259171 -0.116050035 0.15193431 0.1105338 -0.040223695 -0.023392934 0.2692302 -0.004364479
-0.15832146 -0.004896753 -0.19170253 0.04847956 -0.12181646 0.1207029 -0.084857605 0.18438159
-0.08529671 0.1829665 0.24921823 0.16452402 -0.11832147 -0.00076283416 0.088295154 0.0044058184
-0.024639213 -0.15707509 -0.17157984 0.33987725 -0.073353946 -0.115171224 0.016471544 -0.011355208
-0.112487 -0.55131567 0.022424484 0.1958402 0.14437965 -0.11597926 -0.07660135 -0.09477174
-0.058141723 -0.16798435 -0.2638787 -0.0934994 -0.043207187 0.18195368 -0.10050848 0.009189654
-0.37294614 -0.14769715 0.12700778 -0.4669774 -0.13022599 0.19064704 0.10003936 -0.047001082
-0.09123876 -0.26547888 -0.035562824 0.18154842 -0.19872777 -0.17605442 0.1356335 -0.45040944
0.037670802 -0.14363046 -0.58793557 -0.103155635 0.053096864 -0.23792338 -0.16420932 0.08360641
-0.21073094 -0.1897631 0.067095764 -0.4374688 -0.19459182 -0.101275586 -0.1320863 -0.19404572
0.09229742 0.3063423 0.05302377 0.07424282 0.14168082 -0.11321182 0.097582564 0.13156797
0.11681252 0.062089846 0.15954256 0.056756455 -0.091042906 0.18311495 0.14168005 0.18465355
0.26113 -0.039567854 -0.11855033 0.29799974 -0.0053762794 -0.18751292 0.023080075 -0.10342953
00000000: b4cc 273e 7fac a53d 2eb7 e03d e96f 9bbd
00000010: 1559 a03d b88e 0539 262d d03d 5c39 aa3e
00000020: 6809 1bbe 1d97 353e 98f8 f83e 7265 a4bc
00000030: 79a6 53bb e0f4 503e 6ebe 9f3b 7850 9bbc
00000040: 73b9 f43e 8265 8ebd 0547 fd3d 05c4 b93e
00000050: 0849 f4bc 274a 0f3e 5216 803d 2521 1d3e
00000060: d1d4 533c f44f 60be bdd3 f2bb 55ba db3b
00000070: 6208 5dbd 6de2 3fbe 61e3 cfbb a805 8abe
00000080: 8ab2 44be 7360 d0bd 27a7 08bf 5585 b4bd
00000090: 9632 6f3d b57e 69be 46f3 17be 78d6 a1bd
000000a0: 0682 16be 4fd3 ddbd 7930 63bd 241b babd
000000b0: e675 17bd 7801 88bd 2d1c 98bd f92b ce3d
000000c0: 6130 01be b342 9f3c 0e2a 37be e59f f13d
000000d0: a398 88be fbef 38bd 4dca 20be 0162 50bc
000000e0: 29ed 3abd 7a59 39bd 9473 de3e 5d27 dcbc
000000f0: 1bcb e53d 6a4d 9dbe b364 073e 3dd2 ecbd
00000100: f7fa eebd baa1 223d efb7 f43d d507 fabc
00000110: 2aec 513d 06e2 9bbc ba96 d5bd 9db1 be3d
00000120: 381f 31bd 29c5 05bd 1e5c 913d ba75 bf3d
00000130: 04a6 c63d 8936 0bbd f521 ccbd 8902 6ebe
00000140: 7bc4 903c 676c 41be 1781 8abe 3271 363e
00000150: 14d5 05bc 3c02 523d f65d 2bbe d2a9 edbd
00000160: 9003 12be a4ab edbd ab94 1b3e 8c5f e23d
00000170: 9ac1 24bd 8aa2 bfbc 8ad8 893e e703 8fbb
00000180: 051f 22be f174 a0bb ab4d 44be 8192 463d
00000190: e87a f9bd 1533 f73d d3c9 adbd 87ce 3c3e
000001a0: 0bb0 aebd 925b 3b3e 1033 7f3e fc78 283e
000001b0: 8752 f2bd eff8 47ba 17d4 b43d af5e 903b
000001c0: 2dd8 c9bc 4bd8 20be a0b2 2fbe 6404 ae3e
000001d0: 983a 96bd e4de ebbd 55ef 863c 320b 3abc
000001e0: 965f e6bd 0623 0dbf 8db3 b73c 558a 483e
000001f0: 42d8 133e 8986 edbd 2be1 9cbd b017 c2bd
00000200: 0426 6ebd 1704 2cbe 1c1b 87be 9d7c bfbd
00000210: 05fa 30bd 1152 3a3e 64d7 cdbd 3490 163c
00000220: ccf2 bebe ec3d 17be 540e 023e a917 efbe
00000230: f659 05be fa38 433e 70e1 cc3d 3584 40bd
00000240: 63db babd d9ec 87be 53aa 11bd d4e7 393e
00000250: 4b7f 4bbe 9c47 34be 82e3 0a3e 119c e6be
00000260: b34c 1a3d dd13 13be f282 16bf 4343 d3bd
00000270: 197c 593d 30a2 73be 7d26 28be d639 ab3d
00000280: dac9 57be 4251 42be 8169 893d e9fb dfbe
00000290: 1443 47be 9369 cfbd a241 07be ecb3 46be
000002a0: 6e06 bd3d e6d8 9c3e 742f 593d 9f0c 983d
000002b0: c714 113e 99db e7bd 5ed9 c73d c1b9 063e
000002c0: 673b ef3d ec51 7e3d 205f 233e 7579 683d
000002d0: b474 babd 7c82 3b3e 9314 113e d215 3d3e
000002e0: d5b2 853e e711 22bd 84ca f2bd 6c93 983e
000002f0: 802b b0bb 6303 40be 6d12 bd3c ddd2 d3bd

layer3.bn2.weight f4 [8]
1.1793355 0.926638 0.972927 0.94004905 0.83929074 1.098944 1.1405789 1.0513222
00000000: 77f4 963f 2638 6d3f be11 793f 0ea7 703f
00000010: c2db 563f 32aa 8c3f 7dfe 913f ba91 863f

layer3.bn2.bias f4 [8]
0.015735395 0.06271511 0.26273823 0.07990224 -0.16462578 0.15414461 0.43550617 -0.28247485
00000000: 84e7 803c c870 803d a085 863e c9a3 a33d
00000010: a993 28be 16d8 1d3e aafa de3e 8ba0 90be

layer3.bn2.running_mean f4 [8]
0.79263234 -0.5913447 -0.05828615 -0.1101182 0.25556174 -0.56022215 -0.90996385 0.54454595
00000000: f4e9 4a3f 5e62 17bf 75bd 6ebd a785 e1bd
00000010: fdd8 823e b86a 0fbf 64f3 68bf 5d67 0b3f

layer3.bn2.running_var f4 [8]
1.2011526 0.61055094 0.20612897 0.117992885 0.2308603 1.7386333 1.3110474 0.53654724
00000000: 5ebf 993f 114d 1c3f 7913 533e 41a6 f13d
00000010: a466 6c3e 898b de3f 67d0 a73f 295b 093f

layer3.fc1.weight f4 [2, 8]
0.16464958 0.058407843 0.44167298 0.5109819 0.19755721 0.60473883 0.34235194 0.306843
-0.05112748 -0.17065097 -0.32160982 0.19725744 0.046410203 -0.062000178 -0.10106745 0.25640786
00000000: e699 283e 103d 6f3d f622 e23e b6cf 023f
00000010: 704c 4a3e 2ad0 1a3f c148 af3e 871a 9d3e
00000020: 0c6b 51bd 21bf 2ebe 0baa a4be dbfd 493e
00000030: a018 3e3d e6f3 7dbd 74fc cebd e447 833e

layer3.fc1.bias f4 [2]
0.21252376 -0.13911067
00000000: d49f 593e 0773 0ebe

layer3.fc2.weight f4 [8, 2]
0.55644536 0.31104648 -0.08480044 -0.5154864 -0.06001219 -0.215679 -0.008166693 -0.448182
0.5225369 0.55304486 -0.4000585 -0.46244684 0.86261755 0.6133452 -0.15937139 0.67039704
00000000: 3473 0e3f 7c41 9f3e daab adbd ebf6 03bf
00000010: 58cf 75bd f5da 5cbe 98cd 05bc 1c78 e5be
00000020: fac4 053f 5994 0d3f 78d4 ccbe d5c5 ecbe
00000030: 81d4 5c3f 3104 1d3f 4132 23be 249f 2b3f

layer3.fc2.bias f4 [8]
0.44431344 -0.6515546 0.5536378 -0.60782206 -0.030185806 0.4743792 0.23784158 0.6327
00000000: 0d7d e33e 48cc 26bf 35bb 0d3f 3a9a 1bbf
00000010: 3948 f7bc d5e1 f23e be8c 733e a1f8 213f

layer3.shortcut.0.weight f4 [8, 4, 1, 1]
-0.8467336 -0.3432105 0.19737698 -0.34887683 0.51205194 -0.24753857 -0.13554548 0.44596717
-0.123806074 -0.32694948 0.65087897 0.23340383 -0.03772268 0.1570978 0.3921483 0.41443643
0.5911953 -0.25486663 -0.2463668 0.6231248 0.5009468 0.055792943 -0.112752214 0.3905931
-0.40555713 -0.85539794 -0.1121448 0.25586903 0.45252922 0.35007802 -0.16344693 0.024208643
00000000: 89c3 58bf 49b9 afbe 311d 4a3e fc9f b2be
00000010: d615 033f c07a 7dbe 6fcc 0abe cf55 e43e
00000020: 0a8e fdbd ec65 a7be 01a0 263f 6a01 6f3e
00000030: 1983 1abd 3fde 203e a9c7 c83e 0331 d43e
00000040: 9358 173f e17d 82be 9447 7cbe 1b85 1f3f
00000050: 0d3e 003f 2487 643d a2ea e6bd d2fb c73e
00000060: 2fa5 cfbe 5cfb 5abf 2cac e5bd 4401 833e
00000070: e9b1 e73e 6d3d b33e a25e 27be 3451 c63c

layer3.shortcut.1.weight f4 [8]
0.8846453 1.112891 0.8659292 0.9778141 0.8956756 0.9978776 0.73428637 1.0410588
00000000: 1d78 623f 3673 8e3f 89ad 5d3f 0652 7a3f
00000010: ff4a 653f e874 7f3f 31fa 3b3f 6a41 853f

layer3.shortcut.1.bias f4 [8]
0.23336078 0.14390278 0.11899649 -0.12685506 -0.028656045 -0.22352628 0.4031749 -0.10766499
00000000: 21f6 6e3e 405b 133e 6fb4 f33d 4be6 01be
00000010: 15c0 eabc 13e4 64be f16c ce3e 767f dcbd

layer3.shortcut.1.running_mean f4 [8]
-1.4841329 0.78002775 0.5555063 0.67423624 0.850049 0.8985266 -1.0850612 0.7222741
00000000: 11f8 bdbf e6af 473f a935 0e3f bf9a 2c3f
00000010: d09c 593f d705 663f 49e3 8abf f5e6 383f

layer3.shortcut.1.running_var f4 [8]
1.661863 0.29865748 0.5913624 1.0880218 0.39073825 0.59848547 1.4802116 0.4181866
00000000: edb7 d43f a2e9 983e 8763 173f 4c44 8b3f
00000010: d80e c83e 5836 193f 9377 bd3f 8e1c d63e

layer4.conv1.weight f4 [8, 8, 1, 3]
0.10917771 -0.123922616 -0.13998999 0.03759237 -0.22477865 0.0037707177 -0.09017996 0.064784735
0.0112041235 -0.1765531 0.022125605 -0.14498958 -0.086301535 -0.16824278 -0.14438145 0.18441926
-0.14738035 0.04006484 -0.0056925393 0.21497908 -0.07607292 0.013854603 -0.26518732 0.046408772
-0.04020765 -0.13088885 -0.044078704 -0.13292547 -0.07447305 -0.17970404 0.14960892 0.052673005
-0.010685304 0.08693612 -0.17096323 0.15499297 0.13830838 -0.117192425 -0.15426578 -0.01642657
-0.13779916 -0.17478397 -0.05706728 0.4255634 -0.088968985 -0.19287784 -0.32944158 0.07018374
-0.08709531 -0.1581081 -0.13978782 -0.013662476 -0.14726491 0.18949723 -0.17205255 -0.22500375
0.11387637 -0.09140787 -0.020807287 -0.16206142 -0.045706276 -0.05133897 0.15424404 0.07386833
-0.100136 -0.09110868 -0.10796364 -0.0022982361 -0.076015994 -0.0072727576 -0.23455769 -0.1486017
-0.024761643 0.60692036 -0.02777748 0.019290464 -0.13785917 0.019205555 0.024625612 0.018235238
-0.09515195 -0.0393922 0.04910459 -0.121597566 -0.11628477 -0.52138025 -0.1290851 0.17095888
0.038222052 0.036238674 -0.019878771 -0.48424295 0.0795379 0.15639514 -0.4199933 0.07323169
-0.16098717 0.0369768 0.1062536 -0.09862717 -0.37201503 0.09296428 0.13406467 0.28580683
0.059922487 0.16911253 -0.117139086 0.04197301 0.12763152 -0.02687579 -0.07341916 -0.16772431
0.072148554 0.1924927 -0.035408646 -0.019284965 0.012777648 0.052182347 0.43954054 0.0027378045
0.0329868 0.19402926 -0.022452878 -0.1344346 0.32126677 -0.12594141 0.06684971 0.07537867
-0.06650096 -0.0769714 -0.1061571 0.09617975 0.19085538 0.31010482 0.1955189 -0.028255232
-0.21670243 -0.026892457 0.17610906 -0.15917449 -0.19574226 -0.16500644 0.35479525 -0.18204905
-0.14367001 0.074320875 -0.1960118 -0.10313933 0.1499125 -0.13740595 0.03655166 0.33363542
0.08938939 0.04690149 0.16062361 0.140886 -0.15441279 0.14598061 -0.10044315 -0.12433061
-0.039090134 -0.012071856 -0.09114244 0.077644065 0.06946917 -0.08551782 0.5429773 -0.1206224
0.04737051 0.003000022 -0.08732375 0.044870663 0.096917585 -0.060424957 0.059126638 -0.1149322
-0.048519365 -0.0699706 0.06688368 0.11271151 0.12133774 -0.26811737 -0.05150107 0.13967364
-0.1298498 -0.15853374 -0.03746272 -0.030060118 0.14899904 0.1294491 -0.1501085 -0.07707078
00000000: 9098 df3d 24cb fdbd 8959 0fbe 75fa 193d
00000010: 602c 66be 251e 773b 45b0 b8bd dcad 843d
00000020: 8091 373c 56ca 34be c240 b53c 2678 14be
00000030: dcbe b0bd d647 2cbe bbd8 13be 67d8 3c3e
00000040: e0ea 16be 081b 243d 7b88 babb 7a23 5c3e
00000050: 1ecc 9bbd 6bfe 623c a2c6 87be 2017 3e3d
00000060: c7b0 24bd ba07 06be df8b 34bd 9d1d 08be
00000070: 5485 98bd 5604 38be 1533 193e a6bf 573d
00000080: 6a11 2fbc 910b b23d fc10 2fbe 7ab6 1e3e
00000090: b6a0 0d3e 9502 f0bd d9f7 1dbe 0491 86bc
000000a0: 391b 0dbe 92fa 32be 61bf 69bd 72e3 d93e
000000b0: 5f35 b6bd c581 45be 91ac a8be 7ebc 8f3d
000000c0: 075f b2bd 17e7 21be 8a24 0fbe 94d8 5fbc
000000d0: 9dcc 16be 900b 423e 8b2e 30be 6267 66be
000000e0: 0438 e93d 0d34 bbbd 0b74 aabc 6ef3 25be
000000f0: 8136 3bbd d048 52bd 26f2 1d3e 4748 973d
00000100: 1a14 cdbd 3097 babd 0a1c ddbd 019e 16bb
00000110: 46ae 9bbd 5050 eebb e42f 70be 0b2b 18be
00000120: eed8 cabc 225f 1b3f 998d e3bc 0907 9e3c
00000130: f42a 0dbe f854 9d3c a7bb c93c 1162 953c
00000140: 07df c2bd b759 21bd e521 493d 2508 f9bd
00000150: b626 eebd 2d79 05bf e22e 04be d80f 2f3e
00000160: ba8e 1c3d 016f 143d ced8 a2bc b1ee f7be
00000170: c4e4 a23d 0c26 203e 5d09 d7be 7ffa 953d
00000180: d2d9 24be fc74 173d 7d9b d93d 0bfd c9bd
00000190: c178 bebe 0e64 be3d 4048 093e 4655 923e
000001a0: 4871 753d d62b 2d3e 9ee6 efbd e4eb 2b3d
000001b0: d6b1 023e 9e2a dcbc c95c 96bd ecbf 2bbe
000001c0: 9fc2 933d ce1c 453e a808 11bd 81fb 9dbc
000001d0: 5759 513c 28bd 553d 750b e13e bd6c 333b
000001e0: 2b1d 073d 9baf 463e 19ef b7bc 39a9 09be
000001f0: 147d a43e c9f6 00be 80e8 883d 2260 9a3d
00000200: a831 88bd 2ea3 9dbd e568 d9bd e4f9 c43d
00000210: 986f 433e 0fc6 9e3e 1b36 483e 8477 e7bc
00000220: 3ee7 5dbe 924d dcbc ef55 343e a3fe 22be
00000230: a970 48be 73f7 28be b9a7 b53e 116b 3abe
00000240: 3b1e 13be 8b35 983d 51b7 48be b73a d3bd
00000250: aa82 193e 25b4 0cbe 32b7 153d 43d2 aa3e
00000260: c911 b73d c71b 403d 847a 243e 6b44 103e
00000270: 631e 1ebe f17b 153e 23b5 cdbd 0ca1 febd
00000280: fa1c 20bd 09c9 45bc e3a8 babd da03 9f3d
00000290: da45 8e3d f823 afbd 8f00 0b3f e008 f7bd
000002a0: 9407 423d 049c 443b cbd6 b2bd 4dca 373d
000002b0: ba7c c63d 2980 77bd c62e 723d 9361 ebbd
000002c0: 3ebc 46bd bf4c 8fbd 50fa 883d 4bd5 e63d
000002d0: ec7f f83d ae46 89be c9f2 52bd 9b06 0f3e
000002e0: 59f7 04be ab56 22be 8272 19bd a340 f6bc
000002f0: 3493 183e 4e8e 043e 0bb6 19be 49d7 9dbd

layer4.bn1.weight f4 [8]
1.0060189 1.0751027 0.98187894 1.064167 0.87456584 0.8846668 0.9050796 0.9373134
00000000: 3ac5 803f f79c 893f 6b5c 7b3f a036 883f
00000010: 8ce3 5f3f 8679 623f 4cb3 673f c5f3 6f3f

layer4.bn1.bias f4 [8]
0.16309078 0.30200276 0.09078254 -0.1804645 0.08104789 -0.20700173 0.03573137 -0.06861965
00000000: 4501 273e 1ba0 9a3e 32ec b93d b0cb 38be
00000010: 70fc a53d 43f8 53be 0f5b 123d 7688 8cbd

layer4.bn1.running_mean f4 [8]
-0.1892157 0.0010922735 -0.4785643 -0.5741456 0.25973344 0.4791241 0.78628284 -0.26121408
00000000: c3c1 41be 9e2a 8f3a 6106 f5be 35fb 12bf
00000010: c8fb 843e c14f f53e d549 493f dabd 85be

layer4.bn1.running_var f4 [8]
0.3310244 0.4999744 0.48719013 0.885235 0.89432913 0.9010999 1.7254432 0.29824573
00000000: 087c a93e a5fc ff3e fc70 f93e c39e 623f
00000010: c1f2 643f 7cae 663f 53db dc3f aab3 983e

layer4.conv2.weight f4 [8, 8, 1, 3]
-0.101538695 -0.2715116 -0.07896876 0.02091951 -0.5309815 -0.100552425 0.19042419 -0.29510117
-0.11593028 -0.09325183 0.4809078 -0.18012063 -0.11461075 0.30135491 -0.119783744 0.08557678
-0.069854684 0.052694883 -0.116668254 0.3591018 -0.0687138 0.07429578 -0.098643966 -0.16049927
0.17498638 -0.15410297 -0.18814892 -0.1875698 -0.2863978 0.061535183 0.06010397 -0.10344929
-0.055740852 -0.057842568 -0.27765802 -0.16519283 0.06870886 -0.15424491 0.15062511 0.104697175
-0.3067648 -0.041476633 0.018018648 -0.33817995 -0.13074046 0.19222139 -0.114188276 0.13898033
0.12400684 -0.042650472 0.14469948 0.12380275 -0.052203268 -0.16547833 -0.07273048 -0.31857237
-0.19570753 -0.13304566 -0.17702633 -0.13629282 0.03437366 0.08088325 0.19298726 0.13706148
-0.1918436 0.03970328 -0.16942583 -0.4050553 0.11370333 -0.07677278 -0.25202373 -0.0530976
0.11241469 0.23969528 0.13293873 -0.15153037 0.09357387 0.07961453 -0.1684865 0.032084856
-0.050267927 -0.12841643 0.16195181 0.124770015 0.048331305 0.15498531 0.18810844 -0.06966843
0.18705463 -0.14114428 0.028040064 0.09065985 0.07799471 0.064547986 -0.021316199 -0.069857016
-0.15239128 -0.056297924 0.09673272 0.14211717 -0.22157876 -0.07526386 -0.0981925 0.0155939255
0.18903953 -0.1829607 0.046741832 0.14468187 -0.11703601 -0.28771803 -0.08816536 -0.056397438
-0.120302595 0.11225651 -0.117322944 -0.16426723 -0.064015396 -0.021085322 -0.12775268 -0.051707916
0.13376205 0.112314336 -0.027860126 -0.07706209 0.13615099 0.084789716 -0.11328819 -0.16183093
0.16491157 0.15751956 0.40320647 -0.13002154 -0.1507101 -0.12820648 -0.041750487 0.08218216
-0.26447463 -0.07096225 0.00016998235 -0.014640785 -0.1291998 0.12082489 0.10817173 -0.007878554
-0.0015470869 0.1016728 0.088158086 0.12639327 0.17324118 0.0784758 0.15398093 -0.04249653
-0.1370529 -0.06989731 -0.45531312 -0.03438547 0.057398543 -0.31434363 0.01396744 0.15603904
-0.24925102 -0.097972706 0.06665098 -0.20903519 -0.009179405 -0.1790739 -0.06364868 0.1634522
-0.18031542 0.2962192 -0.082378946 0.044648193 0.26608074 -0.15475649 -0.0034593097 -0.029340638
0.03311922 -0.04740422 -0.1359955 -0.009488752 0.1468318 -0.2710352 -0.14789553 0.15239133
0.24098493 0.11603489 0.053901803 -0.2865158 0.08230408 -0.17931823 -0.10769252 -0.012467399
00000000: 85f3 cfbd 9203 8bbe 60ba a1bd 645f ab3c
00000010: 67ee 07bf 6eee cdbd 8ffe 423e 8017 97be
00000020: db6c edbd d1fa bebd 8c39 f63e 8b71 38be
00000030: 0ab9 eabd 314b 9a3e 2e51 f5bd e142 af3d
00000040: f90f 8fbd 97d6 573d c4ef eebd 31dc b73e
00000050: d2b9 8cbd 6328 983d d905 cabd ec59 24be
00000060: a12f 333e 2bcd 1dbe 1caa 40be 4c12 40be
00000070: bca2 92be 510c 7c3d 952f 763d 39dd d3bd
00000080: 8550 64bd 54ec 6cbd 3129 8ebe 4f28 29be
00000090: 3bb7 8c3d 61f2 1dbe 783d 1a3e 796b d63d
000000a0: 4710 9dbe 67e3 29bd d89b 933c ec25 adbe
000000b0: d4e0 05be afd5 443e 8bdb e9bd dc50 0e3e
000000c0: 4cf7 fd3d 43b2 2ebd 1a2c 143e 4c8c fd3d
000000d0: 18d3 55bd 2773 29be b8f3 94bd eb1b a3be
000000e0: 8e67 48be 1f3d 08be 6446 35be 5890 0bbe
000000f0: 65cb 0c3d 1ea6 a53d 749e 453e d859 0c3e
00000100: a672 44be e89f 223d f77d 2dbe 6963 cfbe
00000110: 4bdd e83d 0c3b 9dbd 4109 81be de7c 59bd
00000120: ac39 e63d ae72 753e 1721 083e c72a 1bbe
00000130: a8a3 bf3d f10c a33d ba87 2cbe 696b 033d
00000140: bee5 4dbd 997f 03be b2d6 253e 6c87 ff3d
00000150: 0cf7 453d 78b4 1e3e 809f 403e 52ae 8ebd
00000160: 408b 3f3e 2088 10be 47b4 e53c dfab b93d
00000170: b1bb 9f3d bc31 843d 4f9f aebc 3211 8fbd
00000180: 760c 1cbe a798 66bd ce1b c63d 2a87 113e
00000190: 8be5 62be f023 9abd 2619 c9bd aa7d 7f3c
000001a0: 9493 413e 0d5a 3bbe 5d74 3f3d 7c27 143e
000001b0: 93b0 efbd c74f 93be 0a90 b4bd 0001 67bd
000001c0: 3561 f6bd bee6 e53d 0347 f0bd ab35 28be
000001d0: 811a 83bd 20bb acbc 99d1 02be aecb 53bd
000001e0: ebf8 083e 0f05 e63d eb3a e4bc bbd2 9dbd
000001f0: 2a6b 0b3e 3ba6 ad3d a303 e8bd 02b7 25be
00000200: 94de 283e cf4c 213e 1471 ce3e 5e24 05be
00000210: c053 1abe 8f48 03be 8f02 2bbd 1f4f a83d
00000220: 3869 87be a854 91bd 4a3d 3239 e7df 6fbc
00000230: f44c 04be 0a73 f73d 2489 dd3d 0d15 01bc
00000240: 9fc7 caba d439 d03d 3a8c b43d 3d6d 013e
00000250: 2366 313e ecb7 a03d 2dad 1d3e d710 2ebd
00000260: 9857 0cbe 5226 8fbd cd1e e9be c7d7 0cbd
00000270: bc1a 6b3d a6f1 a0be b1d7 643c b3c8 1f3e
00000280: a93b 7fbe eaa5 c8bd 4f80 883d 520d 56be
00000290: 3765 16bc 265f 37be 3d5a 82bd 0360 273e
000002a0: 9ba4 38be 0baa 973e 4bb6 a8bd 06e1 363d
000002b0: bc3b 883e 7c78 1ebe 96b5 62bb c75b f0bc
000002c0: 05a8 073d ed2a 42bd 6842 0bbe b676 1bbc
000002d0: 135b 163e 20c5 8abe ed71 17be 790c 1c3e
000002e0: c1c4 763e b3a3 ed3d 23c8 5c3d 33b2 92be
000002f0: 0b8f a83d 339f 37be e58d dcbd 1044 4cbc

layer4.bn2.weight f4 [8]
1.2611619 1.0010337 0.8846019 0.7659521 1.0903485 0.920096 1.1244376 1.1260744
00000000: c16d a13f df21 803f 4575 623f 7015 443f
00000010: 8a90 8b3f 698b 6b3f 92ed 8f3f 3523 903f

layer4.bn2.bias f4 [8]
-0.21718456 0.016714223 0.3242326 -0.19494553 0.13660888 -0.1108765 0.07084502 0.2044677
00000000: a165 5ebe 44ec 883c d101 a63e cd9f 47be
00000010: 33e3 0b3e 3813 e3bd 3217 913d fb5f 513e

layer4.bn2.running_mean f4 [8]
-0.30023703 -0.6053589 -0.42533794 0.33662212 -0.33231544 0.099830694 -0.20011577 0.13587391
00000000: abb8 99be cdf8 1abf e5c5 d9be bc59 ac3e
00000010: 4025 aabe 0974 cc3d 26eb 4cbe 8822 0b3e

layer4.bn2.running_var f4 [8]
0.5169054 0.2625288 0.106582575 0.07930045 0.1500924 0.14539567 0.38857675 0.14538434
00000000: ea53 043f 2d6a 863e f747 da3d 4668 a23d
00000010: d2b1 193e 9ae2 143e 88f3 c63e a2df 143e

layer4.fc1.weight f4 [2, 8]
0.2552794 0.18572953 -0.16696551 -0.30335617 0.13344671 -0.21090461 -0.22448127 0.27349445
0.019801583 0.08638239 0.2707427 -0.13208514 -0.24710175 0.1307917 -0.13667114 -0.05898756
00000000: fbb3 823e e22f 3e3e 02f9 2abe 8051 9bbe
00000010: 41a6 083e 61f7 57be 6bde 65be 7707 8c3e
00000020: ee36 a23c 40e9 b03d ca9e 8a3e 5441 07be
00000030: 3e08 7dbe 42ee 053e 85f3 0bbe f19c 71bd

layer4.fc1.bias f4 [2]
-0.3281374 -0.26779088
00000000: a001 a8be e31b 89be

layer4.fc2.weight f4 [8, 2]
-0.33320194 0.10646588 0.13642356 -0.35419768 0.04532922 0.41430444 0.0074738967 -0.63664687
-0.09728046 -0.225698 -0.034163192 0.6281614 0.58754027 0.4407784 0.1905556 -0.47242683
00000000: 7299 aabe c90a da3d 9eb2 0b3e 6659 b5be
00000010: 22ab 393d b61f d43e 97e7 f43b 4afb 22bf
00000020: fa3a c7bd 601d 67be b4ee 0bbd 2fcf 203f
00000030: 0a69 163f b5ad e13e 0221 433e eee1 f1be

layer4.fc2.bias f4 [8]
0.91303927 -0.3839842 0.10101885 -0.45036536 0.26206473 0.49166048 0.07551187 0.594307
00000000: f1bc 693f 9499 c4be f9e2 ce3d 4a96 e6be
00000010: 592d 863e ecba fb3e f8a5 9a3d 8124 183f

layer5.conv1.weight f4 [16, 8, 1, 3]
-0.1361204 0.029020568 -0.18557411 0.030172633 0.1150019 -0.073637545 -0.17844628 -0.22846842
-0.067715004 -0.004189012 -0.18607625 0.1325539 -0.008979518 0.0131522855 0.13579799 -0.13734469
-0.1651996 -0.16600452 -0.11568541 0.24154618 -0.15194313 0.11181744 -0.1774005 -0.13685708
0.06554412 -0.22040197 -0.052379955 0.00962379 -0.2580155 -0.07128063 0.11125309 0.39593342
0.10224218 -0.051368408 -0.013017994 0.13262774 -0.09570541 -0.0913829 -0.19285494 -0.09430346
0.06555373 0.16134082 -0.1521563 -0.020877067 0.07383254 0.0875937 -0.22406118 -0.08852728
0.17793447 0.24043925 -0.1797168 0.075587675 -0.09645945 0.15626006 -0.0069547542 0.05233755
0.19139874 0.17891684 0.23557268 -0.01845631 0.006872994 -0.2237082 0.07422402 -0.033710938
-0.027759178 0.0936851 0.15703952 0.21835901 -0.08342978 -0.06971994 0.033526525 -0.18975033
0.10161954 0.057168346 -0.051485762 0.030703437 0.101268046 -0.13929777 0.048073962 -0.19358118
-0.027392004 -0.07507552 0.22995678 0.10586332 0.08550612 -0.41735917 0.15100837 0.09812213
0.032763857 0.17142563 -0.041685697 0.33533466 -0.14718635 -0.08003426 0.20922174 -0.11138615
-0.17338742 0.32076725 0.05394999 0.07573723 -0.08499336 -0.13057792 0.13838297 0.20384982
0.1766571 -0.15727489 0.05524181 0.13434921 0.12866357 -0.07667515 -0.18321098 0.026089353
0.07940897 -0.028371619 -0.05243016 -0.05391821 -0.08979418 0.04346226 -0.26195753 0.18898235
0.049336735 0.4285446 -0.16317184 -0.015129058 -0.1919122 -0.01695097 0.17206025 0.115954824
0.047663696 0.124535725 -0.053147115 -0.10684911 0.0065615242 -0.06870073 0.12498051 -0.02932227
0.18526572 0.1728199 -0.19512959 -0.04341626 -0.048640523 0.13290577 -0.0015934767 -0.13449132
-0.19033802 0.22767286 -0.050148316 -0.094965555 -0.3267854 0.11129077 -0.086616404 0.37080845
0.10193539 -0.030802898 -0.37111232 0.086056195 0.16829021 -0.24703425 -0.025878256 -0.05931718
0.18295504 -0.096143484 -0.1948951 -0.097134404 0.054759435 0.09541798 -0.12505387 -0.037997257
0.10824307 0.25293994 -0.006271705 -0.036395416 0.32673088 0.018799344 0.12771551 -0.012199321
0.12533204 -0.14084937 0.06332553 0.19064231 -0.0077585666 -0.3176693 0.1734768 0.108827926
0.20667185 -0.13804473 0.00033649374 -0.073715694 0.034861382 -0.033735335 0.042850476 -0.08010165
-0.00083507947 -0.20320927 -0.13107777 0.13710353 -0.05044308 0.07398934 -0.12222121 -0.10754333
0.1851666 -0.18640292 -0.11572223 -0.08062236 -0.023182174 0.046287782 0.08605807 0.1466361
-0.17108096 0.15209347 -0.16655868 0.078384325 0.17177668 -0.12067559 -0.12818857 0.07114273
-0.11009215 0.10542019 -0.07406919 -0.116234355 -0.2297469 -0.04661506 -0.10270486 0.1225949
0.1605252 -0.026622143 0.040793132 0.12396862 -0.1174085 0.09413003 -0.06267267 0.13995971
0.22954723 0.11564298 0.0007753326 0.15360267 -0.11349277 -0.15072413 0.2441881 0.0127561465
-0.06408313 -0.24554974 0.11588765 -0.062203582 -0.04246525 0.17845227 -0.07794602 -0.095399365
0.070136175 0.16217981 0.089658804 0.058625553 0.17153142 -0.14339003 -0.09270815 -0.18841746
00000000: 2563 0bbe 8bbc ed3c 2407 3ebe 992c f73c
00000010: 1e86 eb3d 48cf 96bd 9fba 36be a0f3 69be
00000020: 2aae 8abd fb43 89bb c68a 3ebe 36bc 073e
00000030: d41e 13bc af7c 573c a10e 0b3e 16a4 0cbe
00000040: 152a 29be 17fd 29be 79ec ecbd e257 773e
00000050: fb96 1bbe 8b00 e53d 7aa8 35be 4324 0cbe
00000060: ff3b 863d 0eb1 61be 5d8c 56bd 1aad 1d3c
00000070: 9c1a 84be 94fb 91bd a9d8 e33d c9b7 ca3e
00000080: 5964 d13d ae67 52bd 6d49 55bc 91cf 073e
00000090: 3301 c4bd f526 bbbd c47b 45be 2c22 c1bd
000000a0: 0941 863d 8736 253e dcce 1bbe 6206 abbc
000000b0: 8435 973d 5364 b33d 4b70 65be ca4d b5bd
000000c0: 7434 363e b535 763e ae07 38be b6cd 9a3d
000000d0: 888c c5bd a302 203e b5e4 e3bb e65f 563d
000000e0: 08fe 433e fa35 373e f739 713e b031 97bc
000000f0: da36 e13b c313 65be c302 983d 7b14 0abd
00000100: 3767 e3bc f9dd bf3d f8ce 203e 8199 5f3e
00000110: 3cdd aabd 54c9 8ebd 1c53 093d e94d 42be
00000120: e81d d03d 5b29 6a3d bce2 52bd c685 fb3c
00000130: 9f65 cf3d 13a4 0ebe 34e9 443d 253a 46be
00000140: 3265 e0bc 32c1 99bd ca79 6b3e dece d83d
00000150: d51d af3d 1ab0 d5be f0a1 1a3e 41f4 c83d
00000160: 6533 063d 338a 2f3e 9fbe 2abd fcb0 ab3e
00000170: 05b8 16be 01e9 a3bd 393e 563e 6c1e e4bd
00000180: 798c 31be 9b3b a43e aafa 5c3d 1f1c 9b3d
00000190: 0011 aebd 38b6 05be 44b4 0d3e 02be 503e
000001a0: 99e5 343e ab0c 21be 3c45 623d d792 093e
000001b0: 62c0 033e dc07 9dbd a99b 3bbe 57b9 d53c
000001c0: 2ca1 a23d 996b e8bc 02c1 56bd 57d9 5cbd
000001d0: 03e6 b7bd 7c05 323d 4c1f 86be 9784 413e
000001e0: 5115 4a3d 336a db3e 8516 27be dedf 77bc
000001f0: a284 44be c3dc 8abc 9030 303e b979 ed3d
00000200: 023b 433d 960c ff3d cab0 59bd b5d3 dabd
00000210: 0e02 d73b f8b2 8cbd c8f5 ff3d 4235 f0bc
00000220: 4cb6 3d3e b3f7 303e 0dd0 47be 40d5 31bd
00000230: 493b 47bd 7318 083e 35dc d0ba 18b8 09be
00000240: f8e7 42be 1323 693e 5268 4dbd 4d7d c2bd
00000250: 6a50 a7be 6aec e33d f163 b1bd 9bda bd3e
00000260: 80c3 d03d 5c56 fcbc 6f02 bebe 3b3e b03d
00000270: 4554 2c3e 8cf6 7cbe a3fe d3bc 92f6 72bd
00000280: 9158 3b3e e0e6 c4bd 9592 47be 67ee c6bd
00000290: 6e4b 603d 806a c33d 1f0e 00be 03a3 1bbd
000002a0: 8bae dd3d 5881 813e e082 cdbb 5c13 15bd
000002b0: 4549 a73e 1501 9a3c dbc7 023e a9df 47bc
000002c0: 0b57 003e d13a 10be d1b0 813d bd37 433e
000002d0: 933b febb 8da5 a2be e7a3 313e 2de1 de3d
000002e0: c9a1 533e 995b 0dbe 6d6b b039 41f8 96bd
000002f0: cfca 0e3d 102e 0abd fb83 2f3d 550c a4bd
00000300: 3ce9 5aba 1716 50be 4039 06be de64 0c3e
00000310: 679d 4ebd b987 973d 1d4f fabd ad3f dcbd
00000320: 509c 3d3e 68e0 3ebe c7ff ecbd 561d a5bd
00000330: 8be8 bdbc 4298 3d3d 373f b03d c627 163e
00000340: d92f 2fbe 64be 1b3e 5c8e 2abe f687 a03d
00000350: 3ae6 2f3e c424 f7bd dd43 03be 48b3 913d
00000360: fe77 e1bd 8ae6 d73d 96b1 97bd 470c eebd
00000370: c542 6bbe 6fef 3ebd ed56 d2bd 0913 fb3d
00000380: b860 243e ae16 dabc b316 273d 43e3 fd3d
00000390: de73 f0bd 3fc7 c03d 875a 80bd 9951 0f3e
000003a0: 6e0e 6b3e 3ad6 ec3d b13f 4b3a 054a 1d3e
000003b0: e66e e8bd 6d57 1abe 720c 7a3e 28ff 503c
000003c0: 043e 83bd 6471 7bbe 8156 ed3d 2fc9 7ebd
000003d0: 0bf0 2dbd 31bc 363e 2aa2 9fbd be60 c3bd
000003e0: 8ea3 8f3d 7712 263e 099f b73d 5921 703d
000003f0: efa5 2f3e d6d4 12be c5dd bdbd 82f0 40be

layer5.bn1.weight f4 [16]
0.93571085 0.9630362 0.922108 0.99056447 0.9311966 0.9236714 1.099021 0.9893203
0.9802464 0.8887387 1.0028734 0.886633 0.88863575 0.9055103 1.0352297 1.0203836
00000000: bf8a 6f3f 8a89 763f 450f 6c3f a295 7d3f
00000010: e662 6e3f bb75 6c3f b8ac 8c3f 1844 7d3f
00000020: 6ef1 7a3f 6184 633f 285e 803f 61fa 623f
00000030: a27d 633f 86cf 673f 6882 843f ee9b 823f

layer5.bn1.bias f4 [16]
-0.03711915 -0.12903455 -0.13847917 -0.01784538 0.08353565 0.15987518 0.13513796 -0.05530297
0.031712294 -0.04148915 0.14633626 -0.053731024 -0.04866287 -0.0077999188 -0.09626933 0.06838497
00000000: 400a 18bd a221 04be 7ccd 0dbe 7930 92bc
00000010: bd14 ab3d 52b6 233e 9b61 0a3e 5e85 62bd
00000020: c0e4 013d 87f0 29bd 2cd9 153e 1015 5cbd
00000030: b852 47bd 7696 ffbb db28 c5bd 6b0d 8c3d

layer5.bn1.running_mean f4 [16]
-0.045259647 -0.12541735 0.29990757 0.2422655 0.09114843 0.1815016 -0.0635767 0.19670856
-0.27906188 0.42398283 -0.17632172 -0.1668997 0.12371755 0.07293768 0.22867659 0.12302589
00000000: 2e62 39bd 686d 00be 7c8d 993e 7214 783e
00000010: 07ac ba3d 8edb 393e 8034 82bd f86d 493e
00000020: 33e1 8ebe 4714 d93e ae8d 34be c1e7 2abe
00000030: a05f fd3d 5a60 953d 322a 6a3e fff4 fb3d

layer5.bn1.running_var f4 [16]
0.220092 0.119307145 0.26895607 0.20555365 0.35969242 0.45230815 0.3188967 0.14708115
0.21861003 0.12393616 0.2453109 0.091341 0.3728702 0.17139626 0.23852898 0.21183899
00000000: cc5f 613e 4e57 f43d 9cb4 893e a87c 523e
00000010: 9b29 b83e ef94 e73e 6e46 a33e 719c 163e
00000020: 4fdb 5f3e 3ed2 fd3d c832 7b3e fd10 bb3d
00000030: d8e8 be3e 8082 2f3e f140 743e 52ec 583e

layer5.conv2.weight f4 [16, 16, 1, 3]
0.05919072 0.06509869 0.031436905 -0.13580301 -0.014544056 -0.005479826 -0.06601734 0.03348827
0.12028058 0.06515114 -0.19951148 0.06618037 0.083364464 0.11308251 0.10187727 -0.0792668
0.16153364 0.03300057 -0.08974078 0.075729854 0.034752462 -0.1109877 0.015159511 -0.13870043
-0.020213306 0.06359298 -0.091299355 0.016930426 0.20110297 -0.10300859 -0.022026073 -0.17641464
0.063877575 -0.027474687 0.0052448176 0.07155169 0.11535605 0.022961551 -0.03110972 0.09160888
0.22523558 0.13538367 -0.1193511 0.06269994 0.088790156 0.10776833 0.053713247 -0.032310106
-0.10286235 -0.121525936 0.08547613 -0.009798388 -0.18158105 0.09021393 0.09153087 -0.11941765
0.029560111 -0.076600745 -0.111964725 0.0072601014 0.041555565 -0.27823177 -0.010553228 -0.10567421
-0.16730256 -0.1280992 -0.13828512 -0.22651562 0.07733397 0.043419983 -0.35984135 -0.06161179
0.12079312 0.06082203 -0.11507422 -0.0522713 -0.047403324 0.011803374 -0.07021073 0.10465652
-0.118098296 0.11425142 0.094856635 -0.0791388 0.13337085 0.078676686 -0.014545082 -0.014974745
0.24413691 -0.034327317 0.11013332 -0.26381284 -0.079962164 -0.12654042 -0.10542221 -0.009169048
-0.05749155 -0.05792412 0.010641119 -0.037595816 -0.08815531 -0.029414358 0.0015865066 -0.16166025
0.1152617 0.0605681 -0.19947413 -0.030063376 0.0643337 -0.12201984 -0.13191728 0.112541415
-0.04761608 -0.1108563 0.058831938 -0.35931548 0.11833663 0.019971332 -0.034478564 -0.1045038
-0.114377394 0.14839628 -0.07334805 0.13229164 -0.0555882 -0.014025737 -0.04129101 0.055562295
0.11446266 0.078337476 -0.0150513705 0.0595627 0.06480252 -0.05495175 -0.10251393 -0.12730311
-0.0559025 -0.089455105 -0.07109929 -0.31304628 0.03384396 0.021579867 -0.079697706 0.036193457
-0.1380881 -0.08683809 -0.07799585 0.0071664755 0.081048325 -0.09881864 -0.010526749 0.044945464
-0.13499522 0.07338671 0.11520469 -0.06664804 -0.037544943 0.049808282 0.079133056 0.00055209245
0.17973615 -0.11252232 0.11212072 0.41908807 -0.09257727 0.05763601 0.08368372 0.029546754
-0.12170412 -0.0079891775 -0.007307826 -0.13177267 0.010308593 -0.11131204 0.029268619 -0.03611377
-0.02230107 -0.048277315 0.15619762 0.06954855 -0.061317693 0.006433643 -0.1134047 0.11095727
0.053325776 -0.055725154 0.01771071 0.031782825 0.09586605 -0.017627612 -0.08324691 0.014591342
-0.021005582 0.016604377 -0.08576868 0.057875026 0.13322534 0.006411258 -0.05474696 -0.06922354
0.11456235 -0.10747541 -0.015714405 -0.12757346 -0.12474787 0.116906814 -0.025273718 0.090965405
0.09982493 -0.033378966 0.11278842 0.12900972 -0.047594637 -0.13824667 -0.011869249 -0.049166203
0.020742806 -0.028305354 -0.007606175 -0.013268447 -0.082198694 0.13133913 -0.10392923 0.1319562
-0.049424183 -0.106675796 -0.027039975 0.12289017 0.067079514 0.10185572 0.13128763 -0.09435319
0.0068113995 -0.113931336 0.071008205 0.124556355 0.0781181 0.094682544 0.16330539 -0.043908294
0.0717641 0.14624223 0.02547998 0.124413334 0.03772684 0.064819366 0.049067944 -0.13550569
-0.06006454 0.06451406 -0.27650326 0.058786243 0.10679223 -0.06730777 0.065080084 0.08566756
00000000: f871 723d 7652 853d fcc3 003d f20f 0bbe
00000010: 314a 6ebc 1d90 b3bb 1934 87bd ff2a 093d
00000020: aa55 f63d f66d 853d bd4c 4cbe 9389 873d
00000030: fdba aa3d ce97 e73d 08a5 d03d a256 a2bd
00000040: 1369 253e 9b2b 073d 04ca b7bd 4118 9b3d
00000050: 9958 0e3d 854d e3bd 995f 783c 7c07 0ebe
00000060: 6096 a5bc 093d 823d 28fb babd adb1 8a3c
00000070: f0ed 4d3e 2bf6 d2bd 0670 b4bc 0aa6 34be
00000080: 3fd2 823d 9812 e1bc b8dc ab3b b189 923d
00000090: cb3f ec3d dd19 bc3c d0d9 febc 709d bb3d
000000a0: 28a4 663e 04a2 0a3e 596e f4bd d368 803d
000000b0: 9dd7 b53d a4b5 dc3d 6c02 5c3d 9a57 04bd
000000c0: 7fa9 d2bd 97e2 f8bd 1c0e af3d 6b89 20bc
000000d0: 62f0 39be 15c2 b83d 8974 bb3d 3e91 f4bd
000000e0: 0c28 f23c dae0 9cbd c34d e5bd 25e6 ed3b
000000f0: 2b36 2a3d 6574 8ebe 72e7 2cbc b86b d8bd
00000100: 5d51 2bbe 702c 03be 9d9a 0dbe b6f3 67be
00000110: 4661 9e3d 27d9 313d 203d b8be a55c 7cbd
00000120: 6262 f73d 8520 793d 08ac ebbd 6e1a 56bd
00000130: fd29 42bd f062 413c a5ca 8fbd 2856 d63d
00000140: 85dd f1bd a6fc e93d 3244 c23d 8613 a2bd
00000150: 5e92 083e 3e21 a13d 7f4e 6ebc a258 75bc
00000160: 07ff 793e cd9a 0cbd 948d e13d 7a12 87be
00000170: 34c3 a3bd d093 01be 9ae7 d7bd c639 16bc
00000180: 427c 6bbd d841 6dbd 1758 2e3c 12fe 19bd
00000190: c58a b4bd 61f6 f0bc 54f2 cf3a 448a 25be
000001a0: 530e ec3d 4216 783d f242 4cbe 7847 f6bc
000001b0: 63c1 833d 8ae5 f9bd 5315 07be 1d7c e63d
000001c0: 1409 43bd a108 e3bd c2f9 703d 33f8 b7be
000001d0: 7a5a f23d eb9a a33c 6539 0dbd 1706 d6bd
000001e0: b23e eabd 32f5 173e 8137 96bd 7677 073e
000001f0: 74b0 63bd 34cc 65bc c320 29bd 4a95 633d
00000200: 666b ea3d 666f a03d 069a 76bc 05f8 733d
00000210: 2fb7 843d 1615 61bd d3f2 d1bd bf5b 02be
00000220: 05fa 64bd 3d34 b7bd 819c 91bd 9a47 a0be
00000230: f79f 0a3d 43c8 b03c 8d38 a3bd 973f 143d
00000240: f866 0dbe 2bd8 b1bd 4abc 9fbd c1d4 ea3b
00000250: aafc a53d 6d61 cabd 6378 2cbc bc18 383d
00000260: 303c 0abe c54b 963d 70f0 eb3d c57e 88bd
00000270: bac8 19bd c503 4c3d 8310 a23d 4cba 103a
00000280: c10c 383e 1a72 e6bd 8c9f e53d b692 d63e
00000290: 2799 bdbd bd13 6c3d 5f62 ab3d 090c f23c
000002a0: 0240 f9bd 0ae5 02bc 7d76 efbb 6aef 06be
000002b0: 5fe5 283c 91f7 e3bd bec4 ef3c 08ec 13bd
000002c0: bcb0 b6bc 6fbe 45bd 45f2 1f3e 786f 8e3d
000002d0: 4328 7bbd 4fd1 d23b b940 e8bd 913d e33d
000002e0: 216c 5a3d 0f40 64bd 0d16 913c b52e 023d
000002f0: 6b55 c43d c867 90bc 5b7d aabd 8610 6f3c
00000300: e613 acbc e705 883c 7da7 afbd 5d0e 6d3d
00000310: 396c 083e 8815 d23b 593e 60bd 12c5 8dbd
00000320: aa9f ea3d 111c dcbd 7fbb 80bc 9ea2 02be
00000330: d07b ffbd d76c ef3d d40a cfbc 124c ba3d
00000340: 0371 cc3d 62b8 08bd 9dfd e63d 201b 043e
00000350: 98f2 42bd 8990 0dbe 3d77 42bc 8062 49bd
00000360: d1ec a93c a1e0 e7bc 383d f9bb e663 59bc
00000370: ca57 a8bd c47d 063e d9d8 d4bd 871f 073e
00000380: 0371 4abd d778 dabd f082 ddbc d7ad fb3d
00000390: fc60 893d bb99 d03d 4470 063e 3f3c c1bd
000003a0: 2932 df3b d554 e9bd c06c 913d 6717 ff3d
000003b0: 62fc 9f3d ece8 c13d 8739 273e 2fd9 33bd
000003c0: 0ef9 923d 86c0 153e 64bb d03c 6bcc fe3d
000003d0: 7587 1a3d 04c0 843d 78fb 483d 01c2 0abe
000003e0: 3c06 76bd f31f 843d d691 8dbe d8c9 703d
000003f0: e2b5 da3d a8d8 89bd b548 853d 7972 af3d

layer5.bn2.weight f4 [16]
0.8167195 1.0661032 1.1226771 0.7695697 0.923752 0.99552286 0.9051508 1.0394411
1.1350601 0.98648435 0.8830217 1.0243224 1.1336279 1.0138215 1.237023 0.8246604
00000000: 8714 513f 1276 883f e2b3 8f3f 8502 453f
00000010: 037b 6c3f 96da 7e3f f6b7 673f 680c 853f
00000020: a649 913f 3d8a 7c3f b60d 623f ff1c 833f
00000030: b81a 913f e7c4 813f c556 9e3f f21c 533f

layer5.bn2.bias f4 [16]
-0.14267056 0.021034934 0.23866624 0.015284782 -0.04120737 -0.2302382 -0.37082133 -0.2472062
-0.07122184 0.19262062 -0.0012562117 -0.079099715 -0.59377 -0.04486747 -0.29855368 0.22452313
00000000: 3b18 12be 7451 ac3c ec64 743e 066d 7a3c
00000010: 0fc9 28bd 90c3 6bbe 4bdc bdbe 9f23 7dbe
00000020: c2dc 91bd 573e 453e 78a7 a4ba 08ff a1bd
00000030: 5001 18bf f4c6 37bd 07dc 98be 64e9 653e

layer5.bn2.running_mean f4 [16]
0.1808161 -0.3937682 -0.45907155 0.33944163 0.29304555 -0.2915272 0.0025973362 -0.15569292
-0.123348966 -0.42971924 -0.14236198 0.15736784 -0.39489248 -0.44764283 0.29086682 0.1961338
00000000: db27 393e fc9b c9be 6d0b ebbe 4bcb ad3e
00000010: 110a 963e 0e43 95be 1238 2a3b f76d 1fbe
00000020: 629e fcbd 2904 dcbe 57c7 11be 0925 213e
00000030: 592f cabe 7131 e5be 7fec 943e 4dd7 483e

layer5.bn2.running_var f4 [16]
0.32971942 1.2543099 0.895046 0.586967 0.1394851 0.75029933 0.2417825 0.31445205
0.5221661 0.8821711 0.26569173 0.3857513 0.3160001 0.30795425 1.2883987 0.1977079
00000000: fcd0 a83e 3a8d a03f bc21 653f 7843 163f
00000010: 2fd5 0e3e 9e13 403f d595 773e dcff a03e
00000020: adac 053f f7d5 613f bf08 883e 3281 c53e
00000030: c4ca a13e 2eac 9d3e 40ea a43f f173 4a3e

layer5.fc1.weight f4 [4, 16]
0.18866238 -0.0998533 -0.18048525 -0.024832234 -0.20775418 0.049549133 -0.15798452 -0.23602897
-0.10612403 -0.020969316 0.1831653 0.08596691 -0.10337901 -0.1325362 0.07543556 -0.12724937
0.09911424 0.11820947 -0.19637653 -0.25844383 -0.20820405 0.17982166 -0.16990742 -0.028576566
-0.1137369 0.106183186 0.19881514 0.09185376 -0.18865499 -0.015472038 -0.27195987 0.04485029
0.094433606 -0.080734335 -0.15235429 -0.23908247 0.19146536 0.11153343 -0.07431788 -0.060801577
-0.083391026 -0.09367388 -0.096254334 0.05160968 0.0987154 0.08256535 -0.13522612 -0.047256414
-0.036012467 -0.004156071 -0.0004121546 0.09044934 0.06655365 -0.08524366 -0.20165811 -0.23832348
-0.025235537 0.13661581 0.049449556 -0.012161024 0.21958011 0.16317025 -0.10471332 -0.04838978
00000000: b630 413e e37f ccbd 20d1 38be f86c cbbc
00000010: 83bd 54be 08f4 4a3d b2c6 21be 94b1 71be
00000020: 8e57 d9bd d8c7 abbc af8f 3b3e 6b0f b03d
00000030: 60b8 d3bd 92b7 07be f57d 9a3d a94d 02be
00000040: 68fc ca3d ce17 f23d ee16 49be c052 84be
00000050: 7133 55be 2b23 383e 36fc 2dbe 6719 eabc
00000060: e4ee e8bd 9276 d93d 3296 4b3e d31d bc3d
00000070: c62e 41be 6e7e 7dbc 533e 8bbe f0b4 373d
00000080: 6866 c13d 0b58 a5bd c302 1cbe 09d2 74be
00000090: 7f0f 443e a46b e43d f933 98bd 130b 79bd
000000a0: eac8 aabd 17d8 bfbd fe20 c5bd ac64 533d
000000b0: 4d2b ca3d 0618 a93d b778 0abe f18f 41bd
000000c0: cf81 13bd a72f 88bb 7416 d8b9 813d b93d
000000d0: 484d 883d 3a94 aebd 777f 4ebe 120b 74be
000000e0: c2ba cebc 04e5 0b3e 9e8b 4a3d 083f 47bc
000000f0: 9cd9 603e 1a16 273e f073 d6bd 5d34 46bd

layer5.fc1.bias f4 [4]
-0.13165605 -0.013824221 0.0503312 -0.012676291
00000000: d8d0 06be fc7e 62bc 1728 4e3d 38b0 4fbc

layer5.fc2.weight f4 [16, 4]
0.3140885 0.10495039 0.25230852 -0.2967521 0.2531178 -0.40770537 -0.4370706 -0.14454044
-0.25630873 0.0012682411 -0.0662716 0.27092996 0.46440855 0.4674186 0.16531998 0.10926649
0.05258722 -0.28485113 0.10563703 0.13062876 0.020780614 0.19895238 0.14272198 0.30368716
0.26176065 0.16811314 0.21663676 -0.22654483 0.29990983 -0.022036297 -0.34674755 0.022295827
0.10387393 -0.049060743 -0.29034692 0.39666045 -0.0012815048 -0.08867413 -0.21172713 0.4809739
-0.16316314 0.08549263 -0.30457228 0.18789288 0.27706715 -0.47101378 0.14716086 -0.24761304
0.36305758 -0.16555713 0.22614019 0.07470968 -0.14732453 -0.3472468 0.30798212 -0.124963515
0.028434642 -0.15667443 0.3950271 0.05972514 -0.19599341 0.16875853 -0.29776257 -0.34455037
00000000: 35d0 a03e 3bf0 d63d 952e 813e e4ef 97be
00000010: a898 813e c2be d0be b8c7 dfbe 6902 14be
00000020: e63a 83be 1c3b a63a 68b9 87bd 55b7 8a3e
00000030: f5c6 ed3e 7e51 ef3e a449 293e 1cc7 df3d
00000040: b265 573d 02d8 91be 3a58 d83d 8cc3 053e
00000050: 1b3c aa3c 2cba 4b3e b625 123e e27c 9b3e
00000060: 7e05 863e da25 2c3e 07d6 5d3e 5efb 67be
00000070: c88d 993e 7785 b4bc e588 b1be bda5 b63c
00000080: dbbb d43d ebf3 48bd 5aa8 94be 1417 cb3e
00000090: 2af8 a7ba c89a b5bd ffce 58be 3642 f63e
000000a0: 3d14 27be c316 af3d e6f0 9bbe fe66 403e
000000b0: bfdb 8d3e b828 f1be 56b1 163e 468e 7dbe
000000c0: afe2 b93e cf87 29be 4b91 673e 6401 993d
000000d0: 3edc 16be 55ca b1be d5af 9d3e dfec ffbd
000000e0: c4ef e83c 436f 20be fe40 ca3e 59a2 743d
000000f0: 7fb2 48be 09cf 2c3e 5674 98be e868 b0be

layer5.fc2.bias f4 [16]
0.04659637 0.29834336 0.14469957 0.23057641 -0.4735283 -0.43206596 -0.0029672056 -0.15278648
-0.22892956 -0.07299214 0.5060938 -0.20546365 0.44055697 0.11720722 0.18689193 -0.3455711
00000000: d6db 3e3d 76c0 983e 202c 143e 391c 6c3e
00000010: 4d72 f2be c037 ddbe 7375 42bb 0f74 1cbe
00000020: 836c 6abe e77c 95bd 5d8f 013f 1065 52be
00000030: af90 e13e 570a f03d 9960 3f3e b2ee b0be
