das_new/models/20260106_142934/best_model.pth (torch, 98946 bytes, 176 tensors)

input_conv.weight f4 [4, 1, 1, 3]
0.23563947 0.16272521 0.48784453 -0.41151696 -0.4118047 -0.4176063 0.31926167 -0.10870545
-0.56996 0.073219284 0.4307672 0.3178851
00000000: 794b 713e 70a1 263e c2c6 f93e 5ab2 d2be
00000010: 11d8 d2be 7ed0 d5be 4476 a33e f7a0 debd
00000020: e6e8 11bf fef3 953d 858d dc3e d6c1 a23e

input_bn.weight f4 [4]
0.97692746 1.0550512 0.9784775 1.001456
00000000: eb17 7a3f eb0b 873f 807d 7a3f b62f 803f

input_bn.bias f4 [4]
-0.022692272 -0.2048231 0.0665551 0.04335199
00000000: 25e5 b9bc 26bd 51be 0a4e 883d db91 313d

input_bn.running_mean f4 [4]
0.0038508966 -0.009747115 -0.0025728347 0.010195964
00000000: 535f 7c3b 5db2 1fbc 019d 28bb f90c 273c

input_bn.running_var f4 [4]
0.44630593 0.5318786 0.4375364 0.54143596
00000000: 3682 e43e 3229 083f c504 e03e 8c9b 0a3f

layer1.conv1.weight f4 [4, 4, 1, 3]
0.04749679 -0.24273446 -0.2835734 0.15470189 -0.058706332 0.06996864 -0.13219829 -0.19248322
-0.20086096 -0.10852156 -0.3506433 0.17890342 0.027866814 -0.34233636 -0.16681884 -0.21072103
0.21473393 0.20122932 0.076627664 0.49937558 -0.13488945 0.23431693 0.0044496255 -0.032627236
-0.27503857 0.25073493 0.13879102 -0.1519037 -0.14510605 0.20976995 0.20235804 -0.40086076
-0.2535287 -0.04200029 0.62523687 -0.23784737 -0.064198226 -0.3131935 0.26069623 -0.13777894
0.6467502 -0.2745813 0.15662436 0.15737627 0.017684592 0.059123207 0.10754407 0.28789496
00000000: fe8b 423d 628f 78be 8830 91be 2c6a 1e3e
00000010: 0d76 70bd b84b 8f3d fd5e 07be 521a 45be
00000020: 7fae 4dbe 8d40 debd 8587 b3be 7532 373e
00000030: f248 e43c b646 afbe 8fd2 2abe 41c7 57be
00000040: 36e3 5b3e 0f0f 4e3e f7ee 9c3d 28ae ff3e
00000050: 7620 0abe c7f0 6f3e 2ace 913b 23a4 05bd
00000060: dbd1 8cbe 5460 803e 3c1f 0e3e a58c 1bbe
00000070: ae96 14be efcd 563e f236 4f3e 9f3d cdbe
00000080: 84ce 81be 7f08 2cbd 860f 203f 438e 73be
00000090: 5c7a 83bd e65a a0be fa79 853e ec15 0dbe
000000a0: 6c91 253f ec95 8cbe 2362 203e 3f27 213e
000000b0: 47df 903c 2d2b 723d 1140 dc3d f866 933e

layer1.bn1.weight f4 [4]
1.0047593 1.0521495 0.9660472 0.9772577
00000000: f49b 803f d6ac 863f df4e 773f 902d 7a3f

layer1.bn1.bias f4 [4]
-0.019189078 0.061163027 -0.05783507 0.021776214
00000000: 6a32 9dbc 1586 7a3d 77e4 6cbd 0864 b23c

layer1.bn1.running_mean f4 [4]
-0.18798727 0.06159914 0.0198831 0.06901159
00000000: bc7f 40be 614f 7c3d e2e1 a23c f355 8d3d

layer1.bn1.running_var f4 [4]
0.48891 0.4588382 0.5705669 0.45957473
00000000: 6952 fa3e d7ec ea3e ac10 123f 614d eb3e

layer1.conv2.weight f4 [4, 4, 1, 3]
-0.11706225 -0.18942486 -0.25786898 0.002237094 -0.10045508 -0.03768261 0.0771093 0.1915
0.26237917 -0.20097633 0.2702687 0.047605954 -0.17659059 0.16252346 0.22944482 -0.24770854
0.41100582 0.01654048 0.20181103 0.059518047 -0.17322135 0.17372936 0.084286734 0.07739747
-0.0321921 0.33171067 0.03292729 0.18757899 -0.14464594 -0.008153747 -0.20777479 0.09688865
-0.17062905 -0.0829534 -0.22588994 0.02329848 0.15810813 0.21986069 0.25590897 0.2709824
-0.3194796 -0.1181164 0.08581809 -0.17361137 -0.031453956 0.12799402 -0.26079062 0.23939195
00000000: 55be efbd 97f8 41be 6707 84be 369c 123b
00000010: 65bb cdbd 1559 1abd 7beb 9d3d 9318 443e
00000020: 9056 863e bdcc 4dbe a960 8a3e 76fe 423d
00000030: 2ad4 34be 8d6c 263e 95f3 6a3e 4fa7 7dbe
00000040: 5b6f d23e e77f 873c 8da7 4e3e 32c9 733d
00000050: f060 31be 1ce6 313e 869e ac3d 9182 9e3d
00000060: dddb 03bd fbd5 a93e c4de 063d b514 403e
00000070: 111e 14be 4b97 05bc eac2 54be 8e6d c63d
00000080: 62b9 2ebe 79e3 a9bd b14f 67be 74dc be3c
00000090: 19e7 213e 2923 613e 8006 833e 35be 8a3e
000000a0: d592 a3be 03e7 f1bd 65c1 af3d 2ec7 31be
000000b0: ddd5 00bd dd10 033e 5986 85be 2a23 753e

layer1.bn2.weight f4 [4]
0.9745893 1.00497 1.0469705 1.1128446
00000000: af7e 793f dba2 803f 2103 863f b171 8e3f

layer1.bn2.bias f4 [4]
-0.04122252 -0.04081315 -0.045363657 0.081525974
00000000: f2d8 28bd b12b 27bd 3ecf 39bd 17f7 a63d

layer1.bn2.running_mean f4 [4]
0.031755567 0.13835552 0.04361016 -0.1574719
00000000: 2012 023d 12ad 0d3e 91a0 323d 5040 21be

layer1.bn2.running_var f4 [4]
0.4509847 0.44776666 0.44947955 0.48278123
00000000: 77e7 e63e ac41 e53e 2f22 e63e 1a2f f73e

layer1.fc1.weight f4 [1, 4]
-0.10484825 -0.30954185 0.28689358 0.108863235
00000000: aeba d6bd 457c 9ebe b7e3 923e b0f3 de3d

layer1.fc2.weight f4 [4, 1]
0.13051742 0.85914284 -0.7494651 -0.8907758
00000000: 5ca6 053e c9f0 5b3f f2dc 3fbf e209 64bf

layer1.fc2.bias f4 [4]
0.03594603 0.563169 -0.33429193 0.28537875
00000000: 253c 133d d82b 103f 5028 abbe 2a1d 923e

layer1.shortcut.0.weight f4 [4, 4, 1, 1]
-0.50678265 0.083693594 0.12296892 0.1634198 0.30305853 -0.29396507 0.23377794 0.17807625
-0.18806374 -0.43597 0.41620982 -0.07911578 -0.18321407 -0.22459295 -0.23334895 -0.22525866
00000000: 82bc 01bf 8c67 ab3d 21d7 fb3d 8557 273e
00000010: 7d2a 9b3e 9782 96be 7c63 6f3e 9f59 363e
00000020: c893 40be 7637 dfbe 7419 d53e 7407 a2bd
00000030: 789c 3bbe b2fb 65be 07f3 6ebe 35aa 66be

layer1.shortcut.1.weight f4 [4]
0.9959607 0.94058925 0.9660854 1.0676284
00000000: 48f7 7e3f 75ca 703f 5f51 773f 0ca8 883f

layer1.shortcut.1.bias f4 [4]
-0.032459535 -0.10000867 -0.06829263 0.06480201
00000000: 4af4 04bd 58d1 ccbd 02dd 8bbd ebb6 843d

layer1.shortcut.1.running_mean f4 [4]
-0.036675885 0.07920331 -0.02204381 -0.13083756
00000000: 7439 16bd 5835 a23d 3895 b4bc 48fa 05be

layer1.shortcut.1.running_var f4 [4]
0.45354268 0.4978321 0.4517667 0.47689342
00000000: bf36 e83e d9e3 fe3e f74d e73e 602b f43e

layer2.conv1.weight f4 [4, 4, 1, 3]
0.03279735 -0.10200567 0.26446852 -0.253566 -0.25041464 -0.23715763 -0.036569245 -0.052225813
0.16596909 -0.2334762 0.4789168 -0.20638432 0.2837498 -0.020797784 -0.20939419 0.27760956
-0.14748473 -0.11075128 0.15470651 -0.37625992 0.036842722 -0.046037715 -0.27553302 0.27086076
-0.058339316 -0.033549722 -0.22066046 -0.12394366 0.24420199 -0.24267173 0.06501785 0.23227723
0.17639641 0.22318645 0.18545128 0.1411226 0.13838117 -0.16049927 -0.23505981 -0.17917135
-0.24123426 0.14922105 -0.104228914 -0.32028556 0.056772247 -0.06868346 -0.1447138 0.17656243
00000000: 8456 063d 59e8 d0bd 6b68 873e 67d3 81be
00000010: 5936 80be 73d9 72be a2c9 15bd bcea 55bd
00000020: cdf3 293e 6314 6fbe 9534 f53e 6956 53be
00000030: a747 913e 1d60 aabc 6e6b 56be d722 8e3e
00000040: 3d06 17be 91d1 e2bd 626b 1e3e 24a5 c0be
00000050: 65e8 163d 0b92 3cbd aa12 8dbe 43ae 8a3e
00000060: 35f5 6ebd 6f6b 09bd d1f4 61be 2cd6 fdbd
00000070: 1610 7a3e f07e 78be 1428 853d 15da 6d3e
00000080: 43a1 343e fd8a 643e f1e6 3d3e 7182 103e
00000090: cbb3 0d3e ec59 24be 85b3 70be b278 37be
000000a0: 1d06 77be 67cd 183e f875 d5bd 78fc a3be
000000b0: 048a 683d eaa9 8cbd db2f 14be c8cc 343e

layer2.bn1.weight f4 [4]
0.9997417 0.8999823 1.0902473 1.007635
00000000: 12ef 7f3f 3d65 663f 398d 8b3f 2ffa 803f

layer2.bn1.bias f4 [4]
-0.049593937 -0.028994676 0.059845563 0.012645286
00000000: 0323 4bbd 3e86 edbc 9f20 753d 2c2e 4f3c

layer2.bn1.running_mean f4 [4]
0.016396755 -0.17348006 0.15306455 -0.1805378
00000000: 7d52 863c c2a4 31be f4bc 1c3e e7de 38be

layer2.bn1.running_var f4 [4]
0.5017043 0.49029988 0.46090883 0.46008015
00000000: b16f 003f 9608 fb3e 3efc eb3e a08f eb3e

layer2.conv2.weight f4 [4, 4, 1, 3]
0.21602893 -0.038063865 -0.016206076 0.21139313 -0.29644898 0.14005457 -0.15509906 -0.31615534
-0.17023534 0.0041688313 -0.10254074 -0.28128147 -0.16816112 -0.10115913 0.076881774 0.15721425
-0.08433267 -0.0043416056 -0.0015967665 0.051280707 0.26944295 0.05870571 -0.13878027 -0.0060284394
-0.025881033 -0.08816709 0.26263854 -0.09377911 0.11655264 0.08651765 -0.06153397 0.46417755
0.08873228 0.09772046 0.039460164 -0.22387718 -0.24060231 0.353852 0.24458602 0.028525349
-0.32738873 -0.13987346 -0.13205066 0.44551238 -0.06617044 -0.14852881 -0.32353082 0.26925918
00000000: b036 5d3e dbe8 1bbd 9bc2 84bc 7177 583e
00000010: 29c8 97be 776a 0f3e 4ad2 1ebe 1ddf a1be
00000020: 2c52 2ebe b19a 883b e100 d2bd 2004 90be
00000030: 6e32 2cbe 852c cfbd 3174 9d3d c6fc 203e
00000040: 9bb6 acbd 0744 8ebb 984a d1ba b80b 523d
00000050: 6df4 893e 6675 703d 6a1c 0ebe 378a c5bb
00000060: 7604 d4bc f390 b4bd 8f78 863e 430f c0bd
00000070: 27b3 ee3d 2a30 b13d 0b0b 7cbd aea8 ed3e
00000080: 45b9 b53d aa21 c83d fba0 213d 0f40 65be
00000090: 7460 76be 172c b53e c274 7a3e fead e93c
000000a0: 7f9f a7be fd3a 0fbe 4a38 07be 331a e43e
000000b0: 5e84 87bd f017 18be d5a5 a5be 57dc 893e

layer2.bn2.weight f4 [4]
1.0265487 0.941638 0.96604514 0.9742922
00000000: f365 833f 300f 713f bc4e 773f 376b 793f

layer2.bn2.bias f4 [4]
0.051446985 -0.032699693 -0.0016036264 0.047358744
00000000: 13ba 523d 1df0 05bd c630 d2ba 3efb 413d

layer2.bn2.running_mean f4 [4]
-0.18156937 -0.030004127 0.1371989 0.08473309
00000000: 52ed 39be 37cb f5bc de7d 0c3e 8b88 ad3d

layer2.bn2.running_var f4 [4]
0.44343773 0.4357005 0.45397523 0.5195473
00000000: 450a e33e 2314 df3e 716f e83e 0d01 053f

layer2.fc1.weight f4 [1, 4]
0.17035238 -0.4002032 -0.20206586 0.4040591
00000000: db70 2e3e 6fe7 ccbe 5aea 4ebe d6e0 ce3e

layer2.fc2.weight f4 [4, 1]
0.23820616 0.52169913 -0.97747827 -0.30881009
00000000: 51ec 733e 138e 053f 043c 7abf 5b1c 9ebe

layer2.fc2.bias f4 [4]
-0.66468585 -0.44068393 -0.8762972 -0.03680821
00000000: da28 2abf 53a1 e1be 0355 60bf 35c4 16bd

layer3.conv1.weight f4 [8, 4, 1, 3]
-0.11483365 0.2096999 0.030059818 0.23733714 0.044172168 0.1016561 0.22587328 0.151879
-0.24929917 0.21676663 -0.3179042 0.16049068 0.04452635 0.28596398 -0.093558565 0.1198324
-0.15996031 0.020417782 0.009036834 -0.21702576 0.18608375 0.037351776 0.14892028 -0.19606146
0.15749964 0.011807917 -0.16279414 0.027485693 0.04372754 0.005068216 0.1731772 0.19256726
-0.07801476 0.050173134 0.27879405 -0.094044425 -0.22473423 0.08824591 0.04146063 -0.21697396
-0.04935484 0.0051132636 -0.066934615 -0.18635869 -0.079037346 0.22967526 -0.2203562 -0.08403766
0.08127106 0.046545617 0.15795459 0.010933206 -0.25907043 0.22189717 0.25781527 -0.032133915
0.240201 -0.26466593 0.22620933 -0.114984 0.015895953 -0.2101055 -0.23638505 -0.21311884
-0.21229683 0.1420203 -0.047628433 0.17843887 0.12769535 0.054321647 0.15472169 0.23894216
0.21333511 0.12042589 0.28073567 -0.15943292 0.23852699 -0.17901994 -0.14537475 0.011869285
-0.045118906 -0.28141603 -0.0027231593 0.0176472 0.061391525 0.034795105 0.23180215 0.15864182
0.23473471 0.06524428 -0.11009588 -0.25315326 0.18603717 0.07978717 -0.09262167 0.1662045
00000000: e82d ebbd 92bb 563e 0240 f63c 8208 733e
00000010: e0ed 343d 1331 d03d 534b 673e 2b86 1b3e
00000020: 4848 7fbe 12f8 5d3e 57c4 a2be ab57 243e
00000030: 4361 363d df69 923e a29b bfbd b06a f53d
00000040: a3cc 23be 3143 a73c 3b0f 143c 003c 5ebe
00000050: bd8c 3e3e 2dfe 183d 8f7e 183e 56c4 48be
00000060: 9647 213e fe75 413c 82b3 26be ad29 e13c
00000070: a61b 333d 4713 a63b 5d55 313e 5a30 453e
00000080: 34c6 9fbd 5882 4d3d 18be 8e3e 5d9a c0bd
00000090: bb20 66be 46ba b43d 9fd2 293d 6c2e 5ebe
000000a0: 4d28 4abd 2a8d a73b 0415 89bd d0d4 3ebe
000000b0: 55de a1bd fe2f 6b3e 0ea5 61be f01b acbd
000000c0: 7171 a63d 9ea6 3e3d d9be 213e 3121 333c
000000d0: e1a4 84be 0339 633e 5d00 843e da9e 03bd
000000e0: 40f7 753e 4b82 87be 6ba3 673e bb7c ebbd
000000f0: 3b38 823c e525 57be ec0e 72be d33b 5abe
00000100: 5764 59be c56d 113e 0816 43bd aeb8 363e
00000110: 92c2 023e 6080 5e3d 5d6f 1e3e 41ad 743e
00000120: 8574 5a3e d9a1 f63d 96bc 8f3e 6242 23be
00000130: 6b40 743e 0151 37be 1edd 14be 6477 423c
00000140: 9ace 38bd c315 90be 0877 32bb dc90 903c
00000150: ae75 7b3d 5085 0e3d 8b5d 6d3e 0073 223e
00000160: 4c5e 703e cb9e 853d f379 e1bd 4e9d 81be
00000170: 8780 3e3e 7567 a33d 6eb0 bdbd 8331 2a3e

layer3.bn1.weight f4 [8]
1.0241034 1.0057074 0.9660193 1.0396196 0.98396987 0.9842107 0.9906638 1.0030644
00000000: d215 833f 05bb 803f 0a4d 773f 4112 853f
00000010: 73e5 7b3f 3cf5 7b3f 259c 7d3f 6a64 803f

layer3.bn1.bias f4 [8]
0.016319448 -7.652373e-06 0.009159172 0.04912604 -0.018008197 -0.012917869 -0.009874169 -0.0006025368
00000000: 5db0 853c b162 00b7 5a10 163c 6338 493d
00000010: ed85 93bc 78a5 53bc 44c7 21bc 8ff3 1dba

layer3.bn1.running_mean f4 [8]
-0.010889558 0.018388197 0.20396787 -0.17122327 -0.0016011898 3.202081e-05 0.1084127 -0.021979488
00000000: 1e6a 32bc d8a2 963c f4dc 503e 2755 2fbe
00000010: 04df d1ba 154e 0638 7a07 de3d 540e b4bc

layer3.bn1.running_var f4 [8]
0.49284014 0.5441488 0.54212147 0.549319 0.50481695 0.5115476 0.47695398 0.4948693
00000000: 8b55 fc3e 564d 0b3f 79c8 0a3f 2ca0 0c3f
00000010: af3b 013f c9f4 023f 5033 f43e 825f fd3e

layer3.conv2.weight f4 [8, 8, 1, 3]
0.08106401 0.06021194 -0.16665691 -0.035342935 0.19951196 0.17179169 -0.095888905 0.05263024
0.16304012 -0.13402401 -0.17648637 0.20338112 0.015799673 0.07355258 0.044282924 0.1230635
0.15452875 -0.17208704 -0.12777197 -0.0021767707 -0.14898482 -0.15732297 -0.07434407 -0.019395305
-0.16846444 -0.039637625 0.0075858333 0.14988622 0.124088444 0.030757256 -0.11630072 0.20719856
-0.01350761 0.009394463 0.039517477 -0.035685424 0.046492536 0.12991667 0.010140693 -0.18545084
0.151043 -0.19027811 0.13478956 0.06521492 0.09303763 0.14158896 0.05149112 0.06501585
0.07108568 0.30851313 0.12845288 -0.042867977 0.09088409 -0.12177376 0.061901115 -0.1519623
-0.07142112 -0.04200248 0.27758938 0.112987876 0.19251515 -0.052749038 0.0906195 -0.13031258
-0.019510636 -0.16369927 -0.03648639 -0.15674691 -0.09508706 -0.110529095 0.10275203 -0.08630866
0.01900146 -0.03542786 0.10302511 0.19341014 0.12648757 0.00910086 0.07755193 -0.22937047
-0.0053146104 -0.20395462 -0.17466 0.17957124 0.17301658 -0.013004665 0.10895685 0.12083836
0.02915438 0.06728062 0.07947439 -0.008541738 0.055825904 -0.15295343 -0.08523157 -0.18936011
-0.062306076 0.08295412 -0.1498748 0.11312537 0.12556174 0.127439 0.07913359 0.13665542
0.01766566 -0.053008027 0.061368633 0.1080119 0.10223069 0.19048658 0.19259663 -0.06949354
-0.08261495 -0.16140367 -0.06853622 0.20241408 -0.19033249 0.08621148 0.13278134 0.1761471
0.09170191 0.013415805 0.07410935 0.12050908 -0.03649249 0.107926875 0.20402956 0.016936205
-0.08081265 -0.09445299 -0.21687247 0.06691355 -0.10760796 0.100223124 0.12642261 0.15121542
0.2583528 -0.14259766 -0.1154042 -0.044856768 -0.11070646 -0.08698138 0.26674315 0.19120322
0.110604614 -0.049481977 0.09520979 -0.044064607 0.12364989 0.10739288 0.10888104 0.03143508
0.19909485 -0.18971168 -0.18269551 0.16870295 0.005425905 0.1630908 -0.063514955 -0.024062438
-0.024776926 -0.10173726 0.0050080023 -0.23035236 -0.08164051 -0.046395447 -0.023290329 0.03458029
0.07634036 -0.2505834 0.11628969 -0.011837804 0.09137143 -0.13555436 -0.11047309 -0.014943495
0.12069317 0.17395231 0.007305859 -0.20182309 0.018122587 0.07111873 0.04245409 0.18888697
-0.27870193 0.11178912 0.0366288 -0.12185174 -0.00072599936 -0.0052551124 -0.1492966 -0.14478639
00000000: e304 a63d cca0 763d 1ca8 2abe c1c3 10bd
00000010: dd4c 4c3e 29ea 2f3e 6761 c4bd ce92 573d
00000020: fdf3 263e 973d 09be d8b8 34be 2443 503e
00000030: 516e 813c bca2 963d 0362 353d b708 fc3d
00000040: c93c 1e3e 9637 30be a8d6 02be 27a8 0ebb
00000050: 7a8f 18be 4619 21be b441 98bd e7e2 9ebc
00000060: f181 2cbe 105b 22bd 9592 f83b c67b 193e
00000070: 1522 fe3d a4f6 fb3c 122f eebd dc2b 543e
00000080: 064f 5dbc 3ceb 193c 14dd 213d e12a 12bd
00000090: f56e 3e3d e008 053e 2625 263c d3e6 3dbe
000000a0: 04ab 1a3e 44d8 42be 4606 0a3e 668f 853d
000000b0: 838a be3d b2fc 103e 5ae8 523d 0827 853d
000000c0: 5e95 913d 6ff5 9d3e 2789 033e 5596 2fbd
000000d0: 7021 ba3d 8564 f9bd 068c 7d3d 019c 1bbe
000000e0: 3c45 92bd cb0a 2cbd 3220 8e3e 3066 e73d
000000f0: b122 453e 600f 58bd b796 b93d a970 05be
00000100: c5d4 9fbc c8a0 27be c172 15bd 4382 20be
00000110: 01bd c2bd 145d e2bd a86f d23d 98c2 b0bd
00000120: f3a8 9b3c ce1c 11bd d4fe d23d 4f0d 463e
00000130: f585 013e c61b 153c 8cd3 9e3d 18e0 6abe
00000140: 2f26 aebb 7bd9 50be 12da 32be 86e1 373e
00000150: 422b 313e 8511 55bc c524 df3d 1a7a f73d
00000160: 2bd5 ee3c 6cca 893d 78c3 a23d a5f2 0bbc
00000170: b4a9 643d d39f 1cbe e48d aebd 9ee7 41be
00000180: a834 7fbd dae3 a93d c878 19be 46ae e73d
00000190: 4293 003e 5f7f 023e cb10 a23d 66ef 0b3e
000001a0: 93b7 903c f21e 59bd ad5d 7b3d 5835 dd3d
000001b0: 535e d13d ea0e 433e 0d38 453e a152 8ebd
000001c0: 0732 a9bd 0147 25be b85c 8cbd a345 4f3e
000001d0: 85e6 42be a58f b03d d5f7 073e e85f 343e
000001e0: 36ce bb3d f7cd 5b3c a5c6 973d 77cd f63d
000001f0: 2679 15bd c408 dd3d 20ed 503e ccbd 8a3c
00000200: 1a81 a5bd 9270 c1bd d113 5ebe f909 893d
00000210: 9061 dcbd c841 cd3d ee74 013e 37d8 1a3e
00000220: d146 843e 1f05 12be 0a59 ecbd bbbb 37bd
00000230: 12ba e2bd 4b23 b2bd 8f92 883e c7ca 433e
00000240: ac84 e23d 9dad 4abd 5afd c23d 177d 34bd
00000250: 273c fd3d ccf0 db3d 06fd de3d 12c2 003d
00000260: 85df 4b3e c743 42be 8814 3bbe 77c0 2c3e
00000270: cacb b13b 4601 273e 2114 82bd 971e c5bc
00000280: fbf8 cabc a05b d0bd 2b1a a43b 7de1 6bbe
00000290: 2433 a7bd 2709 3ebd 5ccb bebc 10a4 0d3d
000002a0: 5658 9c3d 784c 80be 4a29 ee3d 59f3 41bc
000002b0: f220 bb3d c3ce 0abe b73f e2bd 90d5 74bc
000002c0: fb2d f73d 8e20 323e fd65 ef3b b6aa 4ebe
000002d0: d275 943c b2a6 913d 57e4 2d3d 966b 413e
000002e0: 05b2 8ebe b2f1 e43d 1508 163d 688d f9bd
000002f0: fe50 3eba 1433 acbb 35e1 18be e242 14be

layer3.bn2.weight f4 [8]
1.0255959 1.0090986 1.008317 1.0053159 0.9822864 1.0345982 1.0098497 0.9818625
00000000: ba46 833f 252a 813f 8810 813f 31ae 803f
00000010: 1f77 7b3f b76d 843f c142 813f 575b 7b3f

layer3.bn2.bias f4 [8]
0.034596793 0.020275861 0.0422402 -0.00991452 -0.008122856 0.05923371 -0.0011009004 -0.00598921
00000000: 5eb5 0d3d 9019 a63c 0f04 2d3d 8370 22bc
00000010: ba15 05bc 0c9f 723d 164c 90ba 2341 c4bb

layer3.bn2.running_mean f4 [8]
0.06232702 0.15569451 0.09359597 -0.082254045 0.14891334 0.064685754 -0.0066133197 -0.082828805
00000000: 9e4a 7f3d 626e 1f3e 3eaf bf3d cf74 a8bd
00000010: bd7c 183e f779 843d 8cb4 d8bb 26a2 a9bd

layer3.bn2.running_var f4 [8]
0.45097405 0.45935982 0.4585489 0.43932152 0.45000985 0.4473421 0.450989 0.44048953
00000000: 12e6 e63e 3631 eb3e ecc6 ea3e c0ee e03e
00000010: b167 e63e 060a e53e 08e8 e63e d887 e13e

layer3.fc1.weight f4 [2, 8]
0.07740295 -0.2162799 0.20376551 0.18836786 -0.22008172 -0.08343284 0.21746604 0.24635746
0.18085885 -0.102464795 -0.09640253 0.07349861 0.31806892 -0.34293535 -0.02561799 -0.24865323
00000000: 7085 9e3d 7a78 5dbe e8a7 503e 81e3 403e
00000010: 1a5d 61be d6de aabd 6baf 5e3e 2145 7c3e
00000020: 1033 393e 10d9 d1bd b16e c5bd 7086 963d
00000030: eed9 a23e 3995 afbe d2dc d1bc f49e 7ebe

layer3.fc1.bias f4 [2]
-0.15733685 -0.0054707523
00000000: e91c 21be ff43 b3bb

layer3.fc2.weight f4 [8, 2]
0.49936813 0.08851925 0.34036496 -0.5468051 0.4802848 0.17080869 0.42175698 0.51062024
-0.05167157 0.20978673 0.3733701 -0.06650744 -0.67958945 -0.51057416 0.4677665 0.18673398
00000000: 2ead ff3e 9549 b53d 5144 ae3e 6bfb 0bbf
00000010: e4e7 f53e 79e8 2e3e 88f0 d73e 02b8 023f
00000020: 91a5 53bd 55d2 563e 5e2a bf3e 0d35 88bd
00000030: 93f9 2dbf fdb4 02bf 177f ef3e 3137 3f3e

layer3.fc2.bias f4 [8]
0.2734642 0.1299228 -0.5924225 0.15543064 -0.60987073 0.51389587 0.45138875 -0.07416102
00000000: 8003 8c3e 7c0a 053e 00a9 17bf 3629 1f3e
00000010: 7d20 1cbf ae8e 033f 6d1c e73e bce1 97bd

layer3.shortcut.0.weight f4 [8, 4, 1, 1]
0.33171207 0.12276181 0.37979117 0.2264405 -0.29667503 0.032668423 0.43486637 0.41090608
0.5160383 0.3247944 -0.39135647 -0.50191987 0.38302925 0.086484864 0.4237521 -0.5248365
0.18583052 0.07609328 -0.22478488 -0.06477308 0.39951053 0.51342756 0.17916723 0.077417724
0.43816334 -0.016745275 -0.06553383 -0.11355185 0.513886 0.46786544 0.28536546 -0.053224947
00000000: 2ad6 a93e 8b6a fb3d fd73 c23e 05e0 673e
00000010: cae5 97be 53cf 053d cea6 de3e 4862 d23e
00000020: 161b 043f 744b a63e e05f c8be d27d 00bf
00000030: 691c c43e fa1e b13d 09f6 d83e af5b 06bf
00000040: 5b4a 3e3e cbd6 9b3d 022e 66be c0a7 84bd
00000050: a58c cc3e fd6f 033f 9d77 373e 2f8d 9e3d
00000060: f256 e03e 632d 89bc 9a36 86bd df8d e8bd
00000070: 088e 033f 0f8c ef3e 6c1b 923e 6702 5abd

layer3.shortcut.1.weight f4 [8]
0.99229723 1.0247737 1.0495236 0.98599344 0.98870623 1.0304044 0.98039764 0.9523689
00000000: 3107 7e3f c92b 833f ca56 863f 116a 7c3f
00000010: da1b 7d3f 4be4 833f 57fb 7a3f 73ce 733f

layer3.shortcut.1.bias f4 [8]
0.037255805 0.016400335 0.0532667 0.0017417382 0.0057247835 0.0790675 -0.013345681 -0.00510987
00000000: 8b99 183d ff59 863c 2f2e 5a3d 094b e43a
00000010: f796 bb3b 24ee a13d d8a7 5abc b270 a7bb

layer3.shortcut.1.running_mean f4 [8]
0.39493665 0.2666368 -0.06720215 0.06863381 0.0016739161 0.40134382 0.07265998 0.40767583
00000000: 2335 ca3e 9e84 883e 48a1 89bd e28f 8c3d
00000010: 4e67 db3a f07c cd3e c1ce 943d e3ba d03e

layer3.shortcut.1.running_var f4 [8]
0.63154566 0.92695445 0.98754424 0.6410484 0.4641248 0.73262614 0.5135438 0.75072926
00000000: faac 213f e34c 6d3f b3cf 7c3f bf1b 243f
00000010: c4a1 ed3e 638d 3b3f 9b77 033f cb2f 403f

layer4.conv1.weight f4 [8, 8, 1, 3]
-0.03517515 -0.1575051 0.039086103 0.13602416 -0.118598275 0.13341819 0.0717272 -0.12622578
0.1343049 -0.1966282 -0.081473604 0.03489215 -0.18518357 -0.1888993 -0.19011568 -0.18802166
-0.12334605 0.1761165 0.016713103 -0.21261398 0.08923796 -0.11243522 -0.030288724 -0.09817631
0.16029297 0.14156257 -0.13180447 -0.07331035 -0.064732894 -0.109617226 -0.047800895 0.1623763
-0.13896899 -0.014246108 0.17654504 -0.074083105 -0.0002143363 -0.0079745455 0.19342244 -0.044185612
0.19003218 -0.15858272 -0.039147552 0.048013862 -0.13945237 0.15973473 -0.11539782 0.056785688
-0.04222436 0.105259076 0.08822256 0.14731061 -0.15196002 0.19478375 0.07442373 -0.07894886
-0.18375994 0.0013532324 0.025988841 0.1754631 -0.063633814 -0.1791713 0.16916774 0.0030775464
-0.14447638 0.05693304 0.10926843 -0.018233739 0.07813839 -0.038004886 -0.22316356 0.073887065
-0.17296013 0.18368766 0.13176544 0.17504682 0.1900853 0.19183345 0.08333236 0.047613606
0.13722081 -0.10367211 -0.06397344 -0.15505898 -0.088364094 -0.033462487 0.16537015 0.16452445
0.16477448 -0.12042244 -0.20263708 0.062039662 -0.097812064 -0.07726525 0.13205472 -0.17164204
-0.19128028 -0.024378559 -0.19148129 0.014995958 0.022501841 -0.13569379 -0.07135126 0.091425665
0.0008900289 -0.17052363 -0.037209574 -0.0010019343 -0.1844307 -0.16162898 -0.015399336 0.082019955
-0.1908257 0.0055182064 0.13151665 -0.0781818 -0.081847996 0.19131438 -0.11601382 -0.010459741
-0.18318456 -0.06258702 -0.085270226 -0.1056381 -0.23033562 0.07742953 -0.17853205 -0.11314902
-0.09280027 0.003439987 -0.1346765 0.061542492 -0.0911578 -0.03851383 -0.07997005 0.18620224
-0.093211286 -0.1835521 -0.1625032 -0.1440307 0.116850235 -0.06447334 -0.060149666 -0.07601709
0.000114646384 0.054858565 0.11919952 -0.044201255 0.054036107 0.066560954 0.15509021 -0.070106186
-0.14143452 0.14843825 -0.10973916 0.07805213 -0.106464416 0.23184222 0.050984208 -0.111868665
0.079269074 0.1693789 0.040716283 0.22454451 -0.1600102 0.04847644 0.11618141 0.06264835
-0.13993053 0.14267248 -0.083555624 0.002115744 0.1634257 0.078776054 0.17963393 -0.10291946
-0.013855498 -0.114009775 -0.0071059847 0.13094158 -0.04026887 0.13343458 0.107523 -0.0024359373
-0.010252883 0.15308711 -0.13142791 -0.0819794 -0.15615922 0.089764 0.115800045 -0.14585988
00000000: d113 10bd 0449 21be c018 203d eb49 0b3e
00000010: a7e3 f2bd c79e 083e b6e5 923d 5541 01be
00000020: 3987 093e e758 49be a2db a6bd 12eb 0e3d
00000030: c3a0 3dbe d16e 41be afad 42be c088 40be
00000040: db9c fcbd e257 343e ebe9 883c 7bb7 59be
00000050: 64c2 b63d 7044 e6bd 0f20 f8bc a910 c9bd
00000060: d723 243e c7f5 103e c0f7 06be bd23 96bd
00000070: ae92 84bd ff7e e0bd dfca 43bd f945 263e
00000080: e34d 0ebe 8268 69bc 39c8 343e e2b8 97bd
00000090: 76bf 60b9 aba7 02bc 8810 463e f9fb 34bd
000000a0: cc97 423e 8263 22be 2f59 20bd 2faa 443d
000000b0: 9acc 0ebe 8091 233e b155 ecbd 1c98 683d
000000c0: 73f3 2cbd 1292 d73d 08ae b43d 98d8 163e
000000d0: 689b 1bbe 6475 473e 786b 983d f1af a1bd
000000e0: 912b 3cbe f25e b13a 8de6 d43c 99ac 333e
000000f0: 7252 82bd ae78 37be 4f3a 2d3e a9b0 493b
00000100: 9ef1 13be 9f32 693d 20c8 df3d ec5e 95bc
00000110: 0507 a03d 03ab 1bbd fd84 64be 1a52 973d
00000120: 761c 31be 9e18 3c3e 85ed 063e 793f 333e
00000130: b9a5 423e fd6f 443e 28aa aa3d 7c06 433d
00000140: 9d83 0c3e 0b52 d4bd 8204 83bd c8c7 1ebe
00000150: 3cf8 b4bd f60f 09bd cb56 293e 1979 283e
00000160: a4ba 283e 0aa0 f6bd 1880 4fbe 4d1d 7e3d
00000170: b151 c8bd 3e3d 9ebd 5a39 073e eec2 2fbe
00000180: fade 43be 8bb5 c7bc ac13 44be 9bb1 753c
00000190: c855 b83c 50f3 0abe 9c20 92bd 613d bb3d
000001a0: d450 693a bf9d 2ebe 1169 18bd 5653 83ba
000001b0: 67db 3cbe 1182 25be 7f4d 7cbc 14fa a73d
000001c0: d067 43be 12d2 b43b 4dac 063e c81d a0bd
000001d0: ec9f a7bd ebe7 433e a798 edbd 555f 2bbc
000001e0: bc94 3bbe a02d 80bd 28a2 aebd ca58 d8bd
000001f0: 1add 6bbe 6093 9e3d 1bd1 36be acba e7bd
00000200: 110e bebd 6871 613b a3e8 09be fb13 7c3d
00000210: f1b0 babd aec0 1dbd 56c7 a3bd cdab 3e3e
00000220: 8fe5 bebd 15f5 3bbe 3d67 26be c97c 13be
00000230: 2d4f ef3d 990a 84bd 7f5f 76bd d9ae 9bbd
00000240: 4f6e f038 60b3 603d e11e f43d 600c 35bd
00000250: f754 5d3d 1c51 883d f8cf 1e3e d593 8fbd
00000260: 36d4 10be 3200 183e edbe e0bd ccd9 9f3d
00000270: 040a dabd 0c68 6d3e d1d4 503d 661b e5bd
00000280: d357 a23d aa71 2d3e 1ec6 263d ffee 653e
00000290: b7d9 23be 3b8f 463d 85f0 ed3d c74d 803d
000002a0: f349 0fbe bc18 123e 361f abbd 4ba8 0a3b
000002b0: 1159 273e 5755 a13d f5f1 373e 70c7 d2bd
000002c0: 2c02 63bc f57d e9bd 52d9 e8bb 8d15 063e
000002d0: f8f0 24bd 13a3 083e 0535 dc3d 3fa4 1fbb
000002e0: b5fb 27bc dec2 1c3e 0a95 06be d1e4 a7bd
000002f0: 34e8 1fbe 30d6 b73d 9328 ed3d 4b5c 15be

layer4.bn1.weight f4 [8]
1.0283841 0.9890564 1.0100502 1.0215658 1.0127122 0.9739007 0.95394933 1.0076501
00000000: 17a2 833f cd32 7d3f 5349 813f abc2 823f
00000010: 8ea0 813f 8e51 793f 0636 743f aefa 803f

layer4.bn1.bias f4 [8]
0.033261903 -0.0021308842 0.03718269 -0.029722113 0.018516887 -0.030455906 0.040432427 -0.0019214763
00000000: a23d 083d 4ea6 0bbb e04c 183d ca7b f3bc
00000010: bab0 973c aa7e f9bc 799c 253d 0cda fbba

layer4.bn1.running_mean f4 [8]
-0.20467113 0.16132654 -0.12637998 0.13514248 -0.09003711 -0.26060447 0.17992294 0.10322689
00000000: 4f95 51be c932 253e c169 01be ca62 0a3e
00000010: 6065 b8bd f36d 85be b83d 383e 9f68 d33d

layer4.bn1.running_var f4 [8]
0.48421592 0.47331327 0.50336426 0.5163592 0.48748448 0.54087037 0.567093 0.5626119
00000000: 26eb f73e 1e56 f23e 7bdc 003f 1e30 043f
00000010: 9197 f93e 7b76 0a3f 022d 113f 5507 103f

layer4.conv2.weight f4 [8, 8, 1, 3]
0.16658401 -0.25027764 -0.15467285 -0.17716064 -0.12869896 0.05838578 -0.07131935 -0.18937467
-0.13392356 -0.20118965 -0.25374052 0.17686313 -0.11140595 -0.21190545 -0.12957373 0.11706462
0.023539942 0.0070754657 0.09584413 0.036753073 -0.034054894 -0.02595869 -0.16441113 -0.14506139
0.05663799 -0.148215 0.02128457 -0.19635008 0.064411595 -0.1646588 -0.097967446 -0.16543816
0.06488657 0.059387602 -0.13843131 -0.1056264 -0.03783837 0.06857032 -0.18915829 0.026503842
-0.064337015 -0.051943988 0.19619049 0.016018678 0.084347285 0.029280188 -0.07660941 -0.11693652
0.08284897 0.051077288 0.19136626 -0.19292812 0.017998243 -0.119545445 -0.061577108 0.081189714
-0.024039183 -0.20216094 0.064820446 -0.04882601 0.0765312 0.18202361 0.13238765 0.13011813
-0.13808951 0.04228659 0.119350344 0.11626339 0.1663263 0.11863609 0.03369716 0.04848687
-0.002329559 -0.16835219 -0.08160334 -0.12274977 -0.10028074 0.05373289 -0.10683755 0.023332857
-0.077734664 0.14928262 0.0013759681 -0.0529448 -0.038115453 0.002433624 0.06593001 0.016982354
0.0740333 0.19569963 0.10323545 0.0017673664 0.13837145 0.13025536 -0.12307299 -0.1714112
-0.15225786 0.17578235 0.15843956 -0.07530585 -0.100420244 0.19123282 0.16711187 0.12949194
-0.15950754 0.17759584 0.017739706 0.08184973 -0.16199422 0.14256456 0.041375525 0.079755776
0.04878294 0.021363925 0.15331915 -0.15437977 -0.048942026 0.061668307 0.019376125 0.082825735
-0.035211634 -0.16136959 -0.16240066 -0.17820694 0.16309673 -0.1347573 -0.20235136 -0.12877811
0.08736644 0.08771657 -0.026906552 -0.08703174 0.05438028 0.01047651 0.040186655 0.10420614
-0.0139966905 -0.043139737 0.004390274 -0.14218374 0.16045696 0.081641115 -0.0208184 0.071406096
0.17598253 0.17767192 0.17339897 0.09588041 0.14320958 0.035413064 0.06956 0.008821355
0.010562229 0.02169967 0.18857478 -0.16889577 -0.20049378 0.14237007 -0.08914648 0.18016519
0.087648034 -0.17342076 -0.1746524 0.20266691 0.026005587 0.032831606 0.19946986 -0.107797734
0.18200728 -0.061417177 0.13644506 0.1813774 0.019957878 -0.005072298 0.0632905 0.11965454
0.07879316 0.19574144 -0.265923 0.09281043 -0.0146105 0.14162445 -0.010913037 0.20205224
-0.045820728 -0.07980129 -0.12252304 -0.085007586 -0.0020163965 0.19111626 -0.23299201 0.06928636
00000000: 0095 2a3e 6424 80be 8f62 1ebe 9969 35be
00000010: a9c9 03be ed25 6f3d e10f 92bd 6feb 41be
00000020: 4223 09be a904 4ebe 47ea 81be 9c1b 353e
00000030: cd28 e4bd befd 58be faae 04be 93bf ef3d
00000040: d6d6 c03c 4fd9 e73b ed49 c43d 648a 163d
00000050: 257d 0bbd 52a7 d4bc 645b 28be f98a 14be
00000060: 3dfd 673d acc5 17be fb5c ae3c ff0f 49be
00000070: 3aea 833d 519c 28be 28a3 c8bd 9f68 29be
00000080: 40e3 843d 6a40 733d f0c0 0dbe a752 d8bd
00000090: 68fc 1abd 996e 8c3d b6b2 41be 961e d93c
000000a0: 20c3 83bd 38c3 54bd 29e6 483e 9a39 833c
000000b0: 45be ac3d 01dd ef3c 65e5 9cbd 6a7c efbd
000000c0: b9ac a93d 6b36 513d 84f5 433e f38e 45be
000000d0: 0d71 933c 3ed4 f4bd 4738 7cbd cb46 a63d
000000e0: d2ed c4bc 4703 4fbe 95c0 843d c8fd 47bd
000000f0: 64bc 9c3d 6664 3a3e a190 073e b03d 053e
00000100: 5667 0dbe b434 2d3d f46d f43d 801b ee3d
00000110: 7151 2a3e 7af7 f23d 0906 0a3d 2b9a 463d
00000120: 84ab 18bb 8464 2cbe a71f a7bd 3b64 fbbd
00000130: fd5f cdbd 0517 5c3d a5cd dabd 8c24 bf3c
00000140: 5a33 9fbd 8bdd 183e d459 b43a a6dc 58bd
00000150: f31e 1cbd 6f7d 1f3b 5006 873d 941e 8b3c
00000160: c59e 973d 7c65 483e 1c6d d33d faa6 e73a
00000170: 3fb1 0d3e a961 053e b10d fcbd 6b86 2fbe
00000180: 7ce9 1bbe 4a00 343e fb3d 223e f439 9abd
00000190: 21a9 cdbd 89d2 433e 601f 2b3e 8999 043e
000001a0: f255 23be afdb 353e dc52 913c d5a0 a73d
000001b0: d0e1 25be 72fc 113e 6279 293d ff56 a33d
000001c0: 9fd0 473d 6603 af3c b2ff 1c3e bb15 1ebe
000001d0: 6f77 48bd e897 7c3d aeba 9e3c 8aa0 a93d
000001e0: 133a 10bd 123e 25be 5c4c 26be e17b 36be
000001f0: d402 273e d1fd 09be 3235 4fbe 69de 03be
00000200: 2ded b23d bfa4 b33d 216b dcbc b23d b2bd
00000210: dbbd 5e3d aba5 2b3c c39a 243d 076a d53d
00000220: 6052 65bc 4bb3 30bd 4adc 8f3b 9d98 11be
00000230: d44e 243e 7533 a73d 598b aabc 5c3d 923d
00000240: c434 343e a1ef 353e 808f 313e f35c c43d
00000250: 88a5 123e 4a0d 113d 7975 8e3d 7287 103c
00000260: 330d 2d3c 82c3 b13c bf19 413e 03f3 2cbe
00000270: 3e4e 4dbe 76c9 113e 6e92 b6bd 397d 383e
00000280: d080 b33d 3695 31be 14d8 32be ea87 4f3e
00000290: ab09 d53c 6f7a 063d d441 4c3e 0fc5 dcbd
000002a0: 1e60 3a3e 9490 7bbd 41b8 0b3e ffba 393e
000002b0: b47e a33c 8535 a6bb 739e 813d 710d f53d
000002c0: 4f5e a13d 7270 483e 0f27 88be 6513 be3d
000002d0: e160 6fbc 0006 113e 98cc 32bc c8e6 4e3e
000002e0: 84ae 3bbd dc6e a3bd 5ced fabd 7518 aebd
000002f0: 8525 04bb fbb3 433e 7595 6ebe 02e6 8d3d

layer4.bn2.weight f4 [8]
0.98922426 0.99621034 0.999701 1.0047953 1.0078341 1.0075295 0.9652855 0.9716265
00000000: cd3d 7d3f a407 7f3f 68ec 7f3f 229d 803f
00000010: b500 813f baf6 803f f31c 773f 84bc 783f

layer4.bn2.bias f4 [8]
0.032796416 0.015608373 0.021252057 -0.015361009 0.004110049 0.014245022 -0.009489251 -0.029685313
00000000: 8955 063d 43ba 7f3c cb18 ae3c beac 7bbc
00000010: 97ad 863b f463 693c ce78 1bbc 9d2e f3bc

layer4.bn2.running_mean f4 [8]
-0.1197523 -0.0359949 0.08384116 -0.061648402 0.03234983 -0.07219311 0.24210204 -0.04701049
00000000: b240 f5bd 636f 13bd eab4 ab3d 0983 7cbd
00000010: 4181 043d fbd9 93bd 99e9 773e 128e 40bd

layer4.bn2.running_var f4 [8]
0.4485725 0.4398968 0.4417239 0.4449087 0.47574115 0.45176074 0.5440854 0.49297222
00000000: 4bab e53e 273a e13e a329 e23e 13cb e33e
00000010: 5894 f33e 2f4d e73e 2e49 0b3f db66 fc3e

layer4.fc1.weight f4 [2, 8]
-0.1834533 -0.3364424 -0.123396836 0.28763437 0.0673717 -0.23552285 -0.13737398 0.13301536
-0.0036098117 -0.15762949 -0.1351419 0.12534556 -0.2771216 0.22413597 -0.03975095 0.1452477
00000000: 2fdb 3bbe 2e42 acbe 7bb7 fcbd d044 933e
00000010: 2dfa 893d e72c 71be c4ab 0cbe 2e35 083e
00000020: 9792 6cbb a069 21be a362 0abe 965a 003e
00000030: e2e2 8dbe e683 653e e4d1 22bd d0bb 143e

layer4.fc1.bias f4 [2]
-0.2659054 -0.28920308
00000000: c124 88be 6d12 94be

layer4.fc2.weight f4 [8, 2]
0.40699682 0.6537319 0.6601728 0.6600613 0.4875831 -0.6159766 0.6742821 0.7025176
0.2501666 -0.57363224 0.12234538 -0.6519695 0.012769424 -0.07790554 -0.57120466 0.29349607
00000000: e361 d03e f95a 273f 1601 293f c7f9 283f
00000010: 7ea4 f93e a4b0 1dbf c09d 2c3f 32d8 333f
00000020: d615 803e 90d9 12bf 3790 fa3d 79e7 26bf
00000030: d936 513c f18c 9fbd 783a 12bf 1e45 963e

layer4.fc2.bias f4 [8]
0.06470481 0.19776738 0.2937164 0.09968471 -0.56606543 -0.08246496 0.42664525 0.25875792
00000000: f583 843d 8883 4a3e ff61 963e 7f27 cc3d
00000010: aae9 10bf 64e3 a8bd 3f71 da3e eb7b 843e

layer5.conv1.weight f4 [16, 8, 1, 3]
-0.028369302 -0.17984237 0.14766559 -0.1707442 -0.111030005 -0.20032819 -0.14050385 -0.04552826
0.057074055 0.025379067 -0.109302156 0.04588721 0.14894353 -0.0042042457 0.11318371 0.047322143
0.0035905864 0.16318135 0.09418817 0.09412359 0.07808461 -0.060548194 -0.18347077 0.012432591
-0.16576383 0.12011128 0.1929161 0.14268835 -0.27993572 -0.12704305 -0.12031775 -0.13130064
-0.0054710577 0.048666645 0.11571949 0.008771894 -0.07052597 0.08655241 0.16496216 -0.1312318
-0.10411025 0.07790793 -0.14759308 0.13088115 0.16249572 -0.08901035 0.11476519 -0.12564036
0.18810482 -0.051981483 0.10767753 -0.07794057 -0.1373415 0.09925177 0.02107877 -0.1904103
0.045587037 0.12395264 0.07814783 0.0056702136 -0.04604673 0.18960235 -0.09563399 0.16467844
-0.006185633 0.18547544 0.15962802 -0.13931103 0.063591026 0.069897644 0.02678858 -0.13644697
0.007426303 -0.090436175 -0.13523664 -0.12942456 0.09127291 0.047480978 0.010003613 -0.22430499
0.14067185 -0.14156057 -0.08917306 0.036288142 -0.11295883 -0.14509523 -0.08698953 0.14895372
-0.12210001 -0.1952852 0.1767992 0.07974088 -0.14141932 -0.08303696 -0.17689772 -0.1356462
0.042569723 0.11338199 0.17059702 0.1497688 0.18732795 0.14279798 0.12953277 -0.11909844
0.18760033 0.15810667 -0.025254186 0.04118024 0.031153888 -0.13265195 -0.037904777 -0.17651285
0.030733183 -0.13714732 0.12444787 0.04243669 0.14687432 -0.06408234 0.025350828 0.10636535
-0.0066089705 -0.009637027 0.08735143 -0.18198419 0.07892303 -0.0040463945 -0.011366467 -0.15154693
-0.11282654 0.15371129 0.19181582 0.19392549 0.1774758 0.07883891 -0.15604419 0.20101386
0.1760359 0.17276636 0.20222712 -0.17733024 -0.1525898 0.024829432 0.051922657 -0.006974718
-0.105462775 0.1457896 -0.1943322 0.044832602 -0.01356529 0.11731735 -0.010361598 -0.11063818
0.1345918 0.0052714986 -0.009839406 0.0069990307 0.066178605 0.13218802 -0.15126106 -0.19375573
0.18249188 0.10124622 -0.08272532 -0.04063247 -0.10940346 0.09928869 -0.01152232 -0.16168775
0.10137886 0.21135634 0.05093177 -0.17788216 -0.047016688 -0.07021553 0.16984679 0.20818649
-0.06821153 0.12005094 -0.1789259 -0.15103672 -0.13753425 -0.037150793 -0.0061959093 -0.19767968
-0.07741575 -0.18871178 -0.15749505 0.25803924 0.1503759 -0.20241277 -0.0034244799 -0.1801164
-0.022312917 -0.008518036 -0.14606708 -0.1176362 -0.1989416 0.11603452 -0.08732691 0.20818198
-0.14837931 0.12747328 0.049727663 0.12707259 -0.081698224 0.03498369 -0.10351927 0.11710069
-0.09778219 0.03706014 -0.041388385 0.11804527 0.15457964 -0.2032662 0.06765575 -0.18909582
0.122733764 -0.07136767 0.14961067 -0.15037255 -0.100551575 0.11031825 0.061105266 0.0005723115
0.16146775 -0.09569197 -0.00019764794 -0.0069470406 -0.17028785 0.11660375 -0.037878603 0.040493455
-0.08385399 -0.0763782 -0.16077608 -0.14156355 -0.08897435 -0.17694822 -0.00092204293 0.15502858
-0.04340925 -0.16820079 -0.10052097 -0.12070236 -0.031148944 0.047401123 -0.12366059 -0.1437375
-0.03330531 0.0062715113 0.034637008 -0.20318046 0.0623508 0.12757422 -0.1193078 -0.105280116
00000000: bd66 e8bc 9928 38be a635 173e 91d7 2ebe
00000010: b363 e3bd d522 4dbe 3ee0 0fbe d77b 3abd
00000020: 7cc6 693d c3e7 cf3c cfd9 dfbd 3af4 3b3d
00000030: a784 183e c5c3 89bb dccc e73d ddd4 413d
00000040: 0b50 6b3b 0319 273e bae5 c03d dec3 c03d
00000050: d3ea 9f3d 6201 78bd c3df 3bbe 11b2 4b3c
00000060: febd 29be e7fc f53d cc8b 453e e51c 123e
00000070: bc53 8fbe 9317 02be 2769 f6bd ad73 06be
00000080: 8f46 b3bb ad56 473d 57fe ec3d fdb7 0f3c
00000090: eb6f 90bd 6442 b13d d7eb 283e a161 06be
000000a0: c137 d5bd 318e 9f3d a422 17be b505 063e
000000b0: 4765 263e 0f4b b6bd 030a eb3d dea7 00be
000000c0: 8d9e 403e 89ea 54bd 0986 dc3d 4e9f 9fbd
000000d0: 40a3 0cbe 8344 cb3d 62ad ac3c ebfa 42be
000000e0: 79b9 3a3d e2da fd3d f80b a03d 33cd b93b
000000f0: 7f9b 3cbd 1e27 423e c1db c3bd 77a1 283e
00000100: dab0 cabb 46ed 3d3e 8775 233e 8da7 0ebe
00000110: 033c 823d 7f26 8f3d b973 db3c c1b8 0bbe
00000120: 5858 f33b 9a36 b9bd 797b 0abe df87 04be
00000130: 4bed ba3d 6a7b 423d 32e6 233c 35b0 65be
00000140: 480c 103e 41f5 10be 5ea0 b6bd e0a2 143d
00000150: f656 e7bd d893 14be 9127 b2bd 5387 183e
00000160: 920f fabd d8f8 47be d90a 353e 304f a33d
00000170: 3ad0 10be 480f aabd ad24 35be d6e6 0abe
00000180: 975d 2e3d d134 e83d fcb0 2e3e fe5c 193e
00000190: e6d2 3f3e a239 123e 3da4 043e e2e9 f3bd
000001a0: 4d1a 403e b7e6 213e dee1 cebc 9dac 283d
000001b0: 7036 ff3c ead5 07be 0a42 1bbd c9bf 34be
000001c0: 28c4 fb3c 5970 0cbe 86de fe3d 18d2 2d3d
000001d0: 3966 163e 9a3d 83bd 8aac cf3c 14d6 d93d
000001e0: 1090 d8bb 9fe4 1dbc 4ee5 b23d 105a 3abe
000001f0: 66a2 a13d 9e97 84bb 6b3a 3abc 1e2f 1bbe
00000200: 9a11 e7bd 7e66 1d3e 5e6b 443e 6794 463e
00000210: 37bc 353e 4b76 a13d 0cca 1fbe 94d6 4d3e
00000220: c142 343e aae9 303e a014 4f3e 0f96 35be
00000230: 8040 1cbe 1867 cb3c daac 543d 2d8c e4bb
00000240: defc d7bd de49 153e 05ff 46be 64a2 373d
00000250: f340 5ebc 1444 f03d b1c3 29bc 4596 e2bd
00000260: 6fd2 093e 89bc ac3b 7635 21bc 2058 e53b
00000270: a688 873d 4c5c 073e 2ee4 1abe e767 46be
00000280: 27df 3a3e 2e5a cf3d e46b a9bd 3c6e 26bd
00000290: ec0e e0bd de57 cb3d 1dc8 3cbc 7991 25be
000002a0: b89f cf3d cc6d 583e d59d 503d be26 36be
000002b0: 9294 40bd 29cd 8fbd 51ec 2d3e d72e 553e
000002c0: 7db2 8bbd 44dd f53d 5a38 37be 5fa9 1abe
000002d0: c7d5 0cbe 6e2b 18bd 0e07 cbbb 8b6c 4abe
000002e0: 268c 9ebd a93d 41be 6246 21be b81d 843e
000002f0: 24fc 193e 4b45 4fbe 3d6d 60bb 6f70 38be
00000300: 94c9 b6bc 3c8f 0bbc 9c92 15be 3feb f0bd
00000310: 59b7 4bbe 82a3 ed3d 73d8 b2bd a82d 553e
00000320: bff0 17be 5b88 023e 3caf 4b3d 511f 023e
00000330: 6651 a7bd 0f4b 0f3d e901 d4bd 7dd2 ef3d
00000340: 0742 c8bd 60cc 173d de86 29bd b8c1 f13d
00000350: 204a 1e3e 0425 50be 198f 8a3d 56a2 41be
00000360: d75b fb3d 3729 92bd 8a33 193e 43fb 19be
00000370: fced cdbd 89ee e13d 8449 7a3d 2d07 163a
00000380: cd57 253e 27fa c3bd b73f 4fb9 00a4 e3bb
00000390: f05f 2ebe f2cd ee3d 9826 1bbd 77dc 253d
000003a0: a4bb abbd 2c6c 9cbd 7ca2 24be 09f6 10be
000003b0: 2f38 b6bd ea31 35be 41b5 71ba d0bf 1e3e
000003c0: e6cd 31bd d43c 2cbe f0dd cdbd cd32 f7bd
000003d0: 122c ffbc ae27 423d c341 fdbd ec2f 13be
000003e0: 266b 08bd 4081 cd3b 89df 0d3d 8a0e 50be
000003f0: 8d63 7f3d d1a2 023e a657 f4bd 1a9d d7bd

layer5.bn1.weight f4 [16]
1.0152093 0.99206454 1.0035412 0.9996367 0.9760883 0.99808615 1.002532 0.9910169
0.98059607 0.99896705 0.99469507 1.0122156 1.0268403 0.9884169 0.99855196 1.0167627
00000000: 61f2 813f f1f7 7d3f 0a74 803f 31e8 7f3f
00000010: ece0 793f 9382 7f3f f852 803f 49b3 7d3f
00000020: 5808 7b3f 4ebc 7f3f 56a4 7e3f 4890 813f
00000030: 816f 833f e408 7d3f 1aa1 7f3f 4825 823f

layer5.bn1.bias f4 [16]
0.02266552 0.002045965 0.006101808 0.0099231405 -0.018737957 -0.011332588 0.006912147 -0.005688575
0.017355543 -0.004865236 -0.0025504285 0.004408446 0.0353215 0.010771117 -0.007689964 0.0027860142
00000000: 0aad b93c 9915 063b adf1 c73b ab94 223c
00000010: 5880 99bc 52ac 39bc 4b7f e23b 3a67 babb
00000020: 362d 8e3c 8f6c 9fbb 1725 27bb ba74 903b
00000030: 47ad 103d 5779 303c 18fc fbbb 9095 363b

layer5.bn1.running_mean f4 [16]
-0.16407108 0.03327628 -0.09699752 -0.2367506 0.021948691 0.08108009 0.10581538 0.021138497
0.06788778 -0.12422736 -0.11098436 -0.22811313 -0.047422938 0.04416252 -0.19198087 0.07777118
00000000: 4002 28be b54c 083d a3a6 c6bd c06e 72be
00000010: becd b33c 510d a63d bcb5 d83d a42a ad3c
00000020: c008 8b3d ea6a febd c54b e3bd 7d96 69be
00000030: 8e3e 42bd c2e3 343d a296 44be 7f46 9f3d

layer5.bn1.running_var f4 [16]
0.47885683 0.48071924 0.57520604 0.48158613 0.49487263 0.4694477 0.4507735 0.468233
0.47856385 0.5150213 0.4855266 0.53742933 0.46887454 0.47492585 0.5939795 0.47731993
00000000: b92c f53e d520 f63e b440 133f 7592 f63e
00000010: f25f fd3e 735b f03e c9cb e63e 3cbc ef3e
00000020: 5206 f53e 70d8 033f f196 f83e f894 093f
00000030: 5310 f03e 7b29 f33e 0a0f 183f 4763 f43e

layer5.conv2.weight f4 [16, 16, 1, 3]
-0.10118162 0.104910925 0.008149606 0.10695648 0.07113989 0.08815339 -0.07615006 0.063701294
-0.05603811 0.09411185 0.030619157 -0.10992169 -0.14103001 -0.16940123 0.11819094 -0.0362551
0.075190894 -0.09666763 0.109579206 0.007347292 0.0043050935 -0.009959264 -0.05806501 -0.06840247
-0.113465846 -0.005216727 -0.038784303 -0.08855336 -0.04758501 -0.07549209 0.12937643 -0.13912944
0.021962019 0.0049754074 -0.11238411 0.029995639 -0.065817244 -0.09222848 -0.024005339 0.08571609
-0.098491386 -0.062371947 0.051486906 0.07149612 0.021695262 -0.05277895 -0.20624341 0.046506647
-0.042719938 0.017494103 0.0172464 0.11266409 -0.14706157 -0.1265831 0.1034056 -0.08773318
-0.0750338 0.08381102 -0.015612366 -0.025801381 0.111794546 -0.007894054 -0.008306842 -0.0005202587
-0.095829815 -0.012488888 -0.08245036 0.06066509 0.08279419 -0.14272083 -0.055608753 -0.064907886
0.04387 -0.007103737 0.007178702 -0.069724075 -0.055697523 0.015688945 0.11219652 -0.09966699
0.04781634 0.06121986 -0.1444936 0.13156532 -0.096359365 -0.00020235032 0.11247171 -0.021637253
-0.12862924 0.07790481 -0.12674639 -0.077330604 0.065068394 0.12696026 0.113102354 0.07776781
0.011254919 -0.13972436 0.05500416 0.03796003 0.030666992 -0.018170303 -0.0036690119 0.023966301
0.0834785 -0.05396513 -0.05598299 -0.11514 0.03830601 0.027749965 -0.0115614375 -0.09446355
0.050360005 0.047395386 -0.10514067 0.11279581 -0.11453536 0.0071576517 -0.11717363 0.0774393
0.100957245 -0.120086834 0.0495145 0.12688413 0.06408404 -0.06263716 0.014631744 0.025607178
-0.0780153 0.052545883 -0.110970356 0.01273327 0.056350797 0.13203081 0.14200355 0.05734004
0.08127522 -0.12749974 0.08696905 -0.09993434 -0.1321673 0.001726444 -0.058527257 -0.055572487
-0.1280994 -0.11166487 -0.08330872 0.12684152 -0.009909788 -0.016634554 -0.020601587 -0.12900889
-0.097377054 -0.058080513 -0.14261957 0.042150244 -0.10952351 0.067692995 0.030472055 0.06369783
0.11564052 0.05548876 -0.13361499 0.066523746 -0.13833931 0.06805207 -0.004749747 -0.12543283
-0.012030809 -0.090407684 -0.07607562 -0.108944006 -0.09524846 -0.10504714 -0.044854276 -0.119595684
-0.020329047 0.06867544 -0.12040945 -0.053117853 0.006182756 -0.0010711558 0.0006479844 -0.12062749
0.1368757 0.104641445 0.07542678 0.03781343 -0.10655604 0.09521368 0.07044818 -0.08709448
-0.037322138 -0.08378326 -0.0583147 0.021403834 -0.021521967 0.10288967 -0.14248613 0.064425595
-0.0814111 -0.12857069 -0.017365588 -0.069316864 0.020574693 -0.11284138 0.03740164 0.08318037
0.05286808 0.08709199 0.055958472 0.06283932 0.05537083 0.036453523 -0.101145595 0.10540905
0.009341744 -0.027630543 -0.065927364 -0.023084857 -0.14194632 -0.04903074 0.13892885 -0.12793408
-0.014931022 -0.045060467 0.07289716 -0.10884288 0.031257316 0.22266285 -0.07398457 0.09431501
0.08123236 -0.12606776 -0.058234178 -0.1232494 -0.10440106 -0.110176995 -0.16473804 0.047424916
-0.1072207 -0.013037354 -0.019067276 0.0026769242 -0.024130572 0.11599945 0.030394506 -0.02632637
-0.06494746 -0.08162131 0.07285522 0.06561572 0.09214769 -0.050500423 -0.11672376 0.09452847
00000000: 4f38 cfbd 8adb d63d ed85 053c 000c db3d
00000010: cab1 913d c489 b43d 90f4 9bbd d375 823d
00000020: 3888 65bd b7bd c03d 07d5 fa3c 9f1e e1bd
00000030: 2c6a 10be 8477 2dbe 170e f23d 3a80 14bd
00000040: affd 993d aef9 c5bd 106b e03d 8dc1 f03b
00000050: be11 8d3b 2e2c 23bc 93d5 6dbd 9816 8cbd
00000060: c860 e8bd 14f1 aabb 4adc 1ebd 775b b5bd
00000070: 80e8 42bd 999b 9abd 417b 043e f377 0ebe
00000080: b1e9 b33c be08 a33b a429 e6bd 6ab9 f53c
00000090: 31cb 86bd 49e2 bcbd d8a6 c4bc eb8b af3d
000000a0: dab5 c9bd ba79 7fbd efe3 523d 8f6c 923d
000000b0: 43ba b13c be2e 58bd 7931 53be c17d 3e3d
000000c0: 1afb 2ebd cb4f 8f3c 5248 8d3c 6ebc e63d
000000d0: 4f97 16be 009f 01be 51c6 d33d 74ad b3bd
000000e0: 52ab 99bd 1da5 ab3d 02cb 7fbc 6b5d d3bc
000000f0: 8af4 e43d 1056 01bc 6c19 08bc f861 08ba
00000100: 6c42 c4bd 319e 4cbc bcdb a8bd f57b 783d
00000110: 0090 a93d 6925 12be 01c6 63bd 6dee 84bd
00000120: 07b1 333d 77c6 e8bb 513b eb3b 7fcb 8ebd
00000130: 1623 64bd 1a86 803c 4ac7 e53d 351e ccbd
00000140: 11db 433d adc1 7a3d 21f6 13be 0fb9 063e
00000150: 0f58 c5bd 002e 54b9 9157 e63d 9c40 b1bc
00000160: 62b7 03be 8f8c 9f3d cec9 01be 825f 9ebd
00000170: 9442 853d df01 023e 35a2 e73d bb44 9f3d
00000180: 8d66 383c e713 0fbe 0b4c 613d fa7b 1b3d
00000190: 5839 fb3c e3d9 94bc ce73 70bb fa54 c43c
000001a0: c7f6 aa3d 8a0a 5dbd 6b4e 65bd 85ce ebbd
000001b0: c3e6 1c3d e553 e33c 2f6c 3dbc 1b76 c1bd
000001c0: 4b46 4e3d aa21 423d fe53 d7bd 7d01 e73d
000001d0: 8491 eabd bc8a ea3b baf8 efbd 7f98 9e3d
000001e0: acc2 ce3d 16f0 f5bd b7cf 4a3d eaed 013e
000001f0: 7e3e 833d e947 80bd fbb9 6f3c 25c6 d13c
00000200: 7cc6 9fbd 5a3a 573d 6d44 e3bd 359f 503c
00000210: 18d0 663d 1633 073e 6169 113e 64dd 6a3d
00000220: 9f73 a63d 4b8f 02be d41c b23d 60aa ccbd
00000230: dd56 07be d949 e23a 47ba 6fbd fa9f 63bd
00000240: 7d2c 03be 8db0 e4bd c39d aabd bee2 013e
00000250: aa5c 22bc 3045 88bc a9c4 a8bc e81a 04be
00000260: 9f6d c7bd d5e5 6dbd dd0a 12be bca5 2c3d
00000270: dd4d e0bd a0a2 8a3d 88a0 f93c 0274 823d
00000280: f0d4 ec3d 2f48 633d 5ed2 08be 9a3d 883d
00000290: d2a8 0dbe e25e 8b3d c4a3 9bbb 7771 00be
000002a0: df1c 45bc aa27 b9bd 89cd 9bbd 091e dfbd
000002b0: a011 c3bd f422 d7bd 1eb9 37bd 95ee f4bd
000002c0: 1a89 a6bc b6a5 8c3d 3b99 f6bd 1b92 59bd
000002d0: b798 ca3b 0666 8cba 7fdd 293a 8c0b f7bd
000002e0: 2529 0c3e 414e d63d 5b79 9a3d 41e2 1a3d
000002f0: 0e3a dabd 64ff c23d 2347 903d 975e b2bd
00000300: 19df 18bd 8f96 abbd 65db 6ebd 1857 af3c
00000310: d64e b0bc d2b7 d23d e2e7 11be 91f1 833d
00000320: ddba a6bd 09a8 03be 4742 8ebc 00f6 8dbd
00000330: 428c a83c 6219 e7bd 7632 193d 785a aa3d
00000340: 338c 583d 495d b23d b634 653d e7b1 803d
00000350: 86cc 623d 4a50 153d 6c25 cfbd b3e0 d73d
00000360: 1d0e 193c 7359 e2bc ed04 87bd 741c bdbc
00000370: 605a 11be 75d4 48bd 5d43 0e3e 2701 03be
00000380: 3fa1 74bc 5391 38bd 1b4b 953d 04e9 debd
00000390: ac07 003d bb01 643e 3985 97bd 3a28 c13d
000003a0: 275d a63d e817 01be f686 6ebd 2e6a fcbd
000003b0: 39d0 d5bd 7aa4 e1bd 17b1 28be a140 423d
000003c0: 8796 dbbd a09a 55bc fa32 9cbc 566f 2f3b
000003d0: 7aad c5bc 1f91 ed3d e6fd f83c 66aa d7bc
000003e0: 2d03 85bd 1329 a7bd 1e35 953d 8961 863d
000003f0: eeb7 bc3d 88d9 4ebd de0c efbd 2498 c13d

layer5.bn2.weight f4 [16]
0.9953348 1.0023159 1.0078422 0.97344226 0.983497 0.97837216 1.0107653 1.0546398
1.0203418 1.0045379 1.0059829 1.0358989 1.0234007 0.98232925 1.0429558 1.0273064
00000000: 43ce 7e3f e34b 803f f900 813f 8333 793f
00000010: 76c6 7b3f 9976 7a3f c260 813f 70fe 863f
00000020: 8f9a 823f b394 803f 0cc4 803f 5698 843f
00000030: cbfe 823f ee79 7b3f 937f 853f c77e 833f

layer5.bn2.bias f4 [16]
-0.034982685 -0.011110146 0.010150987 -0.046711475 5.2905616e-05 -0.07201012 0.027557014 0.053151913
0.056663755 0.029571122 0.011065558 0.113124326 0.03704496 -0.02806726 0.056232594 0.059198864
00000000: 014a 0fbd 5407 36bc 5350 263c 8854 3fbd
00000010: f9e6 5d38 0b7a 93bd 3fbf e13c d2b5 593d
00000020: 4118 683d 233f f23c 504c 353c baad e73d
00000030: 75bc 173d 4fed e5bc 2654 663d 827a 723d

layer5.bn2.running_mean f4 [16]
-0.08811737 -0.13999714 -0.03373399 -0.07671709 -0.049978096 -0.024050323 -0.022980161 0.056837164
-0.101058766 -0.04347673 -0.013573746 -0.052582376 0.069573276 -0.03271251 0.08890607 0.029731954
00000000: e176 b4bd 695b 0fbe a72c 0abd da1d 9dbd
00000010: d5b5 4cbd 2f05 c5bc e440 bcbc 16ce 683d
00000020: e6f7 cebd a814 32bd 6b64 5ebc 9e60 57bd
00000030: 6f7c 8e3d 8efd 05bd 6314 b63d 6d90 f33c

layer5.bn2.running_var f4 [16]
0.48216853 0.4532794 0.45347142 0.4983429 0.45382932 0.46154487 0.44337747 0.4479175
0.4554343 0.45138463 0.47217694 0.46468037 0.45793 0.44217852 0.48616704 0.46320212
00000000: cbde f63e 3d14 e83e 682d e83e cd26 ff3e
00000010: 515c e83e 9c4f ec3e 5f02 e33e 7155 e53e
00000020: af2e e93e e31b e73e 2dc1 f13e 96ea ed3e
00000030: cd75 ea3e 3965 e23e e3ea f83e d428 ed3e

layer5.fc1.weight f4 [4, 16]
-0.1009568 -0.14029595 0.02185846 -0.20291732 -0.044722605 0.17734222 0.029369852 -0.11979565
-0.07399488 -0.00645437 -0.1682011 0.18925214 -0.2162417 0.1585243 -0.2383809 -0.07293496
-0.0018786455 -0.08082776 0.057864156 -0.13670452 0.2115284 -0.02723963 -0.12718438 -0.12588876
-0.20224926 -0.13725679 0.031202914 -0.0659527 0.24499838 -0.07271539 -0.19241545 0.00475276
-0.07555243 -0.03039002 0.029564153 -0.19473931 0.1903786 0.014865694 -0.23611455 0.20633624
0.22642025 -0.20137572 -0.042624135 -0.04923885 0.21547431 -0.24033174 -0.21157147 -0.1286672
0.0034794046 -0.10505892 -0.17110711 -0.08603406 -0.16948435 -0.12655555 -0.223362 0.13357888
-0.01086915 -0.0042659896 -0.22526358 -0.13386092 -0.0024988025 0.12422337 -0.03844196 -0.045245875
00000000: 70c2 cebd bea9 0fbe 8310 b33c 8fc9 4fbe
00000010: 0d2f 37bd 3399 353e 0b99 f03c 6c57 f5bd
00000020: a18a 97bd 2e7f d3bb e93c 2cbe 50cb 413e
00000030: 776e 5dbe 3254 223e 1f1a 74be ed5e 95bd
00000040: e23c f6ba 0689 a5bd f702 6d3d 45fc 0bbe
00000050: e79a 583e a525 dfbc 9f3c 02be fce8 00be
00000060: 6e1a 4fbe 0b8d 0cbe 419d ff3c 3612 87bd
00000070: dbe0 7a3e ceeb 94bd 8e08 45be 0abd 9b3b
00000080: 3bbb 9abd 7ef4 f8bc 8630 f23c be69 47be
00000090: 9cf2 423e 3d8f 733c 03c8 71be cf49 533e
000000a0: b6da 673e 7035 4ebe a596 2ebd adae 49bd
000000b0: 4ca5 5c3e 8619 76be 31a6 58be 56c1 03be
000000c0: b906 643b 2229 d7bd b436 2fbe a032 b0bd
000000d0: 4e8d 2dbe c797 01be 02b9 64be e7c8 083e
000000e0: 8514 32bc b7c9 8bbb 7fab 66be d612 09be
000000f0: f3c2 23bb d268 fe3d 5175 1dbd bd53 39bd

layer5.fc1.bias f4 [4]
0.09254781 -0.1713929 -0.09620105 -0.02748063
00000000: b589 bd3d 9f81 2fbe 0e05 c5bd 0f1f e1bc

layer5.fc2.weight f4 [16, 4]
0.059893433 0.26923588 0.1383145 0.32470748 0.107316345 0.04860101 -0.13475865 0.28888297
-0.19959277 -0.36149785 -0.32025898 -0.36141974 0.3808533 -0.2577227 0.038319837 0.3788738
0.4251879 -0.33445603 -0.39312145 -0.18060715 0.20585693 -0.36992908 -0.069701165 -0.23044136
-0.32148084 0.48191112 0.11369463 0.2433932 -0.39623505 -0.13155796 -0.18160225 0.07774456
-0.35182562 0.27945992 -0.33507326 -0.33097088 0.08720287 0.034300778 0.30931103 -0.1793949
-0.1007293 0.40044746 -0.21252708 0.4324091 0.15621094 -0.20245299 0.36738488 -0.33901852
0.22487387 -0.2663579 -0.27546063 0.13410984 0.49338436 0.29760122 0.18245146 -0.29701486
-0.27868345 0.32541776 0.021883052 0.34586862 0.30902547 0.4370262 0.14064276 0.43215764
00000000: d152 753d 49d9 893e 51a2 0d3e 0f40 a63e
00000010: acc8 db3d da11 473d 2cfe 09be 78e8 933e
00000020: 0c62 4cbe 3f16 b9be fcf8 a3be 020c b9be
00000030: 34ff c23e 3bf4 83be 43f5 1c3d bffb c13e
00000040: 3ab2 d93e d23d abbe 3747 c9be 15f1 38be
00000050: 29cc 523e 5867 bdbe 7cbf 8ebd d2f8 6bbe
00000060: 2399 a4be 0ebd f63e bbd8 e83d 113c 793e
00000070: 52df cabe 21b7 06be f1f5 39be 8a38 9f3d
00000080: 7d22 b4be 5f15 8f3e b98e abbe 0475 a9be
00000090: 6b97 b23d f97e 0c3d 045e 9e3e 4cb3 37be
000000a0: 2a4b cebd 7307 cd3e b3a0 59be ba64 dd3e
000000b0: c3f5 1f3e d64f 4fbe df19 bc3e d693 adbe
000000c0: 5645 663e 1060 88be 2d09 8dbe 1754 093e
000000d0: e09c fc3e 305f 983e 8ed4 3a3e 5512 98be
000000e0: 99af 8ebe 289d a63e 1644 b33c b115 b13e
000000f0: 9638 9e3e e6c1 df3e a804 103e c443 dd3e

layer5.fc2.bias f4 [16]
0.35201296 -0.26433668 -0.31848696 0.48167333 -0.07764569 0.16988324 0.021807909 -0.059319332
-0.4391013 0.14304961 0.051684465 -0.08699464 0.2435931 -0.21049841 -0.29391834 0.24637502
00000000: 0b3b b43e 2357 87be b910 a3be e39d f63e
00000010: b404 9fbd dff5 2d3e 80a6 b23c d4f8 72bd
00000020: e3d1 e0be 997b 123e 17b3 533d 3f2a b2bd
00000030: 7870 793e e58c 57be 777c 96be bc49 7c3e
