das_new - 副本/models/20260105_195658/best_model.pth (torch, 98946 bytes, 176 tensors)

input_conv.weight f4 [4, 1, 1, 3]
00000000: 1546 a33d 70b3 04bf 48c1 47be 5934 103f
00000010: b976 a83d 5dff 393e 35a3 e8be 9a46 783d
00000020: 6ce1 0c3f 1de5 0e3f 350f 7f3c f8b8 fabe
0.079723515 -0.518363 -0.19507325 0.56329876 0.082257695 0.1816382 -0.45437017 0.060614206
0.55031466 0.5581835 0.0155675905 -0.48969245

input_bn.weight f4 [4]
00000000: e8e4 7f3f 9cae 633f 0c4b 903f 13ff 7a3f
0.9995866 0.8893831 1.1272902 0.9804546

input_bn.bias f4 [4]
00000000: 1ea0 b3bc f810 1f3c 3fb8 86ba a2ef a63c
-0.021926936 0.0097086355 -0.0010278298 0.020377938

input_bn.running_mean f4 [4]
00000000: c455 b23b 7463 66ba 4714 e2b9 7dce 7ab9
0.005442353 -0.00087886234 -0.00043121187 -0.00023918781

input_bn.running_var f4 [4]
00000000: 1dc4 123f 984a de3e ebfb dc3e 6386 dc3e
0.57330495 0.43416286 0.43160948 0.4307128

layer1.conv1.weight f4 [4, 4, 1, 3]
00000000: dbbe 113e 2978 e1bc 550a f6bc 6d3d a2bd
00000010: b4a8 b33d f745 303e defb c83d e20c 843e
00000020: 3f9a eabd 495e 4abe 7600 2ebe 033d 0d3d
00000030: 08c3 f73d 6268 7d3e 32af 59be 31f4 693e
00000040: 5c78 a83d e607 cebd e4fc 65be 7a63 5bbb
00000050: 006d 8fbe bec0 483e f5fb 17be 3ac8 093e
00000060: b0de 82be b31f f4bb 84ed 93bd ae12 783d
00000070: a26f 283e 4148 32be 257c 7e3e 0621 e63d
00000080: beba 4abe f581 8f3e 0f2e 023e 457d 2f3d
00000090: 4283 2dbe 8941 34be 769a e1bd b0b4 00be
000000a0: e362 d73d 43c3 23be c70c 1b3e 0075 7d3e
000000b0: a608 0bbd fe5b 413e 50f6 303d 6e72 cbbd
0.14232962 -0.027523117 -0.030034224 -0.07921872 0.08772412 0.1721419 0.09813665 0.2579108
-0.11455201 -0.1976253 -0.16992363 0.034482013 0.12097746 0.2474685 -0.21258238 0.22847058
0.08226082 -0.100601 -0.22459751 -0.003347604 -0.28012848 0.19604775 -0.14842208 0.13455287
-0.25560522 -0.007450068 -0.07223037 0.06056469 0.16448835 -0.17410375 0.24852045 0.112367675
-0.19797799 0.28028837 0.12712882 0.042844076 -0.16944602 -0.17603125 -0.11015789 -0.12568927
0.10516908 -0.15992455 0.15141593 0.24751663 -0.033943795 0.18882748 0.043203652 -0.09933935

layer1.bn1.weight f4 [4]
00000000: ea8c 783f 23fa 803f 94cd 7b3f 8ab9 843f
0.9709002 1.0076336 0.9836056 1.0369122

layer1.bn1.bias f4 [4]
00000000: 4363 70bb 0341 1e3c d948 e3bb 2a4b 603c
-0.0036680258 0.009659055 -0.0069361744 0.0136897955

layer1.bn1.running_mean f4 [4]
00000000: 1971 233d 502c 433d 51a5 b73d 7cd7 8d3c
0.03990278 0.04764968 0.089670785 0.017314665

layer1.bn1.running_var f4 [4]
00000000: 1fd5 e13e 6933 e03e a7f1 f43e 9c1e ef3e
0.4410791 0.43789223 0.47840616 0.4670304

layer1.conv2.weight f4 [4, 4, 1, 3]
00000000: 3676 e0bd 08ce c63d 8b01 283d 977c b43d
00000010: 0bfa 183e f6ef 81be 109a d93d c33d a43c
00000020: c013 1cbe b844 883e f47f 723e c2f4 ebbd
00000030: 6199 8fbd caa1 d2bc 124c 80be a3fc 513d
00000040: 8d30 8cbe d09b 873e cbbd 11be 82a1 7cbe
00000050: 159b 86bd df10 6dbe 4b13 6f3e 4c59 88bd
00000060: 749e 8d3d 59fe 0f3e ecd5 a23d 2ec3 653d
00000070: 9240 263d e304 703e 505d 0c3e ef7a 043e
00000080: 6850 4ebd 9afb 573c e4cd 923d 1754 453e
00000090: 41d9 873c 92e3 04be 5bd7 093e 2f6b 24be
000000a0: 1b02 96be e317 193d f615 a4bd 2f96 50be
000000b0: 512c 7d3e 61db 293e 03a6 9cbe e715 933e
-0.10960047 0.09707266 0.041017096 0.08812826 0.14939134 -0.25378388 0.10625088 0.020048982
-0.15241909 0.26614928 0.23681623 -0.11521293 -0.070116766 -0.025711913 -0.25058037 0.051266324
-0.2738079 0.26486063 -0.14232557 -0.24670985 -0.06572548 -0.23150967 0.23347203 -0.06657657
0.06914988 0.1406187 0.079509586 0.05609434 0.040588923 0.23439364 0.13707471 0.1293752
-0.05036965 0.013182545 0.07168177 0.19270359 0.016583087 -0.12977436 0.13461058 -0.16056512
-0.2929848 0.037376296 -0.08012001 -0.2036979 0.24723937 0.16587593 -0.30595407 0.28727648

layer1.bn2.weight f4 [4]
00000000: cec2 7b3f d647 7c3f 1590 863f 22d9 833f
0.98344123 0.9854711 1.051272 1.0300639

layer1.bn2.bias f4 [4]
00000000: 6a41 423c 294f c23b 2fc3 8f3c af02 883d
0.011856416 0.005929847 0.017549125 0.06641137

layer1.bn2.running_mean f4 [4]
00000000: 3707 e63d d7d4 94bd ec04 ae3d 1c48 08be
0.11231845 -0.072671585 0.084970325 -0.13308758

layer1.bn2.running_var f4 [4]
00000000: 0b41 e93e 7812 e43e cbc7 ef3e a59b f03e
0.45557436 0.4454534 0.46832117 0.46993747

layer1.fc1.weight f4 [1, 4]
00000000: 6b43 73be e190 c63e e8b3 b2be 9183 af3e
-0.23756187 0.3878241 -0.34902883 0.34280065

layer1.fc2.weight f4 [4, 1]
00000000: 47ad 73bf c767 863d b8cc 35bf 8675 e1be
-0.95186275 0.06562763 -0.710155 -0.44034976

layer1.fc2.bias f4 [4]
00000000: 8dc8 2a3e 016b 0a3f 044c d2be ae71 3abf
0.16678067 0.54069525 -0.4107362 -0.7282971

layer1.shortcut.0.weight f4 [4, 4, 1, 1]
00000000: e44b ab3e 49e3 313d 1feb 07bd d7df f03e
00000010: 4b74 a13e fcf0 8e3e 5eba d1be 7883 ab3e
00000020: fb30 a83e a90b b43e 834c 5c3e 4a40 a73e
00000030: b516 9bbe 6782 ce3d 5f09 24bf 6c05 1dbe
0.33456337 0.043429647 -0.033183213 0.47045776 0.31534037 0.2791823 -0.409625 0.3349874
0.3284987 0.35165146 0.21513562 0.32666236 -0.30290762 0.10083466 -0.640768 -0.153341

layer1.shortcut.1.weight f4 [4]
00000000: 38c7 7d3f d8ce 7e3f a93c 863f 9a76 803f
0.9913211 0.9953437 1.0487262 1.0036194

layer1.shortcut.1.bias f4 [4]
00000000: 7ef0 373c 525e f9bb baf9 bc3c 11f9 913d
0.011226771 -0.007610121 0.023068298 0.07127584

layer1.shortcut.1.running_mean f4 [4]
00000000: fc9d 2d3e a196 ef3d cf85 8c3e edce eabd
0.16954798 0.11698652 0.27445838 -0.11465249

layer1.shortcut.1.running_var f4 [4]
00000000: c8b2 ec3e c536 e23e 8400 1e3f 81e7 ee3e
0.4623015 0.4418241 0.61719537 0.46660998

layer2.conv1.weight f4 [4, 4, 1, 3]
00000000: 0f01 29bb ee54 cb3c d0b8 37bd 0af0 20be
00000010: 37b6 91be 0a24 923d abfc 88be a19d c6be
00000020: 47dc 1bbe 4321 683e 6e8c 3f3e 399d 843d
00000030: b177 2bbd ec71 50be ed35 8b3e 5367 513e
00000040: 6ce2 5bbd 5990 cabd 58a3 713c b935 bcbd
00000050: 28c9 5fbc 2399 4e3e 3ee0 573e c26f 5a3e
00000060: 4617 9b3c 427e 833e fd98 49be db2a 003e
00000070: 49bc 45be 93c1 88be 82cf 803e bb45 933e
00000080: d632 69be fae8 36be c1ee 9fbc 3d8a 563d
00000090: 265c 563e 33ca 743e e925 e1bd b38d 6f3e
000000a0: 0ca4 d73d 8004 2abe 44ec 22be 6752 d6b9
000000b0: 94c0 313e 80fb 43bd 87cd 263d e8e7 89be
-0.0025787984 0.024820771 -0.044853985 -0.15716568 -0.2845933 0.0713578 -0.2675527 -0.38792136
-0.15220748 0.22668938 0.18705913 0.064753 -0.041862193 -0.20355958 0.2718958 0.20449571
-0.05368273 -0.098908134 0.014748417 -0.09189934 -0.013658799 0.20175605 0.21081635 0.21331695
0.018931996 0.25682265 -0.19687267 0.12516348 -0.19310106 -0.26710185 0.25158316 0.28764138
-0.22773299 -0.17862311 -0.019523026 0.052377928 0.2093359 0.23905258 -0.10993559 0.23393898
0.10529336 -0.16603279 -0.1591044 -0.00040878655 0.17358619 -0.04784727 0.04072335 -0.26934743

layer2.bn1.weight f4 [4]
00000000: 92b4 7f3f 4d12 833f 5dc5 783f 008c 803f
0.99884903 1.023996 0.9717615 1.0042725

layer2.bn1.bias f4 [4]
00000000: 375c 2fbc d6e9 213d ee1f 02bb e54f f43b
-0.010703138 0.039529644 -0.0019855457 0.007455813

layer2.bn1.running_mean f4 [4]
00000000: 4ace 2fbd b55b 59bb 8a40 fb3d 28db ff3d
-0.042921342 -0.0033166234 0.12268169 0.124929726

layer2.bn1.running_var f4 [4]
00000000: 5885 263f 28d0 093f d331 223f 8006 053f
0.65047216 0.53833246 0.63357276 0.51963043

layer2.conv2.weight f4 [4, 4, 1, 3]
00000000: a9b4 193e f0ec 353e 5bdd 44be 7217 803e
00000010: 4d46 89be bd0b 0e3d 7faf 1f3d 2ac9 563e
00000020: 1925 80be 8443 c9bd 3803 d03d f461 173e
00000030: a04c 963d 4b4d 0bbe f42f 3fbe 5b0d 65be
00000040: d319 a9be a193 83be d12c 333c 1ee4 33bd
00000050: 3daf 363e 1b4e 12be 8693 7abe 4d37 a03d
00000060: 3df2 863e 0e00 39be 9b71 07be 261f 6e3e
00000070: 0a79 a33d 4893 8e3e 6bb0 75bb f6e0 a7be
00000080: 7234 5abe 5125 913a 89ab 31bc ec58 6cbe
00000090: 4957 233e 79c5 903d a912 033e 5fe7 1dbe
000000a0: fc53 ce3d 3cf9 ae3d cecb e23b 8b29 7abe
000000b0: fb69 0c3d 9712 00be bf00 44bd d0c7 67bc
0.15010323 0.17766166 -0.19225065 0.25017887 -0.26811448 0.034679163 0.038985725 0.20975175
-0.25028303 -0.09827331 0.10156864 0.1478346 0.07338834 -0.13603704 -0.18670636 -0.22368376
-0.33027515 -0.2569857 0.010935978 -0.04391872 0.17840286 -0.14287607 -0.24470338 0.07823048
0.26356688 -0.18066427 -0.13226931 0.2325407 0.07982071 0.27846742 -0.0037489187 -0.3278882
-0.21309069 0.0011073743 -0.01084412 -0.23080796 0.15951265 0.07068915 0.12800087 -0.15420292
0.100746125 0.085436314 0.006921268 -0.2442991 0.03428076 -0.12507091 -0.047852274 -0.01414676

layer2.bn2.weight f4 [4]
00000000: 0d02 783f 9f5e 7a3f 1cd2 763f 003a 7d3f
0.9687813 0.9780063 0.9641435 0.98916626

layer2.bn2.bias f4 [4]
00000000: d1fd b9bb 40eb af3c 0ee5 0a3d 0b69 93bb
-0.005676009 0.02147448 0.03390985 -0.004498606

layer2.bn2.running_mean f4 [4]
00000000: 5dab 1a3d ac8d c5bd 01a1 a3bd fe02 20bd
0.03776108 -0.096461624 -0.079896934 -0.039065354

layer2.bn2.running_var f4 [4]
00000000: 4035 f73e f3b1 e33e 7954 ea3e 1a91 f03e
0.48282814 0.44471702 0.45767573 0.46985704

layer2.fc1.weight f4 [1, 4]
00000000: befe afbe 3711 153d f409 27bd 462c b8be
-0.3437404 0.03639337 -0.040780976 -0.35971278

layer2.fc2.weight f4 [4, 1]
00000000: de1d 013e ae7d 743f 28fe 3c3e 3607 783e
0.1260905 0.9550427 0.18456328 0.24221501

layer2.fc2.bias f4 [4]
00000000: d91c 7d3f 5432 85be 5ec2 2f3f 870d 773f
0.98872143 -0.2601496 0.68655956 0.96505016

layer3.conv1.weight f4 [8, 4, 1, 3]
00000000: 1028 73be 7ee2 05bd 816d 8b3e 03b7 7f3e
00000010: be4c f9bd 0ef4 573e 4b7f 11bc a1a1 d4be
00000020: 5924 863d da1c d63d cf62 b5bd fd93 4e3e
00000030: 9324 733e 1a72 9d3e d4bd b4bd b6a9 5fbe
00000040: d189 5a3e e621 8bbe 4fdd 85bd dd80 23be
00000050: 0996 883d 8365 913e d3b1 1abe a08c 19be
00000060: 55a5 563d 0d1a 83bd 62f7 683d 6cc1 7ebe
00000070: 5b34 e1bd 6a14 76be 4415 83be d8f8 48be
00000080: 2438 19be 3b0c 3d3e 644e 03be 5018 893e
00000090: 14ed 0d3e 9bce 833e 777e 51bd d8d2 14be
000000a0: 059b 923e fe58 9cbd 3aa8 41be 23c1 34be
000000b0: d316 56be b341 4b3d 1f5c 613e 41fa 50be
000000c0: da74 74be 82b1 74bd aca6 2e3e b2f7 75be
000000d0: 16db 80bc 8ed0 893e c77f 89be 7136 69be
000000e0: 2537 89be 2385 8fbd 8305 6e3e 0386 41bd
000000f0: bb86 5a3d d121 6d3e fb9b 10bd 17fa 203d
00000100: 45ce 1e3e b111 483e f4d1 773e ef17 a53e
00000110: f7d2 433d 3423 52be 9e98 fe3d 1c3f eb3d
00000120: ff21 6cbc 2357 4bbe 1ecc d03d ebc2 5a3e
00000130: 8740 fbbd 8a2b b03d e023 6abd 47c4 e03d
00000140: b260 85be 3349 593d 3e1c 603e 1708 633e
00000150: c87b 6c3d 24ae 32bd 94ed 8e3e 4197 053e
00000160: b37a 513e 6d3e b83d 20a7 50be 45f7 adbe
00000170: 1b75 063c a6f9 8ebe 8efa 50be 37e5 7b3e
-0.23745751 -0.032686703 0.27231982 0.24972157 -0.121728405 0.21089193 -0.008880447 -0.41529563
0.065499015 0.10454722 -0.08856737 0.2017364 0.2374442 0.30751115 -0.08825269 -0.21842083
0.21341635 -0.271743 -0.06536352 -0.15967126 0.06669242 0.2839776 -0.15106897 -0.1499505
0.052403767 -0.06401453 0.056876548 -0.24878472 -0.10996314 -0.24031225 -0.25602162 -0.19626176
-0.14962822 0.18461697 -0.12822872 0.2677636 0.1385997 0.25743565 -0.051145997 -0.14533556
0.28633896 -0.076341614 -0.1891183 -0.17651801 -0.20907144 0.049623203 0.22007798 -0.20407964
-0.238727 -0.059739597 0.17055768 -0.2402027 -0.015729468 0.26916927 -0.268553 -0.22774674
-0.26799884 -0.07007816 0.2324429 -0.047246944 0.053351145 0.23157431 -0.035305005 0.039301004
0.15508373 0.19537999 0.24201185 0.32244822 0.047808614 -0.20521241 0.12431453 0.114866465
-0.014412402 -0.19857459 0.10195182 0.21363418 -0.12268167 0.086020544 -0.05716312 0.10974937
-0.26050335 0.053048324 0.21885774 0.22171055 0.057735234 -0.043623105 0.27915633 0.1304598
0.20456962 0.08996282 -0.20376253 -0.33977714 0.008206631 -0.27924842 -0.20408079 0.24599157

layer3.bn1.weight f4 [8]
00000000: c97e 793f bc38 803f 1878 803f 2f80 7c3f
00000010: 1eed 823f 2a3d 823f bce1 813f 51e8 793f
0.97459084 1.0017314 1.003665 0.9863309 1.0228612 1.0174916 1.0147014 0.9762011

layer3.bn1.bias f4 [8]
00000000: 2b59 a5bb 3c5d 9cbc de57 3b3c 15ca b8bc
00000010: 4916 a23c b019 e43c 1347 faba 7260 00bd
-0.00504603 -0.019087426 0.011434523 -0.022557298 0.019786017 0.02784428 -0.0019094668 -0.031341977

layer3.bn1.running_mean f4 [8]
00000000: 63e2 0bbe 9c27 233d 54a5 35be f724 6b3e
00000010: 82c9 38bd bd39 a43e 8714 c6bc fe3f 20be
-0.13660578 0.039832696 -0.17738849 0.2296332 -0.045114048 0.320753 -0.02417971 -0.15649411

layer3.bn1.running_var f4 [8]
00000000: 8f94 f23e 7a0e 153f 88f8 f63e c8c3 073f
00000010: 0f52 123f 5a03 543f 2cd1 0f3f 5596 fe3e
0.47378966 0.58225214 0.4823649 0.53033113 0.5715646 0.82817614 0.56178546 0.4972407

layer3.conv2.weight f4 [8, 8, 1, 3]
00000000: 71d2 a7bd 0861 28be b3b8 d7bd 58ca a5bd
00000010: fa6a 5b3e 667d 593d eaff bb3d 5a9c 9ebd
00000020: a7f7 ab3c ad71 903d 4461 403e 4e9e a5bd
00000030: 5434 4dbe 3463 21bc 9782 8e3d a8d0 9e3d
00000040: 26d0 a73c c228 f2bd 12a5 243e e9ee e23c
00000050: ed50 86bc d9a7 c7bd dbb7 29bc 4969 45bd
00000060: a8f7 30be 8cbc b5bc fa19 4cbd 3bae 8a3c
00000070: bd6f e73d 6602 e63d 742f 1e3e 0bc4 9b3d
00000080: 0304 2bbe 0d2e 8739 e20b bd3d c065 94bd
00000090: 5303 23be 3fbc 48be a21c 343e 5c72 29bd
000000a0: c361 72be a66f 433d d78e 8cbd cfe5 56be
000000b0: 13ee 59bd 5a96 42be 1b5a 543e 8ace 3dbe
000000c0: ab31 683d 6fe9 393e 11ab 023d a237 05bd
000000d0: 7695 9bbd 73ae e4bc 8e00 433d 48dd 043e
000000e0: e70a 50be d07f 4fbe 2e28 283e 9ff2 23be
000000f0: 8bd5 0d3e 839f b8bd d809 d8bb 06b2 4cbe
00000100: 0323 07be 4f41 383e c785 04bd c55a 05be
00000110: d9ff 9dbd 8c53 af3d cde1 2f3d 5b21 293e
00000120: 62bd 1d3e fcae 363e 302d 013e 7e62 173e
00000130: 472d 2abd 8677 083e f2fc d73d 9257 8b3d
00000140: 80b3 14be a790 933d 65f5 0e3e 3d9b 1c3d
00000150: 5886 b9ba d47b 00bd 383a 1bbe 8be8 79bd
00000160: 70b6 263e 5be5 f43b 811e f83d 5eb4 253d
00000170: 6ca1 a3bc 2523 d13c 75c9 3cbd 5320 7c3d
00000180: cd7b d73c 1ca2 a03d 0d6c 3f3e 17c6 043e
00000190: 75b7 2f3e 4652 e0bc c562 113e 4987 aa3c
000001a0: b4e3 463e 6118 1ebe 20a4 22bd 6062 eebd
000001b0: e67f 0c3e afa9 d13d fda7 20be 55ee 423e
000001c0: 137f 40be 2418 41be 4aca 153e 5d0e 5fbd
000001d0: 7720 53ba dabb 053e b711 df3d b3da 66bd
000001e0: 304b b83d b32d e33c 399a d2bc df7c 07be
000001f0: b19a c3bd 0a9f 1fbe 8e74 32be 16f9 26be
00000200: b47b d03d 977f bb3d 079f 0abe 561d 813d
00000210: bdf1 133d 8e95 bb3d 927a 06be 0a89 59bd
00000220: fb87 f6bd 8984 d63d b131 07be 17ef cd3d
00000230: 470f 033d df68 b4bd 33b6 be3d 6ccf 1b3d
00000240: aa84 03bd bdab 333b 4e94 cfbd e102 38bd
00000250: 8a40 313c 37b0 3abd 08d7 1b3c 1026 f5bd
00000260: fd38 38bd 55dc d73c 343c ab3d 515f ad3d
00000270: cf0f cbbd 6802 53be 8168 b83d d48e 243e
00000280: 256b 523c 3b31 0b3e e531 413e c4cb 05be
00000290: b25e 8bbd 6257 4d3d f33c 353d 0e50 c83d
000002a0: fca1 473e d717 3abd 8d2f 21be c27b cabd
000002b0: 2959 9dbd 3a93 0bbd 2d9d 3d3d eca4 253e
000002c0: 0709 ecbd 12e9 f8bd 1e9a 7cbd 0b9b c33d
000002d0: 5c4e ec3b a4d1 563e 88a3 293e 9a40 07be
000002e0: 660e 7abe a089 e63c d0b1 393e f1d2 413e
000002f0: abce cd3d ce8c 12be 7feb e03d b3e2 adbc
-0.081944354 -0.16443264 -0.105332755 -0.08095235 0.21427527 0.053098105 0.09179671 -0.077446654
0.020992113 0.07052932 0.18787104 -0.08086835 -0.20039493 -0.009850312 0.06958502 0.07754642
0.020484995 -0.1182418 0.16078594 0.027701812 -0.01639601 -0.09748811 -0.010358776 -0.04819611
-0.17281973 -0.022184633 -0.04982946 0.016928783 0.11300609 0.11230926 0.1544779 0.076057516
-0.16700749 0.00025783517 0.09230782 -0.0724597 -0.15919237 -0.1960306 0.17589048 -0.041368827
-0.23670106 0.047713898 -0.06863182 -0.20986103 -0.05320556 -0.19002667 0.20737498 -0.1853582
0.056687992 0.18155454 0.031901423 -0.03252376 -0.07596867 -0.027915215 0.04760795 0.12975037
-0.20316659 -0.202636 0.16421577 -0.16010521 0.13850991 -0.090147994 -0.0065929703 -0.19989786
-0.1319695 0.17993663 -0.032354143 -0.13022907 -0.07714815 0.08560857 0.04293995 0.1651663
0.15404275 0.17840189 0.12614894 0.14783666 -0.041547086 0.13326845 0.10546292 0.06803812
-0.14521599 0.072053246 0.13960798 0.038233984 -0.0014154417 -0.03136809 -0.15158927 -0.061012786
0.16280532 0.0074736304 0.12115193 0.040455215 -0.019974433 0.025529454 -0.046090562 0.061554264
0.02630415 0.0784342 0.18693562 0.1296619 0.17159827 -0.027382981 0.14197834 0.020816462
0.194228 -0.15438987 -0.039707303 -0.11639857 0.13720664 0.10237443 -0.15689082 0.19036229
-0.18798475 -0.18856865 0.14627948 -0.054457057 -0.0008053849 0.13059941 0.10892051 -0.05636091
0.08998716 0.027731752 -0.025708305 -0.13231228 -0.095509894 -0.15588012 -0.17427275 -0.16305956
0.101798445 0.09155195 -0.13537227 0.063044235 0.03611921 0.09159385 -0.13132694 -0.053109206
-0.12037655 0.10474498 -0.1320255 0.100553684 0.03199699 -0.08809065 0.093120955 0.03803961
-0.03210894 0.0027415596 -0.10135709 -0.04492462 0.01081861 -0.045578208 0.009511717 -0.119701505
-0.044976223 0.02635018 0.08361092 0.08465446 -0.099151246 -0.20606387 0.090043075 0.1607011
0.012842928 0.13592999 0.1886669 -0.13066012 -0.06805171 0.050132163 0.04424758 0.09780894
0.19495386 -0.04543289 -0.15740795 -0.09886886 -0.076830216 -0.034075953 0.046292473 0.16176194
-0.11525159 -0.1215383 -0.061670415 0.095510565 0.0072114896 0.20978409 0.16566288 -0.13208237
-0.24419555 0.028141797 0.18134236 0.18928124 0.100491844 -0.14311525 0.10982417 -0.021226263

layer3.bn2.weight f4 [8]
00000000: dd66 7d3f 8775 863f e791 843f 0b46 733f
00000010: 5608 823f 4b9e 7c3f 625e 7e3f 8e3b 7d3f
0.9898508 1.0504616 1.0357026 0.9502875 1.0158794 0.98679036 0.99362767 0.98919

layer3.bn2.bias f4 [8]
00000000: 817e 213d 5486 973d a114 b93c 6e9d 87bb
00000010: 3fa4 60bc e325 843c a102 383c afc7 e33a
0.039427284 0.07398668 0.022592844 -0.00413864 -0.013711034 0.016131347 0.0112310955 0.0017378236

layer3.bn2.running_mean f4 [8]
00000000: 558d 8e3c 38a3 6fbd 523e 8f3c aba5 a43d
00000010: 61a4 653c 763d fcbc 5100 40bd 52b7 a23d
0.017401377 -0.058505267 0.017485771 0.08039411 0.014016242 -0.030791026 -0.0468753 0.07945122

layer3.bn2.running_var f4 [8]
00000000: 695d f63e 7784 e23e c4ce e13e 4fc0 e73e
00000010: 3c3f e63e db86 f73e fcb9 e63e ea14 f73e
0.4811814 0.44241688 0.44103062 0.45263907 0.4497012 0.48345074 0.4506377 0.48258144

layer3.fc1.weight f4 [2, 8]
00000000: f162 bbbd 81c1 72bc e977 80bd 0785 8abd
00000010: b164 97be 0cad 883e 94cf 803e 38b2 06bd
00000020: c0ac b5bd 9299 4ebc 2757 c93d 18a0 abbe
00000030: 8e13 f3bd 0b71 98be 2bb3 2e3d 4dde d93d
-0.09149731 -0.014816643 -0.06272871 -0.06763654 -0.2956901 0.26694524 0.2515837 -0.032884806
-0.0887084 -0.012609856 0.09831076 -0.3352058 -0.11868964 -0.29773745 0.042651337 0.10638104

layer3.fc1.bias f4 [2]
00000000: bfa0 a2be 088a 2e3e
-0.31763265 0.17044842

layer3.fc2.weight f4 [8, 2]
00000000: 6fb9 233e 733f 7ebe a741 82be 8b70 143f
00000010: ad05 78be fa09 013f 0960 fe3e 13b4 b43e
00000020: 27bd 2ebf 4fa8 04bf bc1d 23bf 2fa2 8abe
00000030: abbb c93d e6c4 13be f4b5 993e e02c 23bf
0.15988706 -0.24828891 -0.25440714 0.57984227 -0.24220915 0.5040585 0.49682644 0.35293636
-0.68257374 -0.5181932 -0.63717246 -0.2707686 0.09850248 -0.1443058 0.30021632 -0.6374035

layer3.fc2.bias f4 [8]
00000000: e9cc d4be 1f86 2fbf c07a e73e 0f92 033d
00000010: b1b9 003f ba69 1c3e 87e4 d63e bb73 16be
-0.41562584 -0.6856403 0.45210838 0.032121714 0.5028334 0.15274706 0.41971228 -0.14692585

layer3.shortcut.0.weight f4 [8, 4, 1, 1]
00000000: f3fc 11be eacc ac3e 75b5 adbe 14aa dcbe
00000010: 7418 f5bd 4628 cb3e 32d0 b7be 9daa 03bf
00000020: ab5e 95be a8a1 dabd 4cc9 173e 943a 0bbf
00000030: 21e7 893e 6037 b73e 7160 ba3e f4ac fcbe
00000040: 3626 4ebe e9b6 00be 5e80 7e3e a303 9e3e
00000050: c558 403e b38b c43e e74e e93e f85e e53e
00000060: cc52 fd3e 6ad0 c93e a7ef b4be ca83 cdbd
00000070: 489a 9bbd 6ccd a03e ed9c d5be 1fd8 f7bc
-0.14256649 0.33750087 -0.33927503 -0.4309851 -0.11967555 0.39679164 -0.35901028 -0.5143221
-0.29173788 -0.10675365 0.14822882 -0.5438626 0.2693415 0.35784435 0.36401704 -0.49350703
-0.20131764 -0.12569775 0.24853656 0.3086215 0.18783863 0.38387832 0.4556801 0.44799018
0.49477232 0.3941682 -0.3533909 -0.100349024 -0.07597786 0.31406724 -0.41721287 -0.030254422

layer3.shortcut.1.weight f4 [8]
00000000: 22ed 823f 1019 883f a130 803f 00fa 783f
00000010: b53f 783f 0e4a 813f 0e8a 803f f5b7 813f
1.0228617 1.0632648 1.001484 0.9725647 0.9697221 1.0100725 1.0042131 1.0134264

layer3.shortcut.1.bias f4 [8]
00000000: ac55 5d3d 63ea 9d3d 63e8 c23c b626 99ba
00000010: 17ce e4bc cf82 693c 4feb c43c 71b5 263c
0.05403678 0.07710721 0.023792451 -0.001168451 -0.027930303 0.014252379 0.024037985 0.010175095

layer3.shortcut.1.running_mean f4 [8]
00000000: 9eee 70be 62bb 94be 48de bcbe 26a5 093e
00000010: 0f6f 133e 7969 0e3f 2cc5 113e 5dea e9bd
-0.23528525 -0.29049212 -0.36888337 0.13441905 0.14397834 0.5562969 0.14235371 -0.114216544

layer3.shortcut.1.running_var f4 [8]
00000000: 1e54 133f b29c 203f 8518 233f 1fe6 a13f
00000010: 469c fb3e e62a 683f 7937 4e3f 0686 103f
0.5755023 0.627391 0.6370929 1.2648352 0.49142665 0.9069046 0.80553395 0.56454504

layer4.conv1.weight f4 [8, 8, 1, 3]
00000000: d4fa adbd a025 6ebb 5f29 4cbe 04a3 38be
00000010: 2d08 23be ab7d e43d 68d3 f0bd d709 95bc
00000020: 0d06 573c 1c5a 1d3c 4725 79bd f79d 3b3e
00000030: 1087 b0bd 00f0 953d 86f8 29be 9bfb 1d3d
00000040: 8bdc 823c 6d16 df3c 3d03 02be fb27 603e
00000050: 5866 4c3e 1abb 41be 1466 863e a34f 4dbd
00000060: ea59 03be 1863 453d ecd2 33be 0b48 2fbc
00000070: f32f 1e3e fef4 1ebc 364a 17be 2c4f 4dbe
00000080: 095c 64bd 731e 38ba 5643 98ba 98f9 973d
00000090: a67d e5bd 3c1c 08be 1977 d43d 1529 40bd
000000a0: 32a5 f23d ff0a 203e cae1 8fbd 94e9 3d3e
000000b0: 9360 6c3d 7516 5cbd 5605 32be f141 3ebe
000000c0: ce72 ae3d 56fd 22be 53fb 3a3e a197 9ebd
000000d0: 8eec 463e d5f3 2d3e 3995 3ebd bb06 ff3d
000000e0: 92e7 c03d eea4 31bb 7ef3 16be 1306 3bbe
000000f0: 5662 00be aa07 2f3e d8f0 cc3d 21b1 1dbe
00000100: dc1d 38be f1e6 fe3d 64a3 3a3d 9ab5 093e
00000110: 1058 e1bd 4a45 96bd 5b65 22bd fc08 32be
00000120: f860 90bd a5a0 353e 7e21 813d 868c 673c
00000130: e2bf d73d 773b 09bd 7dc4 063e d8ad 5b3e
00000140: 0822 b23d c735 b3bd 7717 c5bd 20bf f03d
00000150: 7f9d 333e 5007 22be a478 36be 6a65 0e3d
00000160: 057d 7abd 91ce 50bd ffed 343e be4c 5cbd
00000170: b780 98bd 6c10 683b 858e d9bd 1b7c 76bd
00000180: e00c 29be dde8 31be 5b93 de3d 415b 94bd
00000190: 25b4 5dbd b02a aebd d376 4abe 1033 1dbe
000001a0: 635c 35bd 9f7e 40be 1489 d33c 05cd 00be
000001b0: 3d94 83bd 4346 dcbd f6e0 81bd 7a73 e63c
000001c0: 9510 1abe e0a5 dd3d f948 993b 9a14 69be
000001d0: 7843 17be 9e45 9b3d f48f 583e cf41 c83d
000001e0: ef8a 3f3e 0f65 3d3e 47a6 85bd 6ad8 20bc
000001f0: 016d ebbd a3f1 86bc 2dfb 333d 1265 23bd
00000200: 5361 b6bd 2afb cebd 78c1 16bd 0b17 163e
00000210: 77c2 45be 2df9 a23d cfd5 40bc a4c6 2ebe
00000220: f350 97bd 0b7a 24be ba6a 463e b4b1 393e
00000230: a4e3 afbd d8d2 78bd 7c60 a03c 3ee7 e73c
00000240: 6723 b43d 7bf0 aebd ddba 143e ecf9 173d
00000250: 9435 853d 5a97 1dbe 8bf7 aabc 4deb 553e
00000260: 3dff 09be 4089 953c acc7 d53d c8cd 2cbb
00000270: 7a30 083e 4f24 b8bc e406 14be d714 febd
00000280: d37e 2abe 38a0 23bd f379 243e b862 c53e
00000290: f30f d63d 8d55 a53d 9d45 88bd 51e5 de3d
000002a0: 85a5 41be 5fa9 0fbe e6dc e33d 6e6e 0f3e
000002b0: e63e d23d e44c c9bd a098 36bd e00a f8bd
000002c0: 5583 5f3d ccee f1bd ef20 053d d223 25be
000002d0: c250 f3bd 5283 debd 626f 403e 7926 1bbe
000002e0: 7ecf 863e e5be af3d c338 9bbd 6906 10be
000002f0: 895e b8bd dbd9 093e 12bc 6b3d 6570 573c
-0.08495107 -0.0036338344 -0.19937657 -0.18030936 -0.15921088 0.11156782 -0.117590725 -0.018193169
0.013124001 0.009604003 -0.060826566 0.18321978 -0.08619511 0.07321167 -0.1659871 0.038570028
0.015974304 0.027232373 -0.12696548 0.21890251 0.19960916 -0.1891903 0.26249754 -0.050124776
-0.12827268 0.048190206 -0.17560929 -0.010698329 0.15447979 -0.009701965 -0.14774403 -0.20049733
-0.055751834 -0.000702358 -0.0011616747 0.07420653 -0.11205606 -0.1329202 0.103742786 -0.04691418
0.11847915 0.15629195 -0.07025488 0.18546134 0.057709288 -0.053732354 -0.17384848 -0.18579842
0.08517991 -0.15916952 0.18259935 -0.07743765 0.19426176 0.16987546 -0.04652903 0.124524556
0.094191685 -0.0027106362 -0.14741322 -0.18264036 -0.12537512 0.17092767 0.10006875 -0.153996
-0.1798014 0.12446392 0.045565978 0.13448182 -0.11003125 -0.073374346 -0.03964744 -0.1738624
-0.07049745 0.17737062 0.06305216 0.0141326245 0.105346456 -0.033503976 0.13160892 0.21453035
0.08697897 -0.087504916 -0.09623616 0.11755204 0.17540549 -0.15823102 -0.17819458 0.034764685
-0.061154384 -0.050978247 0.17668913 -0.053784125 -0.074464254 0.0035410179 -0.106228866 -0.06017695
-0.16508818 -0.17373987 0.108679496 -0.07243968 -0.054126877 -0.08504236 -0.1977189 -0.1535151
-0.04427756 -0.18798302 0.0258222 -0.12578209 -0.064247586 -0.10755589 -0.06341736 0.028131235
-0.15045388 0.10822654 0.0046778885 -0.22761765 -0.14771831 0.07581638 0.21148664 0.09778177
0.18705343 0.18495582 -0.065258555 -0.009817222 -0.114954 -0.016472643 0.04394071 -0.03989131
-0.08905282 -0.101064995 -0.0368056 0.14657228 -0.19312464 0.07957683 -0.011769726 -0.17067963
-0.07388487 -0.1606218 0.1937665 0.18134195 -0.08588341 -0.06074795 0.019577257 0.028308507
0.08795815 -0.08541962 0.14524408 0.03710358 0.0650436 -0.15389767 -0.02086999 0.20890541
-0.13476272 0.018253922 0.10438475 -0.0026367772 0.13299742 -0.02247825 -0.14455754 -0.12406319
-0.16649942 -0.03994772 0.16062145 0.3855188 0.10452261 0.08072958 -0.06653903 0.108835824
-0.18910797 -0.14029454 0.111261174 0.1400697 0.10265903 -0.09829119 -0.04457915 -0.12111449
0.054568607 -0.11813125 0.03250211 -0.16126946 -0.11880638 -0.10864891 0.18792489 -0.15151395
0.2633018 0.08581332 -0.07579186 -0.14064945 -0.09002406 0.13462012 0.057552405 0.013149356

layer4.bn1.weight f4 [8]
00000000: 9280 813f ce73 7a3f cf8d 803f 43e8 823f
00000010: 0f6d 7c3f b4ab 813f dd9b 7a3f 4a63 803f
1.0117362 0.97832954 1.0043277 1.0227131 0.9860391 1.0130525 0.9789408 1.0030301

layer4.bn1.bias f4 [8]
00000000: 98cc 1bbb 85ad f23b 1253 1c3b 8e52 be3c
00000010: a856 083b c26d b4b9 882a c2bc a58f 07bc
-0.002377307 0.007405939 0.0023853225 0.023232725 0.0020803604 -0.0003441405 -0.023701921 -0.008273994

layer4.bn1.running_mean f4 [8]
00000000: 54dd 273d b5d3 d03b 03bb 8d3d 9a8d 85bb
00000010: 84bd ddbd 97b1 003d 6c3e f13d efca db3c
0.04098256 0.0063728937 0.06920435 -0.004075718 -0.10827163 0.031419363 0.11779484 0.026830165

layer4.bn1.running_var f4 [8]
00000000: cffd f13e 7b70 043f baf7 f23e beb1 fe3e
00000010: 3ab4 f53e 5624 f93e c5f1 0e3f e817 e33e
0.47263953 0.5173413 0.47454625 0.49744982 0.47989064 0.48660535 0.5583766 0.44354177

layer4.conv2.weight f4 [8, 8, 1, 3]
00000000: 8535 dc3c 2583 9dbd e922 463e 6e8b c1bd
00000010: bca4 a33c 752b 3ebe 8c27 20be a16f d5bc
00000020: 683c da3d 6e6b 163e a20c 663e 3b44 44be
00000030: 795d 29be c191 0e3e 9d2c 493e 6705 253d
00000040: 2f3d 6a3e 31d4 85bd 6c32 4b3c 8733 5a3d
00000050: ffb3 8a3d 1061 f53c 22aa 8e3e c964 2dbe
00000060: 36bb 16be 9288 893d 7ff8 08be 210f 7a3d
00000070: 8024 133e 53b7 22be 0da6 f53c f7ca 0b3e
00000080: e847 32be f553 f9bd d5fc dfbc 1cc4 443d
00000090: 96bf cf3b b9e3 2ebe 7884 23bb 2924 c4bc
000000a0: 9f89 e53d 4532 4f3e fe22 0cbe 937d 21be
000000b0: d853 c6bd ab57 0cbe 2028 4b3e c07e 4c3e
000000c0: 32c2 123c 1bf5 023e 2d89 333d 157d 8bbd
000000d0: cc47 66bd 29f7 0fbc d8a9 f6bb e581 b63d
000000e0: 0333 4e3e 26d3 963d 1465 2f3e 87ac 453e
000000f0: 6d36 083e fe2f 1c3c 0cc6 c73b 7604 1abd
00000100: 7448 173e 9e01 c33d 93a8 413e 4835 573e
00000110: 2b2b efbd 25a5 1dbe 5573 8ebd 82a3 0f3e
00000120: 57cf 0e3e f4cd 413e 433f eabc 8274 023d
00000130: 5373 453e b25d b73c 1bfe 493d e49e bb3c
00000140: 48d4 1bbb 03af 643d 2e48 5fbd ff93 1f3e
00000150: 6962 9e3d e7bb e23c f810 c23c e056 2d3e
00000160: 0c70 9c3e 8500 5ebd a997 243e 6730 1d3e
00000170: 5158 0fbe 269f 3fbe fbd6 f53d 2c36 2c3e
00000180: a92c 8abd f880 623e 2e5b 6e3d 6cec 30be
00000190: 2f5b a0bb 4b04 8cbd f2a8 43be d68b 81bc
000001a0: 844c ec3d 68c4 43be ba4d 253e d347 c6bd
000001b0: 165e 913d c597 4e3e c4c8 fa3d 884a 403e
000001c0: 2f1a ae3d 033c 153e 6885 6abd a46d a3bc
000001d0: 86db e5bd 9831 bcbd e77c 99bd e04d c23d
000001e0: 86b4 66bc a942 9a3d a71c fd3d 6556 b2bd
000001f0: d0cb a6bd b5c9 503e 6f09 563c 20eb 78be
00000200: 18e2 96bd 097d 2d3e 8d9f 64be d34c 313d
00000210: 7ce8 133e 100a 0a3e 5278 a13d 3764 c63c
00000220: ca9c 44bc 6457 b2bd 9090 d8bd ff61 06bc
00000230: c65c ba3d 35ba 93bd be8b 4cbc e247 293e
00000240: 7097 16be 9c07 003e 9a81 193e f68e 003d
00000250: 01b3 46be 1dee b33d 11e0 c13d e172 f5bd
00000260: 0aa3 243e 5a30 4ebe 8572 ebbd 21d6 4fbe
00000270: 38bb 373e adc4 f0bc 342b 4fbe f661 03be
00000280: 4e30 113e 0e1a aabd 7f15 ebbd adf1 593e
00000290: 616e cdbb a0d4 dcbb e79d 163e fde3 adbd
000002a0: f35c 2e3e 686e 4dbc 65c3 1bbe 949a 0d3c
000002b0: ceee f03d f6d7 1c3e 5198 303e e2c8 f8bd
000002c0: 329c a8bd 535b 36bc 7233 743e 2f0f e73c
000002d0: 9522 06be 4e65 45be 8a81 88bd f54b 3e3e
000002e0: f135 b2bd 7fa8 1ebe 8f76 843d f73d 2d3d
000002f0: e540 d33d 0805 b7bc 0a16 fabd 5ff6 c93d
0.026880989 -0.076910295 0.19349255 -0.09450422 0.019976012 -0.18571265 -0.15640086 -0.026054205
0.10656053 0.14689419 0.22465757 -0.19166653 -0.16539563 0.13922788 0.19645925 0.040288355
0.22874902 -0.06534613 0.012402158 0.053271797 0.06772613 0.02995351 0.27864176 -0.16932978
-0.14719853 0.06715502 -0.13376044 0.061049584 0.14369392 -0.15890245 0.029986406 0.13651644
-0.17410243 -0.12174217 -0.02734224 0.048038587 0.0063399775 -0.17079057 -0.0024950784 -0.023943024
0.1120789 0.2023402 -0.13685223 -0.15770559 -0.09683961 -0.13705318 0.19839525 0.19970226
0.008957433 0.12788813 0.043831993 -0.06810967 -0.056220815 -0.008786955 -0.007527571 0.08911494
0.20136647 0.07364492 0.17128402 0.19304095 0.13302012 0.009532927 0.006096607 -0.03760191
0.14773732 0.09521793 0.18911962 0.21016419 -0.116781555 -0.15395029 -0.069555916 0.14027217
0.13946281 0.18926221 -0.028594619 0.03184939 0.19282274 0.022383545 0.0493146 0.022902913
-0.0023777653 0.055830967 -0.054512195 0.155838 0.07733614 0.02767749 0.023689732 0.16927671
0.30554235 -0.054199714 0.16073479 0.15350495 -0.13998534 -0.18713054 0.12003895 0.1681754
-0.067467995 0.2211951 0.058192424 -0.17277688 -0.0048936824 -0.06836756 -0.19107416 -0.01581375
0.11538032 -0.19117892 0.16142932 -0.09681668 0.070980236 0.20175083 0.12245324 0.18778431
0.08501088 0.14573674 -0.057256132 -0.019949742 -0.112235114 -0.09189147 -0.07494526 0.0948751
-0.014081126 0.07532246 0.123589806 -0.08707885 -0.08144343 0.20389445 0.013063773 -0.24308443
-0.07367343 0.16942228 -0.22326489 0.043286156 0.14444155 0.13480401 0.078842774 0.024217708
-0.012000272 -0.08708075 -0.10574448 -0.008202075 0.090997264 -0.072132505 -0.012484489 0.16531327
-0.14706206 0.12502903 0.14990845 0.03138634 -0.19404222 0.08785651 0.094665654 -0.11984802
0.1607782 -0.20135632 -0.11496452 -0.20296527 0.17942512 -0.029390657 -0.20231324 -0.12830338
0.14178583 -0.08305751 -0.114787094 0.21283598 -0.0062692617 -0.006739214 0.14708672 -0.08490751
0.17027645 -0.01253853 -0.15211256 0.008642811 0.117642984 0.15316758 0.17245604 -0.1214769
-0.08232917 -0.011130172 0.2384775 0.028205482 -0.1309913 -0.19276926 -0.066653326 0.18583663
-0.08701695 -0.15493964 0.06467926 0.042295422 0.10315112 -0.022341266 -0.12211235 0.09861445

layer4.bn2.weight f4 [8]
00000000: 2a2c 803f 408b 6c3f 4750 783f a48b 783f
00000010: c248 813f fe9b 873f 9680 793f c968 823f
1.0013478 0.9239998 0.96997494 0.97088075 1.0100329 1.059448 0.9746183 1.0188228

layer4.bn2.bias f4 [8]
00000000: ff4f 993c d2a7 233d 7f73 a73c ecd2 ceba
00000010: 95e4 e4bb d8fe a33d 9ff9 be38 0edc 8039
0.018714903 0.039954968 0.020440815 -0.0015779412 -0.006985257 0.08007592 9.1064016e-05 0.00024578016

layer4.bn2.running_mean f4 [8]
00000000: 88df 093e 4969 c03c d347 de3d 2a4e f13d
00000010: ed07 a53d 9ea4 ccbd b3d9 d23c d37e f2bc
0.13464177 0.023487704 0.10853543 0.11782487 0.08058152 -0.09992336 0.025738573 -0.02960149

layer4.bn2.running_var f4 [8]
00000000: c1d3 f33e 2f20 ec3e f5e4 ee3e 980f 0d3f
00000010: 78bf e23e 57e4 f53e f8b6 fb3e c055 e73e
0.47622493 0.46118304 0.46659055 0.5510192 0.44286704 0.48025772 0.49163032 0.4518261

layer4.fc1.weight f4 [2, 8]
00000000: 98b9 35be f6f4 4abe ce7e 5f3e d26a 4ebe
00000010: 745f 013e 3384 aebe eb9c 21be 0275 653c
00000020: 5fd4 a5be c6bc 0e3d f1bc aabe 416a abbe
00000030: 2699 953d 0f6e e43c bd07 b43e 3d70 a63d
-0.1774658 -0.19820008 0.21825716 -0.20157936 0.12634069 -0.34085235 -0.15782516 0.014004948
-0.3238859 0.034847997 -0.33347276 -0.33479503 0.07304601 0.027884511 0.35162154 0.081268765

layer4.fc1.bias f4 [2]
00000000: 4521 573d 7a07 a9be
0.052521963 -0.33013517

layer4.fc2.weight f4 [8, 2]
00000000: 9546 a53e 6829 a73e 1524 a3be 1bda 2c3f
00000010: 2183 c5be 1f7b 643e 0027 c7bc af51 b5bd
00000020: dc69 22be 0dd9 31be 360b 283f 283b 8dbe
00000030: 28c0 92be ffdd ae3e 29fc e13e 99f6 283f
0.32280412 0.32648778 -0.31863466 0.675203 -0.38576606 0.22312592 -0.024310589 -0.088534705
-0.15860695 -0.17367955 0.65642107 -0.27584195 -0.2866223 0.34153745 0.44137695 0.6600128

layer4.fc2.bias f4 [8]
00000000: 8132 e0be 5f83 2fbe 9987 a5be eec9 1a3f
00000010: 20e7 1fbf bc6e 11be 5caa 4fbd 487c edbe
-0.4378853 -0.17139958 -0.32330015 0.6046437 -0.62462044 -0.14202398 -0.050699577 -0.46383882

layer5.conv1.weight f4 [16, 8, 1, 3]
00000000: 8ee0 0dba fb20 4e3e 531d 19be 8420 4e3d
00000010: ca9b 7e3e 0701 4ebd 3d2b 063e 9e5b f33d
00000020: 13eb 793d ea35 79bd ce30 b1bd 3cec 12be
00000030: 6d86 1abd 4772 f63d ef62 54bd ddd2 2f3e
00000040: 10f2 8cbd f04e abbd d6cd a9bd 324d c5bd
00000050: 18fc c63d 47a6 a03d 40e4 2abe 04f4 0d3e
00000060: 209f 0abe ad17 393e 172d f73c b782 353e
00000070: d94d 28be 1a48 36be 75f0 3abe 8e47 d23c
00000080: c10c 7d3d cc2a febd baba d53d 54c2 efbd
00000090: c22a 81bd 3686 64be 65b0 00bd dfd9 b73d
000000a0: 27ee b83d ef20 0ebe 938a ef3d 3548 903c
000000b0: 685d 97bd af3c 7c3d c3ab bf3c 4f21 45be
000000c0: 395e 98bd 01b4 30be b2c0 6bbd f5fe b7bb
000000d0: d760 263d 7473 81bd f09d e33d d1f3 23be
000000e0: 8f62 46be 36b2 e5bd d200 82bd 68bd 4ebc
000000f0: c608 f33d 5ab1 81bd 9a5a 3ebe b80f d2bd
00000100: 59eb d6bd 3309 143e 7429 60bd f5cb c0bc
00000110: 56b8 11bd a9ff 8bbd cd69 aabd d1c8 15be
00000120: b8c6 f63d cac6 e33d 12ac 7e3d 0ee4 ca3d
00000130: b14a 38be 7ba0 f73d 9fea 4bbc c666 393e
00000140: d374 17bd baa0 02be e3e4 e13d bc91 9d3d
00000150: 4a9b 95bd 5a34 123e 0c52 3f3e 68a2 e4bd
00000160: dea9 ce3d 7ee4 423e 2edc 6d3d 6d55 bbbc
00000170: a94d 2f3e 7e57 2d3d a397 123c 1de3 d7bd
00000180: 2645 c1bd 0ac5 32be 5594 d6bc 806f e73d
00000190: bcae 203e 5ace 203d 813d 1f3d 9c04 41be
000001a0: d116 4d3d c5fd f5bd 5dc3 cebd c636 a33c
000001b0: d600 163d ac69 923d b1f0 11be 53de eb3c
000001c0: f62b 3d3e 2e93 1c3e 85e5 493e 2c8c 003e
000001d0: f08f 973d 2881 2dbe dfa1 64be b40c c83d
000001e0: 5308 39be 06a1 84bd 4ebf 18be 7807 e63d
000001f0: a732 483c e439 a8bd d139 43be 2adb 18be
00000200: f5a6 1fbe 588b 27be 7320 123d b19d 0b3d
00000210: 9ad3 ecbd 5bb7 0d3e 5208 bdbd 2b40 fbbc
00000220: 4a12 723d aab4 c23d 8f19 29bd d241 14bd
00000230: 62f4 94bd a028 7f3d 7353 69bc 28a5 10be
00000240: 116b d0bc d7ff 003e a117 9ebd f776 043d
00000250: 081f cabc 702b 14bd f286 553d 14f2 23be
00000260: f33b 13be d860 eebd 9d78 083b 21d8 483e
00000270: a62f 1abb c2a4 adbc 5683 293c fcbe 30be
00000280: e59f c93c 788a 053e c1c1 033e dd8c a13d
00000290: 794e 263e 4d29 4cbe 69b0 b9bc c049 bb3d
000002a0: 84a2 d93d dab6 8a3e ebdf 37be b456 4f3e
000002b0: acc5 213e 9a11 a8bd 2408 34be 1a51 6a3e
000002c0: c562 463e cf1e 4abd b1ef 8a3e a812 a03d
000002d0: 4426 0fbe 7e41 bcbd 3267 b43c 6c9c 593c
000002e0: 75ee f0bd a573 d9bd 3a7b 9bbd b435 e83d
000002f0: 69ac 963c 7b9e 22bd 7559 233d a0e0 93bd
00000300: 56fc 313e ab39 353e 3a54 2cbe 3c75 b73d
00000310: 2aff cc3d 4c3e c2bd 1156 06bd 2e2b f9bd
00000320: 957b 02be 392f 64bd 1911 1cbe 461f 59bb
00000330: adfb afbd da4c 10be 8bb8 3abe f383 41be
00000340: bb91 1bbe f55c 37be 12e0 663d 450c 1cbd
00000350: 4629 5e3d 8f3c b03d b6ef babd a71a 213e
00000360: 6c99 1f3d 30b7 2e3d fca1 1bbe c210 4c3e
00000370: bf35 323e aeac c73d be5e 4f3a 6fba 0b3d
00000380: 51a3 b2bd 257b a5bd 3610 373e 153a c23c
00000390: 1be7 d33d 6030 f6bd 4bbc 07bd 9b5a 1fbd
000003a0: cad0 c2bd 67ba da3d ab28 12be ed4e 033e
000003b0: ee6a 273d 637b 41bc cdda 583e ffca b53b
000003c0: 0dc3 44be 6ec4 31be ad0b 3abe d949 43bd
000003d0: bcd4 0fbe 1578 a5bd 69bf d13d ea80 44be
000003e0: 22ec 0a3e 6a89 183e 72f9 6cbd ab05 043e
000003f0: 89d5 0dbe e0a9 abbd 3d9e 943d 27f2 e83d
-0.00054121844 0.20129769 -0.14952593 0.050323978 0.24864116 -0.05029395 0.13102432 0.11882709
0.0610152 -0.060842432 -0.08651887 -0.14347929 -0.037725855 0.120335154 -0.051852163 0.17170282
-0.06882107 -0.083646655 -0.08291213 -0.096338645 0.09716052 0.07844215 -0.16688633 0.13862616
-0.13537264 0.18075438 0.030172868 0.17725645 -0.16435947 -0.17800942 -0.1825579 0.025668886
0.06177974 -0.124105066 0.10436006 -0.11706987 -0.063069835 -0.22316822 -0.031418223 0.089771025
0.09029799 -0.1387975 0.11696353 0.017612556 -0.07390863 0.06158131 0.023397332 -0.19250987
-0.074398465 -0.17256166 -0.057556815 -0.00561511 0.040619697 -0.06320849 0.111141086 -0.16010977
-0.19373535 -0.11215632 -0.06347813 -0.0126184 0.11866908 -0.06332655 -0.18589249 -0.10256904
-0.10494108 0.14456634 -0.054727033 -0.023534754 -0.035576187 -0.06835873 -0.08320961 -0.14627387
0.12049621 0.111219004 0.062175818 0.09906779 -0.17997243 0.12091156 -0.012446075 0.18105611
-0.036976647 -0.12756625 0.11029985 0.07693812 -0.0730501 0.14277783 0.18683642 -0.11163789
0.10090993 0.19032475 0.058071308 -0.022867883 0.17119469 0.042319767 0.008947286 -0.10541365
-0.09437017 -0.17457977 -0.026193777 0.11300564 0.15691656 0.039259292 0.038877014 -0.18849415
0.050070588 -0.12011293 -0.10095856 0.019923579 0.03662189 0.071490616 -0.14251973 0.028792536
0.18473801 0.1529052 0.19716461 0.12553471 0.07400501 -0.169438 -0.22327374 0.09768048
-0.18069582 -0.06476025 -0.14916727 0.11231893 0.012219108 -0.08214167 -0.19065024 -0.14927354
-0.15591033 -0.16361749 0.035675477 0.034085933 -0.11563797 0.13839476 -0.092301026 -0.030670246
0.059099473 0.09507115 -0.04128414 -0.036195584 -0.07273175 0.062294602 -0.014241087 -0.14125502
-0.025441678 0.12597595 -0.077193506 0.032340016 -0.024673 -0.036174238 0.052130647 -0.16010314
-0.14378338 -0.11639565 0.0020823844 0.19613697 -0.0023526936 -0.021196727 0.010346254 -0.17260355
0.024612376 0.13041103 0.1286688 0.07888196 0.16240872 -0.1993763 -0.022667127 0.09144926
0.106267005 0.2709263 -0.17956512 0.20247918 0.15798062 -0.08206482 -0.1758123 0.228825
0.19373615 -0.049345788 0.27135995 0.078160584 -0.13979441 -0.09192179 0.022021864 0.013281923
-0.11764232 -0.106177606 -0.07591863 0.11338368 0.018392758 -0.03970192 0.039880235 -0.07220578
0.17381415 0.1769778 -0.16829005 0.089579076 0.10009606 -0.094845384 -0.032796923 -0.12166439
-0.12742455 -0.055709098 -0.15240897 -0.0033130213 -0.08592925 -0.14091817 -0.1823446 -0.18897991
-0.1519231 -0.17906554 0.056366034 -0.03809764 0.05423858 0.08605301 -0.091277525 0.15732823
0.038964674 0.04265517 -0.15198511 0.19928268 0.17403315 0.09749733 0.0007910541 0.034113344
-0.087225564 -0.080801286 0.17877278 0.023709336 0.10346814 -0.120209455 -0.033138555 -0.038904767
-0.095124796 0.10680085 -0.14273326 0.12823077 0.04087346 -0.011809203 0.21177216 0.0055478807
-0.19215031 -0.17360088 -0.18168516 -0.04767785 -0.14045995 -0.080795445 0.10241587 -0.19189802
0.1356664 0.1489617 -0.057855077 0.12892787 -0.13850988 -0.083820105 0.07256744 0.11374312

layer5.bn1.weight f4 [16]
00000000: 2434 7d3f adac 7b3f d58e 803f 6715 7c3f
00000010: 9461 823f 05a2 813f 7713 803f d045 823f
00000020: b2d1 7f3f 5829 7f3f e053 7f3f b932 803f
00000030: ed5a 813f 4955 7a3f 0e52 7f3f 9a6b 803f
0.98907685 0.9831036 1.0043589 0.9847016 1.0186028 1.012757 1.000594 1.0177555
0.99929345 0.9967246 0.9973736 1.0015479 1.0105873 0.97786385 0.9973458 1.0032837

layer5.bn1.bias f4 [16]
00000000: 5dc2 d3b9 0165 213b 235a 353c 3103 2d3c
00000010: f651 113d fdee 183d 5060 ba3b 9f7c 203d
00000020: 3bbc 05bc 343f 013d ebeb 8fbb edeb 073c
00000030: 14f0 20bc 22cc a93c 1778 60bb 5c6c 22bb
-0.00040389868 0.0024626853 0.011068854 0.010559843 0.035478555 0.037337292 0.005687751 0.039181348
-0.008162553 0.031554416 -0.0043921373 0.008295995 -0.009822864 0.02072722 -0.0034251267 -0.0024783826

layer5.bn1.running_mean f4 [16]
00000000: 9c6d 003e a754 87bc 46e2 65be 456b fa3d
00000010: 1c38 84bd c88a 84bc 219f ee36 ff5e 373e
00000020: 63c0 1bbe 1bc4 393e 5623 2bbe 0007 b4bd
00000030: b38d f53d 4b3a 0d3e d9b3 1dbe 230a dbbc
0.12541813 -0.016519858 -0.22449598 0.12227491 -0.064560145 -0.016179457 7.1114778e-06 0.17907332
-0.15210108 0.18141215 -0.16712698 -0.08790398 0.119899176 0.13791768 -0.15400638 -0.026738232

layer5.bn1.running_var f4 [16]
00000000: 04ff f13e 3e51 073f eb8f 1a3f 64f9 013f
00000010: 0ec6 083f 03ab fb3e f4cf f03e 9a1e 443f
00000020: 520e 023f e193 263f 9c7c 113f da48 103f
00000030: 157c 003f 35f5 513f dad9 633f 7721 003f
0.47264874 0.5285834 0.6037585 0.50771165 0.5342721 0.4915391 0.47033656 0.76609194
0.508031 0.65069395 0.56830764 0.5636116 0.50189334 0.8201478 0.8900429 0.50051063

layer5.conv2.weight f4 [16, 16, 1, 3]
00000000: 4f4f 763d d5b8 503b 3cf8 623c 5727 43bd
00000010: cfd1 00be 22bb debd d564 093e 50bb 95bd
00000020: cee8 92bd d443 aebd 428e 723d 4f6d 44bd
00000030: 7ade 0f3c 3380 c0bd a51d b4bd fed5 4ebd
00000040: 96d4 3e3c 1611 f6bd 4063 00be bba2 b4bd
00000050: 4dab ec3c b01c cf3d 6a06 223d 8789 72bd
00000060: a444 cc3d d43d 16bd d6a9 f33d 4370 d73d
00000070: 9d14 3bbd a98c a3bd 70ec afbd 8cd2 fd3d
00000080: 0535 103e f327 213c 1721 17be 9582 d6bd
00000090: e86b f4bc 29ee 5dbc 237a 6e3d 1eb3 653d
000000a0: 4c35 77be 9fa8 413d 10c9 053e d866 e1bd
000000b0: 75ec db3d 02b7 09be f440 4e3d 42e5 143d
000000c0: bfc9 a33d 7f9f 0cbe f850 67bd 3a23 f0bd
000000d0: a6de 933c 73e0 17bc 5874 20bd c048 e4bd
000000e0: ede0 bcbc f156 5c3d 1468 133e b644 073e
000000f0: ce02 4b3d eadf 183e dd83 03be 4a72 313d
00000100: f744 f33d 6b20 983d b0a8 81bd 77f5 93bd
00000110: e2ff 99bc 9fa9 a0bc 693b 0bbe 2115 dcbc
00000120: 5835 acbd f05f 41be 9d84 7b3c b5be 96bd
00000130: 2414 a2bd a949 1d3d 3dd3 f1bd 8e19 a73c
00000140: 98bb 3cbd 6e73 21bd 443e bf3b a143 1c3d
00000150: 5de5 883d 5ad8 5dbc f77f d6bd ad23 40bc
00000160: 8e27 62bd c3dc d6bc fa34 943d 29db 4bbd
00000170: 8f1a c7bd 15e6 b8bd 45ee 16be eb3f 00be
00000180: cfc4 c53d 9642 0bbd 8701 f9bd c661 2a3c
00000190: 5a73 10bd 603d 96bd 3cc4 ab3b b8ec cfbd
000001a0: b553 0b3e 203c cd3d ebca 24bd be20 cf3d
000001b0: b7e9 87bd 9e2e e7bd e7f9 aa3d 13dd c43c
000001c0: 3708 b73d c8f1 c5bd 18e0 81bc 41db b53d
000001d0: ef5c 90bd 7de7 11be 467b 7fbd c203 5dbd
000001e0: f779 513c 36e2 ec3d e00f a33d 977f e73b
000001f0: e610 283e f14b b43d 2468 603d 9b86 9ebc
00000200: 0974 efbd e4d1 fb3d 1223 6f3e 2e68 133e
00000210: 41f7 fcbd 1ad8 643d d972 053e 69ce 03bd
00000220: e3a7 d03d 7f83 6bbd 30f7 2ebc a9a5 de3d
00000230: 621b e9bd a1ec b93c 3c37 be3d f069 d3bb
00000240: 5045 4dbd e65b a3bd ef41 d93d 518f bb3d
00000250: 6451 183e 658c ecbd 29db 26bc c891 92bd
00000260: 7153 b2bd 54f1 84bd f5fe 7d3b b386 0f3d
00000270: 50d2 dc3c 4097 053c 7298 c13d 544a e93d
00000280: 7722 5dbd 6d5a edbd 32bb a03d 0d95 b33d
00000290: 1806 1bbb 4b47 32bd 9791 ac3d 9575 ab3d
000002a0: 6ccc 6cbd ccb5 c73d 43a6 babd 8f32 d93d
000002b0: fbb7 a53c 31a5 b4bd e07c 53bd 57d6 813d
000002c0: 0487 d33d 9109 d03b fdb1 923d 5ff1 843c
000002d0: c8d1 45bd fd15 0f3e 4068 033e 27ea 07be
000002e0: e122 5f3c cf00 35bd 05ca f93d 8580 c13d
000002f0: a669 933b 8555 cfbd 576b cf3d bf57 9a3d
00000300: a59a 51bd 3d0d 283d 53f7 d53d c008 d4bd
00000310: e4b1 c6bc b9b0 213d 8850 c83d 17d2 823b
00000320: e315 debc 4904 d6bd a0cf da3d 51e5 9a3d
00000330: 9b42 03be 5c27 42bd 198d b63c a571 0e3c
00000340: db6b ab3c a477 efbd e111 103e 5c29 04be
00000350: 3702 4c3d 3f84 ba3d 011c bf3c b18c ac3d
00000360: 2e7b 8d3c 5f70 0bbe d941 d7bc 342d 82bd
00000370: b128 bb3c 6327 513d a599 b5bd fb22 163e
00000380: 0557 10bd 3ac0 cf3d 7bca 003e 42cd 6e3d
00000390: 37c3 0f3e 0b73 0f3d fdf3 063e c775 873c
000003a0: 94fb ffbd 74e6 b4bd dd70 e3bd ba82 8abd
000003b0: 2c11 af3c 1abc 6a3d 7cde b8bd d3ad 48bd
000003c0: 544f 9c3d 9c19 61be d3c5 0c3e 0769 81bd
000003d0: 61d0 9fbd 7ee2 953d 11be 25bd a01a c9bd
000003e0: 97f8 b5bd bb3c c0bd c8c8 933b 200a 113e
000003f0: def0 113e 556f 1e3d a3f9 9d3d 60db a43d
0.06013423 0.003184845 0.013853129 -0.04764494 -0.12580036 -0.108755365 0.1341737 -0.07311118
-0.0717331 -0.08509031 0.0592177 -0.047955807 0.00878107 -0.09399452 -0.08794717 -0.050497048
0.011647364 -0.12014978 -0.12537861 -0.08820101 0.028890276 0.101128936 0.0395569 -0.059213188
0.0997403 -0.036680058 0.11897628 0.10519459 -0.045673955 -0.07985813 -0.08590019 0.12393674
0.14082725 0.009836185 -0.14758717 -0.10474125 -0.02983661 -0.013545551 0.058221947 0.056079023
-0.24141425 0.04727995 0.1306498 -0.11005944 0.1073846 -0.13448718 0.050354913 0.03635145
0.079974644 -0.13732718 -0.056473702 -0.11725469 0.018050503 -0.009269821 -0.039173454 -0.111466885
-0.023056472 0.05379385 0.14395171 0.13209805 0.04956322 0.14929166 -0.1284327 0.043321885
0.118783884 0.07428058 -0.06331003 -0.07224553 -0.018798772 -0.019612132 -0.13596882 -0.026865544
-0.08408612 -0.18884254 0.015351442 -0.07360593 -0.07913998 0.038400326 -0.11807869 0.020397928
-0.04607734 -0.039416723 0.00583628 0.038150433 0.066843726 -0.013540352 -0.10473626 -0.011727256
-0.055213504 -0.026228314 0.07236667 -0.049769554 -0.097218625 -0.0902826 -0.1473933 -0.12524383
0.09656679 -0.03399905 -0.121584944 0.010399288 -0.035266258 -0.07335925 0.005241899 -0.101525724
0.1360615 0.100212336 -0.04023258 0.10113667 -0.066363744 -0.112881884 0.08348446 0.024031198
0.08937114 -0.09665257 -0.015853927 0.0887971 -0.07048976 -0.14248462 -0.062373422 -0.05395866
0.012785426 0.11566584 0.07962012 0.0070647704 0.16412696 0.08803547 0.054786816 -0.019351294
-0.11692054 0.12295893 0.23353222 0.1439521 -0.123518474 0.055870153 0.13032092 -0.03217927
0.10188272 -0.05749845 -0.010679051 0.10871441 -0.11382176 0.022695841 0.09287879 -0.0064518377
-0.05011493 -0.079765126 0.10608279 0.09158195 0.14874798 -0.11550216 -0.010184088 -0.07156712
-0.087073214 -0.06491342 0.0038756703 0.03504057 0.026955754 0.008153737 0.09452905 0.1139113
-0.053987946 -0.11589513 0.07848205 0.087686636 -0.0023654755 -0.04352502 0.084262066 0.08372036
-0.05781214 0.09751472 -0.09113743 0.106053464 0.02022933 -0.0882057 -0.051632762 0.0633971
0.103284866 0.0063487967 0.07162855 0.016228376 -0.048295766 0.13973232 0.12832737 -0.13272916
0.013619156 -0.044190224 0.12196735 0.09448341 0.0044986783 -0.101237334 0.10127895 0.075362675
-0.05117287 0.04102825 0.10447564 -0.103532314 -0.024254747 0.039475176 0.09780985 0.00399233
-0.027110046 -0.10450036 0.106841326 0.0756327 -0.12818377 -0.047400817 0.022284077 0.008694087
0.020925453 -0.116927415 0.1406932 -0.12906402 0.0498068 0.09107255 0.023328783 0.08425272
0.01727065 -0.13617085 -0.026276516 -0.06356278 0.022846552 0.051062953 -0.08867196 0.14661781
-0.03523924 0.10144086 0.1257724 0.058301218 0.14039312 0.035021823 0.13179012 0.016535653
-0.124991566 -0.08833018 -0.11105511 -0.06763215 0.021370493 0.057308294 -0.090268105 -0.048993897
0.07632318 -0.21982425 0.13747339 -0.063188605 -0.07803417 0.073185906 -0.040464465 -0.098195314
-0.088853054 -0.093865834 0.004510019 0.14164019 0.1425204 0.038680393 0.0771363 0.08049655

layer5.bn2.weight f4 [16]
00000000: 1b6d 813f efa7 883f 190c 813f 7762 7b3f
00000010: c670 803f 7481 853f 58f1 7a3f 0e2f 813f
00000020: 094d 813f ac4e 823f 99fa 7d3f 162a 7c3f
00000030: 8171 813f fcca 823f b943 813f c222 893f
1.0111421 1.0676249 1.0081817 0.9819712 1.0034416 1.0430131 0.9802451 1.0092485
1.0101634 1.0180259 0.99210507 0.9850172 1.0112764 1.0218196 1.0098792 1.0713732

layer5.bn2.bias f4 [16]
00000000: faf7 cdbc 5781 2d3e e217 c13c 3627 8cbd
00000010: 7c3e 373c b08d 893d e0fb 70bc 1b6e 65bc
00000020: 77c6 863d d3ff 263d 83cd 403c 376b a9bd
00000030: 5f11 773d ff8a 333d a19c 4e3c 45b3 ac3d
-0.025142659 0.1694387 0.023570959 -0.068434164 0.011184331 0.06716478 -0.014708489 -0.014003302
0.06580823 0.040771317 0.011767748 -0.08272403 0.0603193 0.04383373 0.012610585 0.084326304

layer5.bn2.running_mean f4 [16]
00000000: bcbd bebd 01bb e8bd 5b2d a13d 12dc f73d
00000010: 8d48 4cbc d0a4 82bd 9b19 503e 4d84 2abd
00000020: 0fef 8fbd e61e b3bc c25f c73d aef9 85bd
00000030: a884 1cbd 619a 9bbd d74a 80bd 9e9e ecbd
-0.09313533 -0.11363793 0.07869979 0.12102522 -0.012468469 -0.06379092 0.20322268 -0.041630078
-0.07028019 -0.02186532 0.09735061 -0.06541763 -0.03821245 -0.07597805 -0.062642746 -0.11553691

layer5.bn2.running_var f4 [16]
00000000: 4549 fe3e c5e0 053f a2b5 eb3e 53e6 053f
00000010: 9994 e03e 2b32 fa3e 20d8 ff3e dbd6 f93e
00000020: d9f9 103f 3359 fb3e adce 0b3f a89e f13e
00000030: 1445 e93e e543 e93e 686a e73e 6112 ea3e
0.49665275 0.52296096 0.46037012 0.5230457 0.4386337 0.488664 0.49969578 0.48796734
0.5663124 0.4909149 0.5461224 0.47191358 0.45560515 0.45559612 0.4519837 0.45717147

layer5.fc1.weight f4 [4, 16]
00000000: 76f4 523e ff56 0bbe a21d a93d 7cbe 543e
00000010: 813c 663e 3928 323e 8e13 c5bc 2275 693e
00000020: e778 033e cc72 cbbd 8e5d 3f3e bc5f 2cbe
00000030: 34be 12be 8d65 503e f650 02be cbc0 11be
00000040: f844 183e fd4d 1a3d 57c2 ee3d a0de b03d
00000050: 067b 293d ee08 903d 7d83 72be 5212 e73d
00000060: 9537 21be 9a6b 67be 5793 25be 663a 8cbd
00000070: 99f6 51be ca47 12be 16c5 3bbd 362a 55bd
00000080: 227d 12be 55ff 8dbd 4431 3abe f397 343e
00000090: b0b4 cf3d 1f85 4a3c b5c6 9a3d 7276 09bd
000000a0: 5e66 413e 888a 543e f860 773d 1ad4 55bd
000000b0: a061 d0bc ae00 3a3e c334 58be 9e76 353d
000000c0: 5eb1 ddbd a013 81bd bfdb 63bd 29ed f0bc
000000d0: 8eeb 813e 6cb1 92bd 8edc 0c3d 7679 d5bd
000000e0: 982c c53d 2851 5bbe d7c5 74be e1b2 d5bc
000000f0: 1baa 3a3e 8af2 ff3c f9e9 383d fabb 333e
0.20601067 -0.13607405 0.08257605 0.20775789 0.22484018 0.17398156 -0.024057176 0.22798589
0.1283909 -0.09934005 0.18688032 -0.16833395 -0.14330369 0.20351239 -0.12726197 -0.14233701
0.1487006 0.03767203 0.11658161 0.08636212 0.04137709 0.07032953 -0.23682971 0.11282791
-0.15743859 -0.2259964 -0.16169487 -0.06847076 -0.20504226 -0.14285198 -0.045842253 -0.05204221
-0.14305547 -0.06933466 -0.18182856 0.17636089 0.10141885 0.01236084 0.075574316 -0.033560224
0.18886706 0.2075597 0.06039521 -0.05220423 -0.025437176 0.18164322 -0.21113877 0.044302575
-0.10824846 -0.06302571 -0.055629488 -0.029409962 0.25375026 -0.07162747 0.034390025 -0.104235575
0.09627646 -0.21417677 -0.23903595 -0.026086273 0.18228953 0.031243581 0.04514501 0.17552176

layer5.fc1.bias f4 [4]
00000000: 44fe a3bd bdd4 ea3d fc66 5d3e faf6 f73d
-0.08007482 0.11466358 0.21621317 0.12107654

layer5.fc2.weight f4 [16, 4]
00000000: f4cb bf3e d368 543e 70ac bd3e 1a90 93be
00000010: 080f fe3c eda4 6fbd 6b51 8dbe f7a6 72be
00000020: fa4f 273d 2969 ddbe 3614 e83e 643e 4b3e
00000030: 0b66 c73e 83a5 b63e c442 fbbe 48fb 94bc
00000040: 90ba 1dbe 4fd5 8ebe 4f86 8cbe 2954 d83d
00000050: af8a ddbe 5fbd 99bd 70e1 ac3e ddab 5cbe
00000060: 3444 2b3c 2539 973e c3cb 953e b03c f83e
00000070: 9d88 193e f747 b73e 2600 fdbe 05c0 b03d
00000080: dc10 143e 6854 023b 5aae c33e c976 e93d
00000090: 18c4 ad3e 38b1 2d3e 2bbb a33e c7b3 31be
000000a0: 52f6 34bd deb9 633e 0bf9 c93e 25ab 7fbd
000000b0: 1d61 f8bb 4837 833e f7c9 15be fd95 69be
000000c0: ffaf bc3e 7913 72be 8cb8 60bd 861e f33e
000000d0: f424 bebd 55f5 9c3e 3653 fbbe eb0b 00be
000000e0: ba0b c23d 09f1 353e 426c ddbb 8cba a4be
000000f0: e918 e1bd 0172 57be 9e6a 2b3e 1844 c7be
0.3746029 0.20743112 0.37045622 -0.28820878 0.031013027 -0.058506895 -0.2760118 -0.23696505
0.040847756 -0.43244293 0.4532792 0.19848019 0.3894504 0.3567315 -0.49074376 -0.018186226
-0.15403199 -0.27897117 -0.2744622 0.10562927 -0.4326987 -0.07506823 0.33765745 -0.21549936
0.010453273 0.29535785 0.2925702 0.484838 0.1499352 0.35797092 -0.49414176 0.08630375
0.14459556 0.0019886736 0.38218957 0.113996096 0.3393867 0.16962135 0.31978735 -0.17353736
-0.04418022 0.22238871 0.39447817 -0.062419076 -0.007579936 0.25628114 -0.14627825 -0.22811122
0.36853024 -0.2364024 -0.054863498 0.47484225 -0.09284392 0.30655923 -0.49086922 -0.12504546
0.09474893 0.17767729 -0.00675729 -0.32173574 -0.10991079 -0.21039583 0.1673989 -0.3891914
