das_new - 副本/models/20260105_195658/final_model.pth (torch, 99146 bytes, 176 tensors)

input_conv.weight f4 [4, 1, 1, 3]
0	0x3d9dc8ad	0.077042915
1	0xbf003db7	-0.5009417
2	0xbe41095d	-0.18851228
3	0x3f0b5b33	0.54436034
4	0x3d9e5ae3	0.07732179
5	0x3e33be4d	0.17553063
6	0xbee0d07f	-0.4390907
7	0x3db2fb03	0.08739283
8	0x3f082517	0.53181595
9	0x3f0a16c9	0.5394102
10	0xbb8d1009	-0.00430489
11	0xbef24aed	-0.4732279

input_bn.weight f4 [4]
0	0x3f7751be	0.96609104
1	0x3f3c1f1f	0.7348499
2	0x3f9dd58b	1.2330793
3	0x3f6cf0f2	0.92555153

input_bn.bias f4 [4]
0	0xbd43f237	-0.047838416
1	0x3c2bcc86	0.010485774
2	0x3c5b1d73	0.01337372
3	0x3d195ce7	0.037442114

input_bn.running_mean f4 [4]
0	0x3c5426a9	0.01294867
1	0xbb02fc08	-0.0019986648
2	0xbb140b8c	-0.002258989
3	0x38e953ed	0.00011125938

input_bn.running_var f4 [4]
0	0x3e7f9936	0.24960789
1	0x3bc2dde6	0.0059468625
2	0x3bf8ef62	0.007596896
3	0x379a939e	1.842697e-05

layer1.conv1.weight f4 [4, 4, 1, 3]
0	0x3e0cd892	0.1375449
1	0xbd81ca82	-0.063374534
2	0xbcedc46c	-0.029024325
3	0xbd9cc90e	-0.07655536
4	0x3daf6157	0.08563488
5	0x3e2a589b	0.16635363
6	0x3dc239b2	0.09483661
7	0x3e7f5944	0.24936396
8	0xbde2b6a7	-0.110699944
9	0xbe439074	-0.19098073
10	0xbe2758ca	-0.16342464
11	0x3d087cee	0.033322267
12	0x3def6e77	0.11690991
13	0x3e7a54e6	0.24446449
14	0xbe525d7d	-0.20543475
15	0x3e621668	0.2207886
16	0x3d7ac917	0.06122693
17	0xbdc71a2c	-0.09721789
18	0xbe5e40ea	-0.2170445
19	0xbc9d7698	-0.019221589
20	0xbe8a9a83	-0.27071008
21	0x3e4200cd	0.18945618
22	0xbe248bc4	-0.16068941
23	0x3e052658	0.13002908
24	0xbe7cf047	-0.24701034
25	0xbc394d48	-0.011309929
26	0xbd8ef44b	-0.06980189
27	0x3d6fbb56	0.058528267
28	0x3e22c6be	0.15896127
29	0xbe2c4a07	-0.16825114
30	0x3e75edc8	0.24016488
31	0x3dde17e1	0.10844398
32	0xbe43e973	-0.19132023
33	0x3e8aaee0	0.27086544
34	0x3dfba112	0.12286581
35	0x3d299725	0.04140391
36	0xbe27addf	-0.1637492
37	0xbe051e93	-0.12999944
38	0xbdda04f8	-0.10645479
39	0xbdf8c21c	-0.121463984
40	0x3e3a08f3	0.18167476
41	0xbe1e41d2	-0.15454796
42	0x3e15d665	0.14632566
43	0x3ea3b4c1	0.31973842
44	0xbd065c15	-0.03280266
45	0x3e3adb7c	0.18247789
46	0x3df877f5	0.12132255
47	0xbdc49b4e	-0.095999345

layer1.bn1.weight f4 [4]
0	0x3f697779	0.91197926
1	0x3f7980bf	0.97462076
2	0x3f706b98	0.93914175
3	0x3f84fd4c	1.03898

layer1.bn1.bias f4 [4]
0	0xbba20614	-0.004944572
1	0x3c217499	0.009854459
2	0xbc101290	-0.008793488
3	0x3cd6f869	0.026241498

layer1.bn1.running_mean f4 [4]
0	0x3d962091	0.0733043
1	0x3d323340	0.043505907
2	0x3e0948d9	0.13406695
3	0x3e4ec509	0.2019235

layer1.bn1.running_var f4 [4]
0	0x3dce43dd	0.10071538
1	0x3aab4241	0.001306601
2	0x3ce51a93	0.027966773
3	0x3e1c6235	0.15271838

layer1.conv2.weight f4 [4, 4, 1, 3]
0	0xbdd8ea68	-0.105915844
1	0x3dfddf05	0.12396053
2	0x3d225afa	0.039637543
3	0x3dae6b50	0.08516562
4	0x3db04c3a	0.08608289
5	0xbe7b232b	-0.24525134
6	0x3dd24909	0.102678366
7	0x3d516288	0.051119357
8	0xbe16d451	-0.1472943
9	0x3e83afb8	0.2572
10	0x3e933861	0.2875395
11	0xbde40575	-0.11133853
12	0xbd8ac58c	-0.0677596
13	0xbc75c6b3	-0.015000987
14	0xbe77f773	-0.24215488
15	0x3d4aeda5	0.04954304
16	0xbe929b0d	-0.2863392
17	0x3e830c5d	0.2559537
18	0xbe0cd78c	-0.137541
19	0xbe698383	-0.22804074
20	0xbd82147d	-0.06351564
21	0xbe651876	-0.22372612
22	0x3e6d2c5d	0.23161454
23	0xbd83c366	-0.06433754
24	0x3d88db44	0.066824466
25	0x3e0e957b	0.1392421
26	0x3d9d5ce4	0.07683733
27	0x3d5e08f3	0.054207753
28	0x3cddb42d	0.027063454
29	0x3e67f352	0.22651413
30	0x3e07a520	0.13246584
31	0x3e0324eb	0.12807052
32	0xbd47607e	-0.048676006
33	0x3c50b861	0.012739272
34	0x3d890806	0.066909835
35	0x3e3eb228	0.18622649
36	0x3c8347ef	0.016025512
37	0xbec4ba3f	-0.38423344
38	0x3e0534de	0.13008448
39	0xbe1ee490	-0.15516877
40	0xbea199a2	-0.31562525
41	0x3d13f21c	0.036119565
42	0xbd9e91fc	-0.07742688
43	0xbee8cb16	-0.45467442
44	0x3e74a901	0.23892595
45	0x3e2424e6	0.160297
46	0xbef75551	-0.4830728
47	0x3e8e246f	0.27762172

layer1.bn2.weight f4 [4]
0	0x3f6f5811	0.93493754
1	0x3f6fd82c	0.9368923
2	0x3f87ac87	1.0599526
3	0x3f852ea3	1.0404857

layer1.bn2.bias f4 [4]
0	0x3ce42179	0.027847992
1	0x3bd3dccb	0.0064655296
2	0x3d11a110	0.03555399
3	0x3e0dcb0b	0.13846986

layer1.bn2.running_mean f4 [4]
0	0x3e552cec	0.20817918
1	0xbde8879d	-0.11353991
2	0x3e02773d	0.12740798
3	0xbf1ac00a	-0.6044928

layer1.bn2.running_var f4 [4]
0	0x3e0adbb1	0.13560368
1	0x3d009839	0.03139517
2	0x3d83195c	0.06401321
3	0x3f85fdb7	1.0468053

layer1.fc1.weight f4 [1, 4]
0	0xbe69b452	-0.22822693
1	0x3ec04e7b	0.37559876
2	0xbeabcefb	-0.3355635
3	0x3ea9a585	0.33134094

layer1.fc2.weight f4 [4, 1]
0	0xbf6b1b86	-0.9183887
1	0x3d825b25	0.06365041
2	0xbf2fa67c	-0.6861341
3	0xbedaf711	-0.42766622

layer1.fc2.bias f4 [4]
0	0x3e1d0a09	0.1533586
1	0x3f06f54c	0.52718043
2	0xbecd92ea	-0.4015115
3	0xbf369b5b	-0.71330804

layer1.shortcut.0.weight f4 [4, 4, 1, 1]
0	0x3e898db2	0.26865917
1	0x3dcca877	0.099930696
2	0x3ce1ef07	0.027579797
3	0x3f034a4d	0.5128525
4	0x3eae7173	0.3407093
5	0x3e6d4510	0.23170877
6	0xbedee394	-0.43533003
7	0x3e91e2c4	0.2849332
8	0x3e9e3367	0.30898592
9	0x3eafa618	0.34306407
10	0x3e58112d	0.21100302
11	0x3ea349d3	0.3189226
12	0xbec1b47c	-0.3783301
13	0xbe5e23b9	-0.21693315
14	0xbf70956b	-0.93977994
15	0xbeece055	-0.46264902

layer1.shortcut.1.weight f4 [4]
0	0x3f739e46	0.9516338
1	0x3f74b2cc	0.9558532
2	0x3f874686	1.0568397
3	0x3f7c38af	0.9852399

layer1.shortcut.1.bias f4 [4]
0	0x3cda776f	0.026668279
1	0xbcab65d0	-0.020922571
2	0x3d49dfb4	0.049285606
3	0x3e1687c8	0.14700234

layer1.shortcut.1.running_mean f4 [4]
0	0x3e987d10	0.29782915
1	0x3d8286d8	0.06373376
2	0x3ed2be27	0.411607
3	0xbf4cdca1	-0.80024153

layer1.shortcut.1.running_var f4 [4]
0	0x3d5018ca	0.05080489
1	0x3e367be3	0.17820697
2	0x3dcf9312	0.10135473
3	0x3f38ca8e	0.72184074

layer2.conv1.weight f4 [4, 4, 1, 3]
0	0xbb23527a	-0.0024920986
1	0xbd83a734	-0.06428376
2	0xbd318b0c	-0.043345496
3	0xbe1b870a	-0.15188232
4	0xbe9ec6ec	-0.3101114
5	0x3d8d39f2	0.06895818
6	0xbe84613d	-0.25855437
7	0xbef68d80	-0.4815483
8	0xbe169e83	-0.14708905
9	0x3e605348	0.2190677
10	0x3dcc7fab	0.09985288
11	0x3d802834	0.06257668
12	0xbd25b36e	-0.04045432
13	0xbe83fcc0	-0.2577877
14	0x3e8687f5	0.26275602
15	0x3e4a5ce4	0.19761997
16	0xbcf929e7	-0.030415488
17	0xbdc3c0a6	-0.09558229
18	0x3c6983e0	0.014252633
19	0xbe0116bc	-0.12606329
20	0xbc58430a	-0.013199577
21	0x3e47a701	0.194973
22	0x3e45e69e	0.19326255
23	0x3e531750	0.20614362
24	0x3c95e079	0.018295513
25	0x3e859019	0.260865
26	0xbe42d182	-0.19025233
27	0x3df7b74b	0.12095507
28	0xbddd9d08	-0.10820967
29	0xbe8427f9	-0.25811747
30	0x3e78f5c5	0.24312504
31	0x3ec8fc86	0.3925516
32	0xbe615b64	-0.22007519
33	0xbe30c26a	-0.17261663
34	0x3d5666f5	0.05234428
35	0x3d4f5383	0.050616752
36	0x3e4f26cf	0.20229648
37	0x3e7a4e5c	0.24443954
38	0xbdd993f0	-0.1062392
39	0x3e677fdb	0.22607367
40	0x3db4e356	0.088324234
41	0xbe244cc5	-0.1604491
42	0xbe1d7270	-0.15375686
43	0xbbed5c7b	-0.0072436905
44	0x3e2bc678	0.16774929
45	0xbd3d6521	-0.046239022
46	0x3c649815	0.013952275
47	0xbe8544b6	-0.26028985

layer2.bn1.weight f4 [4]
0	0x3f755984	0.95839715
1	0x3f8237bd	1.017326
2	0x3f6a544b	0.9153487
3	0x3f792a3a	0.9733006

layer2.bn1.bias f4 [4]
0	0xbcdebd8c	-0.027189992
1	0x3dabb866	0.083847806
2	0x3bd23470	0.0064149424
3	0x3c615faf	0.013755723

layer2.bn1.running_mean f4 [4]
0	0xbeb1ba41	-0.34712413
1	0xbda47f54	-0.080320984
2	0x3edaa1f8	0.42701697
3	0x3e278bcb	0.1636192

layer2.bn1.running_var f4 [4]
0	0x3f37fdf6	0.7187189
1	0x3e4e0054	0.20117313
2	0x3f2496ea	0.64292777
3	0x3cf5058a	0.029909868

layer2.conv2.weight f4 [4, 4, 1, 3]
0	0x3e148966	0.14505538
1	0x3e42b638	0.19014823
2	0xbe3e3f07	-0.1857873
3	0x3e7791e2	0.24176744
4	0xbe923843	-0.2855855
5	0x3d09453c	0.033513293
6	0x3d1a516d	0.03767531
7	0x3e30396a	0.17209402
8	0xbe77ac2d	-0.24186774
9	0xbdc27ea1	-0.09496809
10	0x3dae9362	0.08524205
11	0x3e124abc	0.14286321
12	0x3d913efb	0.07092091
13	0xbe61314b	-0.2199146
14	0xbe38c2b8	-0.1804303
15	0xbe5d59b8	-0.21616256
16	0xbecca2a0	-0.39967823
17	0xbe7e4deb	-0.24834411
18	0x3c2d2664	0.010568235
19	0xbe7e3f2e	-0.24828789
20	0x3e308a66	0.17240295
21	0xbe0d62be	-0.13807198
22	0xbebfc145	-0.3745214
23	0x3d9ad3f4	0.07559958
24	0x3e8267fe	0.25469965
25	0xbddff193	-0.109347485
26	0xbe02e370	-0.12782073
27	0x3e661db0	0.22472262
28	0x3e32723b	0.17426388
29	0x3e89c839	0.2691057
30	0xbb6d6d44	-0.0036228457
31	0xbec3fa09	-0.382767
32	0xbe52de3d	-0.2059259
33	0x3a8c4438	0.0010701483
34	0xbdd453a1	-0.103675134
35	0xbe64667e	-0.22304723
36	0x3e1dd930	0.15414882
37	0x3e141615	0.14461549
38	0x3dfd54e5	0.12369708
39	0xbe189876	-0.14901909
40	0x3e726442	0.23671058
41	0x3da9173b	0.08256384
42	0x3bdb2bc4	0.006688567
43	0xbe73c325	-0.2380491
44	0x3d07b171	0.033128206
45	0xbdf7888c	-0.12086591
46	0xbd202dce	-0.039106183
47	0xbc5ffca9	-0.013671079

layer2.bn2.weight f4 [4]
0	0x3f6599aa	0.896876
1	0x3f6cb409	0.9246221
2	0x3f648559	0.8926597
3	0x3f72017e	0.94533527

layer2.bn2.bias f4 [4]
0	0xbc46d848	-0.012136526
1	0x3d2dad3a	0.04240153
2	0x3d866bff	0.06563567
3	0xbc25da49	-0.010122844

layer2.bn2.running_mean f4 [4]
0	0x3c8b45ef	0.01700112
1	0xbee0574f	-0.4381661
2	0xbdd7478b	-0.105116926
3	0x3d5988ce	0.053108983

layer2.bn2.running_var f4 [4]
0	0x3d6433ec	0.05571358
1	0x3e0f02a8	0.13965857
2	0x3e1b9e49	0.151971
3	0x3da33fda	0.07971163

layer2.fc1.weight f4 [1, 4]
0	0xbeaa1397	-0.3321807
1	0x3d100e2a	0.035169758
2	0xbd216be4	-0.039409533
3	0xbeb1fa9f	-0.3476152

layer2.fc2.weight f4 [4, 1]
0	0x3df98d0e	0.12185107
1	0x3f6c45ad	0.92293817
2	0x3e36a344	0.17835718
3	0x3e6fb04b	0.23407094

layer2.fc2.bias f4 [4]
0	0x3f7486bd	0.95518094
1	0xbe80b401	-0.25137332
2	0x3f28a780	0.65880585
3	0x3f7094b7	0.9397692

layer3.conv1.weight f4 [8, 4, 1, 3]
0	0xbe6afb9c	-0.22947544
1	0xbe971929	-0.29511383
2	0x3e86bd61	0.2631636
3	0x3e771e52	0.2413266
4	0xbe4e2358	-0.2013067
5	0x3e50b10d	0.2038004
6	0xbc0c9b78	-0.0085819885
7	0xbf0b7113	-0.5446941
8	0x3d81a231	0.06329764
9	0x3dcee96d	0.10103116
10	0xbdb16e3a	-0.08663602
11	0x3e47a203	0.19495396
12	0x3e6af83e	0.2294626
13	0x3ebe3838	0.37152267
14	0xbdaeaa02	-0.0852852
15	0xbe582489	-0.21107687
16	0x3e50f650	0.20406461
17	0xbe867489	-0.26260784
18	0xbd815d49	-0.06316621
19	0xbde6e8c8	-0.11274868
20	0x3d83fdc0	0.06444883
21	0x3e8c8273	0.27443275
22	0xbdef13f8	-0.116737306
23	0xbe1462f8	-0.14490879
24	0x3d4f6dc4	0.05064179
25	0xbdd19774	-0.102339655
26	0x3d6121c3	0.05496384
27	0xbe76308a	-0.24041954
28	0xbdbcdeee	-0.09222208
29	0xbe6dce35	-0.23223193
30	0xbe7d59eb	-0.24741332
31	0xbe4460be	-0.19177529
32	0xbe141163	-0.14459758
33	0x3e36b0f4	0.1784094
34	0xbe0801cc	-0.13281935
35	0x3e847c0d	0.25875893
36	0x3e092785	0.13393982
37	0x3e8a44a5	0.27005497
38	0xbd4a7351	-0.04942638
39	0xbe0fd250	-0.14045072
40	0x3e977a04	0.29585278
41	0xbd97176b	-0.073775135
42	0xbe3b255e	-0.18275973
43	0xbe11df14	-0.14245254
44	0xbe4ee39c	-0.20204014
45	0x3d446c0c	0.047954604
46	0x3e473a45	0.19455822
47	0xbe49f37a	-0.19721785
48	0xbe6c3d27	-0.23070203
49	0x3c9dffbf	0.019286988
50	0x3e28c72d	0.1648223
51	0xbe6db25e	-0.23212573
52	0xbca32c93	-0.019918716
53	0x3e852e5a	0.26011926
54	0xbe84e065	-0.2595245
55	0xbe559e38	-0.20861137
56	0xbe8499f9	-0.25898722
57	0xbd8ab1f4	-0.06772223
58	0x3e9a10c1	0.30090907
59	0xbd3b0434	-0.045658305
60	0x3d532d75	0.051557023
61	0x3e2d890a	0.16946808
62	0xbd0bbf0e	-0.03411775
63	0x3d1b90cd	0.03797989
64	0x3e1c3cf3	0.15257625
65	0x3e415756	0.18880972
66	0x3e6f7cee	0.233875
67	0x3eb41649	0.35173252
68	0x3d3d3dfa	0.046201684
69	0xbe4b12eb	-0.19831435
70	0x3e1750f5	0.14776976
71	0x3de35671	0.11100472
72	0xbc643141	-0.013927759
73	0xbe03d402	-0.12873843
74	0x3dc9c714	0.09852424
75	0x3e536796	0.20644984
76	0xbe1012b6	-0.14069638
77	0x3daa3eff	0.08312797
78	0xbd624459	-0.055240963
79	0x3e00f24e	0.12592432
80	0xbe80e483	-0.2517434
81	0x3d51faa0	0.051264405
82	0x3e9da609	0.30790737
83	0x3e5b6639	0.21425714
84	0x3d64884e	0.055794053
85	0xbd95ad56	-0.07308452
86	0x3e8a1ef8	0.26976752
87	0x3e011963	0.1260734
88	0x3e1bd0d2	0.15216377
89	0x3db20c3b	0.08693739
90	0xbe49a37b	-0.19691269
91	0xbec77ea9	-0.38963822
92	0x3c01efdc	0.007930722
93	0xbe8a2aad	-0.26985684
94	0xbe33eb4a	-0.17570224
95	0x3e736cc9	0.23771967

layer3.bn1.weight f4 [8]
0	0x3f6a5c25	0.9154685
1	0x3f790c29	0.9728418
2	0x3f794f3a	0.97386515
3	0x3f6f9a71	0.93595034
4	0x3f819e32	1.0126402
5	0x3f7f03c8	0.99615145
6	0x3f7f378e	0.99694145
7	0x3f6cb466	0.92462766

layer3.bn1.bias f4 [8]
0	0xbc0391e8	-0.008030392
1	0xbd08cabc	-0.033396468
2	0x3cb485a2	0.022036377
3	0xbd22069a	-0.039557077
4	0x3d18036c	0.03711264
5	0x3d5db265	0.05412521
6	0x3b1fe7eb	0.0024399708
7	0xbd68599c	-0.056726083

layer3.bn1.running_mean f4 [8]
0	0xbf3866a4	-0.7203162
1	0x3e2f340c	0.17109698
2	0xbeb58a4a	-0.3545707
3	0x3eccb934	0.3998505
4	0x3e17fc9f	0.14842461
5	0x3f0af6f8	0.54283094
6	0x3e5a6747	0.2132846
7	0xbecdf588	-0.40226388

layer3.bn1.running_var f4 [8]
0	0x3f2d6ba4	0.6774237
1	0x3e36fc6d	0.1786973
2	0x3d86d0b7	0.06582778
3	0x3d636158	0.055512756
4	0x3e08c53c	0.13356489
5	0x3e69d9f8	0.22837055
6	0x3d92d942	0.07170345
7	0x3e56149a	0.20906296

layer3.conv2.weight f4 [8, 8, 1, 3]
0	0xbda22db9	-0.07918877
1	0xbe363876	-0.17794976
2	0xbdd07788	-0.10179049
3	0xbda0373a	-0.07823034
4	0x3e6b1eba	0.2296094
5	0x3d522d37	0.05131265
6	0x3db5ae01	0.08871079
7	0xbd961493	-0.07328143
8	0x3ca62f84	0.02028633
9	0x3d8b9608	0.068157256
10	0x3e6ffd27	0.23436414
11	0xbda00d2c	-0.07815012
12	0xbe464e4a	-0.19365802
13	0xbd862275	-0.06549541
14	0x3d89b830	0.06724584
15	0x3d99796d	0.07493863
16	0x3d8849ec	0.066547245
17	0xbdea0466	-0.1142662
18	0x3e1f1c41	0.15538122
19	0xbc509395	-0.012730499
20	0xbc81ccc7	-0.015844716
21	0xbdc0f0c8	-0.094209254
22	0x3d6ea6fd	0.05826472
23	0xbd3ec60e	-0.0465756
24	0xbe2b04e3	-0.16701083
25	0x3dcd984c	0.10038814
26	0xbd453d25	-0.048154015
27	0x3c860466	0.01635952
28	0x3e76a10f	0.24084876
29	0x3dde4645	0.108532466
30	0x3e18de3d	0.14928527
31	0x3e0607a0	0.13088846
32	0xbe2543e0	-0.16139174
33	0x3982a1f2	0.0002491619
34	0x3dbe9dea	0.093074635
35	0xbd8f68e3	-0.070024274
36	0xbe1d8894	-0.15384132
37	0xbe9bda9d	-0.30440226
38	0x3e2e0ee8	0.16997874
39	0xbd23bfac	-0.039977714
40	0xbeae0cd2	-0.33994156
41	0x3d3cddab	0.046109837
42	0xbd87d52c	-0.06632456
43	0xbe9747a4	-0.29546845
44	0xbd529a6f	-0.05141681
45	0xbe3c0bbf	-0.18363856
46	0x3ef37be4	0.4755546
47	0xbe376cf1	-0.17912652
48	0x3d606321	0.054782037
49	0x3e23cadc	0.15995353
50	0x3cfc8c24	0.030828543
51	0xbd00bd2b	-0.031430405
52	0xbdd35a8c	-0.10320005
53	0xbcdcfe82	-0.026976828
54	0x3d3c71f6	0.04600712
55	0x3df302dd	0.118657805
56	0xbe490c49	-0.19633593
57	0xbe488594	-0.19582206
58	0x3e20efa7	0.1571642
59	0xbe1e6fb6	-0.15472302
60	0x3e0910b7	0.13385282
61	0xbe07bb69	-0.13255085
62	0xbbd0c637	-0.0063712853
63	0xbe45cff1	-0.19317605
64	0xbdff6f51	-0.12472404
65	0x3e320f01	0.17388536
66	0xbd00116e	-0.031266622
67	0xbe1a2bd2	-0.15055779
68	0xbd98b030	-0.0745548
69	0x3da96ece	0.082730874
70	0x3dd9b1ce	0.10629617
71	0x3e2371c4	0.15961367
72	0x3e186fc4	0.14886385
73	0x3e2704bf	0.16310404
74	0x3df9aabe	0.121907696
75	0x3e124b45	0.14286526
76	0x3bdb035a	0.006683749
77	0x3e03e062	0.12878564
78	0x3dd0b9b0	0.10191667
79	0x3d801031	0.06253088
80	0xbe0fb433	-0.14033584
81	0x3d8e9a52	0.06963028
82	0x3e1f8a95	0.15580209
83	0x3d175789	0.036948714
84	0xbab348f4	-0.0013678358
85	0xbd378f9c	-0.04481469
86	0xbe160200	-0.146492
87	0xbd718146	-0.058961175
88	0x3e471a52	0.19443634
89	0x3beca94a	0.0072223293
90	0x3defc6c0	0.117078304
91	0x3cc86ba1	0.024465384
92	0xbc9e20fc	-0.019302838
93	0x3cca1ad4	0.024670996
94	0xbd86ee76	-0.065884516
95	0x3d73a620	0.0594846
96	0x3cd03c7b	0.025419464
97	0x3dde1cfa	0.108453706
98	0x3e38fc8a	0.18065086
99	0x3e004fd5	0.12530454
100	0x3e8fadb9	0.28062227
101	0xbcd8c7d2	-0.02646247
102	0x3e0c7fcb	0.13720624
103	0x3cf5d838	0.030010328
104	0x3e4033c7	0.18769751
105	0xbe18c7f4	-0.14920026
106	0x3d553144	0.052048936
107	0xbde65ecf	-0.11248552
108	0x3e07c6a4	0.13259369
109	0x3df78e99	0.12087745
110	0xbe1b412d	-0.15161581
111	0x3e3c6053	0.1839612
112	0xbe2ad42f	-0.16682504
113	0xbe3a9a36	-0.1822289
114	0x3e10c158	0.14136255
115	0xbcc35d39	-0.023848163
116	0xba4c0764	-0.0007783084
117	0x3e013cd9	0.12620868
118	0x3deb4f3f	0.11489724
119	0xbd5f176d	-0.0544657
120	0x3db2189a	0.086960986
121	0x3c5dec99	0.013545179
122	0xbccb8576	-0.024843913
123	0xbe02ee61	-0.12786247
124	0xbdc96918	-0.09834498
125	0xbe1a4188	-0.1506406
126	0xbe2c74fc	-0.16841501
127	0xbe2d89df	-0.16947125
128	0x3dc9799f	0.098376505
129	0x3db5319a	0.08847351
130	0xbe01eaad	-0.12687178
131	0x3d798c04	0.060924545
132	0x3d0ef868	0.034904867
133	0x3dc3c059	0.09558172
134	0xbe01f523	-0.12691168
135	0xbd523880	-0.051323414
136	0xbdda8d5c	-0.106714934
137	0x3dcf4df7	0.101222925
138	0xbe02a579	-0.12758435
139	0x3dee6749	0.11640794
140	0x3cfd4e58	0.030921146
141	0xbdae5855	-0.08512942
142	0x3d8f08eb	0.06984123
143	0x3d16920a	0.036760367
144	0xbcfe30ee	-0.03102919
145	0xbd0ab893	-0.03386743
146	0xbdc89950	-0.09794867
147	0xbd31d280	-0.04341364
148	0xbd30dd61	-0.043179873
149	0xbd346947	-0.044045713
150	0x3c169969	0.009191849
151	0xbe048578	-0.1294154
152	0xbd3206f5	-0.043463666
153	0x3cd09a13	0.025464093
154	0x3d5fa9d8	0.054605335
155	0x3da78b05	0.08180813
156	0xbdc43ba9	-0.09581692
157	0xbe6eedba	-0.23332873
158	0x3db23509	0.08701522
159	0x3e1f06e5	0.15529974
160	0x3d125743	0.03572775
161	0x3e06836b	0.1313607
162	0x3e3ab2ff	0.18232344
163	0xbe1d7894	-0.15378028
164	0xbd86af34	-0.06576386
165	0x3d46703e	0.048446886
166	0x3c92ea68	0.01793404
167	0x3dc193cc	0.09452018
168	0x3e40eb21	0.18839695
169	0xbe0ad6ca	-0.13558498
170	0xbe1bc49d	-0.15211721
171	0xbdc3acd4	-0.09554449
172	0xbe1c146f	-0.1524217
173	0xbd06e18f	-0.032929953
174	0x3d373d67	0.044736292
175	0x3e253089	0.16131796
176	0xbde41904	-0.11137584
177	0xbdf08a61	-0.11745144
178	0xbe25f954	-0.16208392
179	0x3dbd07c3	0.09229996
180	0x3be45c48	0.0069690086
181	0x3e755859	0.23959483
182	0x3e23eee8	0.16009104
183	0xbe02b3ea	-0.12763944
184	0xbea4437d	-0.3208274
185	0x3cdec94f	0.0271956
186	0x3e33731b	0.17524378
187	0x3e504730	0.20339656
188	0x3dc6e313	0.0971128
189	0xbe0d9f8e	-0.13830397
190	0x3df88552	0.12134804
191	0xbca80a57	-0.020512743

layer3.bn2.weight f4 [8]
0	0x3f711a70	0.94180965
1	0x3f89a0f8	1.0752249
2	0x3f84ae9d	1.0365788
3	0x3f5c9d44	0.8617747
4	0x3f8043e7	1.0020722
5	0x3f6f6b01	0.9352265
6	0x3f721a55	0.9457143
7	0x3f730368	0.9492707

layer3.bn2.bias f4 [8]
0	0x3d9f501b	0.07778951
1	0x3e1943aa	0.14967218
2	0x3d51b0c0	0.051193953
3	0xbc2a3c0e	-0.010390295
4	0xbce67afd	-0.028134817
5	0x3d030a99	0.03199253
6	0x3cbce0f7	0.02305649
7	0x3bb7bde8	0.0056073554

layer3.bn2.running_mean f4 [8]
0	0x3dadde2c	0.084896415
1	0xbd872a91	-0.06599916
2	0xbd334980	-0.043771267
3	0x3e165d3d	0.14684005
4	0x3e2b45dc	0.16725868
5	0xbd334323	-0.0437652
6	0xbe457edf	-0.19286679
7	0x3ce62d18	0.028097674

layer3.bn2.running_var f4 [8]
0	0x3e05283b	0.13003628
1	0x3e5c72b3	0.2152813
2	0x3d2a31d5	0.04155143
3	0x3d4d4fec	0.050125048
4	0x3ce583ed	0.028017009
5	0x3d8f0438	0.069832265
6	0x3d115d8f	0.035489615
7	0x3e9522e8	0.29128194

layer3.fc1.weight f4 [2, 8]
0	0xbdc125ae	-0.09431015
1	0xbcb1435a	-0.021638561
2	0xbd8a37d9	-0.06748933
3	0xbd969a57	-0.07353657
4	0xbe94cb81	-0.2906151
5	0x3e8065c4	0.2507764
6	0x3e71c357	0.23609672
7	0xbd12b223	-0.035814416
8	0xbdb5bdc5	-0.08874086
9	0xbc97752c	-0.01848849
10	0x3db5b4e9	0.088723965
11	0xbea65da2	-0.3249331
12	0xbdf230ff	-0.118257515
13	0xbe9401b4	-0.2890755
14	0x3d1c4b54	0.038157776
15	0x3dcdf8af	0.10057198

layer3.fc1.bias f4 [2]
0	0xbe9e0e88	-0.3087046
1	0x3e23c8cc	0.15994567

layer3.fc2.weight f4 [8, 2]
0	0x3e1e45a3	0.15456252
1	0xbe759dc6	-0.23985967
2	0xbe7bbdd3	-0.24584131
3	0x3f0f60eb	0.5600726
4	0xbe6faeb9	-0.23406495
5	0x3ef94139	0.48682573
6	0x3ef592af	0.47963473
7	0x3eae9afc	0.3410262
8	0xbf28ddd4	-0.6596348
9	0xbf00397a	-0.500877
10	0xbf1d97f0	-0.61559963
11	0xbe8600a1	-0.26172355
12	0x3dc26d22	0.09493472
13	0xbe0e8d2f	-0.13921045
14	0x3e948984	0.29011166
15	0xbf1da8c3	-0.61585635

layer3.fc2.bias f4 [8]
0	0xbecb70ca	-0.3973449
1	0xbf2c5b22	-0.6732656
2	0x3edcaf57	0.43102524
3	0x3cfdd229	0.030984001
4	0x3ef43746	0.4769842
5	0x3e1850ca	0.14874569
6	0x3ece2680	0.40263748
7	0xbe10c626	-0.14138088

layer3.shortcut.0.weight f4 [8, 4, 1, 1]
0	0xbe941851	-0.28924802
1	0x3e8c1816	0.27362126
2	0xbeb02384	-0.34402096
3	0xbee91644	-0.455248
4	0xbe3a53b3	-0.18195991
5	0x3ebcf6f1	0.3690715
6	0xbeac6bc4	-0.3367597
7	0xbf02827f	-0.5098037
8	0xbe5b460f	-0.21413444
9	0xbd7945f7	-0.06085774
10	0x3e1d9599	0.15389098
11	0xbf147a73	-0.5799934
12	0x3e7c91df	0.2466502
13	0x3eb253d1	0.34829572
14	0x3eb2accc	0.3489746
15	0xbef87e24	-0.48533738
16	0xbe9fce1b	-0.31211933
17	0xbe587c7e	-0.2114124
18	0x3e08123f	0.1328821
19	0x3eb4fa4e	0.35347217
20	0x3e4331f2	0.19062021
21	0x3eb9cdf2	0.36289936
22	0x3ee1359d	0.43986216
23	0x3edfa327	0.43679163
24	0x3f031afe	0.5121306
25	0x3ecaa867	0.39581606
26	0xbe951832	-0.29120022
27	0xbdb816ee	-0.089887485
28	0xbdac4d8b	-0.08413228
29	0x3ea48ffa	0.32141095
30	0xbec82119	-0.39087752
31	0xbd022cbd	-0.031780947

layer3.shortcut.1.weight f4 [8]
0	0x3f822a12	1.0169089
1	0x3f8ca5da	1.0988114
2	0x3f7cde8c	0.9877708
3	0x3f68c31f	0.9092273
4	0x3f65fcb8	0.89838743
5	0x3f7d9132	0.99049675
6	0x3f76970f	0.9632425
7	0x3f7e4d21	0.9933644

layer3.shortcut.1.bias f4 [8]
0	0x3dda0048	0.10644585
1	0x3e1e3d9c	0.1545319
2	0x3d804551	0.06263221
3	0xbbb1f9d8	-0.005431395
4	0xbd5e5fd7	-0.05429062
5	0x3ce3f2d3	0.027825749
6	0x3d444677	0.047918763
7	0x3cb587ff	0.022159575

layer3.shortcut.1.running_mean f4 [8]
0	0xbf3cd781	-0.7376633
1	0xbf2ae059	-0.6674858
2	0xbf1ca7c6	-0.611935
3	0x3dc24552	0.09485878
4	0x3dc9e913	0.098589085
5	0x3f764c8a	0.9621054
6	0x3e84dd9d	0.25950328
7	0xbe59819e	-0.21240851

layer3.shortcut.1.running_var f4 [8]
0	0x3eb66c00	0.35629272
1	0x3e87ed54	0.26548254
2	0x3e2723a5	0.16322191
3	0x3f35894d	0.7091263
4	0x3e613a9a	0.21995011
5	0x3e8ae5f8	0.27128577
6	0x3e810324	0.2519771
7	0x3e928d14	0.2862326

layer4.conv1.weight f4 [8, 8, 1, 3]
0	0xbda82191	-0.08209527
1	0x3bd7b5e6	0.0065829633
2	0xbe454bee	-0.19267246
3	0xbe326dc5	-0.17424686
4	0xbdfbcfd9	-0.12295503
5	0x3ddccf38	0.10781711
6	0xbde8ba6e	-0.11363684
7	0x3d36ed83	0.044660103
8	0x3c4fcb21	0.012682707
9	0x3c180f79	0.009281033
10	0xbd9ff8a3	-0.078110956
11	0x3e354f09	0.17705931
12	0xbdaa97b9	-0.0832972
13	0x3a4c4d21	0.00077934755
14	0xbe24412e	-0.16040489
15	0x3d18ac11	0.03727347
16	0xbd6a7e9b	-0.057249647
17	0x3cd7963c	0.026316755
18	0xbdfb48a9	-0.12269718
19	0x3eaa3227	0.33241388
20	0x3e4586a3	0.19289641
21	0xbe3b37a5	-0.18282945
22	0x3eb02c1d	0.34408656
23	0xbd4668bb	-0.048439723
24	0xbdfdde31	-0.12395895
25	0x3d02b38e	0.031909518
26	0xbe2dc775	-0.16970618
27	0xbc2963a3	-0.010338697
28	0x3e2a78ae	0.16647598
29	0xbc199ca6	-0.009375727
30	0xbe1233b8	-0.14277542
31	0xbe41d95e	-0.18930575
32	0xbd5cae98	-0.053877443
33	0xba31ed38	-0.00067873625
34	0xbc72c3ac	-0.01481716
35	0x3d92dd71	0.07171143
36	0xbdddc5da	-0.10828753
37	0xbe0ba587	-0.13637362
38	0x3dcd5258	0.100254714
39	0xbd39b314	-0.045336798
40	0x3dfc17dc	0.12309238
41	0x3e1aa969	0.15103687
42	0xbd8b0bc2	-0.06789352
43	0x3e24624d	0.16053124
44	0x3d646dec	0.055768892
45	0xbd54afcc	-0.051925465
46	0xbe35ce5f	-0.17754506
47	0xbe37dbfa	-0.17955008
48	0x3da894e4	0.08231524
49	0xbdff9af4	-0.12480727
50	0x3e34b17b	0.17645828
51	0xbd99423d	-0.07483337
52	0x3e87bb38	0.26510024
53	0x3e281ad9	0.16416492
54	0xbd382cbd	-0.04496454
55	0x3e20520b	0.15656297
56	0x3dba6b80	0.09102535
57	0xbb2babad	-0.0026194856
58	0xbdfc54cc	-0.12320861
59	0xbe34bbdb	-0.17649786
60	0xbdf822a2	-0.12115981
61	0x3e239be5	0.15977438
62	0x3dc60cd9	0.09670419
63	0xbe1863da	-0.1488184
64	0xbe255e51	-0.1614926
65	0x3df654b7	0.12027877
66	0x3d345cf5	0.044033963
67	0x3e046a7e	0.12931249
68	0xbdd9c48f	-0.10633194
69	0xbd9137ed	-0.07090745
70	0xbdb68feb	-0.08914169
71	0xbe2c0cb3	-0.1680172
72	0xbd8b85ff	-0.06812667
73	0x3e40f2bc	0.18842596
74	0x3d799413	0.06093223
75	0x3c5fc32e	0.013657374
76	0x3e6b7ca1	0.22996761
77	0xbd049e24	-0.032377377
78	0x3e023c2f	0.1271827
79	0x3e7a9781	0.24471857
80	0x3dac24fb	0.08405491
81	0xbdad2f18	-0.08456248
82	0xbd969001	-0.07351685
83	0x3de8a6c2	0.113599315
84	0x3e2d93a2	0.16950849
85	0xbe1995ca	-0.14998546
86	0xbe30557d	-0.17220111
87	0x3d099c24	0.033596173
88	0xbd4be045	-0.049774427
89	0xbd49c971	-0.049264375
90	0x3e2ed8b3	0.17074852
91	0xbc3724da	-0.01117822
92	0xbd935f8f	-0.07195961
93	0x3b604303	0.003421963
94	0xbdb2b4b4	-0.08725873
95	0xbd6e325f	-0.058153506
96	0xbe235de7	-0.1595379
97	0xbe3345f1	-0.1750715
98	0x3dd717de	0.10502599
99	0xbd8f5ead	-0.0700048
100	0xbddbe5c1	-0.107371815
101	0xbda84f8e	-0.08218299
102	0xbe43a811	-0.19107081
103	0xbe30ac3b	-0.172532
104	0xbd2f43bb	-0.042789202
105	0xbe3a0605	-0.18166359
106	0xbd8f816b	-0.070071064
107	0xbdf8f0fd	-0.1215534
108	0xbd7e4f1d	-0.062087167
109	0xbde69974	-0.112597376
110	0xbd7b0621	-0.06128514
111	0x3cdeb3e1	0.027185382
112	0xbe372b80	-0.17887688
113	0x3dd631da	0.10458727
114	0x3b9421ba	0.004520622
115	0xbe880e45	-0.26573387
116	0xbe122d32	-0.14275053
117	0x3d960cf2	0.07326688
118	0x3e7b80f1	0.24560906
119	0x3dc185fe	0.09449385
120	0x3e391a43	0.18076424
121	0x3e4068d4	0.18789989
122	0xbd8127f3	-0.06306448
123	0xbc1b702a	-0.009487191
124	0xbdd63b50	-0.10460532
125	0xbc82676b	-0.015918454
126	0x3d2dee7f	0.042463776
127	0xbd0abdc3	-0.033872377
128	0xbdb03edd	-0.0860574
129	0xbdc805ec	-0.097667545
130	0xbba3f624	-0.0050037075
131	0x3e110b22	0.14164403
132	0xbe3f1c00	-0.18663025
133	0x3d91cb91	0.07118905
134	0xbc3a5a62	-0.011374088
135	0xbe28e62e	-0.16494057
136	0xbd7d88b3	-0.061897945
137	0xbe1ef2eb	-0.15522353
138	0x3e3fbe7a	0.18725005
139	0x3e433b44	0.19065577
140	0xbda9f98f	-0.08299553
141	0xbd7074cd	-0.05870514
142	0x3c6a1e09	0.0142893875
143	0x3ce01b23	0.02735669
144	0x3dae1579	0.08500189
145	0xbc5d908d	-0.013523233
146	0x3e0fbb55	0.14036305
147	0x3d12ddc2	0.035856016
148	0x3d6b26b1	0.057409946
149	0xbe184ae1	-0.14872314
150	0xbca537e9	-0.020168262
151	0x3e596f9f	0.21233986
152	0xbe055b1a	-0.13023034
153	0x3c908246	0.017640244
154	0x3e66bca3	0.22532897
155	0xbb26fe0c	-0.0025481014
156	0x3e039c46	0.12852582
157	0xbcf9592b	-0.030438026
158	0xbe0f0ce4	-0.13969761
159	0xbdf58a20	-0.11989236
160	0xbe345166	-0.17609176
161	0xbd1e1fd1	-0.03860456
162	0x3e1ef2d3	0.15522318
163	0x3f03c599	0.51473385
164	0x3dcedced	0.10100732
165	0x3d9fc69c	0.078015536
166	0xbcf3eccc	-0.029776
167	0x3dd766e9	0.105176754
168	0xbe3b22b7	-0.18274961
169	0xbe7eaa52	-0.2486966
170	0x3ddc33bf	0.10752057
171	0x3e0a9be6	0.13536033
172	0x3db6960a	0.089153364
173	0xbdc287b6	-0.09498541
174	0xbd30747e	-0.043079846
175	0xbe076156	-0.13220724
176	0x3d57ff56	0.05273374
177	0xbde9cc90	-0.1141597
178	0xbd10a984	-0.035317913
179	0xbe1f9669	-0.1558472
180	0xbdeb22d6	-0.11481254
181	0xbd99402d	-0.07482944
182	0x3e39f742	0.18160728
183	0xbe15ef14	-0.14641982
184	0x3ebf02ff	0.37306973
185	0x3da9d63a	0.082928136
186	0xbd96009c	-0.07324335
187	0xbeb6a5c6	-0.3567335
188	0xbdb22b5a	-0.08699675
189	0x3e053743	0.13009362
190	0x3b982471	0.004643016
191	0x3c50317b	0.01270711

layer4.bn1.weight f4 [8]
0	0x3f7c10d2	0.98463166
1	0x3f6c70da	0.923597
2	0x3f79e920	0.97621346
3	0x3f82d42c	1.0221
4	0x3f7321a1	0.9497319
5	0x3f7a11d6	0.97683465
6	0x3f6e1cbe	0.9301261
7	0x3f7771b3	0.96657866

layer4.bn1.bias f4 [8]
0	0xbc39a8d4	-0.011331756
1	0x3c845fd7	0.016158981
2	0x3ba7e145	0.00512329
3	0x3d50d8f7	0.050988164
4	0x3c1dd4dc	0.009633269
5	0xbbbbab1d	-0.0057271854
6	0xbd195e9d	-0.037443746
7	0xbc68c83d	-0.014207897

layer4.bn1.running_mean f4 [8]
0	0x3e622586	0.22084627
1	0x3d74a0e2	0.059723742
2	0x3e837fd7	0.25683472
3	0x3e97fe34	0.2968613
4	0xbee5ff2b	-0.4492124
5	0x3d9601da	0.07324572
6	0x3ef6e2bb	0.48219857
7	0xbe4ac383	-0.19801144

layer4.bn1.running_var f4 [8]
0	0x3d273ae1	0.040827636
1	0x3d8b7b0f	0.06810581
2	0x3e248afe	0.16068646
3	0x3e92319f	0.28553483
4	0x3e467d66	0.19383773
5	0x3d284ab5	0.04108687
6	0x3f1f0226	0.62112653
7	0x3e7402ad	0.23829146

layer4.conv2.weight f4 [8, 8, 1, 3]
0	0x3cd4cdbb	0.025977006
1	0xbd88403e	-0.06652878
2	0x3e3f78d4	0.18698436
3	0xbdbb0969	-0.09132654
4	0x3dc8bb6a	0.098013714
5	0xbe37c64b	-0.17946737
6	0xbe1ac4d0	-0.1511414
7	0xbd7b592b	-0.061364334
8	0x3dd2e5e7	0.10297757
9	0x3e115c9a	0.14195481
10	0x3e9886ac	0.29790246
11	0xbe3dab18	-0.18522298
12	0xbe23ab91	-0.15983416
13	0x3e0bb286	0.1364232
14	0x3e42689b	0.18985216
15	0x3d1f78e3	0.038933646
16	0x3e700290	0.23438478
17	0xbd81547a	-0.06314941
18	0x3c445d41	0.011985124
19	0xbd4e4902	-0.050362594
20	0x3d8609ff	0.06544875
21	0x3ced2075	0.02894614
22	0x3eb3f626	0.35148734
23	0xbe279055	-0.16363652
24	0xbe11a923	-0.14224677
25	0x3d250c72	0.040295072
26	0xbe045d32	-0.12926176
27	0x3d71a672	0.058996625
28	0x3e24bb4a	0.1608707
29	0xbe1d3f3f	-0.15356158
30	0x3ced6332	0.028977964
31	0x3e3b80fb	0.18310921
32	0xbe2c49b3	-0.16824989
33	0xbdf0f1f9	-0.117649026
34	0x3ddaf4ab	0.10691198
35	0x3d3e268c	0.04642348
36	0x3bc8c346	0.006126794
37	0xbe6f16d7	-0.23348556
38	0xbb1e04e5	-0.0024111804
39	0xbcbd8c3d	-0.02313816
40	0x3de8f46b	0.11374744
41	0x3e483af7	0.19553743
42	0xbe076c9b	-0.13225023
43	0xbe13ee86	-0.14446458
44	0xbdbfa847	-0.09358268
45	0xbe079fa8	-0.13244498
46	0x3e87edab	0.26548514
47	0x3e459e37	0.19298635
48	0x3c0dd34c	0.008656334
49	0x3df5347c	0.11972901
50	0x3d2d7ff9	0.042358372
51	0xbd86cc53	-0.065819405
52	0xbdc82eb4	-0.09774533
53	0xbc0b2076	-0.008491626
54	0xbbee5e70	-0.0072744414
55	0x3e5f5ff0	0.21813941
56	0x3e4743fc	0.19459528
57	0x3d91c044	0.0711675
58	0x3e6934f8	0.22774112
59	0x3e3f06e9	0.1865498
60	0x3e03a1f9	0.12854756
61	0xbdd690da	-0.10476847
62	0x3bc10dfb	0.005891559
63	0xbd14d63f	-0.036337133
64	0x3e4030bb	0.18768589
65	0x3dbc72fa	0.092016175
66	0x3e3b25b3	0.182761
67	0x3e9eeb8a	0.31039077
68	0xbde72053	-0.11285462
69	0xbe18583f	-0.14877413
70	0xbd946b53	-0.07247033
71	0x3e0acf63	0.13555674
72	0x3e0a01ca	0.13477245
73	0x3e9aacf2	0.30210072
74	0xbce25eb2	-0.027633045
75	0x3cfc22f2	0.030778382
76	0x3eb11546	0.34586543
77	0x3cb13374	0.02163098
78	0x3d433389	0.04765657
79	0x3ce0a574	0.027422644
80	0xbb1696be	-0.0022978033
81	0x3d5cff0f	0.05395418
82	0xbd84fd54	-0.06493631
83	0x3e1a36d3	0.15059976
84	0x3d990f2e	0.074735984
85	0xbd946901	-0.072465904
86	0x3cbb8ae2	0.022893373
87	0x3e2782d8	0.16358507
88	0x3eeed726	0.4664852
89	0xbd568984	-0.05237724
90	0x3e1f0f5a	0.155332
91	0x3e47a567	0.1949669
92	0xbe0a867e	-0.13527867
93	0xbe392daf	-0.18083833
94	0x3e59ff2b	0.21288745
95	0x3e266c22	0.16252187
96	0xbd8586c4	-0.06519845
97	0x3e8c8b00	0.274498
98	0x3d6657d8	0.056236118
99	0xbe2afa00	-0.1669693
100	0x3d6a44bd	0.05719446
101	0xbd874ece	-0.06606828
102	0xbe3d1540	-0.18465137
103	0x3d088087	0.0333257
104	0x3de45a7b	0.1115007
105	0xbe3d2fd6	-0.18475279
106	0x3e3f94c8	0.187091
107	0xbdbf9ca0	-0.09356046
108	0x3d8c7b41	0.06859446
109	0x3e6bc42e	0.23024055
110	0x3df25a3a	0.118336156
111	0x3e39d383	0.18147092
112	0x3e170145	0.14746578
113	0x3e10375f	0.14083622
114	0xbd62a272	-0.0553307
115	0x3d9e741b	0.07736989
116	0xbdde2096	-0.10846059
117	0xbdb5dddb	-0.08880206
118	0xbc93a142	-0.01802123
119	0x3dbbc5e7	0.09168606
120	0xbc5ef2a7	-0.0136076575
121	0x3e111f6f	0.14172147
122	0x3df499e6	0.11943416
123	0xbdac57c1	-0.08415175
124	0x3ca2bdcb	0.019865891
125	0x3e49c4c2	0.19703963
126	0x3c4ed697	0.012624404
127	0xbe98499d	-0.29743662
128	0xbd91cec7	-0.07119518
129	0x3e27a7d0	0.16372609
130	0xbe9d31fc	-0.30702198
131	0x3d2b56dd	0.041830886
132	0x3e0eef67	0.13958512
133	0x3e5e3db3	0.21703224
134	0x3d9c0ac1	0.07619239
135	0x3cbfb826	0.023403239
136	0x3dc0f2bf	0.094213
137	0xbdac58b7	-0.084153585
138	0xbdd1486f	-0.10218894
139	0x3cce35e7	0.025172187
140	0x3db418d4	0.08793798
141	0xbd8ec287	-0.06970697
142	0x3d3c94b6	0.04604026
143	0x3e2396dd	0.15975519
144	0xbe1186ce	-0.1421158
145	0x3dd83e41	0.10558749
146	0x3e145868	0.1448685
147	0x3cf87929	0.030331211
148	0xbe5882f6	-0.21143708
149	0x3dade1d2	0.084903374
150	0x3dbb5b74	0.09148303
151	0xbde26e36	-0.11056177
152	0x3e1f1a50	0.15537381
153	0xbe474168	-0.19458544
154	0xbdf6f386	-0.12058167
155	0xbe48d91f	-0.19614075
156	0x3e318d5d	0.17339082
157	0xbce85db9	-0.028365003
158	0xbe48342f	-0.19551156
159	0xbdfdedc1	-0.123988636
160	0x3debec20	0.11519647
161	0xbda461b0	-0.08026445
162	0xbde32e27	-0.11092787
163	0x3e63da7d	0.22251315
164	0xbbc6866a	-0.006058504
165	0xbbd567f7	-0.0065126377
166	0x3e0a092b	0.1348006
167	0xbda80b9d	-0.0820534
168	0x3e287fdc	0.16455024
169	0xbc336e2b	-0.010951559
170	0xbe168664	-0.14699703
171	0x3c08d782	0.008352162
172	0x3e3fb8db	0.1872286
173	0x3e1791e0	0.1480174
174	0x3e2aa876	0.16665825
175	0xbdcf8df0	-0.10134494
176	0xbda2f0a7	-0.07956057
177	0xbc303907	-0.010755784
178	0x3e99e5cf	0.30058143
179	0x3cdf49f9	0.027256953
180	0xbe01a078	-0.1265887
181	0xbe613697	-0.2199348
182	0xbd83e9f8	-0.064411104
183	0x3e37e5b7	0.17958723
184	0xbd28363a	-0.04106734
185	0xbe19527c	-0.14972872
186	0x3d8002b8	0.062505186
187	0x3d738d1c	0.059460744
188	0x3dcc26d4	0.099683434
189	0xbcb0dd98	-0.02159004
190	0xbd1b6efe	-0.037947647
191	0x3dc32c0d	0.095298864

layer4.bn2.weight f4 [8]
0	0x3f767a9e	0.9628085
1	0x3f538abf	0.82633585
2	0x3f67cdb1	0.90548235
3	0x3f6700ec	0.9023578
4	0x3f7cea0f	0.98794645
5	0x3f8b9354	1.0904336
6	0x3f69a1bf	0.9126243
7	0x3f80aa1b	1.0051912

layer4.bn2.bias f4 [8]
0	0x3d18f10b	0.03733925
1	0x3dafeace	0.08589707
2	0x3d407e70	0.04699558
3	0xbb8dcf98	-0.0043277256
4	0xbc432061	-0.011909575
5	0x3e2a17af	0.16610597
6	0xbb9561db	-0.0045587844
7	0x3b938c90	0.0045028403

layer4.bn2.running_mean f4 [8]
0	0x3eb91673	0.3614994
1	0x3e4f0fe6	0.20220909
2	0x3e8b66bd	0.2722682
3	0x3ee12d95	0.4398009
4	0x3eb2aeb0	0.348989
5	0xbdc98ae7	-0.09840947
6	0xbd105ce3	-0.035244834
7	0x3dac6811	0.084182866

layer4.bn2.running_var f4 [8]
0	0x3cbfefa1	0.023429694
1	0x3d59dd82	0.053189762
2	0x3e912692	0.2834974
3	0x3f435040	0.76294327
4	0x3e0f1595	0.13973077
5	0x3e5f533e	0.21809098
6	0x3dc0db64	0.094168454
7	0x3da7d8dc	0.081956595

layer4.fc1.weight f4 [2, 8]
0	0xbe2fa154	-0.17151386
1	0xbe443a2f	-0.1916282
2	0x3e57d18c	0.2107603
3	0xbe478496	-0.19484171
4	0x3df99abd	0.12187717
5	0xbea8aa0f	-0.32942244
6	0xbe1c3950	-0.15256238
7	0x3c5bff89	0.013427624
8	0xbea040f1	-0.31299546
9	0x3d09f007	0.033676174
10	0xbea4ff8e	-0.32226223
11	0xbea5a66c	-0.32353532
12	0x3d9091ac	0.07059035
13	0x3cdcc012	0.026947055
14	0x3eadfaad	0.33980313
15	0x3da0d70c	0.07853517

layer4.fc1.bias f4 [2]
0	0x3d4f3018	0.050582975
1	0xbea358b0	-0.319036

layer4.fc2.weight f4 [8, 2]
0	0x3e9fb75e	0.31194586
1	0x3ea18a63	0.31550893
2	0xbe9da70a	-0.30791503
3	0x3f2709da	0.6524941
4	0xbebedb38	-0.37276626
5	0x3e5cccc0	0.21562481
6	0xbcc08472	-0.023500655
7	0xbdaf3957	-0.085558586
8	0xbe1cf44e	-0.1532757
9	0xbe2bde36	-0.16783985
10	0x3f226334	0.6343262
11	0xbe887b24	-0.2665645
12	0xbe8dd12b	-0.27698645
13	0x3ea8fcd3	0.3300539
14	0x3eda63c8	0.42654252
15	0x3f234859	0.6378227

layer4.fc2.bias f4 [8]
0	0xbeda32fc	-0.42617023
1	0xbe23d72c	-0.1600005
2	0xbe9fa3ac	-0.3117956
3	0x3f1564bc	0.58356833
4	0xbf1a68a0	-0.60315895
5	0xbe1dec4a	-0.15422168
6	0xbd3f6abe	-0.046732657
7	0xbee7b2be	-0.45253557

layer5.conv1.weight f4 [16, 8, 1, 3]
0	0xba091b60	-0.00052302144
1	0x3e61e686	0.22060594
2	0xbe13f768	-0.14449847
3	0x3d473210	0.048631728
4	0x3ea02874	0.31280863
5	0xbd471385	-0.0486026
6	0x3e01a8da	0.12662068
7	0x3e025745	0.12728603
8	0x3d7183b9	0.05896351
9	0xbd70d4e0	-0.058796763
10	0xbded7025	-0.115936555
11	0xbe0dfc0a	-0.13865677
12	0xbd15544d	-0.03645735
13	0x3d3df8bd	0.046379793
14	0xbd4d3ed4	-0.050108746
15	0x3e29e96a	0.16592947
16	0xbdfe3931	-0.12413252
17	0xbda58bed	-0.08083329
18	0xbda417c7	-0.08012348
19	0xbddf2a54	-0.10896745
20	0x3dc04b63	0.09389379
21	0x3d9b3f85	0.07580475
22	0xbdfee446	-0.124458835
23	0x3e092e45	0.13396557
24	0xbe05f5bf	-0.13082026
25	0x3e409c9e	0.18809745
26	0x3ceedd21	0.029158177
27	0x3e2f68e3	0.17129855
28	0xbe221acb	-0.15830533
29	0xbe302683	-0.17202191
30	0xbe34a70d	-0.1764185
31	0x3d4dc6ae	0.050238304
32	0x3d748a9d	0.059702504
33	0xbdf59f5c	-0.11993286
34	0x3d9617d8	0.073287666
35	0xbde7b2de	-0.11313413
36	0xbd79a60d	-0.060949374
37	0xbe736ede	-0.23772761
38	0xbcf8b9d0	-0.03036204
39	0x3db1aad8	0.08675164
40	0x3da5b5ac	0.08091292
41	0xbe0959d0	-0.13413167
42	0x3de77cd7	0.11303108
43	0x3d889200	0.06668472
44	0xbd924654	-0.0714232
45	0x3d73c198	0.059510797
46	0x3d45fc2d	0.048336197
47	0xbe3e80ec	-0.18603867
48	0xbd933e1a	-0.07189579
49	0xbe2800af	-0.16406511
50	0xbd63d34d	-0.055621434
51	0xbbb1ceb6	-0.005426253
52	0x3d3d5d51	0.04623157
53	0xbd7a32e5	-0.061083693
54	0x3ddbf71c	0.10740492
55	0xbe21948c	-0.15779322
56	0xbe3fb68b	-0.18721978
57	0xbdddf885	-0.10838417
58	0xbd5c9f58	-0.0538629
59	0xbc47ca2d	-0.012194199
60	0x3deadd57	0.114679985
61	0xbd85437e	-0.06507014
62	0xbe37f3e7	-0.17964135
63	0xbdcb001e	-0.09912132
64	0xbdcddc81	-0.100518234
65	0x3e0f0f20	0.13970613
66	0xbd58a063	-0.05288733
67	0xbc99da58	-0.018780872
68	0xbd0cd250	-0.034380257
69	0xbd874a50	-0.06605971
70	0xbdb27a22	-0.08714701
71	0xbe10bfea	-0.1413571
72	0x3dee7a45	0.11644415
73	0x3df1449a	0.11780663
74	0x3d761bf8	0.060085267
75	0x3dc41144	0.09573606
76	0xbe48ca9d	-0.19608541
77	0x3def4cff	0.11684608
78	0xbc450f91	-0.012027637
79	0x3e1f546f	0.15559553
80	0xbd125d0b	-0.035733264
81	0xbdfc7835	-0.12327615
82	0x3de9d928	0.114183724
83	0x3d98456c	0.07435116
84	0xbd9093c2	-0.070594326
85	0x3e419e26	0.18907985
86	0x3e38e38c	0.18055552
87	0xbddcf2d7	-0.107885055
88	0x3dc0c429	0.094124146
89	0x3e3c56e1	0.18392517
90	0x3d65dcbf	0.056118723
91	0x3cc8aee2	0.024497453
92	0x3e296916	0.16543993
93	0x3d278372	0.04089684
94	0xbc8479d7	-0.016171379
95	0xbdd0a0a7	-0.10186892
96	0xbdbac57f	-0.09119701
97	0xbe2d71dd	-0.16937967
98	0xbccf5d48	-0.025313035
99	0x3ddfa705	0.10920528
100	0x3ddbf5c4	0.107402354
101	0x3d1b6663	0.03793944
102	0x3d19e2f3	0.03756995
103	0xbe416d91	-0.18889453
104	0x3d4631ab	0.04838721
105	0xbdedb849	-0.11607415
106	0xbd734dbe	-0.059400313
107	0x3c9db9f8	0.019253716
108	0x3d10f59b	0.035390478
109	0x3dc71c5b	0.09722205
110	0xbe0d0864	-0.13772732
111	0x3ce3efd9	0.02782433
112	0x3e4bc58c	0.19899577
113	0x3e174fc5	0.14776523
114	0x3e431bb1	0.19053532
115	0x3e1247d8	0.14285219
116	0x3d927756	0.07151668
117	0xbe27abd1	-0.16374137
118	0xbe788a79	-0.24271573
119	0x3dc1527c	0.09439561
120	0xbe32cfb2	-0.17462042
121	0xbd812eac	-0.0630773
122	0xbe139c37	-0.1441506
123	0x3dde4b33	0.10854187
124	0xbcd9bf14	-0.026580371
125	0xbda2915e	-0.07937883
126	0xbe3ca97d	-0.1842403
127	0xbe24312a	-0.1603438
128	0xbe1a492a	-0.15066972
129	0xbe21e951	-0.1581166
130	0x3d9812d5	0.07425467
131	0x3d06eb95	0.032939512
132	0xbde4dd61	-0.11175037
133	0x3e0f4d8e	0.13994429
134	0xbdb6ad26	-0.08919744
135	0xbcf2cd91	-0.029639037
136	0x3d85b7ea	0.065292194
137	0x3dbc28df	0.09187483
138	0xbd236a30	-0.03989619
139	0x3aa9d2c1	0.0012956486
140	0xbd8ff280	-0.07028675
141	0x3d769451	0.06020004
142	0xbd0bcd08	-0.03413108
143	0xbe0bc7f3	-0.13650493
144	0xbcc96981	-0.024586441
145	0x3dc38023	0.095459245
146	0xbd98c73b	-0.07459875
147	0x3d00031d	0.03125297
148	0xbd18511c	-0.037186727
149	0xbd0f3051	-0.034958187
150	0x3d4e58bc	0.050377592
151	0xbe3627b4	-0.17788583
152	0xbe0e4912	-0.13895062
153	0xbde65d56	-0.11248271
154	0x3c97d93b	0.0185362
155	0x3e421751	0.18954207
156	0xbb150024	-0.002273568
157	0xbcd34420	-0.02578932
158	0x3c23cff4	0.00999831
159	0xbe2acdf3	-0.16680126
160	0x3d3efd38	0.046628207
161	0x3e010cfa	0.12602606
162	0x3dfea74c	0.12434253
163	0x3d9ae1ee	0.07562624
164	0x3e20b6a4	0.15694672
165	0xbe454bdc	-0.1926722
166	0xbd2aec35	-0.04172917
167	0x3db4fd59	0.08837385
168	0x3dd25139	0.10269398
169	0x3ef7a8b6	0.48370904
170	0xbe31b0a7	-0.17352544
171	0x3e485e09	0.19567122
172	0x3e8f2102	0.2795487
173	0xbda26a6a	-0.07930453
174	0xbe2dfb11	-0.16990305
175	0x3ec3a627	0.38212702
176	0x3e3fb6bd	0.18722053
177	0xbd43533a	-0.047686793
178	0x3ef7997e	0.48359293
179	0x3d9ab0c6	0.07553248
180	0xbe0a55f0	-0.13509345
181	0xbe26e376	-0.16297707
182	0x3cae56b9	0.021281587
183	0x3c524b53	0.0128353415
184	0xbe1087fb	-0.14114372
185	0xbdd223c8	-0.10260731
186	0xbd964075	-0.07336513
187	0x3ebbcff9	0.36682108
188	0x3c919aea	0.017774064
189	0xbd1d2727	-0.038367417
190	0x3daafa52	0.08348526
191	0xbd8ee7c9	-0.06977803
192	0x3e2c006c	0.16797036
193	0x3e3c21a8	0.18372214
194	0xbe268930	-0.1626327
195	0x3db14a17	0.0865671
196	0x3e043318	0.12910116
197	0xbdbbb6ce	-0.091657266
198	0xbd01d1c0	-0.031694174
199	0xbdc9ae96	-0.09847753
200	0xbdfc308c	-0.12313947
201	0xbd5c832a	-0.053836025
202	0xbe11c801	-0.14236452
203	0xbb51d1f8	-0.003201602
204	0xbdaa10a2	-0.08303954
205	0xbe041ea5	-0.12902315
206	0xbe347149	-0.1762134
207	0xbe3b0232	-0.18262556
208	0xbe229cee	-0.15880176
209	0xbe3132ba	-0.17304507
210	0x3d5f1c9b	0.05447064
211	0xbd20db54	-0.039271668
212	0x3d56b102	0.0524149
213	0x3daa4f7b	0.08315941
214	0xbd91c240	-0.07117128
215	0x3e1bb05b	0.15203993
216	0x3d1a3c18	0.037654966
217	0x3dba9f50	0.09112418
218	0xbe1665fe	-0.14687344
219	0x3e453446	0.19258222
220	0x3e8de5df	0.2771444
221	0x3dc0f56d	0.09421811
222	0x3a4865c3	0.0007644558
223	0x3db827a9	0.089919396
224	0xbdaca23e	-0.08429383
225	0xbd9feb12	-0.07808508
226	0x3e428ba7	0.18998586
227	0x3cbbb2b9	0.02291237
228	0x3dccc784	0.09998992
229	0xbe3e1fa4	-0.18566757
230	0xbd032bda	-0.032024242
231	0xbd19ff2b	-0.037596863
232	0xbe10421f	-0.14087723
233	0x3dd35f55	0.103209175
234	0xbe0d3e73	-0.13793354
235	0x3e6cc1f1	0.23120858
236	0x3d21c9f0	0.039499223
237	0xbc3af9e2	-0.011412116
238	0x3e7dbf9b	0.24780123
239	0x3bafae34	0.005361343
240	0xbe3e2587	-0.18569003
241	0xbe2ddc64	-0.16978604
242	0xbe33ca35	-0.17557605
243	0xbd3cb909	-0.0460749
244	0xbe136096	-0.14392313
245	0xbd9fe81c	-0.07807943
246	0x3dcab24e	0.0989729
247	0xbe37706e	-0.17913982
248	0x3e06406c	0.13110512
249	0x3e136800	0.14395142
250	0xbda70024	-0.08154324
251	0x3dff2a61	0.12459255
252	0xbe0910b5	-0.1338528
253	0xbdc33f4b	-0.095335566
254	0x3d8f9fa0	0.07012868
255	0x3de11cb1	0.109918006

layer5.bn1.weight f4 [16]
0	0x3f73cffa	0.9523922
1	0x3f6ed156	0.9328817
2	0x3f799035	0.9748567
3	0x3f700864	0.93762803
4	0x3f80979d	1.0046269
5	0x3f7f5e7e	0.9975356
6	0x3f76feb1	0.9648238
7	0x3f80057d	1.0001675
8	0x3f769b12	0.9633037
9	0x3f7596dd	0.95933324
10	0x3f760454	0.96100354
11	0x3f768336	0.9629396
12	0x3f7c17df	0.98473924
13	0x3f6c7297	0.9236235
14	0x3f766ff9	0.96264607
15	0x3f79521d	0.9739092

layer5.bn1.bias f4 [16]
0	0x3b92468b	0.004463976
1	0x3a69d632	0.0008920162
2	0x3c9d1b1b	0.019177964
3	0x3cb58cde	0.022161897
4	0x3d95a93a	0.07307668
5	0x3da11a76	0.07866375
6	0x3c37151d	0.011174467
7	0x3da26c91	0.07930864
8	0xbc9affca	-0.018920798
9	0x3d8c7000	0.068573
10	0xbc1d1b73	-0.009589064
11	0x3c80d5d8	0.015726969
12	0xbc90f9a0	-0.017697155
13	0x3d31058b	0.043218177
14	0xbbb137c6	-0.00540826
15	0xbb98b9f3	-0.0046608387

layer5.bn1.running_mean f4 [16]
0	0x3ea8c4e4	0.32962716
1	0x3d274d7e	0.040845387
2	0xbebf22de	-0.3733129
3	0x3e470e40	0.1943903
4	0xbc8f915c	-0.017525367
5	0xbd987736	-0.07444613
6	0xbda59c7d	-0.080864884
7	0x3fab4bdc	1.3382525
8	0xbe165f59	-0.1468481
9	0x3f2c94b8	0.67414427
10	0xbeb757b1	-0.3580909
11	0xbe6470a9	-0.22308601
12	0x3eed5014	0.46350157
13	0x3e8a15d7	0.26969787
14	0xbe93acb4	-0.288427
15	0x3e496976	0.19669136

layer5.bn1.running_var f4 [16]
0	0x3ef3658b	0.4753841
1	0x3d9fd79c	0.07804796
2	0x3e766fb6	0.24066052
3	0x3ee41975	0.44550672
4	0x3e1db775	0.15402015
5	0x3de835f1	0.113384135
6	0x3d85c703	0.06532099
7	0x40913fa7	4.53902
8	0x3e949307	0.29018423
9	0x3f736bc2	0.950863
10	0x3e9da8f7	0.30792972
11	0x3e4f5ea8	0.20250952
12	0x3f1a9d27	0.60396045
13	0x3e63f4ff	0.22261427
14	0x3e99541c	0.29946983
15	0x3e04832c	0.12940663

layer5.conv2.weight f4 [16, 16, 1, 3]
0	0x3d6e0732	0.05811233
1	0x3c223100	0.009899378
2	0x3c5b56dc	0.013387408
3	0xbd3c9794	-0.046042994
4	0xbe2943e0	-0.16529799
5	0xbdd73e52	-0.105099335
6	0x3e04c642	0.12966254
7	0xbd8074e9	-0.06272299
8	0xbd8df8bc	-0.06932208
9	0xbda867b9	-0.082229085
10	0x3dc4d9f3	0.09611883
11	0xbd3dd29e	-0.04634344
12	0x3c0b088c	0.008485924
13	0xbd852050	-0.06500304
14	0xbdae0fe1	-0.084991224
15	0xbd47e200	-0.048799515
16	0x3d15a510	0.03653437
17	0xbdedcaf9	-0.116109796
18	0xbdf8245d	-0.12116311
19	0xbe3be76c	-0.18349999
20	0x3ce4b65d	0.027918989
21	0x3dc82636	0.09772913
22	0x3d2ff448	0.042957574
23	0xbd6a61fc	-0.05722235
24	0x3dc56636	0.09638636
25	0xbd29fed2	-0.04150278
26	0x3deb78ac	0.11497626
27	0x3dd03159	0.10165662
28	0xbca008a8	-0.019535378
29	0xbd9e0cdb	-0.07717296
30	0xbdaa01fe	-0.08301161
31	0x3e0735c4	0.13204104
32	0x3e0b5bd8	0.13609254
33	0x3c1bbd45	0.009505575
34	0xbe39c6d7	-0.18142258
35	0xbdcf4c14	-0.101219326
36	0xbcec347e	-0.028833624
37	0xbdc563b1	-0.09638155
38	0x3d6675c4	0.056264654
39	0x3d5df968	0.05419293
40	0xbe9fb24d	-0.3119072
41	0x3d3b25bf	0.045690294
42	0x3e0149ac	0.1262576
43	0xbdc4dfdc	-0.0961301
44	0x3dd4875f	0.103773825
45	0xbe0515d1	-0.12996604
46	0x3d46cfc4	0.048537984
47	0x3d0fe400	0.035129547
48	0x3d9e4816	0.07728593
49	0xbe0ca91c	-0.13736385
50	0xbd5f8969	-0.054574404
51	0xbde81092	-0.113312855
52	0x3d9a83a3	0.07544639
53	0xbc12c54e	-0.008958174
54	0xbd1b0f15	-0.03785618
55	0xbdbe0780	-0.09278774
56	0xbcb686f6	-0.022281151
57	0x3d54ee1f	0.051984902
58	0x3e3a365f	0.18184803
59	0x3e02b7e7	0.12765466
60	0x3d442f13	0.047896456
61	0x3e2b14e1	0.16707183
62	0xbdfe2f64	-0.12411383
63	0x3d2b7ae0	0.04186523
64	0x3e1979a7	0.14987813
65	0x3d9302b0	0.07178247
66	0xbd7a9989	-0.06118158
67	0xbac064b9	-0.0014678455
68	0xbc94d1d3	-0.018166458
69	0xbc9b42c6	-0.018952738
70	0xbe3326a4	-0.17495209
71	0xbcd4ae81	-0.025962116
72	0xbda66b54	-0.0812594
73	0xbe73e2b0	-0.23816943
74	0x3c730f92	0.014835255
75	0xbd91ac7d	-0.07112978
76	0xbd678b87	-0.056529548
77	0x3d17ff8b	0.03710894
78	0xbde9b207	-0.11410909
79	0x3d6ad3cf	0.057330903
80	0xbd3662c0	-0.04452777
81	0xbd1c0612	-0.038091727
82	0x3d80e561	0.062937506
83	0x3d1702b9	0.03686783
84	0x3d844aad	0.06459556
85	0x3d4b82b6	0.049685203
86	0xbdcf4989	-0.101214476
87	0xbc39add9	-0.011332952
88	0x3c586cae	0.013209505
89	0xbccfa360	-0.025346458
90	0x3d8f398e	0.069933996
91	0xbcd3504f	-0.02579513
92	0xbdc068d6	-0.09394996
93	0xbdb2aeb8	-0.08724731
94	0xbe40b404	-0.1881867
95	0xbdf7dfe5	-0.12103251
96	0x3dbf1e41	0.09331942
97	0x3cb60dbe	0.02222335
98	0xbdf0a212	-0.117496625
99	0x3c24a736	0.010049632
100	0x3cb3eaa2	0.021962468
101	0xbd913042	-0.070892826
102	0x3ba5fdad	0.005065641
103	0xbdeff04c	-0.11715755
104	0x3e06a4a8	0.13148749
105	0x3dc655d6	0.09684341
106	0xbd1afcf7	-0.037838902
107	0x3dc82a1d	0.097736575
108	0xbd8357e5	-0.06413249
109	0xbe067118	-0.1312908
110	0x3da53a30	0.08067739
111	0x3cbe3ec3	0.023223286
112	0x3d6299e4	0.055322543
113	0xbdbf4988	-0.09340197
114	0xbc7b0471	-0.015320883
115	0x3e271b68	0.16319048
116	0xbd8b821e	-0.06811927
117	0xbe0cff8b	-0.13769357
118	0xbd881cb0	-0.06646097
119	0xbd5595a5	-0.052144665
120	0x3c4a6efc	0.012355562
121	0x3e101e6c	0.14074105
122	0x3d9d94a0	0.076943636
123	0x3bdfb69f	0.00682719
124	0x3e3e463d	0.18581481
125	0x3dae3c89	0.0850764
126	0x3d58dce1	0.05294502
127	0xbd5f56e9	-0.054526243
128	0xbde766fc	-0.112989396
129	0x3df35a13	0.11882415
130	0x3e96e7a5	0.29473606
131	0x3e0e7381	0.13911249
132	0xbdf475dc	-0.119365424
133	0x3dcde791	0.100539334
134	0x3e00f611	0.12593867
135	0xbcfebfd5	-0.031097332
136	0x3e30ad3c	0.17253584
137	0xbd63985e	-0.05556523
138	0xbc291542	-0.01032001
139	0x3da1e067	0.079041295
140	0xbde144b1	-0.1099943
141	0x3cb3ac17	0.021932645
142	0x3dd82d61	0.1055553
143	0xbbcc4ea3	-0.00623496
144	0xbd465ebe	-0.048430197
145	0xbde9475d	-0.113905646
146	0x3dd1f391	0.10251535
147	0x3db540d4	0.088502556
148	0x3e1c31b9	0.15253343
149	0xbde4986b	-0.11161884
150	0xbc213e84	-0.009841565
151	0xbda1fd75	-0.07909671
152	0xbdac54e3	-0.08414628
153	0xbd8079b0	-0.0627321
154	0x3ce8ac9e	0.028402623
155	0x3d0ab375	0.03386255
156	0x3cd565c3	0.0260495
157	0xbcaeb6c8	-0.021327391
158	0x3dbb160b	0.09135064
159	0x3de1722d	0.110081054
160	0xbdacab66	-0.08431129
161	0xbde55f50	-0.1119982
162	0x3d9b53ca	0.07584341
163	0x3d95efe4	0.07321146
164	0xbb15cffa	-0.002285956
165	0xbd2c491c	-0.04206191
166	0x3e0261ca	0.12732616
167	0x3da5b167	0.080904774
168	0xbd64d674	-0.05586858
169	0x3dc76e65	0.09737853
170	0xbdb45fb9	-0.0880732
171	0x3dd1e4a2	0.102486864
172	0x3d23ba80	0.039972782
173	0xbdae9254	-0.085240036
174	0xbd4c60fa	-0.04989717
175	0x3d3cde65	0.04611053
176	0x3dcc6ac8	0.099813044
177	0x3bc90aff	0.006135344
178	0x3d87245f	0.06598734
179	0x3c8079bb	0.015683046
180	0xbd3f2ac0	-0.04667163
181	0x3e075a63	0.13218074
182	0x3dfdf9dc	0.124011725
183	0xbe035852	-0.1282666
184	0x3c38ab56	0.011271318
185	0xbd2eeae9	-0.042704497
186	0x3df163e2	0.11786629
187	0x3da14e91	0.078763135
188	0x3b8e74e9	0.004347433
189	0xbdc85ce8	-0.097833455
190	0x3ddefb7b	0.1088781
191	0x3d952704	0.07282832
192	0xbd4a8ea9	-0.049452458
193	0x3d320fc1	0.043472055
194	0x3dcec50b	0.10096177
195	0xbdcce7e3	-0.100051664
196	0xbce2b401	-0.027673723
197	0x3d1c40e7	0.038147833
198	0x3dc19443	0.09452107
199	0x3cf24cdf	0.02957767
200	0xbcd69e3f	-0.026198504
201	0xbdced199	-0.10098571
202	0x3de466fd	0.11152456
203	0x3d95b046	0.07309012
204	0xbdfdb142	-0.12387325
205	0xbd474602	-0.04865075
206	0x3cb0694c	0.021534584
207	0x3c09a7f5	0.0084018605
208	0x3c87f43d	0.016595954
209	0xbde76a7b	-0.112996064
210	0x3e0b3a24	0.13596398
211	0xbde66264	-0.11249235
212	0x3d452641	0.048132185
213	0x3db43efd	0.088010766
214	0xbc6f06b8	-0.014589004
215	0x3da6bf70	0.081419826
216	0x3c88b918	0.016689822
217	0xbe14a5fc	-0.14516443
218	0xbcd004ab	-0.02539285
219	0xbd7b99f4	-0.061426118
220	0x3d056f0c	0.032576606
221	0x3d4a1eeb	0.049345892
222	0xbdaf7e7d	-0.085690476
223	0x3e3107d6	0.17288145
224	0xbd0b7c73	-0.03405423
225	0x3dc8c3e5	0.09802989
226	0x3de2bb1c	0.110708445
227	0x3d66c5d1	0.056340996
228	0x3e0aee1d	0.13567396
229	0x3d39c05c	0.045349464
230	0x3e0269ab	0.12735622
231	0x3c82e77b	0.01597952
232	0xbdf1c7d2	-0.11805691
233	0xbdaed162	-0.0853603
234	0xbddbcbae	-0.10732208
235	0xbd3a1dac	-0.045438454
236	0x3ca92e76	0.020652037
237	0x3d62d778	0.05538127
238	0xbde100db	-0.10986491
239	0xbd41ee97	-0.047346678
240	0x3d970e10	0.07375729
241	0xbea23d8a	-0.31687576
242	0x3e080a74	0.13285238
243	0xbd7a1ebf	-0.061064478
244	0xbe44ebc8	-0.19230568
245	0x3d90d8c9	0.070725985
246	0xbd202bfb	-0.039104443
247	0xbd8dc5d3	-0.069224976
248	0xbdafda15	-0.08586518
249	0xbdb9c61d	-0.0907099
250	0xbde49534	-0.11161271
251	0x3e0c29de	0.13687846
252	0x3e0d088e	0.13772795
253	0x3db9e1f4	0.090763
254	0x3d98aa2c	0.07454333
255	0x3d9f5068	0.07779008

layer5.bn2.weight f4 [16]
0	0x3f7c8873	0.98645705
1	0x3f8d98f0	1.1062298
2	0x3f7b2638	0.9810519
3	0x3f6fc0d5	0.93653613
4	0x3f7a49fe	0.97769153
5	0x3f868bb4	1.0511384
6	0x3f6de53c	0.9292791
7	0x3f7b6839	0.98205906
8	0x3f7d9ea6	0.99070203
9	0x3f80a2eb	1.0049719
10	0x3f7334e0	0.95002556
11	0x3f7201be	0.9453391
12	0x3f7bd416	0.9837049
13	0x3f827d80	1.019455
14	0x3f7cecbd	0.98798734
15	0x3f8f258f	1.1183337

layer5.bn2.bias f4 [16]
0	0xbd3927a2	-0.045203812
1	0x3ead9602	0.3390351
2	0x3d491680	0.049093723
3	0xbdfd4e53	-0.12368455
4	0x3ce0a6ac	0.027423225
5	0x3e0e7333	0.13911133
6	0xbcd62a4c	-0.026143216
7	0xbcace391	-0.021104606
8	0x3e0e4caf	0.1389644
9	0x3db5db3f	0.088797085
10	0x3ce06e06	0.027396213
11	0xbe0dabfb	-0.13835137
12	0x3df08b80	0.117453575
13	0x3dc95aa2	0.0983174
14	0x3cfff45b	0.031244447
15	0x3e36189c	0.17782825

layer5.bn2.running_mean f4 [16]
0	0xbe92d4f7	-0.28678104
1	0xbd427ff7	-0.047485318
2	0x3ea56754	0.32305396
3	0x3e397cb5	0.18113978
4	0xbd290383	-0.041263115
5	0xbf07687c	-0.52893806
6	0x3f1668f6	0.5875391
7	0xbe34b05a	-0.17645398
8	0xbe1f7de6	-0.1557537
9	0xbc844f93	-0.016151225
10	0x3ef983d5	0.48733392
11	0xbddba468	-0.107247174
12	0xbe804fd3	-0.250609
13	0xbe3eef1e	-0.18645903
14	0xbd539e68	-0.05166474
15	0xbf27cfcb	-0.6555144

layer5.bn2.running_var f4 [16]
0	0x3e1f284a	0.15542713
1	0x3e895f19	0.26830366
2	0x3e5445f0	0.20729804
3	0x3e27fefb	0.16405861
4	0x3cd70b5b	0.026250532
5	0x3f997cdc	1.1991229
6	0x3eb7b369	0.35879067
7	0x3dfffeae	0.12499748
8	0x3e2872dd	0.16450067
9	0x3d419f74	0.047271207
10	0x3f522d2a	0.82100165
11	0x3dd023e7	0.10163098
12	0x3d3eecb2	0.04661245
13	0x3dd132b7	0.10214751
14	0x3d0628ef	0.03275388
15	0x3f3f4489	0.7471395
