das_new - 副本/models/20260106_201050/best_model.pth (torch, 99330 bytes, 176 tensors)

input_conv.weight f4 [4, 1, 1, 3]
0	0x3ef34f1f	0.47521302
1	0xbda33429	-0.07968933
2	0x3ec832f6	0.3910138
3	0xbf0417f1	-0.5159903
4	0xbeaeaaf8	-0.34114814
5	0xbee69e89	-0.45042828
6	0xbe395a55	-0.18100865
7	0xbe820f9b	-0.2540253
8	0xbe957298	-0.2918899
9	0xbf0cf39b	-0.5505921
10	0xbe254a59	-0.16141643
11	0x3e0515f5	0.12996657

input_bn.weight f4 [4]
0	0x3fb8a6f2	1.4425948
1	0x3f542595	0.82869846
2	0x3f708708	0.9395604
3	0x3f930d45	1.1488425

input_bn.bias f4 [4]
0	0xbe2b758c	-0.1674406
1	0x3f09f886	0.5389484
2	0xbd36a66e	-0.044592313
3	0xbe5b81ef	-0.21436284

input_bn.running_mean f4 [4]
0	0x304363f8	7.108265e-10
1	0x3141913b	2.816775e-09
2	0x311c9ea6	2.279117e-09
3	0x30d08b30	1.5173551e-09

input_bn.running_var f4 [4]
0	0x3bcf5a3d	0.006327896
1	0x3deed470	0.11661613
2	0x3d846bb3	0.064658545
3	0x3cd5e04b	0.026107928

layer1.conv1.weight f4 [4, 4, 1, 3]
0	0xbcbeafd8	-0.023277208
1	0x3e50b9ad	0.2038333
2	0x3e300912	0.1719096
3	0xbe4ed325	-0.20197733
4	0x3ee633c0	0.44961357
5	0xbe7e086b	-0.24807899
6	0xbe8e2bb8	-0.2776773
7	0x3deecb40	0.116598606
8	0xbdeb7991	-0.11497796
9	0x3dc2241f	0.09479546
10	0xbdee21e9	-0.116275616
11	0xbe4e733f	-0.2016115
12	0xbcc3d404	-0.023904808
13	0x3e0eb100	0.13934708
14	0xbdf1b80f	-0.118026845
15	0xbdf56725	-0.11982564
16	0x3f1cb60d	0.6121529
17	0x3d49b19f	0.04924166
18	0xbe4a7f46	-0.19775113
19	0x3e26d95c	0.16293854
20	0x3e3d0a52	0.18460968
21	0xbe3327b6	-0.17495617
22	0xbca9222c	-0.020646177
23	0xbe0b92fa	-0.13630286
24	0x3e28e06e	0.16491863
25	0x3e2877ce	0.16451952
26	0x3e88c98f	0.26716277
27	0x3e7f07e5	0.24905355
28	0x3f81cb26	1.0140121
29	0x3d048eda	0.032362796
30	0x3e3b939d	0.18318029
31	0x3f0490dd	0.51783544
32	0x3ddb2f2f	0.10702359
33	0xbe02ee61	-0.12786247
34	0x3eefb671	0.4681888
35	0x3e42b567	0.19014512
36	0xbd8c0e98	-0.06838721
37	0x3e8c13df	0.2735891
38	0x3e8042ee	0.25051063
39	0x3d8ad950	0.0677973
40	0x3d53884c	0.051643655
41	0x3e7bfd5b	0.24608366
42	0x3e40186e	0.18759319
43	0x3ebe2fcc	0.3714584
44	0xbe353574	-0.17696172
45	0x3e5e50ae	0.21710464
46	0x3dc54ed6	0.096341774
47	0xbdad94de	-0.0847566

layer1.bn1.weight f4 [4]
0	0x3f6ec9ff	0.9327697
1	0x3f74d330	0.95634747
2	0x3f66a946	0.9010204
3	0x3f859153	1.0434974

layer1.bn1.bias f4 [4]
0	0x3e91fbca	0.28512412
1	0x3ef8a7d1	0.48565534
2	0x3eed47bb	0.46343789
3	0xbea7599c	-0.32685554

layer1.bn1.running_mean f4 [4]
0	0x3eca554f	0.3951821
1	0x3f03865b	0.51376885
2	0x3f8c20d4	1.0947518
3	0x3e94f482	0.29092795

layer1.bn1.running_var f4 [4]
0	0x3daca164	0.0842922
1	0x3e0ef05e	0.1395888
2	0x3f3fa74f	0.7486467
3	0x3daeed9c	0.08541414

layer1.conv2.weight f4 [4, 4, 1, 3]
0	0xbe7c6b17	-0.24650227
1	0xbe72caf1	-0.23710229
2	0x3e43a4f1	0.19105889
3	0xbe718f16	-0.23589739
4	0xbeaec5ac	-0.34135187
5	0x3e582f62	0.21111825
6	0x3e3a4210	0.18189263
7	0xbe2b10de	-0.16705653
8	0xbdeecabc	-0.11659762
9	0x3c2ae2d6	0.010430058
10	0xbec6b720	-0.38811588
11	0x3d1e989e	0.038719766
12	0xbdf34f2b	-0.118803345
13	0xbe6fbab5	-0.23411067
14	0xbe40f105	-0.18841942
15	0x3d3ebba1	0.046565656
16	0xbdf6bbec	-0.12047562
17	0xbe4db8fa	-0.20090094
18	0xbe2ab32e	-0.16669914
19	0xbe06b250	-0.13153958
20	0x3dffaf4e	0.124846086
21	0xbe542e66	-0.20720825
22	0x3d8958a5	0.06706361
23	0x3e8a10b8	0.2696588
24	0x3e2cdac9	0.16880335
25	0xbc897523	-0.016779488
26	0x3e2aab89	0.16666998
27	0x3df7628b	0.120793425
28	0x3ea3a634	0.3196274
29	0xbe6bea55	-0.2303861
30	0x3d826f92	0.063689366
31	0x3e79ba49	0.24387468
32	0x3e921055	0.28528085
33	0x3e887478	0.2665136
34	0x3e188385	0.1489392
35	0xbe781c96	-0.24229655
36	0x3e66115e	0.22467563
37	0x3e07a65e	0.13247058
38	0xbe757181	-0.2396908
39	0x3d74a7d2	0.05973036
40	0x3e92b0cd	0.28650513
41	0x3e31e41a	0.1737217
42	0xbcd40659	-0.025881933
43	0x3e5d3705	0.2160302
44	0xbe057d0f	-0.13035987
45	0x3e6c3b7d	0.23069568
46	0x3ebcff4a	0.3691352
47	0xbe3d1ac2	-0.18467239

layer1.bn2.weight f4 [4]
0	0x3f91a404	1.1378179
1	0x3f9d6c59	1.229869
2	0x3f91fbaf	1.1404933
3	0x3fa96038	1.3232489

layer1.bn2.bias f4 [4]
0	0x3ed90df7	0.42393467
1	0xbf16cc22	-0.5890523
2	0xbe5c3068	-0.2150284
3	0x3e53670a	0.20644775

layer1.bn2.running_mean f4 [4]
0	0xbf15d378	-0.585258
1	0xbe929ed2	-0.28636795
2	0x3ed9ddb2	0.42551953
3	0x3f06080a	0.52356017

layer1.bn2.running_var f4 [4]
0	0x3ed450e0	0.41467953
1	0x3da6fbf2	0.081535235
2	0x3e495bb0	0.19663882
3	0x3ea65112	0.32483727

layer1.fc1.weight f4 [1, 4]
0	0x3eaa735b	0.33291134
1	0xbe6c964e	-0.23104212
2	0xbee74586	-0.4517023
3	0x3eac67d9	0.3367298

layer1.fc2.weight f4 [4, 1]
0	0xbf76ab40	-0.96355057
1	0xbf77ad56	-0.96748865
2	0x3f6a96a6	0.9163612
3	0xbf4e4729	-0.8057733

layer1.fc2.bias f4 [4]
0	0x3f1da7d5	0.61584216
1	0x3d9e30f5	0.077241816
2	0xbebc0533	-0.36722717
3	0xbd8c7266	-0.06857757

layer1.shortcut.0.weight f4 [4, 4, 1, 1]
0	0xbf69c639	-0.9131809
1	0xbd91e84d	-0.07124386
2	0xbe9f20ed	-0.31079808
3	0xbf5d5fa5	-0.86474067
4	0x3ecfea4d	0.40608445
5	0x3e620b5c	0.22074646
6	0xbe246cf8	-0.16057193
7	0x3e2458d1	0.16049506
8	0xbf352824	-0.70764375
9	0x3e5e5e98	0.21715772
10	0xbeb9fcc5	-0.3632566
11	0xbee8986d	-0.45428792
12	0x3f0c7e87	0.54880565
13	0x3cbed4a0	0.023294747
14	0x3e1f0f07	0.15533076
15	0x3de25a3b	0.11052366

layer1.shortcut.1.weight f4 [4]
0	0x3f380e47	0.71896785
1	0x3f5e1345	0.8674815
2	0x3f7cbd89	0.9872671
3	0x3f7d0fd6	0.9885229

layer1.shortcut.1.bias f4 [4]
0	0x3e6d609c	0.23181385
1	0xbe68de94	-0.22741157
2	0xbdedc861	-0.11610485
3	0xbe1e1bfd	-0.15440364

layer1.shortcut.1.running_mean f4 [4]
0	0xbf4b82f8	-0.7949672
1	0x3ea7b143	0.32752427
2	0xbece213e	-0.40259737
3	0x3ea5460b	0.3228

layer1.shortcut.1.running_var f4 [4]
0	0x3f3075a9	0.68929535
1	0x3da7c1e4	0.081912786
2	0x3e7c5aa7	0.24643956
3	0x3de8cd0c	0.113672346

layer2.conv1.weight f4 [4, 4, 1, 3]
0	0x3e796855	0.24356206
1	0x3d8030a5	0.06259278
2	0x3e83de5a	0.25755578
3	0xbd3395de	-0.043844096
4	0xbe8132f7	-0.25234196
5	0x3e655726	0.22396526
6	0xbe8fcf26	-0.2808773
7	0xbe961794	-0.29314864
8	0xbdf4c9f2	-0.119525805
9	0xbe5eecfd	-0.21770091
10	0xbff54b0d	-1.9163529
11	0x3e6888bc	0.2270841
12	0x3e6ce823	0.23135428
13	0xbe931c20	-0.28732395
14	0xbe18bb36	-0.14915165
15	0x3e87c836	0.26519936
16	0xbed222f0	-0.4104228
17	0x3d9fd4d9	0.07804269
18	0xbd826618	-0.06367129
19	0x3e0f83ee	0.14015171
20	0xbe14b3c0	-0.14521694
21	0x3d1e3a98	0.038630098
22	0x3edb1b60	0.42794323
23	0x3dae2d0e	0.08504687
24	0x3e53ea46	0.20694837
25	0xbf33ef14	-0.7028668
26	0xbe8ae94b	-0.27131113
27	0xbe8eefbe	-0.27917284
28	0x3ea063c5	0.31326118
29	0xbd0d4b15	-0.034495432
30	0x3e8e36be	0.2777614
31	0xbd9761c2	-0.07391693
32	0x3e7c25f8	0.24623859
33	0x3d8e5567	0.06949883
34	0x3f441258	0.7659049
35	0xbe3826e1	-0.17983581
36	0xbe119fcb	-0.14221112
37	0xbf37a2d6	-0.7173284
38	0x3d99fdbd	0.075191
39	0x3e05b1da	0.13056126
40	0xbe028287	-0.12745105
41	0x3e3d11e4	0.18463856
42	0x3e16a45f	0.1471114
43	0x3ecdd685	0.40202728
44	0x3e57a041	0.21057226
45	0x3da068fb	0.078325234
46	0xbf876a9d	-1.0579411
47	0x3de893d6	0.113563225

layer2.bn1.weight f4 [4]
0	0x3f6be199	0.9214111
1	0x3f80916d	1.004438
2	0x3f625a36	0.884189
3	0x3f95ecfa	1.1712945

layer2.bn1.bias f4 [4]
0	0xbd1c9fcd	-0.038238335
1	0xbd5ffaed	-0.05468266
2	0xbe5a570b	-0.21322267
3	0xbe740242	-0.23828986

layer2.bn1.running_mean f4 [4]
0	0xbfdb180f	-1.7116717
1	0x3df438c0	0.11924887
2	0x3d83cccb	0.064355455
3	0xbfc913b8	-1.5709143

layer2.bn1.running_var f4 [4]
0	0x40e79f78	7.2382164
1	0x3f193fd7	0.59863037
2	0x40164aee	2.3483233
3	0x3faf3665	1.3688475

layer2.conv2.weight f4 [4, 4, 1, 3]
0	0x3e74d3bf	0.239089
1	0x3c149c0b	0.009070407
2	0x3e486dd6	0.19573149
3	0x3e84f765	0.25969997
4	0x3d2568dc	0.040383205
5	0x3d9b8cc7	0.075952105
6	0xbe2aa367	-0.16663896
7	0x3f12672d	0.57188684
8	0xbe6f5472	-0.23372057
9	0x3e14dee7	0.14538155
10	0xbe7a2dab	-0.24431483
11	0x3e0f0f77	0.13970743
12	0x3e122357	0.14271294
13	0x3bd3bcf6	0.006461735
14	0x3d78eaad	0.06077068
15	0x3cc701ef	0.024292914
16	0xbef693c9	-0.48159626
17	0xbe8c1752	-0.27361542
18	0x3dc2708f	0.09494125
19	0x3e4e6ebe	0.20159432
20	0xbe155da2	-0.145865
21	0xbe67a95b	-0.22623198
22	0x3f438e68	0.7638917
23	0x3e649ec1	0.22326185
24	0xbcea5212	-0.028603587
25	0x3f91d15a	1.1392014
26	0x3e28dc60	0.16490316
27	0xbe7234b8	-0.23652923
28	0xbee4c9f6	-0.44685334
29	0x3d9d1220	0.07669473
30	0x3d4521f5	0.048128087
31	0xbd9eddfd	-0.07757185
32	0xbdb0237e	-0.086005196
33	0x3d3446b8	0.044012755
34	0xbea024fd	-0.3127822
35	0x3e0d0a9c	0.13773578
36	0x3e31ea67	0.17374574
37	0xbd6c28f0	-0.05765623
38	0x3e413f3a	0.18871775
39	0xbb25e7be	-0.002531513
40	0x3eab7386	0.33486575
41	0xbdb868f4	-0.09004393
42	0xbe7759dd	-0.24155374
43	0xbd72d098	-0.05928096
44	0xbd841449	-0.064491816
45	0xbe3f0720	-0.18655062
46	0xbf20536b	-0.62627286
47	0xbe2c3bcf	-0.1681969

layer2.bn2.weight f4 [4]
0	0x3f6371c2	0.88845456
1	0x3f83485b	1.0256456
2	0x3f788d3b	0.970905
3	0x3f1f03b1	0.6211501

layer2.bn2.bias f4 [4]
0	0xbda79045	-0.08181814
1	0x3e0a64e9	0.13515057
2	0x3da084fd	0.078378655
3	0x3c35d703	0.011098626

layer2.bn2.running_mean f4 [4]
0	0x3e0be6f7	0.13662325
1	0x3dabe413	0.08393111
2	0x3e030850	0.1279614
3	0xbd3e45a5	-0.046453137

layer2.bn2.running_var f4 [4]
0	0x3e0b4d0a	0.13603607
1	0x3e0eaa73	0.13932209
2	0x3eb70a51	0.35750058
3	0x3e019345	0.12653835

layer2.fc1.weight f4 [1, 4]
0	0x3e19ecd1	0.15031745
1	0xbec33377	-0.38125202
2	0x3ec0ed69	0.3768113
3	0x3f03bed4	0.51463056

layer2.fc2.weight f4 [4, 1]
0	0x3e147fbd	0.14501853
1	0x3eef0729	0.4668515
2	0x3f5f34fe	0.87190235
3	0x3eec48ee	0.4614939

layer2.fc2.bias f4 [4]
0	0xbe89af79	-0.26891688
1	0x3e749cec	0.23887986
2	0x3cd6ab54	0.026204742
3	0xbf648673	-0.89267653

layer3.conv1.weight f4 [8, 4, 1, 3]
0	0x3e808336	0.25100106
1	0x3f02f699	0.5115753
2	0x3e758dc3	0.23979859
3	0xbe8c06a7	-0.27348825
4	0xbe264b24	-0.16239601
5	0xbe72e5ee	-0.23720524
6	0xbe3073f5	-0.17231734
7	0xbe362d63	-0.17790751
8	0xbe92046c	-0.28519
9	0xbce7e110	-0.02830556
10	0xbf4fcb0f	-0.8116922
11	0x3d805d6d	0.062678196
12	0xbe0c468a	-0.13698784
13	0x3daa09a5	0.08302621
14	0x3d9b3f5d	0.07580445
15	0xbe0aae78	-0.13543117
16	0x3d3e108b	0.046402495
17	0xbdd11f97	-0.102111034
18	0x3e552298	0.20813978
19	0x3e3ed019	0.1863407
20	0x3d517fe7	0.051147368
21	0xbe10a6b1	-0.14126088
22	0x3f883783	1.0641941
23	0x3c2b975a	0.010473097
24	0xbe868939	-0.26276568
25	0xbe018bca	-0.12650982
26	0xbdb2d523	-0.08732059
27	0xbe6cd66c	-0.2312867
28	0x3c426e65	0.01186714
29	0x3cc2bb2e	0.023770895
30	0xbe2cd92b	-0.16879718
31	0xbea88c57	-0.3291957
32	0xbe18c951	-0.14920546
33	0xbe54f75a	-0.20797482
34	0x3e8f869e	0.28032392
35	0xbe8dc27b	-0.2768744
36	0x3d83356d	0.064066745
37	0x3ee2df20	0.44310856
38	0xbe77e6a8	-0.24209082
39	0x3e006014	0.12536651
40	0x3e193906	0.14963159
41	0x3d64f39b	0.055896383
42	0x3de10f24	0.10989216
43	0xbf1bc578	-0.6084819
44	0x3c5d5893	0.013509887
45	0x3e13f63a	0.14449397
46	0x3e87803f	0.26465032
47	0xbe710bf0	-0.2353971
48	0xbe2b1b9d	-0.16709752
49	0xbcc79af3	-0.024365878
50	0xbe7e2fa3	-0.2482286
51	0x3dcbe574	0.09955874
52	0x3f24a07f	0.643074
53	0xbc36079f	-0.011110215
54	0xb9a6a18f	-0.00031782358
55	0xbe334b46	-0.17509183
56	0x3d48a6a1	0.048987035
57	0xbe180a54	-0.1484769
58	0x3daa2019	0.083069034
59	0xbe4f0127	-0.20215283
60	0x3e43fa36	0.19138417
61	0x3d654021	0.05596936
62	0x3e5a856a	0.21339956
63	0x3e82603d	0.2546405
64	0xbda7140f	-0.08158123
65	0xbdfafb1d	-0.12254927
66	0xbe5b1d31	-0.21397854
67	0x3e6f60c6	0.2337676
68	0x3e68080f	0.22659324
69	0xbe63d7b4	-0.22250253
70	0xbe98ff20	-0.29882145
71	0xbe666eb6	-0.2250317
72	0xbe903274	-0.28163493
73	0x3f7ae5d8	0.98006964
74	0xbe8e4f45	-0.27794853
75	0xbda6d679	-0.08146376
76	0xbedc9026	-0.43078727
77	0xbe065c8c	-0.13121241
78	0x3db37296	0.0876209
79	0x3f338f07	0.7014012
80	0xbe8286a2	-0.25493342
81	0xbd7967ab	-0.06088988
82	0x3f1afba7	0.6054024
83	0xbe8a3c46	-0.2699911
84	0xbe1a648b	-0.15077417
85	0xbec7616a	-0.3894151
86	0xbde64868	-0.11244279
87	0x3e8af10f	0.27137038
88	0x3eacf909	0.3378375
89	0x3d9801cc	0.07422218
90	0xbd1bece6	-0.03806772
91	0x3eeba222	0.46022135
92	0xbd146893	-0.036232542
93	0x3e85634d	0.26052323
94	0xbed47d65	-0.41501918
95	0xbe332e1c	-0.17498058

layer3.bn1.weight f4 [8]
0	0x3f7ad357	0.9797873
1	0x3f8eccd1	1.1156255
2	0x3f7284fd	0.94734174
3	0x3f631115	0.8869794
4	0x3f84e2bd	1.0381695
5	0x3f82a8e3	1.020779
6	0x3f6ef894	0.9334805
7	0x3f7aaaa9	0.97916657

layer3.bn1.bias f4 [8]
0	0xbd83ed20	-0.064417124
1	0x3d35f269	0.044420633
2	0x3d1ac846	0.037788652
3	0x3aa48263	0.0012551065
4	0xbdd3ea98	-0.103474796
5	0x3d8e9682	0.06962301
6	0x3c2d0e44	0.010562483
7	0xbcaf7a67	-0.02142067

layer3.bn1.running_mean f4 [8]
0	0xbf02c78a	-0.5108572
1	0x3fa91779	1.3210288
2	0x3dcf5b66	0.10124855
3	0x3f118932	0.5684997
4	0x3e626b9a	0.22111359
5	0xbe66e7ea	-0.22549406
6	0x3fd36799	1.651599
7	0xbf0eaeb3	-0.5573532

layer3.bn1.running_var f4 [8]
0	0x3fe793be	1.8091962
1	0x404e24aa	3.2209878
2	0x3ea00746	0.3125555
3	0x3ea9c7ef	0.3316035
4	0x3e15217f	0.14563559
5	0x3e967752	0.2938791
6	0x3fff0418	1.9923124
7	0x3f6521bb	0.89504594

layer3.conv2.weight f4 [8, 8, 1, 3]
0	0x3e4b1dee	0.19835636
1	0x3d83c24e	0.06433545
2	0x3d857d3a	0.06518026
3	0x3dc3608e	0.09539901
4	0xbe5eb9a4	-0.21750504
5	0xbe49e16e	-0.19714901
6	0xbddd7e88	-0.108151495
7	0x3d44e003	0.048065197
8	0xbe0d47d5	-0.13796933
9	0x3dab95e5	0.083781995
10	0x3de41554	0.111368805
11	0x3c8d37fc	0.01723861
12	0x3c989629	0.01862629
13	0x3ed485e0	0.4150839
14	0xbd96e459	-0.073677726
15	0xbcd9c35c	-0.026582412
16	0xbdc57b6b	-0.09642681
17	0x3dafca51	0.08583511
18	0x3e2af4cf	0.1669495
19	0xbdb84a6f	-0.08998572
20	0x3de163ec	0.11005387
21	0x3e40a49f	0.18812798
22	0x3e3a7110	0.18207192
23	0x3e00f217	0.1259235
24	0xbd722f96	-0.059127413
25	0x3e7639b3	0.24045448
26	0xbe197192	-0.1498473
27	0x3d8e51fb	0.0694923
28	0xbecb2950	-0.39679956
29	0xbdc0f829	-0.09422333
30	0x3d88fd29	0.066889115
31	0x3c88e2ba	0.016709674
32	0x3d02eb32	0.03196258
33	0x3d2d01aa	0.042237915
34	0xbda40e92	-0.080105916
35	0xbb86687d	-0.0041018114
36	0x3e260e60	0.16216421
37	0x3e47beb9	0.19506349
38	0x3d161f0d	0.036650706
39	0x3d2aeedc	0.0417317
40	0xbe87cfce	-0.2652573
41	0x3dce3cba	0.100701764
42	0xbdbf57d0	-0.09342921
43	0xbecc56fc	-0.39910114
44	0xbd48454c	-0.04889421
45	0xbe29ce62	-0.16582635
46	0x3cb72e37	0.022360904
47	0xbdcc90e8	-0.09988576
48	0x3e355046	0.17706403
49	0xbddf5777	-0.109053545
50	0x3dfe7033	0.12423744
51	0x3e1ce481	0.15321542
52	0x3dd396b7	0.10331481
53	0x3c12ae32	0.008952664
54	0xbc75b813	-0.0149975
55	0xbdc1bc11	-0.09459699
56	0xbdeca70d	-0.115553
57	0xbe22a701	-0.1588402
58	0x3c8c75e6	0.017146062
59	0xbe27af1d	-0.16375394
60	0xbc8f9a4d	-0.017529631
61	0x3e96885b	0.29400906
62	0xbc28402a	-0.010269204
63	0xbe3180b9	-0.1733426
64	0xbe9472a8	-0.28993726
65	0xbd9029e1	-0.07039238
66	0xbd9d63b1	-0.0768503
67	0xbd264081	-0.04058886
68	0xbe396c85	-0.18107803
69	0x3dd2a40e	0.10285197
70	0x3e305316	0.17219195
71	0xbd870933	-0.065935515
72	0xbe128b96	-0.1431106
73	0x3e44c042	0.19213966
74	0xbe070c05	-0.13188179
75	0xbceb4a67	-0.028722001
76	0xbe5d7a15	-0.21628602
77	0x3d9bd3d9	0.07608766
78	0xbe10c93d	-0.14139266
79	0xbe9a67f7	-0.30157444
80	0x3e43de8a	0.1912786
81	0xbcb8c698	-0.022555634
82	0xbdbb57f4	-0.09147635
83	0xbde26638	-0.11054653
84	0xbe1ad76b	-0.15121238
85	0x3d1d0e22	0.038343556
86	0xbe2b7e2c	-0.1674735
87	0xbc1be3cd	-0.009514761
88	0x3d93e9e8	0.072223485
89	0x3e29dd25	0.16588266
90	0x3d819297	0.06326788
91	0xbd1adb3c	-0.037806734
92	0x3c886d94	0.016653813
93	0x3d793120	0.060837865
94	0x3e4003c2	0.18751433
95	0x3e19db64	0.15025097
96	0x3ca36cfd	0.01994943
97	0xbe349bad	-0.1763751
98	0x3e406c53	0.18791322
99	0x3e12b9ee	0.14328739
100	0x3df5273f	0.11970376
101	0xbdf35822	-0.118820444
102	0xbdfe09e7	-0.124042325
103	0xbbb016bb	-0.0053738034
104	0x3e0076ac	0.1254527
105	0xbde7d23e	-0.113193974
106	0x3e12b27e	0.14325902
107	0xbd96d71c	-0.073652476
108	0x3e037e82	0.12841228
109	0xbe5ed5ff	-0.2176132
110	0x3c513c57	0.012770734
111	0xbd1cdf4c	-0.03829889
112	0xbbe97ae2	-0.0071252445
113	0x3e137eba	0.14403811
114	0xbe2c6dab	-0.1683871
115	0x3df67241	0.12033511
116	0x3e0b77e4	0.13619953
117	0x3e185448	0.14875901
118	0xbebceaa0	-0.36897755
119	0xbd84d60a	-0.06486137
120	0x3d0fda2c	0.035120174
121	0xbe83aefb	-0.25719437
122	0xbe0645f8	-0.13112628
123	0xbcdc5943	-0.026898032
124	0xbe9e2664	-0.30888665
125	0xbd92979b	-0.07157823
126	0x3dc3099f	0.095233195
127	0xbe5a2042	-0.21301368
128	0x3c0d06fd	0.008607623
129	0xbdce41c4	-0.100711375
130	0xbe339bbe	-0.1753988
131	0xbe0ee5ce	-0.13954851
132	0x3e42e457	0.19032417
133	0x3e9aae2a	0.30211002
134	0xbbd84580	-0.006600082
135	0x3e044300	0.12916183
136	0x3d2c8b66	0.04212513
137	0xbd8db0ef	-0.06918513
138	0x3d499a72	0.049219556
139	0xbe7ff7f7	-0.24996935
140	0xbe2d410c	-0.16919345
141	0xbe13fa3b	-0.14450924
142	0x3ddecf9a	0.108794406
143	0xbd49e660	-0.04929197
144	0xbe364416	-0.1779941
145	0x3e0eccd5	0.13945325
146	0x3e440f8d	0.19146557
147	0x3d9d6a3d	0.07686279
148	0xbeaccb12	-0.3374868
149	0x3c3790bf	0.011203944
150	0x3df71f0e	0.1206647
151	0xbe6a42f7	-0.22877108
152	0x3dd83d9d	0.10558627
153	0xbe2e27b1	-0.17007329
154	0xbddf235d	-0.10895417
155	0x3d18e8d8	0.037331432
156	0xbd97af3c	-0.0740647
157	0x3dcb7d82	0.09936048
158	0x3d8f56dc	0.06998989
159	0xbd4c9f33	-0.04995651
160	0xbd937d87	-0.07201677
161	0x3c5f3a44	0.013624731
162	0xbddabb93	-0.10680308
163	0x3bc22718	0.0059250705
164	0x3cc16474	0.02360747
165	0x3cbb03c8	0.022828951
166	0xbe72b471	-0.23701645
167	0x3d1a8ed4	0.037733868
168	0xbd7033d4	-0.058643177
169	0xbe13f995	-0.14450677
170	0xbd570623	-0.052496087
171	0xbe2665ff	-0.16249846
172	0x3eba33f2	0.36367756
173	0x3dc3a964	0.09553793
174	0x3d6c42b3	0.057680797
175	0x3e4a2075	0.19738944
176	0x3daaaedd	0.08334134
177	0xbdf8d1fc	-0.12149426
178	0x3d0f41d6	0.034974895
179	0x3c89f28c	0.016839288
180	0xbe122525	-0.14271982
181	0xbd0a24fc	-0.033726677
182	0x3e0894cf	0.13338016
183	0x3d11ffef	0.035644468
184	0xbe87612b	-0.2644132
185	0x3d9bf3ab	0.07614835
186	0xbd4ca9e6	-0.049966715
187	0x3cbb6e4e	0.022879746
188	0xbe2498b8	-0.16073883
189	0xbdbd03f1	-0.092292674
190	0xbe95d01f	-0.29260346
191	0x3c634d3e	0.013873396

layer3.bn2.weight f4 [8]
0	0x3f738232	0.9512054
1	0x3f6e53b6	0.9309648
2	0x3f5beb0d	0.85905534
3	0x3f9a3967	1.2048768
4	0x3f635f89	0.8881765
5	0x3f869ab4	1.0515962
6	0x3f77e73a	0.968372
7	0x3f8ab71d	1.0837132

layer3.bn2.bias f4 [8]
0	0xbddb10af	-0.106965415
1	0x3bf00eb8	0.0073259734
2	0xbdabb375	-0.08383838
3	0xbc67d8df	-0.014150827
4	0xbe0bd8af	-0.13656877
5	0x3c597914	0.013273496
6	0xbdfdfa45	-0.12401251
7	0x3f174059	0.5908256

layer3.bn2.running_mean f4 [8]
0	0x3dec8a95	0.1154987
1	0xbe991f0b	-0.29906496
2	0xbbd10d41	-0.006379754
3	0xbda315cb	-0.07963141
4	0xbe164b74	-0.1467722
5	0xbe9725a2	-0.295209
6	0xbea06ed1	-0.31334546
7	0x3cc88468	0.024477199

layer3.bn2.running_var f4 [8]
0	0x3e41f957	0.18942772
1	0x3eddad25	0.4329616
2	0x3df81fa3	0.12115409
3	0x3eac0e1a	0.3360451
4	0x3e699fe6	0.22814903
5	0x3f17827f	0.59183496
6	0x3e65acb1	0.22429158
7	0x3ef08cef	0.46982524

layer3.fc1.weight f4 [2, 8]
0	0x3e53566b	0.20638435
1	0xbce1cb2a	-0.027562696
2	0xbecb33ba	-0.39687902
3	0xbd6afb7c	-0.05736874
4	0xbe314ea0	-0.1731515
5	0xbca6c1e8	-0.020356134
6	0xbd0fecfe	-0.035138123
7	0x3d4f1cd7	0.050564613
8	0xbe1cc2eb	-0.1530873
9	0x3e937fb3	0.28808364
10	0x3c07fc6f	0.008299931
11	0x3f08916c	0.53346896
12	0xbe7dc37e	-0.24781606
13	0x3e9ecf6d	0.31017628
14	0x3f0bbb05	0.54582244
15	0x3f2ee491	0.68317515

layer3.fc1.bias f4 [2]
0	0x3d803228	0.062595665
1	0x3ea8645b	0.32889065

layer3.fc2.weight f4 [8, 2]
0	0xbe2a48af	-0.16629289
1	0x3cfd342b	0.030908665
2	0xbec37c12	-0.38180596
3	0xbd8eaa86	-0.069661185
4	0xbf2be91b	-0.67152566
5	0xbf2d960f	-0.67807096
6	0xbf30d0a1	-0.6906834
7	0xbed3e3a8	-0.41384625
8	0x3e2b061f	0.16701554
9	0x3e9c5d1d	0.3053979
10	0x3e6b0f5d	0.2295508
11	0xbe967c76	-0.2939183
12	0x3f2ae3b4	0.667537
13	0xbf2fdace	-0.68693244
14	0xbe567b42	-0.20945457
15	0x3f85e847	1.046151

layer3.fc2.bias f4 [8]
0	0xbe9074b3	-0.28214034
1	0xbf066e04	-0.5251162
2	0x3f0d0de5	0.55099326
3	0x3e27ce9e	0.16387412
4	0x3c8f472a	0.017489988
5	0xbf0ec3f7	-0.5576777
6	0xbefdea46	-0.495928
7	0x3f0dcf65	0.55394584

layer3.shortcut.0.weight f4 [8, 4, 1, 1]
0	0xbd3fb0bf	-0.046799418
1	0x3eda691d	0.4265832
2	0xbe65053d	-0.2236528
3	0xbc3ea5d8	-0.01163622
4	0xbe8b886b	-0.27252516
5	0xbe187bee	-0.14891025
6	0x3e6dd876	0.23227105
7	0x3ebf3847	0.37347624
8	0x3e511938	0.20419776
9	0x3e926037	0.2858903
10	0xbe1d4888	-0.153597
11	0xbed37228	-0.41298032
12	0xbe47b557	-0.1950277
13	0x3e00be17	0.12572514
14	0x3ebe9711	0.3722463
15	0x3f084777	0.53234047
16	0x3ef182c3	0.47170076
17	0x3e7a8f6e	0.24468777
18	0x3e594af7	0.21220003
19	0x3e99668e	0.29961056
20	0xbe1cb082	-0.15301707
21	0x3f174b1e	0.59098995
22	0x3da96228	0.08270675
23	0xbe6f73a2	-0.23383954
24	0xbef8a62f	-0.48564288
25	0x3c69d10c	0.014271032
26	0xbf077341	-0.5291024
27	0xbe016341	-0.12635519
28	0xbe46b6ac	-0.19405621
29	0xbead3cf4	-0.33835566
30	0xbcbaeeaa	-0.022818882
31	0x3eb8b36a	0.36074382

layer3.shortcut.1.weight f4 [8]
0	0x3f568cda	0.8380867
1	0x3f8309ac	1.0237327
2	0x3f79c3b0	0.9756422
3	0x3f5b6ddb	0.857145
4	0x3f745bf6	0.9545282
5	0x3f7e66f5	0.9937585
6	0x3f942021	1.1572305
7	0x3f5af264	0.8552611

layer3.shortcut.1.bias f4 [8]
0	0xbe55175e	-0.20809695
1	0x3c76becd	0.015060139
2	0xbda7c391	-0.08191598
3	0xbc5048a8	-0.012712635
4	0xbdd51b0d	-0.1040555
5	0x3d4ae869	0.04953805
6	0xbbf7229c	-0.0075419676
7	0x3d1793e7	0.037006285

layer3.shortcut.1.running_mean f4 [8]
0	0x3cd0204b	0.025406023
1	0x3e21bbbf	0.15794276
2	0xbe55face	-0.20896456
3	0x3f0992e0	0.5373974
4	0x3f6b7f0f	0.9199075
5	0xbe0918aa	-0.13388315
6	0xbf29cb94	-0.6632626
7	0x3e03dfb9	0.12878312

layer3.shortcut.1.running_var f4 [8]
0	0x3dac51f6	0.0841407
1	0x3ebf9af7	0.37422916
2	0x3f0cecfd	0.55049115
3	0x3f23ac1d	0.639345
4	0x3e99c497	0.300328
5	0x3ed72993	0.42023906
6	0x3e23e02b	0.16003482
7	0x3f040fb9	0.5158649

layer4.conv1.weight f4 [8, 8, 1, 3]
0	0x3e139bc7	0.14414893
1	0xbdf89064	-0.12136915
2	0x3d95572a	0.07292016
3	0xbe103140	-0.14081287
4	0x3e16beb7	0.1472119
5	0x3e497134	0.1967209
6	0xbdaefe6e	-0.08544622
7	0xbdbbcefb	-0.09170338
8	0x3b87d2d6	0.0041450066
9	0xbdd3aed3	-0.103360794
10	0x3e40b5b5	0.18819316
11	0x3d18310c	0.03715615
12	0x3d3bb808	0.045829803
13	0xbe0045d7	-0.12526642
14	0xbcb8decd	-0.022567177
15	0xbc21fcdb	-0.009886946
16	0xbf145767	-0.57945865
17	0x3e40b12f	0.1881759
18	0xbd9f0aa7	-0.07765704
19	0x3d46eddf	0.048566695
20	0xbe2b3130	-0.16717982
21	0xbdfc6698	-0.12324256
22	0x3ecc12cf	0.398581
23	0xbcad7829	-0.02117546
24	0x3e0215f9	0.12703694
25	0x3e90ffed	0.28320256
26	0x3d43b485	0.04777958
27	0x3dfd32b7	0.12363189
28	0x3e2f3a38	0.17112052
29	0xbe0b82b7	-0.13624083
30	0x3e17dc60	0.1483016
31	0x3d8cc36f	0.068732135
32	0x3dcf3e1a	0.10119267
33	0xbca21bc9	-0.01978864
34	0xbe6e40c8	-0.232669
35	0x3cc7d4fb	0.02439355
36	0xbdffb302	-0.12485315
37	0xbe462189	-0.1934873
38	0x3e44be3e	0.19213197
39	0xbe40e689	-0.18837942
40	0x3e8747d7	0.26421997
41	0x3da6a8f1	0.08137692
42	0x3e3bad9c	0.18327945
43	0xbd300c6e	-0.042980604
44	0xbdc77085	-0.09738258
45	0xbd760e7d	-0.06007241
46	0x3d5835e2	0.05278576
47	0xbc3a9989	-0.011389145
48	0xbdef25e9	-0.11677153
49	0xbe23b36f	-0.15986417
50	0xbe07bfe6	-0.13256797
51	0xbdd2fbe2	-0.10301949
52	0x3dbd5a50	0.09245741
53	0xbe1f9c84	-0.1558705
54	0x3d9a140a	0.075233534
55	0xbe72e215	-0.23719056
56	0xbe21c8d6	-0.15799269
57	0xbb3ea71f	-0.002909131
58	0xbdfc2188	-0.12311083
59	0x3dc4eaf4	0.09615126
60	0x3c1a3375	0.009411682
61	0xbd6e07be	-0.058112852
62	0x3e289016	0.16461214
63	0xbd8c8bf1	-0.06862629
64	0xbdfb0094	-0.1225597
65	0x3d21f46d	0.039539743
66	0x3d99388b	0.07481488
67	0xbdc22135	-0.0947899
68	0x3cd00ada	0.0253958
69	0xbe25f291	-0.16205813
70	0xbe066919	-0.13126029
71	0x3c0e4ee4	0.008685801
72	0xbb73f7dd	-0.0037226595
73	0x3de15ace	0.11003648
74	0xbda5a70b	-0.080885015
75	0x3d47cb13	0.04877765
76	0x3dd3e882	0.10347082
77	0x3e437460	0.19087362
78	0x3e0b9f92	0.1363509
79	0xbe2e542c	-0.17024297
80	0xbdc7b4d5	-0.09751288
81	0x3c987e3b	0.018614879
82	0xbec2aff7	-0.38024876
83	0xbe0247c5	-0.1272269
84	0xbe3a23fa	-0.18177786
85	0x3d887e19	0.06664676
86	0xbdc4bf3e	-0.09606789
87	0x3d291bce	0.041286282
88	0xbe834db9	-0.25645235
89	0x3d956beb	0.07295974
90	0x3c6b06a2	0.014344843
91	0xbe57d33d	-0.21076675
92	0xbdc7ef00	-0.097623825
93	0x3e3a8d77	0.18218027
94	0x3ecac9f6	0.3960721
95	0x3da5e1d2	0.080997124
96	0xbe22e18b	-0.1590635
97	0x3db294ab	0.087197624
98	0xbe0eabad	-0.13932677
99	0x3e1f01f7	0.15528093
100	0x3d106949	0.035256658
101	0x3e2e8475	0.17042716
102	0x3e1b2d37	0.15153967
103	0x3e285f1c	0.16442531
104	0x3e333689	0.17501272
105	0x3c6c1416	0.014409086
106	0x3d98c71c	0.07459852
107	0x3c986edd	0.018607551
108	0x3c69e5aa	0.014275948
109	0xbe49fc31	-0.1972511
110	0xbe15abee	-0.14616367
111	0xbe175f92	-0.14782551
112	0x3e930303	0.28713235
113	0x3e13535f	0.14387272
114	0x3d4ac216	0.0495015
115	0xbe4f7a82	-0.20261577
116	0x3deffce3	0.11718156
117	0xbdd20235	-0.10254327
118	0xbe6f325c	-0.23359054
119	0xbde4c34c	-0.111700624
120	0xbe2e3178	-0.17011058
121	0x3ee46af6	0.44612855
122	0xbca784e7	-0.020449115
123	0xbdcc11d7	-0.0996434
124	0x3d4c21f1	0.049837057
125	0xbd3222af	-0.043490108
126	0x3e49b741	0.19698812
127	0x3efb2599	0.49052122
128	0x3e33df6a	0.17565694
129	0x3c317c08	0.010832794
130	0x3e98bb75	0.29830518
131	0xbde73543	-0.11289456
132	0xbddf3f54	-0.10900751
133	0x3d1b7b54	0.03795941
134	0x3e2767f9	0.16348256
135	0x3d7b6e78	0.061384648
136	0xbd6e83cf	-0.05823117
137	0x3e3e137b	0.18562119
138	0xbe4735ec	-0.19454163
139	0x3e7ab628	0.2448355
140	0xbd1d5762	-0.038413413
141	0x3e4c79da	0.19968358
142	0x3cda113b	0.026619544
143	0xbc8a1b8c	-0.016858838
144	0x3e3df058	0.18548715
145	0xbe2b80bf	-0.16748331
146	0xbe4cafcd	-0.19988938
147	0xbde424b9	-0.11139817
148	0x3da9a8b8	0.08284134
149	0xba652ded	-0.00087425
150	0xbe3c4d9b	-0.18388979
151	0x3dc7695d	0.09736893
152	0x3dec3978	0.11534399
153	0x3db0e57b	0.0863752
154	0x3e34bcd7	0.17650162
155	0x3e4694a7	0.19392644
156	0x3e09fb91	0.13474871
157	0x3d23dfcc	0.04000835
158	0xbd9fff8e	-0.07812415
159	0x3d1fdc38	0.039028376
160	0xbe0c88cf	-0.13724063
161	0xbdb517bf	-0.0884242
162	0xbcca6b14	-0.024709262
163	0xbe26ce43	-0.1628962
164	0xbde2d13a	-0.11075063
165	0x3c19f7d1	0.009397463
166	0x3f043204	0.5163882
167	0x3e034264	0.12818295
168	0xbe394aba	-0.18094912
169	0xbe5ca51b	-0.21547358
170	0xbcee0fb8	-0.02906023
171	0xbcc68406	-0.024232876
172	0x3d70b6d6	0.058768116
173	0xbbc06ebf	-0.005872577
174	0x3dbfc0f9	0.093629785
175	0xbe643421	-0.2228551
176	0x3cf5e388	0.030015722
177	0xbe2e5c02	-0.17027286
178	0x3d9cfd8b	0.07665547
179	0x3e18ba90	0.14914918
180	0x3e069927	0.1314436
181	0x3dc4b4ed	0.09604821
182	0xbbbdb7eb	-0.005789747
183	0xbdebc044	-0.11511281
184	0xbe081ac3	-0.13291459
185	0xbdab4d24	-0.08364323
186	0xbe262b8d	-0.16227551
187	0xbe5fecdf	-0.21867703
188	0xbe46eb3b	-0.19425671
189	0xbd531fbd	-0.05154394
190	0x3e290862	0.16507104
191	0x3e0d83f8	0.13819873

layer4.bn1.weight f4 [8]
0	0x3f86953e	1.0514295
1	0x3f7ec12e	0.9951352
2	0x3f6ebf1c	0.9326036
3	0x3f849187	1.0356911
4	0x3f824e3f	1.0180129
5	0x3f78a509	0.97126824
6	0x3f71e6b0	0.94492626
7	0x3f754423	0.95807093

layer4.bn1.bias f4 [8]
0	0x3d088bc0	0.0333364
1	0xbc8574fd	-0.016291136
2	0xbd0fecd5	-0.03513797
3	0x3da70d8e	0.08156882
4	0x3bc0a913	0.00587953
5	0xbd90c40c	-0.07068643
6	0xbd5bb976	-0.053643666
7	0x3d77025b	0.06030498

layer4.bn1.running_mean f4 [8]
0	0xbe880972	-0.26569706
1	0x3e9f18dd	0.31073657
2	0xbec9c579	-0.39408472
3	0xbd53d554	-0.051717117
4	0x3bfe8a93	0.007767984
5	0x3f116184	0.5678942
6	0x3df37984	0.11888412
7	0xbe814dfe	-0.25254816

layer4.bn1.running_var f4 [8]
0	0x3f77b5c9	0.9676176
1	0x3eedbbcb	0.46432337
2	0x3eab1615	0.33415285
3	0x3f0ef121	0.55836684
4	0x3efe989f	0.49725816
5	0x3f969e6e	1.1767099
6	0x3f096589	0.53670555
7	0x3f2480cf	0.64259046

layer4.conv2.weight f4 [8, 8, 1, 3]
0	0xbe2aa3c5	-0.16664036
1	0x3e0b0f99	0.13580169
2	0xbdc54ae4	-0.09633425
3	0xbce110a9	-0.027473764
4	0x3e1661f4	0.14685804
5	0x3d827f38	0.06371921
6	0xbdb11705	-0.08646969
7	0xbcc2b0bb	-0.023765912
8	0x3d7ac94a	0.06122712
9	0x3e283f64	0.16430432
10	0xbc1ea96b	-0.009683947
11	0xbe4c4408	-0.19947827
12	0x3e2cc22d	0.16870947
13	0x3e5b2d17	0.21403919
14	0xbd7ad09d	-0.061234105
15	0x3e07b39d	0.13252111
16	0x3e943d25	0.289529
17	0xb8bb6ae2	-8.936763e-05
18	0x3dfae41a	0.12250538
19	0x3e747bd3	0.2387536
20	0x3dfafa87	0.122548155
21	0xbe390394	-0.18067771
22	0xbd7f75a8	-0.062368065
23	0x3df33876	0.118760034
24	0x3ca22fdc	0.019798212
25	0xbe212404	-0.15736395
26	0xbdb97779	-0.09055991
27	0xbdd3a5cc	-0.103343576
28	0xbe1a0fe6	-0.15045127
29	0xbe0bad22	-0.13640264
30	0xbbe9e659	-0.0071380553
31	0x3def521a	0.116855815
32	0xbe248015	-0.16064484
33	0x3c8961a3	0.01677019
34	0xbdc6aed8	-0.097013175
35	0xbd67a5d5	-0.056554634
36	0x3c75e203	0.015007499
37	0xbe4641e0	-0.19361067
38	0xbdddb496	-0.1082546
39	0x3d805e2f	0.06267964
40	0xbde7c179	-0.11316199
41	0xbd5d0f1e	-0.053969495
42	0x3da715c7	0.081584506
43	0xbe3e698a	-0.18594947
44	0x3cab8a3f	0.020939944
45	0xbe43b348	-0.19111359
46	0x3d36144e	0.044452958
47	0xbdd7501f	-0.10513329
48	0x3d9d3703	0.07676508
49	0x3dd91ecf	0.106015794
50	0xbd8df70e	-0.069318876
51	0x3ccab3db	0.024743965
52	0x3d692653	0.056921314
53	0x3c5d24ad	0.013497514
54	0xbd9bc612	-0.07606138
55	0x3d1d0e86	0.03834393
56	0x3e2649c0	0.16239071
57	0x3d4c5825	0.04988875
58	0x3eaae4d4	0.33377707
59	0x3da76a2d	0.08174548
60	0xbe308f6c	-0.17242211
61	0xbe7f9b83	-0.24961667
62	0x3dce071a	0.10059948
63	0xbe2fef0d	-0.17181034
64	0x3d8ab785	0.06773285
65	0x3e20ea18	0.157143
66	0xbe45b846	-0.19308576
67	0xbe145cfa	-0.14488593
68	0x3c1e8dab	0.009677331
69	0xbcf3bde5	-0.029753635
70	0x3e9c7660	0.30559063
71	0xbda1b68b	-0.078961454
72	0x3e28d66d	0.16488047
73	0xbce48f39	-0.027900325
74	0x3d49755b	0.049184185
75	0x3dc786c9	0.09742505
76	0x3e8f1253	0.27943668
77	0x3e1213ad	0.14265318
78	0xbe0b37a0	-0.13595438
79	0xbdba04b3	-0.090829276
80	0xbe473b6c	-0.19456261
81	0x3d8cf0f2	0.06881894
82	0xbe92a36f	-0.28640315
83	0x3d8ba8da	0.06819315
84	0xb88ccf71	-6.714359e-05
85	0x3edc58ef	0.430366
86	0xbe147044	-0.14495951
87	0x3e33af22	0.17547277
88	0x3e54601e	0.20739791
89	0x3e1f6110	0.1556437
90	0xbe470a48	-0.19437516
91	0x3e745b39	0.23862924
92	0x3e1a350b	0.15059297
93	0xbdd4489f	-0.10365414
94	0x3e6abc31	0.22923352
95	0xbd489779	-0.04897258
96	0xbe118125	-0.14209421
97	0xbe6d5bce	-0.23179552
98	0x3db343b8	0.08753151
99	0x3d9a8568	0.075449765
100	0x3e3e0dc9	0.18559946
101	0xbe22e577	-0.15907846
102	0xbdbbbba2	-0.091666475
103	0xbe0ac9a5	-0.13553484
104	0x3d1ce928	0.038308293
105	0x3dac124f	0.084019296
106	0xbe8e8d1c	-0.27842033
107	0x3e1aff93	0.15136556
108	0xbe13cb1c	-0.14432949
109	0x3dcdbe0e	0.10046016
110	0x3d57095d	0.052499164
111	0x3bc77671	0.0060871174
112	0x3e06b5a8	0.13155234
113	0x3bc055c7	0.0058696005
114	0xbc0e961e	-0.008702783
115	0xbd980047	-0.07421928
116	0x3d78c233	0.060732078
117	0xbdc09cd2	-0.09404911
118	0xbde24eb9	-0.110501714
119	0xbdc3889a	-0.09547539
120	0x3e0d74f3	0.13814144
121	0x3e1646a3	0.14675383
122	0xbe35e5dc	-0.17763466
123	0xbe26bb7f	-0.16282462
124	0xbe389d97	-0.18028866
125	0x3ddd5d1a	0.10808773
126	0x3d7ed49b	0.062214475
127	0x3cd22089	0.02565028
128	0x3db14f5b	0.08657714
129	0xbdfa5efb	-0.12225147
130	0x3e66d3ad	0.22541685
131	0x3dede110	0.11615193
132	0x3c5699f3	0.013098228
133	0xbe4d69e9	-0.20059933
134	0x3c590c44	0.013247553
135	0x3e2d42b3	0.16919975
136	0xbe2fde16	-0.17174563
137	0xbd9bd183	-0.076083206
138	0xbd5c1e18	-0.053739637
139	0xbdbd5a8b	-0.09245785
140	0x3e0e8e27	0.13921414
141	0x3e4e3c27	0.20140134
142	0xbd53deda	-0.0517262
143	0xbe369bf3	-0.17832927
144	0xbe4739d4	-0.19455653
145	0x3ea0e234	0.3142258
146	0xbe0d85cb	-0.13820569
147	0x3e04ebdb	0.12980597
148	0xbe5875a4	-0.21138626
149	0x3d3ee94f	0.04660922
150	0xbddf868b	-0.10914334
151	0xbb18bec1	-0.0023307058
152	0xbdd32c34	-0.103111655
153	0xbdc7e0cd	-0.09759674
154	0x3e1cf2f0	0.15327048
155	0xbc402841	-0.011728347
156	0x3d8e7eb2	0.06957759
157	0xbde77224	-0.113010675
158	0xbda656ea	-0.08122046
159	0x3e20f7dc	0.15719551
160	0xbd9cafbd	-0.07650707
161	0xbc1507a1	-0.009096057
162	0xbdcabc71	-0.098992236
163	0x3b12986d	0.0022368685
164	0xbe34a73d	-0.17641921
165	0xbdaa6049	-0.08319146
166	0x3e3fa467	0.18715058
167	0x3d3a8fa3	0.04554714
168	0xbde491df	-0.11160635
169	0x3ea11210	0.31459093
170	0xbc9c655b	-0.019091299
171	0x3e039a32	0.1285179
172	0x3db734f6	0.08945648
173	0x3e01e4cf	0.1268494
174	0x3dba9d2c	0.091120094
175	0x3c9d15ca	0.019175429
176	0xbdc2fb01	-0.095205314
177	0xbdbfe7be	-0.09370373
178	0x3e9cd03a	0.30627614
179	0xbd0ff51b	-0.03514586
180	0x3c49a09a	0.012306357
181	0xbd15db5c	-0.03658615
182	0x3d7b5a8e	0.061365657
183	0x3e4dd3b5	0.20100291
184	0x3dc60855	0.09669558
185	0x3b5ccc77	0.0033691206
186	0x3d132c2f	0.03593081
187	0x3eb2e7a6	0.3494236
188	0x3e188810	0.14895654
189	0x3d362485	0.04446842
190	0x3e1ec723	0.15505652
191	0xbdbcc297	-0.092168026

layer4.bn2.weight f4 [8]
0	0x3f8934c4	1.0719228
1	0x3f5b87ba	0.8575398
2	0x3f81ecec	1.0150428
3	0x3f64d5be	0.89388645
4	0x3f724169	0.9463106
5	0x3f6b2378	0.91850996
6	0x3f6dd7ed	0.929076
7	0x3f850914	1.0393395

layer4.bn2.bias f4 [8]
0	0x3d29aa30	0.04142207
1	0xbe017d54	-0.12645465
2	0xbd61d0d4	-0.055130795
3	0xbd842e1d	-0.06454108
4	0xbc250aae	-0.010073347
5	0x3d476a64	0.048685446
6	0xbd618d69	-0.0550665
7	0xbdbb5183	-0.091464065

layer4.bn2.running_mean f4 [8]
0	0x3ea23d83	0.31687555
1	0xbe8603c7	-0.26174757
2	0x3e4ad9a3	0.19809584
3	0x3ea4fdf4	0.32225
4	0xbe3391e0	-0.17536116
5	0xbda2c25d	-0.07947228
6	0x3e10de81	0.14147379
7	0x3ef1ec0f	0.4725041

layer4.bn2.running_var f4 [8]
0	0x3e5d857d	0.21632953
1	0x3e0d8300	0.13819504
2	0x3de46250	0.11151564
3	0x3ee088c0	0.43854332
4	0x3ea4baca	0.3217376
5	0x3e60c85c	0.21951431
6	0x3e74fe59	0.23925151
7	0x3ebb6ace	0.36604923

layer4.fc1.weight f4 [2, 8]
0	0xbe69f32a	-0.22846666
1	0x3e424a7a	0.18973723
2	0xbd1eb2af	-0.038744625
3	0x3e99fe5a	0.30076867
4	0x3c656cfe	0.014003037
5	0xbe9cedcb	-0.30650172
6	0xbdafdf04	-0.08587459
7	0x3dacdbc4	0.084403545
8	0x3e8506b1	0.25981668
9	0x3c1fcfee	0.009754164
10	0xbe949e3a	-0.29026967
11	0x3e7ad55f	0.24495457
12	0x3e8814f1	0.26578477
13	0xbe8abc00	-0.27096558
14	0x3e1eca8a	0.1550695
15	0xbe08fab5	-0.13376887

layer4.fc1.bias f4 [2]
0	0xbc2c58cd	-0.010519219
1	0x3d636f63	0.05552615

layer4.fc2.weight f4 [8, 2]
0	0xbec4e4ea	-0.38455898
1	0xbb75380c	-0.003741744
2	0x3f29c645	0.6631816
3	0x3e156d4a	0.14592472
4	0xbe78c092	-0.2429221
5	0xbf1ef062	-0.62085545
6	0xbe0d0e98	-0.13775098
7	0x3f056b7a	0.5211712
8	0x3f09d692	0.53843033
9	0x3f224d1c	0.6339891
10	0x3f226c02	0.63446057
11	0x3d7d14d8	0.061787456
12	0xbf2f258b	-0.6841666
13	0x3c859d06	0.016310226
14	0xbea25481	-0.31705096
15	0xbef01234	-0.46888888

layer4.fc2.bias f4 [8]
0	0x3f06b929	0.5262628
1	0x3e594a9e	0.2121987
2	0xbed6b8e9	-0.4193795
3	0xbee0ad67	-0.43882295
4	0x3ef0828f	0.46974608
5	0xbef0f5c9	-0.4706252
6	0xbe726944	-0.23672968
7	0xbd109ff2	-0.035308786

layer5.conv1.weight f4 [16, 8, 1, 3]
0	0xbbc6ef62	-0.006071017
1	0xbda0ca1a	-0.07851048
2	0xbd943af4	-0.07237807
3	0x3dc3ac64	0.09554365
4	0xbe1f600f	-0.15563987
5	0xbbf20d02	-0.0073868046
6	0xbd52dc0f	-0.051479395
7	0xbe5561a7	-0.20838033
8	0xbdfde245	-0.12396673
9	0xbe21b99c	-0.1579346
10	0xbdec81fe	-0.115482315
11	0x3b604aed	0.0034224347
12	0x3d7f5589	0.062337432
13	0x3d096af2	0.033549257
14	0x3e43ce37	0.19121633
15	0xbdf23538	-0.11826557
16	0xbdf31b86	-0.11870484
17	0xbde83f10	-0.11340153
18	0x3dff01e0	0.124515295
19	0xbe1bcdf5	-0.15215285
20	0x3e22b146	0.15887937
21	0x3e36027d	0.17774387
22	0xbe88208a	-0.26587325
23	0x3df0ecc2	0.11763908
24	0x3d68e192	0.056855746
25	0xbe15f4b5	-0.1464413
26	0xbd027b4c	-0.031855866
27	0xbe429709	-0.19002928
28	0x3cf40005	0.029785166
29	0xbde83e1a	-0.1133997
30	0x3b39d7e5	0.0028357443
31	0x3e1ce169	0.15320362
32	0xbd9535b4	-0.07285634
33	0x3e304673	0.17214374
34	0x3da207d1	0.07911647
35	0xbda7c38a	-0.08191593
36	0xbbc29a36	-0.0059387935
37	0xbdfb0c3f	-0.12258195
38	0x3c5df126	0.013546264
39	0x3d3ed653	0.046591114
40	0xbd88c6c0	-0.066785336
41	0x3e2bf86a	0.16793981
42	0x3d98d788	0.07462984
43	0x3e58af32	0.21160582
44	0x3db613e4	0.088905126
45	0xbd31749e	-0.043324105
46	0x3e93f3ff	0.28897092
47	0xbd4f7677	-0.050650086
48	0x3d63da9e	0.05562841
49	0x3e016d05	0.12639244
50	0x3d4a4176	0.049378835
51	0xbdbcd5d4	-0.09220472
52	0xbcc49d76	-0.024000864
53	0xbe2b59c1	-0.16733457
54	0x3e3dda81	0.18540384
55	0x3e18c779	0.14919843
56	0xbd3cb506	-0.046071075
57	0xbe2c11af	-0.16803621
58	0x3e80d392	0.25161415
59	0x3db02dea	0.086025074
60	0xbcd3949a	-0.025827695
61	0x3df22e4e	0.11825238
62	0x3d8a7e15	0.067623295
63	0x3dbdf98b	0.09276112
64	0xbc417da8	-0.011809744
65	0xbced4809	-0.028965013
66	0x3e129d6b	0.14317863
67	0x3d8693d6	0.06571166
68	0xbdd1c466	-0.10242538
69	0x3e139ca8	0.14415228
70	0xbdc2f603	-0.09519579
71	0xbcc45504	-0.02396632
72	0x3d4b23dc	0.049594745
73	0xbe8cebd2	-0.27523667
74	0xbe14d364	-0.14533764
75	0x3e431602	0.19051364
76	0x3e1894b1	0.14900471
77	0x3d88c30e	0.06677829
78	0xbd6b9d79	-0.057523225
79	0xbe781f5a	-0.2423071
80	0x3d8b5acf	0.0680443
81	0x3e1d17c0	0.15341091
82	0xbc7c0162	-0.015381189
83	0x3de61668	0.112347424
84	0xba87deca	-0.0010366079
85	0xbd8ca4a7	-0.068673424
86	0xbd9c53ad	-0.076331474
87	0x3bb8ed24	0.0056435037
88	0xbdde5479	-0.10855956
89	0xbe165d01	-0.14683916
90	0x3d8973c8	0.06711537
91	0xbd594e00	-0.053052902
92	0x3d2ac005	0.04168703
93	0xbd9e768b	-0.07737454
94	0xbeb8a5ee	-0.36064094
95	0xbe45603f	-0.19274996
96	0x3cc825a3	0.02443201
97	0x3e2980a8	0.16552985
98	0x3d0db9df	0.03460109
99	0x3e464cad	0.19365187
100	0x3d03d4a8	0.032185227
101	0xbdd0db29	-0.101980515
102	0xbb0a10b0	-0.0021067075
103	0x3de654b1	0.11246622
104	0xbe1da8e4	-0.15396458
105	0x3dbb7f34	0.091551214
106	0x3ead08ab	0.33795676
107	0xbe428816	-0.18997225
108	0xbd5a1286	-0.05324032
109	0x3e8f1771	0.27947572
110	0xbc871c8c	-0.016493104
111	0x3e30f943	0.17282586
112	0x3db74541	0.08948756
113	0xbd671fb9	-0.056426737
114	0xbe266b0a	-0.1625177
115	0xbda01847	-0.078171305
116	0xbcc2e18e	-0.023789193
117	0xbb9e4a71	-0.0048306515
118	0x3dae6729	0.0851577
119	0xbe2ef27d	-0.1708469
120	0xbc806806	-0.015674602
121	0x3d6fe0ed	0.058564115
122	0xbd0c1bca	-0.03420619
123	0xbe303d3c	-0.17210859
124	0x3dfbd5ff	0.12296676
125	0xb9ea41a5	-0.00044680867
126	0x3e385c1b	0.18003885
127	0x3e19f0c5	0.15033253
128	0x3e329d16	0.17442736
129	0xbc9f0b3b	-0.019414535
130	0x3e7b6870	0.24551558
131	0xbe083832	-0.13302687
132	0xbe4ad82c	-0.19809026
133	0x3db97a71	0.09056557
134	0xbd9988f3	-0.07496824
135	0x3d9987a0	0.074965715
136	0xbd98d78a	-0.07462986
137	0x3de7ccb6	0.113183424
138	0xbd281bbf	-0.041042086
139	0x3d866ab1	0.065633185
140	0x3e2b055b	0.16701262
141	0xbe2c822a	-0.16846529
142	0x3ea2d566	0.31803435
143	0x3e4c9693	0.19979315
144	0xbbf192f0	-0.0073722526
145	0xbe8d8e1b	-0.2764748
146	0xbe16e11d	-0.14734311
147	0xbd18a468	-0.037266165
148	0x3e02464e	0.12722132
149	0x3db6ee02	0.08932115
150	0xbccc0dc6	-0.024908911
151	0x3e841546	0.2579748
152	0xbd4ecabe	-0.05048632
153	0xbe2a271e	-0.16616485
154	0x3dce50df	0.10074019
155	0xbe002534	-0.12514192
156	0x3d015135	0.031571586
157	0xbdfe461b	-0.12415715
158	0xbe1c61c6	-0.15271673
159	0x3c4ba25a	0.012428844
160	0xbe07a683	-0.13247113
161	0xbde27493	-0.11057391
162	0xbe444fe6	-0.19171104
163	0x3db4b25d	0.088230826
164	0x3d64ca58	0.055857033
165	0x3c2a0aa2	0.010378512
166	0x3e08ff96	0.13378748
167	0xbe0afd6b	-0.13573234
168	0x3dc180ca	0.09448393
169	0xbd63b197	-0.055589285
170	0x3e2375a8	0.15962851
171	0x3e25a034	0.16174394
172	0xbd5c4819	-0.053779695
173	0xbcb44898	-0.022007272
174	0x3c35c152	0.011093454
175	0x3c1a716a	0.009426454
176	0x3e4a6026	0.1976324
177	0x3debed32	0.11519851
178	0xbdf808f0	-0.1211108
179	0x3da8f16a	0.08249171
180	0x3dcf3b4c	0.10118732
181	0xbe2af08f	-0.16693328
182	0x3e4a8b8d	0.19779797
183	0xbe19693d	-0.14981551
184	0x3d30f932	0.0432064
185	0xbcfa2e01	-0.030539514
186	0xbe2939e5	-0.16525991
187	0xbdf5a2f2	-0.1199397
188	0x3cf5608f	0.02995327
189	0x3c3ba8b8	0.0114538
190	0x3e1cd7b6	0.15316662
191	0x3cb4bc0e	0.022062328
192	0xbd38e693	-0.045141768
193	0x3e97ad32	0.29624325
194	0xbdcaf2c0	-0.09909582
195	0x3e23350b	0.15938203
196	0xbdbd7ee1	-0.09252716
197	0xbd253b3e	-0.0403397
198	0x3d578c65	0.052624125
199	0x3e697d13	0.22801618
200	0x3d195e88	0.037443668
201	0x3e35799e	0.17722175
202	0x3d681178	0.056657284
203	0x3cd5a1ca	0.026078124
204	0x3ddfd1d3	0.10928693
205	0xbd83f89a	-0.06443901
206	0x3e3676d4	0.17818767
207	0x3da5aa83	0.08089163
208	0xbcb243f7	-0.021760924
209	0x3e100bd1	0.14067008
210	0xbc1d8f57	-0.009616694
211	0x3da8222a	0.08209641
212	0xbdf0e619	-0.11762638
213	0xbc3cd686	-0.011525756
214	0x3e9a2b34	0.30111086
215	0xbe33e14c	-0.17566413
216	0xbcaf8e52	-0.021430168
217	0xbd6169c8	-0.05503252
218	0xbd2a25ba	-0.041539885
219	0x3dfa31cf	0.122165315
220	0x3e19a01a	0.1500248
221	0x3d0c8157	0.034303036
222	0x3de9416a	0.1138943
223	0xbe27107f	-0.16314887
224	0xbdaf8e3b	-0.0857205
225	0x3d49ca0e	0.04926496
226	0xbd0a0cac	-0.03370349
227	0xbd99b7c6	-0.07505755
228	0xbd7801b4	-0.0605485
229	0xbe32703e	-0.1742563
230	0xbcb264bd	-0.021776551
231	0xbe3b1490	-0.18269563
232	0x3d92e31e	0.071722254
233	0xbdd06eed	-0.101774074
234	0x3e24eb03	0.16105275
235	0xbe6ebd8a	-0.23314491
236	0xbe0bb321	-0.13642551
237	0x3db68e9a	0.08913918
238	0x3dd299ea	0.10283263
239	0x3d9a4c14	0.07534042
240	0xbbe3021c	-0.0069277417
241	0x3e5b5d81	0.21422388
242	0xbe0fa108	-0.14026272
243	0xbc98e415	-0.018663445
244	0xbdef0608	-0.11671072
245	0xbe149afe	-0.1451225
246	0xbd782b61	-0.060588244
247	0x3e22f4f5	0.15913756
248	0x3dbbdd00	0.09173012
249	0xbe26d299	-0.16291274
250	0x3e022b72	0.12711886
251	0x3dfa9819	0.122360416
252	0xbdb0fe94	-0.08642307
253	0x3db0f4ef	0.086404674
254	0xbe01c191	-0.12671496
255	0xbd8f761f	-0.07004952

layer5.bn1.weight f4 [16]
0	0x3f712336	0.9419435
1	0x3f84ccb2	1.0374968
2	0x3f7bf14e	0.98415077
3	0x3f6a7a17	0.91592544
4	0x3f80622f	1.0029963
5	0x3f7a3513	0.97737235
6	0x3f6cccb9	0.9249988
7	0x3f71019e	0.9414309
8	0x3f86ba70	1.0525646
9	0x3f77ecea	0.9684588
10	0x3f83720e	1.0269182
11	0x3f852c5c	1.0404162
12	0x3f79cc2e	0.9757718
13	0x3f7fc2b9	0.999065
14	0x3f830276	1.0235126
15	0x3f7f18a7	0.9964699

layer5.bn1.bias f4 [16]
0	0xba884f84	-0.0010399674
1	0x3ca6f484	0.020380266
2	0xbd605d2c	-0.054776356
3	0xbd72156a	-0.059102453
4	0x3baa18c8	0.0051909424
5	0x3be5719f	0.00700207
6	0xbd493e2b	-0.049131554
7	0xbd718a9e	-0.058970086
8	0xbde03e64	-0.109494
9	0xbd0b5630	-0.03401774
10	0xbcc12ba7	-0.023580385
11	0xbd8649f5	-0.06557075
12	0xbbd196a3	-0.006396131
13	0xbd4acfd5	-0.04951461
14	0x3c28728c	0.010281216
15	0x3d3f4552	0.04669697

layer5.bn1.running_mean f4 [16]
0	0xbf1b7227	-0.6072106
1	0x3e820248	0.25392365
2	0x3e8b92cb	0.27260432
3	0xbf3cad46	-0.73701894
4	0x3f069c66	0.52582395
5	0x3f0624c1	0.5239983
6	0xbc5c33fe	-0.01344013
7	0xbda26355	-0.07929102
8	0x3f1ad016	0.60473764
9	0xbe2b2d1a	-0.16716424
10	0x3eca250f	0.39481398
11	0x3e48fb9a	0.19627228
12	0x3d489f0d	0.048979808
13	0x3de3dc58	0.111260116
14	0x3e793e35	0.24340136
15	0xbeef7f05	-0.46776596

layer5.bn1.running_var f4 [16]
0	0x3ee05a60	0.4381895
1	0x3ef514f5	0.4786755
2	0x3eb8764e	0.3602776
3	0x3f8dc51c	1.1075778
4	0x3f4457f8	0.7669673
5	0x3f0caa27	0.5494713
6	0x3eccc438	0.39993453
7	0x3e088ea0	0.13335657
8	0x3f59449e	0.84870327
9	0x3dd9f7e5	0.10642985
10	0x3f0d543c	0.55206656
11	0x3ec826f5	0.39092222
12	0x3e9c6d2c	0.30552042
13	0x3e85fb3a	0.26168233
14	0x3f44df2d	0.7690304
15	0x3ea6c468	0.3257172

layer5.conv2.weight f4 [16, 16, 1, 3]
0	0x3d52eef0	0.0514974
1	0x3c456d6b	0.012050013
2	0x3dee3511	0.11631215
3	0xbd1e81d7	-0.038698044
4	0x3e15eceb	0.14641158
5	0xbd0f0178	-0.03491351
6	0x3d04d317	0.032427873
7	0x3d2043e1	0.039127234
8	0xbde3aa6d	-0.111164905
9	0x3d4dadd1	0.050214592
10	0xbc990c51	-0.01868263
11	0xbe0543c3	-0.1301413
12	0xbd8cd6d0	-0.0687691
13	0xbd2571f3	-0.040391874
14	0xbd45f4db	-0.048329215
15	0xbe09a33d	-0.13441177
16	0x3e3f3c27	0.1867529
17	0x3dea131f	0.11429428
18	0xbd00e816	-0.031471334
19	0x3e838705	0.2568895
20	0x3d235292	0.039873667
21	0xbdc3ff79	-0.09570212
22	0x3e477272	0.19477251
23	0xbd2263fb	-0.03964613
24	0xbd2d6117	-0.04232892
25	0x3e28a257	0.16468178
26	0x3cafe073	0.02146933
27	0xbe004235	-0.12525256
28	0xbd1d3805	-0.038383503
29	0x3e0a238f	0.13490127
30	0x3db3b3db	0.08774539
31	0x3db3e247	0.08783393
32	0xbdd80671	-0.105481036
33	0x3c6a891d	0.014314917
34	0x3e710db8	0.2354039
35	0xbd22f40a	-0.039783515
36	0xba9db002	-0.0012030604
37	0xbd023915	-0.03179272
38	0x3d0a1869	0.033714686
39	0xbdfd8cfc	-0.12380406
40	0x3db65f44	0.08904889
41	0xbbf34aa3	-0.007424669
42	0xbc0cc2ed	-0.008591396
43	0xbdbd08db	-0.09230205
44	0x3de31b52	0.11089195
45	0x3b981cf1	0.004642122
46	0xbe08ad68	-0.13347399
47	0xbe024c4f	-0.12724422
48	0xbbc31091	-0.0059529026
49	0xbdbd70f4	-0.0925006
50	0xbe105e00	-0.14098358
51	0xbd70677a	-0.058692433
52	0x3ce9b503	0.028528696
53	0x3d99813a	0.07495351
54	0xbd1cfe8f	-0.038328703
55	0x3de4a4cf	0.11164247
56	0xbcb6312f	-0.02224025
57	0x3cd78491	0.02630833
58	0x3e801844	0.25018513
59	0xbd92f7da	-0.0717618
60	0xbe1133bd	-0.14179893
61	0x3dd5a8b3	0.104325674
62	0xbdf74432	-0.12073554
63	0xbc9f8703	-0.019473558
64	0x3d409581	0.047017578
65	0x3df95ed9	0.12176294
66	0x3c956c93	0.018240249
67	0x3d543e32	0.051817127
68	0xbd8cb5b6	-0.06870596
69	0x3db09175	0.08621494
70	0xbdb195d7	-0.08671158
71	0xbca5c040	-0.020233274
72	0xbd23bd02	-0.039975174
73	0x3c75de86	0.015006667
74	0x3d08a030	0.03335589
75	0xbd96b3fe	-0.073585495
76	0xbe0cdb2f	-0.13755487
77	0xbdeca727	-0.11555319
78	0xbc865a22	-0.0164004
79	0x3e1caa0e	0.15299246
80	0xbddadec2	-0.10687019
81	0xbd8fee66	-0.07027893
82	0x3e3f0c8f	0.18657134
83	0x3d512241	0.051058058
84	0xbbd96fbc	-0.006635634
85	0x3dd973dd	0.10617802
86	0xbd3d45d5	-0.046209175
87	0x3e056a37	0.13028799
88	0x3e0274e9	0.1273991
89	0x3cac7ebc	0.021056525
90	0xbd2cf279	-0.042223427
91	0x3eae2bcf	0.34017798
92	0xbd929b89	-0.07158572
93	0xbd15007d	-0.03637742
94	0xbe454e51	-0.19268157
95	0x3c8984fc	0.016787045
96	0x3d92211f	0.071352236
97	0xbd0f0435	-0.03491612
98	0x3e01195a	0.12607327
99	0x3e09c5db	0.13454382
100	0xbe05efdb	-0.13079779
101	0xbdb84d6a	-0.089991406
102	0x3de29a67	0.11064606
103	0xbe276ba9	-0.16349663
104	0xbdee8ae0	-0.11647582
105	0x3c0f6e44	0.008754317
106	0x3d2f9095	0.042862494
107	0xbd7cf5b7	-0.06175777
108	0x3d0845cd	0.033269692
109	0xbe839b8d	-0.25704613
110	0x3e000743	0.1250277
111	0xbc746612	-0.014916914
112	0xbd270f6d	-0.040786196
113	0x3c981534	0.018564798
114	0xbdd2ddc7	-0.10296207
115	0xbd87eb70	-0.06636703
116	0x3d4a9732	0.049460597
117	0x3d109f52	0.03530819
118	0xbd3c9ce9	-0.04604808
119	0xbc9ce22a	-0.019150812
120	0x3dd13f1d	0.10217116
121	0xbd5a1b61	-0.053248767
122	0x3d13353b	0.035939436
123	0x3d481a86	0.04885342
124	0x3df651ce	0.12027322
125	0x3dcaf34c	0.099096864
126	0xbd184bb6	-0.03718158
127	0xbe3174b3	-0.17329673
128	0xbda797d1	-0.081832536
129	0xbce4438b	-0.027864238
130	0xb94e10fa	-0.00019652015
131	0x3d93e2b4	0.072209746
132	0xbda58513	-0.080820225
133	0xbe5ebabf	-0.21750925
134	0xbe06a2bf	-0.1314802
135	0xbd092297	-0.033480253
136	0xbd46d904	-0.048546806
137	0x3d7643eb	0.060123365
138	0xbcf6e77e	-0.030139681
139	0x3d156691	0.036474768
140	0xbc0364ae	-0.008019609
141	0x3dc3763f	0.09544038
142	0xbd93afdd	-0.07211278
143	0x3d84b7cd	0.0648037
144	0xbca46be1	-0.020070972
145	0x3d2719ee	0.040796213
146	0xbd6d391b	-0.05791579
147	0xbd96cf6e	-0.07363783
148	0xbe31d3ff	-0.17366026
149	0x3d9d67a1	0.07685781
150	0xbd23a056	-0.03994783
151	0x3dd36172	0.103213206
152	0x3e10eb1f	0.14152192
153	0xbd433b55	-0.047664005
154	0x3d098e5c	0.03358303
155	0xbd242ecf	-0.040083703
156	0x3dc1f96c	0.094714016
157	0x3d2a8c0a	0.041637458
158	0xbc0ce2be	-0.008598981
159	0x3d1273a7	0.035754826
160	0xbe0501f5	-0.12989028
161	0xbdbe4376	-0.09290211
162	0x3df9ecb1	0.122033484
163	0x3c03aa33	0.008036184
164	0xbdb2fc67	-0.08739548
165	0x3e0b84db	0.13624899
166	0xbc6edb26	-0.014578616
167	0x3c011c80	0.00788033
168	0x3d6bd515	0.057576258
169	0x3e09ebc3	0.13468842
170	0xbc16cf64	-0.009204719
171	0xbd587dcd	-0.052854348
172	0x3df1016e	0.11767851
173	0x3de0bcea	0.109735325
174	0x3dda86d0	0.10670245
175	0x3e7dff89	0.2480451
176	0xbda2a152	-0.07940926
177	0xbe00a9e1	-0.12564804
178	0x3d6cbe72	0.05779881
179	0x3c858149	0.016297
180	0x3c08f2cd	0.0083586695
181	0xbb5df9d2	-0.0033870828
182	0xbd7760ca	-0.06039504
183	0xbe075461	-0.13215782
184	0x3e8e4357	0.2778575
185	0xbda3ee0c	-0.08004388
186	0x3dda9e03	0.106746696
187	0x3e31d720	0.1736722
188	0x3dc4f41d	0.096168734
189	0x3dd6d103	0.104890846
190	0xbdb2e4f6	-0.08735077
191	0x3dd2d008	0.10293585
192	0xbd3e3932	-0.046441264
193	0x3d91bd9b	0.071162425
194	0x3e0d1d43	0.13780694
195	0xbdf3e329	-0.11908562
196	0x3eab4769	0.3345292
197	0xbd905f22	-0.07049395
198	0xbd12bf2f	-0.035826858
199	0x3e461c14	0.19346648
200	0x3dcafee6	0.09911899
201	0x3d896d82	0.0671034
202	0x3be5dd61	0.007014916
203	0x3c39a83d	0.011331615
204	0x3d4e15e9	0.050313864
205	0xbc296f9f	-0.010341554
206	0xbdc50f3f	-0.096220486
207	0x3df4bee4	0.11950472
208	0x3dc2bcc8	0.095086634
209	0x3ddf495d	0.10902665
210	0x3d92afc5	0.07162432
211	0x3dc559a6	0.0963624
212	0xbc28f684	-0.01031268
213	0xbcdd99a8	-0.027050808
214	0x3d090bab	0.033458393
215	0xbe0575d2	-0.13033226
216	0x3d69edb5	0.05711146
217	0x3e8cdaf2	0.27510792
218	0xbdb521d6	-0.08844344
219	0x3e0d256f	0.13783811
220	0xbc602216	-0.013680002
221	0x3e067393	0.13130026
222	0xbe084241	-0.13306524
223	0x3d92c33a	0.07166143
224	0xbd3605a9	-0.04443899
225	0x3bfd2901	0.0077258353
226	0x3e942753	0.28936252
227	0xbdbe3198	-0.09286803
228	0xbc242f0e	-0.010020984
229	0xbd057a9a	-0.032587625
230	0x3dd17e82	0.102292076
231	0xbc8171c5	-0.01580132
232	0x3db87aa3	0.09007766
233	0xbd86d17e	-0.06582926
234	0x3d6f0ca7	0.058361676
235	0xbd96f3fb	-0.07370754
236	0x3dcccb67	0.099997334
237	0x3c7a6ebb	0.015285189
238	0x3e32ba1a	0.17453805
239	0xbdc21728	-0.09477073
240	0xbcdb49d2	-0.026768599
241	0x3dd8f812	0.10594191
242	0xbd8578d3	-0.06517186
243	0x3d70cedb	0.058791023
244	0x3d7e4a2a	0.062082447
245	0xbe032074	-0.12805349
246	0x3dae9e6b	0.085263096
247	0x3cf3f28c	0.029778741
248	0xbd35fb69	-0.044429217
249	0x3e087e89	0.1332952
250	0xbd5951b8	-0.05305645
251	0xbc5c176c	-0.013433319
252	0x3de61317	0.1123411
253	0x3854d74c	5.074525e-05
254	0xbe06e904	-0.13174826
255	0xbd93f5d1	-0.0722462

layer5.bn2.weight f4 [16]
0	0x3f4ee586	0.80818975
1	0x3f682a9e	0.9069003
2	0x3f73243c	0.94977164
3	0x3f7e7c47	0.9940838
4	0x3f74e696	0.95664346
5	0x3f86347d	1.0484768
6	0x3f77bf1a	0.9677597
7	0x3f78a616	0.9712843
8	0x3f6ca19b	0.9243409
9	0x3f817ae3	1.0115627
10	0x3f84f808	1.0388193
11	0x3f7fb539	0.998859
12	0x3f762f16	0.961656
13	0x3f7405a0	0.95321083
14	0x3f85dc89	1.0457927
15	0x3f879ca4	1.0594678

layer5.bn2.bias f4 [16]
0	0xbced411b	-0.028961709
1	0x3cf1ba21	0.029507698
2	0xbde55e53	-0.111996315
3	0xbd7c0823	-0.061531197
4	0xbd96758c	-0.07346639
5	0x3c132f09	0.008983382
6	0xbd91cb35	-0.07118837
7	0xbd9e2f6f	-0.07723891
8	0xbd244542	-0.040105112
9	0xbdaae725	-0.083448686
10	0xbcdc0127	-0.026856018
11	0xbdd51e56	-0.10406177
12	0x3cb7b552	0.022425327
13	0xbe0704c6	-0.13185415
14	0xbb0f8e56	-0.0021904907
15	0x3c9c1336	0.01905213

layer5.bn2.running_mean f4 [16]
0	0x3eae6f90	0.3406949
1	0x3ea52648	0.3225577
2	0xbec08dbf	-0.37608144
3	0x3e8548e6	0.2603218
4	0x3f12e5af	0.5738172
5	0x3eb822ab	0.3596395
6	0xbef5f459	-0.48037985
7	0xbe97dabd	-0.29659072
8	0xbe447298	-0.19184339
9	0xbeeb8840	-0.46002388
10	0xbec796dd	-0.38982287
11	0xbf095704	-0.536484
12	0xbe6cf47a	-0.23140135
13	0xbe5cb0c9	-0.21551813
14	0xbed53ca9	-0.41647843
15	0xbeca3bfb	-0.39498886

layer5.bn2.running_var f4 [16]
0	0x3f0e19a5	0.5550788
1	0x3f716096	0.94288003
2	0x3f0d01a9	0.5508066
3	0x3f1faa2e	0.6236905
4	0x3f24d292	0.64383805
5	0x3f4900ce	0.7851685
6	0x3f7a2966	0.9771942
7	0x3ed2bf93	0.41161785
8	0x3f08be41	0.53415304
9	0x3ef91136	0.48645943
10	0x3f5be543	0.858967
11	0x3f97fede	1.1874654
12	0x3f3b9dcd	0.7328766
13	0x3e361bd3	0.17784052
14	0x3ec6820a	0.38771087
15	0x3f124e8f	0.5715112
