das_new - 副本/models/20260106_201050/final_model.pth (torch, 99530 bytes, 176 tensors)

input_conv.weight f4 [4, 1, 1, 3]
000000 40 c7 ec 3e 33 8c 9d bd 5b d3 c2 3e 04 8d 00 bf
       0.46245766 -0.076927565 0.38051876 -0.5021517
000010 cd f3 a9 be 1e 6e e0 be e8 60 34 be 72 20 7d be
       -0.33193818 -0.43834013 -0.17615092 -0.24719408
000020 87 6f 91 be 5f 2b 09 bf 6b c6 20 be 14 84 01 3e
       -0.284054 -0.53581804 -0.1570069 0.1264804

input_bn.weight f4 [4]
000000 62 27 b1 3f d8 1d 07 3f 46 19 62 3f 09 bd 8b 3f
       1.3840144 0.5277991 0.88319814 1.0917064

input_bn.bias f4 [4]
000000 f3 8d e8 3d 76 07 8f 3f 8f 5d 3d 3e f9 77 1b bd
       0.113552 1.1174152 0.18492721 -0.03795621

input_bn.running_mean f4 [4]
000000 02 02 ad 31 66 00 b7 32 5d 5b 89 32 e1 49 2b 32
       5.035191e-09 2.1304185e-08 1.5990446e-08 9.970308e-09

input_bn.running_var f4 [4]
000000 31 ea c1 3b be a8 e1 3d 67 4a 7a 3d 3d f2 c9 3c
       0.0059178104 0.11018513 0.06110611 0.024651641

layer1.conv1.weight f4 [4, 4, 1, 3]
000000 c2 91 b9 bc e5 87 1a 3e de 4f 2b 3e a1 46 49 be
       -0.02265251 0.15090902 0.16729686 -0.19655849
000010 62 72 ff 3e 7f 37 77 be dc 5a 8a be da 30 bb 3d
       0.49891955 -0.24142264 -0.27022445 0.09140177
000020 de 27 e5 bd c3 ee bc 3d 16 5a 04 be f7 e8 48 be
       -0.11189245 0.09225228 -0.1292499 -0.19620119
000030 3d 93 be bc 4e e5 b3 3c c6 3b eb bd be d0 ee bd
       -0.023263568 0.021959927 -0.1148601 -0.11660908
000040 30 a5 70 3f c0 47 44 3d 32 10 45 be a6 37 34 bd
       0.94002056 0.04791999 -0.1924446 -0.043998383
000050 63 f7 37 3e 3b 59 2e be c6 c0 14 3d 4d d4 07 be
       0.17965464 -0.17026226 0.036316656 -0.1326458
000060 fc 57 24 3e ce 6b 12 3e e0 1d 85 3e fd 2f 78 3e
       0.16049188 0.14298937 0.25999355 0.24237056
000070 93 b3 7f 3f 19 00 01 3d c6 8a 36 3e f0 27 fc 3e
       0.99883384 0.031494234 0.17826375 0.4924922
000080 7c 4d d5 3d b1 d5 fe bd fd 95 e8 3e 26 7c 3d 3e
       0.104151696 -0.12443102 0.45426932 0.1850439
000090 55 4c 88 bd 0f 4f 7f 3e bc a3 79 3e f0 1e 87 3d
       -0.06655184 0.24932502 0.24378866 0.06597698
0000a0 1e fe 1d 3e 4e 3a 75 3e 8f f0 3a 3e 15 0d bb 3e
       0.1542897 0.23948023 0.18255828 0.36533418
0000b0 f7 57 30 be 99 59 58 3e 25 bb 95 3d 54 ec a8 bd
       -0.17221056 0.21127929 0.073110856 -0.08248201

layer1.bn1.weight f4 [4]
000000 17 fe 4f 3f ea b8 06 3f 65 ce 50 3f 41 6e 80 3f
       0.81247085 0.52625906 0.81564933 1.0033647

layer1.bn1.bias f4 [4]
000000 30 6c b3 3e 04 b7 96 3f 5e d0 00 3f 2c 69 3f be
       0.35043478 1.1774602 0.50317943 -0.18692464

layer1.bn1.running_mean f4 [4]
000000 81 19 26 3f 8d 4d 89 3f 44 5e d0 3f 0d 2d 06 3f
       0.64882666 1.0726792 1.6278768 0.5241249

layer1.bn1.running_var f4 [4]
000000 8c d5 b6 3d 56 dd 50 3e 6a cd 47 3f f3 59 0e 3e
       0.089274496 0.20396933 0.7804781 0.139015

layer1.conv2.weight f4 [4, 4, 1, 3]
000000 3b a5 75 be bc 66 49 3c 3f 65 3e 3e 01 14 6b be
       -0.23988812 0.01229256 0.1859331 -0.2295685
000010 69 44 52 bf 43 62 52 3e 6d 42 35 3e bf fc 5a 3d
       -0.82135636 0.20545296 0.1770112 0.053463694
000020 45 62 e8 bd 14 4d 26 3c ea fa 31 bd 7d 57 1a 3d
       -0.113468684 0.010150213 -0.04345218 0.03768109
000030 4b c7 ec bd e0 06 72 be 0c c4 3b be 46 9d 39 3d
       -0.115614496 -0.23635435 -0.18336505 0.045316003
000040 d5 1f ee bd ca 33 48 be 88 1e 26 be 04 44 0d be
       -0.11627165 -0.19551006 -0.16222584 -0.13795477
000050 15 d3 f8 3d 3c 7c 4e be 4e a3 84 bb 69 5c 86 3e
       0.12149636 -0.20164579 -0.0040477877 0.26242378
000060 5d 37 28 3e 4c 94 eb bc 12 17 26 3e fd be f0 3d
       0.1642737 -0.028757237 0.16219738 0.11755178
000070 6b cf 76 3e 50 95 65 be 80 de 7d 3d f7 88 64 3e
       0.24102561 -0.2242024 0.06197977 0.22317873
000080 7d 25 8e 3e 1a cb 84 3e 3d 20 dc 3e dd 73 71 be
       0.27762976 0.25936204 0.42993346 -0.23579355
000090 9f e4 5f 3e 52 82 6b 3e de da 6e be eb 16 6e 3d
       0.21864556 0.22998932 -0.23325679 0.058127325
0000a0 3c 55 96 3e db 1d 2d 3e 66 55 ce bc dc e4 b5 3e
       0.29361904 0.1690592 -0.025187206 0.35526168
0000b0 0f e8 01 be 95 e4 65 3e a0 f0 d3 3e 75 07 38 be
       -0.1268618 0.22450478 0.4139452 -0.17971595

layer1.bn2.weight f4 [4]
000000 2e 3f 92 3f 60 c6 9b 3f ca 44 4f 3f f6 d2 a7 3f
       1.1425531 1.2169914 0.8096434 1.3111255

layer1.bn2.bias f4 [4]
000000 a3 69 64 3f 7f f6 09 bf b2 63 36 be ad e9 11 3e
       0.8922369 -0.5389175 -0.17811468 0.14249296

layer1.bn2.running_mean f4 [4]
000000 17 0a 71 bf d4 7d ba be f5 06 12 3f 84 5e 5c 3f
       -0.9415602 -0.36424124 0.57041866 0.8608172

layer1.bn2.running_var f4 [4]
000000 45 d2 27 3e 4d 17 84 3d c8 89 37 3e 23 c8 d3 3e
       0.16388805 0.06449757 0.17923653 0.4136363

layer1.fc1.weight f4 [1, 4]
000000 71 58 62 3e 20 32 88 be 3c ad fe be 85 74 87 3e
       0.2210405 -0.26600742 -0.49741542 0.26456085

layer1.fc2.weight f4 [4, 1]
000000 11 f4 6e bf de 07 71 bf df 5a 64 3f ff bd 48 bf
       -0.93341166 -0.9415263 0.8920116 -0.7841491

layer1.fc2.bias f4 [4]
000000 f6 2c e7 3f af 2f c5 3d c2 30 88 be 72 92 c2 be
       1.8060596 0.096282355 -0.265997 -0.38002354

layer1.shortcut.0.weight f4 [4, 4, 1, 1]
000000 93 86 5e bf b9 3c 7d be e6 35 87 be 59 35 59 bf
       -0.86924094 -0.24730195 -0.2640831 -0.8484703
000010 cf f0 c5 3e f7 f0 70 3e 39 c3 21 be ef f0 15 3e
       0.38660285 0.23529421 -0.15797128 0.1464269
000020 be e2 36 bf d5 41 01 3e d0 44 db be 6c f5 d5 be
       -0.7143973 0.12622769 -0.42825937 -0.41788805
000030 fd 8c 12 3f 48 95 be bd 7a df 2f 3e 9b 03 58 3e
       0.5724638 -0.09305817 0.17175093 0.21095125

layer1.shortcut.1.weight f4 [4]
000000 59 0c 8d 3e 64 2f 61 3f dc ed 9c 3f a4 2b a0 3f
       0.27548483 0.8796294 1.2260089 1.2513318

layer1.shortcut.1.bias f4 [4]
000000 ca 10 bd 3e f8 fc 00 be 5e 00 a2 bd 73 c3 a1 be
       0.36926872 -0.125965 -0.07910226 -0.31594428

layer1.shortcut.1.running_mean f4 [4]
000000 05 be a1 bf 96 8a f8 3e 7c df 26 bf a3 84 ce 3e
       -1.2636114 0.48543233 -0.6518476 0.4033557

layer1.shortcut.1.running_var f4 [4]
000000 0d a0 82 3f 8f 4e c0 3d 2d 07 e8 3e d1 7d 3b 3e
       1.0205094 0.09389984 0.45317975 0.18309714

layer2.conv1.weight f4 [4, 4, 1, 3]
000000 f3 b6 72 3e 65 8d 32 3d 18 55 80 3e 1d c4 2e bd
       0.23702602 0.043591876 0.2506492 -0.042667497
000010 95 ad 7b be 3b 2f 5f 3e 2c f3 8b be d9 48 94 be
       -0.24577935 0.2179536 -0.27333963 -0.28961828
000020 09 38 ee bd af f1 58 be 56 07 ef bf fa 4a 62 3e
       -0.116317816 -0.21185945 -1.8674114 0.22098914
000030 c5 8c 66 3e 41 b7 25 be 7b a1 14 be d7 22 84 3e
       0.22514637 -0.16183187 -0.14514725 0.2580783
000040 26 80 cc be 28 8b 9b 3d 1a cc 7d bd d9 62 20 3e
       -0.3994152 0.07594901 -0.061962225 0.15662707
000050 8f b6 10 be cd fb 19 3d 8e 04 05 3f e6 80 a9 3d
       -0.1413214 0.03759365 0.51960075 0.082765386
000060 2b 3a 4e 3e 74 45 2f bf 90 2e 87 be 42 1a 8b be
       0.20139377 -0.6846535 -0.26402712 -0.2716847
000070 96 15 9c 3e cd 80 09 bd a0 65 8a 3e 12 70 93 bd
       0.3048522 -0.0335701 0.2703066 -0.0719911
000080 f4 61 75 3e 94 83 8a 3d 18 7a 3f 3f 37 35 33 be
       0.23963147 0.06763378 0.74795675 -0.17500769
000090 a6 b7 0d be d6 c7 83 bf eb db 95 3d 36 1b 02 3e
       -0.13839588 -1.029536 0.07317337 0.12705693
0000a0 74 0f d3 bd c9 fe 37 3e 8e 99 12 3e 4d 76 95 3e
       -0.10305682 0.17968287 0.14316389 0.2919182
0000b0 76 d6 51 3e 17 1b 9c 3d 07 67 7c bf be 55 e2 3d
       0.20491967 0.076223545 -0.9859471 0.1105151

layer2.bn1.weight f4 [4]
000000 e3 e4 6b 3f 44 3e 86 3f cc 57 5b 3f 27 5b 91 3f
       0.9214613 1.0487752 0.8568084 1.1355942

layer2.bn1.bias f4 [4]
000000 ae ce 4e bd 73 ff fd bd 9d 50 5a be 00 cc 42 be
       -0.050490074 -0.12402239 -0.21319814 -0.19023132

layer2.bn1.running_mean f4 [4]
000000 2c a4 e9 bf 44 5d d3 3e 25 ad 50 3e 7e 37 d3 bf
       -1.8253226 0.41282094 0.2037855 -1.650131

layer2.bn1.running_var f4 [4]
000000 50 6e ce 40 18 43 19 3f 93 cd 01 40 24 e5 96 3f
       6.450966 0.59868 2.0281723 1.1788678

layer2.conv2.weight f4 [4, 4, 1, 3]
000000 8f 41 6e 3e 0c 13 64 3d e0 0c 43 3e 3a 66 81 3e
       0.23267196 0.055682227 0.1904788 0.25273305
000010 75 e3 13 3e 4f 60 97 3d 1d 0f 26 be b7 a5 20 3f
       0.14442237 0.07391416 -0.16216703 0.6275286
000020 60 e8 68 be b6 e0 10 3e 82 18 21 be ee 38 0b 3e
       -0.22744894 0.1414822 -0.15732005 0.13595936
000030 e3 37 0e 3e 59 5e cf 3d a5 3c 72 3d cc aa c1 3c
       0.13888507 0.10125417 0.059139866 0.023641013
000040 81 49 36 bf bc 54 88 be 5c 39 bd 3d 58 ca 04 bd
       -0.7120591 -0.26627147 0.09239456 -0.032419533
000050 45 5b 11 be c3 71 61 be ae dc 32 3f fe 7b 5e 3e
       -0.14194973 -0.22016053 0.6986798 0.21726987
000060 f2 07 e4 bc 30 9e 94 3f 06 54 24 3e c8 b4 6b be
       -0.02783582 1.1610775 0.16047677 -0.23018181
000070 81 7e bc be 5b db 98 3d 56 d7 3f 3d 7c 8f dd bc
       -0.36815265 0.07463714 0.04683622 -0.027045958
000080 72 69 ab bd d1 70 2f 3d 05 3d 8d be db 41 09 3e
       -0.083697215 0.0428322 -0.27585617 0.13404028
000090 f5 23 2d 3e 28 34 8f bd dc 0f 3c 3e b9 73 21 bb
       0.16908248 -0.0699237 0.18365425 -0.0024635626
0000a0 98 bb 86 3e b0 75 b3 bd 85 b6 70 be 75 39 2f bd
       0.26314998 -0.087626815 -0.23507126 -0.042779405
0000b0 7c 89 80 bd 03 e7 39 be 59 12 35 bf ab 9c 27 be
       -0.06276223 -0.1815453 -0.7073112 -0.16368358

layer2.bn2.weight f4 [4]
000000 68 8f 4a 3f ee db 67 3f 95 64 83 3f 8f 8f 0c 3f
       0.7912507 0.9056996 1.026507 0.54906553

layer2.bn2.bias f4 [4]
000000 c8 4d 83 bd f3 a4 98 3e a5 53 ad 3e 86 a0 55 be
       -0.0641132 0.29813346 0.33852878 -0.20862016

layer2.bn2.running_mean f4 [4]
000000 7e a0 4b 3e b6 c9 1a ba a5 f2 20 3e 81 23 46 be
       0.19885442 -0.0005904691 0.15717562 -0.19349481

layer2.bn2.running_var f4 [4]
000000 ff ec 3d 3e 84 99 08 3f 93 4f 7f 3e fa b9 32 3e
       0.18547438 0.53359246 0.24932699 0.17453757

layer2.fc1.weight f4 [1, 4]
000000 ba e7 50 3e a7 b4 4b be 09 df b9 3e fd 12 1b 3f
       0.20400897 -0.19893132 0.36302975 0.6057585

layer2.fc2.weight f4 [4, 1]
000000 f8 05 92 3d 26 55 03 3f 58 53 53 3f 3a 7c d6 3e
       0.07130045 0.513018 0.8254905 0.41891652

layer2.fc2.bias f4 [4]
000000 a1 30 a2 be 62 66 1d 3f c6 ea 47 bc 29 b5 58 bf
       -0.31677726 0.6148435 -0.01220197 -0.8465143

layer3.conv1.weight f4 [8, 4, 1, 3]
000000 25 21 7a 3e 1e 07 e1 3e 78 f6 6e 3e aa 44 88 be
       0.24426706 0.43950742 0.23336208 -0.26614887
000010 5a 8c 07 be d3 61 6c be 95 b7 2b be c0 1a 49 be
       -0.13237134 -0.23084192 -0.1676925 -0.1963911
000020 e7 19 8e be 25 a8 e1 bc 7d 44 53 bf 7e d7 79 3d
       -0.27754137 -0.027545998 -0.8252638 0.060996525
000030 5d 82 08 be 53 51 82 3d 10 15 97 3d 39 f5 06 be
       -0.1333098 0.063631676 0.07377064 -0.13179483
000040 c7 5a 5b 3d ed 82 cb bd 56 6a 4f 3e ee f6 42 3e
       0.05355337 -0.099370815 0.20255408 0.19039509
000050 be e0 4b 3d 41 c5 0c be 45 46 86 3f 24 fc 26 3c
       0.049774878 -0.13747121 1.0490195 0.010191951
000060 a5 ec 82 be 73 af 7c bd 33 09 ae bd 95 7b 66 be
       -0.2557117 -0.06169076 -0.08497848 -0.2250808
000070 9c 37 22 3b c0 81 bd 3c ca 35 28 be 01 ac 97 be
       0.0024752384 0.023133159 -0.16426769 -0.29623416
000080 1f af 14 be 20 40 4f be b1 a2 c7 3e 56 f4 89 be
       -0.14519928 -0.20239305 0.3899131 -0.26944226
000090 ad 5f 7f 3d f9 5c a8 3e 84 3f 71 be a9 dc f9 3d
       0.062347103 0.32883433 -0.23559386 0.12200291
0000a0 91 29 fc 3d a5 ce 5e 3d 00 05 db 3d ac bd 1f bf
       0.12312616 0.05439629 0.10694313 -0.6239879
0000b0 11 68 57 3c df fd 0f 3e 34 f2 b1 3e 49 94 6a be
       0.01314737 0.14061688 0.347551 -0.22908129
0000c0 5b 84 26 be 38 b4 c1 bd 8f 5d 77 be fb 6c c6 3d
       -0.16261427 -0.09458202 -0.24156784 0.09688755
0000d0 0f 81 47 3f 1e 25 31 bc 8f 28 a2 b9 e2 8f 90 be
       0.779313 -0.010812072 -0.00030929266 -0.28234774
0000e0 4f 44 43 3d d4 f5 13 be 37 64 9b bd 78 73 49 be
       0.047672566 -0.14449245 -0.07587474 -0.19672954
0000f0 1a b8 3e 3e 57 40 93 3d e7 a7 54 3e b9 c0 7d 3e
       0.18624917 0.07190006 0.20767175 0.24780549
000100 f9 da 43 bd fc 3e f4 bd e6 3b 55 be 8a 42 7a 3e
       -0.04781625 -0.11926076 -0.2082363 0.24439445
000110 1d ce 61 3e f2 b9 5d be 73 f1 9f be b2 3f 60 be
       0.22051282 -0.21652964 -0.312389 -0.21899298
000120 2d 54 8c be bb 89 69 3f 96 7d 8a be c5 5b a2 bd
       -0.2740797 0.91225785 -0.2704894 -0.0792766
000130 11 59 e7 be 01 c1 02 be bb a1 ae 3d fd ae 24 3f
       -0.4518514 -0.12768938 0.085269414 0.6432951
000140 5f 0b 7e be 4d b6 72 bd 0d e1 2d 3f e3 86 86 be
       -0.24809025 -0.059255887 0.67921525 -0.26274785
000150 54 3f 16 be 50 f0 c4 be 5e 1a e0 bd 28 36 87 3e
       -0.14672595 -0.38464594 -0.10942529 0.26408505
000160 09 1c cf 3e 81 ed 93 3d 45 bd 17 bd ec 44 e5 3e
       0.40451077 0.07223035 -0.037045736 0.44779146
000170 21 6d 10 bd eb ce 81 3e 49 b6 b3 be 6b 5f 2e be
       -0.035260323 0.25353178 -0.3510001 -0.17028587

layer3.bn1.weight f4 [8]
000000 9f 54 68 3f b3 1c 96 3f 9c e9 75 3f 86 7e 54 3f
       0.9075412 1.1727508 0.96059585 0.8300556
000010 ec b7 88 3f 79 1a 7b 3f 13 51 4b 3f 0a 93 78 3f
       1.0681129 0.9808727 0.79420584 0.97099364

layer3.bn1.bias f4 [8]
000000 d8 42 a0 bd 11 18 ad 3c 30 fd e4 3c 2d 23 d2 3c
       -0.078252494 0.02112964 0.02795276 0.025651539
000010 03 15 11 be c1 c6 37 3d 6c d7 40 bd 8f a3 88 bc
       -0.14168172 0.04486728 -0.047080442 -0.016679553

layer3.bn1.running_mean f4 [8]
000000 89 01 2f bf 2c 14 a2 3f a4 4d 3b 3e c6 fa 87 3e
       -0.6836172 1.2662406 0.18291336 0.26558512
000010 33 35 df bd 65 09 0d be 06 09 d3 3f 85 8e 8c be
       -0.10898819 -0.13773115 1.6487129 -0.27452484

layer3.bn1.running_var f4 [8]
000000 82 d1 a9 3f a5 00 1b 40 dd 2c 09 3f 82 0c 31 3f
       1.3267062 2.4219143 0.5358408 0.6915971
000010 be 1a e7 3d ed 49 ae 3e 2e e6 ef 3f 61 4b 47 3f
       0.112843975 0.34040776 1.874212 0.77849394

layer3.conv2.weight f4 [8, 8, 1, 3]
000000 38 aa 45 3e cf 1e 15 3d 3a e8 81 3d 72 22 be 3d
       0.19303215 0.036406334 0.06343122 0.09283914
000010 9f 12 88 be 73 76 44 be dd 8c d7 bd ad a6 a0 3c
       -0.26576707 -0.1918581 -0.105249144 0.019610727
000020 a3 7d 09 be b5 fa a6 3d 01 96 8d 3d 2a 6e 89 3c
       -0.13426833 0.08153287 0.069133766 0.016776163
000030 aa 7d 94 3c 25 29 cc 3e a1 d7 92 bd 7b eb d3 bc
       0.018126328 0.3987514 -0.07170034 -0.025869122
000040 b0 09 cd bd 18 13 ab 3d 9e 5e 26 3e 53 c9 10 be
       -0.10011613 0.08353251 0.16247031 -0.14139299
000050 d1 57 db 3d 89 79 3b 3e 6a b0 49 3e 89 f8 fa 3d
       0.10710109 0.1830808 0.19696203 0.122544356
000060 c7 af 6b bd 31 47 84 3e 5d 53 15 be 3e 80 8a 3d
       -0.05754068 0.25835565 -0.14582582 0.067627415
000070 5c 37 b7 be fa ca bb bd b7 4f 85 3d d7 76 1f 3d
       -0.35784423 -0.09169574 0.06509345 0.038931694
000080 7f cf fe 3c ff 5c 28 3d 2d 4e 93 bd aa cc 82 bb
       0.031104801 0.041104313 -0.07192645 -0.003991683
000090 75 99 21 3e 22 45 24 3e 56 17 12 3d cb 58 26 3d
       0.15781195 0.16041997 0.035666786 0.040612023
0000a0 d3 e5 61 be b5 b3 c8 3d c6 35 ba bd 49 15 ec be
       -0.22060327 0.097999014 -0.09092288 -0.4610999
0000b0 43 e5 42 bd a2 3f 25 be ff 43 83 3c 36 13 c7 bd
       -0.047581922 -0.16137555 0.016023634 -0.09720461
0000c0 2e 72 30 3e fd 0c 15 be 44 9c f7 3d 04 af 18 3e
       0.17231056 -0.14555736 0.12090352 0.14910513
0000d0 ae 7a 4c 3d 65 be 0e 3c cd 1f 6f bc a7 f9 f3 bd
       0.049921684 0.008712386 -0.014594984 -0.11912852
0000e0 94 4d e6 bd c7 49 1e be bc 8c bd bc 23 2f 23 be
       -0.112452656 -0.15457831 -0.023138396 -0.1593595
0000f0 8c bf 8b bc 59 2c 92 3e 08 bc 23 bc 9f bd 2c be
       -0.01705911 0.2854946 -0.009993561 -0.1686921
000100 ed 20 9b be cc 4b 8c bd 3c 2a 99 bd 4e 19 de bd
       -0.30298558 -0.068503946 -0.07478759 -0.1084467
000110 89 72 34 be 14 fd cc 3d 28 f5 40 3e a3 69 83 bd
       -0.17621817 0.10009208 0.1884352 -0.06416633
000120 a2 9c 0e be 91 82 18 3e 60 6c 03 be 1d fa e4 bc
       -0.13926938 0.14893557 -0.1283431 -0.027951295
000130 79 a6 89 be 0d a5 97 3d a3 e6 0c be 7e be 9c be
       -0.2688482 0.07404528 -0.13759856 -0.30614084
000140 84 9d 3e 3e 2a d1 b3 bc 59 19 ff bd eb 52 dc bd
       0.18614775 -0.021950323 -0.124560066 -0.10758003
000150 84 af 16 be 0f 48 66 3d c4 e3 26 be 7c b4 17 bc
       -0.14715391 0.056221064 -0.16297823 -0.009259339
000160 81 df af 3c ef 4d 25 3e 62 30 7c 3d 87 12 ea bd
       0.02146888 0.1614301 0.06156958 -0.11429315
000170 60 c4 84 3c 59 81 72 3d 55 2a 2b 3e a9 ba 15 3e
       0.01620692 0.059205387 0.16715367 0.14621986
000180 b0 0a 9f 3c 00 38 16 be 83 42 3b 3e dd c9 0e 3e
       0.019414276 -0.146698 0.18287091 0.13944192
000190 38 7d 91 3d ff cf ec bd f0 38 f7 bd d1 08 13 bd
       0.07103962 -0.115631096 -0.12071407 -0.03589708
0001a0 bc 08 fa 3d af 99 e1 bd 54 47 ce 3d d5 ca 92 bd
       0.12208697 -0.11015641 0.100721985 -0.071675934
0001b0 3c ee ff 3d 18 43 91 be ce 9e 4b 3c f0 a9 18 bd
       0.124966115 -0.283715 0.012427999 -0.03727144
0001c0 34 c9 f1 3c 16 8a 0f 3e 5a cd 27 be 23 b7 d2 3d
       0.029514886 0.1401752 -0.16386929 0.10288837
0001d0 dd b9 07 3e f2 3d 14 3e c8 56 bd be a4 45 81 bd
       0.13254495 0.14476755 -0.3698027 -0.06312111
0001e0 f1 fd 0b 3d 66 4f 45 be f0 aa 02 be 44 6f d6 bc
       0.034177724 -0.1926857 -0.1276052 -0.026176102
0001f0 2e 06 ad be 53 a8 8e bd c6 cd bd 3d 95 39 6f be
       -0.33793777 -0.06965699 0.09267764 -0.2336181
000200 51 3e 09 3c a1 b8 c8 bd 36 e3 46 be 99 10 0b be
       0.008376674 -0.0980084 -0.19422612 -0.1358055
000210 a6 a9 3d 3e 27 7b c2 3e d8 77 d2 bb 94 b6 00 3e
       0.18521747 0.37984583 -0.006422978 0.12569648
000220 c5 dd c7 3d 65 e3 89 bd 1e 31 44 3d 60 6d 64 be
       0.09759096 -0.06732825 0.047898404 -0.22307348
000230 73 9a 28 be bf 01 10 be 2b 11 07 3e 49 7b 44 bd
       -0.16465168 -0.14063166 0.13190143 -0.047969136
000240 b1 5f 31 be 6b df 7a 3d 95 cc 3e 3e 93 30 99 3d
       -0.1732166 0.061248224 0.1863273 0.07479968
000250 81 9d cd be c9 a3 32 3c 11 7d f0 3d ff 73 8b be
       -0.40159228 0.010903307 0.117426045 -0.27236935
000260 27 70 d2 3d af 7b 29 be 2c 42 2b be c7 cd 14 3d
       0.102752976 -0.16551088 -0.16724461 0.036329057
000270 da 9c 93 bd 2d 07 6c 3e e9 7d 8b 3d 29 21 47 bd
       -0.072076514 0.23049612 0.06811125 -0.04861561
000280 26 62 23 be a1 3c 59 3c 91 dc d4 bd 62 74 7b bd
       -0.1595541 0.013259084 -0.10393632 -0.06139029
000290 e8 33 bc 3c e6 fe b5 3c 51 f0 31 be 96 68 16 3d
       0.02297397 0.022216272 -0.1737683 0.036720835
0002a0 d9 c1 69 bd a7 10 18 be d8 40 51 bd e9 ee 21 be
       -0.057069633 -0.14850102 -0.05108723 -0.15813793
0002b0 f2 0d 07 3f 99 69 be 3d a3 eb 65 3d 0c df 93 3e
       0.52755654 0.09297485 0.056132924 0.2888111
0002c0 51 1a a6 3d 85 24 f2 bd 8c bd 01 3e ee 3e 86 3c
       0.08110488 -0.11823372 0.12669963 0.01638743
0002d0 a0 39 0e be 20 d6 9d be af ea 04 3e 89 15 0e 3d
       -0.1388917 -0.30827427 0.1298015 0.034688506
0002e0 5a 8e 90 be d2 c3 97 3d 9d 2b 47 bd cb d1 aa bd
       -0.28233606 0.07410397 -0.048625577 -0.08340796
0002f0 8a 2e 20 be 2a f1 b7 bd ba 25 de be 45 34 5d 3c
       -0.15642753 -0.08981545 -0.43388158 0.013501232

layer3.bn2.weight f4 [8]
000000 eb 4b 5c 3f 70 a8 6f 3f e5 5f 50 3f 33 c1 97 3f
       0.8605334 0.9361639 0.81396323 1.1855835
000010 37 b3 3e 3f 81 88 8c 3f 98 02 89 3f fb 8b b4 3f
       0.7449221 1.0979158 1.0703917 1.4105219

layer3.bn2.bias f4 [8]
000000 2c 2e a8 bd c5 23 86 bd 88 8a 99 bd ff e5 8a bc
       -0.082119316 -0.06549791 -0.07497126 -0.016955374
000010 7a 56 8d be 8e 96 af 3d ec 7b c0 bd 90 31 32 3f
       -0.2760504 0.08573638 -0.09398636 0.69606876

layer3.bn2.running_mean f4 [8]
000000 2c 21 77 3d 57 39 8a be 47 a6 8a bd 79 f4 48 be
       0.06033437 -0.26996872 -0.06769996 -0.19624509
000010 16 4b 52 be 2a d6 63 be 56 dd d7 be ba 00 84 bd
       -0.20536456 -0.22249666 -0.42161053 -0.06445451

layer3.bn2.running_var f4 [8]
000000 93 f7 55 3e a7 ff b1 3e dd 92 be 3d 7f 61 dc 3e
       0.20895223 0.3476536 0.09305356 0.43043134
000010 78 60 1f 3e 56 fc 2b 3f 0d f5 df 3e 08 83 83 3f
       0.15564144 0.6718191 0.43741646 1.0274363

layer3.fc1.weight f4 [2, 8]
000000 4e 7c 49 3e c6 39 fe bc 8f 49 c5 be 0e 0d 8e bd
       0.19676325 -0.031033408 -0.38532683 -0.06936084
000010 da 71 31 be d2 ed e7 bc cd fb 33 bd 84 33 09 3d
       -0.17328587 -0.028311644 -0.043941308 0.033496395
000020 91 e2 35 be ab 05 97 3e 8d e7 5b bd 04 b5 14 3f
       -0.1776221 0.29496512 -0.05368762 0.5808871
000030 8a 4e 80 be e2 c2 a7 3e d9 2c 16 3f 15 f4 3d 3f
       -0.2505992 0.3276587 0.5866218 0.74200565

layer3.fc1.bias f4 [2]
000000 72 b4 70 3d 88 18 95 3e
       0.058765836 0.29120278

layer3.fc2.weight f4 [8, 2]
000000 fd c1 25 be 67 bf aa 3d 90 25 be be b7 55 00 be
       -0.16187282 0.08337288 -0.37138033 -0.12532698
000010 0d 4c 27 bf aa 21 1f bf 14 20 2c bf 85 85 c3 be
       -0.6535042 -0.6216074 -0.6723645 -0.38187805
000020 13 4f 26 3e c0 88 00 3f 53 c4 64 3e e7 5a 54 be
       0.16241102 0.50208664 0.22340517 -0.20737801
000030 88 6b 26 3f ba ac 2a bf 66 8a 4f be 4a 25 8f 3f
       0.6500783 -0.6666981 -0.20267639 1.1183255

layer3.fc2.bias f4 [8]
000000 0f 9b 73 be d3 c4 f1 be 27 a6 10 3f 87 25 35 3e
       -0.23789619 -0.47220477 0.5650353 0.17690097
000010 a2 d0 6f 3d c5 fa 00 bf f7 31 f2 be 46 bb 0a 3f
       0.058548577 -0.50382644 -0.47303745 0.54192007

layer3.shortcut.0.weight f4 [8, 4, 1, 1]
000000 c9 b6 b2 bd aa f4 03 3f 5f 73 80 be 76 8a 79 bd
       -0.0872627 0.515452 -0.2508802 -0.060923062
000010 86 ba 98 be fe 77 1c be 3f e6 7f 3e 11 95 c7 3e
       -0.29829806 -0.15280148 0.24990176 0.38980916
000020 7b 09 47 3e 8b 7d 9a 3e ea 98 14 be ba c6 cc be
       0.1943721 0.30173907 -0.14511457 -0.39995366
000030 c9 2b 29 be cb 3f e5 3d 7d 89 bc 3e 3f 19 0a 3f
       -0.16520609 0.11193808 0.36823645 0.5394477
000040 d0 0b b5 3e 85 45 7f 3e d2 0f 22 3e e7 06 ef 3e
       0.35360575 0.24928863 0.15826347 0.46684954
000050 d8 bd 1e be e3 09 37 3f 01 c5 63 3e 2e c5 a6 be
       -0.15502107 0.7149946 0.2224312 -0.3257231
000060 88 56 31 bf 30 93 a4 39 b6 43 31 bf e5 b8 b1 3d
       -0.6927266 0.0003139018 -0.69243944 0.08677844
000070 eb 4b e1 bd e3 76 ae be a1 95 e7 bc e6 90 04 3f
       -0.11000808 -0.34075078 -0.02826959 0.517836

layer3.shortcut.1.weight f4 [8]
000000 d1 cc 3a 3f 41 22 92 3f d4 0d 69 3f 68 b6 58 3f
       0.72968775 1.1416703 0.91036725 0.8465333
000010 fc f0 59 3f 40 7d 79 3f 9f 8f 98 3f 48 8c 2f 3f
       0.8513334 0.9745674 1.191883 0.6857343

layer3.shortcut.1.bias f4 [8]
000000 b8 c8 90 be e6 3e 5f 3d 28 fd 11 be e9 9b 06 3d
       -0.28278136 0.054503344 -0.14256728 0.03286353
000010 05 d8 66 be 62 23 ef 3d 45 49 fa 3d f1 6d fa ba
       -0.22543342 0.116766706 0.12221006 -0.0019106251

layer3.shortcut.1.running_mean f4 [8]
000000 53 2f 0f be 35 75 95 3e 72 c9 8d be e0 31 30 3f
       -0.13982897 0.29190984 -0.27692753 0.68826103
000010 30 f9 68 3f b0 0d 04 be 28 27 57 bf 65 1b b2 3e
       0.9100523 -0.12895846 -0.8404412 0.34786525

layer3.shortcut.1.running_var f4 [8]
000000 b7 08 82 3d 28 be 84 3e 71 22 b5 3e 93 05 dc 3e
       0.063493185 0.25926328 0.3537784 0.42973003
000010 b0 09 07 3f 04 3d 17 3f e6 9c 24 3f a9 bb 3e 3f
       0.52749157 0.5907748 0.6430191 0.74505097

layer4.conv1.weight f4 [8, 8, 1, 3]
000000 67 a6 0f 3e c5 5a b9 bd 05 55 91 3d ff 52 0c be
       0.14028321 -0.09050516 0.07096294 -0.13703535
000010 74 ba 51 3e d3 08 44 3e 1b 4c aa bd 5f f1 93 bd
       0.20481282 0.19143991 -0.08315297 -0.07223772
000020 36 2d 84 3b 82 00 ce bd f3 d2 32 3e a4 1b 14 3d
       0.00403371 -0.100586906 0.17463283 0.036159173
000030 58 ae 36 3d 0e 11 96 bd cd e8 b3 bc 2d a4 1d bc
       0.04459986 -0.07327472 -0.021961594 -0.009621662
000040 7f 70 0a bf c8 85 3b 3e c9 c5 9a bd c4 5a de 3d
       -0.54077905 0.18312752 -0.07557256 0.10857156
000050 3d 99 26 be de a0 f5 bd 57 9d 06 3f 46 d0 a8 bc
       -0.16269393 -0.119935736 0.5258383 -0.020607125
000060 80 30 fd 3d de d0 a0 3e 78 74 3e 3d 15 67 f6 3d
       0.12362766 0.31409353 0.046497792 0.1203138
000070 72 f2 5a 3e 70 c4 07 be f2 c8 13 3e 8f fb 8c 3d
       0.21381548 -0.13258529 0.14432123 0.068839185
000080 95 ae c9 3d 18 c2 9d bc ef eb 52 be 9b 77 c2 3c
       0.09847752 -0.01925759 -0.20597814 0.023738673
000090 a5 d6 f8 bd f3 9b 1f be ee 75 3f 3e dd b9 3b be
       -0.12150315 -0.15586834 0.1869733 -0.1833262
0000a0 ac 21 84 3e b3 2f a2 3d 29 a4 36 3e 28 1b 7f bd
       0.2580694 0.07919254 0.1783606 -0.062281758
0000b0 3d 16 c2 bd 1d 74 6f bd 6e 1c e4 3d d7 97 35 bc
       -0.09476898 -0.058460344 0.11138235 -0.011083565
0000c0 ea ba e8 bd 5e 27 02 be ba 1a 04 be 84 52 cd bd
       -0.11363776 -0.1271033 -0.1290082 -0.10025504
0000d0 64 d1 a7 3d 1e 54 1b be 76 f1 95 3d db 5a 43 be
       0.08194235 -0.15168807 0.07321446 -0.19077627
0000e0 d8 71 1d be 3e 89 39 bb 9c 21 a4 bd 9c a1 bf 3d
       -0.15375459 -0.0028310562 -0.08014223 0.093569964
0000f0 d8 0f 16 3c ee 3b ee bd 82 09 24 3e 1d c6 88 bd
       0.009159051 -0.116325244 0.16019252 -0.06678412
000100 6b f3 35 bd 04 9c 1d 3d a5 1b 95 3d 2a 2a 08 be
       -0.044421595 0.038478866 0.072806634 -0.13297334
000110 bc 75 ca 3c 4b 7e 21 be 4c 06 9e be 37 7d 0a 3c
       0.024714343 -0.15770833 -0.3086418 0.008452705
000120 60 6b 6d bb 78 cc 1e 3e 84 34 a1 bd 03 6e 42 3d
       -0.003622733 0.15507686 -0.07871345 0.047468197
000130 2a 47 6d 3e cf 35 3e 3e a1 e0 07 3e 4e 56 08 be
       0.23171678 0.18575214 0.13269283 -0.13314173
000140 73 58 c2 bd 87 66 94 3c 54 9c c4 be 33 91 fd bd
       -0.094895266 0.018115295 -0.3840052 -0.1238121
000150 0b 25 35 be 78 58 bb 3d e9 76 bf bd fb 91 24 3d
       -0.17689912 0.091477334 -0.09348852 0.04017828
000160 0f 3a 5b be 14 69 91 3d 40 b8 64 3c 26 02 55 be
       -0.21408866 0.0710012 0.013959944 -0.20801601
000170 f9 90 c2 bd 14 8c 35 3e 8b 70 e6 3e ef 6d a1 3d
       -0.095003076 0.17729217 0.45007738 0.07882296
000180 f6 82 1e be 81 be 28 3e da d7 0a be 65 bd 1a 3e
       -0.15479645 0.16478921 -0.13558903 0.15111311
000190 2d 06 8a 3d 8d d5 29 3e 4e 03 17 3e d5 c2 58 3e
       0.06739459 0.1658537 0.14747354 0.21168073
0001a0 94 67 2e 3e 18 be 65 3c 56 49 cd 3d ab 57 94 3c
       0.170317 0.014022373 0.10023753 0.01810821
0001b0 c3 9e 63 3c 26 55 34 be f5 a6 11 be 08 4f 13 be
       0.013892832 -0.17610607 -0.14223845 -0.14385617
0001c0 9b d9 8e 3e bd 5f 0f 3e f4 50 45 3d a7 f5 6a be
       0.27900395 0.14001365 0.048172906 -0.22945271
0001d0 87 8c e9 3d 02 60 cc bd f8 75 43 be a8 9f de bd
       0.114037566 -0.099792495 -0.1908797 -0.10870296
0001e0 2f 85 29 be f0 30 e1 3e e8 05 a3 bc 04 98 c6 bd
       -0.16554712 0.4398265 -0.019900277 -0.096969634
0001f0 cf d0 68 3d ef 5a 2d bd 41 4d 44 3e d1 6a f8 3e
       0.05683976 -0.04232305 0.19170095 0.48518994
000200 f4 0b 2f 3e 13 b9 2c 3c 39 29 9e 3e 5a 00 e1 bd
       0.17094404 0.010542172 0.30890825 -0.10986395
000210 8d 41 d9 bd 80 0b 29 3d a7 e9 22 3e f9 ae 74 3d
       -0.10608206 0.041270733 0.15909444 0.05973718
000220 f1 7d 68 bb c9 f9 38 3e 6e dd 41 be aa 74 4d 3e
       -0.0035475458 0.18064035 -0.18932125 0.20064035
000230 56 1e 19 bd da fc 46 3e 40 11 f8 3c fd 66 86 bc
       -0.037382446 0.19432393 0.030281663 -0.01640653
000240 be d7 38 3e 16 ed 1e be 62 31 47 be ca 04 de bd
       0.18051049 -0.15520129 -0.19452432 -0.10840757
000250 48 f2 ef 3d 3d 07 5f ba 40 40 37 be 12 30 c1 3d
       0.11716133 -0.00085078535 -0.17895603 0.09432997
000260 9d e2 e5 3d 7b 26 ac 3d 0c 13 2f 3e 0c 40 41 3e
       0.11224864 0.08405777 0.1709711 0.18872088
000270 c0 47 06 3e 14 13 44 3c dc b4 9b bd 5b 92 1b 3d
       0.13113308 0.011967439 -0.076028556 0.037981372
000280 ac ea 01 be f2 3a b0 bd 9f fc c4 bc b2 3d 17 bd
       -0.12687176 -0.08604993 -0.02404624 -0.03692407
000290 42 bb dc bd 2d d6 15 3c f7 4e 18 3f d8 78 ff 3d
       -0.10777904 0.009145302 0.5949549 0.12474221
0002a0 cc 51 34 be cd b5 3c be 8d ac e7 bc cd 2f c1 bc
       -0.17609328 -0.18428726 -0.02828052 -0.023582364
0002b0 97 5a 45 3d ea 44 bb bb b0 9b ba 3d 88 f3 5a be
       0.048182096 -0.0057150023 0.09111726 -0.21381962
0002c0 3d 4a ef 3c 64 ae 29 be 82 a0 92 3d d9 a0 14 3e
       0.029210204 -0.16570431 0.07159521 0.14514484
0002d0 33 fc 02 3e e2 5c ed 3d f2 a0 b8 bb 7d 6c e5 bd
       0.12791519 0.115899816 -0.0056344206 -0.11202333
0002e0 f1 89 0f be 4e b4 a6 bd f6 b5 21 be 25 32 78 be
       -0.14017464 -0.08139859 -0.15792069 -0.24237879
0002f0 9e 94 41 be 8a 75 4d bd 23 aa 66 3e f0 b7 09 3e
       -0.18904349 -0.050160922 0.2252584 0.13449073

layer4.bn1.weight f4 [8]
000000 c0 da 84 3f 2b e0 71 3f 6a 10 6f 3f d0 21 81 3f
       1.0379257 0.9448268 0.9338442 1.0088444
000010 78 f6 74 3f b4 de 6f 3f cf 25 6e 3f 2e a9 75 3f
       0.9568858 0.93699193 0.9302644 0.9596127

layer4.bn1.bias f4 [8]
000000 9e d8 c5 ba 24 f7 9b bd a8 be 6b bc 95 f8 af 3c
       -0.0015094464 -0.07615498 -0.014388718 0.021480838
000010 73 e2 b1 bd b5 47 a6 bd 2a 05 2e bd 0f 84 93 3d
       -0.0868577 -0.08119146 -0.042485394 0.072029226

layer4.bn1.running_mean f4 [8]
000000 03 6f 2e be b8 8e ca 3e ad 24 de be eb 50 f3 bc
       -0.17034535 0.3956201 -0.43387356 -0.02970167
000010 88 9c 0a 3e bc 52 14 3f 4a 7b 3a 3e 91 2b 8f be
       0.13536274 0.5793874 0.18211094 -0.27962926

layer4.bn1.running_var f4 [8]
000000 9f 31 48 3f 45 59 32 3e 53 90 14 3e 63 cc f9 3e
       0.78200716 0.17416866 0.1450818 0.48788747
000010 6d 58 a9 3e de f2 0f 3f ec f9 e1 3e 9e 4c ef 3e
       0.33075276 0.5622996 0.44135988 0.46738142

layer4.conv2.weight f4 [8, 8, 1, 3]
000000 77 0f 26 be c0 9e c1 3d 54 ff bf bd 7c 06 db bc
       -0.16216837 0.09454107 -0.09374872 -0.02673649
000010 66 f0 3d 3e df fc 7d 3d de 56 ac bd af 24 a3 bd
       0.18548736 0.062008735 -0.08415006 -0.07965981
000020 9d 0e 74 3d 47 bb 23 3e 65 6b 4b bd ad c8 46 be
       0.05958425 0.1598941 -0.049662966 -0.19412489
000030 87 1f 28 3e 52 1f 8a 3e b9 15 74 bd b6 0e 04 3e
       0.16418277 0.2697702 -0.05959103 0.12896237
000040 bd 46 93 3e fa 62 b6 b8 a6 28 f4 3d dc 9f 40 3e
       0.28764907 -8.696872e-05 0.119218156 0.18810982
000050 6a 3e f4 3d b4 0c 34 be 08 8f e7 bd 42 b1 ec 3d
       0.11925967 -0.17582971 -0.11306578 0.11557247
000060 86 d5 9d 3c e8 00 99 be 23 7d b4 bd 2a f8 cd bd
       0.019266855 -0.29883504 -0.088129304 -0.10057099
000070 c3 2f fc bd df ed 07 be 6c 9f e3 bb d0 2b 50 3e
       -0.12313797 -0.13274334 -0.006946495 0.20329213
000080 7e 16 20 be 60 b1 85 3c 0b 37 0d be 50 6e 61 bd
       -0.1563358 0.01631993 -0.13790528 -0.055036843
000090 c3 48 6f 3c b6 e7 92 bd 53 c1 d7 bd fa d8 79 3d
       0.01460475 -0.071731016 -0.105349205 0.06099794
0000a0 a9 ce c3 bd cc 20 57 bd 5b 99 a2 3d af 49 31 be
       -0.09560902 -0.052521512 0.079394065 -0.17313264
0000b0 75 ef a6 3c 43 73 3e be 06 c6 f5 3c 96 88 d1 bd
       0.020377854 -0.18598656 0.030001651 -0.1023113
0000c0 08 ff 98 3d 99 85 6b 3d 69 27 8a bd 2c 43 c5 3c
       0.07470518 0.057500456 -0.06745798 0.024079882
0000d0 38 7f 33 3d b8 35 57 3c bb 97 97 bd 3c 8e 8f bc
       0.043822497 0.013135366 -0.07401987 -0.017523877
0000e0 6d d3 21 3e 2b dc 46 3d 4b ef af 3e cd eb a2 3d
       0.15803309 0.048549812 0.34362254 0.07955132
0000f0 6a d2 2b be 29 ce 7f be 84 7f c8 3d aa 36 2b be
       -0.16779485 -0.24980988 0.09789947 -0.16720071
000100 07 fa 9f 3d 93 98 1c 3e e5 69 40 be 5d 47 36 be
       0.07811361 0.15292577 -0.18790396 -0.1780066
000110 de 4c 1a 3c c4 32 ed bc d8 45 ab 3e 23 60 9d bd
       0.009417741 -0.028954871 0.33451724 -0.07684352
000120 37 4e 24 3e ca 92 2e 3d e2 0c 44 3d d1 2b c2 3d
       0.16045462 0.042620458 0.04786385 0.094810136
000130 c3 08 8c 3e ba 28 0e 3e 16 7b 07 be 83 de 56 bd
       0.27350435 0.13882723 -0.13230547 -0.052458297
000140 c5 e2 41 be c9 28 89 3d 53 eb 42 be ad e9 87 3d
       -0.18934162 0.06697232 -0.19035082 0.06636367
000150 0a 08 89 b8 09 4f c9 3e a2 74 10 be cb dc 2e 3e
       -6.5341665e-05 0.39318112 -0.14106992 0.17076413
000160 98 88 52 3e 0c 1a 1b 3e ee b2 41 be 06 3f a0 3e
       0.20559919 0.15146655 -0.18915913 0.31298083
000170 66 11 16 3e a8 95 ce bd 20 7f 96 3e 85 35 43 bd
       0.14655074 -0.100871384 0.29393864 -0.047658462
000180 b9 99 0d be 52 02 64 be 58 74 ae 3d 6a 5f 96 3d
       -0.13828172 -0.2226651 0.085182846 0.073424175
000190 7d cd 16 3e cb 86 1e be de b1 b6 bd c0 8b 79 be
       0.14726825 -0.15481107 -0.08920644 -0.24369717
0001a0 8e b3 18 3d 1f 74 a7 3d 26 a1 91 be bf d6 16 3e
       0.03728061 0.08176445 -0.2844326 0.14730357
0001b0 34 d4 0f be 0e 7e d4 3d f7 43 51 3d fc 1b c2 3b
       -0.14045793 0.103756055 0.051090207 0.005923746
0001c0 1f 32 46 3d 85 2c bb 3b cc c2 0a bc 2c 22 f0 bd
       0.048387643 0.0057120943 -0.008469295 -0.11725268
0001d0 1b 15 72 3d eb 71 bb bd 06 8c f5 bd 91 49 be bd
       0.05910216 -0.091525875 -0.11989598 -0.092913754
0001e0 6f a9 09 3e 82 bf 3c 3d 44 04 31 be a8 41 22 be
       0.1344354 0.046081074 -0.17286783 -0.15845358
0001f0 5b f4 88 be 72 6c d7 3d e6 fd 77 3d e7 80 e9 bd
       -0.26748928 0.10518731 0.06054487 -0.11401539
000200 cd 8d ac 3d ec a6 f3 bd 3b f7 86 3e fc 7e e7 3d
       0.08425484 -0.11897072 0.26360497 0.11303517
000210 a0 d7 50 3c dc 21 2a be be 38 53 3c 0e 9c 28 3e
       0.0127467215 -0.16614479 0.012891946 0.1646578
000220 51 6d 98 be c9 a2 97 bd ad 35 56 bd 3d 19 89 bd
       -0.29770902 -0.07404096 -0.052297283 -0.06694267
000230 02 bb 0a 3e 24 b3 48 3e 1d 41 94 bd c8 b4 31 be
       0.135479 0.19599587 -0.07238982 -0.17354119
000240 3a e1 41 be 3d 87 b6 3e b7 b9 09 be f1 5a 01 3e
       -0.18933573 0.35650054 -0.13449751 0.12632348
000250 1a 2d 03 be e1 c9 39 3d e6 86 d9 bd 2e b7 81 bd
       -0.12810174 0.045358542 -0.10621433 -0.06333767
000260 b8 81 cd bd 18 83 c2 bd ac 0d 78 3e 09 00 3b bc
       -0.100345075 -0.094976604 0.24223965 -0.011413583
000270 ea ab 8a 3d eb b4 c6 bd 43 e0 a1 bd 05 a6 1c 3e
       0.06771071 -0.09702476 -0.07904103 0.15297706
000280 03 e7 3c 3d ca 07 11 bc 7e 4b c5 bd 16 f1 be 3d
       0.046118747 -0.008851955 -0.096335396 0.09323327
000290 e8 cd 2f be 8f cd a5 bd e7 26 66 3e 31 8e 35 3d
       -0.17168391 -0.08095848 0.22475778 0.044325057
0002a0 68 6f de bd 4f 24 ad 3e d5 32 98 bc 83 12 00 3e
       -0.10861093 0.33816764 -0.018578926 0.12507062
0002b0 b8 f0 86 3c 9f d0 fc 3d 65 9b b5 3d b0 7c 57 3d
       0.016472206 0.12344479 0.0886753 0.052609146
0002c0 99 bf bd bd 3f c1 ba bd a8 59 97 3e 3f 18 0c bd
       -0.0926506 -0.0911889 0.2956059 -0.03420281
0002d0 20 37 44 3c 52 8d dd bd a4 9b 74 3d b3 4d 48 3e
       0.011976033 -0.1081797 0.059718743 0.1956089
0002e0 ef c8 f0 3c d0 df 56 3b 76 39 0f 3d 79 46 ba 3e
       0.029392688 0.0032787211 0.03496691 0.3638189
0002f0 07 70 14 3e 1d 41 31 3d df 2a 01 3e 97 b1 b7 bd
       0.1449586 0.043274987 0.1261401 -0.089694194

layer4.bn2.weight f4 [8]
000000 48 27 7e 3f 46 71 4f 3f b2 d6 77 3f 17 6f 5c 3f
       0.9927869 0.81032217 0.96811974 0.8610701
000010 8c ce 7f 3f c0 d1 5a 3f bb ba 40 3f 21 3d 7b 3f
       0.9992454 0.85476303 0.7528493 0.9814015

layer4.bn2.bias f4 [8]
000000 56 75 a1 3d 89 3e a3 be 21 2c 62 bd 3b b5 fc bd
       0.07883708 -0.31883648 -0.055217866 -0.123392545
000010 36 d5 a7 bb ac ac 35 3e f3 d0 c6 3d 67 38 4b bd
       -0.0051218523 0.1774165 0.09707823 -0.049614336

layer4.bn2.running_mean f4 [8]
000000 8e c0 88 3e b5 7e 84 be 92 22 42 3e fb c2 e8 3e
       0.26709408 -0.2587792 0.189585 0.45461258
000010 d5 40 93 be b3 c0 63 be 5c c9 95 3e 20 09 e3 3e
       -0.287604 -0.22241478 0.29255188 0.443429

layer4.bn2.running_var f4 [8]
000000 b4 de 5b 3e 00 79 43 3e 6e c0 0f 3e 58 1f 7c 3e
       0.21471673 0.19089127 0.1403825 0.24621332
000010 d5 73 a4 3e 69 c7 87 3e 50 67 cd 3e 35 c5 0d 3f
       0.32119623 0.26519325 0.40117884 0.5537904

layer4.fc1.weight f4 [2, 8]
000000 d1 ec 7a be b9 37 22 3e 53 04 52 bd 22 ed 8c 3e
       -0.24504401 0.15841569 -0.051273655 0.27524668
000010 ca fd 3f 3c 43 4b 9c be d7 95 c5 bd 40 d8 58 3d
       0.011718223 -0.3052617 -0.0964772 0.052940607
000020 74 40 9b 3e 39 8e 19 3c 89 c4 92 be b6 75 89 3e
       0.3032261 0.009372287 -0.2866557 0.2684762
000030 19 d2 8e 3e f2 ed 78 be fe 5c 20 3e 6f 6e 1e be
       0.27894667 -0.24309519 0.15660474 -0.15471815

layer4.fc1.bias f4 [2]
000000 f3 8a 4a bd bb ee 67 3d
       -0.04944892 0.056624155

layer4.fc2.weight f4 [8, 2]
000000 68 9c bf be 0c 19 01 3b 32 d6 24 3f bf db 17 3e
       -0.37424016 0.0019698767 0.64389336 0.1482992
000010 ae 11 72 be e8 0c 1b bf db 46 09 be 30 a9 08 3f
       -0.23639557 -0.6056657 -0.13405935 0.5338316
000020 61 29 06 3f 0e f1 21 3f b7 c6 1d 3f 7b be f3 3d
       0.5240689 0.63258445 0.6163134 0.11901566
000030 bc 72 2a bf 10 6a 2d 3d 15 fa 9d be 8d 1d e1 be
       -0.6658132 0.042337477 -0.3085486 -0.43967858

layer4.fc2.bias f4 [8]
000000 b7 d5 03 3f 7b a0 13 3e 0b 6c e7 be 3b 1d d0 be
       0.5149798 0.14416687 -0.45199618 -0.406473
000010 e8 98 06 3f 7d c9 b8 be 8a d3 42 be ed 40 fe 3c
       0.52577066 -0.36091223 -0.19026008 0.031036818

layer5.conv1.weight f4 [16, 8, 1, 3]
000000 ae 98 c1 bb ae 1c ba bd 90 40 90 bd 89 6c be 3d
       -0.0059080934 -0.090875015 -0.07043564 0.09298045
000010 dc b3 eb bd 37 8e eb bb 6e 33 4d bd 2f 08 6f be
       -0.11508915 -0.007188584 -0.050097875 -0.23342966
000020 72 12 f7 bd 1e 63 1d be 22 63 de bd 74 46 5a 3b
       -0.12064065 -0.15369841 -0.10858752 0.0033306153
000030 c4 7b 78 3d fa 10 ca 3b 92 8d 3e 3e 48 b5 eb bd
       0.060664907 0.0061665745 0.18608692 -0.11509186
000040 f8 01 2d be 7e 03 e2 bd 1e 2a f8 3d da 88 a4 bd
       -0.16895282 -0.11035822 0.12117408 -0.08033915
000050 cf 53 1e 3e 23 20 31 3e e5 60 90 be d3 75 ea 3d
       0.15461658 0.17297415 -0.28198925 0.114482544
000060 56 a1 62 3d 20 e9 0f be 43 f5 fd bc bd 5e 3d be
       0.055329643 -0.14053774 -0.031000739 -0.18493171
000070 40 30 9b 3d 8f 02 e2 bd ba da 34 3b b0 e2 2f 3e
       0.07577562 -0.11035644 0.0027596192 0.17176318
000080 aa 34 91 bd 48 8b 2b 3e f9 23 93 3d 19 43 a3 bd
       -0.07090123 0.1675235 0.071845956 -0.07971782
000090 d2 61 bd bb f5 a6 80 bd 4b fc 57 3c 57 b7 39 3d
       -0.0057794834 -0.062818445 0.01318271 0.045340862
0000a0 7c 2e 8c bd d5 5a 27 3e e3 bc 94 3d 07 95 6f 3e
       -0.06844804 0.16343243 0.0726259 0.23396693
0000b0 04 31 b1 3d e6 b1 2c bd ce 4b af 3e 3a e5 49 bd
       0.08651927 -0.042161845 0.34237522 -0.049290873
0000c0 c7 bc 5d 3d 34 39 bd 3d 35 d4 44 3d 3b c4 b7 bd
       0.05413511 0.09239426 0.04805394 -0.08972975
0000d0 73 f6 c2 bb 84 c0 26 be 96 c2 38 3e 72 69 e3 3d
       -0.005949789 -0.16284376 0.18042979 0.111040965
0000e0 72 a4 37 bd 80 73 27 be ca 87 84 3e 8a 73 ab 3d
       -0.04483456 -0.16352654 0.2588485 0.08371647
0000f0 ad e7 cd bc ff 97 69 3e 7e c6 86 3d a6 e0 b8 3d
       -0.025134886 0.22811888 0.06580828 0.09027223
000100 8a 3a 29 bd d8 e9 e6 bc 00 ae 0e 3e 22 80 e2 3b
       -0.041315593 -0.028187677 0.13933563 0.0069122473
000110 a7 23 cc bd 40 a7 0f 3e 92 77 ea bd ec 0f bf bc
       -0.09967738 0.14028645 -0.114485875 -0.023323022
000120 04 b0 45 3d 08 23 89 be 76 d5 10 be c6 d9 3d 3e
       0.048263565 -0.2678454 -0.14143929 0.18540105
000130 be 85 0d 3e 9a 17 85 3d ba 4a 65 bd f6 f0 71 be
       0.1382055 0.06498642 -0.055979468 -0.23627076
000140 73 9d 87 3d ca e0 18 3e fe c7 8d bc 8c e9 df 3d
       0.06621828 0.149295 -0.017307278 0.109332174
000150 e4 38 84 ba c1 c3 85 bd 8f 21 98 bd cf f6 b3 3b
       -0.0010087756 -0.06531478 -0.07428276 0.0054920684
000160 8c 7b c7 bd d9 53 12 be 1b c3 85 3d 57 09 80 bd
       -0.097403616 -0.14289798 0.06531354 -0.062517814
000170 12 2b 26 3d 59 36 9a bd 4b ca b6 be 2f 14 40 be
       0.04056842 -0.07529897 -0.35701212 -0.187577
000180 56 c6 c2 3c a4 ca 1e 3e 05 ec 09 3d bc f9 40 3e
       0.023776215 0.15506989 0.03367235 0.18845266
000190 21 d3 0f 3d 94 40 cb bd 61 5c 06 bb 6d 02 ad 3d
       0.035113458 -0.09924427 -0.002050184 0.08447728
0001a0 78 6d 19 be d3 76 b6 3d 4c 6e a6 3e 3e 50 3d be
       -0.14983165 0.08909383 0.32506025 -0.18487641
0001b0 7e 38 54 bd fd 2f a9 3e 7d 7c 83 bc cd 39 2c 3e
       -0.051811688 0.33044425 -0.016050572 0.16818924
0001c0 6f 5f d3 3d 76 eb 60 bd cc f3 21 be 57 dc b5 bd
       0.10320937 -0.054912053 -0.15815657 -0.08879917
0001d0 f3 a6 bd bc 47 0b 9a bb d6 a6 56 3d 72 40 2a be
       -0.023150897 -0.0047010514 0.0524052 -0.16626146
0001e0 30 ec 79 bc 00 8a cf 3d 13 59 08 bd 5e 82 2b be
       -0.015254065 0.10133743 -0.033288073 -0.1674895
0001f0 e1 61 3a 3e 02 f8 e3 b9 22 69 33 3e 99 74 2a 3e
       0.182014 -0.00043481594 0.17520574 0.16646041
000200 7e d2 2d 3e 5b c6 9a bc 2c 1f 72 3e 3c 90 04 be
       0.16974828 -0.018893411 0.23644704 -0.12945646
000210 5f 66 45 be 2e f9 00 3e 34 6a 95 bd e7 68 95 3d
       -0.19277333 0.12595055 -0.07295647 0.07295399
000220 aa b2 30 bd 4a 94 e1 3d c8 98 23 bd e0 58 c2 3c
       -0.043139137 0.11014612 -0.039940625 0.02372402
000230 bc 6e 26 3e 5f e1 27 be e4 09 ba 3e bd 18 47 3e
       0.1625318 -0.16394566 0.3633567 0.1944303
000240 bf 17 eb bb 39 f8 91 be 81 d4 12 be 70 8b 14 bd
       -0.0071744616 -0.2850969 -0.14338876 -0.03626579
000250 a0 43 e9 3d eb 04 b2 3d 16 94 c6 bc be 18 81 3e
       0.113898516 0.08692344 -0.024240535 0.2521419
000260 6e 3e 49 bd b5 95 25 be 36 59 c1 3d a6 69 f9 bd
       -0.049131803 -0.1617039 0.09440844 -0.12178354
000270 23 b2 fb 3c a8 b3 d5 bd 55 2f 18 be 95 2b 46 3c
       0.03072459 -0.10434657 -0.14861806 0.012095352
000280 5e 70 0b be d9 60 dc bd f6 0a 3f be 70 72 9b 3d
       -0.13617083 -0.1076066 -0.18656525 0.075901866
000290 86 a6 5e 3d f9 79 25 3c 23 72 21 3e 36 42 07 be
       0.054358028 0.010099881 0.15766196 -0.13208851
0002a0 5f 4f bc 3d 47 9c 48 bd 12 13 1f 3e d8 2d 21 3e
       0.09194826 -0.048977163 0.15534618 0.15740144
0002b0 ca 9a 74 bd 99 72 af bc 99 e0 30 3c 5e 9c 69 3b
       -0.05971793 -0.02141695 0.010795736 0.003564618
0002c0 06 f2 44 3e 1c 98 e5 3d da a0 e4 bd 92 68 a4 3d
       0.1923295 0.11210653 -0.111634925 0.08027758
0002d0 de ab c9 3d 1b 13 44 be 1a 1c 45 3e 3c 4b 15 be
       0.09847234 -0.19147913 0.19249001 -0.14579481
0002e0 4c 51 77 3d 16 77 f3 bc 62 af 24 be 1a db 4d be
       0.060380265 -0.02971987 -0.16082528 -0.20103112
0002f0 53 ca ee 3c 61 9f 36 3c e5 38 bd 3d 12 e2 af 3c
       0.02914921 0.011146397 0.092393674 0.021470103
000300 67 f0 33 bd 55 dc bb 3e 20 80 c5 bd 7a d4 1e 3e
       -0.043930437 0.36691537 -0.096435785 0.15510741
000310 24 23 a7 bd 8c cb 20 bd 0f c3 51 3d 07 12 31 3e
       -0.081609994 -0.039256617 0.051211413 0.17292033
000320 bc 40 15 3d 90 9a 30 3e ec b6 d1 3d d4 e5 cf 3c
       0.03643869 0.17246461 0.10239968 0.025378145
000330 70 d0 d9 3d 71 25 10 bd d2 90 31 3e e9 37 a1 3d
       0.106354594 -0.035191957 0.17340401 0.07871992
000340 db f2 02 3d 71 2e 0c 3e 82 54 19 bc 0c 4f e5 3d
       0.031969886 0.13689591 -0.009358527 0.111967176
000350 51 6f ea bd e8 c4 37 bc a8 57 b2 3e ca 0d 2f be
       -0.11447013 -0.01121638 0.348325 -0.17095104
000360 ac d8 aa bc 09 dd fe bc 54 94 25 bd cd 7a f3 3d
       -0.02085527 -0.031111257 -0.04042466 0.11888657
000370 5d 93 82 3e c3 bb 08 3d f6 fe e2 3d c1 c0 03 be
       0.25503054 0.03338219 0.11083786 -0.12866499
000380 96 d8 aa bd 9e 5f 44 3d 5f 77 90 bc f3 97 95 bd
       -0.08342092 0.04794275 -0.017635046 -0.07304373
000390 c5 59 71 bd 94 0d 22 be 75 9b ad bc 28 0f 36 be
       -0.0589235 -0.15825492 -0.021192292 -0.17779219
0003a0 cc a1 a0 3c 77 d7 ca bd eb 7d 20 3e 32 ee 84 be
       0.0196084 -0.09904378 0.15673034 -0.2596298
0003b0 b4 f3 07 be db a7 b1 3d 2e ce 93 3d a9 27 96 3d
       -0.13276559 0.08674594 0.0721706 0.07331783
0003c0 04 eb dc bb ed 23 70 3e 20 c6 0b be 26 c9 94 bc
       -0.0067418832 0.23451205 -0.13649797 -0.018162321
0003d0 58 1d c5 bd 5f 9e 10 be 39 82 71 bd e3 e7 03 3e
       -0.096247375 -0.14122914 -0.05896208 0.12881427
0003e0 75 d2 b6 3d 03 58 22 be bf c9 24 3e b2 de f3 3d
       0.0892686 -0.15853886 0.16092585 0.1190771
0003f0 fe 3e ac bd 76 d9 48 3e c0 8b fc bd 35 9c 8b bd
       -0.08410452 0.19614205 -0.12331343 -0.068169035

layer5.bn1.weight f4 [16]
000000 47 e4 67 3f 98 c5 7f 3f 5f 11 74 3f 7f 83 5b 3f
       0.905827 0.9991088 0.95339006 0.8574752
000010 80 78 7d 3f 5f 98 73 3f 2d c8 61 3f 5b 08 69 3f
       0.99011993 0.95154375 0.8819607 0.91028374
000020 51 9c 86 3f df 31 75 3f 97 20 81 3f be 65 82 3f
       1.0516454 0.9577922 1.0088071 1.0187299
000030 51 4f 74 3f f3 5d 7b 3f 2a 54 7f 3f 92 57 76 3f
       0.9543353 0.9819023 0.997378 0.9622737

layer5.bn1.bias f4 [16]
000000 0a f9 04 bd b9 c0 40 3b 3d ca c7 bd b1 8c c4 bd
       -0.032464065 0.0029411747 -0.09755371 -0.09597147
000010 70 45 85 3c de 92 fd 3c 92 7f 8e bd 38 96 9e bd
       0.016268462 0.03095382 -0.06957926 -0.07743496
000020 d6 58 1d be f7 a6 06 bd 88 c0 4b bd 1b a3 92 bd
       -0.1536592 -0.032874074 -0.04974416 -0.07160016
000030 9c 92 29 3c e1 01 d6 bd 6a 68 27 bd 0d 4c 2f 3d
       0.010349896 -0.10449577 -0.04087106 0.042797137

layer5.bn1.running_mean f4 [16]
000000 59 f5 2d bf 6f fc c3 3e a4 45 1a 3e 5e d4 3b bf
       -0.67952496 0.3827853 0.15065628 -0.7337092
000010 8f a4 df 3e 21 1f 11 3f fe 67 87 bc 1f 33 31 be
       0.43680236 0.56688124 -0.01652908 -0.17304657
000020 e3 b7 3f 3f 77 e5 62 be 72 2c d2 3e 53 50 b8 3e
       0.74889964 -0.22157846 0.41049534 0.35998783
000030 31 c1 75 be 16 b6 a7 bc df d0 9e 3e ee 99 fb be
       -0.23999478 -0.020472568 0.3101873 -0.49140877

layer5.bn1.running_var f4 [16]
000000 d2 ee d9 3e 7b 65 23 3f f7 a2 52 3e 3f ab 38 3f
       0.42565018 0.6382672 0.20569979 0.721363
000010 ac 4f a5 3e 25 71 12 3f 62 bf b8 3e 99 cd ba 3d
       0.32287347 0.57203895 0.36083513 0.09121246
000020 67 7d 52 3f 9c b6 cb 3d 9c 87 b6 3e 96 e2 18 3f
       0.822226 0.09946939 0.35650337 0.5972074
000030 84 57 8a 3e 70 c5 30 3e ff 8a bc 3e 93 50 50 3e
       0.27019894 0.17262816 0.36824796 0.20343237
